Final Project/FacT-TT/caltech101_best.pt (torch, 581697 bytes, 76 tensors)

blocks.0.attn.q_FacTs.weight f4 [16, 16]
0.027723927 -0.13263132 0.22880666 0.12728554 -0.21807474 0.1343051 -0.030566996 0.23497452
0.034092065 0.13447177 -0.027758963 0.22490747 -0.005803425 0.16905665 -0.16978036 -0.106261514
-0.032978643 -0.37200388 0.0032640407 0.14307727 0.23023243 0.14711633 0.22414593 0.14168282
0.020429205 -0.03521839 0.11185568 0.08014298 0.03196569 -0.17742635 -0.31295684 -0.1665121
0.17485778 0.23755442 0.08585705 -0.10183456 0.20245738 -0.2049982 0.24015139 -0.27700338
-0.16684379 0.07149108 -0.03313721 0.029443698 -0.02830991 0.09766999 0.09293223 -0.20447436
0.26502866 0.22904797 -0.18088448 0.031072067 0.22208504 0.07217467 -0.22110605 -0.107226364
-0.14550073 -0.19543718 0.18556514 0.14267866 -0.20920266 -0.2845288 -0.11961861 -0.2636526
-0.045661658 -0.17180727 -0.03948376 -0.097105384 0.1299777 0.09665945 0.011909889 -0.1523085
-0.11110499 -0.2551819 0.1153477 0.047722194 0.21381497 0.14572693 -0.27516103 -0.18735598
0.09687723 0.06224008 -0.18906607 0.15668093 0.12415402 0.1135455 -0.061674193 0.068518125
0.033752184 0.04784375 -0.054231577 0.045328427 0.07137698 0.05362816 -0.14229129 -0.024286363
-0.22331715 0.2551078 -0.014050032 0.035822827 -0.017452518 0.023601208 -0.28080454 -0.17295691
0.13322729 -0.02217241 -0.06589811 -0.25270832 0.18200769 0.2695577 -0.18689674 0.26906908
0.08977647 -0.06964468 0.12698196 -0.078634664 -0.1194888 0.20989504 0.24726579 0.29333207
-0.24248396 0.11207686 -0.018964417 0.17439109 0.02228875 0.042465393 -0.14234026 -0.17690879
-0.10933408 0.054552212 -0.22803688 -0.16580689 -0.07013142 -0.09042079 -0.03897441 -0.26322612
0.16917084 0.2578882 0.052888546 0.062291034 0.15277645 0.025316373 0.28090772 0.17147171
0.071718186 -0.045195606 0.04608184 -0.026281197 -0.05365107 0.09528105 0.10223003 -0.13327236
-0.03914641 -0.1121436 -0.0966683 0.22714809 -0.17010334 -0.12261808 0.18838674 0.12099832
0.19642822 0.007761852 0.10113552 0.14207378 -0.031984005 -0.19372107 0.068877 -0.33055297
-0.07659391 0.19932054 0.15749039 0.037961826 -0.24627149 -0.08706521 0.27650008 -0.0015389414
-0.07559923 -0.057983503 0.21515845 0.0058448333 0.06801694 0.12779179 -0.10936548 0.21458587
0.09322766 -0.08438703 -0.011922432 -0.032415107 0.030178398 -0.15621936 -0.28756014 0.19944756
-0.13885318 -0.0072827805 0.05249271 -0.10671534 0.075091936 0.11222203 -0.025319168 -0.120270945
0.24453917 -0.2329355 -0.065613836 -0.036078334 -0.100495644 0.16142511 -0.14261518 -0.10200743
0.025584992 -0.14156103 0.07030526 0.2040482 -0.19349225 -0.0061605126 -0.07272307 -0.23978242
-0.057151135 -0.09341411 0.07262013 -0.22707123 0.12846671 0.18104798 -0.026361763 0.17005922
0.15498991 -0.027397204 -0.14038832 0.06285826 -0.09400014 -0.10122621 -0.19626355 -0.1809176
-0.099772364 -0.29762003 -0.36956775 0.13307677 0.11560673 -0.030269818 -0.072184436 0.2639825
0.03182538 0.109756045 0.034019366 0.068538986 -0.11011033 -0.18218312 -0.14956486 0.047232524
-0.06536852 0.21203332 0.049526002 0.2416889 -0.21245691 -0.22465527 0.34158587 -0.22874339
00000000: 4a1d e33c 81d0 07be 4b4c 6a3e 2457 023e
00000010: fc4e 5fbe 4787 093e a367 fabc 299d 703e
00000020: 1fa4 0b3d f8b2 093e c466 e3bc 254e 663e
00000030: a82a bebb 301d 2d3e e7da 2dbe a39f d9bd
00000040: 9d14 07bd 4b77 bebe 84e9 553b d982 123e
00000050: 0dc2 6b3e aaa5 163e 8386 653e 4d15 113e
00000060: 265b a73c 2941 10bd 9714 e53d 0122 a43d
00000070: 75ee 023d 41af 35be e13b a0be 2682 2abe
00000080: eb0d 333e 7741 733e d2d5 af3d a38e d0bd
00000090: fd50 4f3e 0ceb 51be 3fea 753e 63d3 8dbe
000000a0: 19d9 2abe ea69 923d e2ba 07bd e933 f13c
000000b0: 2fea e7bc 3407 c83d 4153 be3d ba61 51be
000000c0: d6b1 873e 8d8b 6a3e c839 39be d98a fe3c
000000d0: 436a 633e 50d0 933d a069 62be 7f99 dbbd
000000e0: 25fe 14be af20 48be ca04 3e3e 5b1a 123e
000000f0: 3939 56be c2ad 91be 9afa f4bd 79fd 86be
00000100: b807 3bbd 3fee 2fbe b9b9 21bd 30df c6bd
00000110: e018 053e 64f5 c53d b221 433c c2f6 1bbe
00000120: 038b e3bd 34a7 82be 6a3b ec3d 5978 433d
00000130: 50f2 5a3e 7139 153e e8e1 8cbe 3fda 3fbe
00000140: 9267 c63d 74ef 7e3d 899a 41be f770 203e
00000150: 7644 fe3d 8b8a e83d 149e 7cbd 3b53 8c3d
00000160: bb3f 0a3d cff7 433d ee21 5ebd 4daa 393d
00000170: 182e 923d 34a9 5b3d cfb4 11be 32f4 c6bc
00000180: 40ad 64be 7d9d 823e 1b32 66bc f5ba 123d
00000190: 95f8 8ebc 5257 c13c 9dc5 8fbe 9e1b 31be
000001a0: bc6c 083e eaa2 b5bc 97f5 86bd fc62 81be
000001b0: 3960 3a3e 7803 8a3e dc61 3fbe 6cc3 893e
000001c0: badc b73d dfa1 8ebd 8f07 023e 360b a1bd
000001d0: 8bb6 f4bd baee 563e 3e33 7d3e 9f2f 963e
000001e0: b74d 78be 8e88 e53d 445b 9bbc 9493 323e
000001f0: e696 b63c 31f0 2d3d a5c1 11be 9427 35be
00000200: 8cea dfbd 2472 5f3d 8082 69be 48c9 29be
00000210: 10a1 8fbd 892e b9bd a2a3 1fbd 93c5 86be
00000220: 1f3b 2d3e ec09 843e a9a1 583d e224 7f3d
00000230: 6e71 1c3e 4864 cf3c 23d3 8f3e 4896 2f3e
00000240: fce0 923d 071f 39bd 50c0 3c3d aa4b d7bc
00000250: 39c1 5bbd b622 c33d fa5d d13d 8d78 08be
00000260: fc57 20bd 8bab e5bd 08fa c5bd 8299 683e
00000270: 922f 2ebe 301f fbbd 74e8 403e f8cd f73d
00000280: 7b24 493e 2257 fe3b 2420 cf3d ca7b 113e
00000290: a901 03bd d15e 46be 620f 8d3d 3d3e a9be
000002a0: 45dd 9cbd af1a 4c3e 2945 213e dc7d 1b3d
000002b0: 982e 7cbe 3f4f b2bd 6b91 8d3e 4eb6 c9ba
000002c0: c5d3 9abd 1c80 6dbd 7f52 5c3e 0486 bf3b
000002d0: 774c 8b3d dadb 023e 02fb dfbd 66bc 5b3e
000002e0: 25ee be3d 1bd3 acbd 4e56 43bc b4c5 04bd
000002f0: b038 f73c f8f7 1fbe 153b 93be fb3b 4c3e
00000300: 872f 0ebe 64a4 eebb 9902 573d 928d dabd
00000310: cdc9 993d aad4 e53d 256a cfbc 9d50 f6bd
00000320: 7a68 7a3e a586 6ebe 8c60 86bd e0c6 13bd
00000330: a9d0 cdbd a04c 253e b709 12be 45e9 d0bd
00000340: 9e97 d13c 60f5 10be 34fc 8f3d 03f2 503e
00000350: d522 46be 20de c9bb d5ef 94bd 8689 75be
00000360: 4f17 6abd e64f bfbd ddb9 943d 5c85 68be
00000370: c78c 033e a464 393e a0f4 d7bc 0124 2e3e
00000380: adb5 1e3e 1a70 e0bc f5c1 0fbe d5bb 803d
00000390: 2583 c0bd b04f cfbd 50f9 48be 7742 39be
000003a0: 7455 ccbd a761 98be fc37 bdbe 4745 083e
000003b0: 39c3 ec3d 69f8 f7bc 6fd5 93bd b728 873e
000003c0: 545b 023d c7c7 e03d e457 0b3d 2b5e 8c3d
000003d0: 8681 e1bd 368e 3abe 8827 19be e476 413d
000003e0: eedf 85bd 431f 593e c7db 4a3d 4c7d 773e
000003f0: 4e8e 59be 080c 66be 58e4 ae3e b53b 6abe

blocks.0.attn.k_FacTs.weight f4 [16, 16]
-0.37466362 0.020970633 -0.15149038 0.21186814 -0.25864217 0.29880565 -0.076772995 0.12284254
-0.16916047 -0.09338672 -0.0013266306 -0.42436078 0.23201191 0.24701408 -0.28044966 0.037634663
0.119981356 -0.10901836 -0.22095124 -0.26553655 0.14462622 -0.241147 -0.17281048 0.13151021
0.0862288 -0.21505019 -0.15769011 0.26015934 -0.15753032 0.105130255 0.006984868 0.21740183
0.0902795 0.057933822 0.12739037 -0.020427153 0.34074986 -0.29628587 0.2774008 -0.35948026
-0.13047712 0.23119177 -0.010603298 0.33988902 -0.35790512 -0.033703472 0.08903338 -0.2701773
-0.16607283 -0.05064268 -0.29170078 -0.17298742 0.1736063 0.020076903 -0.10928041 -0.27806902
0.013214524 -0.17362112 -0.12979703 -0.35917497 -0.023820428 0.04007226 -0.18648574 0.17623572
-0.0050248043 -0.26268807 -0.030042728 -0.1515501 0.08685576 -0.30819628 0.17833021 0.123587266
-0.089925125 0.056524027 -0.2711712 0.05105271 -0.1388412 -0.19909997 -0.21211049 -0.38541356
0.11705261 0.10768468 -0.14962809 0.2779629 0.14711724 -0.14046454 -0.1275467 -0.03959308
-0.30974478 0.2246329 -0.05672656 0.11715153 0.12714612 0.17806591 -0.17362629 -0.072079375
0.11369597 0.19890362 0.064520806 0.090812795 0.12745512 0.072517015 -0.21016517 0.3022127
-0.12660016 -0.2951053 -0.1741873 0.08420652 -0.09424652 0.25742808 -0.028913945 -0.105322845
-0.14733256 0.024967572 0.12619792 0.23520094 0.03891862 0.10338151 0.15046138 0.0028408717
-0.03636496 0.021459881 0.08492813 -0.24196655 -0.15290134 0.2013994 0.024149869 -0.2494676
0.077311516 -0.08392448 -0.16737364 0.07133762 -0.22601897 -0.023222847 0.15559174 -0.1989848
0.096984446 0.09880993 0.2463325 0.17336753 -0.15621844 0.20306268 0.30001798 0.12760411
0.099764735 -0.14395158 0.032699443 0.08290096 -0.06937346 0.24775101 -0.093030244 -0.1408386
-0.08751022 0.13434368 -0.12272831 -0.21954662 -0.23188882 -0.22319214 0.15786381 0.13807477
-0.32325482 -0.112451494 0.10234619 0.1875859 -0.12347463 0.13843131 0.24252486 -0.017215297
-0.03115726 0.24319829 0.26164827 -0.1773393 -0.06631932 -0.065249115 -0.009334273 0.10425528
0.01966974 0.008135361 0.26039508 0.07025673 0.028584952 -0.23152654 0.011398698 -0.07712338
-0.101909384 0.15495802 0.07190185 0.08018206 -0.1539582 -0.026485005 0.39942586 0.039872106
-0.09728093 -0.2137418 0.05470367 -0.067472324 -0.032044373 0.12670971 0.11582954 -0.036789484
-0.12874867 0.18367194 0.2500249 -0.1530955 0.1585029 0.1126115 0.107894234 0.19998908
-0.108429536 0.002424869 0.2302197 -0.22636941 -0.09495963 -0.0766968 -0.27669773 -0.21925236
0.17180234 0.18342906 0.07216491 -0.14805214 -0.15383928 0.16963011 0.16246727 0.18920796
0.05920536 0.24251366 -0.114437915 0.058699287 0.12714474 0.07825475 0.18496269 -0.12745425
-0.08740535 -0.15534765 -0.26904547 0.054906894 -0.1963798 -0.25218293 -0.017415851 0.2748531
-0.088710755 0.06112873 -0.13761206 0.08861823 -0.03435727 0.13637808 -0.34137365 0.260705
-0.09796251 -0.042094223 -0.3297001 -0.24379158 0.16571036 0.063675 0.051933303 -0.14740993
00000000: e9d3 bfbe 9bca ab3c 4b20 1bbe f6f3 583e
00000010: bf6c 84be 0efd 983e 293b 9dbd df94 fb3d
00000020: 6738 2dbe 8941 bfbd 56e2 adba d145 d9be
00000030: 8894 6d3e 42f1 7c3e 1997 8fbe ce26 1a3d
00000040: c9b8 f53d 0545 dfbd 0b41 62be 68f4 87be
00000050: e518 143e 3def 76be 3bf5 30be 9daa 063e
00000060: ba98 b03d 1e36 5cbe 8479 21be 9b33 853e
00000070: a14f 21be 884e d73d 52e1 e43b 969e 5e3e
00000080: 75e4 b83d 044c 6d3d 9f72 023e d856 a7bc
00000090: c476 ae3e c8b2 97be 7a07 8e3e cc0d b8be
000000a0: cb9b 05be 89bd 6c3e 75b9 2dbc ef05 ae3e
000000b0: 573f b7be a70c 0abd 2257 b63d ae54 8abe
000000c0: ff0e 2abe b36e 4fbd ce59 95be 9d23 31be
000000d0: dac5 313e 5178 a43c 68ce dfbd 105f 8ebe
000000e0: bb81 583c bcc9 31be 83e9 04be c8e5 b7be
000000f0: 0f23 c3bc cf22 243d 1ef6 3ebe 2377 343e
00000100: 1da7 a4bb 0d7f 86be 2b1c f6bc f32f 1bbe
00000110: 6fe1 b13d e7cb 9dbe 329c 363e 521b fd3d
00000120: aa2a b8bd bd85 673d f4d6 8abe a51c 513d
00000130: 632c 0ebe dde0 4bbe 7e33 59be ed54 c5be
00000140: 47b9 ef3d c989 dc3d 1b38 19be 2751 8e3e
00000150: e7a5 163e f0d5 0fbe 9a9b 02be 5a2c 22bd
00000160: de96 9ebe 2b06 663e 1c5a 68bd 24ed ef3d
00000170: 9832 023e e956 363e 17cb 31be 5a9e 93bd
00000180: 6fd9 e83d 64ad 4b3e 7c23 843d 0ffc b93d
00000190: 9883 023e cd83 943d 8a35 57be 9fbb 9a3e
000001a0: 79a3 01be 0b18 97be 285e 32be 7874 ac3d
000001b0: 5204 c1bd 9dcd 833e f0dc ecbc 81b3 d7bd
000001c0: 59de 16be cb88 cc3c 073a 013e 84d8 703e
000001d0: 2269 1f3d afb9 d33d 8c12 1a3e eb2d 3a3b
000001e0: 6df3 14bd a2cc af3c cdee ad3d 14c6 77be
000001f0: 2b92 1cbe a53b 4e3e f2d5 c53c 6f74 7fbe
00000200: 8055 9e3d 99e0 abbd ff63 2bbe 7519 923d
00000210: 8471 67be d73d bebc 7153 1f3e acc2 4bbe
00000220: c89f c63d dc5c ca3d 963e 7c3e 4287 313e
00000230: baf7 1fbe aaef 4f3e f59b 993e a7aa 023e
00000240: 7451 cc3d 0b68 13be daef 053d fbc7 a93d
00000250: ac13 8ebd 71b2 7d3e a486 bebd fe37 10be
00000260: 8f38 b3bd 6491 093e fb58 fbbd d4d0 60be
00000270: 4374 6dbe 7b8c 64be 0da7 213e 7963 0d3e
00000280: a881 a5be f84c e6bd e19a d13d 8516 403e
00000290: 44e0 fcbd f0c0 0d3e 7058 783e 1807 8dbc
000002a0: 833d ffbc f908 793e c3f6 853e 6f98 35be
000002b0: 6cd2 87bd 54a1 85bd c7ee 18bc cb83 d53d
000002c0: 6f22 a13c 2d4a 053c 8152 853e c3e2 8f3d
000002d0: fd2a ea3c 4b15 6dbe 9bc1 3a3c ddf2 9dbd
000002e0: deb5 d0bd 51ad 1e3e 4741 933d 7e36 a43d
000002f0: 38a7 1dbe 15f7 d8bc 8c81 cc3e ef50 233d
00000300: 393b c7bd 21df 5abe f510 603d ee2e 8abd
00000310: f640 03bd 31c0 013e 0a38 ed3d 92b0 16bd
00000320: b1d6 03be 7f14 3c3e 4403 803e 11c5 1cbe
00000330: 964e 223e dca0 e63d a7f7 dc3d f0c9 4c3e
00000340: 4e10 debd 8dea 1e3b b7be 6b3e 62cd 67be
00000350: 327a c2bd 3613 9dbd 53ab 8dbe b183 60be
00000360: f4ec 2f3e d4d4 3b3e 32cb 933d fb9a 17be
00000370: 0b88 1dbe 84b3 2d3e d25d 263e bbbf 413e
00000380: 5281 723d 8055 783e 6d5e eabd aa6e 703d
00000390: 3b32 023e 0744 a03d dc66 3d3e 5e83 02be
000003a0: 9301 b3bd 7413 1fbe 54c0 89be 0de6 603d
000003b0: c917 49be 1f1e 81be b0ab 8ebc 8cb9 8c3e
000003c0: fcad b5bd 1f62 7a3d 2dea 0cbe 797d b53d
000003d0: 35ba 0cbd b2a6 0b3e 87c8 aebe 207b 853e
000003e0: 92a0 c8bd fe6a 2cbd 74ce a8be 80a4 79be
000003f0: faaf 293e 0a68 823d 04b8 543d a1f2 16be

blocks.0.attn.v_FacTs.weight f4 [16, 16]
-0.08384197 0.23950312 -0.2341415 0.17462258 -0.28242943 0.12744834 0.18776429 -0.09974615
-0.102709934 0.21232902 0.1167284 0.1352111 -0.042594485 -0.030207299 0.051672127 0.06312178
-0.13178506 0.08839426 0.2373141 0.0475727 0.0039933124 -0.1765931 0.20482454 0.027246155
-0.014007947 -0.20047224 -0.050514724 0.16619684 0.13676047 0.1292052 -0.28015107 0.10524445
0.14583461 -0.070026964 0.044313733 -0.2558548 0.20557871 0.076779306 -0.14017735 0.08305412
0.07429814 0.10871106 -0.00016988185 -0.08007744 0.04909162 0.028382653 0.051925384 0.1542232
0.012423841 -0.14907654 0.10102109 0.023599582 0.15588485 -0.12659799 0.0085738795 -0.10652394
-0.18013978 -0.0020604206 -0.07146232 -0.14900354 0.20491214 -0.12714721 -0.17327507 0.106550746
-0.11344797 -0.14417489 0.00021674222 0.029182762 -0.19442406 0.11159617 -0.23150322 0.19469167
0.13990392 0.18224077 -0.06037774 -0.15418287 0.10767169 0.15001446 0.2211393 0.25103876
-0.18755968 -0.1876174 -0.15146016 0.22213595 -0.24536574 -0.0014935215 -0.09180301 -0.07758319
-0.02521131 -0.10269399 -0.002208846 -0.09456429 -0.16533616 0.09850833 -0.20121014 -0.19465363
0.020483285 0.060147963 -0.2309896 -0.10245962 0.14251967 -0.15295044 0.19419809 -0.17073758
-0.18775527 -0.13168569 -0.18109725 -0.2767115 0.30240712 0.06621404 0.045017146 0.22083145
0.12754394 0.07724185 -0.12058854 -0.22842947 -0.1812201 -0.20930237 -0.19449893 -0.14662929
0.087344654 -0.10249325 -0.16546305 0.113047354 0.11686803 -0.14127213 -0.069114834 0.11011978
-0.24861072 0.09060728 -0.03299609 0.06818858 -0.14530155 0.006539761 -0.1778553 0.024857499
-0.21816948 0.00036048295 0.13199939 -0.1511082 -0.05112712 -0.12668821 -0.008625922 -0.030523902
0.0052316952 0.15021294 0.12793608 -0.096573226 -0.16544725 0.010711754 -0.19133523 -0.19490513
-0.07772505 0.03277904 0.33970937 0.27435082 -0.12010846 0.07080424 0.27848056 0.053432267
-0.12919727 0.21153644 0.009347667 -0.04971085 -0.22931059 0.27078643 0.05894634 -0.088518836
0.07690559 0.15452535 0.1607586 -0.18356909 0.17094095 0.07115438 0.08818395 0.112080455
-0.04475681 0.15391088 0.059486553 -0.27380288 0.25447428 -0.1423206 0.09376066 -0.132637
0.25230956 0.20717126 0.03211166 0.22214709 -0.21594054 0.023953902 0.083603084 0.122323774
-0.23878962 -0.121771134 -0.24389741 0.17959489 -0.11744627 -0.13721761 -0.025722863 0.14508559
-0.24001399 -0.25948435 -0.059641298 -0.17887358 0.21373306 0.30390608 -0.162924 0.16343604
0.061145928 -0.14952624 0.14797075 -0.17706318 -0.26398963 -0.02433166 0.08570827 -0.28212878
-0.055471104 -0.023412965 0.18881606 0.07211579 0.12467442 0.000750576 0.23607151 -0.3205534
-0.13590345 0.21984474 -0.1951804 -0.019437686 -0.07394941 -0.24633382 0.13412741 0.3216982
-0.028539227 0.22703168 0.21972923 0.01388834 -0.09737334 -0.18476991 -0.0727602 -0.2220001
0.11695605 0.13500749 0.18302366 0.05697197 0.12263205 0.058973115 0.010732975 -0.008253153
0.19360647 -0.16453786 0.13186032 0.16246387 -0.13420191 0.2190461 -0.04421607 -0.1562652
00000000: 57b5 abbd 4e40 753e cac2 6fbe 43d0 323e
00000010: 979a 90be d181 023e 4845 403e b647 ccbd
00000020: 9659 d2bd c76c 593e 4d0f ef3d c774 0a3e
00000030: 8e77 2ebd 4c75 f7bc 27a6 533d fe45 813d
00000040: aaf2 06be 0d08 b53d 7802 733e 97db 423d
00000050: 55da 823b d2d4 34be 86bd 513e 5433 df3c
00000060: 9781 65bc 9848 4dbe 87e8 4ebd 812f 2a3e
00000070: f00a 0c3e 5e4e 043e f66f 8fbe 678a d73d
00000080: ab55 153e 4c6a 8fbd 5182 353d 66ff 82be
00000090: 3a83 523e 783e 9d3d a78a 0fbe 4718 aa3d
000000a0: a029 983d e7a3 de3d 5022 32b9 a4ff a3bd
000000b0: 4b14 493d bd82 e83c b6af 543d b0ec 1d3e
000000c0: 5e8d 4b3c 85a7 18be 25e4 ce3d e953 c13c
000000d0: 47a0 1f3e e7a2 01be 7579 0c3c 3929 dabd
000000e0: 9076 38be 1f08 07bb d65a 92bd 6294 18be
000000f0: 7dd4 513e e132 02be 056f 31be 4737 da3d
00000100: 6957 e8bd 95a2 13be 4c45 6339 b010 ef3c
00000110: 1a17 47be 888c e43d 2e0f 6dbe 415d 473e
00000120: f942 0f3e 539d 3a3e a64e 77bd 1de2 1dbe
00000130: fa82 dc3d 649d 193e 5772 623e 2788 803e
00000140: a50f 40be c71e 40be 5f18 1bbe 9b77 633e
00000150: 2841 7bbe 44c2 c3ba 3703 bcbd efe3 9ebd
00000160: f387 cebc 3a51 d2bd 49c2 10bb ecaa c1bd
00000170: e24d 29be bcbe c93d 080a 4ebe 4853 47be
00000180: 90cc a73c b65d 763d 8a88 6cbe 59d6 d1bd
00000190: adf0 113e 0a9f 1cbe dddb 463e d5d5 2ebe
000001a0: eb42 40be 9dd8 06be 8f71 39be 21ad 8dbe
000001b0: 1bd5 9a3e 3a9b 873d e663 383d a421 623e
000001c0: e19a 023e fa30 9e3d 20f7 f6bd 6ae9 69be
000001d0: c391 39be 5c53 56be ba2a 47be fd25 16be
000001e0: c1e1 b23d fbe7 d1bd 256f 29be 5f85 e73d
000001f0: 8158 ef3d a4a9 10be 148c 8dbd 7b86 e13d
00000200: cf93 7ebe 4f90 b93d e826 07bd 74a6 8b3d
00000210: eec9 14be 7e4b d63b b31f 36be f4a1 cb3c
00000220: d267 5fbe 34ff bc39 d92a 073e 1cbc 1abe
00000230: ac6a 51bd 8eba 01be bd53 0dbc 430d fabc
00000240: a46e ab3b 6cd1 193e ad01 033e 2fc8 c5bd
00000250: 016b 29be 5a80 2f3c 62ed 43be 3695 47be
00000260: 502e 9fbd 5143 063d 63ee ad3e b677 8c3e
00000270: 6dfb f5bd d001 913d 0195 8e3e cbdb 5a3d
00000280: 4a4c 04be 029d 583e f526 193c 9b9d 4bbd
00000290: 65d0 6abe 85a4 8a3e b871 713d 5d49 b5bd
000002a0: ae80 9d3d e53b 1e3e e79d 243e 89f9 3bbe
000002b0: 250b 2f3e 63b9 913d c999 b43d 708a e53d
000002c0: eb52 37bd d09a 1d3e 2ca8 733d e42f 8cbe
000002d0: 744a 823e 7ebc 11be 9705 c03d fed1 07be
000002e0: b82e 813e b424 543e 8487 033d 877a 633e
000002f0: 841f 5dbe f93a c43c 1838 ab3d e384 fa3d
00000300: 4485 74be 2563 f9bd 3ec0 79be b9e7 373e
00000310: ac87 f0bd c682 0cbe c1b8 d2bc 5191 143e
00000320: 3ac6 75be 22db 84be 6f4a 74bd a32a 37be
00000330: d7dc 5a3e 9499 9b3e 8dd5 26be c75b 273e
00000340: 2774 7a3d 681d 19be a585 173e 0d50 35be
00000350: a629 87be 3053 c7bc d187 af3d 2f73 90be
00000360: ab35 63bd 8ccc bfbc ff58 413e 71b1 933d
00000370: 4d55 ff3d 4dc2 443a bbbc 713e 931f a4be
00000380: 462a 0bbe fb1e 613e 5fdd 47be c83b 9fbc
00000390: ca72 97bd ef3e 7cbe b258 093e a0b5 a43e
000003a0: 19cb e9bc fe7a 683e b300 613e ec8b 633c
000003b0: ac6b c7bd 5334 3dbe 4d03 95bd ff53 63be
000003c0: a786 ef3d 673f 0a3e 8e6a 3b3e 715b 693d
000003d0: 8326 fb3d cb8d 713d 5cd9 2f3c 3c38 07bc
000003e0: c640 463e 9d7c 28be 6406 073e ee5c 263e
000003f0: 3a6c 09be 9f4d 603e e91b 35bd fc03 20be

blocks.0.attn.proj_FacTs.weight f4 [16, 16]
-0.06731265 0.09962078 0.2644065 -0.09530721 -0.044831287 -0.081123896 -0.2342879 -0.15637608
-0.12680331 -0.1937174 -0.15489396 -0.020036863 -0.17809997 -0.18234631 0.046545517 0.24526003
0.050135743 -0.15499884 0.1536609 -0.12323077 0.09187514 -0.120318815 0.19820377 0.14439057
0.023056464 -0.04597308 0.038467404 0.14058475 0.19032794 0.1244722 0.11645456 -0.22313517
0.17538011 -0.057906624 0.18820162 0.14327322 -0.05159206 0.02004529 0.19756503 -0.007090774
-0.025540259 -0.085310325 0.16157852 0.11123472 0.04596047 -0.13097116 0.01351894 0.25171995
0.17740044 -0.20545925 -0.018442886 0.104975305 -0.10182996 0.21324944 -0.19839676 0.19854563
-0.0048014177 0.21163793 -0.2685544 0.12275448 0.18569593 0.11662805 0.1247464 0.052571278
-0.1144577 0.14924034 -0.10958501 -0.13867763 -0.16071391 0.009808908 0.014211148 -0.14961609
-0.17351976 -0.08333086 0.009304573 0.030222604 -0.20123202 -0.15674897 -0.013812902 -0.21374737
-0.08574944 0.18882479 0.119444005 0.08383412 0.17642109 0.1308465 -0.020706411 0.13260414
0.04798197 -0.20443657 0.10414435 -0.012363584 -0.078330934 0.1839462 0.12651269 -0.08133102
0.008518037 0.08755251 0.09626035 0.15609494 0.053291544 -0.0150076505 -0.10738055 -0.15906595
0.047714155 0.1580084 -0.20980199 0.18775639 -0.17239526 -0.06496929 -0.09032441 0.022116434
0.026358994 -0.26169613 0.008378336 0.060028356 -0.031528898 -0.103147626 -0.1932027 -0.16275552
-0.2568065 -0.2175802 0.0076126885 0.057823956 0.17136434 0.13474885 -0.026287911 0.29723367
0.10553951 -0.14430499 -0.14022128 -0.02985708 0.10807967 -0.056341127 0.25583228 -0.14056557
0.27227998 0.21346787 -0.25918403 0.21465705 -0.25659576 0.16831477 -0.019185023 0.10432186
0.20632535 0.04064983 0.20718631 -0.11094151 -0.044281315 0.1264503 0.15518776 -0.052047182
-0.09684957 -0.044217836 0.013097448 0.20624524 -0.14188913 0.108636506 -0.1165593 0.0010491388
0.021291394 0.12242305 -0.15296437 -0.06481827 0.015276412 -0.14615014 0.13569583 -0.13047668
-0.24425969 -0.17880969 2.2284836e-05 0.024080219 0.084831096 -0.14051685 0.05309753 -0.20665945
-0.11055711 0.10502656 -0.11271927 0.11436182 0.16913342 -0.028586589 0.029804425 0.26092115
0.20438443 0.11747637 -0.004066358 0.17816332 0.09666147 0.10667397 -0.05344995 -0.09487434
-0.1478529 0.12406239 -0.049865916 0.040381566 0.0989961 -0.011150619 -0.20456997 0.004602949
-0.066464156 -0.07396595 0.17888682 0.14142144 0.29015598 0.12652215 -0.23049682 0.16251118
-0.1791209 0.07549654 0.017987013 0.13445885 0.0054339343 0.010761115 0.021885615 0.22288638
0.2564068 -0.041110158 0.102799736 0.21897927 0.1462535 -0.03040248 0.14826334 -0.17210703
0.07980255 0.2136202 0.0039956016 0.0649623 -0.07386126 0.08740703 -0.16443935 0.14079827
0.23629673 0.066576555 0.1381195 0.07000423 -0.13247193 -0.3032203 0.12171521 0.1716233
-0.25892013 0.006216896 0.10830187 -0.13759597 -0.02081714 -0.038744576 -0.037655186 0.13292143
0.16745102 -0.10752716 0.016060201 -0.097715564 -0.08868957 0.010913272 0.27447712 0.062103406
00000000: 37db 89bd fb05 cc3d 4a60 873e 6d30 c3bd
00000010: 03a1 37bd 4924 a6bd 2be9 6fbe 0d21 20be
00000020: bad8 01be db5d 46be 869c 1ebe 5924 a4bc
00000030: d75f 36be feb8 3abe 83a6 3e3d 7225 7b3e
00000040: 235b 4d3d 04b8 1ebe 4859 1d3e 6a60 fcbd
00000050: 0929 bc3d b669 f6bd eef5 4a3e 1fdb 133e
00000060: e9e0 bc3c 454e 3cbd ff8f 1d3d 73f5 0f3e
00000070: 54e5 423e 48eb fe3d ba7f ee3d 8c7d 64be
00000080: d896 333e 7f2f 6dbd edb7 403e 37b6 123e
00000090: 3252 53bd 0536 a43c 7d4e 4a3e b959 e8bb
000000a0: ce39 d1bc 2eb7 aebd d774 253e 07cf e33d
000000b0: 0c41 3c3d 4e1d 06be 8b7e 5d3c 70e1 803e
000000c0: 76a8 353e e963 52be 8915 97bc 4bfd d63d
000000d0: 3a8c d0bd 105e 5a3e 8528 4bbe 8c4f 4b3e
000000e0: 3655 9dbb 9db7 583e f67f 89be b366 fb3d
000000f0: 1327 3e3e b0da ee3d 0a7b ff3d fb54 573d
00000100: cc68 eabd 76d2 183e 1b6e e0bd 8201 0ebe
00000110: 3092 24be 8bb5 203c e0d5 683c f634 19be
00000120: 2aaf 31be 5fa9 aabd 3572 183c 6595 f73c
00000130: c40f 4ebe cd82 20be 834f 62bc 97e0 5abe
00000140: 679d afbd 495b 413e 0f9f f43d 39b1 ab3d
00000150: bba7 343e a0fc 053e 7ea0 a9bc 61c9 073e
00000160: be88 443d d257 51be a249 d53d a190 4abc
00000170: f86b a0bd 655c 3c3e 8b8c 013e e190 a6bd
00000180: 3d8f 0b3c bb4e b33d 2524 c53d 5ad7 1f3e
00000190: 3c48 5a3d a6e2 75bc 55ea dbbd 2fe2 22be
000001a0: eb6f 433d f4cc 213e 55d6 56be 3643 403e
000001b0: 6288 30be 9e0e 85bd 01fc b8bd 862d b53c
000001c0: d1ee d73c 09fd 85be 4a45 093c 4be0 753d
000001d0: 7224 01bd 103f d3bd eed6 45be 62a9 26be
000001e0: 247c 83be 58cd 5ebe dc73 f93b d0d8 6c3d
000001f0: 227a 2f3e 9afb 093e bf59 d7bc 032f 983e
00000200: 1925 d83d b0c4 13be 2b96 0fbe d696 f4bc
00000210: e058 dd3d f4c5 66bd 73fc 823e 6cf0 0fbe
00000220: 4868 8b3e 5297 5a3e c5b3 84be 0fcf 5b3e
00000230: 8560 83be b55a 2c3e e929 9dbc b3a6 d53d
00000240: f446 533e 7080 263d a628 543e 4d35 e3bd
00000250: 5360 35bd 307c 013e 8ae9 1e3e 6d2f 55bd
00000260: 1159 c6bd c31d 35bd ae96 563c f431 533e
00000270: 624b 11be d17c de3d a4b6 eebd 4283 893a
00000280: 4a6b ae3c f0b8 fa3d b1a2 1cbe 71bf 84bd
00000290: ea49 7a3c 62a8 15be d9f3 0a3e ae9b 05be
000002a0: 361f 7abe e319 37be 52f0 ba37 e143 c53c
000002b0: edbb ad3d a6e3 0fbe cc7c 593d 899e 53be
000002c0: c46b e2bd 2a18 d73d 5cd9 e6bd 8836 ea3d
000002d0: 5031 2d3e 6c2e eabc 6928 f43c 7597 853e
000002e0: 274a 513e 7397 f03d 153f 85bb 7270 363e
000002f0: 73f6 c53d e277 da3d 56ee 5abd 7a4d c2bd
00000300: c066 17be 6c14 fe3d 3440 4cbd 2467 253d
00000310: 78be ca3d 16b1 36bc ca7a 51be 56d4 963b
00000320: 5c1e 88bd 767b 97bd 1b2e 373e c8d0 103e
00000330: 538f 943e 068f 013e 5c07 6cbe 5569 263e
00000340: 786b 37be ee9d 9a3d 8059 933c 95af 093e
00000350: 250f b23b 634f 303c 7649 b33c 543c 643e
00000360: c147 833e 2063 28bd ab88 d23d 1a3c 603e
00000370: 7ac3 153e 9f0e f9bc 58d2 173e d33c 30be
00000380: 856f a33d 41bf 5a3e 89ed 823b f40a 853d
00000390: 9344 97bd 7502 b33d ca62 28be 6c2d 103e
000003a0: c5f7 713e 4a59 883d 336f 0d3e 615e 8f3d
000003b0: b9a6 07be b13f 9bbe d345 f93d 05be 2f3e
000003c0: 2e91 84be 1bb7 cb3b 5fcd dd3d f5e5 0cbe
000003d0: b588 aabc a2b2 1ebd 533c 1abd 8e1c 083e
000003e0: 4878 2b3e 3337 dcbd af90 833c 191f c8bd
000003f0: e1a2 b5bd 95cd 323c 4488 8c3e 2460 7e3d

blocks.0.mlp.fc1_FacTs.weight f4 [64, 16]
0.2519859 0.109778196 -0.13906576 0.106391855 -0.20727594 0.2021684 -0.041681226 0.04667383
-0.011056375 0.14591143 -0.18825184 -0.16744217 0.147439 0.047817767 -0.005886632 -0.2340699
-0.22783038 0.028558932 0.15111624 -0.08084295 0.12458733 -0.061106946 0.12906022 0.19185811
0.16477458 0.13647614 0.12905785 0.12122262 -0.29791495 -0.08646321 -0.22174594 -0.2207675
-0.13463038 -0.21653031 0.14120789 -0.18874933 0.08515784 -0.03579119 -0.046077278 -0.2352091
-0.043351855 0.11035203 0.034914862 0.17341381 0.0478076 0.0532806 -0.17974187 -0.012113663
-0.035595175 -0.061594233 0.008573017 -0.293633 -0.14562027 -0.03419197 0.2236604 -0.03859266
0.18408677 0.18229908 -0.10996968 0.085337296 -0.011557192 0.07326091 0.15341571 -0.02294637
-0.15222156 0.20782809 0.13242555 0.27861515 0.07675573 0.27395323 -0.039458852 -0.26332384
0.24933273 -0.023223018 0.078152426 0.07935964 0.028596452 -0.16594416 0.16179323 0.096221104
0.11586283 -0.18558356 0.24822184 -0.30197337 -0.080610745 0.07870662 0.03784571 0.24031529
-0.05132328 -0.25087193 -0.14355415 0.23114568 -0.02787044 0.06011727 -0.07992204 -0.10330897
-0.21019883 -0.12961034 0.0023958709 0.18348897 0.16179974 -0.18343885 0.07336449 -0.20995943
-0.09810013 0.2605384 0.1908877 0.0749988 -0.11255656 -0.13092664 -0.20002413 0.15802379
-0.018821029 -0.10485386 -0.1314462 -0.13031712 0.1416823 0.010683366 0.0811908 0.2227701
-0.02573971 0.14544271 0.057605706 0.12520154 -0.022446537 0.14771415 -0.02688494 -0.16591188
0.0040439875 0.21256733 0.10616239 -0.015274323 0.079439506 -0.027305847 0.17228778 0.25039822
0.11508449 0.18357663 0.1909477 -0.1838597 0.05342616 -0.11344082 0.11294006 0.073678225
-0.046564266 -0.026307924 -0.10319403 0.13197732 0.07341683 -0.23003718 -0.2242787 -0.06133796
-0.046784446 -0.15726556 -0.021879803 -0.011194972 0.14471957 -0.21779858 0.046256196 0.07722848
0.26200676 -0.004549307 -0.22857249 0.049841058 0.17595121 -0.24895637 -0.046808157 -0.16210927
0.056718785 -0.07308683 0.24702659 0.17944542 0.25440583 0.19599806 -0.105799936 0.063611604
0.05231679 -0.07266655 -0.03666209 0.11695888 -0.06933301 0.283878 -0.040863276 -0.095245056
0.12559825 -0.2238411 -0.023007922 0.11428773 -0.15583941 -0.18996587 -0.24832767 -0.12535588
0.20092541 -0.16970077 -0.10174643 0.09756964 -0.06719833 -0.045168795 -0.09895906 -0.18184246
0.17711608 -0.030281587 0.18519863 -0.12716505 0.0025444017 0.018580247 -0.22338691 -0.16121824
0.1169272 -0.035959154 0.11602989 0.039946612 0.15812057 0.17453688 -0.125106 -0.19943346
0.19948523 0.053840782 -0.15294866 0.05284868 -0.05528792 -0.17515583 -0.23721993 -0.036681443
-0.07517967 -0.17626247 -0.2222143 -0.1012961 -0.102931485 0.24440886 -0.09695295 0.061283536
-0.042407066 0.019408215 -0.06502393 -0.08082726 -0.20105101 0.019462172 -0.17552523 -0.07160798
-0.20900258 0.09637864 0.13141575 -0.20606646 0.16440412 -0.04845492 0.13748573 -0.052835587
-0.076412246 0.028945388 0.048380286 -0.013827954 -0.08243511 -0.277115 0.19873066 -0.056650106
00000000: 4c04 813e 64d3 e03d 4167 0ebe f9e3 d93d
00000010: 2540 54be 3c05 4f3e efb9 2abd 0f2d 3f3d
00000020: cc25 35bc ce69 153e 17c5 40be f675 2bbe
00000030: 40fa 163e 90dc 433d a6e4 c0bb 05b0 6fbe
00000040: 5e4c 69be 6cf4 e93c 37be 1a3e fd90 a5bd
00000050: a427 ff3d 474b 7abd 5d28 043e 7476 443e
00000060: abba 283e 67c0 0b3e be27 043e 9143 f83d
00000070: 4f88 98be a013 b1bd 5e11 63be e010 62be
00000080: 8cdc 09be 1fba 5dbe cd98 103e 8147 41be
00000090: 3c67 ae3d c899 12bd 87bb 3cbd a8da 70be
000000a0: b791 31bd 3f00 e23d e302 0f3d 6493 313e
000000b0: e7d1 433d c23c 5a3d 410e 38be 6378 46bc
000000c0: 3fcc 11bd 3c4a 7cbd d775 0c3c 1157 96be
000000d0: 7b1d 15be e10c 0cbd 3b07 653e 5613 1ebd
000000e0: 3e81 3c3e 9cac 3a3e c937 e1bd 52c5 ae3d
000000f0: 605a 3dbc d109 963d 0219 1d3e 07fa bbbc
00000100: f8df 1bbe e3d0 543e 909a 073e a5a6 8e3e
00000110: 1c32 9d3d 9943 8c3e 9b9f 21bd 62d2 86be
00000120: 1451 7f3e 333e bebc 610e a03d 4f87 a23d
00000130: 1b43 ea3c 44ed 29be 20ad 253e 920f c53d
00000140: 7e49 ed3d 9e09 3ebe de2d 7e3e 419c 9abe
00000150: 3f17 a5bd f030 a13d 1a04 1b3d 3615 763e
00000160: 5c38 52bd 4972 80be dcff 12be 74b1 6c3e
00000170: 8d50 e4bc 873d 763d 2bae a3bd a793 d3bd
00000180: 5d3e 57be 93b8 04be 0b04 1d3b 88e4 3b3e
00000190: d5ae 253e 65d7 3bbe 1f40 963d 9bff 56be
000001a0: b9e8 c8bd 4a65 853e 1178 433e f998 993d
000001b0: 0e84 e6bd a211 06be 20d3 4cbe fdd0 213e
000001c0: 8f2e 9abc 9fbd d6bd d599 06be da71 05be
000001d0: 2a15 113e 4909 2f3c 5d47 a63d d81d 643e
000001e0: 16dc d2bc efee 143e f6f3 6b3d d534 003e
000001f0: cde1 b7bc 6142 173e ce3d dcbc cee4 29be
00000200: 6d83 843b 40ab 593e ab6b d93d 2741 7abc
00000210: 2eb1 a23d 83b0 dfbc 356c 303e 3234 803e
00000220: 6bb1 eb3d 83fb 3b3e cb87 433e b845 3cbe
00000230: 64d5 5a3d a953 e8bd 1e4d e73d 9ce4 963d
00000240: 2cba 3ebd b783 d7bc 6457 d3bd 1025 073e
00000250: 905b 963d de8e 6bbe 51a9 65be 833d 7bbd
00000260: 0ca1 3fbd 390a 21be 463d b3bc 1e6b 37bc
00000270: 5e31 143e 9706 5fbe 2377 3d3d f729 9e3d
00000280: c025 863e 5a12 95bb e80e 6abe 2326 4c3d
00000290: 8e2c 343e 6bee 7ebe e9b9 3fbd f9ff 25be
000002a0: f551 683d 8cae 95bd 8af4 7c3e 8ac0 373e
000002b0: 7b41 823e b7b3 483e a3ad d8bd cd46 823d
000002c0: 214a 563d 33d2 94bd fd2a 16bd 2388 ef3d
000002d0: 77fe 8dbd 7558 913e 4060 27bd d70f c3bd
000002e0: d49c 003e 9a36 65be 1c7b bcbc af0f ea3d
000002f0: 5e94 1fbe 6a86 42be 9c49 7ebe 4b5d 00be
00000300: 64bf 4d3e 0ac6 2dbe 6f60 d0bd 97d2 c73d
00000310: 479f 89bd ea02 39bd 0cab cabd e934 3abe
00000320: eb5d 353e 1711 f8bc b6a4 3d3e 8e37 02be
00000330: fabf 263b 9a35 983c 8abf 64be 6516 25be
00000340: 8777 ef3d e849 13bd 14a1 ed3d 0f9f 233d
00000350: 5cea 213e ccb9 323e ca1b 00be 4938 4cbe
00000360: db45 4c3e 2788 5c3d 939e 1cbe dc77 583d
00000370: 9675 62bd 0d5c 33be c8e9 72be 483f 16bd
00000380: ccf7 99bd 267e 34be 258c 63be 5474 cfbd
00000390: becd d2bd 5146 7a3e 458f c6bd 7204 7b3d
000003a0: 08b3 2dbd fafd 9e3c 442b 85bd c388 a5bd
000003b0: 51e0 4dbe 226f 9f3c e3bc 33be 34a7 92bd
000003c0: c604 56be 2a62 c53d da91 063e 1603 53be
000003d0: 8e59 283e ab78 46bd 0fc9 0c3e 216a 58bd
000003e0: 067e 9cbd e11e ed3c 682a 463d a58e 62bc
000003f0: bdd3 a8bd 04e2 8dbe 0d80 4b3e f109 68bd

blocks.0.mlp.fc2_FacTs.weight f4 [16, 64]
-0.004572731 0.035703342 0.0815348 0.047867652 -0.014792775 0.05072013 0.07545326 -0.10712007
-0.024755606 0.06451031 -0.081663206 0.071928136 -0.09034641 -0.0016273258 -0.006704364 0.018816937
-0.06733827 -0.01323269 0.031711068 -0.026486117 0.00078672543 -0.072549574 7.174138e-05 -0.10448323
0.013333661 0.08784306 -0.025778228 0.11309179 0.035967976 0.00683731 0.04143903 -0.11008823
-0.057139758 0.21094951 -0.05010287 -0.009418126 -0.09354342 -0.054497816 0.12302472 0.022060784
-0.10684113 0.03810681 0.039386146 0.16361718 0.0339396 -0.04808199 -0.015286434 0.102634184
-0.03748243 0.09225639 -0.023926575 -0.016020045 -0.051377438 -0.032386888 -0.1339501 -0.065460555
0.044007555 -0.05836456 0.07835187 0.0014918697 0.08287893 0.06862794 -0.0010741245 -0.02387136
-0.13214733 0.062375836 0.123433895 0.025592653 -0.13346596 0.00053016347 -0.1347724 0.03369059
0.080055684 -0.113108434 -0.031214671 0.10740445 -0.059398662 -0.008416731 0.0065376423 0.038925324
-0.01814009 -0.055164542 0.028788824 -0.10817533 0.097240664 0.083329804 -0.03562091 -0.011628886
-0.0013453005 0.017837824 -0.033369787 -0.033606187 -0.1711104 0.019192044 -0.11213895 0.00021354207
-0.12286022 -0.089750275 0.021649294 -0.0054992796 -0.08928633 -0.061378475 -0.053237025 -0.12202648
0.04902244 0.14184336 -0.0044818697 0.067799546 -0.11113643 0.047403317 -0.055415057 -0.018673927
0.11809535 -0.076635845 -0.019117199 0.040411733 0.11234271 0.030372629 -0.05785291 -0.041301966
-0.124584414 -0.014884519 0.028368523 0.17494981 0.11268919 0.094980985 0.07109112 0.076035656
-0.05870673 -0.010423439 -0.12214308 0.046734616 0.02013532 -0.0060680765 0.18979333 0.083385
-0.039534885 -0.101698086 0.06341903 0.09166665 -0.046779383 0.010773101 0.081956945 0.059969116
0.030799855 -0.08804659 0.052780554 0.092992 0.015467081 -0.012430957 -0.13968328 -0.076240405
-0.03971983 -0.030088242 -0.02925355 0.06253152 -0.13319771 -0.023915568 -0.12094957 -0.14251794
0.07068216 -0.053812873 0.13355687 -0.16876124 0.058164194 0.12877013 0.14058606 0.07815175
0.11810711 -0.066723816 -0.03456025 0.105866425 0.099253476 0.028627219 0.054892045 0.009401982
0.0204645 -0.03580438 -0.15508915 0.061023943 -0.098219685 -0.0026584954 0.09102174 0.12651284
0.0632205 -0.12141219 0.03568862 -0.052033354 -0.013208609 0.15115663 0.055460457 0.05306823
0.09764815 0.025021102 -0.030567585 0.09704325 0.035463333 0.0152407875 0.023688303 -0.05685527
-0.09243117 0.1094664 0.06669215 -0.03851571 -0.023336343 -0.01084446 0.002274813 -0.12569802
0.12429372 -0.015362088 0.13052462 -0.050975326 -0.0010752254 -0.016261373 0.038730033 -0.036800582
-0.009915134 0.11536064 0.012240166 -0.073013715 0.048335947 -0.012950633 -0.031042565 0.05314484
0.036770537 0.0012319575 -0.09922988 -0.06267265 -0.101011656 -0.032190222 -0.02629093 -0.11558066
0.07075408 0.0717338 0.0065381196 -0.0926506 -0.062724695 0.0035502193 -0.04925024 -0.08319277
-0.022704996 -0.083047695 0.07796293 -0.030879265 -0.03977784 0.003912411 -0.041550428 0.105070144
-0.08012189 0.06285904 0.055033427 -0.034996003 -0.04612191 -0.073699676 -0.023277508 -0.008681715
00000000: d9d6 95bb ab3d 123d b8fb a63d df10 443d
00000010: 655d 72bc e9bf 4f3d 3d87 9a3d c461 dbbd
00000020: 45cc cabc fb1d 843d 0a3f a7bd 0f4f 933d
00000030: 8a07 b9bd fe4b d5ba 48b0 dbbb fa25 9a3c
00000040: a6e8 89bd edcd 58bc 77e3 013d 6af9 d8bc
00000050: 403c 4e3a df94 94bd dc73 9638 4efb d5bd
00000060: 6d75 5a3c 10e7 b33d dd2c d3bc ab9c e73d
00000070: 2853 133d 830b e03b f9bb 293d f075 e1bd
00000080: 610b 6abd 2603 583e ab38 4dbd 7c4e 1abc
00000090: b193 bfbd 1a39 5fbd 62f4 fb3d d1b8 b43c
000000a0: 86cf dabd e315 1c3d 5e53 213d 438b 273e
000000b0: 4004 0b3d 9ff1 44bd f473 7abc df31 d23d
000000c0: 2d87 19bd ebf0 bc3d aa01 c4bc 783c 83bc
000000d0: 2671 52bd 1da8 04bd 372a 09be 2f10 86bd
000000e0: 4441 343d ad0f 6fbd f276 a03d d78a c33a
000000f0: 6ebc a93d ce8c 8c3d a3c9 8cba df8d c3bc
00000100: a151 07be ce7d 7f3d e9ca fc3d afa7 d13c
00000110: 4dab 08be abfa 0a3a c701 0abe 25ff 093d
00000120: 3cf4 a33d 65a5 e7bd e9b5 ffbc ddf6 db3d
00000130: 034c 73bd 54e6 09bc b839 d63b 2970 1f3d
00000140: 879a 94bc 37f4 61bd 8ad6 eb3c 078b ddbd
00000150: 1d26 c73d d1a8 aa3d 3be7 11bd 1587 3ebc
00000160: cb54 b0ba a120 923c c2ae 08bd a4a6 09bd
00000170: 9137 2fbe a238 9d3c 1ba9 e5bd 43ea 5f39
00000180: 249e fbbd fece b7bd dc59 b13c 4d33 b4bb
00000190: c0db b6bd ff67 7bbd 110f 5abd 05e9 f9bd
000001a0: c1cb 483d 633f 113e a6dc 92bb 7dda 8a3d
000001b0: 7f9b e3bd fb29 423d e6fa 62bd 10fa 98bc
000001c0: fadb f13d 41f3 9cbd ac9b 9cbc c686 253d
000001d0: ef13 e63d 05d0 f83c 2cf7 6cbd 402c 29bd
000001e0: 1d26 ffbd 33de 73bc 1b65 e83c 0b26 333e
000001f0: 97c9 e63d 6485 c23d 3998 913d 95b8 9b3d
00000200: 7876 70bd 12c7 2abc 2726 fabd cc6c 3f3d
00000210: d4f2 a43c b7d6 c6bb 2f59 423e c1c5 aa3d
00000220: 55ef 21bd 1647 d0bd d6e1 813d b9bb bb3d
00000230: bd9b 3fbd a981 303c 0bd9 a73d 2da2 753d
00000240: fa4f fc3c c551 b4bd 6c30 583d 9772 be3d
00000250: a469 7d3c 36ab 4bbc 2209 0fbe ee23 9cbd
00000260: 43b1 22bd 9e7b f6bc 24a5 efbc 8710 803d
00000270: fb64 08be 95ea c3bc 68b4 f7bd 39f0 11be
00000280: cfc1 903d e36a 5cbd 22c3 083e bfcf 2cbe
00000290: 943d 6e3d 51dc 033e cbf5 0f3e 060e a03d
000002a0: 24e2 f13d 7fa6 88bd 0c8f 0dbd 7fd0 d83d
000002b0: 6845 cb3d a183 ea3c 7bd6 603d c50a 1a3c
000002c0: 2ba5 a73c 9da7 12bd b1cf 1ebe 3ef4 793d
000002d0: 6727 c9bd 273a 2ebb 9b69 ba3d 958c 013e
000002e0: c079 813d f4a6 f8bd 3b2e 123d ed20 55bd
000002f0: ec68 58bc cec8 1a3e 812a 633d 135e 593d
00000300: c1fb c73d 0ef9 cc3c df68 fabc 9dbe c63d
00000310: 0042 113d 7fb4 793c f90d c23c 12e1 68bd
00000320: 8e4c bdbd ec2f e03d e595 883d a6c2 1dbd
00000330: dc2b bfbc f6ac 31bc 0715 153b fbb6 00be
00000340: b58d fe3d 44b1 7bbc 3fa8 053e 81cb 50bd
00000350: 94ee 8cba 9236 85bc 62a3 1e3d 35bc 16bd
00000360: 1673 22bc 3342 ec3d fa8a 483c 3788 95bd
00000370: eafb 453d e42e 54bc fa4c febc 67ae 593d
00000380: b49c 163d a279 a13a 0939 cbbd 855a 80bd
00000390: 33df cebd e5d9 03bd 1460 d7bc 8eb5 ecbd
000003a0: 84e7 903d 2ce9 923d b93d d63b 99bf bdbd
000003b0: ce75 80bd ccaa 683b 9fba 49bd f960 aabd
000003c0: d4ff b9bc e914 aabd 07ab 9f3d 83f6 fcbc
000003d0: 17ee 22bd af33 803b c830 2abd 042f d73d
000003e0: f216 a4bd 3ebc 803d bb6a 613d f857 0fbd
000003f0: 54ea 3cbd dbef 96bd 79b0 bebc c03d 0ebc

blocks.1.attn.q_FacTs.weight f4 [16, 16]
-0.07967804 -0.23348819 -0.10003785 0.046120297 -0.31244302 0.20253853 -0.19671258 0.10225494
-0.09020866 -0.12430182 -0.008076786 -0.04563627 -0.0162426 -0.15478057 0.16010723 0.11708543
0.28691965 -0.047505435 0.12248395 -0.14949644 -0.24341874 -0.2756854 -0.04627398 0.18233179
0.062438104 0.15481487 -0.069365315 0.3688698 0.1562527 -0.21329637 0.14013411 0.16874598
-0.07539015 -0.09577386 -0.10674337 -0.13288994 0.26074794 -0.15398018 0.22084925 -0.27356493
-0.15867445 -0.014438649 -0.15786126 -0.059437416 0.117966466 -0.05992383 0.011954584 0.061979655
-0.13698877 -0.041696765 -0.1214772 -0.014289638 0.16172431 0.044294503 -0.29686275 -0.068002135
0.030921198 -0.0746111 -0.2311713 -0.29711613 0.20371658 0.082299724 -0.35077155 -0.17628337
0.11186698 0.16247451 0.01594886 -0.04051036 -0.30783233 -0.100607246 0.15209365 -0.0010085405
0.20165297 0.2760506 0.15698345 0.10899563 -0.09981547 0.18898408 -0.0121249715 -0.1463602
-0.07461983 -0.25146216 0.041872706 0.03383141 -0.18797362 0.124077156 0.084014975 0.2961325
-0.21952686 0.23594326 0.26061848 -0.24490386 -0.054374952 -0.23179732 -0.017002298 0.22870539
-0.32681617 0.11604975 -0.04494344 0.34365267 0.10778782 -0.032481935 -0.35289842 -0.086398125
-0.12741806 -0.14163105 -0.3264322 -0.21668442 0.09221474 0.13733485 0.092857815 -0.21085401
0.15510078 -0.16737325 -0.060290325 0.012298762 -0.0047631864 -0.17970288 0.32958463 0.15332805
0.09191198 0.1823094 0.1707764 -0.032581937 0.12545575 0.12995297 -0.077815294 0.23301299
0.1671005 0.10634189 -0.05155403 -0.046270218 -0.1806299 -0.13175303 -0.1936956 -0.10830835
-0.08135889 0.29662085 0.10356451 -0.029976228 -0.042530682 -0.026146648 -0.18973732 -0.16908829
-0.1071367 -0.08112347 -0.19014043 0.048880037 -0.1880952 0.07870349 0.07326298 -0.3083281
-0.02434492 -0.32204714 0.014787399 -0.16879094 0.09364983 0.10157761 -0.006770765 0.03079222
0.054842006 0.26394656 -0.1978053 -0.16574287 -0.18633515 0.0074023413 0.14215662 -0.085545234
0.07871526 0.20801489 -0.094975434 0.049230017 0.17397304 -0.028863175 0.16642608 0.070160024
-0.2602262 -0.1462562 -0.26683906 0.018035736 0.063862614 0.04910556 0.0063437894 0.15603803
-0.09490483 0.020265123 -0.19937345 0.056648955 0.11663524 0.23492238 -0.10834255 0.015552667
0.014126206 -0.04593902 -0.2348675 0.23658776 0.071047716 0.18529476 -0.10433001 0.30750144
0.03348891 -0.19367158 0.06399264 0.08274503 0.19109438 0.07194117 0.13207957 0.19535288
-0.21485054 -0.0003856888 -0.12910184 0.22076793 0.18008769 -0.19717316 0.20042776 -0.15408269
0.13724548 0.16209021 -0.00024529046 0.1442901 -0.16250433 0.33954504 0.001515295 0.0015857684
0.09671938 -0.03872562 0.038086746 -0.030618899 -0.14072144 0.16307662 -0.07876924 0.2530595
0.13789696 -0.1310644 0.18503883 -0.09311555 -0.045370426 -0.08288027 0.14597367 0.23843531
0.05372939 -0.2061661 0.013354864 -0.10150093 0.080895625 0.0049630073 -0.07755335 0.17718321
0.23808438 -0.10845944 0.07107781 0.0066766506 0.19527669 -0.12078223 -0.2205291 -0.19783725
00000000: 3e2e a3bd 8717 6fbe a5e0 ccbd a3e8 3c3d
00000010: 88f8 9fbe 4366 4f3e 066f 49be 0a6b d13d
00000020: 51bf b8bd f491 febd 7f54 04bc 19ed 3abd
00000030: 330f 85bc cc7e 1ebe 26f3 233e 7cca ef3d
00000040: 22e7 923e 0f95 42bd ddd8 fa3d 9815 19be
00000050: c342 79be a326 8dbe c989 3dbd 2fb5 3a3e
00000060: 19bf 7f3d ca87 1e3e 670f 8ebd 81dc bc3e
00000070: b500 203e 5d6a 5abe 517f 0f3e bfcb 2c3e
00000080: 2766 9abd 1625 c4bd 459c dabd 4d14 08be
00000090: c180 853e fbac 1dbe 4e26 623e b410 8cbe
000000a0: 8e7b 22be 1590 6cbc 62a6 21be a674 73bd
000000b0: 6798 f13d b172 75bd 29dd 433c 61de 7d3d
000000c0: c946 0cbe 3aca 2abd 0ac9 f8bd 161f 6abc
000000d0: 0f9b 253e 276e 353d 65fe 97be b444 8bbd
000000e0: 744e fd3c b4cd 98bd 2bb8 6cbe 9b1f 98be
000000f0: 149b 503e c28c a83d 5498 b3be a183 34be
00000100: 841a e53d b85f 263e 2fa7 823c 31ee 25bd
00000110: 339c 9dbe 2c0b cebd 70be 1b3e 0131 84ba
00000120: 1e7e 4e3e 8156 8d3e 45c0 203e 1a39 df3d
00000130: 0e6c ccbd 0b85 413e d1a7 46bc 73df 15be
00000140: 48d2 98bd a6bf 80be b782 2b3d ce92 0a3d
00000150: 287c 40be 2a1c fe3d 0b10 ac3d ae9e 973e
00000160: a6cb 60be 1c9b 713e c96f 853e 14c8 7abe
00000170: 45b8 5ebd 475c 6dbe 6748 8bbc bf31 6a3e
00000180: 7354 a7be 7eab ed3d 9d16 38bd 3ef3 af3e
00000190: dcbf dc3d c70b 05bd 1aaf b4be 80f1 b0bd
000001a0: e179 02be bb07 11be 1f22 a7be 85e2 5dbe
000001b0: 15db bc3d 82a1 0c3e 3d2c be3d 1dea 57be
000001c0: bdd2 1e3e e563 2bbe fdf2 76bd bf80 493c
000001d0: 8114 9cbb 0804 38be 51bf a83e 0702 1d3e
000001e0: 593c bc3d 51af 3a3e 02e0 2e3e a374 05bd
000001f0: 7977 003e 6412 053e a05d 9fbd f59a 6e3e
00000200: 651c 2b3e c7c9 d93d 522a 53bd d785 3dbd
00000210: 0bf7 38be 44ea 06be 2458 46be c5d0 ddbd
00000220: 7d9f a6bd b0de 973e a119 d43d b590 f5bc
00000230: a734 2ebd 7f31 d6bc 804a 42be 7b25 2dbe
00000240: 7c6a dbbd 1024 a6bd 2cb4 42be 6f36 483d
00000250: 079c 40be 4c2f a13d e70a 963d 2edd 9dbe
00000260: ff6e c7bc 5de3 a4be d946 723c 88d7 2cbe
00000270: 7bcb bf3d ec07 d03d 4bdd ddbb f73f fc3c
00000280: 03a2 603d 0124 873e 798d 4abe 80b8 29be
00000290: a4ce 3ebe 578f f23b 8191 113e 5732 afbd
000002a0: 7735 a13d db01 553e 7b82 c2bd 6aa5 493d
000002b0: fd25 323e 7772 ecbc 996b 2a3e 0fb0 8f3d
000002c0: 5e3c 85be 2fc4 15be 219f 88be aebf 933c
000002d0: 67ca 823d e922 493d 90df cf3b 6fc8 1f3e
000002e0: 775d c2bd 0b03 a63c 8e28 4cbe bc08 683d
000002f0: 75de ee3d 7e8f 703e b3e2 ddbd 9dd0 7e3c
00000300: 9a71 673c 8e2a 3cbd 1b81 70be 1044 723e
00000310: 7781 913d e9bd 3d3e f9aa d5bd d470 9d3e
00000320: ab2b 093d d851 46be 930e 833d 3a76 a93d
00000330: 3fae 433e e455 933d de3f 073e 960a 483e
00000340: c801 5cbe 4636 cab9 4633 04be fd10 623e
00000350: e868 383e c3e7 49be ef3c 4d3e dac7 1dbe
00000360: 148a 0c3e fafa 253e 549a 80b9 c9c0 133e
00000370: 8967 26be d9d8 ad3e dd9c c63a 8fd9 cf3a
00000380: cf14 c63d c19e 1ebd d900 1c3d 7cd4 fabc
00000390: 4819 10be 8ffd 263e c451 a1bd 0491 813e
000003a0: dc34 0d3e bf35 06be d27a 3d3e 5eb3 bebd
000003b0: 57d6 39bd 22bd a9bd 1f7a 153e 6328 743e
000003c0: 5913 5c3d 351d 53be 5cce 5a3c b8df cfbd
000003d0: 9bac a53d b9a0 a23b 4ad4 9ebd 846f 353e
000003e0: 64cc 733e fc1f debd 3e91 913d cec7 da3b
000003f0: 9df6 473e ac5c f7bd 61d2 61be d995 4abe

blocks.1.attn.k_FacTs.weight f4 [16, 16]
-0.17255904 -0.0530854 -0.21448828 -0.13662168 0.1872404 -0.17727596 0.23209937 -0.23617671
0.035708692 0.102238834 -0.07552544 -0.06603342 0.0473153 -0.26653197 0.23663926 0.054165736
-0.07629778 -0.19755153 0.14130802 -0.12951499 -0.08022799 -0.08079507 -0.17297232 -0.14080593
-0.21304804 -0.21999776 -0.1806222 0.08052069 0.17086987 -0.1468943 0.20267297 0.21361783
-0.010771395 0.16210364 0.18867694 -0.18891022 0.15358257 -0.02619893 -0.042465784 -0.1049783
0.09253007 -0.2351322 -0.010385535 0.032946624 -0.20677269 -0.15648246 0.19431782 -0.08611105
-0.11235455 -0.22103395 0.050719824 0.26589516 -0.070549846 -0.080703124 0.1208142 -0.2439521
-0.0076241447 -0.1624325 -0.14803477 0.058350243 0.076255634 0.24937022 -0.11574007 0.068282366
0.0057582688 0.0026601097 0.18142161 -0.084158346 -0.20750706 0.09576832 0.01954261 -0.26701066
0.031174775 0.096619636 0.1102612 0.19749445 -0.16607799 -0.27135053 0.19784047 -0.15452412
-0.14431374 -0.06334941 -0.09599273 0.13801746 0.006911486 -0.13873713 0.025986752 0.12781833
-0.13442016 0.23206466 -0.0077232937 -0.15841766 0.023788594 0.041653972 -0.017369207 -0.014823863
-0.3070361 0.32263902 0.008766682 0.052634224 0.02745065 0.0038962269 -0.269383 -0.09617087
-0.20768602 -0.18524061 0.07748283 -0.2209374 0.036528125 0.031682156 -0.24644008 0.09643992
0.17624709 0.037701007 -0.16423027 -0.0338257 -0.3022301 -0.2119105 0.045570098 0.0027097417
-0.27346665 0.20412603 -0.092804186 -0.014723462 0.13451923 -0.031985354 0.27917308 0.10422437
-0.24358867 0.09201708 0.098097906 0.12860791 -0.10126711 -0.030586671 -0.20715821 -0.010801916
0.01988415 0.11360836 -0.14325203 -0.20655648 0.23187298 0.08138896 0.10215402 0.14592808
-0.040887516 0.1043519 -0.14334588 0.20816319 0.15321048 0.06158209 -0.036384106 -0.001165903
-0.17963864 -0.27264917 0.014356584 0.0941238 0.27901945 0.30797005 -0.3382218 -0.058565505
0.12188406 0.14139606 -0.20592947 -0.2110285 0.05183348 -0.023783915 -0.22799127 -0.10935406
-0.18109207 -0.23255932 -0.21986263 -0.19969991 -0.02076485 0.2768653 -0.1399353 -0.17882587
-0.32746145 -0.006809786 -0.0663316 0.08888929 -0.1345459 0.3118662 0.043076117 -0.14865659
0.15522219 -0.20138709 0.19849642 -0.30099323 0.067089036 -0.00073560694 -0.08206193 0.12118775
-0.046705298 0.01645842 -0.2019116 0.25949427 0.08049167 -0.0064889276 -0.32885244 0.2073798
0.018037852 0.046060715 -0.21745023 -0.18942568 -0.022249328 -0.065594845 0.20064549 0.110079974
-0.108197786 0.13609934 -0.045472458 -0.19588292 -0.1517746 -0.24737963 0.035478402 0.04031888
0.010214161 -0.14318101 -0.15171593 -0.1600235 -0.098338775 -0.20524034 0.2609103 -0.093616694
-0.27579972 -0.079019554 -0.15143888 0.226003 0.15438357 0.11934056 -0.16526233 -0.20196499
-0.1980196 -0.067408904 -0.38440508 0.12650564 0.12405157 -0.041622087 0.09151826 -0.21454372
0.04037516 -0.026464794 0.08053472 -0.048361685 0.2111487 -0.12542497 -0.119232684 0.26944703
0.317653 -0.12436703 -0.12940265 -0.10333989 0.072432175 0.0256008 -0.3013652 -0.15724018
00000000: 51b3 30be 1470 59bd d1a2 5bbe 8ee6 0bbe
00000010: f3bb 3f3e d487 35be 75ab 6d3e 4fd8 71be
00000020: 4743 123d 9862 d13d 15ad 9abd 883c 87bd
00000030: b0cd 413d e176 88be 9051 723e e4dc 5d3d
00000040: 0342 9cbd f34a 4abe 0db3 103e 949f 04be
00000050: 934e a4bd e377 a5bd a81f 31be 6e2f 10be
00000060: 4429 5abe 1847 61be 07f5 38be 08e8 a43d
00000070: 83f8 2e3e 766b 16be 8189 4f3e a2be 5a3e
00000080: 817a 30bc 7ffe 253e 8734 413e ae71 41be
00000090: c044 1d3e 239f d6bc 9af0 2dbd ddfe d6bd
000000a0: 6880 bd3d 7fc6 70be 1728 2abc 0af3 063d
000000b0: 38bc 53be f03c 20be 40fb 463e fd5a b0bd
000000c0: 241a e6bd b956 62be 97bf 4f3d 6923 883e
000000d0: 707c 90bd ae47 a5bd 6f6d f73d 94ce 79be
000000e0: f6d3 f9bb b554 26be 6d96 17be aa00 6f3d
000000f0: ea2b 9c3d e85a 7f3e 2109 edbd a0d7 8b3d
00000100: dcaf bc3b 3c55 2e3b 96c6 393e 365b acbd
00000110: bb7c 54be 2e22 c43d d317 a03c 9fb5 88be
00000120: 3e62 ff3c 84e0 c53d a0d0 e13d fc3b 4a3e
00000130: 5910 2abe 75ee 8abe b196 4a3e 923b 1ebe
00000140: fbc6 13be 56bd 81bd d697 c4bd 7354 0d3e
00000150: bf79 e23b 1b11 0ebe 2be2 d43c cfe2 023e
00000160: 70a5 09be 5ca2 6d3e af13 fdbb 3d38 22be
00000170: 4ce0 c23c 5b9d 2a3d de49 8ebc cadf 72bc
00000180: d633 9dbe f130 a53e 21a2 0f3c fc96 573d
00000190: 30e0 e03c d757 7f3b 92ec 89be 3cf5 c4bd
000001a0: a5ab 54be b7af 3dbe 51af 9e3d 6a3d 62be
000001b0: 849e 153d 26c5 013d ca5a 7cbe 4b82 c53d
000001c0: 1e7a 343e 5f6c 1a3d fb2b 28be d18c 0abd
000001d0: e7bd 9abe 11ff 58be b6a7 3a3d ec95 313b
000001e0: d203 8cbe 6a06 513e 1f10 bebd ad3a 71bc
000001f0: 69bf 093e 1303 03bd c6ef 8e3e 9673 d53d
00000200: 4f6f 79be 7373 bc3d 8ee7 c83d cbb1 033e
00000210: 2165 cfbd e690 fabc 4821 54be 85fa 30bc
00000220: 16e4 a23c 80ab e83d a9b0 12be 8b83 53be
00000230: 1c70 6d3e 41af a63d 2036 d13d 2c6e 153e
00000240: ab79 27bd 73b6 d53d 43c9 12be bb28 553e
00000250: 35e3 1c3e 803d 7c3d 8007 15bd 37d1 98ba
00000260: 31f3 37be ac98 8bbe e137 6b3c fbc3 c03d
00000270: a3db 8e3e 40ae 9d3e 682b adbe 62e2 6fbd
00000280: 5a9e f93d 21ca 103e 2ddf 52be db17 58be
00000290: 584f 543d 7cd6 c2bc 8b76 69be 05f5 dfbd
000002a0: 3370 39be 0824 6ebe ab23 61be 227e 4cbe
000002b0: 0c1b aabc 4ac1 8d3e 334b 0fbe 211e 37be
000002c0: 07a9 a7be a024 dfbb ddd8 87bd 970b b63d
000002d0: 67c6 09be edac 9f3e 9570 303d 6f39 18be
000002e0: 91f2 1e3e 6b38 4ebe a542 4b3e c91b 9abe
000002f0: fa65 893d bfd5 40ba 1610 a8bd 4831 f83d
00000300: 0e4e 3fbd cfd3 863c eac1 4ebe 6fdc 843e
00000310: d1d8 a43d 12a1 d4bb 595f a8be 5f5b 543e
00000320: 1ec4 933c 29aa 3c3d 46ab 5ebe cef8 41be
00000330: 3944 b6bc 9756 86bd 0376 4d3e 9c71 e13d
00000340: cd96 ddbd a05d 0b3e 5441 3abd 8895 48be
00000350: cd6a 1bbe 1651 7dbe cd51 113d 6925 253d
00000360: 4c59 273c 0b9e 12be 6c5b 1bbe 33dd 23be
00000370: d765 c9bd 862a 52be 0996 853e 1cba bfbd
00000380: 9f35 8dbe 01d5 a1bd cb12 1bbe 556d 673e
00000390: ba16 1e3e d368 f43d 873a 29be e9cf 4ebe
000003a0: a6c5 4abe ae0d 8abd bed0 c4be b28a 013e
000003b0: c00e fe3d ec7b 2abd ed6d bb3d 59b1 5bbe
000003c0: 6c60 253d b2cc d8bc 63ef a43d e716 46bd
000003d0: 5d37 583e 676f 00be 4430 f4bd f6f4 893e
000003e0: 6aa3 a23e 24b4 febd 2182 04be dda3 d3bd
000003f0: 5257 943d c5b8 d13c 8a4c 9abe 9203 21be
