Final Project/FacT-TT/cifar_best.pt (torch, 415745 bytes, 76 tensors)

blocks.0.attn.q_FacTs.weight f4 [8, 8]
00000000: 783d 4a3e adda adbe ba3e 11bd bf3a 493e
00000010: 742c b53d b6c9 f63d 36d5 9a3d 7330 79be
00000020: 97c8 b63e 2d31 c8bd 22d4 ffbd 3e65 ca3e
00000030: 90a8 453d 7975 b13d 7a10 983d 83da c0bd
00000040: 5e8a c9be 3cf0 9abe 9185 e0bd c9f6 b0bd
00000050: a6f8 ef3e 004e a5be 7bba 8f3d 485b 84be
00000060: 184d 2abd 58a4 39bd c799 dfbd 5940 e83b
00000070: 71d9 27bd 36e3 01bf cf55 80be 6df3 f0bd
00000080: edc4 08bd 9891 853c bcd5 89bc 3b33 9f3e
00000090: e787 113e e6ca 95be 70f3 663e 2a1c 813d
000000a0: fe48 78be d0e4 9e3e 2793 3c3e 7d7b 4d3e
000000b0: 8929 043e b3cf bb3e b635 adbe 972c dc3e
000000c0: 5bcd 023c 732f aa3e 0e23 89be 047e 5e3d
000000d0: 8e96 b0bd 7e02 033f 9bdf 01bf 3378 233e
000000e0: 4bf5 a23e 8de0 59bb 5568 a5be 2ac8 7bbe
000000f0: 55b2 14be b006 a43d d23f 20bd 7147 353e
0.19750011 -0.339559 -0.03546021 0.19651316 0.088463694 0.12050192 0.07560198 -0.24334888
0.35699913 -0.097750045 -0.12491633 0.39530367 0.048256457 0.08664984 0.07425018 -0.09416678
-0.39363378 -0.3026141 -0.10962976 -0.086408205 0.4686939 -0.32286072 0.0701799 -0.25850892
-0.04157743 -0.045322746 -0.109180026 0.007087749 -0.040978853 -0.5073732 -0.25065467 -0.1176518
-0.033390928 0.016304776 -0.01682555 0.31093773 0.14211999 -0.29256362 0.22553802 0.063042
-0.24246594 0.31033945 0.18415509 0.20066638 0.1290647 0.366819 -0.3383004 0.4300277
0.007983531 0.33239326 -0.26784557 0.054319397 -0.08622466 0.5117568 -0.5073182 0.15963821
0.3182777 -0.0033245415 -0.32306162 -0.24588075 -0.14521153 0.08009088 -0.039123364 0.17703034

blocks.0.attn.k_FacTs.weight f4 [8, 8]
00000000: ec25 923e 236c c5bd b99f 92be 1fb8 2ebe
00000010: 206c c4bd 3e6c 9ebe 61fd a23e ab81 ffbd
00000020: e981 713d ea6b 0a3e 7845 aa3e c429 2d3e
00000030: 73a0 81bc 44cf 733e c557 edbe 30cd 953e
00000040: 417a bc3c 9688 c43c 4b98 e7bd 7384 8abe
00000050: 51c4 debd 550f 503e 55d3 c4bc 47b3 57be
00000060: 2a50 81bd 322d 8cbe 8eae 9d3e fae2 99be
00000070: 33bb 773e 88a0 e13e 2994 a73e 3c58 d93e
00000080: e929 fb3d 8b77 96bd 624e adbe 6647 cebc
00000090: cd77 66bc 7c35 11be f2e9 d1bc 8964 88bd
000000a0: 98a2 f6bd 783c 9abe 5a37 2fbe f4e1 533e
000000b0: 2ccb 6a3e e278 c5be 29dc fa3e aa16 62be
000000c0: 36d7 bebe e278 923e 24fa 96bd f919 39be
000000d0: 4163 57be 77cd 4dbe 6e7f 9c3d 8558 46be
000000e0: c723 a2be aff4 053e bd22 763c 1a61 253e
000000f0: fd7e 35bd f18d 1c3e fbbf 473e 6fe7 713e
0.28544557 -0.09639766 -0.28637484 -0.17062424 -0.09590936 -0.30941957 0.31833938 -0.12475904
0.058961783 0.13517728 0.33256125 0.16910464 -0.015823578 0.23809534 -0.46356025 0.29258108
0.023007514 0.02399091 -0.113083445 -0.27054176 -0.10877288 0.20318349 -0.024026552 -0.21064483
-0.06314118 -0.2737823 0.30797237 -0.30055982 0.24192505 0.44067788 0.32730225 0.4245013
0.12263853 -0.0734702 -0.33848864 -0.02518053 -0.014066649 -0.14180559 -0.02562425 -0.066598006
-0.12042731 -0.3012426 -0.17110959 0.20691663 0.22929066 -0.3856879 0.48996094 -0.22078958
-0.37273568 0.2860785 -0.07371929 -0.18076314 -0.21033956 -0.2009791 0.07641493 -0.19369705
-0.3166792 0.1308162 0.015022931 0.16150323 -0.04431056 0.15288521 0.19506828 0.23623441

blocks.0.attn.v_FacTs.weight f4 [8, 8]
00000000: 4ff7 033e 8767 3d3c 255c acbe 0d79 ec3e
00000010: 7290 b83e 7cd9 b3be eeeb ba3e 4a13 a5be
00000020: b886 3dbe 9ac7 b4be b4b6 1cbd d11d bb3e
00000030: 05c1 f83e 24e8 f0be 5308 003e 02b6 c5be
00000040: 6063 dd3e d52a 623d 8bdd 463e a6b4 cabe
00000050: f9c6 8c3d 4419 b1be b59f 0ebe 357b c8be
00000060: 3d72 973e d770 aabe 6c07 503d 5810 c0be
00000070: 5b9e 2bbe 44f2 f63e 646a 9cbe 597b 223e
00000080: d3bb 1f3e 2ca6 5abe 9ee9 43be f991 44be
00000090: b083 ce3e 0b28 52ba 30b2 ec3e 9362 e2be
000000a0: 1fda f1bc 9c46 68be afdc 12be f9e6 a43e
000000b0: 611c 0ebe 6122 48be da6d a53e 9077 95be
000000c0: bb81 593d e61a b93e 7650 d13e 8ae8 9bbe
000000d0: c140 c0be 6966 813e abca bfbe cd64 9f3e
000000e0: f906 c9bd f48c d23e 484a 913e 9b9a cabe
000000f0: 9268 b3be db31 863e bfa8 9dbe 82ec 043d
0.1288731 0.011560327 -0.3366405 0.46186104 0.36047703 -0.35126865 0.36508125 -0.3224128
-0.18508422 -0.35308534 -0.038260177 0.36546186 0.48584762 -0.4705211 0.12503175 -0.38615423
0.4323988 0.05521663 0.1942045 -0.3959095 0.068738885 -0.3458959 -0.13928111 -0.391565
0.29579344 -0.33289215 0.050788328 -0.3751247 -0.16759627 0.4823171 -0.3054992 0.15867366
0.15598993 -0.21352452 -0.19132087 -0.19196309 0.40334845 -0.0008016831 0.46229696 -0.4421583
-0.029522954 -0.22683185 -0.14341997 0.32207468 -0.13878013 -0.19544365 0.32310373 -0.2919278
0.053102236 0.36153334 0.408817 -0.3045085 -0.37549403 0.25273445 -0.3745931 0.31131592
-0.09815783 0.41123164 0.28376985 -0.3957108 -0.35040718 0.26209912 -0.30792806 0.032452114

blocks.0.attn.proj_FacTs.weight f4 [8, 8]
00000000: ed5d 46be 13c6 d6be 0da4 633c cb09 c33d
00000010: e80b ef3e 5322 a3bd 98e8 c4be e1e0 96be
00000020: b1cd 853e b18c 1ebe f71d c2be e11c 623e
00000030: 67cf e73e c115 a53e 3de8 f4be 7786 59be
00000040: b5ec 73be 2b8d 943e 6d86 093f 7a3e 30be
00000050: 3dac a93d 2b7c f73d 06e9 aa3c bd65 673e
00000060: caf1 e73d 905c 97bd 31ef 5f3e 004d afbd
00000070: 41ec a93d c7c5 dabd bc29 9fbd 1834 8bbd
00000080: 33e3 db3d f884 fe3e 7c85 0bbf 10c6 afbe
00000090: aeb9 04bf c0ea 34be 2f97 063f 289e fabe
000000a0: 0eb9 19be 0d88 cc3e 8a2b 9a3c c4c7 bebe
000000b0: 6a49 8abd 2bd0 34bd 41a0 c03e 7be0 f3be
000000c0: 99dd c93e ec28 9e3d a290 e8be 24d2 79be
000000d0: 410c c7be 3b3c 78be 2a5a da3e fb2e babe
000000e0: 5c66 58be d31b c3be efaa e1be 75d6 e93e
000000f0: 5242 973e 80eb 903c b49d 573e 55e1 623e
-0.19371767 -0.41947994 0.013894093 0.09523352 0.4668877 -0.07965531 -0.38458705 -0.29468444
0.26133493 -0.15483357 -0.37913486 0.22081329 0.45275423 0.3224316 -0.47833434 -0.212427
-0.23820765 0.29013953 0.5372074 -0.17211333 0.08284805 0.1208423 0.020863067 0.22597404
0.113254145 -0.07390702 0.21868588 -0.085596085 0.08297015 -0.10682254 -0.07771632 -0.067970455
0.10736694 0.49710822 -0.54500556 -0.34330797 -0.51845825 -0.17667675 0.5257444 -0.4894879
-0.15011999 0.39947549 0.01881959 -0.37261784 -0.06752284 -0.044143837 0.37622264 -0.47632203
0.39426878 0.07722649 -0.45422846 -0.24396569 -0.38876536 -0.24241726 0.42646915 -0.36363968
-0.21132797 -0.38107166 -0.44075724 0.4567143 0.29542786 0.01769042 0.21056253 0.2215627

blocks.0.mlp.fc1_FacTs.weight f4 [32, 8]
00000000: 8897 a9be 6204 e6be 7e03 9a3b bf33 a83e
00000010: 8bcc 823d 0dad e3be c4f6 6e3e d161 bcbe
00000020: 9558 4d3e 1445 43be 9fef ca3e 65bc 8cbe
00000030: 1dcb 8a3e d7c0 883d d856 133e 9a60 07be
00000040: 2af7 2b3e f943 f0bd fb44 a43e e120 81bd
00000050: d794 8ebc 4c0a c13c bbe1 a23d c00b c4bd
00000060: 1dca 993e 5f69 d3be bbb7 373e 97ea 75bc
00000070: cd91 1abd 70e6 aabe 9f67 193e 525b b0be
00000080: 1ef2 bdbd 3da1 d43d 73d7 fa3d b04d acbe
00000090: d551 343d b854 723d 451f 273e d097 2a3e
000000a0: 10fd 6b3e fe1f aabc f7c0 293e cc06 d53d
000000b0: fcfa 4e3e 6e52 c1be 0bb7 ecbd 5c52 6cbd
000000c0: a3db c3be 155f b6bd 5bcf 0ebe 197e c33e
000000d0: d0b0 a73e 5537 87be d0fa 373e 2266 01bc
000000e0: 7d16 e9bd b346 dd3e e694 b63d 4567 d23e
000000f0: 16fc 983d 2542 b3be f8ef 59be f62d 0e3e
00000100: 2703 99bd 15ec 273e 906f 9bbc 54ac 97be
00000110: dc66 403d d7be 93be d08a 753e ec95 c0be
00000120: 9a66 05bd 6925 30be aa34 89be b460 8b3e
00000130: ccbd 1ebd 4968 6b3e 3dd0 e3be 0033 693d
00000140: 6d01 60be 9cb0 bd3e fc76 dcbd acda a33e
00000150: 1fef 9bbe 8d00 0f3e 335a 2abe 28fa a83e
00000160: e4ca 393e 924d 45be 2c56 8b3e df4e b23e
00000170: 8fe0 1a3d 87db 8b3e 9a27 aebd 5dc8 d2be
00000180: 981b 79be 32b0 27be c288 3e3e 980e 403c
00000190: ee1a 6abe 08d0 0e3e 3384 b43d 6025 373e
000001a0: 8427 c6be 6a59 933e e082 debe 16da aa3e
000001b0: 80cb 23bd 109b cbbe 5e4a 66be 9035 403e
000001c0: f5d2 083e 9731 2e3e 1d42 ac3e 183a b33d
000001d0: 5e9b edbc 1d57 71be 35b2 7a3e ff0d a9bd
000001e0: 0a2a 413e 8e07 91be 42d6 1cbe bdb5 d0bd
000001f0: 0e0a bbbe e380 c53e 1d92 063e d6e7 51be
00000200: 29c3 0b3e 0a93 b7bd 4ccf 84be 00d6 74be
00000210: 9208 5abe ef08 8fbe 268e 893e c108 e2be
00000220: 5997 0fbe e882 cc3e f745 65bd 1e85 35bc
00000230: a4ba 633e 3a00 193d 3ed5 0c3e 3d12 70be
00000240: eec9 97be c07e 753e 9888 acbd d4f0 93be
00000250: 1a07 6f3e 67e6 043c 0c95 7b3e c0a3 5b3e
00000260: 60f8 82be e802 783e 6378 c23e 3616 01be
00000270: 819e 953e 5a11 6bbe 1323 12be 7560 7abe
00000280: cca8 e53d 9a25 163e 43c9 96bd 7ec4 39bc
00000290: 7330 65be b0eb 79be ccba a9bd ebb5 e2bc
000002a0: 3501 b8bc dfb2 d1bd 34fb 9a3b 0f63 9e3e
000002b0: 7c32 03be 3c1d c13e 0738 edbd ff5d 66be
000002c0: 6d0e ed3d cd7f 91bd 65d2 473e e676 6cbe
000002d0: 64c7 95be 528d a2bd b41d c6bd 8828 953e
000002e0: b722 49be 91ab fb3e d57d f9bd 7fc0 883e
000002f0: 17ff 38be df15 4ebe 680a b9bc 8831 8e3e
00000300: 37d0 54be 4f1b 0cbe 59d0 ab3e 909a b33d
00000310: 6129 8c3d 7883 4abe b65e 6cbe 6acb babe
00000320: 9e1a 91be 6368 b5be 79a3 333e ad0e 61bd
00000330: edd7 693e 75db 10be d512 5c3e fc6c fb3d
00000340: aec6 a5be 6f80 40bd 54ae 5f3e 25c6 da3d
00000350: 08be 183c e800 68be 0b39 7abe 3b45 83bd
00000360: 95d9 3b3c 7370 8fbe 9c25 9a3e 9698 68be
00000370: 75a8 463e f344 53be de89 8d3e f193 dfbe
00000380: 3ce3 6bbe 42f3 fd3d 26d3 b8be dd4e f8bc
00000390: 0acd 403e 7321 9dbe 78d8 b53d 6ed2 8f3e
000003a0: 08b9 b23e 2e60 6dbe fa94 6e3e 9954 583e
000003b0: 6175 3a3e e3f2 acbc 2a2a 243d 5b11 8bbd
000003c0: 830f a83e 89be e73d 7057 f3bd 67d3 6f3e
000003d0: 47bc 463e 1f0b 593d 9e30 babd c1f8 28be
000003e0: 1580 79be 154a 13be 976d 4cbd 23a8 d03e
000003f0: 9bed b43e 6d20 693d 6a89 a23c 2d81 b93d
-0.33123422 -0.4492522 0.0047001233 0.3285198 0.0638667 -0.44467965 0.23336321 -0.36793378
0.20053323 -0.1906932 0.3963594 -0.27487484 0.27108088 0.06677406 0.14388597 -0.13220444
0.16793504 -0.11731715 0.32083878 -0.06305099 -0.017404957 0.02356448 0.07953211 -0.09572554
0.30037013 -0.4129133 0.17941181 -0.015009544 -0.037736703 -0.33378935 0.14980935 -0.34444672
-0.09274696 0.10382316 0.12248125 -0.3365302 0.044023354 0.059162825 0.16320522 0.16659474
0.23045754 -0.020767208 0.16577516 0.10401687 0.2021293 -0.377582 -0.1155835 -0.05769573
-0.38253507 -0.08904854 -0.13946287 0.38182142 0.32752085 -0.26409402 0.17966771 -0.0078978855
-0.113812424 0.43218002 0.08915119 0.41094413 0.074699566 -0.35011402 -0.21282947 0.1388472
-0.074713044 0.16398652 -0.018974096 -0.29623663 0.046973094 -0.28856537 0.23978734 -0.3761438
-0.03256855 -0.17201771 -0.26797992 0.27222216 -0.038755223 0.22989 -0.4449481 0.056933403
-0.21875544 0.37048805 -0.10764882 0.3200277 -0.30455872 0.13965054 -0.16635971 0.33003354
0.18143803 -0.19267872 0.2721418 0.348258 0.037811812 0.27315924 -0.08503647 -0.4116849
-0.24326932 -0.16375807 0.18606856 0.011722229 -0.22861835 0.13946545 0.088142775 0.17885351
-0.38702023 0.28779155 -0.43459225 0.3336951 -0.039988995 -0.3976674 -0.22489306 0.18770432
0.13361724 0.17011105 0.3364419 0.08751315 -0.029004749 -0.23568387 0.24482043 -0.08254623
0.18863693 -0.28326076 -0.15316108 -0.10190914 -0.3653111 0.38574895 0.13141675 -0.20498595
0.13648666 -0.08963592 -0.25939405 -0.2390976 -0.21292332 -0.27936503 0.26866263 -0.44147304
-0.14022578 0.39943624 -0.055974927 -0.011079101 0.22239166 0.03735373 0.1375322 -0.23444457
-0.29646248 0.23974133 -0.08424491 -0.28894675 0.23342553 0.008111573 0.24568576 0.21449184
-0.2558012 0.24219859 0.37982473 -0.12606129 0.2922249 -0.22955838 -0.14271192 -0.24450858
0.11213836 0.14662781 -0.073626064 -0.011338351 -0.22381763 -0.24406314 -0.08287582 -0.027674636
-0.022461513 -0.10239195 0.004729653 0.3093495 -0.12812227 0.37717617 -0.11582952 -0.22496794
0.11575017 -0.07104454 0.19513853 -0.23092231 -0.29253685 -0.07937111 -0.09673634 0.29132485
-0.19642149 0.49154332 -0.12182204 0.26709363 -0.18066059 -0.2012553 -0.02258797 0.27772164
-0.20782553 -0.13682292 0.33557394 0.08769715 0.0684383 -0.19776714 -0.23083004 -0.36483318
-0.2834062 -0.35431203 0.17542829 -0.054945637 0.22836275 -0.14146216 0.21491559 0.122766465
-0.32378143 -0.046997484 0.21843845 0.10682324 0.009322651 -0.22656596 -0.24435823 -0.06409689
0.01146545 -0.2801548 0.3010682 -0.22714457 0.19400199 -0.20631771 0.27644247 -0.43667558
-0.23035902 0.12399913 -0.36098593 -0.030311042 0.18828216 -0.30689582 0.08879179 0.28090233
0.34906793 -0.23181221 0.23299018 0.21126021 0.18208839 -0.021111911 0.040079273 -0.0679042
0.32824335 0.113156386 -0.11881912 0.23420487 0.1940776 0.05298912 -0.09091304 -0.16501142
-0.24365266 -0.14383729 -0.0499092 0.40753278 0.3533753 0.05691569 0.019840915 0.090578414

blocks.0.mlp.fc2_FacTs.weight f4 [8, 32]
00000000: fc03 633c 5e03 953d 6bf2 41be bf23 8abd
00000010: 0821 fa3c 54ba 99bd 7ed5 b73c c9eb 4e3d
00000020: 92d0 683e dc3d 143e e530 ff3d ecd7 f1bd
00000030: a806 a1bd 3cb9 1c3e 2a80 0fbe edc0 9bbd
00000040: 6fb4 d43c 7baa 1a3d 10dc 103e 777c a43d
00000050: 5ea5 84bc 444c 003e 9305 353e 965e 23be
00000060: 186c 62be 0565 ab3d 7654 3cbe cf05 653e
00000070: bea2 f03c ce82 dc3d 80dc b9ba 6cdf a9bd
00000080: a880 1c3e 95b9 23be 9df4 a23e ffcb a9bb
00000090: 826d afbd 1493 a93e eb53 3fbe 3525 983e
000000a0: c517 793d ff2c b9bc cc73 b23c 4487 063e
000000b0: 8f70 edbd aea4 f73d fe45 76be c520 613e
000000c0: b704 b53d 7fb7 aabc 097d 013d f4ef 53be
000000d0: d7f7 c5bb c5fc 09bd aecb a7be f89c 7c3d
000000e0: c8f2 0bbd ab55 f23d bb3f 46bd 03ef 99be
000000f0: 8337 b0bc b3ee 48bb ec29 0fbe b1c0 903e
00000100: 6ff0 1e3e 0a48 b13d a39f 0bbd 940c 82bb
00000110: bd93 d8bc 2fe8 97bd bdb5 ee3d 46c4 16be
00000120: 9890 47bd 7f8b 58be ef9c 1dbe 3333 283e
00000130: b041 92bd d054 80be af59 b73d 8c27 083e
00000140: 66ad 89bd efc3 0dbe 4632 133d 3d28 d93c
00000150: 69f4 ff3d 12d9 123e 8972 8e3d 2da0 413e
00000160: 24f1 47ba 88af e73c f3e4 c8bc 4368 de3d
00000170: 4142 f4bd 2fa8 203d 34d1 943d ad62 b1bd
00000180: fb53 5fbe 3747 babd 4bd9 d7bd 244a 02be
00000190: 32b6 043e 6a7c 113e 309b 7c3e 047a 0c3d
000001a0: 48de 8dbe 029d 6a3d 84ad bd3d dadb d2bd
000001b0: 8147 863e 10c5 293e e86b 92bc 5ff2 2ebe
000001c0: ebe8 7e3c 559c edbd c406 183e adb1 ba3d
000001d0: e0e2 013e c28d f6bc ddf4 713e e0b2 41be
000001e0: db86 4bbe ce49 553b 3aa9 b83d b9d9 2abd
000001f0: 2497 3e3d affa 9ebd 16f1 a33d f3e2 2cbe
00000200: 2944 153d c032 5a3d aef1 ad3d 0dc8 a0bb
00000210: 106e 24bd bef5 22bc d6a3 073e 9e5d 24be
00000220: 9748 0dbd 86aa 233e c332 e53d 61b8 65be
00000230: c244 163d 756b 3ebb 66fa dcbd a4c1 a83d
00000240: 7efd 10be 3780 54be 37c5 dabd 350f 313d
00000250: 5684 5f3e bf73 b2bd 507d 4fbe 46fb 12be
00000260: bc8a ddbd 2cff bebb 749f f73d 89b7 993d
00000270: c860 96bd 20ff dbbc 60c6 303d bbe8 99bd
00000280: 2411 bcbb 4454 ae3d c5b8 32be a297 283e
00000290: ade6 fe3d edef 523c 6d58 1a3d de6e c73d
000002a0: e23b a1bd 64c3 963c ac53 6e3e 101f 083e
000002b0: a86e 1cbc 1729 05be 637c 6dbe 48b7 3c3e
000002c0: a1a8 e6bc ff58 1f3d b534 e93d a030 1e3e
000002d0: 4aa6 2bbc afe8 233e 4976 8dbd 0786 3f3e
000002e0: e8e5 c13d 929b 103e ec7a 003e acfb 2bbe
000002f0: af5d bbbd 0a71 9bbd 2254 e0bb 26f6 483e
00000300: 7143 ed3d 02a4 863d 4f66 3ebe 563f 2d3e
00000310: 5bfa febc 9e8a ebbd 249c ff3d 3773 ca3d
00000320: 7330 b5bd 91a4 d93c 7d4a 5e3e dff5 b43d
00000330: 11db 2ebe 1b24 013e b798 6a3d ae83 18be
00000340: 1fe1 143e ebf1 c43b 5f3b 4fbe 70eb b03d
00000350: b1df b8bd bc6a 3bbe f4e3 f53d 3be2 9d3c
00000360: 70e2 e13c d8de 77bd a794 debd dddc 50bd
00000370: 1947 d33d cd62 943d 4308 0fbb 8be1 39be
00000380: c77e 823e 6640 00bc 5469 e5bd 853a 9e3d
00000390: c4c9 3ebd 5070 5d3e a147 9ebe ca5d 6e3d
000003a0: b573 aabd 91e3 93bc b3ef b1bc e566 20bd
000003b0: 033a fc3b 7cac efbd cf23 edbd ab06 3e3e
000003c0: 8b69 cc3a e544 213e 8edc 343e d0a7 5ebd
000003d0: 173d 99be 06db 50bd 17cb 26bc 75af da3d
000003e0: 4695 1cbd ff96 063e b70c 14be 0661 f1bd
000003f0: 2e2e 11be 4471 9e3d db24 92be 5425 9c3e
0.01385593 0.07276033 -0.18940131 -0.06745099 0.030533329 -0.075062424 0.022440668 0.05051783
0.22735813 0.14476722 0.12460498 -0.11808762 -0.07862598 0.15305036 -0.14013734 -0.07605157
0.025964944 0.03776024 0.14146447 0.08031552 -0.016192134 0.12529093 0.17677908 -0.1595405
-0.22111547 0.08368877 -0.18391594 0.22365497 0.029374477 0.107671365 -0.0014180094 -0.082945675
0.15283453 -0.15988763 0.3182725 -0.005181789 -0.08565809 0.33120024 -0.18684356 0.29715887
0.060813684 -0.022604464 0.021783732 0.13137537 -0.115937345 0.12091957 -0.24050137 0.21985157
0.0883879 -0.02083945 0.031613383 -0.20697004 -0.0060415077 -0.033688325 -0.32772583 0.061673135
-0.03416708 0.11832746 -0.04840062 -0.30065164 -0.021510845 -0.0030659854 -0.13980836 0.28272012
0.15521406 0.086563185 -0.03408779 -0.0039687846 -0.026437635 -0.074173324 0.116557576 -0.1472331
-0.04872188 -0.21146964 -0.15391897 0.16425781 -0.07141435 -0.25064707 0.08952653 0.13296336
-0.06722526 -0.13844274 0.035936616 0.026508445 0.124977894 0.14340618 0.069554396 0.18908758
-0.00076271803 0.028281942 -0.024523234 0.1085973 -0.119266994 0.039222892 0.07266465 -0.08661399
-0.2180938 -0.090956144 -0.10539492 -0.12723595 0.12960127 0.14207616 0.24668574 0.03429605
-0.2770865 0.05727864 0.09261611 -0.102958396 0.26226428 0.1657908 -0.01787372 -0.17084645
0.015558462 -0.116020836 0.14846331 0.0911592 0.12684202 -0.030096892 0.23628564 -0.18915892
-0.19875662 0.0032545212 0.090166524 -0.041711543 0.046530858 -0.07762658 0.08004968 -0.1688345
0.036441956 0.053271055 0.08493362 -0.0049066604 -0.040144026 -0.009946285 0.13246092 -0.16051337
-0.034493055 0.15983018 0.11191323 -0.22433616 0.036686666 -0.0029055749 -0.10789947 0.08240059
-0.141592 -0.20752035 -0.10682147 0.043227393 0.21827826 -0.08713483 -0.20262647 -0.14353666
-0.10817477 -0.0058287587 0.1209096 0.0750571 -0.07342678 -0.026855052 0.043157935 -0.07515093
-0.005739348 0.08512166 -0.17453296 0.16464093 0.12446342 0.012874586 0.037681986 0.09737943
-0.0787275 0.018403716 0.23274106 0.132931 -0.009547867 -0.13003956 -0.23191981 0.18429291
-0.02815658 0.038903233 0.11387006 0.15448236 -0.010476658 0.1600673 -0.06907327 0.18703471
0.09467679 0.14121845 0.12546891 -0.16795224 -0.09148728 -0.0758992 -0.006845967 0.19625148
0.11585129 0.06574251 -0.18593715 0.16918692 -0.031125238 -0.115010485 0.12480953 0.09885257
-0.088471316 0.02656773 0.21708103 0.08835959 -0.17075755 0.1261143 0.057274546 -0.14893982
0.14539002 0.006010284 -0.20237492 0.08638656 -0.09027041 -0.18302435 0.12006369 0.019272914
0.027573794 -0.060515255 -0.10868197 -0.05099188 0.10316295 0.07245407 -0.0021824993 -0.18152444
0.25487348 -0.007827854 -0.1120173 0.077260055 -0.046579137 0.21624875 -0.30914024 0.058194913
-0.083228506 -0.018052848 -0.021720743 -0.039160628 0.007697345 -0.11702821 -0.115790956 0.18557231
0.0015595419 0.15748937 0.1766226 -0.054359257 -0.2992942 -0.050990127 -0.010180256 0.10677997
-0.038228296 0.13143538 -0.14457975 -0.11786084 -0.14177772 0.077364475 -0.28543743 0.3049723

blocks.1.attn.q_FacTs.weight f4 [8, 8]
00000000: 569b 073e a8d7 223e 5436 513e 41b6 763e
00000010: a61d 14be 24a2 8bbe b24c aabe aab4 64be
00000020: 268b 5a3e 9cb2 c63e 7a76 8d3e dbde 383e
00000030: 5856 52be 0e35 903d 26fe 643e f5eb b4bd
00000040: d674 ccbe 0be6 f0bd 94e2 b5be 3af5 e1bc
00000050: fa0b ce3e 005a 4abc b583 10be 4456 cabe
00000060: 42e1 b03e e114 2ebe ebea b83e 02e4 883d
00000070: f0d1 92be 53a2 363d c9d6 8a3e ec9b 15be
00000080: cd7a 5b3e f33e 4e3d 21bc 9cbe 50d2 f3bd
00000090: 7e88 573e e2d9 01bd 45b7 f93c 687a 853e
000000a0: d777 f63d 5bb7 53be 4274 62be c25c 9abd
000000b0: 0060 163e 0508 03be 2954 9a3e 8c96 90bd
000000c0: 13eb 643e 44c3 463d e2fc e23e 76a2 383d
000000d0: 1a2b e3be e636 743d 3769 173e a304 033f
000000e0: e5b5 c9bd 9715 37be f055 85be 1558 353e
000000f0: 3e55 5d3e 4970 90be 4cae b13e 7881 5f3e
0.1324285 0.15902579 0.20430881 0.24092962 -0.14464435 -0.2727214 -0.3326164 -0.22334543
0.21342143 0.38808143 0.27629453 0.18053763 -0.2054075 0.070413694 0.22362575 -0.08834068
-0.3993289 -0.11762627 -0.35524428 -0.027582753 0.40243512 -0.012350559 -0.14112742 -0.3951894
0.34546858 -0.17000152 0.36116728 0.06684114 -0.28675795 0.0445884 0.27116993 -0.1461026
0.21433564 0.050353 -0.3061228 -0.11905348 0.21048161 -0.03170193 0.030482898 0.2606995
0.120345764 -0.20675413 -0.22114661 -0.075372234 0.14685059 -0.12796028 0.30142334 -0.070599645
0.22355299 0.048526064 0.4433356 0.04507681 -0.4436882 0.059622668 0.1478623 0.5117895
-0.09849147 -0.1787933 -0.26042128 0.17709382 0.21614549 -0.28210667 0.3470329 0.21826732

blocks.1.attn.k_FacTs.weight f4 [8, 8]
00000000: 8a65 1d3e d990 7cbe 1fd4 56bd 5d22 3abe
00000010: 7771 723e 5afc a4be 2ef6 533e ad3e 953d
00000020: de48 183c ecc2 b93d 0789 9abd 1e54 393e
00000030: 9c1a 8d3e 37d7 523e c875 7dbd 4acc 9dbe
00000040: 807c 043e 6976 58bd 0592 693e 9f1a 3fbe
00000050: 7ca3 30be 7542 863e aea6 86bd 390c 88be
00000060: 66e7 bcbd c638 7c3e 1cb1 643e 6c62 a3bd
00000070: 2025 cc3e 8b8b 933c 2439 623d 16cd fcbd
00000080: a55a fd3b b084 4e3d fbb8 58be 0529 b4be
00000090: b876 dcbe 9991 46be 58d5 8bbd c8e7 ca3e
000000a0: 7334 a9be a696 21be 5f47 76be 091b 9fbc
000000b0: 629d 823e 0594 203e d8ba 6dbe c8a6 62be
000000c0: 0160 513e 6e25 883e 1a29 99be efc0 9c3e
000000d0: 51de acbe 9b2c 9c3e 9e2d cfbd 94c1 c73e
000000e0: 171d 543e 289e b7be 5879 853e 6901 b9be
000000f0: 5dc5 a43d 16cf 9abd 8827 813b 3d0d bebc
0.15370765 -0.2466463 -0.05244839 -0.18177171 0.23676096 -0.3222378 0.20699379 0.07287345
0.009294717 0.090703815 -0.07545667 0.18098494 0.27559364 0.2058991 -0.061879903 -0.30819923
0.12938118 -0.0528473 0.22809608 -0.18662499 -0.17249864 0.26222578 -0.065747604 -0.26571825
-0.09223823 0.24631032 0.22333187 -0.07977757 0.39872074 0.018010875 0.055230275 -0.123438045
0.007731753 0.05041951 -0.21164314 -0.35187545 -0.43059325 -0.19391479 -0.068278015 0.3962996
-0.33047828 -0.15780124 -0.24050663 -0.019422071 0.255107 0.15681465 -0.23215806 -0.22133934
0.20446779 0.26591057 -0.2991417 0.30615947 -0.33763364 0.3050278 -0.10116123 0.39014876
0.20714222 -0.3586285 0.2606914 -0.36133888 0.080454566 -0.0755903 0.00394148 -0.023199672

blocks.1.attn.v_FacTs.weight f4 [8, 8]
00000000: c1b8 713b fb92 873d 87a9 473e 41c2 87be
00000010: c0da c93e e71b 873e b33f ad3c 367d b63c
00000020: 446d afbe 50bb a93b 80c1 66bc 70e3 c6bd
00000030: 9ec9 c43d 1cad 943e f5ad 48be cf98 cabc
00000040: c708 07be ade6 013f 070d ab3e 5af0 22bd
00000050: 2b01 cabe 9936 ad3e 3f23 873e d29e 1c3e
00000060: 1631 fb3d 5898 ea3d f831 1b3e bc4d 963e
00000070: ddef cc3d 5c46 3fbe be29 f0be b904 333e
00000080: 2294 5abd f6e2 fdbd 9a2d 1f3e 59b2 91be
00000090: 2fbd b2be 9835 cd3e edf0 eebd 29eb 11bd
000000a0: 70ca 11bd 8877 d33e bddb 343e b1fe 393e
000000b0: 6934 bf3e ddde b3be fc88 ba3e a950 79be
000000c0: 30f3 6b3d a965 acbe 0075 983d ac79 8e3e
000000d0: fb75 9fbe fa42 3bbe 81c2 7c3e 089b 0a3f
000000e0: 301e 803e 9c37 513d 6534 523d 81f7 b3be
000000f0: 2fc8 65be 474c 3abe 11bb f13e 8d8f ff3d
0.0036883804 0.06619831 0.19498263 -0.2651539 0.39424706 0.26388475 0.021148538 0.022276502
-0.3426305 0.0051798 -0.01408422 -0.09711349 0.09608768 0.29038322 -0.1959761 -0.024731068
-0.13186942 0.5074261 0.33408377 -0.03978 -0.39454016 0.33830717 0.26394078 0.1529496
0.12265222 0.114548385 0.1515578 0.29356182 0.10006688 -0.18679184 -0.46906847 0.1748227
-0.053363927 -0.12396805 0.1554474 -0.2845638 -0.3490996 0.4007995 -0.11667047 -0.035624657
-0.03559345 0.41302133 0.17661949 0.18163563 0.37344673 -0.3513097 0.36432636 -0.24347176
0.05760497 -0.3367131 0.07444191 0.27827203 -0.311447 -0.18287268 0.24683572 0.5414281
0.2502303 0.051078424 0.0513195 -0.35149768 -0.22439645 -0.1819316 0.47213033 0.12478552

blocks.1.attn.proj_FacTs.weight f4 [8, 8]
00000000: d1a7 95bd fd69 a93e 283c 94be e258 113e
00000010: c42b babe 7a55 82be 0998 21be 61e8 813e
00000020: 0235 fc3c 3058 5b3e e0d4 7cbe 07ec 903e
00000030: 778e c8be 707f b93d ff46 583e b641 04bf
00000040: d0e4 5f3e 96b8 bb3e 72b1 dfbe a63b ae3e
00000050: c07a 89be 9ced c0be 23e2 c03e b277 82be
00000060: 942c 98bd c6a1 39bd 31da 413e 580a 113e
00000070: cb74 dc3e bc56 d3be 6eea 8e3e f93e 78bb
00000080: 20b9 ac3e 4b40 4f3e f2cd 353e bde1 45bd
00000090: 3aa9 8dbd 289a 70bd 30fe d13d f0b5 bb3c
000000a0: e0cf e3bd fedd 9bbb f7e3 88bd a416 7d3e
000000b0: f673 a1bc c2f9 233e fa69 dd3e b470 cfbc
000000c0: 1c1a 16be c2a3 85be e35f e83c 799f 07be
000000d0: db59 0cbe 9c7f 833c a385 c93e 1366 933e
000000e0: 5b29 a9bd a9b5 c03e 156d 40be b911 923e
000000f0: 23d0 823e 7556 a9be 56bc 383e aff2 04bf
-0.07307399 0.33088675 -0.28952146 0.14194062 -0.36361516 -0.25455838 -0.15780653 0.25372604
0.030786995 0.2142036 -0.2469058 0.28305075 -0.39171192 0.0905751 0.21120833 -0.51662767
0.21864629 0.36664265 -0.43690068 0.34029883 -0.26851463 -0.37681282 0.3767253 -0.25481945
-0.074303776 -0.045320295 0.1893089 0.14164102 0.43057856 -0.4127711 0.2791323 -0.0037879332
0.3373499 0.2023937 0.17754343 -0.048310984 -0.06917043 -0.058740765 0.102535605 0.022913903
-0.111236334 -0.004756688 -0.06684106 0.24715668 -0.019708615 0.16013244 0.43244916 -0.025322296
-0.14658397 -0.261015 0.028366035 -0.13244428 -0.13706152 0.01605206 0.3935977 0.28788814
-0.08259841 0.37638596 -0.18791611 0.28529146 0.2554942 -0.33073774 0.18040594 -0.51932806

blocks.1.mlp.fc1_FacTs.weight f4 [32, 8]
00000000: f988 a8be bcf6 413e ce09 7cbe 6285 433d
00000010: b1cb 453e 1cb5 8a3e c132 c83d a5f8 b637
00000020: 9f1f 99bc 7bf5 cc3e cd3c 693c 095e 27bd
00000030: 1927 cbbe 095b 983c b7bd 743e b90d 00be
00000040: 5977 cebe 2325 8dbe c348 f63d 82ae fe3e
00000050: 00af 36be b3dd d4bd 9219 7cbe 2fae c63c
00000060: 1acb 9bbe 55dc 12be 87dc c7bd 8e8b 44be
00000070: 7846 ae3e 58ea 00be cd54 adbd 7b08 a3be
00000080: 9fed 633e 15bf 743e 7445 6c3e 84a3 c03d
00000090: 6214 f43d 4e4f 793d 3855 69be 1be4 983e
000000a0: 1cbb 883d 70fb 86be 257e 213e 9b86 20bd
000000b0: 923a 813e 8ff8 b63e 3f97 a83e 021c 9b3e
000000c0: cf39 5e3e 138d 023e 91ce eb3d 7ba1 82bc
000000d0: 3484 2a3d 4b20 8d3c 79c7 d73d f241 bdbd
000000e0: 493e 9f3e b42b cabd 89fb 323e 475d 35be
000000f0: 60a7 483e 62b5 8fbd d183 dcbd 49d0 cc3e
00000100: 5652 2abe a901 f8bd ee01 ce3e 0706 4e3d
00000110: df15 babe 817f 4e3b aa6a 5cbb 30e4 763e
00000120: b8f7 a5bd 021e 993e 0007 a73e e56e 39be
00000130: bf0c a13e 265f 05bc ee07 213e c2fc 963e
00000140: 8d52 59be 1a3f 853e d042 95be 2e10 d6bc
00000150: ec5b 8fbd e43b b2be a930 423e 8454 18be
00000160: 60d1 073e ef29 90be 059f 0cbc e80f dabd
00000170: a07f a6bd c856 b33e f629 9fbc ed1e 313e
00000180: 4e41 6a3d c76a 0bbb a76f a7bc 4322 8c3e
00000190: f70a 48be 814c a3be c751 83bd 4526 dabe
000001a0: 9704 04be 02e2 a1bd f3fb 983e 6f97 95be
000001b0: a713 bdbd 4d3d c93d 66a6 8cbe 6016 193e
000001c0: f0ee 903d e6dc 043e e317 263e c9d1 80be
000001d0: 57b1 3dbe cf7e f83d 35fd 28be 6623 893e
000001e0: 6c1c 9dbe 8891 c23e 43b8 84be 5bd8 80be
000001f0: d09d 3b3e 11d4 0abd 4edb 7e3e 9de8 a83e
00000200: c531 de3c c01c b93d 35a6 063e 0e21 0ebe
00000210: a13e be3e 1442 643d 5c0e a2be 4f27 a33d
00000220: 3a46 4b3e 8344 413e ec95 1e3d aa19 89be
00000230: 09b6 2fbe a580 473d fbd8 a93e 2fa5 a43d
00000240: 4f64 803d 5db0 173e fce8 93bd bae8 443d
00000250: 03b7 12be cefe b1be f852 89be e83a ebbd
00000260: 6743 063d fd36 6b3e df7d f93d 80a6 c93e
00000270: 0af3 dbbd a051 3dbe e7be ddbe 44a3 1ebd
00000280: 8ebf 61be 3a43 4cbe 960d 9e3e a073 ca3d
00000290: 8c09 f5bd d1f9 7e3e 1516 803e 2c29 cc3c
000002a0: ea2c 353a 093b a43e d12a 91be 44cc 5cbd
000002b0: 8bfe c7bd bf62 a6be 0b5b 18bd 4993 933e
000002c0: d022 8ebe 8e49 86be 145d 92bd 9751 863d
000002d0: 0173 403e e2dc 9abd fad9 acbe d2a5 523e
000002e0: fcb9 81be aa1a 9d3e deca 923d 0433 3c3e
000002f0: ada4 a63e 5e24 8f3e 4a14 5abe 6d77 3d3e
00000300: e0d8 d13d 770d c6bd a4de 1c3e 5452 983e
00000310: 6e92 13be bc14 493e ce2e 263d ee34 a5be
00000320: a124 aa3e f43a 2e3e d380 393e c6c3 2a3e
00000330: 3ff3 833e 9c14 bebd ec2d bfbd 8165 63be
00000340: 5373 cb3b e9b6 23be 7b7a 64bb 4f53 9a3e
00000350: 8ee0 38be 0ed1 49be 63eb 2fbe a703 6d3e
00000360: 7720 7d3e 1234 35be 0b70 8cbd 1b59 b43d
00000370: 80b4 933c efe5 6ebd 15a0 bb3e 5b45 aa3e
00000380: a300 ba3d 31c9 d23d 20fe 0fbe 14f4 69be
00000390: a731 6bbe 5636 973e e1b5 103e fe54 5bbe
000003a0: 8c08 d6be 93fd 94be 6d93 d1be 42cb 103d
000003b0: bc28 3b3d cae8 4c3e 9e47 37be 975a 8bbe
000003c0: 27b8 e1bc 9ca5 883e 3a79 91be 8a72 903e
000003d0: 5fb5 433e a814 823e 77b7 f5bd b8e8 293e
000003e0: 00e2 9abe 6cea 7cbc bc33 debe 87f4 aa3e
000003f0: 0ed3 283e beb1 89be 792c 00be 5f97 043e
-0.32917002 0.18941778 -0.24613115 0.047734626 0.19315983 0.270913 0.097753055 2.1811875e-05
-0.018691836 0.40031037 0.014235687 -0.040861163 -0.39678267 0.018598096 0.23900495 -0.12505235
-0.4032543 -0.27567396 0.12025597 0.49742514 -0.17840195 -0.10393848 -0.2461913 0.02425298
-0.30428392 -0.14341862 -0.09758859 -0.19193861 0.34038138 -0.12589395 -0.0846344 -0.31842408
0.22258614 0.23901017 0.2307337 0.09406188 0.1191795 0.060866646 -0.22786415 0.2986153
0.06676313 -0.26363707 0.15770777 -0.03919087 0.25239998 0.3573651 0.32927892 0.30294806
0.2170174 0.12749128 0.11514009 -0.01594614 0.041629985 0.017227313 0.10536093 -0.09241094
0.31102207 -0.09871617 0.17478766 -0.17711364 0.19595098 -0.07017018 -0.107673295 0.4000266
-0.16632971 -0.12109692 0.40235847 0.050298717 -0.3634481 0.0031509104 -0.0033632913 0.24110484
-0.08103889 0.29905707 0.32622528 -0.18108709 0.31455037 -0.008140361 0.15725681 0.29489714
-0.21222897 0.26024705 -0.29152536 -0.026130762 -0.069999546 -0.34811318 0.18963875 -0.1487599
0.13263464 -0.28156993 -0.008582835 -0.10647565 -0.08129811 0.35027146 -0.019429188 0.17296953
0.057191186 -0.002127336 -0.020438982 0.2736989 -0.19535433 -0.31894305 -0.06412082 -0.42607322
-0.12892376 -0.07904436 0.29879722 -0.29217097 -0.09232264 0.09826145 -0.27470702 0.14949942
0.07076824 0.12974891 0.1622005 -0.25160053 -0.18524681 0.12133562 -0.16502841 0.2678482
-0.30685747 0.38001657 -0.2592183 -0.25165066 0.1832192 -0.03389365 0.24888346 0.3298997
0.027123341 0.09038687 0.1314934 -0.13879797 0.37157157 0.05572708 -0.3165158 0.07966482
0.19851008 0.18873791 0.038717195 -0.26777393 -0.17159285 0.04870667 0.33173355 0.08039319
0.06269132 0.14813371 -0.072221726 0.048073508 -0.14327626 -0.34764713 -0.26821113 -0.11485845
0.032779124 0.22970195 0.12182211 0.39384842 -0.107397154 -0.18488169 -0.4330971 -0.03872992
-0.22045729 -0.1994752 0.3086974 0.09885335 -0.119647115 0.24899985 0.25016847 0.024921976
0.0006911295 0.3207629 -0.2835298 -0.05390574 -0.09765347 -0.32497212 -0.0371962 0.28823307
-0.27760935 -0.26227993 -0.071466595 0.06558531 0.1879387 -0.07561661 -0.33760053 0.20571068
-0.25337207 0.30684406 0.071676 0.18378836 0.32547513 0.27957433 -0.21296802 0.18502589
0.10246444 -0.09670537 0.15319306 0.2975031 -0.14411327 0.19636816 0.04057198 -0.32266945
0.3323107 0.17014676 0.18115549 0.16676244 0.2577152 -0.09281275 -0.09334931 -0.2220669
0.006208816 -0.15987743 -0.0034863043 0.30141684 -0.18054411 -0.19708654 -0.17179637 0.23145925
0.24719416 -0.17695644 -0.06857308 0.08806058 0.018030405 -0.05832475 0.3664557 0.3325604
0.09082153 0.102922805 -0.14061785 -0.22847015 -0.2296816 0.29533643 0.14131881 -0.2141914
-0.41803396 -0.29099712 -0.4093279 0.03535009 0.045693144 0.20010677 -0.17898414 -0.27217552
-0.027553631 0.2668885 -0.284128 0.28212386 0.19112156 0.25406384 -0.11997884 0.16592681
-0.3025055 -0.01543675 -0.43398845 0.33389685 0.16486761 -0.2689342 -0.12516965 0.12948368

blocks.1.mlp.fc2_FacTs.weight f4 [8, 32]
00000000: 93e9 01be 333d 053e e7fe abbc e748 2cbe
00000010: 6474 aabd 0e74 12be bd97 a83d b339 703d
00000020: 0d96 30bd abfe a7bd dbef f93c 48da 0e3e
00000030: 0e1f 77bd f9bd 823d ddbf b83d d7e6 333e
00000040: 81c3 1fbe ccd6 5b3e c8c8 20be abbd 513e
00000050: 0517 89bd 48a8 79bc 5f5c 193e 4a11 52bd
00000060: 6e5b a33d 61f1 583d 1cea e53d 82c0 ae3b
00000070: a6fe f03c 60df 6a3c 8105 86be 007d 0c3d
00000080: 63ad 91bd 6cd2 d43d 6217 833d 35e3 cbbd
00000090: e09c d7bd 0116 be3c 79a4 a33d 62da 533d
000000a0: daa3 97bd f2ad c1bc 41b0 b8bd dab1 253d
000000b0: 7c2e c6bd f182 883d 2c6a 7dbe a298 89bd
000000c0: dcd2 483e 8f8a 5d3c b391 bebd 5206 ffbc
000000d0: cca2 3d3d 536a 903d e6cc 5abe 9149 233d
000000e0: 1dc5 bf3d 2d29 4abc 100d ccbc 9813 af3d
000000f0: 1a9e 8fbd 71e8 643e 847a 323d 8048 ccbd
00000100: 4023 03be 2b21 41bc 0f2f 3bbe 8e95 a6bd
00000110: a753 8d3c 564b ff3d 8780 44be 5068 663e
00000120: 9f1e 323e 510f cdbc 827e 9fbd 2115 4bbe
00000130: 7500 b0bd c051 5c3e 40ee dabd 2901 243b
00000140: 0da0 513e 434d e53b 7a2f 24be 97d4 bd3c
00000150: 0695 f8bd 2a34 853d bac9 663d a606 133c
00000160: 022d 713c 7cb6 2a3e 75df 0abd 6e29 38be
00000170: f846 df3d 826d ad3d 315c ba3c beed 673e
00000180: a214 a3bd 6fc3 28bd 83fc 2e3e f652 333e
00000190: f9eb 303c 4b53 f33c f668 313e 28c1 4cbe
000001a0: e63b e93c a228 47bd 827f 93bd 26d8 b5bd
000001b0: 061a 383e a790 733d 4c04 483e a634 623d
000001c0: 6f8e 1bbd bf2e 643c 8bc8 fbbd 631b 0e3e
000001d0: 9431 b33d eb5d bf3d 4909 f13d 4137 2d3d
000001e0: 8bf0 4d3c 93f8 81be c5e6 e83d a5f9 a43d
000001f0: 8972 f23c b0e2 8cbc 63ff acbd 0fe4 233d
00000200: 8615 52be 673b 413d 46e3 19bd ab3b 183e
00000210: 8822 adbd 20ab e6bd 94f7 473d 680e 94bd
00000220: 468d 953d bd0e 53be b5ed d4bc 2f66 cdbd
00000230: cd35 423e 9e94 2cbe 5a73 193e b61c c6bd
00000240: 409c 6cbd 5c86 85be 9cf4 813d e654 44be
00000250: 8212 95bd a326 65be 919e 1ebd 8b3d 64be
00000260: 0bce 10be 36f4 83bc 20c1 0fbe 38ab 4f3e
00000270: 768d 563e f26a 8abd dd28 d93d 4f7c fa3d
00000280: 4c80 16be 813c 85be 120b 48be 570d 313d
00000290: 9716 8a3d 973c 753e 5daf 753d 903a b53d
000002a0: 8a5c 39be 4f0d 9dbd 0ae1 87be d948 2b3d
000002b0: d87a 8d3d 59e9 0abe 7b32 4dbe c16f 3dbe
000002c0: 37d1 febd dd75 4ebe a932 6bbd 6f04 6d3d
000002d0: 27fa 71bd 7b68 60be bba5 4c3c 03ed f23c
000002e0: 31f8 713c e587 60bd bd90 bd3d b6d9 b63d
000002f0: 3515 09be 685e 813e a7a5 803d 4870 493c
00000300: fe85 1d3e a5bf b0bd 2afb 16be 9a32 35be
00000310: 10c8 a6bd 473c b3bd 7eaa 0c3e 1a1f 553e
00000320: b2f5 7cbe 9dd5 3e3e 07bb 31bc 5ff0 8d3e
00000330: 21bd 003d a425 fc3c e71a 3cbe ad75 71bd
00000340: a03b 1dbe d99d babd 3d0b 1fbe 1db3 56bc
00000350: 0bcc 8ebd ddb1 35be 596c 01be 2449 593e
00000360: 98c7 0fbe 1915 8c3e 4c67 18bd 73cc 4cbc
00000370: 91e3 45be 98fd bdbd bc57 12be 6327 ddbd
00000380: 15f0 16be 5aa6 3fbe 8ea9 c83d 7df4 39be
00000390: 16ed 03be f61f cabd d0b3 ec3c 8c62 ea3c
000003a0: f432 133e ae67 de3d b217 4ebd 9df4 003e
000003b0: 1671 d6bd cd7a 833e e45e 0abe 453c 323e
000003c0: 99a8 1c3d 05df ffbd f28a 39be 945b 193e
000003d0: 13cf a9bd ccfa fb3d 0ef8 36be efb7 113e
000003e0: 73d9 0ebe e05e 583e 8e12 d83d 8907 e5bc
000003f0: 4d66 09be c8e9 193e a5c2 6cbd 0ec3 f43c
-0.12686758 0.13011627 -0.02099557 -0.16824685 -0.08322981 -0.14302084 0.08232067 0.058648776
-0.04311185 -0.08202871 0.03050988 0.13950455 -0.06033235 0.06383891 0.0902097 0.17568527
-0.15601923 0.21468657 -0.15701592 0.20482509 -0.06693844 -0.015237875 0.14976643 -0.05128602
0.07976423 0.052964572 0.112262934 0.0053330073 0.0294183 0.014335483 -0.26176074 0.034298897
-0.07113149 0.10391697 0.06400944 -0.09955446 -0.105279684 0.023203852 0.07990355 0.051721938
-0.07404299 -0.023642514 -0.09017993 0.040452816 -0.09676835 0.066656 -0.24747533 -0.067185655
0.19611686 0.0135218045 -0.09305134 -0.031130943 0.046297833 0.0705153 -0.21367225 0.03986508
0.09363768 -0.012338919 -0.024908572 0.08548659 -0.07012577 0.22354294 0.04357387 -0.09974766
-0.12806416 -0.011787693 -0.1827967 -0.08133994 0.017251803 0.12465541 -0.19189654 0.2250073
0.17394494 -0.025031717 -0.07787801 -0.19832279 -0.08593837 0.2151556 -0.10689974 0.0025025106
0.20471211 0.0069977357 -0.16033736 0.02317266 -0.12137799 0.0650409 0.056344725 0.008973753
0.014720203 0.16671175 -0.03390451 -0.17984554 0.10902208 0.084681526 0.022749038 0.22649285
-0.0796292 -0.041202005 0.17088513 0.17512116 0.010798448 0.029702803 0.17325196 -0.19995558
0.028470945 -0.048622735 -0.072020546 -0.08879118 0.17978677 0.059464123 0.19532889 0.05522599
-0.037977632 0.013927161 -0.1229411 0.13877635 0.08749691 0.09344085 0.11769349 0.042289022
0.012569557 -0.2538496 0.11372141 0.080554284 0.02959563 -0.017197937 -0.08447149 0.040012415
-0.20516023 0.04717579 -0.03757026 0.14866512 -0.08453852 -0.11263108 0.048820093 -0.0722931
0.073023364 -0.20611091 -0.025992254 -0.100292556 0.18965836 -0.16853568 0.1498541 -0.09673445
-0.0577662 -0.2607907 0.06345484 -0.19173011 -0.07278921 -0.2237802 -0.03872544 -0.22289102
-0.14141099 -0.01610766 -0.14038515 0.20280159 0.209524 -0.067586794 0.10603497 0.12230741
-0.14697379 -0.26022723 -0.19535473 0.043225612 0.0674259 0.23948894 0.059981693 0.088490605
-0.18101707 -0.07668554 -0.2653888 0.04181752 0.06908196 -0.13565578 -0.20038788 -0.18499662
-0.12442248 -0.20162149 -0.05742136 0.057865556 -0.059076454 -0.21914856 0.012490685 0.029654032
0.014768646 -0.0548171 0.09256122 0.08928244 -0.13386996 0.2526734 0.06281596 0.012294836
0.15383145 -0.08630303 -0.14744249 -0.17695084 -0.08143628 -0.08751731 0.13736913 0.20812646
-0.247031 0.18636174 -0.010847813 0.2772245 0.031430367 0.030779667 -0.18369637 -0.058950115
-0.15354776 -0.09112138 -0.15531631 -0.013104227 -0.06972512 -0.1774363 -0.12638988 0.21219307
-0.14040983 0.27359846 -0.037207887 -0.012499916 -0.19325091 -0.09276885 -0.1429128 -0.10798528
-0.14740022 -0.18715802 0.09797965 -0.18159671 -0.1288341 -0.09869377 0.028894335 0.028611444
0.14374906 0.10859619 -0.050315566 0.12593313 -0.10470788 0.25679627 -0.1351276 0.17405804
0.038246725 -0.124937095 -0.1811941 0.1497634 -0.082914494 0.12303695 -0.17868063 0.14230321
-0.13950138 0.21129942 0.10550414 -0.027957695 -0.13417931 0.15030587 -0.057802815 0.029878166

blocks.2.attn.q_FacTs.weight f4 [8, 8]
00000000: 4824 893c c5eb b73c 0ac8 d13e cfac 98be
00000010: e968 c73d 08a1 18be 1f93 bcbd 0407 323b
00000020: 40e6 683e b00b ab3e 5d3c c73e a734 0c3e
00000030: d941 563d c3c2 ad3e bc8a aabe 0e6b 3d3e
00000040: dfcf a43e 1f5e 943e e5e5 a43e d690 ffbe
00000050: 8af6 dbbd 1928 943e 1790 0abe a804 923c
00000060: cfdb 9cbd 2e3f cf3e d2bf 5d3e 0c7e c7be
00000070: bd10 8fbe 878e b03e f812 43be 4bd6 9d3e
00000080: 41d1 803e 4939 99be 3271 c1be b98a 44be
00000090: da72 a1be c30d 7a3e 37bb 6ebe ffc1 ffbb
000000a0: fcc6 f9bd 2171 47be fff4 a43e 8711 98be
000000b0: 3610 a63d ab5e 8cbe eacd 6b3d e332 ca3e
000000c0: dcd6 ffbd 58f0 e0be 26fb f4bd 950e 5abe
000000d0: d20d 733e 4bfa 923e 13ac d3bd b087 303b
000000e0: 56d4 11bd 3ec2 b43d 5c07 84be 9154 963e
000000f0: a20f 87be e16a 943c 6055 91bd 3ae4 8c3e
0.016740933 0.02245129 0.4097293 -0.29819342 0.09736807 -0.14905179 -0.092077486 0.0027164826
0.22744083 0.33407354 0.3891324 0.1369196 0.05230889 0.33937654 -0.3330897 0.1849787
0.32189843 0.2897806 0.32206646 -0.4991519 -0.10740383 0.28936842 -0.13531528 0.017824486
-0.07659113 0.4047789 0.21655205 -0.38963354 -0.27942458 0.3448374 -0.19050205 0.30827555
0.25159648 -0.29926518 -0.37781674 -0.19193543 -0.31532937 0.24419312 -0.23313604 -0.0078051086
-0.121961564 -0.19476749 0.32218167 -0.29700872 0.08108561 -0.27415976 0.05756942 0.39491948
-0.12492153 -0.43933368 -0.11961965 -0.21294625 0.23735741 0.28706583 -0.10335555 0.0026936345
-0.03560289 0.08826111 -0.25786865 0.29361394 -0.26379114 0.01811737 -0.07096362 0.27517873

blocks.2.attn.k_FacTs.weight f4 [8, 8]
00000000: 6473 ad3d be5c 39bd 4796 0bbd 0fee f5bd
00000010: 1022 c7be 8e8f e43c 785c 88be 150f 3f3e
00000020: 74d3 833e fde3 953e 7460 25be 11f0 8abc
00000030: b186 3f3e 454f 6a3e 652b 4f3e 748a 45be
00000040: b47d 8f3e 6c92 903e 563d e03c 4cb1 303e
00000050: 01da 283e f6c0 9cbe cb4d 033e d215 a33e
00000060: a924 c6bc 036e 86be 8e6a b53e a261 0cbb
00000070: 87bd e7be ae5a 24be e8f1 c6be b051 8d3e
00000080: a866 1abc 7f63 9fbe 49fd ffbd ff1a 853e
00000090: 4e5d 123e a7ca 90be b2a1 7c3e fe14 083e
000000a0: cf73 b9be 42f9 bd3c 7c11 3b3e b58d 34be
000000b0: 90c1 54be 13c0 2ebd d03c 1fbe 9941 5d3e
000000c0: 5816 723e 4274 87be 76bd ddbd bf0a 17be
000000d0: 00c7 fe3d b275 4a3e fc6f 803e 6fd4 7c3e
000000e0: ead2 e4bd 347a ff3d c7b5 623e 1e68 af3d
000000f0: a5bf 883e 716d 19be 92d9 233d f889 b6be
0.08469275 -0.04525446 -0.034078863 -0.12008297 -0.38893175 0.027900483 -0.26633048 0.18658097
0.25747263 0.29275504 -0.16150075 -0.016960176 0.18703724 0.22881801 0.20231397 -0.19291097
0.2802559 0.2823671 0.027372997 0.17255133 0.16489412 -0.30615968 0.12822644 0.31852585
-0.024187403 -0.26255807 0.35432857 -0.0021420498 -0.45261785 -0.16050217 -0.38856435 0.27601385
-0.009423889 -0.31130597 -0.12499482 0.2599716 0.14293405 -0.2827961 0.24671057 0.13289258
-0.36221167 0.023190144 0.18268389 -0.17632182 -0.20776963 -0.042663645 -0.15550542 0.21607055
0.23641336 -0.26455885 -0.108271524 -0.14750193 0.124403 0.1977146 0.25085437 0.24690412
-0.11173041 0.1247448 0.22139655 0.08564781 0.26708713 -0.14983155 0.040002413 -0.35652137

blocks.2.attn.v_FacTs.weight f4 [8, 8]
00000000: 9c84 933e 3952 acbc a305 dfbc e069 8c3e
00000010: 04e9 fdbd 1274 d63e b417 58be a87a da3e
00000020: 2d24 44be eab3 c73d f530 7ebd c0fe 873e
00000030: 684d 913e eb67 db3c e6f0 213e 2350 9abd
00000040: 63ff 993e 5f76 46bd 44f6 5bbe e04f 953e
00000050: 2e66 a7be 248d 203e 0e55 52bd d473 c8bd
00000060: 846a c0be cae5 2bbe 7f38 bebe 5309 c0be
00000070: eaaf bb3e f112 81be 88c7 053e 4b93 92be
00000080: bbc1 99be 6543 1dbe b02a 7abe b4c7 43be
00000090: 3919 2abe 0825 bebd f1f5 74be 9e61 93be
000000a0: 39cb 8ebe f108 283e b688 823e b9e8 16be
000000b0: c5be 963d e140 b13e 746b debd a612 46be
000000c0: f050 9b3e 2071 8abb c742 863e 8071 94be
000000d0: 9531 b5be af61 67be 8b1d 25be bb89 953e
000000e0: 7f3e 173e ba75 973e 23e8 76be 6a2c a8bc
000000f0: f340 833d fa63 a1bd 7e07 9f3e e036 61bd
0.2881211 -0.0210353 -0.027224367 0.27424526 -0.1239796 0.4188543 -0.21102792 0.42671704
-0.19154425 0.09751113 -0.062058408 0.26561546 0.2837937 0.02678295 0.15814552 -0.07534816
0.30077657 -0.04845273 -0.21480662 0.29162502 -0.32695144 0.15678841 -0.051350646 -0.097877175
-0.37581265 -0.16786876 -0.37152478 -0.37507114 0.3665765 -0.25209764 0.13064396 -0.28628
-0.30030617 -0.1535774 -0.24430346 -0.1911915 -0.16611184 -0.09284407 -0.23921944 -0.28785414
-0.27889422 0.16409661 0.25494927 -0.14737214 0.07360605 0.3461981 -0.10860339 -0.19343051
0.30335188 -0.0042249113 0.26222822 -0.28992844 -0.3538939 -0.22595857 -0.16124551 0.29206643
0.14769934 0.29582006 -0.2411199 -0.02052899 0.064088725 -0.07880397 0.31060404 -0.054983974

blocks.2.attn.proj_FacTs.weight f4 [8, 8]
00000000: f901 91be 114e a8ba 5acf 00be 7742 a1bd
00000010: d458 8ebe dd3a a83e 31f9 e23e 59da 613e
00000020: 17e6 363d c88d 6e3d ea11 49be 2cf5 ccbd
00000030: 4866 5e3e 9718 e1be d907 88be 0184 9cbe
00000040: e950 35be 3dbb f23e 7818 9fbe 2b87 ee3d
00000050: cfd9 b43e 9410 9ebb 53b0 f3be e60b 95be
00000060: ffcc af3d 08e9 debd a232 e5be 5c10 acbe
00000070: cab1 903c 9198 b0be d3df c93e 8600 353e
00000080: 06f7 053f 3a0d 7bbe 55c0 b63e 5c45 a1be
00000090: b0d0 a3bc 7ae9 243d 9654 74be f6b7 d93e
000000a0: fd6f d03e ab73 e5bd f139 bcbd c277 b4be
000000b0: 898c 4c3e b871 39be ac51 d6be ef75 39be
000000c0: 6856 053e 5636 48bd ebac 653d cb76 8bbe
000000d0: 1500 cabe 736a cfbe d8cf f6bd 8f2e 9c3e
000000e0: e563 c7be a8a5 713d b24d 173e ae16 2bbe
000000f0: 7483 edbe 338a 3fbe d6af d6be 8217 b8bd
-0.28321818 -0.0012840648 -0.12579098 -0.07874005 -0.27802145 0.3285741 0.44330743 0.2205595
0.044653025 0.058240682 -0.1963574 -0.100077 0.21718705 -0.43964073 -0.26568487 -0.3056946
-0.17706646 0.47408476 -0.31073356 0.11646875 0.35322425 -0.0048237536 -0.47595462 -0.2911064
0.08584022 -0.10884291 -0.44765192 -0.3360623 0.017662901 -0.344914 0.39428577 0.17675981
0.5233005 -0.24516764 0.35693613 -0.3149823 -0.01999697 0.040261723 -0.23860392 0.42523164
0.4071044 -0.112037025 -0.09190739 -0.35247618 0.19975485 -0.18109787 -0.41859186 -0.18111394
0.13021243 -0.048879944 0.05607311 -0.2723907 -0.39453188 -0.40510902 -0.12051362 0.3050427
-0.389434 0.058995873 0.14775732 -0.1670787 -0.46389353 -0.18705063 -0.41931027 -0.08988859

blocks.2.mlp.fc1_FacTs.weight f4 [32, 8]
00000000: cba5 823e 260b ee3e 80d7 a93d bc7f 94be
00000010: 85d6 bbbd 67f7 9d3d c4ce 23be a9ad 8fbd
00000020: e436 8b3d 047c eabd 4240 1e3e fbcf 593e
00000030: 958a 8b3d 6465 22be a88f ea3c 6512 acbe
00000040: 7c4a b1be b580 e2bc b771 1b3e cfca c7bb
00000050: 5b02 adbe 22ae 9dbe c567 a4be 00a8 a3be
00000060: c9e5 c3be 4381 89be 6d93 61be 0647 873c
00000070: 0785 6bbe 9fbf 3d3d c8d2 ed3d 6add edbc
00000080: e3c5 8abd b0da 8e3d 147c 3e3e 0131 c33d
00000090: bc08 acbe 31d4 6d3e 74f6 2dbe 440c 8abd
000000a0: c17c 9cbe df47 6f3e 9c44 a5be ed42 213e
000000b0: cb38 1ebe 222c 7f3e 68f1 c23d f729 44be
000000c0: 14e7 e93d d215 0c3c 0dc0 cd3d e30c 66bd
000000d0: 968e e1bc 5d06 a63e 655d 2d3d 2c88 473e
000000e0: 5cc1 9abe 9900 a33e a6d1 5c3e 4d26 99be
000000f0: d562 0a3e 2d8d 5dba e5a0 a1be ce75 d4bd
00000100: 353a 4f3e 038c 533e 6dc5 12be 2077 543e
00000110: bf32 9ebc 9660 b2be 5ac1 903e 8eba 873e
00000120: 8170 16be 7178 74be 0acf 61bd dea4 a9be
00000130: 3148 b6be 3fe4 a23d ed24 663e 6ab5 b03e
00000140: e192 44be 3be4 ff3d 00c7 0bbe 0d8d 5b3e
00000150: 9aef a2be 9aa4 94be 406b 033d 642e 6cbe
00000160: 5897 89bd 1ae0 a4be 27ca 83be 7fb8 913e
00000170: 698a b4bd 0629 813e 3e78 84be 6039 ae3d
00000180: ccdc 85be 458c c63e 75c1 8d3e 7129 633e
00000190: 274c 9bbe 6076 57be 246b 68be 45c3 e43d
000001a0: ee61 babe 1d3c cabd 29f7 9dba a469 0d3e
000001b0: 61c9 6d3d 40c5 5abe 95cd d5be 2d3a f6bd
000001c0: 2950 293e 1388 44bd e31c 393e 091f a1be
000001d0: b39d 81bd f7db cc3e ca42 773e 1e4e d33d
000001e0: 19c6 f9bc 534f 99be cd6f 113e ebd3 8d3e
000001f0: 98f5 95be 862a bdbe 4c30 cebe ebc1 b1be
00000200: 72bb 5dbe b21a b33e 64eb 18be 7c1e 54be
00000210: a166 cdbe b723 803e 00fb b83e 9dce 9e3e
00000220: 4fdf cb3e ab5e b2bd af83 363e cdd1 98be
00000230: e035 8c3e c82b a0be 7888 183e b1d4 ac3e
00000240: df50 3dbd df53 6dbd 3be7 943d d264 91be
00000250: c59b abbe 8dc7 76be 307b 2e3e 2458 85bc
00000260: 852c cf3d f731 8b3e 77eb 40be ac7b a6be
00000270: 5b97 79be f20b c0be 76c7 813e 13be a13d
00000280: f55f 67bc 9e82 2ebe 44f1 7abc f972 97be
00000290: d7b1 893b f477 ecbd eaf6 253c e6df 513e
000002a0: 7e11 44be 3d40 afbe 6fdb a23e 2d27 143e
000002b0: 7fa8 4ebd e789 a43e 5c86 0bbe 619b 2abc
000002c0: 0395 42be 2b58 c7be 6a30 66be 753d 213e
000002d0: f246 2d3e feaf a8be 688e 483e b1e2 933d
000002e0: ffe8 a3be 99cc 82be 0a0d 353e e9de 823e
000002f0: 16d1 653e c407 303c c074 0a3e 4679 77be
00000300: b194 76be 4d67 93be c210 28be 1e8f 013e
00000310: 10c5 5c3e 2458 25bd ee3b 7c3d d156 043e
00000320: e9db b73d c501 933e 4573 92be a9ad cdbc
00000330: 7ced 18bd d067 663e 4e75 9f3d 23f9 c13e
00000340: 72b4 2e3e c912 6b3d bc7a 733d 81ea 47be
00000350: f76d 34be ef2b 9c3e 848d 9abe 36ec 8fbe
00000360: 3bf5 70be d5b1 273e 8f90 2b3e a9e7 0e3e
00000370: 96ef 93be c771 d9bc 1b29 70be 7138 34be
00000380: 03b1 9fbe 6461 a8be ef37 8ebd 5214 2dbe
00000390: 2502 d93e bd3f 95bd f2b7 0a3e 341c d4be
000003a0: b574 3e3e 9936 85be 2dc4 9cbd 9f70 99bd
000003b0: 6cda babc 3f92 b83d 0ed7 163e 71c7 793e
000003c0: da0a 86bd c7c2 6dbe 4520 52bd 34c8 cc3d
000003d0: 4264 2abe 24d5 19be f41f a5be 7455 473d
000003e0: 41f4 8d3e 29a9 73be c0f5 0cbe 839c aa3e
000003f0: 9980 8d3e 312b 2f3c 86c6 27bd 11b6 dc3c
0.25517115 0.4649288 0.082930565 -0.29003704 -0.09171776 0.07713204 -0.15996844 -0.07015545
0.06797579 -0.11449435 0.154542 0.21270745 0.06813542 -0.1585899 0.028632954 -0.33607784
-0.3462714 -0.027649263 0.15180098 -0.0060971747 -0.3379086 -0.30796915 -0.3211042 -0.3196411
-0.3826125 -0.2685643 -0.22028895 0.016513359 -0.22999965 0.046325322 0.11612469 -0.029036243
-0.06776025 0.06975305 0.1860202 0.09530831 -0.33600414 0.23225476 -0.16988546 -0.06740621
-0.3056393 0.2336726 -0.32278907 0.15748186 -0.15451352 0.24919179 0.09518701 -0.19156633
0.11421028 0.008550124 0.100463964 -0.056164633 -0.02753381 0.3242673 0.042325396 0.19485539
-0.30225646 0.31836393 0.2156435 -0.29912034 0.13514264 -0.0008451518 -0.31568065 -0.10374032
0.20237048 0.20658879 -0.14333124 0.20748568 -0.019311307 -0.34839314 0.28272516 0.26509517
-0.14691354 -0.2387407 -0.05512909 -0.33133596 -0.35601953 0.07953691 0.22475024 0.34513408
-0.19196655 0.124947034 -0.13650131 0.21440525 -0.31823426 -0.2903183 0.032084703 -0.23064572
-0.0671832 -0.32202226 -0.25740167 0.28461072 -0.08815462 0.2522661 -0.25872988 0.08507037
-0.26145017 0.38778892 0.27686659 0.22183777 -0.30331537 -0.2104125 -0.22697121 0.11170057
-0.3640284 -0.09874747 -0.0012051809 0.1380983 0.058053378 -0.21364307 -0.4175841 -0.12022815
0.16534485 -0.047981333 0.18077426 -0.3146899 -0.06328907 0.4001157 0.24146572 0.10317634
-0.030489968 -0.29943332 0.14202805 0.27700743 -0.29288936 -0.36946505 -0.40271223 -0.3471826
-0.21653536 0.34981304 -0.14933544 -0.20714754 -0.40117362 0.25027248 0.36128998 0.31017008
0.39818808 -0.08709463 0.17823671 -0.29847565 0.27384853 -0.31283402 0.14895809 0.3375602
-0.046219703 -0.057941314 0.07270666 -0.28397232 -0.3351728 -0.2409956 0.1703918 -0.01627738
0.10115913 0.27186558 -0.18839823 -0.3251623 -0.24374144 -0.37509114 0.2534749 0.07897582
-0.014121999 -0.17042014 -0.015316311 -0.29579905 0.0042021084 -0.11546317 0.01012967 0.20495567
-0.19147298 -0.34228697 0.3180804 0.1446807 -0.05045366 0.3213646 -0.13625473 -0.010413022
-0.19002156 -0.38934454 -0.22479406 0.157461 0.16921595 -0.3294677 0.19585574 0.07220972
-0.320137 -0.2554672 0.17680755 0.25560692 0.22443041 0.010744039 0.13521099 -0.24167356
-0.24080159 -0.2878975 -0.16412643 0.12652251 0.21559548 -0.04036726 0.06158059 0.12923743
0.089774914 0.28712288 -0.2860357 -0.025107222 -0.037335858 0.22500539 0.07786046 0.3788539
0.17061022 0.05739096 0.05944322 -0.1952305 -0.17620073 0.3050227 -0.30186093 -0.28109902
-0.23531048 0.16376431 0.16754363 0.13955559 -0.28893727 -0.026543511 -0.2345318 -0.17599656
-0.31189737 -0.32886803 -0.06944262 -0.16902283 0.4238445 -0.07287548 0.13546732 -0.41427767
0.18599208 -0.26018217 -0.07654605 -0.07492184 -0.02280923 0.09012269 0.14730474 0.24392487
-0.065450385 -0.23218833 -0.051300306 0.09999123 -0.16639808 -0.15022713 -0.3225094 0.04866548
0.27725413 -0.23794998 -0.13765621 0.33322534 0.27637175 0.01069145 -0.04096081 0.026942285
