Final Project/FacT-TT/clevr_count_best.pt (torch, 292545 bytes, 76 tensors)

blocks.0.attn.q_FacTs.weight f4 [16, 16]
0	0x3e090ccf	0.13383792
1	0xbe63a502	-0.22230914
2	0x3e02bbd9	0.1276697
3	0x3e6564a0	0.22401667
4	0xbe0cadd8	-0.13738191
5	0x3dd44ace	0.1036583
6	0x3cdb068c	0.02673652
7	0x3dfb322c	0.12265429
8	0x3c3366ac	0.010949772
9	0x3d35c76d	0.04437964
10	0xbe0f1e60	-0.13976431
11	0x3e6c24e6	0.2306095
12	0xbcc8fa44	-0.024533398
13	0x3e86cece	0.26329654
14	0xbe926cab	-0.28598532
15	0xbbc4f42d	-0.0060105533
16	0xbcbe27ee	-0.0232124
17	0xbe6d6c01	-0.23185731
18	0xbd0d8b93	-0.034556936
19	0x3dc45f76	0.0958852
20	0x3da88e13	0.082302235
21	0x3cb2eb8c	0.021840833
22	0x3e89e751	0.26934293
23	0x3e0fb586	0.1403409
24	0xbd8df13b	-0.06930777
25	0x3df1b016	0.11801164
26	0x3df7323d	0.12070129
27	0x3e23e064	0.16003567
28	0xbcdf1143	-0.02722991
29	0xbd29ec1b	-0.041484933
30	0xbe8a6bc0	-0.27035332
31	0xbdf41481	-0.11917973
32	0x3e846ee1	0.25865844
33	0x3e6b04ef	0.22951101
34	0x3dab9add	0.08379147
35	0xbdc13984	-0.09434798
36	0x3c88204f	0.016616968
37	0xbea18f6f	-0.31554744
38	0x3e65a44f	0.2242596
39	0xbe19d527	-0.15022717
40	0xbe18f921	-0.14938785
41	0x3dc375af	0.09543931
42	0xbcaa1d77	-0.020766003
43	0xbb8177e7	-0.003951061
44	0xbbf68db8	-0.0075242184
45	0x3e80a1a9	0.25123337
46	0xbc5840f0	-0.013199076
47	0xbcfe757c	-0.03106188
48	0x3e846637	0.25859234
49	0x3e8b43fd	0.27200308
50	0xbea08a33	-0.31355438
51	0x3dd2a650	0.10285628
52	0x3e399fb2	0.18127325
53	0x3bd326bd	0.006443827
54	0xbcb6f433	-0.02233324
55	0xbe5a51e5	-0.21320303
56	0xbdbd85d7	-0.092540435
57	0xbe3ea2bb	-0.18616764
58	0xbd07ee50	-0.033186257
59	0xbd6addf3	-0.057340574
60	0xbdedfb71	-0.11620224
61	0xbe68ded1	-0.22741248
62	0xbe8ed911	-0.27899984
63	0xbdd90beb	-0.10597976
64	0x3cbc5b87	0.022992862
65	0xbd5c4348	-0.053775102
66	0xbd20d0f0	-0.03926176
67	0xbe709664	-0.2349487
68	0x3e1d28a6	0.15347537
69	0x3e09d317	0.1345943
70	0x3c81378b	0.015773555
71	0xbe7be81d	-0.24600263
72	0xbd282a8f	-0.041056212
73	0xbe0e3c9d	-0.1389031
74	0x3e45bca2	0.19310239
75	0x3df58a0f	0.11989223
76	0x3e8afe86	0.2714731
77	0x3dc19574	0.09452334
78	0xbd67a27a	-0.056551434
79	0xbd5d14e9	-0.05397502
80	0x3ded4559	0.11585493
81	0x3d83499c	0.06410524
82	0xbe4ecd0e	-0.2019541
83	0x3d89f09b	0.06735345
84	0x3e07b15c	0.13251251
85	0xbcb1075e	-0.021609958
86	0xbe0b46d9	-0.13601245
87	0x3e480a0c	0.19535083
88	0xbc5faab4	-0.013651539
89	0x3cf8d12e	0.030373182
90	0xbdce3d8c	-0.10070333
91	0x3e38f111	0.1806071
92	0x3cd99694	0.026561059
93	0xbbdbee45	-0.0067117536
94	0xbd91527d	-0.070958115
95	0x3d2e3251	0.042528454
96	0xbe35461d	-0.17702527
97	0x3e1bdae8	0.15220225
98	0xbcd298b4	-0.02570758
99	0xbd19102c	-0.03736894
100	0x3d3c290b	0.04593758
101	0xbcad1804	-0.021129616
102	0xbe44ef1a	-0.19231835
103	0xbe5cfdc5	-0.2158118
104	0x3c0be34d	0.008538079
105	0x3ca07a4f	0.019589571
106	0xbdd2feef	-0.10302531
107	0xbe3b8368	-0.18311846
108	0x3e3d1893	0.18466406
109	0x3e92482c	0.28570688
110	0xbe3064f2	-0.17226008
111	0x3e2573d1	0.16157462
112	0x3e9e65fe	0.3093719
113	0xbe595427	-0.21223508
114	0x3d659572	0.056050725
115	0x3d130357	0.035891857
116	0xbe0a4fbf	-0.13506983
117	0x3df7b36f	0.12094771
118	0x3e9deceb	0.30844817
119	0x3e24fceb	0.16112106
120	0xbdf8c536	-0.1214699
121	0x3de94230	0.113895774
122	0xbe2c143f	-0.16804598
123	0x3db96a5e	0.09053491
124	0x3d86b2cd	0.06577072
125	0xbda38155	-0.079836525
126	0xbe52cc9a	-0.20585862
127	0xbe2cb67d	-0.16866489
128	0xbe434e34	-0.19072801
129	0x3dadf0ad	0.08493171
130	0xbe087903	-0.13327412
131	0xbe11933b	-0.1421632
132	0xbddb307c	-0.10702607
133	0x3c361963	0.011114451
134	0xbe355aeb	-0.17710464
135	0xbe89fa32	-0.26948696
136	0x3e8b9565	0.27262416
137	0x3e5a51a3	0.21320204
138	0x3dd07a9d	0.101796366
139	0x3d4f8356	0.05066236
140	0x3e05e860	0.13076925
141	0xbc16e968	-0.009210922
142	0x3e3fad57	0.18718468
143	0x3e047e15	0.12938721
144	0x3d72f8c9	0.05931929
145	0xbd0efb1f	-0.034907456
146	0xbd1dc9c1	-0.038522486
147	0xba1f7d44	-0.00060840347
148	0xbe16e323	-0.14735083
149	0x3d4db9f6	0.050226174
150	0x3dc4bc66	0.09606247
151	0xbdcea332	-0.10089721
152	0xbd3ee9ff	-0.046609875
153	0xbc962cea	-0.018331964
154	0x3d3fa5ce	0.046788983
155	0x3e9cb575	0.3060719
156	0xbdf09c45	-0.11748556
157	0xbe5f0329	-0.21778549
158	0x3e3c345a	0.18379346
159	0x3dd4929c	0.10379526
160	0x3e2bb8c6	0.16769704
161	0xbc7229b3	-0.01478045
162	0x3dc032ed	0.09384713
163	0x3da3865c	0.079846114
164	0x3da2f422	0.07956721
165	0xbe0f546f	-0.13997053
166	0x3d9fd235	0.07803766
167	0xbe85df8b	-0.26147112
168	0xbcc1e39b	-0.023668101
169	0x3da05094	0.07827869
170	0x3d9a16ec	0.07523903
171	0x3d3edcb6	0.046597205
172	0xbe3a0478	-0.18165767
173	0xbd542316	-0.051791273
174	0x3e87cfba	0.2652567
175	0x3dfe4b60	0.124167204
176	0xbe4df662	-0.20113519
177	0xbd8e6e79	-0.06954665
178	0x3eb0e806	0.3455202
179	0xbcc47b3c	-0.023984544
180	0x3cf87b17	0.030332131
181	0x3dbe421e	0.092899546
182	0xbe19ba20	-0.15012407
183	0x3e6d56cd	0.23177643
184	0xbd76bdad	-0.060239483
185	0xbb82d7ac	-0.0039929952
186	0x3ec49ec4	0.3840238
187	0x3e42f688	0.19039357
188	0xbcbf7224	-0.023369856
189	0xbe43b1f4	-0.19110852
190	0xbe52302a	-0.20526186
191	0xbd1aa081	-0.037750725
192	0xbdbb1fed	-0.09136949
193	0xbc2bc11d	-0.0104830535
194	0x3b9e2cb7	0.004827108
195	0xbe3d5b4e	-0.18491861
196	0x3d1aa01e	0.037750356
197	0x3cf6a71c	0.03010898
198	0x3c868479	0.01642059
199	0xbdfb8cc2	-0.12282707
200	0x3e3cfaff	0.18455122
201	0xbe3e2818	-0.18569982
202	0xbe273c9a	-0.16331711
203	0xbdab9929	-0.08378822
204	0xbe217486	-0.15767106
205	0x3d8ebbe6	0.069694325
206	0xbdaddf38	-0.08489841
207	0xbcf04f97	-0.029334826
208	0x3d630893	0.0554281
209	0x3c14ddf8	0.009086125
210	0x3dfa32ea	0.12216742
211	0x3d3aa904	0.045571342
212	0xbe0df69b	-0.13863604
213	0x3d44e68d	0.048071433
214	0x3d3968dd	0.04526602
215	0xbe57bb9e	-0.21067664
216	0xbdec7047	-0.11544853
217	0xbd638577	-0.055547204
218	0x3a8cdd92	0.0010747185
219	0xbe3981cc	-0.1811592
220	0x3de645d7	0.1124379
221	0x3da05000	0.07827759
222	0x3d8b3d80	0.067988396
223	0x3d934ad1	0.071920045
224	0x3e86c237	0.2632005
225	0x3d0cd7cd	0.03438549
226	0xbdd077cf	-0.10179102
227	0xbdce8017	-0.10083025
228	0xbdd5580a	-0.10417183
229	0xbe019979	-0.12656201
230	0xbd958118	-0.07300013
231	0xbe62b5e5	-0.221397
232	0xbd17f812	-0.037101813
233	0xbe5edca9	-0.21763863
234	0xbea1a02a	-0.31567508
235	0x3db1018e	0.08642875
236	0x3e02bf5c	0.1276831
237	0xbe161fc1	-0.1466055
238	0x3d491053	0.049087834
239	0x3e39b2d5	0.18134625
240	0xbd7519c6	-0.059839033
241	0x3d94a2e3	0.07257631
242	0x3e20de23	0.15709738
243	0x3e4691e4	0.1939159
244	0xbe81521b	-0.25257954
245	0x3d182b74	0.037150815
246	0xbe2ac529	-0.16676773
247	0x3dfe9d29	0.1243232
248	0x3d216a61	0.03940809
249	0x3dc926aa	0.09821828
250	0xbdce0d56	-0.100611374
251	0x3e113e7a	0.14183989
252	0xbd8e2a74	-0.06941691
253	0xbde66f2e	-0.112516746
254	0x3e3ec788	0.18630803
255	0xbd927327	-0.0715087

blocks.0.attn.k_FacTs.weight f4 [16, 16]
0	0xbe5e2910	-0.21695352
1	0xbba0b635	-0.0049045333
2	0x3d839bd4	0.06426206
3	0x3dbe28e9	0.09285147
4	0xbdefbce1	-0.11705948
5	0x3e445f48	0.19176972
6	0x3d889877	0.06669705
7	0x3de108d8	0.10988015
8	0xbda06621	-0.078319795
9	0x3de802f7	0.113286905
10	0x3d778911	0.06043345
11	0xbe622868	-0.22085726
12	0x3d124ad0	0.035715878
13	0x3dd3979d	0.10331652
14	0xbdce768d	-0.100812055
15	0xbe0c3aab	-0.13694255
16	0x3e396a5e	0.18106982
17	0x3d80666b	0.06269535
18	0xbe472e35	-0.1945122
19	0xbe415f52	-0.18884018
20	0x3db177e7	0.08665448
21	0xbe005163	-0.12531047
22	0xbe4c1442	-0.19929603
23	0x3de1645c	0.1100547
24	0x3ddaffb3	0.10693302
25	0xbe4e186d	-0.20126505
26	0xbe6bae71	-0.23015763
27	0x3e5d3797	0.21603237
28	0xbde46a19	-0.11153049
29	0x3df85d26	0.12127142
30	0x3d2dc033	0.042419624
31	0x3d90d0c8	0.07071072
32	0x3d866821	0.0656283
33	0x3d608f94	0.054824427
34	0x3d89af3c	0.067228764
35	0x3c07f320	0.008297712
36	0x3e93fa5a	0.2890194
37	0xbe543251	-0.20722319
38	0x3e31b09d	0.17352529
39	0xbe4d4709	-0.20046629
40	0xbdb57cab	-0.08861669
41	0x3e176563	0.1478477
42	0xbdbecc4b	-0.093163095
43	0x3e7c78e6	0.24655494
44	0xbe6e1a71	-0.23252274
45	0x3da4de08	0.080501616
46	0xbcf55ab5	-0.029950479
47	0xbe55228d	-0.20813961
48	0xbdd04d72	-0.101710215
49	0xbd20aa91	-0.039225165
50	0xbe1a442c	-0.15065068
51	0xbda25868	-0.079270184
52	0x3e13a5a6	0.14418659
53	0x3e22b195	0.15888055
54	0xbd82b050	-0.06381285
55	0xbe817e90	-0.25291872
56	0x3dd6e29e	0.104924425
57	0xbdc64f1d	-0.096830584
58	0xbe09d8c1	-0.13461591
59	0xbe835194	-0.25648177
60	0xbdf5b30f	-0.11997043
61	0x3cba8bcb	0.022771737
62	0xbd4961c1	-0.04916549
63	0x3d791596	0.0608116
64	0xbe1d4071	-0.15356614
65	0xbea109f9	-0.3145292
66	0xbe7b85a6	-0.24562702
67	0xbd887096	-0.06662099
68	0xbd735ec0	-0.059416533
69	0xbea20d2d	-0.31650677
70	0x3d33f63c	0.043936
71	0x3d2ee245	0.042696256
72	0xbd8d94f2	-0.06913175
73	0xbc5d8795	-0.013521095
74	0xbe283a69	-0.16428532
75	0xbd8416e6	-0.0644968
76	0x3cde13d0	0.027109057
77	0xbc8735a5	-0.016505072
78	0xbe8a5272	-0.27016026
79	0xbd1c6e47	-0.038191106
80	0x3e121ba2	0.14268354
81	0x3e0fcc3b	0.14042751
82	0x3d35c226	0.044374608
83	0x3e4d199f	0.20029305
84	0x3e699452	0.22810486
85	0xbd6c5f10	-0.057707846
86	0xbdd0c699	-0.101941295
87	0xbd7d9b38	-0.061915606
88	0xbe6dec34	-0.23234636
89	0x3e536b49	0.20646395
90	0x3cb8fc3f	0.022581218
91	0x3d89e3ad	0.06732879
92	0x3e17fb18	0.14841878
93	0x3dfb8a31	0.12282217
94	0xbe09de51	-0.13463713
95	0xbd138edd	-0.036024917
96	0x3e3dee4a	0.18547931
97	0x3dcf0d54	0.10109964
98	0x3d0c6985	0.03428032
99	0x3e168f85	0.14703186
100	0x3e510697	0.2041267
101	0xbd7e7f98	-0.0621334
102	0xbddca0de	-0.107728705
103	0x3e9e940d	0.3097233
104	0xbe35783e	-0.1772165
105	0xbe04ba6c	-0.1296174
106	0xbd6b268d	-0.05740981
107	0x3e8316e6	0.25603408
108	0xbe68c8fb	-0.22732918
109	0x3e149e8d	0.14513607
110	0x3d83c0b1	0.06433237
111	0xbe648085	-0.22314651
112	0xbded510d	-0.11587725
113	0xbda997a0	-0.08280873
114	0x3e8b1dd9	0.2717121
115	0x3e4a9e48	0.19786942
116	0x3d972d95	0.07381741
117	0x3d134e82	0.035963543
118	0x3e0802b3	0.1328228
119	0xbdbaa6ae	-0.09113823
120	0x3db7bfa2	0.08972098
121	0x3db1c912	0.08680929
122	0x3e166e53	0.14690523
123	0xbe273bd7	-0.16331421
124	0xbe0b494e	-0.13602182
125	0x3e284f3b	0.16436474
126	0x3d1fed72	0.039044805
127	0xbe015607	-0.12630473
128	0xbd00c30a	-0.031436004
129	0xbe2d852d	-0.16945334
130	0xbe15fa82	-0.14646342
131	0x3e56c82f	0.20974801
132	0xbe8c8a2c	-0.27449167
133	0xbd02641d	-0.031833757
134	0x3d770357	0.06030592
135	0xbe1e39d4	-0.15451747
136	0x3e2b05bb	0.16701405
137	0xbbed0e5f	-0.007234379
138	0x3e7613e4	0.24031025
139	0x3d81ec47	0.063438945
140	0xbd568f09	-0.052382503
141	0x3e81e70e	0.25371593
142	0x3e0dc06e	0.13842937
143	0x3e9625b6	0.29325646
144	0x3e082c8b	0.13298242
145	0xbe52fb01	-0.20603563
146	0xbd28d621	-0.041219834
147	0x3cd01532	0.025400732
148	0xb99409e7	-0.00028236138
149	0x3e4764a9	0.19471993
150	0xbdc7dc00	-0.097587585
151	0xbe309517	-0.17244373
152	0xbda7c690	-0.0819217
153	0x3bd01779	0.0063504544
154	0xbe46ff4b	-0.19433324
155	0xbe6a4d0d	-0.22880955
156	0xbea51fc3	-0.32250795
157	0xbe771eba	-0.24132815
158	0x3e090c1c	0.13383526
159	0x3e054028	0.13012755
160	0xbe9bb3a8	-0.30410504
161	0xbe3b6df1	-0.18303658
162	0x3d197cc1	0.03747249
163	0x3e367523	0.17818122
164	0xbd7a4161	-0.061097506
165	0x3dae41ac	0.0850862
166	0x3e31d366	0.17365798
167	0x3d8f9831	0.0701145
168	0x3dd99dfc	0.10625836
169	0x3dfcc3ee	0.12342058
170	0x3ea89250	0.32924128
171	0xbe17fcf7	-0.14842592
172	0x3cfd7ed8	0.030944273
173	0xbcf7ba49	-0.030240195
174	0xbd180830	-0.037117183
175	0x3ee6894f	0.45026633
176	0xbde186c7	-0.11012035
177	0x3c538ff7	0.012912742
178	0x3dd4b8c1	0.103868015
179	0x3db22894	0.08699146
180	0x3cb11935	0.021618465
181	0xbe2d3785	-0.1691571
182	0xbd0cf731	-0.034415428
183	0x3dbceae5	0.0922449
184	0xbe8d9c2d	-0.27658215
185	0x3de5017c	0.11181924
186	0x3b9cd63d	0.0047862814
187	0xbd82f608	-0.06394583
188	0xbdd417dc	-0.10356113
189	0x3b85f79a	0.0040883543
190	0x3e9d44ab	0.30716452
191	0x3dcd7fb2	0.100341216
192	0xbe18abbc	-0.14909261
193	0xbe43efd6	-0.19134459
194	0x3e1995d9	0.14998569
195	0xbd8f2987	-0.069903426
196	0xbd18c1bb	-0.03729413
197	0x3e390820	0.18069506
198	0x3d7536da	0.059866764
199	0xbcc5d9fd	-0.024151796
200	0xbdc0ff5b	-0.09423705
201	0x3e80f2ca	0.25185233
202	0x3e5f6126	0.21814403
203	0xbe37bab0	-0.1794231
204	0x3e65443f	0.22389315
205	0x3e638699	0.22219314
206	0x3ddbc7fe	0.10731505
207	0x3e12bbc5	0.14329441
208	0xbe8cfb61	-0.27535537
209	0x3d85b674	0.06528941
210	0x3e9fab08	0.31185174
211	0xbdb0a1f1	-0.08624638
212	0xbe71a9c3	-0.23599915
213	0xbd18b2e6	-0.037279986
214	0xbe9b716d	-0.30359975
215	0xbe9f8432	-0.31155545
216	0x3e573be5	0.21018942
217	0x3e307672	0.17232683
218	0x3e5c285f	0.21499775
219	0xbe8fa9a9	-0.28059128
220	0xbdbd6785	-0.092482604
221	0x3e16f668	0.14742434
222	0x3de0a11f	0.109682314
223	0xbbf84a49	-0.007577215
224	0xbdc4124e	-0.09573804
225	0x3e4a8b14	0.19779617
226	0xbe11b31a	-0.14228478
227	0x3e3bf47e	0.18354985
228	0xbbc0cac8	-0.0058835484
229	0x3da46e85	0.080288924
230	0x3e28bbdd	0.16477914
231	0xbe418626	-0.1889883
232	0xbd88286c	-0.06648335
233	0xbdef2497	-0.11676901
234	0xbe4225d1	-0.18959738
235	0xbd05de5b	-0.032682758
236	0xbe3b2727	-0.18276654
237	0xbe15a61e	-0.1461415
238	0xbd47e727	-0.04880443
239	0x3ea872ad	0.3289999
240	0x3e0745e0	0.13210249
241	0xbd6299a5	-0.055322308
242	0xbbab4c63	-0.005227612
243	0xbd0ffd5d	-0.035153735
244	0x3d8149a3	0.06312873
245	0x3d2b4241	0.04181123
246	0xbe3c1563	-0.18367533
247	0x3e56ea45	0.20987804
248	0xbc0638cf	-0.008192255
249	0xbcfe5717	-0.031047387
250	0xbe3a9ac6	-0.18223104
251	0xbd78afbf	-0.06071448
252	0xbddadd91	-0.10686792
253	0xbd9ef773	-0.07762041
254	0x3e5330d4	0.20624095
255	0xbea75a5f	-0.32686135

blocks.0.attn.v_FacTs.weight f4 [16, 16]
0	0xbdeedf5d	-0.11663697
1	0x3e798d59	0.24370326
2	0xbe799cbf	-0.243762
3	0x3e015b72	0.1263254
4	0xbe572feb	-0.21014373
5	0x3dfa4859	0.122208305
6	0x3e08aa72	0.1334627
7	0xbdfa9858	-0.122360885
8	0xbd994b8f	-0.07485115
9	0x3e4a354a	0.1974689
10	0x3c3634d5	0.011120995
11	0x3e79a43f	0.24379061
12	0xbccae0bb	-0.024765363
13	0xbdaec4c0	-0.08533621
14	0x3dd0c610	0.101940274
15	0x3e08f4a5	0.13374574
16	0xbe5297cb	-0.20565717
17	0x3d943655	0.072369255
18	0x3e4cd5b5	0.20003398
19	0x3dc2cad1	0.095113404
20	0xbd4dca86	-0.05024197
21	0xbe193e52	-0.1496518
22	0x3e3d40b4	0.18481714
23	0x3d27708f	0.04087883
24	0xbe067090	-0.13128877
25	0xbe60e82f	-0.21963571
26	0x3c542a24	0.0129495
27	0x3df020ac	0.11724982
28	0x3df650fc	0.12027165
29	0x3decfe79	0.11571974
30	0xbe481eeb	-0.19543044
31	0x3dadc9de	0.08485769
32	0x3e1ef6f2	0.1552389
33	0xbd0666d5	-0.032812912
34	0xbc8aacc4	-0.016928084
35	0xbe80959f	-0.25114152
36	0x3e559717	0.20858417
37	0x3da4ca77	0.080464296
38	0xbddfdbfc	-0.109306306
39	0x3e5330ee	0.20624134
40	0x3d657910	0.056023657
41	0x3dc4f049	0.09616143
42	0xbdb4c68e	-0.08826934
43	0xbd9d56e8	-0.07682592
44	0x3d554160	0.0520643
45	0x3cf3f68b	0.029780647
46	0xbc3e3ab7	-0.011610678
47	0x3e350bed	0.1768033
48	0x3d37f3d0	0.044910252
49	0xbe1c8090	-0.15283418
50	0x3dae5d34	0.08513871
51	0xbcf7de4f	-0.030257372
52	0x3e452c24	0.1925512
53	0xbe54064b	-0.20705526
54	0x3cf1b833	0.029506778
55	0xbe105810	-0.14096093
56	0xbe714b27	-0.23563825
57	0x3cb1fdb1	0.021727415
58	0xbda4e0fb	-0.08050724
59	0xbd947df2	-0.07250585
60	0x3e6bec78	0.23039424
61	0xbdfc4b7f	-0.12319087
62	0xbe60e7cb	-0.21963422
63	0x3e5c9c4e	0.21544
64	0xbd848d58	-0.06472272
65	0xbe015bf8	-0.1263274
66	0x3dabce85	0.08389
67	0x3cc37dfa	0.023863781
68	0xbe54dfab	-0.20788448
69	0x3dc6d2b3	0.097081564
70	0xbe411fe7	-0.18859826
71	0x3e8009b7	0.25007412
72	0x3de8f314	0.113744885
73	0x3e5290c0	0.2056303
74	0xbddb5165	-0.10708884
75	0xbd445cf9	-0.047940228
76	0x3cccce83	0.025000816
77	0x3db4142c	0.0879291
78	0x3e74bd14	0.23900253
79	0x3e637d58	0.22215784
80	0xbe97cb01	-0.29647067
81	0xbe7ce981	-0.2469845
82	0xbca4cf88	-0.02011849
83	0x3e823558	0.25431323
84	0xbe8d2949	-0.2757056
85	0x3da04439	0.078255124
86	0xbe839e72	-0.25706822
87	0xbe0819c5	-0.1329108
88	0x3d60d216	0.054887854
89	0xbdb97d4e	-0.09057103
90	0x3e0cfd8e	0.13768598
91	0xbdd5b3bb	-0.104346715
92	0xbe26e57b	-0.16298477
93	0x3e0587f2	0.1304014
94	0xbe454509	-0.19264616
95	0xbe8c8963	-0.27448568
96	0x3e1036a5	0.14083345
97	0xbd611132	-0.05494804
98	0xbe74f61d	-0.2392201
99	0xbe4e3f0c	-0.20141238
100	0x3e98716c	0.29774034
101	0xbe340297	-0.17579113
102	0x3e921a7d	0.28535834
103	0xbe996279	-0.2995794
104	0xbe8b800a	-0.27246124
105	0xbe87a588	-0.26493478
106	0xbe4f23b4	-0.20228463
107	0xbe9922bb	-0.2990931
108	0x3dd0e0d2	0.10199131
109	0x3cd31f3c	0.02577173
110	0x3e03a79a	0.12856904
111	0x3e9989d3	0.29987964
112	0x3dbecdd6	0.09316604
113	0x3d878f50	0.066191316
114	0xbdc67993	-0.09691157
115	0xbe44ce40	-0.19219303
116	0xbe40900f	-0.18804954
117	0xbe69636c	-0.22791833
118	0xbe8184d7	-0.2529666
119	0xbe56d048	-0.2097789
120	0x3de53c43	0.11193135
121	0xbd62ab3b	-0.05533908
122	0xbdcf6651	-0.10126937
123	0x3e25cfee	0.161926
124	0x3d85a1c4	0.06524995
125	0xbda2ea5c	-0.07954857
126	0xbd8da903	-0.06917002
127	0x3dc6392a	0.09678872
128	0xbe7849fe	-0.24246976
129	0x3da5569e	0.080731615
130	0x3d53756a	0.051625647
131	0x3da9e5ce	0.08295785
132	0xbe435ace	-0.19077608
133	0x3d08734b	0.033313077
134	0xbdeb5559	-0.11490888
135	0x3dc68b98	0.09694594
136	0xbe38d13b	-0.18048565
137	0x3dc68b16	0.09694497
138	0x3e4e8314	0.2016719
139	0xbe14a7fa	-0.14517203
140	0xbdfec454	-0.1243979
141	0xbe74bcea	-0.2390019
142	0xbc682467	-0.014168835
143	0xbdecdc76	-0.11565487
144	0xbd5b2f92	-0.053512163
145	0x3e66ed74	0.22551519
146	0x3ea58090	0.32324648
147	0xb9292f46	-0.00016134707
148	0xbe3179ce	-0.17331621
149	0x3d9ca738	0.07649082
150	0xbe219bbd	-0.15782066
151	0xbe1b34fb	-0.15156929
152	0xbd003086	-0.031296276
153	0xbc2ff7cd	-0.010740233
154	0x3e783e99	0.24242629
155	0x3ea10393	0.3144804
156	0xbdf508a2	-0.11964537
157	0x3d0d1736	0.034445964
158	0x3e64c46c	0.22340554
159	0x3dffa664	0.12482908
160	0xbd9195b7	-0.07108634
161	0x3e66403e	0.22485444
162	0x3db6c51e	0.08924316
163	0xbd7349d3	-0.059396576
164	0xbe6c0b4f	-0.23051189
165	0x3e8e1da4	0.2775699
166	0xbc43425b	-0.011917676
167	0xbe04ef73	-0.12981968
168	0x3e721b91	0.23643328
169	0x3e421afb	0.18955605
170	0x3de574b1	0.11203898
171	0xbd3e15a3	-0.046407353
172	0x3e540c2f	0.20707773
173	0x3da66b00	0.081258774
174	0x3dfc4b36	0.12319033
175	0x3c6c0ac6	0.014406865
176	0x3c6768b1	0.0141240815
177	0x3e2a7b35	0.16648562
178	0xbd70cd3a	-0.05878947
179	0xbe6c2ff7	-0.23065172
180	0x3e39fcff	0.18162917
181	0xbd928174	-0.071535975
182	0x3e2f44cf	0.17116092
183	0xbe3a1304	-0.18171316
184	0x3e3ddf5a	0.18542233
185	0x3e4a510c	0.1975748
186	0x3db44419	0.08802051
187	0x3bc4cfd2	0.0060062194
188	0xbe850b98	-0.25985408
189	0x3e04294b	0.12906377
190	0x3cda0d5d	0.0266177
191	0x3e023550	0.1271565
192	0xbe38114e	-0.17975351
193	0xbe5ed8f6	-0.21762452
194	0xbe7dfbf2	-0.24803141
195	0x3c914e33	0.017737484
196	0xbd4ee402	-0.050510414
197	0xbe4a71e0	-0.19770002
198	0x3ddfcd6f	0.10927855
199	0x3dded350	0.108801484
200	0xbe6ce6ce	-0.2313492
201	0xbeaddc05	-0.33956924
202	0xbc38df93	-0.011283773
203	0xbe36fd58	-0.1787008
204	0x3deef25e	0.116673216
205	0x3e708a0e	0.23490164
206	0xbe679adb	-0.22617666
207	0x3e2addb1	0.16686131
208	0x3e03594a	0.1282703
209	0xbe1682a6	-0.14698276
210	0x3e1e8811	0.15481593
211	0xbe50bdc1	-0.20384885
212	0xbe365cae	-0.17808792
213	0x3d312c60	0.04325521
214	0x3d4d9925	0.050194878
215	0xbe5910be	-0.21197793
216	0x3d88c77f	0.06678676
217	0xbe1dcc28	-0.1540991
218	0x3e41ac73	0.1891344
219	0x3e0a10e6	0.13483009
220	0x3e34d567	0.17659532
221	0x3ce80ca1	0.028326334
222	0x3e845a9d	0.25850382
223	0xbe7e2c23	-0.24821524
224	0xbdfccdfe	-0.123439774
225	0x3e417683	0.18892865
226	0xbe276aa1	-0.1634927
227	0xbda2a7ac	-0.07942137
228	0xbd68bfe5	-0.05682363
229	0xbe640d9f	-0.22270821
230	0x3d886b23	0.0666106
231	0x3e3774fe	0.17915723
232	0x3d7e3935	0.062066276
233	0x3e7675e0	0.24068403
234	0x3e07cdad	0.13262053
235	0xbd637b44	-0.055537477
236	0xbdc4aafd	-0.09602926
237	0xbe76440f	-0.240494
238	0xbe09c9df	-0.13455914
239	0xbe69cfc0	-0.22833157
240	0x3e5b421e	0.2141194
241	0x3e22b240	0.1588831
242	0x3e799641	0.24373724
243	0x3d0a53b9	0.03377125
244	0x3e383bb8	0.17991531
245	0x3d1569e4	0.03647794
246	0x3e230c2f	0.15922616
247	0xbd419ace	-0.047266774
248	0x3e08f9d9	0.1337656
249	0xbe417c64	-0.18895108
250	0x3b03ff27	0.0020141096
251	0x3e787564	0.24263531
252	0xbe5cf10a	-0.21576324
253	0x3e4ae271	0.19812943
254	0xbdac38ef	-0.08409297
255	0xbdff8ba5	-0.12477807

blocks.0.attn.proj_FacTs.weight f4 [16, 16]
0	0xbd79164d	-0.060812283
1	0x3e04c524	0.12965828
2	0x3e6884da	0.22706929
3	0xbe25e104	-0.16199118
4	0xbb540a74	-0.0032354863
5	0x3c44567b	0.011983509
6	0xbe244892	-0.16043308
7	0xbe0062a9	-0.12537636
8	0xbe47b138	-0.19501197
9	0xbe47db40	-0.19517231
10	0xbe58c0ec	-0.21167344
11	0xbe124c26	-0.14286861
12	0xbe932df6	-0.28746003
13	0xbe1ac0a0	-0.15112543
14	0x3dd338b6	0.10313551
15	0x3e3329b4	0.17496377
16	0x3de52bf9	0.11190028
17	0xbe5a3352	-0.2130864
18	0x3e2803bf	0.16407679
19	0xbdbc1176	-0.09183018
20	0x3ca5e16c	0.020249091
21	0xbe2b382f	-0.16720651
22	0x3e47f0a6	0.19525394
23	0x3e1b5a0c	0.15171069
24	0xbd1b86c3	-0.037970316
25	0xbd514411	-0.051090304
26	0x3c6d8ea5	0.014499341
27	0x3e65d6a8	0.22445166
28	0x3e098348	0.13428986
29	0x3e4492ea	0.19196668
30	0x3e13ced7	0.14434372
31	0xbe55f60b	-0.20894639
32	0x3e1c4c07	0.15263377
33	0x3d9acbb8	0.075583875
34	0x3e6d2f2a	0.23162523
35	0x3e6ee8c5	0.23330982
36	0xbe212b69	-0.15739216
37	0x3d349615	0.044088442
38	0x3e8097de	0.25115865
39	0xbda80684	-0.08204368
40	0xbe202e9d	-0.15642782
41	0xbe0e70c4	-0.13910204
42	0x3dabeb33	0.0839447
43	0x3de9746c	0.11399159
44	0x3ded2d0b	0.11580857
45	0xbe959036	-0.29211587
46	0x3df56613	0.1198236
47	0x3e9a2a36	0.3011033
48	0x3e5166db	0.20449392
49	0xbea78a28	-0.32722592
50	0xbd2cc73a	-0.042182185
51	0x3e23ebfe	0.16007993
52	0xbe33c1c7	-0.17554389
53	0x3e413a22	0.18869832
54	0xbe4e49f1	-0.20145394
55	0x3e87ebe7	0.26547167
56	0x3b633466	0.0034668683
57	0x3e81efd7	0.25378296
58	0xbeb7bf94	-0.3588835
59	0x3e345a82	0.17612651
60	0x3e069e3b	0.13146298
61	0x3e821b12	0.25411278
62	0x3e66926a	0.2251679
63	0x3daa1acb	0.083058916
64	0xbe04c038	-0.1296395
65	0x3de0a48c	0.10968885
66	0xbe0a1da1	-0.13487865
67	0xbdb195cb	-0.08671149
68	0xbe50ecc4	-0.20402819
69	0xbd3e3e2d	-0.046446014
70	0xbd912aa2	-0.0708821
71	0xbe6794c3	-0.22615342
72	0xbe3721ba	-0.1788396
73	0xbdb0b546	-0.08628325
74	0x3cb64262	0.02224845
75	0x3bebf8d4	0.0072012935
76	0xbde7849d	-0.11304591
77	0xbe511d06	-0.20421228
78	0xbd5fd271	-0.054644052
79	0xbdc75582	-0.09733106
80	0xbe09b4b0	-0.13447833
81	0x3e353d19	0.17699088
82	0x3e443d3f	0.19163989
83	0x3e21523a	0.15754023
84	0x3dcd1ff1	0.10015858
85	0x3e6be03a	0.23034754
86	0x3cb4b3ce	0.022058394
87	0x3e1b76ed	0.15182085
88	0x3d9eafc8	0.07748371
89	0xbe8397d5	-0.25701776
90	0x3d56e5f8	0.05246541
91	0xbc734f42	-0.0148504395
92	0x3d0e5947	0.03475311
93	0x3e889927	0.26679346
94	0x3e1acf94	0.15118247
95	0xbdbeb7fd	-0.09312437
96	0xbbbffdb2	-0.0058591003
97	0x3e02ad0f	0.12761329
98	0x3e27c79b	0.16384737
99	0x3e0044bc	0.1252622
100	0x3d9dcff2	0.07705678
101	0xbd0d115e	-0.03444039
102	0xbe07f165	-0.13275678
103	0xbe4520e5	-0.1925083
104	0x3e0ddc6e	0.13853619
105	0x3e085058	0.13311899
106	0xbe5c838a	-0.21534553
107	0x3e2ac5c5	0.16677006
108	0xbe6ad25e	-0.22931811
109	0xbd2a8737	-0.041632857
110	0xbd22bf90	-0.03973347
111	0x3d98e65f	0.07465815
112	0xbe1bd6c1	-0.15218641
113	0xbe8e572e	-0.27800888
114	0x3de79867	0.11308365
115	0x3e884eab	0.2662252
116	0xbe55c12d	-0.20874472
117	0xbdfbbadb	-0.12291499
118	0xbe5fc2d8	-0.2185167
119	0xbe659bfb	-0.22422783
120	0xbe4709ba	-0.19437304
121	0xbe4f5a81	-0.20249368
122	0xbc4b5c24	-0.012412105
123	0x3e3e7787	0.18600284
124	0x3ea0356d	0.3129076
125	0x3ec01792	0.37517983
126	0x3c43622e	0.011925263
127	0x3e92906e	0.28625816
128	0x3e42947d	0.19001956
129	0xbe99cfc5	-0.30041328
130	0xbe3360e1	-0.17517425
131	0x3d683dca	0.05669955
132	0x3e33ef7c	0.17571825
133	0xbe6a6b60	-0.22892523
134	0x3e1dc869	0.15408482
135	0xbe7406db	-0.2383074
136	0x3e96d6f1	0.29460862
137	0x3e58981a	0.21151772
138	0xbe08d41c	-0.13362163
139	0x3ea5e592	0.3240171
140	0xbe65f4df	-0.22456692
141	0x3e9a8be1	0.30184844
142	0xbddd9f9c	-0.10821459
143	0x3e341c0f	0.17588829
144	0x3e891f1a	0.2678154
145	0x3e480389	0.19532599
146	0x3e9564b7	0.29178402
147	0xbea0b461	-0.31387618
148	0x3d48a1b0	0.048982322
149	0x3e8e6a53	0.27815494
150	0x3e764339	0.24049081
151	0xbd215f5d	-0.039397586
152	0xbe1abaa5	-0.15110262
153	0xbe06c822	-0.13162282
154	0xbe27efc4	-0.16400057
155	0x3deb2aa9	0.11482746
156	0xbe8b364d	-0.27189866
157	0x3d49e8e8	0.049294382
158	0xbe28fed5	-0.1650346
159	0x3bdf9499	0.006823134
160	0xbcb369fa	-0.02190112
161	0x3e1888a6	0.14895877
162	0xbde29c23	-0.11064937
163	0xbca288b3	-0.019840574
164	0x3d429fe9	0.047515783
165	0xbe1e58ea	-0.15463606
166	0x3e4e711b	0.20160334
167	0xbe3c8045	-0.18408306
168	0xbe8078ec	-0.25092256
169	0xbe86ba17	-0.2631385
170	0x3c9c23dd	0.01906007
171	0x3ca73e75	0.020415524
172	0x3e35ceb4	0.17754632
173	0xbe6717cc	-0.22567672
174	0x3da77d44	0.081781894
175	0xbe53665d	-0.20644517
176	0xbdfb827a	-0.12280746
177	0x3dfade4a	0.122494295
178	0xbe829514	-0.25504363
179	0x3d803486	0.06260018
180	0x3ea1249c	0.31473243
181	0x3a5abf45	0.00083445414
182	0xbc90f44d	-0.017694617
183	0x3e69fe95	0.22851022
184	0x3e33a19e	0.17542121
185	0x3e167bb9	0.14695634
186	0xbdf5cab2	-0.12001552
187	0x3d7a2728	0.0610725
188	0x3d92685b	0.071488105
189	0x3e03a618	0.12856328
190	0xbe5b5ea8	-0.21422827
191	0xbe2ab7ee	-0.16671726
192	0xbe0ce2b0	-0.1375835
193	0x3de8b527	0.11362677
194	0xbd902d95	-0.07039944
195	0x3bfa2056	0.0076332493
196	0x3cb0fe48	0.021605626
197	0xbda26f9c	-0.07931444
198	0xbe1f5eb1	-0.15563466
199	0xbd6bfb34	-0.057612613
200	0xbcfd4346	-0.030915868
201	0xba8ecd58	-0.0010894937
202	0x3e8ec543	0.27884874
203	0x3da26dac	0.079310745
204	0x3e97cdac	0.29649103
205	0x3e53b053	0.20672731
206	0xbe80b1bd	-0.25135604
207	0x3dec57ea	0.11540206
208	0xbe2569b3	-0.16153602
209	0x3e2105b4	0.15724832
210	0xbbaefbff	-0.005340099
211	0x3e8904cb	0.2676147
212	0xbd02abf6	-0.031902276
213	0x3c5f6da6	0.013636982
214	0x3c1bffbb	0.00952142
215	0x3e0e1f40	0.13879108
216	0x3e994697	0.29936668
217	0xbe1bcad5	-0.15214093
218	0x3d157880	0.03649187
219	0x3e569510	0.209553
220	0x3e2be4a2	0.16786435
221	0xbcbd7b9b	-0.023130229
222	0x3de4f0e2	0.11178757
223	0xbe4c965e	-0.19979236
224	0x3cca353d	0.02468359
225	0x3e19686e	0.14981243
226	0xbd4f0c2f	-0.05054873
227	0x3e2f7303	0.17133717
228	0xbe0fcf22	-0.14043859
229	0xbcac5e0a	-0.021040935
230	0xbe8c1180	-0.273571
231	0x3db8c9e6	0.09022884
232	0x3e66b7a2	0.22530988
233	0x3e12cc6c	0.14335793
234	0x3e54b6de	0.20772883
235	0x3daa79db	0.08324023
236	0xbe453f4c	-0.19262427
237	0xbe2d607f	-0.16931342
238	0x3e093b94	0.13401634
239	0x3e6f106c	0.23346108
240	0xbe77cbd9	-0.24198855
241	0x3d32a581	0.043614868
242	0x3e3701df	0.17871808
243	0xbd0ce931	-0.034402076
244	0xbe138d3c	-0.14409345
245	0x3cddd8b7	0.027080877
246	0xbdb160f7	-0.08661073
247	0x3d8125a1	0.06306005
248	0x3d83ed3c	0.06441733
249	0xbe618a61	-0.22025444
250	0xbde401b2	-0.11133136
251	0xbe8bf8be	-0.27338213
252	0x3d809170	0.0627774
253	0xbd48e63a	-0.049047686
254	0x3e869757	0.26287338
255	0x3e12f316	0.14350542

blocks.0.mlp.fc1_FacTs.weight f4 [64, 16]
0	0x3e182cbe	0.14860818
1	0x3e3d4201	0.1848221
2	0xbdee42ec	-0.11633858
3	0x3e04d85c	0.1297316
4	0xbe351c05	-0.1768647
5	0x3e826b36	0.2547242
6	0xbdb69d4d	-0.089167215
7	0xbd84c3fc	-0.064826936
8	0x3d3ac9b3	0.04560251
9	0x3e20c139	0.15698709
10	0xbe217003	-0.15765385
11	0xbe8ec6bd	-0.27886
12	0x3e40c4f9	0.18825139
13	0x3dd7f0d0	0.10543978
14	0xbd894f00	-0.06704521
15	0xbe33f2f7	-0.17573152
16	0xbe29fecc	-0.16601104
17	0x3cda10a0	0.026619256
18	0x3d90346b	0.07041248
19	0xbdb53825	-0.08848599
20	0x3e83e737	0.2576234
21	0xbd617c2d	-0.055050064
22	0x3ded1c29	0.11577637
23	0x3e0a0231	0.13477398
24	0x3d5e7816	0.05431374
25	0x3d8ec80a	0.06971748
26	0x3d843c24	0.064567834
27	0x3e390dd5	0.18071683
28	0xbe896a98	-0.26839137
29	0xbaa7502c	-0.0012764982
30	0xbe5220f8	-0.20520389
31	0xbe0a2ff2	-0.13494852
32	0xbe980c7a	-0.2969702
33	0xbdf5dbb7	-0.12004798
34	0x3e1bdc9b	0.15220873
35	0xbddee175	-0.10882846
36	0xbb800cee	-0.0039077913
37	0x3d1efee4	0.0388173
38	0xbddfb623	-0.10923412
39	0xbe4a0e31	-0.19731976
40	0xbc447706	-0.011991268
41	0x3e4f85b6	0.2026585
42	0x3d68a7d5	0.056800682
43	0x3df1a235	0.11798517
44	0x3e056b35	0.13029177
45	0x3d713cc9	0.05889586
46	0xbe77ebf5	-0.24211104
47	0xbd28d884	-0.04122211
48	0xbd6934d0	-0.05693513
49	0x3d571fbf	0.05252051
50	0x3d9d380c	0.07676706
51	0xbe6f278c	-0.2335493
52	0xbdb385db	-0.08765765
53	0xbdcad7e3	-0.099044584
54	0x3e60eabc	0.21964544
55	0xbe8bf9ba	-0.27338964
56	0x3e370a60	0.17875051
57	0x3e609df6	0.21935257
58	0xbd78e198	-0.060762018
59	0x3e057253	0.13031892
60	0x3d4c1b01	0.04983044
61	0x3de954c2	0.113931194
62	0x3e2389b6	0.15970501
63	0x3cd2c876	0.025730353
64	0xbe1d37ed	-0.15353365
65	0x3d397b3e	0.04528355
66	0x3e244ce3	0.16044955
67	0x3e13cfcb	0.14434735
68	0xbdb9abea	-0.09065993
69	0x3e5415a1	0.20711376
70	0x3c36a721	0.011148245
71	0xbe703fb1	-0.23461796
72	0x3e6e00e6	0.2324253
73	0xbda653d8	-0.08121461
74	0x3e376bb3	0.17912178
75	0x3d6ba03a	0.05752585
76	0xbdc52a81	-0.096272476
77	0xbe74d6ce	-0.23910066
78	0x3e446b07	0.19181453
79	0x39f1a764	0.00046091818
80	0x3e521c5a	0.20518628
81	0xbda42945	-0.08015684
82	0x3e55db4a	0.20884433
83	0xbe6f723a	-0.23383418
84	0x3d1c417b	0.038148385
85	0x3e164977	0.14676462
86	0x3cc0cde5	0.023535678
87	0x3e77a54d	0.24184151
88	0x3d255419	0.040363405
89	0xbe7ec0e0	-0.24878263
90	0xba639fa6	-0.0008683152
91	0x3e633bf2	0.22190836
92	0x3d643888	0.055717975
93	0x3d9a48fe	0.075334534
94	0xbe0eba6f	-0.13938306
95	0x3bd1907a	0.006395397
96	0xbe6b8cf2	-0.23002985
97	0xbe64d84e	-0.22348139
98	0xbdb0fbdd	-0.08641789
99	0x3dec32a0	0.115330935
100	0x3de4648d	0.11151991
101	0xbe820ec5	-0.25401893
102	0x3e2ac16d	0.16675349
103	0xbe3d5fa8	-0.18493521
104	0xbe5f7d50	-0.21825147
105	0x3e8d0f1e	0.27550596
106	0x3e754111	0.23950602
107	0x3ddd8542	0.108164325
108	0xbe48be3c	-0.19603819
109	0xbd32c7bd	-0.043647517
110	0xbe07479d	-0.13210912
111	0x3e4e06e4	0.20119816
112	0xbca598da	-0.020214487
113	0xbe1b5eb5	-0.15172847
114	0xbe4b7ea9	-0.19872536
115	0xbe0ee40a	-0.13954177
116	0x3e1551ed	0.14582033
117	0xbc5b6a3b	-0.013392027
118	0x3d920384	0.07129577
119	0x3e616226	0.22010097
120	0xbde6d0ff	-0.112703316
121	0x3d1b4b28	0.03791347
122	0x3db156b9	0.08659119
123	0x3dd55aa2	0.104176775
124	0xbd4243d0	-0.047427952
125	0x3e5586ad	0.20852156
126	0xbc84bc72	-0.016203139
127	0xbe9ef2ec	-0.3104471
128	0xbc883401	-0.01662636
129	0x3e9084a5	0.282262
130	0x3e2491fb	0.16071312
131	0x3da80580	0.08204174
132	0x3d248914	0.04016979
133	0x3de0d4cb	0.10978087
134	0x3d72cdef	0.059278425
135	0x3e8cf671	0.2753177
136	0x3e789c9c	0.24278492
137	0x3e0ff58f	0.14058517
138	0x3ea853a9	0.32876328
139	0xbe808dbe	-0.2510814
140	0x3e0ec7b0	0.13943362
141	0xbd6a63b1	-0.05722398
142	0x3bff6741	0.0077942912
143	0x3d5d1c81	0.05398226
144	0xbd65de1a	-0.056120016
145	0xbd064396	-0.0327793
146	0xbdb1bd30	-0.08678663
147	0x3de1f9c4	0.11033967
148	0x3dc0e6bb	0.09419008
149	0xbe49c0f9	-0.1970252
150	0xbe499d05	-0.19688804
151	0xbd30852b	-0.04309575
152	0xbd79c720	-0.060980916
153	0xbe34e4f4	-0.17665464
154	0xbdfc82c6	-0.123296306
155	0xbc65e383	-0.014031294
156	0x3ded6dd4	0.11593214
157	0xbe4fec38	-0.20304954
158	0x3da2ca59	0.07948751
159	0x3dc57648	0.09641701
160	0x3e57df8f	0.21081375
161	0x3cbb7d43	0.022886878
162	0xbe694e4b	-0.22783773
163	0x3daf9d8d	0.08574972
164	0x3e1697bb	0.14706318
165	0xbe5376b6	-0.20650753
166	0xbda69a4c	-0.081348985
167	0xbe0e3d22	-0.13890508
168	0x3dd806fb	0.105482064
169	0xbce6f690	-0.028193742
170	0x3e56033c	0.20899671
171	0x3dec32c9	0.11533124
172	0x3e8c40bb	0.27393135
173	0x3e451a42	0.19248298
174	0xbe2257c1	-0.15853788
175	0x3d7ce053	0.06173737
176	0x3dcf6bcb	0.10127982
177	0xbdc5f9d9	-0.09666795
178	0x3d9659dd	0.07341359
179	0x3d31b60c	0.043386504
180	0xbb94542e	-0.0045266366
181	0x3e64eff4	0.2235716
182	0x3ce8ed34	0.02843342
183	0xbe6d02ae	-0.23145553
184	0x3d2ad727	0.04170909
185	0xbe4b308d	-0.1984274
186	0x3dae2269	0.08502657
187	0x3e3d8ef9	0.18511571
188	0xbe61bb5f	-0.22044133
189	0xbe514863	-0.2043777
190	0xbe507984	-0.20358855
191	0xbdb246d9	-0.08704919
192	0x3e62f99d	0.22165532
193	0xbe1d888a	-0.15384117
194	0xbdc6e839	-0.09712262
195	0x3dc46b78	0.095908105
196	0xbdb7f1e6	-0.08981685
197	0xbd51e76b	-0.051246088
198	0xbd7b1cd5	-0.061306793
199	0xbe6dc77f	-0.23220633
200	0x3e4d24b0	0.20033526
201	0x3d226825	0.0396501
202	0x3e70b773	0.2350748
203	0xbdf60dd3	-0.120143555
204	0xbb1a218d	-0.0023518533
205	0x3dbc2374	0.0918645
206	0xbe5a3367	-0.21308671
207	0xbdfc6b23	-0.12325122
208	0x3e400ca8	0.18754828
209	0xbdca9c8d	-0.09893141
210	0x3da26cde	0.07930921
211	0xbc72409d	-0.014785913
212	0x3e2ff0a3	0.1718164
213	0x3e638d13	0.22221784
214	0xbdcc57f8	-0.09977716
215	0xbe9fb1d4	-0.3119036
216	0x3e3a875b	0.18215697
217	0x3c94e22b	0.018174252
218	0xbe32c390	-0.17457414
219	0x3d230414	0.03979881
220	0xbdbc3e7f	-0.09191608
221	0xbe5dc884	-0.21658522
222	0xbe4a035b	-0.19727843
223	0xbda34caa	-0.07973607
224	0x3ca78cb9	0.020452844
225	0xbe7cd5b8	-0.24690902
226	0xbe93dd29	-0.2887967
227	0xbe1a4d1d	-0.15068479
228	0xbd7614f2	-0.06007857
229	0x3e09a5de	0.1344218
230	0xbd0e67e0	-0.03476703
231	0x3d951491	0.07279313
232	0xbe06e587	-0.13173495
233	0xbcd2a0ba	-0.025711406
234	0xbd8f93f2	-0.0701064
235	0x3d422736	0.047400676
236	0xbe5b77c8	-0.21432412
237	0x3a20d31f	0.0006134975
238	0xbde4af30	-0.11166227
239	0x3b109e3f	0.0022066978
240	0xbe7228ea	-0.2364842
241	0x3e490947	0.19632445
242	0x3e3b3a78	0.18284023
243	0xbe138ff2	-0.1441038
244	0x3e6d10b0	0.23150897
245	0xbd70dacb	-0.058802407
246	0x3e15bb49	0.14622225
247	0xbe78082e	-0.2422187
248	0xbe085b8c	-0.13316172
249	0x3de6a9ba	0.112628415
250	0x3e1be204	0.15222937
251	0xbd00a6d0	-0.031409085
252	0x3c0a4dff	0.008441447
253	0xbe92554a	-0.28580695
254	0x3e56c5be	0.2097387
255	0x3cb71b1f	0.0223518

blocks.0.mlp.fc2_FacTs.weight f4 [16, 64]
0	0x3d7ff7a5	0.06249203
1	0xbd891989	-0.066943236
2	0x3ceba8a3	0.028766936
3	0xbc6252d3	-0.013813692
4	0xbc9f960e	-0.019480731
5	0x3e38c031	0.18042065
6	0x3d617970	0.055047452
7	0xbdd66057	-0.10467594
8	0xbd7ea573	-0.062169503
9	0xbda61f5b	-0.08111449
10	0x3e011f82	0.12609676
11	0xbd096437	-0.033542838
12	0xbdf12c2e	-0.11776005
13	0x3d714226	0.058900975
14	0xbd32f4a4	-0.04369034
15	0xbd848d6a	-0.06472285
16	0xbe0929f1	-0.13394906
17	0xbe575727	-0.2102934
18	0x3e01c5dc	0.12673134
19	0xbd34bf37	-0.04412767
20	0x3aac2409	0.0013133298
21	0xbd06025d	-0.032717098
22	0x3d1e9aa3	0.03872169
23	0xbdffea55	-0.12495867
24	0x3db3fe38	0.08788723
25	0xbc6d0242	-0.01446587
26	0xbd1e8164	-0.038697615
27	0x3e1ce3c7	0.15321265
28	0xbe1836c4	-0.14864641
29	0x3c28030f	0.0102546355
30	0x3d86b168	0.06576806
31	0xbcc677f2	-0.024227116
32	0xbcdbec16	-0.026845973
33	0x3d7f21bb	0.062288027
34	0xbdedc534	-0.11609879
35	0xbdb821a0	-0.089907885
36	0xbd9994c2	-0.074990764
37	0xbc4ee00a	-0.012626657
38	0x3de073a8	0.1095956
39	0xbc9982ea	-0.018739183
40	0xbdbf7c6d	-0.09349904
41	0x3c2a59de	0.010397403
42	0x3d5578a4	0.052117005
43	0x3db98216	0.09058015
44	0x3d3ee6da	0.046606876
45	0x3d374231	0.04474086
46	0xbdccb9f6	-0.09996407
47	0x3da4bf76	0.08044331
48	0x3e042897	0.12906109
49	0x3d79f033	0.061020087
50	0x3d0b7791	0.034049574
51	0xbcb3354c	-0.021876
52	0x3d39e164	0.045380965
53	0x3cc6bef5	0.024260977
54	0x3b8b31c1	0.0042478745
55	0x3d7c5eef	0.061613973
56	0x3dc54518	0.09632319
57	0xbdd7bdec	-0.105342716
58	0x3e1e64d6	0.15468153
59	0xbd76ecf2	-0.060284562
60	0x3c5438a2	0.012952955
61	0x3d839d8e	0.064265355
62	0x3e03d123	0.12872748
63	0xbc83f5b2	-0.016108368
64	0xbe051247	-0.12995254
65	0x3d25c8e3	0.040474784
66	0x3db1121c	0.08646032
67	0xbda36a5e	-0.07979272
68	0xbce679f7	-0.02813433
69	0xbe1bb3ed	-0.15205355
70	0xbdcab122	-0.09897067
71	0xbda7cedc	-0.08193752
72	0x3d68d46f	0.056843217
73	0xbd820be4	-0.06349924
74	0xbd985d6c	-0.07439694
75	0x3d363e87	0.044493224
76	0xbd909896	-0.070603535
77	0xbdda484b	-0.1065832
78	0xbe110f40	-0.14165974
79	0x3d2667a7	0.040626194
80	0xbde66b78	-0.11250967
81	0xbe1ba0b1	-0.15198018
82	0x3e2708ed	0.16311999
83	0xbdb7b63c	-0.08970305
84	0x3cfae222	0.030625407
85	0x3dc01d8f	0.09380638
86	0xbe56201b	-0.20910685
87	0xbda4c149	-0.08044679
88	0x3d11f673	0.035635423
89	0x3e05455f	0.13014744
90	0xbd895b70	-0.067068934
91	0xbd0e418a	-0.03473047
92	0xbd3f3c3f	-0.046688315
93	0x3bd1e933	0.0064059733
94	0xbe41d150	-0.18927503
95	0xbcd1f3b6	-0.025628906
96	0xbe223375	-0.15839942
97	0xbdb6b7d2	-0.0892178
98	0x3dde242a	0.108467415
99	0x3d74d5a5	0.05977406
100	0xbe0668ea	-0.13125959
101	0xbd978173	-0.07397737
102	0xbe0284ac	-0.12745923
103	0xbe211286	-0.15729722
104	0xbcfca50e	-0.030840423
105	0x3e1b65cd	0.15175553
106	0xbe1db9c6	-0.15402898
107	0x3dc2150a	0.09476669
108	0xbcae5b0d	-0.02128365
109	0x3da60a1d	0.08107398
110	0xbe19a2a1	-0.15003444
111	0x3c265c36	0.010153821
112	0x3df4cd42	0.11953212
113	0xbbd13541	-0.006384522
114	0xbd8a7f5e	-0.067625746
115	0x3c48061d	0.012208489
116	0x3dd5548e	0.10416518
117	0x3dfe5f30	0.12420499
118	0xbd1c3b96	-0.038142763
119	0xbd351cc9	-0.044216905
120	0xbd85a561	-0.06525684
121	0x3c259f97	0.01010885
122	0xbdf08ba3	-0.117453836
123	0x3da8d758	0.082441986
124	0x3e15392a	0.14572588
125	0x3b84dfe6	0.004055011
126	0x3cc67cd4	0.024229445
127	0x3d3c5923	0.045983445
128	0xbdbe25c4	-0.09284547
129	0x3e1c396b	0.15256278
130	0xbe0181b7	-0.12647139
131	0x3df5fb40	0.12010813
132	0x3dae50f5	0.08511535
133	0x3d8f11d8	0.06985825
134	0x3e11b007	0.14227305
135	0x3d83d4cf	0.064370744
136	0xbcb2a060	-0.021804988
137	0xbe1347d4	-0.14382869
138	0x3d43b17f	0.047776695
139	0xbe16ca88	-0.14725697
140	0xbd8d5b33	-0.069021605
141	0xbce586cd	-0.02801838
142	0x3e4b0d17	0.19829212
143	0x3daba3a0	0.08380818
144	0xbba300f8	-0.0049744807
145	0xbd91535d	-0.070959784
146	0xbb1e116b	-0.0024119269
147	0x3de437b9	0.11143441
148	0xbd32af17	-0.04362401
149	0xbafaf16a	-0.0019145433
150	0xbdb52528	-0.088449776
151	0xbd9d80ae	-0.07690559
152	0xbca70108	-0.020386234
153	0xbc79d6ce	-0.015248967
154	0xbd3e6edd	-0.046492446
155	0x3b48a373	0.0030615001
156	0xbd616443	-0.055027258
157	0x3d9ef779	0.077620454
158	0xbe84fe27	-0.25975153
159	0xbdf856af	-0.121259086
160	0x3cd3a3d9	0.025834965
161	0xbd85583a	-0.065109685
162	0x3df589da	0.11989184
163	0xbe4d56ed	-0.20052691
164	0x3e2539bd	0.16135307
165	0x3d92f5b8	0.071757734
166	0x3e256896	0.16153178
167	0x3d84cc35	0.06484262
168	0x3dbea281	0.09308339
169	0xbd9a02ff	-0.07520103
170	0xbdb6d99b	-0.08928224
171	0x3dd63800	0.104599
172	0x3cbbc495	0.022920886
173	0x3d4db890	0.05022484
174	0x3d215ce9	0.039395247
175	0xbd154f82	-0.036452778
176	0xbd1a1f46	-0.03762748
177	0x3d87be86	0.06628136
178	0xbe02d8ca	-0.12778011
179	0xbca72b1c	-0.020406298
180	0xbd9411fd	-0.072299935
181	0xbc2c68f1	-0.010523067
182	0xbd87ac5f	-0.06624674
183	0x3e699247	0.22809707
184	0x3eb07406	0.3446352
185	0xbe1a37cb	-0.15060346
186	0xbc974f6f	-0.018470494
187	0xbd809a3d	-0.062794186
188	0xbcc6f7c6	-0.02428807
189	0x3e1e3c09	0.15452589
190	0xbd71cbd6	-0.059032284
191	0x3d25e5a8	0.04050222
192	0x3e538304	0.20655447
193	0x3cf06645	0.02934564
194	0xbcc1ddc1	-0.02366531
195	0x3d909575	0.07059757
196	0xbcc02c6c	-0.023458682
197	0x3d68767c	0.05675362
198	0x3d6cdc80	0.057827473
199	0x3d6af127	0.057358887
200	0xbe1d976f	-0.15389799
201	0x3cc7ebb9	0.024404394
202	0x3d8c0342	0.06836559
203	0xbbe06ea0	-0.006849125
204	0xbdd2f8bc	-0.103013486
205	0xbc128f19	-0.00894525
206	0x3dcfe223	0.10150554
207	0xbde4eefc	-0.11178395
208	0x3dd829d8	0.10554856
209	0x3d27576e	0.040854864
210	0x3e38f282	0.1806126
211	0xbc86a3ac	-0.016435467
212	0xbc89155c	-0.016733818
213	0x3c5fbff4	0.013656605
214	0x3de9e16c	0.11419949
215	0xbd8cd544	-0.06876615
216	0xbd5fde0e	-0.054655127
217	0x3dff594f	0.12468206
218	0xbc26c8d0	-0.010179713
219	0xbde14081	-0.10998631
220	0x3d34bc3c	0.044124827
221	0x3dbda5d7	0.09260147
222	0xbd9221d9	-0.07135362
223	0x3db09ff8	0.086242616
224	0x3d3a3172	0.04545731
225	0xbd003b74	-0.0313067
226	0xbc4d835a	-0.012543524
227	0xbde318ae	-0.11088692
228	0xbde1fe80	-0.1103487
229	0xbd62145b	-0.055195194
230	0xbc42caf7	-0.011889211
231	0xbe5290f8	-0.20563114
232	0x3d619585	0.055074234
233	0x3de148f7	0.11000245
234	0x3d0e5292	0.034746714
235	0xbd2e127a	-0.04249809
236	0xbe0ed979	-0.13950147
237	0x3d854177	0.06506627
238	0x3c744cbd	0.014910874
239	0xbd81fc79	-0.063469835
240	0x3d55fa07	0.052240398
241	0xbdb105b5	-0.08643667
242	0x3d3ac6e0	0.04559982
243	0xbc97094b	-0.018437048
244	0xbcf1615a	-0.029465366
245	0xb95c888b	-0.00021031701
246	0xbd8d8b31	-0.06911314
247	0x3b2fcd3b	0.0026825208
248	0xbd0073b0	-0.03136033
249	0x3d0f8c3c	0.035045847
250	0x3db10479	0.08643431
251	0xbd4642df	-0.048403617
252	0xbdcbc71d	-0.09950087
253	0xbe131852	-0.14364746
254	0x3d905892	0.070481434
255	0xbd493c78	-0.049129933

blocks.1.attn.q_FacTs.weight f4 [16, 16]
0	0xbe8f5509	-0.27994564
1	0xbe065eef	-0.13122152
2	0xbcc5c1d1	-0.02414027
3	0x3dd96bd5	0.106162705
4	0xbe66718c	-0.22504252
5	0x3e745cb2	0.23863485
6	0xbe740d0f	-0.23833106
7	0xbc8e99c3	-0.017407304
8	0xbc93b4e2	-0.018030588
9	0xbe8e2e92	-0.27769905
10	0xbdbc0ced	-0.09182153
11	0xbd3bd971	-0.045861665
12	0xbc7ed35d	-0.015553323
13	0xbdb696dc	-0.08915493
14	0xbb5280c8	-0.0032120217
15	0x3c5ff56d	0.013669354
16	0x3de3391d	0.11094878
17	0xbd88186d	-0.06645284
18	0x3d6e6fe7	0.058212187
19	0x3d894a1d	0.06703589
20	0xbe69a653	-0.22817354
21	0xbe2955ae	-0.1653659
22	0xbe678e3c	-0.22612852
23	0x3e390d1f	0.18071412
24	0x3de8d009	0.113678046
25	0x3d6ca3de	0.057773463
26	0xbdc78f50	-0.097441316
27	0x3e05cf8b	0.13067453
28	0x3e567565	0.2094322
29	0xbe380896	-0.17972025
30	0xbd303a02	-0.04302407
31	0x3dd662aa	0.104680374
32	0xbbb3d370	-0.005487852
33	0xbdbd3be6	-0.0923994
34	0xbdf1e714	-0.11811653
35	0xbd530da0	-0.051526666
36	0x3da40efa	0.08010669
37	0xbde47888	-0.11155802
38	0x3e3a3593	0.181845
39	0xbe25115f	-0.16119908
40	0xbe4f02f2	-0.20215967
41	0x3dc4c21d	0.09607337
42	0xbe4d25cc	-0.2003395
43	0xbce55829	-0.02799614
44	0x3e9cf1e4	0.30653298
45	0xba0bd82b	-0.0005334641
46	0xbc2ab146	-0.010418242
47	0x3da8134b	0.08206805
48	0xbe650e9e	-0.22368857
49	0xbb27c23f	-0.0025597957
50	0xbccd4804	-0.025058754
51	0xbddc7606	-0.10764699
52	0x3e4c4dc0	0.19951534
53	0xbd81b96a	-0.06334193
54	0xbe8f5f3c	-0.28002346
55	0xbdc7dd43	-0.09758999
56	0x3d7a4004	0.061096206
57	0x3b097b29	0.002097795
58	0xbd30c2e3	-0.04315461
59	0xbebd1d79	-0.36936548
60	0x3cdfa6e3	0.027301257
61	0x3c1262f0	0.008934721
62	0xbe68f4cf	-0.22749637
63	0xbe4f5832	-0.20248488
64	0x3e353506	0.17696008
65	0x3da1089b	0.078629695
66	0x3d94967d	0.07255266
67	0xbda69294	-0.08133426
68	0xbe91364d	-0.2836174
69	0xbe52d250	-0.2058804
70	0x3e82c588	0.2554133
71	0xbd3bb708	-0.04582885
72	0x3e4b567c	0.1985721
73	0x3e45a645	0.19301708
74	0x3e1a3df7	0.150627
75	0x3e731f36	0.23742375
76	0xbd998ba9	-0.07497341
77	0x3de92254	0.11383501
78	0xbd188e8b	-0.037245315
79	0xbd8d6ff0	-0.06906116
80	0xbe68de4d	-0.22741051
81	0xbe4d9e78	-0.20079982
82	0x3e15a603	0.1461411
83	0x3deafdc3	0.114741825
84	0xbdd83493	-0.10556903
85	0x3e11f85c	0.14254898
86	0x3d513b68	0.051082045
87	0x3e1f3370	0.15546966
88	0xbe8c0a32	-0.27351528
89	0x3e46c7ce	0.19412157
90	0x3e6fedf4	0.23430616
91	0xbe250653	-0.16115694
92	0x3dafb4fd	0.08579443
93	0xbd63c7b7	-0.055610385
94	0xbded6a65	-0.11592559
95	0x3e8559e9	0.26045159
96	0xbea386bb	-0.3193873
97	0x3cc7f586	0.024409067
98	0xbc645d7b	-0.013938303
99	0x3e85f51d	0.2616357
100	0x3e073853	0.1320508
101	0xbe15ece0	-0.14641142
102	0xbeb5a74b	-0.35479197
103	0xbe06f5c1	-0.13179685
104	0xbd9098c4	-0.07060388
105	0xbd5462ad	-0.051851917
106	0xbe17a933	-0.14810638
107	0xbe3568d0	-0.17715764
108	0x3ce88596	0.028384011
109	0x3e3338d6	0.1750215
110	0x3da1da59	0.07902975
111	0xbe666aac	-0.2250163
112	0x3e42bae8	0.19016612
113	0xbe1975d5	-0.14986356
114	0xbe105d80	-0.14098167
115	0x3e0b3651	0.13594939
116	0x3d470e31	0.04859752
117	0xbd129f54	-0.03579648
118	0x3e841b84	0.25802243
119	0x3e8e17e8	0.27752614
120	0x3e4a46ad	0.19753523
121	0x3da6a613	0.08137145
122	0x3da2a6f7	0.07942002
123	0xbd5316d3	-0.05153544
124	0x3e8fb9fd	0.28071585
125	0x3e3f20b8	0.18664825
126	0xbe353375	-0.1769541
127	0x3e4d4771	0.20046784
128	0x3e92cfeb	0.28674254
129	0x3e0b81ad	0.13623686
130	0xbe09d35c	-0.13459533
131	0x3c8073b2	0.015680168
132	0xbe2641fb	-0.16236107
133	0xbd7dc1ae	-0.061952285
134	0xbd9b52cd	-0.07584152
135	0xbc45c3a6	-0.012070572
136	0xbe1500bc	-0.14551061
137	0x3e7db2dc	0.2477526
138	0xbcb84ad9	-0.022496628
139	0x3d753d96	0.059873186
140	0x3d9cd6ba	0.07658143
141	0x3c54ce2b	0.012988607
142	0xbdf65038	-0.12027019
143	0xbdf523c9	-0.11969716
144	0xbe0c4978	-0.13699901
145	0xbd825c32	-0.06365241
146	0xbe214957	-0.15750633
147	0x3dad5c78	0.08464903
148	0xbea0b46b	-0.31387648
149	0x3d7c96d2	0.06166727
150	0x3d02f942	0.031975992
151	0xbe6350b9	-0.22198762
152	0xbe0b4be5	-0.1360317
153	0xbe70d7ca	-0.23519817
154	0x3e40d795	0.18832238
155	0xbe75f6ff	-0.24020003
156	0x3db74cb9	0.089501806
157	0x3d9f773c	0.07786414
158	0x3a697cd3	0.0008906845
159	0x3c8720da	0.016495157
160	0x3cf38cdd	0.029730255
161	0x3e6a955e	0.22908542
162	0xbe31e936	-0.17374119
163	0xbe1bcdcc	-0.15215224
164	0xbe4b823b	-0.19873898
165	0x3c59b648	0.013288088
166	0x3dcaa95b	0.09895583
167	0xbc2e7087	-0.010646946
168	0x3e0af8ec	0.13571519
169	0x3e3067e7	0.17227136
170	0xbe1c7e7e	-0.15282628
171	0xbd4b0752	-0.049567528
172	0x3e630ed7	0.2217363
173	0x3be53c3e	0.006995707
174	0x3e075299	0.13215102
175	0xbdbfb23c	-0.093601674
176	0xbe9a2232	-0.30104214
177	0xbdc7f02f	-0.09762608
178	0xbe5b176c	-0.21395653
179	0x3deeb832	0.11656226
180	0x3ce1a55b	0.027544668
181	0x3cefaddf	0.029257713
182	0xbd746f5c	-0.059676513
183	0x3d87fd26	0.06640081
184	0xbdc10680	-0.09425068
185	0x3db7b5e3	0.08970239
186	0xbda38a92	-0.079854146
187	0x3d6a1e05	0.057157535
188	0x3e080f65	0.13287123
189	0x3e68b56a	0.22725454
190	0xbd538a11	-0.051645342
191	0xbcafa11b	-0.021439126
192	0x3d5612a3	0.052263867
193	0xbc985e03	-0.018599516
194	0xbe966847	-0.29376432
195	0x3d8b4123	0.06799533
196	0x3e3f8078	0.1870135
197	0x3cc03696	0.023463529
198	0x3ce20339	0.027589427
199	0x3d5fc8b7	0.054634776
200	0xbd223144	-0.039597765
201	0xbe1725f0	-0.14760566
202	0x3dfbb357	0.12290066
203	0x3d886d2f	0.0666145
204	0x3da995e7	0.08280545
205	0x3d23da29	0.040002976
206	0x3e39d930	0.18149257
207	0x3e4fa2e7	0.20276986
208	0xbe8ff853	-0.28119144
209	0xbd4b6930	-0.04966086
210	0xbe3b0b7e	-0.18266103
211	0x3e292cb8	0.16520965
212	0x3e976e90	0.2957654
213	0xbe5f5084	-0.21808058
214	0x3e3b84fa	0.18312445
215	0xbe6f3deb	-0.23363464
216	0x3e4cb11b	0.19989435
217	0x3e3ca881	0.18423654
218	0x3d4cab9d	0.04996835
219	0x3d52f977	0.05150744
220	0xbe6b8d05	-0.23003013
221	0x3e9137f5	0.28363004
222	0x3cf542c4	0.029939063
223	0x3dca9291	0.098912366
224	0x3e86e50a	0.26346618
225	0xbe2901fd	-0.16504665
226	0xbe0c13bb	-0.13679402
227	0xbe01b436	-0.12666401
228	0xbd361925	-0.044457573
229	0x3e00a309	0.12562193
230	0xbc8d75bd	-0.017268056
231	0x3e51e467	0.20497285
232	0x3e5f6b93	0.2181838
233	0xbd97abc8	-0.074058115
234	0x3d49f29a	0.04930363
235	0xbe099e78	-0.13439357
236	0xbda5ae25	-0.08089856
237	0xbdda7ca2	-0.10668303
238	0x3e817996	0.25288075
239	0x3e7db2c9	0.24775232
240	0xbc0c3716	-0.008558055
241	0xbe5b1f3a	-0.2139863
242	0xbdb09d91	-0.086238034
243	0xbe14fe70	-0.14550185
244	0x3c8161da	0.01579373
245	0xbca530e0	-0.020164907
246	0xbb33c215	-0.0027428914
247	0x3d9d7617	0.076885395
248	0x3e505deb	0.20348327
249	0xbe3407bf	-0.1758108
250	0x3dc82493	0.09772601
251	0xbc8dea6c	-0.017323695
252	0x3da87a6e	0.082264766
253	0xbe25bc8c	-0.16185206
254	0xbe5836f1	-0.21114708
255	0xbe56d070	-0.2097795
