Final Project/FacT-TT/clevr_dist_best.pt (torch, 74369 bytes, 76 tensors)

blocks.0.attn.q_FacTs.weight f4 [4, 4]
00000000: 98f6 f3be c7b6 9e3d 617d 6e3e 05c0 543e
00000010: ea8b 96be ea94 d7be 26eb df3e 67cd 4dbe
00000020: 6eda 813e 7b6c 873e 0617 93be a6e9 a33d
00000030: 8bc9 97bd 069e 7e3e 3e7a 4dbe 5546 8bbe
-0.47649074 0.07749706 0.23290016 0.20776375 -0.2940362 -0.421058 0.43734092 -0.20097886
0.2536196 0.26449952 -0.28728503 0.08003549 -0.07411488 0.24864969 -0.20066163 -0.27202097

blocks.0.attn.k_FacTs.weight f4 [4, 4]
00000000: a99b 86be ab78 08bf 9ee3 eabe 0b1c 5f3e
00000010: f883 5f3e 76b3 553d 3a41 303e 1191 8ebe
00000020: ec30 a1be d8fb 933e 814b 47be 24a2 e9be
00000030: d536 213e 6f9b 87bd 5ea8 a3be 9a94 8bbe
-0.26290634 -0.53309125 -0.45876783 0.21788041 0.21827686 0.0521731 0.17212382 -0.27845052
-0.31482637 0.2890308 -0.19462396 -0.45631516 0.15743573 -0.066214435 -0.3196439 -0.27261811

blocks.0.attn.v_FacTs.weight f4 [4, 4]
00000000: d884 513e f071 91bd 2343 c73e 0f5a 6f3e
00000010: ebc5 17bd e52e 43be e3e8 5bbe 96f9 b9be
00000020: 2b26 223e d0f0 f63d b58c 213e 3279 adbe
00000030: f41b ae3e 7ab2 ef3e a33a 80be 789d 5ebe
0.20460832 -0.0710181 0.3891841 0.23374198 -0.037053984 -0.19060858 -0.21475558 -0.3632323
0.15834872 0.1205765 0.15776332 -0.33881527 0.34005702 0.46815854 -0.25044736 -0.21739757

blocks.0.attn.proj_FacTs.weight f4 [4, 4]
00000000: 8652 8b3d 6db8 03bd 1f88 29be 7df8 b33e
00000010: 99ae 923e 3093 f93e 497e 9f3e 921f 31bc
00000020: e793 ce3e 4757 323e 0900 a7be 55e6 db3e
00000030: a112 b8be 17c7 8d3e 7d4d 02bf 926b 093f
0.068028495 -0.032158304 -0.16555832 0.3515052 0.28648832 0.48745108 0.31151035 -0.01081075
0.40347216 0.17416106 -0.32617214 0.42949167 -0.35951713 0.27690956 -0.5089949 0.53679764

blocks.0.mlp.fc1_FacTs.weight f4 [16, 4]
00000000: 0846 75bd 2b4e 7bbe 2ba8 0c3c c574 84bd
00000010: 1730 abbe 8fc5 eabe afe8 06be 54c9 d3bd
00000020: 2f56 cc3e bcad 6f3e 1b42 223d d0e6 ce3d
00000030: 7128 a13d 0810 293d 36a7 98be 6fb6 55be
00000040: 25a2 763e 3fa5 053d 0f15 ebbe 3b62 0e3e
00000050: 8de6 c93d d43c 483d 0938 94be d153 403e
00000060: ccc6 813d 9947 f8be da94 fb3e 726d 983a
00000070: aeaa 8cbc e237 983e 22ab 9fbe 37ff 823e
00000080: 2b90 abbe e3c9 b2bd b69d 323e 2c05 263e
00000090: 870a cdbe f67d 96bc 6b01 7a3e ab5e bcbe
000000a0: 6bd9 513e a324 dabe 5609 6bbd b841 81be
000000b0: 1ee0 a0be 545b b9be 7224 f63c e98f e1bd
000000c0: 5678 2b3e 519e 543e 5dd5 aabe 13f5 00be
000000d0: 5a25 b6be 8bef d63e a983 9fbe 4567 0e3f
000000e0: 2a2f 7f3d 0c9d 443e c188 083f b37f 45bd
000000f0: 8fae 9f3d daf8 2d3d c3db ca3c 0b74 52be
-0.05988124 -0.24541537 0.008585016 -0.064675845 -0.33435127 -0.4585385 -0.13174699 -0.10341135
0.39909503 0.23406118 0.039613824 0.10102618 0.07869042 0.041275054 -0.29815072 -0.20870374
0.2408529 0.032628294 -0.45914504 0.1390466 0.09858427 0.048886135 -0.28949 0.18781973
0.063367456 -0.48492125 0.49137002 0.0011629297 -0.01717123 0.29730135 -0.3118525 0.25585338
-0.3350843 -0.08729913 0.17442974 0.1621291 -0.40047094 -0.01837061 0.24414603 -0.36790976
0.20493095 -0.42606077 -0.05738195 -0.25245452 -0.31420988 -0.3620249 0.030046675 -0.11013777
0.16745123 0.20763518 -0.33365908 -0.12593488 -0.35575372 0.41979632 -0.31155136 0.55626327
0.06230084 0.19200534 0.5333367 -0.048217487 0.07796966 0.04247365 0.024762994 -0.2055208

blocks.0.mlp.fc2_FacTs.weight f4 [4, 16]
00000000: 3e66 ffbd cb6c 10bc 5bc4 5fbe 745b ecbb
00000010: fb04 2a3e 6c06 2d3d 2a7d d4bc a789 203e
00000020: 5ae0 763d 584d e3bd 23f1 753e baa8 f03d
00000030: 1432 d1bb 9bce 473e 504e 1b3e 2fb5 3d3e
00000040: abc4 82be 5237 38be 7d99 3f3e 51a0 c53c
00000050: c857 c03d 9b5f b1bd 9186 e63d f2eb a2be
00000060: 79c0 a9bc d2ae 5bbd 9236 01bd bd45 d2bd
00000070: 7171 36be 3e44 c53e d4ba 5bbd b373 083e
00000080: 9ff5 203e 03ba 6f3e 92ab 20be ebb3 3b3e
00000090: d9b3 9e3e 3092 b6be 6d3c de3d 52d9 c4bc
000000a0: 1cab 9abe f9da 963d 5797 27bd b610 8dbe
000000b0: 8f79 d8bb f5e9 48be 734f 26be e1a8 87bc
000000c0: 233b 0b3e a649 2fbe 62d0 4f3e 2177 75bc
000000d0: 60d0 16be 4ca6 923e 7a19 25bd 7449 be3d
000000e0: f927 23bd 1e58 48be d764 d6bc b2ad 75bd
000000f0: 7354 973d d9b5 ea3b 057d 07be 1575 483e
-0.12470673 -0.008815001 -0.21852247 -0.0072130505 0.16603462 0.042242453 -0.02593859 0.1567751
0.060272552 -0.110987365 0.24017768 0.11750932 -0.0063841436 0.19512407 0.15166593 0.18526147
-0.2554067 -0.17989853 0.18710895 0.024124296 0.09391743 -0.086608134 0.11256135 -0.31820637
-0.02072166 -0.05363352 -0.031546183 -0.10267208 -0.17816712 0.38528627 -0.05364497 0.13325386
0.15718697 0.23410802 -0.15690449 0.18330352 0.30996588 -0.35658407 0.10851369 -0.024029408
-0.3020867 0.073659845 -0.040915813 -0.27551812 -0.006606288 -0.19620498 -0.16241245 -0.01656002
0.13596778 -0.17117938 0.20294335 -0.014982016 -0.14727926 0.286425 -0.0403075 0.09291354
-0.039833043 -0.19564864 -0.026171131 -0.059980102 0.07389154 0.007162791 -0.13231285 0.19575913

blocks.1.attn.q_FacTs.weight f4 [4, 4]
00000000: e4fa d83e f3ad a4be 1491 00be ae7f a0be
00000010: adc8 d83c 0fc1 b73e 9103 823e 5082 58be
00000020: 9686 923d 7c02 fe3e 52e6 7abe 37e7 0ebe
00000030: 7175 d63d c83d 0abe 4a95 edbd d2e6 983e
0.42378914 -0.32163963 -0.12555343 -0.31347412 0.026462877 0.3588948 0.25393346 -0.2114346
0.071545765 0.4961127 -0.24501923 -0.13955389 0.10471619 -0.1350013 -0.1160074 0.29863602

blocks.1.attn.k_FacTs.weight f4 [4, 4]
00000000: 2437 23be dae5 0e3d 93e2 f6be b8e8 0c3f
00000010: 3ccd d3be 2efe a3be 1d62 9dbe 3558 04bf
00000020: 13ff b83d 5248 ef3e 917e 15bf c060 bb3e
00000030: 88b3 6f3e 2c45 c03e 0354 453e df57 893e
-0.15939003 0.034887172 -0.48219737 0.550426 -0.4136752 -0.3202986 -0.30738917 -0.51697093
0.090330265 0.46734864 -0.5839625 0.36597252 0.2340833 0.37552774 0.19270329 0.26824853

blocks.1.attn.v_FacTs.weight f4 [4, 4]
00000000: 0bff dabe 6f31 cabe 3d99 7b3e 92fd 113e
00000010: 00ab c93d 6cea c0bd 1685 e13d 279e 89be
00000020: ef61 a9be 9235 bebd fa0c 9c3e 084e 9a3d
00000030: ec97 e6be 16d1 163e a3fe ef3e 8f8e 863e
-0.42772707 -0.3949084 0.24570175 0.14256886 0.09847069 -0.094197124 0.11011712 -0.26878473
-0.3308253 -0.092875615 0.3047865 0.075344145 -0.45037782 0.14728197 0.4687396 0.2628064

blocks.1.attn.proj_FacTs.weight f4 [4, 4]
00000000: 183e b6be 1e6d f33e b22c 4c3d 0ebf 2dbe
00000010: 7531 fe3e 3e8f fc3e e978 973e d3e9 b1bb
00000020: c45a 733e 6498 9fbe a61c 6cbd 8270 f73e
00000030: 36f7 a03c 9e0a 81bd 7212 b33d 29cc e0be
-0.3559425 0.47544187 0.049847312 -0.16967413 0.49647108 0.49328035 0.29584435 -0.0054294853
0.23765093 -0.31170952 -0.05764451 0.48328024 0.01964913 -0.06300853 0.087437525 -0.43905762

blocks.1.mlp.fc1_FacTs.weight f4 [16, 4]
00000000: 790d a23e 1883 e83e a795 a9be 7020 fdbd
00000010: 8f78 da3c 7d7e ed3c 22bb 103e bc1a e83e
00000020: 73fc 893d 9942 76be 2488 94bd a1dc c9bc
00000030: 5708 18bd c650 5cbc d5bd 8dbe fdab d73e
00000040: df2e db3e 3e3d d6be cc83 48bd 7647 0b3f
00000050: 9cdb 523d 2be4 17be 5a2b 20be d158 63be
00000060: 0d45 483e 94c0 093f b617 923e 6f16 643e
00000070: 9143 7d3e 449d bf3e 1494 253d 65bd e7be
00000080: 3e1a 3fbe 74ed 39be fd1b 07bf 1b84 963e
00000090: 6c14 11bf c290 8b3e 4525 7fbd 6de5 fbbe
000000a0: d6f5 40be b885 953d 5da1 f43e 8a56 e83d
000000b0: 7f57 5b3e c10b efbd dd87 aa3d e324 96be
000000c0: 14ab d2be 7adb a43e 9f9f 083e c20a 963e
000000d0: b9ad e13e 54dc 25bd 2571 803d 5cf8 883e
000000e0: 3148 90bd e490 4a3e 3dc3 d13e 6d8e 72be
000000f0: 0406 ec3e ab6f 7a3d 87cb f1be 7dfa e3be
0.31650904 0.45412517 -0.33121988 -0.123597026 0.026668815 0.028990978 0.14133886 0.45332897
0.06737604 -0.24048842 -0.07252529 -0.024641337 -0.03711733 -0.013446992 -0.27683893 0.42123404
0.42809197 -0.418436 -0.048953816 0.54405916 0.051478967 -0.14833133 -0.15641537 -0.2220185
0.19557591 0.53809476 0.28533715 0.22274183 0.24732806 0.37424672 0.04042442 -0.45261684
-0.18662354 -0.18156987 -0.5277708 0.29397663 -0.56671786 0.2725888 -0.062291402 -0.49198475
-0.18843779 0.073008955 0.4777936 0.11344631 0.21420096 -0.11672164 0.08326695 -0.29325017
-0.41146147 0.32198697 0.1334214 0.29305083 0.44077852 -0.040493324 0.062715806 0.26751983
-0.070450194 0.19781834 0.40969267 -0.23687144 0.4609834 0.06114165 -0.47225592 -0.44527045

blocks.1.mlp.fc2_FacTs.weight f4 [4, 16]
00000000: d040 08be cb91 fcbd 9e6d 3d3e 4788 92bd
00000010: a4ab 543e 8f74 243e 7f80 e63d d385 9fbd
00000020: 2f11 73be a6c2 833e 7eff a8bd 9468 c3bd
00000030: 5190 adbd 05db 253c a9c3 95be 0e7b 4f3e
00000040: 8e59 4e3c f753 aabd 4c32 033c c3f4 043d
00000050: 667e 613e 6b2f e2bd 6256 88bc 2f57 763e
00000060: b9ad 2cbe 50ce 0d3d d590 0e3e aee5 783e
00000070: 838f 833d ce13 a33e d82e b6bc 1fb3 04be
00000080: 7aa1 ff3d aee2 8cbd a894 8bbd e3fc da3d
00000090: 438d 42be ae41 a63b 8dae 14be cb12 a53d
000000a0: d53d 7ebc 7e98 35bd a632 bb3c e064 38be
000000b0: b414 853e c62c 1ebe e07c 843e 59dd 3e3d
000000c0: 6193 48ba d11c b6bd 159a 55be 36b8 a73d
000000d0: 3fb8 12be 1d93 863e beef 27be 5fdb e6bd
000000e0: 146d 2e3e 331e 2cbe 2acf 97bd 1689 613d
000000f0: bbaa 2abd 653e 0dbe da83 9bbd 48d8 52be
-0.13305974 -0.12332495 0.18498847 -0.07154899 0.207686 0.16060089 0.112549774 -0.07789197
-0.23737024 0.25734442 -0.08251856 -0.09541431 -0.08474792 0.010123019 -0.2925084 0.20261785
0.012594594 -0.08316796 0.008007597 0.032459985 0.22020873 -0.110442005 -0.016642753 0.24056695
-0.16863145 0.034620583 0.13922437 0.24306366 0.06423857 0.31851047 -0.022239134 -0.12958954
0.12481971 -0.06879173 -0.06815463 0.106927656 -0.189992 0.0050737476 -0.14519711 0.08060225
-0.015517672 -0.04433488 0.0228513 -0.18007231 0.25992358 -0.15446767 0.25876522 0.046597812
-0.00076513557 -0.08892215 -0.20859559 0.08189432 -0.14328097 0.26284114 -0.16400048 -0.112723105
0.17033798 -0.16808395 -0.0741256 0.055062376 -0.041666728 -0.13793333 -0.07593508 -0.20590317

blocks.2.attn.q_FacTs.weight f4 [4, 4]
00000000: b261 38be 2009 943d 3786 67bd ae99 f1be
00000010: 952b c53e 7d90 cdbe 919e ad3e 1c07 fd3b
00000020: 3e76 b93e 6e9e 54be 5da8 03be d4be 02bf
00000030: 6f38 f73d f52d a73e 87d7 0ebe 430f 5f3e
-0.18006018 0.07228303 -0.05652448 -0.4718756 0.38509813 -0.40149298 0.3391004 0.007721795
0.36223024 -0.20763561 -0.12857194 -0.5107243 0.12071311 0.3265225 -0.13949405 0.21783166

blocks.2.attn.k_FacTs.weight f4 [4, 4]
00000000: 0ebd 0b3e 88d9 cbbe f3b8 033f 87b4 d9bd
00000010: ce32 ac3e cdf0 c3bd 9726 a93e 068d a33e
00000020: 3b7d 18bf d6a2 c8be 1978 c13e 3580 01bf
00000030: bb77 023f 2bf4 6e3e 0ee3 acbe c33a 64be
0.13646337 -0.398144 0.51454085 -0.10630136 0.3363251 -0.095674135 0.33037254 0.3194353
-0.59566087 -0.39186734 0.3778694 -0.50586253 0.50963944 0.2333533 -0.3376698 -0.22288041

blocks.2.attn.v_FacTs.weight f4 [4, 4]
00000000: ae28 60be 9f91 dabc c232 923e 71e1 2f3c
00000010: bc5b adbd 387a 16be dc06 d73e e522 04bd
00000020: afc2 dc3e 17b3 9a3d aad9 6d3e 7eba 9c3e
00000030: 9ac5 15be 5704 c43e 81c8 da3c 0590 773d
-0.21890518 -0.026680766 0.2855435 0.010734902 -0.084647626 -0.1469506 0.4199742 -0.03225984
0.43117282 0.0755369 0.23227564 0.30611032 -0.1462616 0.3828456 0.026706936 0.060440082

blocks.2.attn.proj_FacTs.weight f4 [4, 4]
00000000: ce5c 833e e016 a1be b8dd 083f 5b58 83be
00000010: 1154 edba 0bb6 85be 26c2 eebe 456b 053f
00000020: 6a4a 113d dbdb 903e 94ff 9d3e 61c2 a0be
00000030: 7d97 6cbe a02b 093f 651a 17bd a623 033f
0.25656742 -0.31462765 0.53463316 -0.25653347 -0.0018106719 -0.2611545 -0.46632499 0.52116805
0.035471357 0.28292736 0.30859053 -0.313983 -0.23104663 0.5358219 -0.036890406 0.5122627

blocks.2.mlp.fc1_FacTs.weight f4 [16, 4]
00000000: af90 a6be 2bb6 f6bd 7068 f23d be63 89bd
00000010: 5435 b73e 62bf 863e 40ba 973e b1e7 f03e
00000020: 1241 c03e 672f c0be 2461 033f b9de a8be
00000030: 1965 5f3e c640 483e e6d7 01bf 93ea 2bbe
00000040: 8a8b 373e b973 9abe cb3a 093f c247 1cbe
00000050: f930 65be 349e a93e b8ce 823e cef8 ddbe
00000060: ba82 bcbe 8195 4d3d 6d53 fe3e 2c1a 843e
00000070: 98c3 38be ad68 e3be 8035 883d c3c2 f03e
00000080: ff7f 803e f110 d83e ff91 9b3d 4f67 bfbe
00000090: 4bc9 a83e 9b51 a13d a2f9 85bb 7dd3 6c3d
000000a0: 2867 49bd 6ba0 b03e b7c7 273e 5f58 063f
000000b0: aeec 35be edfd 043f 14fe 2ebe 869e acbd
000000c0: 3b3a fcbe fddd 983e 05a6 f1be a04d 9dbe
000000d0: 3ca9 9d3e 6684 ae3e 02e2 dcbe 3f6c 7abe
000000e0: 8533 f13e 36f1 8abe 7bb4 9abe 5ba8 0d3e
000000f0: 8c07 e7bd 39dd 7b3e ec4e 893e f468 9e3e
-0.3253226 -0.120464645 0.11836326 -0.067084774 0.35782874 0.26317888 0.29634285 0.47051767
0.37549645 -0.37536165 0.513201 -0.32982424 0.2181591 0.19555959 -0.5072006 -0.16788702
0.17924324 -0.30166414 0.53605336 -0.15261748 -0.22381963 0.33128512 0.2554834 -0.43353885
-0.36818486 0.050191406 0.49673024 0.25801218 -0.18043363 -0.444158 0.06650829 0.4702359
0.25097653 0.42200425 0.07596206 -0.37383506 0.32966074 0.07876893 -0.0040885964 0.05781888
-0.049170643 0.3449739 0.16384779 0.52478594 -0.17766067 0.5194996 -0.1708911 -0.084286734
-0.49263176 0.29856864 -0.47196975 -0.30723286 0.30793178 0.34085387 -0.4314118 -0.24455355
0.4710962 -0.27137154 -0.3021582 0.13833754 -0.11280736 0.24596108 0.26818025 0.30939448

blocks.2.mlp.fc2_FacTs.weight f4 [4, 16]
00000000: 4132 1ebb c059 33be cfea e13d ebce 2c3e
00000010: d644 0e3e 31a6 373d 8129 1a3e 9b45 83be
00000020: 4c23 993b 96b7 1ebe d97d 2b3e 2ae3 793e
00000030: 9497 163c 9f1e 93bd 97df 5c3e f8d1 c0bc
00000040: 860b 453d e92f 11be ae63 e6bd 43fc 703e
00000050: 808e 8d3e ea94 75be 537e 4bbe 17dc 13bd
00000060: e400 7ebd 1dc1 fabd 1f66 853e c489 88be
00000070: 6d23 86be 5fcb 26be 3ea0 9b3e faf8 b0bd
00000080: 43fb 933d 8f97 5f3c 63a3 873d 806d 13bb
00000090: 4eac a23d fd1d 363d bb52 7f3e 7b5b c3bb
000000a0: cb0a 5bbe 1752 ce3d 167e f13d 6163 043d
000000b0: 6184 8f3e 433b 233e 535b 22be 88c7 fe3d
000000c0: 7234 54bd 9c29 123e f0c4 c33e 8d21 843c
000000d0: fd45 f73d e2e1 33be 3087 6d3d cd3a 42bd
000000e0: a96e 54be c084 7abe 13f6 7f3d 2c8a efbd
000000f0: 70af 433d d3a3 82be b0b2 023d f3a6 123e
-0.002413884 -0.17514706 0.11031114 0.16875808 0.13893446 0.044836227 0.15054895 -0.25639042
0.004673397 -0.1549972 0.16747226 0.24403062 0.0091914125 -0.07183575 0.21569668 -0.02353762
0.048106693 -0.14178433 -0.11249481 0.2353373 0.2764778 -0.23982587 -0.19872408 -0.036098566
-0.062012568 -0.12243865 0.26054475 -0.26667607 -0.26198903 -0.16288517 0.30395693 -0.086412385
0.07225659 0.013646974 0.066229604 -0.0022495687 0.07943021 0.044462193 0.24933903 -0.005961833
-0.21390836 0.10074251 0.11791627 0.032321338 0.28030685 0.15940575 -0.1585515 0.12440401
-0.05180783 0.14273685 0.3823619 0.01612928 0.12073896 -0.17566636 0.057990253 -0.047419358
-0.20745338 -0.24464703 0.062490534 -0.11696276 0.047774732 -0.25515613 0.03190869 0.14321499

blocks.3.attn.q_FacTs.weight f4 [4, 4]
00000000: 63c9 0cbf e05a a3be afc7 c83e d919 afbe
00000010: ebd1 cbbe 2281 00bf 4b08 63be 04d9 293e
00000020: 4d3b 323e eb2d 013e bd7e 953e 4e3f 1cbe
00000030: e943 023f 69de b9be e377 973e 924c 933e
-0.5499479 -0.3190527 0.39214846 -0.34199408 -0.39808592 -0.5019704 -0.22171132 0.16586691
0.17405434 0.12615173 0.29198256 -0.15258524 0.5088487 -0.36302498 0.29583654 0.28769356

blocks.3.attn.k_FacTs.weight f4 [4, 4]
00000000: 5287 6b3e 6179 02bf fd40 dc3d 27c5 33be
00000010: e29e 1b3e 1718 203f 34cd e3be 3ee4 2a3b
00000020: 38d9 2abd 77d1 9b3e 87c0 92bd 96e3 bc3e
00000030: ee57 f4bd 288d b0be 05c5 973e 17e0 b4bd
0.2300084 -0.5096646 0.10754583 -0.17555676 0.15197328 0.6253676 -0.44492495 0.0026075984
-0.041711062 0.30433246 -0.07165628 0.36892384 -0.11930834 -0.34482694 0.296425 -0.08831804

blocks.3.attn.v_FacTs.weight f4 [4, 4]
00000000: d2cd 7fbe 2299 6c3e 5492 663e d9eb ba3e
00000010: 9454 97be 5705 bb3d 9265 1fbe fd08 6ebe
00000020: 4625 323e 2a0f b9be 9f46 a5be 8769 60bd
00000030: 5a60 e8be ac9e b63d d87c d73c e845 0cbd
-0.24980858 0.2310529 0.22516757 0.36508062 -0.29556715 0.09131878 -0.1556609 -0.23245616
0.17397031 -0.36144382 -0.32280442 -0.05478814 -0.4538601 0.08916983 0.026304647 -0.034246355

blocks.3.attn.proj_FacTs.weight f4 [4, 4]
00000000: 8948 cfbe 202e c53e 0178 82be a164 883e
00000010: 641d f2be fe46 923e 2060 6dbe 00fb 02bf
00000020: 3c1c 80be 10ca b23e 98bf 0abe 5db7 33be
00000030: 615b 87be 2ad5 64bd dd51 003f 1c59 3dbe
-0.40485027 0.38511753 -0.2548218 0.26639274 -0.47288048 0.28569788 -0.231812 -0.51164246
-0.2502154 0.34919786 -0.1354965 -0.17550416 -0.26436904 -0.05586735 0.50124913 -0.18491024

blocks.3.mlp.fc1_FacTs.weight f4 [16, 4]
00000000: 5778 8a3e 128a a0be bb16 923e e406 033e
00000010: 3565 653e 8676 543d 32d8 b9be eaf5 cfbe
00000020: 0934 83be 3e88 113e dee9 b3be 3c29 093f
00000030: a972 9d3e 72e3 5fbe 3f88 d4bd b1d1 ee3e
00000040: 5f36 e33e 1e65 323e 0815 cabe a7d8 193e
00000050: f014 3dbe c747 6f3d f07d aa3c 1598 f2bd
00000060: a9f7 e9be 33f0 08be 1d90 e33e 7ce3 d53e
00000070: 773b b0bd 1cb8 74be 6154 afbc be87 c6be
00000080: 9591 bb3e 6d7e 453e c816 993e 0243 273d
00000090: 248e bcbe 6c26 f5bd bf6f 1bbe 1a24 cebe
000000a0: 35f5 56be d8ee da3d 7094 403e 9838 c3be
000000b0: 7f7d aabd 846f 093e 542b cc3e ef1a 1abe
000000c0: fbac db3e 329a 783e 91cc 98be 18b1 aebe
000000d0: cd83 8abe 07bd 69be 50d1 fabe d30a debd
000000e0: 5308 70be 6420 61be 72cc 1ebe e888 bcbe
000000f0: 5f18 a03e 2fee 323e 2e2d fc3e 40f6 6fbe
0.27044937 -0.3135534 0.28532967 0.12795597 0.22401889 0.051870845 -0.36297756 -0.40617305
-0.25625637 0.14212129 -0.35139364 0.53578544 0.3075154 -0.21864107 -0.103775494 0.46644357
0.4437742 0.17421386 -0.3946917 0.15024053 -0.18465018 0.05841806 0.020812005 -0.118454136
-0.45696762 -0.13372879 0.44445887 0.4177512 -0.08605092 -0.23898357 -0.02140254 -0.38775438
0.36634508 0.19286509 0.29900193 0.040835388 -0.36827195 -0.11970219 -0.15179347 -0.40261918
-0.20991977 0.10690087 0.18806624 -0.38129115 -0.08324718 0.13421446 0.39876807 -0.15049337
0.4290541 0.24277571 -0.29843572 -0.34119487 -0.2705368 -0.22826014 -0.48987818 -0.10841908
-0.23440675 -0.21985012 -0.15507677 -0.368232 0.31268594 0.17473672 0.4925322 -0.2343378

blocks.3.mlp.fc2_FacTs.weight f4 [4, 16]
00000000: 2141 543e 4e0c f63d 8bff dcbd 04a2 233e
00000010: 9592 703c 8dca 303e 77c4 633d 9c69 873e
00000020: 6076 3dbe 41d8 18bd 4f24 923c a545 29be
00000030: b33c 8fbd 26fe 3fbe aeac 58bd 8fbb 70be
00000040: 5965 d73d 9d71 ffbd 4f68 2fbe d52b 31be
00000050: 50c7 cd3d d12b e43d fe7c 6cbe 291a 763e
00000060: c245 64be ad33 2c3d 9c9e a43d e582 0abe
00000070: cdc0 843d 09b8 28be da30 d2bd 3a9d 223e
00000080: 6642 d43b 517c c2bd 586f 053e 020a 403e
00000090: 5ce3 70be 3d37 1dbe 1657 0cbe 065c 7c3e
000000a0: 8b44 9dbd dcbe 7a3e 1829 d8bc 40e0 fd3d
000000b0: ebf4 973d d2cb 273e 8a92 0fbe 9be8 0ebe
000000c0: b061 f33d 1a36 69be 1b43 4b3e bce0 643e
000000d0: 64c2 33be e952 333d 9914 4c3e 1672 c93c
000000e0: b36f 71be 800d 2d3a 3899 2ebd c98e d53d
000000f0: 72da 833e 114f 593d 737a 17bc df82 92be
0.2072797 0.12014066 -0.107909285 0.15979773 0.014683385 0.17264767 0.055607285 0.2644776
-0.18502188 -0.03731561 0.017839579 -0.16530474 -0.06993999 -0.18749294 -0.052899055 -0.23509048
0.105173774 -0.12472842 -0.17129634 -0.17301877 0.100477815 0.1114117 -0.23094556 0.24033417
-0.22292235 0.04204147 0.08038065 -0.13526495 0.06482086 -0.16476454 -0.10263224 0.1588029
0.006477642 -0.09496368 0.13030756 0.18753818 -0.2352423 -0.15353103 -0.13705096 0.24644479
-0.07679089 0.2448687 -0.026386783 0.12396288 0.07419761 0.16386345 -0.14020744 -0.1395592
0.11883867 -0.22774544 0.19849817 0.22351354 -0.17554623 0.04378024 0.19929732 0.024590533
-0.23577766 0.0006601438 -0.04262659 0.10427625 0.25752598 0.05305392 -0.009245503 -0.28615472

blocks.4.attn.q_FacTs.weight f4 [4, 4]
00000000: af6c 96be 5452 94bd 519f 80bd 5283 f93e
00000010: 4f44 be3d 9902 4c3e b4bb 863e 96cd 983d
00000020: e887 653e 6a96 8fbe 4ad7 11ba 054e 9ebe
00000030: 87e5 733e b9c1 1a3e a906 f63e 7672 f73e
-0.29379794 -0.07242265 -0.06280387 0.48733002 0.092903726 0.19922866 0.2631508 0.074610874
0.22415125 -0.28044444 -0.00055633916 -0.309189 0.23818026 0.15112962 0.48051956 0.48329514

blocks.4.attn.k_FacTs.weight f4 [4, 4]
00000000: 8ecd fabe 3c6c 81be 7454 ab3e 641e 293e
00000010: 7ce3 d13e a82c 68be 564a e1be 6209 e73e
00000020: 75de 4dbd 6096 ed3e d861 ad3e 48f0 78be
00000030: 91de 9abb eade ac3e 3ba9 cabe 5473 713d
-0.4898495 -0.2527789 0.3346287 0.165155 0.4099387 -0.22673285 -0.44002026 0.45124346
-0.05026098 0.4640379 0.3386371 -0.2431041 -0.004726239 0.3376382 -0.39582238 0.058947876

blocks.4.attn.v_FacTs.weight f4 [4, 4]
00000000: 5f90 f73e 26fb ad3e 7a24 fa3e 764e d9be
00000010: cd00 da3e fce4 17be fd3b a9bb 3a7d ec3e
00000020: 1e53 803e b344 d73e 3a44 c6be 22d3 d13e
00000030: 69ee f33d 3d9b 9a3e fb7f c73e 7f22 95bc
0.48352334 0.33980674 0.48855954 -0.42442673 0.42578736 -0.14833444 -0.005164622 0.4618929
0.25063413 0.420446 -0.38723928 0.40981394 0.119107075 0.30196562 0.3896483 -0.018204926

blocks.4.attn.proj_FacTs.weight f4 [4, 4]
00000000: 6a25 b1be 6200 7fbe 56ad fbbe 5cde d63e
00000010: 7652 94be 02c5 fd3e bd14 97be 2e8d 083f
00000020: ee49 003e afa6 3bbe f914 d93d d29e dd3e
00000030: f15d a7be 58a6 05bf 4d67 fcbe b757 f33e
-0.34598857 -0.2490249 -0.49155682 0.41966522 -0.28969163 0.49564368 -0.2950801 0.53340423
0.12528202 -0.18325303 0.10599703 0.43285233 -0.3268886 -0.52206945 -0.49297562 0.4752786

blocks.4.mlp.fc1_FacTs.weight f4 [16, 4]
00000000: aa76 da3e 9542 b03c cb21 debe 95a5 c43e
00000010: b3ef aabe b37e 013e 3520 75bb 7f61 c4be
00000020: d108 093f ddd6 e83e a3a1 ebbe 8e83 a5bd
00000030: 858f fc3d 5347 2f3e c88d 983d 8bd9 2abe
00000040: 1a3e c8be a4bd 9a3d 2580 aa3e 4489 873e
00000050: ad8b 6bbd 2b8c e73e f213 bd3e 4d8f b8bc
00000060: ea7e a83e 139d 45bd 9ddf b23b 99be 043f
00000070: 67c0 e53d b1d0 f23e 9662 33be eaeb 9ebe
00000080: 777a 923e 6252 0f3b 9181 cbbc 2a74 2fbe
00000090: 7ca1 4fbe 1214 9fbe a79d 733e 4477 babd
000000a0: 3270 ea3e 896a c13e 710f 993e 95f0 9c3e
000000b0: 2d8e fb3e 80a7 56be 18c7 f73c ceae de3e
000000c0: fb77 dabd b1e4 883e a7c8 35be 293d 513e
000000d0: 2096 3a3e b0b0 073e 0f71 df3c 88fb c13e
000000e0: fd31 71bd 29df 05be 3baf 853e 7190 e83e
000000f0: 9fb3 f5be 93a2 eebe bcfe e93e c4ff 013f
0.42668658 0.021516124 -0.43385157 0.3840758 -0.33386 0.12645988 -0.003740323 -0.38355634
0.5352908 0.45476428 -0.46021757 -0.08081733 0.12332062 0.17117052 0.074489176 -0.16684549
-0.3910988 0.07555702 0.33300892 0.26471913 -0.057506252 0.45224127 0.3692928 -0.022529269
0.32909328 -0.0482455 0.0054587857 0.5185333 0.112183385 0.47424844 -0.17518076 -0.31039363
0.28609058 0.0021869172 -0.024842056 -0.17134157 -0.20276445 -0.3107 0.23790608 -0.09104779
0.45788723 0.37776592 0.29894593 0.306523 0.4913191 -0.20962334 0.030246302 0.4349274
-0.10667416 0.26736978 -0.17752324 0.20433487 0.1822133 0.13250995 0.02727559 0.37887216
-0.058885563 -0.1307341 0.26110253 0.454227 -0.47988603 -0.4660841 0.4570216 0.5078089

blocks.4.mlp.fc2_FacTs.weight f4 [4, 16]
00000000: ec24 863e 691d 153e fb6d 2bbe b1e9 9fbd
00000010: d6d0 ae3c e987 043e 2dec c13c f773 b13d
00000020: 35da bf3c 7b74 6fbe 30ae 613e d188 e13c
00000030: 2c7f 2c3d d2b3 5dbc 273b 993d 1794 f53d
00000040: 66fa 8a3e dab4 693e 1a65 003c 59ec 523e
00000050: 4e34 d43c 744c 453e eb3c 5a3e a3eb 57be
00000060: 83dd 16be 41bf 5d3c 6ea7 703e f95b 5c3e
00000070: a9be 183d 3056 0b3e 8b02 64bd 84dc e3bd
00000080: 7457 62be c7c1 b0bc c024 563d bc9d 8c3e
00000090: 6299 5f3e d01a 0cbe 5c37 923d 5fb7 4dbe
000000a0: 804f fb3c 45c7 6dbe b0f6 86be e86c 51be
000000b0: 9f96 683e fc92 4b3d 7ca1 87bd 0342 c3be
000000c0: cc27 09bd 8188 123e af80 af3e a358 453c
000000d0: 0212 9ebb b302 563e 67ce 88bd 00ee ad3c
000000e0: 8da7 73be 574a 713e caff fe3d 96a0 863d
000000f0: 272d 85bd 7355 62bd 6fc9 a43d 7290 51be
0.26200044 0.14562 -0.16741173 -0.07808245 0.021339815 0.1294247 0.023672188 0.08664697
0.023419479 -0.23384278 0.22039104 0.02753106 0.042113468 -0.013531642 0.074819855 0.119911365
0.27144164 0.22822896 0.0078366045 0.20597972 0.025903847 0.19267446 0.21312301 -0.21085982
-0.14732938 0.013534368 0.2350137 0.2151946 0.037291203 0.13607097 -0.055666488 -0.111260444
-0.22103673 -0.021576775 0.05228114 0.27464092 0.21835855 -0.13682103 0.07139465 -0.20089482
0.030677557 -0.23220547 -0.26360083 -0.204517 0.22713707 0.049700722 -0.066225976 -0.381363
-0.03348522 0.14309885 0.34277865 0.012045058 -0.004823924 0.20899467 -0.06679993 0.021231651
-0.23794384 0.23563515 0.12451132 0.06573598 -0.06502753 -0.055257272 0.08046233 -0.20465258

blocks.5.attn.q_FacTs.weight f4 [4, 4]
00000000: 61b9 04be 64dd 45be fe15 4e3e 1ab8 b4bd
00000010: 0b42 c73e 8025 de3d 0b24 833e 9a49 283e
00000020: 3d29 b63e dc21 cb3d fc02 1bbd 125f 053e
00000030: 335a cf3e ef55 18bd 640b c33d 24a5 903e
-0.12961341 -0.19322735 0.20125577 -0.08824177 0.38917574 0.10846996 0.25613436 0.16434327
0.35578337 0.099185675 -0.037844643 0.13024548 0.40498504 -0.037191328 0.09523657 0.28250992

blocks.5.attn.k_FacTs.weight f4 [4, 4]
00000000: 6af2 1abe bd04 573e e131 dd3e 944b eebe
00000010: fb80 323d a802 d0bd 6c06 ccbe 11d8 af3e
00000020: 9a8c abbe 8b8d a63d dd48 34be e3c9 86be
00000030: 649b 383e 98a3 ac3e 004e 1fbe b839 e4be
-0.15131536 0.20997901 0.43202117 -0.46542037 0.043580037 -0.10156757 -0.3984865 0.34344533
-0.33505708 0.08132466 -0.1760592 -0.26325902 0.18028027 0.33718562 -0.15557098 -0.44575286

blocks.5.attn.v_FacTs.weight f4 [4, 4]
00000000: 4b48 093f 7dd8 cfbe 1a13 eabd c892 b03e
00000010: 9c37 bbbd f209 923e dada f6be d7ad c73d
00000020: 2dc6 23bc 8413 81bd a241 b13e f74c 513e
00000030: 8f25 9b3e a91e eabe 3782 bbbe 1223 963e
0.53625935 -0.40594855 -0.114294246 0.34486985 -0.09141466 0.28523213 -0.48213845 0.09749954
-0.009995979 -0.063025504 0.34620386 0.20439516 0.30302092 -0.45726517 -0.36622784 0.29323632

blocks.5.attn.proj_FacTs.weight f4 [4, 4]
00000000: 2825 203d afc3 aebd be29 483e 9875 123f
00000010: 8d51 ec3e 9aa2 0cbf 2885 7e3e 0f1c e43e
00000020: e5aa 233e a009 5bbe f1f0 1a3d af58 acbe
00000030: 8f55 873e 2854 68be ab76 15be c62c c13e
0.039097935 -0.085334174 0.19547173 0.57210684 0.46155968 -0.5493561 0.24855483 0.44552657
0.1598316 -0.2139039 0.037827436 -0.3366141 0.26432464 -0.22688353 -0.1459605 0.37729472

blocks.5.mlp.fc1_FacTs.weight f4 [16, 4]
00000000: 25fa ea3e e6d4 c2be e349 5ebe 3eea 07bf
00000010: a9e9 b4be 220e 893e bad2 ba3e 5ed4 ef3e
00000020: 2102 863e f87e acbd fe79 ee3e 47e3 4d3c
00000030: 5b7a 3a3e b513 873e f911 e4be 392e 613e
00000040: db6f b53e 7a29 dabe 4893 afbc eaec 053f
00000050: b56c f5bd 67a5 e2be 8096 cd3e 2c2e a83e
00000060: ef04 b5be dd00 ba3e e24a 64be b301 e03e
00000070: 915a ab3e 236b b63e a4cf 58be 13ff dfbc
00000080: c037 d53d 0555 4e3e 8e00 143e f91a 6fbe
00000090: 9b32 d83e 7130 663d f2a8 e2be d297 9fbe
000000a0: 191e 223e 3933 633d f3eb 593d 182f eb3d
000000b0: 9e34 7a3e 1c73 04be aa48 fd3e 5c06 813e
000000c0: 1c76 c53e 851c b83e 19eb 703b 50a5 f9be
000000d0: ddd3 dd3e ca53 87bd 515d d23e cec0 d43d
000000e0: d750 1fbd 92d2 d63d b483 6abe 1a2f 92bd
000000f0: 5ee1 e43e 87a0 62be 93e1 fcbd 9dcb d8bc
0.4589397 -0.38053054 -0.21707873 -0.530918 -0.3533452 0.26768595 0.36488897 0.4684171
0.261735 -0.08422655 0.46577448 0.012566394 0.18210737 0.26382223 -0.44544962 0.21990289
0.354369 -0.4260977 -0.021432534 0.5231463 -0.11983625 -0.44266817 0.40153885 0.32847726
-0.35355327 0.36328784 -0.2229419 0.43751296 0.33467534 0.35628614 -0.21172959 -0.027343309
0.10411024 0.2014962 0.14453337 -0.23350133 0.4222611 0.05619854 -0.4426952 -0.31170517
0.15831794 0.05546877 0.053203534 0.11483592 0.24434134 -0.12934536 0.494695 0.25200164
0.38566673 0.3595926 0.0036761223 -0.48758936 0.433257 -0.06607778 0.4108682 0.10388337
-0.038895454 0.10489382 -0.22901803 -0.0713789 0.44703192 -0.22131549 -0.12347712 -0.026464278

blocks.5.mlp.fc2_FacTs.weight f4 [4, 16]
00000000: ccfc be3d 3ce2 9a3e 92f0 65bc 0cc0 393e
00000010: 23e9 5dbc 9b52 953e 1df5 843d 70b8 4b3e
00000020: cab1 3bbe 0e76 3bbd a1f7 2dbe b154 f13d
00000030: f676 46be 32dc 41be 3a98 813d fe2f 6abe
00000040: 92cc 67bd b52d 983d 9790 df3d 542f 3fbe
00000050: 9ffb 873e 8d1b b13c a45e debd 9166 e2bc
00000060: 8ecb 383e d6d0 833e 0987 093e cf42 153e
00000070: f127 743d cd82 8dbd 5e67 38bd fd3a 84bd
00000080: cf88 b7bd 6633 9b3e 92e9 1dbe 71ee 1d3d
00000090: b302 913d 5191 753e 505b 24bd 256c da3d
000000a0: 6225 97be e931 07be 53af debd 60af e2bd
000000b0: 47a5 efbb 0b34 833d 4a53 a1be 0301 bebc
000000c0: 16af 83be 3a62 fdbd cb93 39bd fa0e 6a3e
000000d0: 78ed 6b3e c171 0bbe 89d4 14bd 60e6 2e3c
000000e0: 3fe2 61be 8a4f 1fbd b2ea 24bd 433c cd3c
000000f0: 46bf 303e 6f64 d5bd dd7d 90be c16a 63be
0.09325561 0.30250728 -0.014034407 0.18139666 -0.013544354 0.29164585 0.06492064 0.19894576
-0.1832954 -0.045766883 -0.16988994 0.11783732 -0.19381317 -0.18931654 0.06327863 -0.2286987
-0.056591578 0.07430593 0.1091625 -0.18670398 0.2655916 0.021619583 -0.10857895 -0.027636798
0.180464 0.25745267 0.13430418 0.14576267 0.059608404 -0.06909714 -0.045020454 -0.064565636
-0.08961641 0.3031265 -0.15421131 0.038557474 0.07080593 0.23981215 -0.040126145 0.10665158
-0.29520708 -0.13202633 -0.10873284 -0.110686064 -0.0073134038 0.06406411 -0.31508857 -0.023193842
-0.25719517 -0.12372251 -0.045306962 0.22857276 0.23039806 -0.13617612 -0.0363355 0.010675043
-0.22058962 -0.038894214 -0.040262885 0.02505315 0.17260465 -0.10419547 -0.28221026 -0.22208692

blocks.6.attn.q_FacTs.weight f4 [4, 4]
00000000: b070 823e 93f9 1b3e 773d bebd 7318 0ebe
00000010: c0e7 d83e f236 a7bc fa34 483e 5769 493e
00000020: c7c9 d23e b02d 4a3d 9fa0 973e 2d4b 7abe
00000030: cdb1 29bd f3d7 f1be ad74 cfbe 3b5a 323e
0.254766 0.15231924 -0.09289067 -0.13876514 0.4236431 -0.020411942 0.19551459 0.1966909
0.4116957 0.049359977 0.29614732 -0.2444274 -0.04142933 -0.4723507 -0.40518704 0.17417233

blocks.6.attn.k_FacTs.weight f4 [4, 4]
00000000: 0c49 84be 7f78 673e 91e0 853e aae1 c0bd
00000010: cc3d af3e 5ec6 dfbe ba1f debe bb87 fdbe
00000020: b02d e6be 5689 fdbd 8c5a 8e3e 3cb3 87bd
00000030: db2a 82be a67e 003f 5fc6 bf3d 4ff4 d5be
-0.2583698 0.2260456 0.26147893 -0.09418042 0.34226835 -0.4370603 -0.4338358 -0.49517617
-0.44956732 -0.123797104 0.27803457 -0.06625983 -0.2542332 0.5019325 0.09364008 -0.41787955

blocks.6.attn.v_FacTs.weight f4 [4, 4]
00000000: 0bb2 5e3e 8cc5 2ebe fa9b 89be 9ce8 2bbd
00000010: 8d8b e0be edb0 233e 64da e23e 7776 f9be
00000020: b3c4 993e b8f7 79be 9257 2d3e b7dc bebe
00000030: 9609 12bc 6361 8cbe da51 03bf c16d 783e
0.21747606 -0.17067546 -0.26876813 -0.04196988 -0.4385647 0.1598546 0.44307244 -0.48723194
0.30032882 -0.24410903 0.16927937 -0.37277767 -0.008913418 -0.2741805 -0.5129677 0.24260618

blocks.6.attn.proj_FacTs.weight f4 [4, 4]
00000000: 3468 3f3e bcaf 7a3e 8b28 653e 166d d9be
00000010: 7c56 cb3d 833f 053e 3feb 5abe e638 c1bd
00000020: af79 6d3e aa89 293e 2325 03bf 3744 573e
00000030: e099 5c3e fe73 c93e 4912 883d ea27 f2be
0.18692094 0.244811 0.22378747 -0.42466038 0.09928605 0.13012509 -0.21378802 -0.09434681
0.2319095 0.16556421 -0.5122854 0.21022116 0.21543074 0.39346308 0.066441126 -0.47296077

blocks.6.mlp.fc1_FacTs.weight f4 [16, 4]
00000000: dd9a a73e 820a fb3e ec3a e6bd 92d1 c83e
00000010: 647a 803d fb46 8abe f04a 133e c72b d23e
00000020: bb04 bc3e 851f d43e e76d f7be 7ffe bdbe
00000030: 7f85 25bd 1308 c53e ba75 bcbe 925b f63e
00000040: a456 7cbe 27a0 8e3e 5c0e f93e 5040 bfbe
00000050: 1c7f 043e 9787 a23e 1c21 873d d6b4 293e
00000060: 66e0 22be ad11 c0bc aabb 26bd 72cb d9be
00000070: b901 29be 8514 07be 0e84 cd3e 9715 d4bd
00000080: 8226 bb3d 7224 013f 4cc3 17be 0ce1 a73e
00000090: 745a dcbe c06c 97be 9072 a7be 5444 bbbe
000000a0: 4c95 6b3d 1d61 e03e e6c7 bebe fc1f 553e
000000b0: 26fa a2be 7536 613d bea7 983e 2fb5 3fbe
000000c0: 9d61 db3e ee9b 05bd 8255 87be 5964 17be
000000d0: 4637 43bd 70c0 87be 78e1 25be 0d0e e63d
000000e0: 385b 6d3e a480 e73e 579f c0be 0cb0 b23e
000000f0: 7ed7 edbc 59a3 263e d88d 97bd 9d4a a7bd
0.3273534 0.49031454 -0.11241707 0.3922239 0.06273344 -0.2700728 0.14384055 0.41049024
0.3672236 0.41430297 -0.48326036 -0.37108228 -0.040410515 0.38482723 -0.36808568 0.48116738
-0.24642426 0.27856562 0.48643768 -0.37353754 0.12939113 0.31744072 0.06598112 0.1657289
-0.15905914 -0.023445928 -0.040706314 -0.4253803 -0.16504563 -0.13191421 0.40139812 -0.103556804
0.09138204 0.50446236 -0.14820594 0.32788885 -0.4303776 -0.29575157 -0.32704592 -0.36575568
0.057515427 0.43824092 -0.37261885 0.20812982 -0.31831473 0.054983575 0.29815477 -0.1872146
0.4284791 -0.03261941 -0.26432425 -0.14784373 -0.047660135 -0.26514006 -0.16199291 0.11233149
0.23179328 0.45215333 -0.37621567 0.34899938 -0.029033419 0.1627325 -0.074001014 -0.08168528

blocks.6.mlp.fc2_FacTs.weight f4 [4, 16]
00000000: 05f3 933e 165e 0b3d b230 f6bd 2ed7 603e
00000010: 21f8 673e 170a afbd 29fd 8a3e 3614 73be
00000020: 52f1 9dbe 5177 32be 4496 823e f997 09be
00000030: 7d28 b5bd aadf 3bbe 0517 82be a15f dabc
00000040: a819 7c3e 80dc 943e 46a8 5dbd fdf0 e63d
00000050: d763 84be d9cf 8dbe 074a 9c3e 46f6 cdbd
00000060: ed4f 46be e974 60be 6b77 0cbe ed94 87bd
00000070: 9af8 1a3e 3781 663e 45eb 04be 9f3f 273e
00000080: b4ef 17bd 30cb 013e 9694 96bd a0e2 083e
00000090: 57a6 713d 9ff1 03bd 7246 5cbc b56b 9d3c
000000a0: 05ce 173e 490c 75be a7d7 8e3e 8bb1 cd3d
000000b0: 56a4 003e eb1f 16be c6d4 1aba 3a8f b0bd
000000c0: 921a 883c 204b 4ebe 02ca 70bd 9418 3a3e
000000d0: 374f 2bbe c4d2 32bd ef80 37bd 0ab6 dfbd
000000e0: a070 57be cfac 68be 0642 f6bd 7380 883e
000000f0: 6126 083d 55e7 19be 878d 1ebe 9852 8f3e
0.28896347 0.034025274 -0.12021007 0.21957085 0.22653247 -0.08546846 0.2714627 -0.23738179
-0.30848175 -0.17428328 0.2550527 -0.13436879 -0.08845613 -0.1834704 -0.25408188 -0.026656928
0.24619162 0.29074478 -0.054115556 0.112764336 -0.25857422 -0.27697638 0.30525228 -0.100567386
-0.19366427 -0.21919598 -0.1371743 -0.06620202 0.15133896 0.22510229 -0.12980373 0.16332863
-0.037093833 0.12675166 -0.07352559 0.133677 0.058996525 -0.03221285 -0.01344453 0.019216398
0.14824684 -0.23930468 0.27898905 0.10043629 0.12562689 -0.14660613 -0.00059063395 -0.08621068
0.016614232 -0.20145845 -0.0587864 0.18173438 -0.16729437 -0.043658033 -0.044800695 -0.10923393
-0.21039057 -0.22722171 -0.12024312 0.266605 0.033239726 -0.15029652 -0.15483676 0.27992702

blocks.7.attn.q_FacTs.weight f4 [4, 4]
00000000: 0565 a93e c946 e2be 9ecc ebbd 7d7e f5be
00000010: cd20 e33e 8f31 5c3e 57bd 773e f131 ee3e
00000020: aa98 673e 3488 3dbe 412f abbd e0fe fcbd
00000030: dfc9 93be 484f e8bd 29c2 f33e c55a 5ebe
0.33084884 -0.4419463 -0.11513637 -0.47948065 0.44360963 0.2150328 0.24193321 0.46522477
0.2261683 -0.18508989 -0.08358622 -0.12353301 -0.28864953 -0.11343247 0.4760907 -0.21714313

blocks.7.attn.k_FacTs.weight f4 [4, 4]
00000000: a8f4 b33e 30c9 8abe 1aec e0be 7a33 c4be
00000010: c6d3 bd3d 3dce c83c eed7 77be d482 e9be
00000020: 6139 53be eaf4 e1be e456 52be f0fb 853e
00000030: f953 8e3e 0282 abbe 1bd4 123d 901b 063f
0.35147595 -0.2710662 -0.4393013 -0.38320524 0.09268908 0.024512405 -0.24203464 -0.45607626
-0.20627357 -0.44132167 -0.20540959 0.26168776 0.2779844 -0.33497626 0.03584681 0.5238581

blocks.7.attn.v_FacTs.weight f4 [4, 4]
00000000: 0e8f cd3e c5b1 ebbe c454 0ebe ee0f bcbe
00000010: 1fa9 9b3c 01d1 073f 2bec ba3e fae7 03be
00000020: 97e9 0cbe 5ef7 0ebd 9cd7 d73d a629 e5be
00000030: 64a7 ecbe f18c acbe 77cc d73e 1a4c 7cbe
0.40148205 -0.46034065 -0.13899523 -0.36730903 0.019001542 0.5305329 0.36508307 -0.12881461
-0.13760982 -0.034903876 0.10539171 -0.44758338 -0.4622146 -0.3370128 0.42148182 -0.24638405

blocks.7.attn.proj_FacTs.weight f4 [4, 4]
00000000: 8e11 5d3d e6d7 09bf b240 713c d134 d7bd
00000010: 548b c73e 6ed2 f6be 241a 063f f0df febc
00000020: 0aed 823e 9862 543e 0fac db3e 32db 923e
00000030: e7ed 603d db12 11bd 21b3 da3e 8ef4 02bf
0.05397182 -0.5384506 0.014724897 -0.10508121 0.38973486 -0.4820742 0.5238364 -0.031112641
0.2557147 0.20740736 0.42904708 0.28682858 0.05491438 -0.035418373 0.4271479 -0.5115441

blocks.7.mlp.fc1_FacTs.weight f4 [16, 4]
00000000: d0f2 783e 984a c83e ad6e f8be 2ade b3be
00000010: 20db 96be 9acf 123f 3841 5a3e e0bf 773e
00000020: e421 bb3e 3144 b1be 10cb ee3d 8f5a cbbe
00000030: 196e f83e ab8e 8e3c 927d 68be a9d3 f13e
00000040: fb0c 0bbe d413 ebbe e012 253e c564 243e
00000050: 7cb6 493e 43af c3be e3a4 58bc 2e3f 1e3e
00000060: 2af3 173e 2f59 fdbe b1ff 21bd 848a bfbe
00000070: 9d72 03bf 1cd3 5a3e d1d4 e4bd 09fa 623e
00000080: aecd bcbe a653 debe 9f3b c4be de51 0bbc
00000090: 8740 ff3d 9e85 bc3e a7bc b5be 7df9 e93e
000000a0: 14b3 7abe 07dd 753e 72b3 9abe a292 b93e
000000b0: 286a 8e3e 531a 46be bc4e 423e 28dc c83d
000000c0: bdd7 01bf a54e 543d 78f7 c13e 0c36 c9be
000000d0: 3951 31be 5a21 de3e 615f 4dbe d4e2 27be
000000e0: 260b 133e 4267 e0be 3624 b73e 9db2 82be
000000f0: eab6 003e 1e04 f63d bb5e 993e c328 e4bd
0.24311376 0.3911941 -0.4852194 -0.35130435 -0.29464054 0.57348025 0.21313941 0.24194288
0.36549294 -0.34622338 0.11659825 -0.39717528 0.48521498 0.017402014 -0.22704151 0.47231796
-0.1357917 -0.45913565 0.16120481 0.16054066 0.19698519 -0.38219652 -0.013222906 0.15453789
0.14838853 -0.49482104 -0.039550487 -0.37410367 -0.5134676 0.21369594 -0.11173404 0.22165693
-0.3687567 -0.43423194 -0.38326737 -0.008503405 0.124634795 0.36820692 -0.35495493 0.45698157
-0.24482375 0.24010096 -0.3021503 0.36244684 0.27815366 -0.1934598 0.18975347 0.098076165
-0.50719815 0.051832814 0.37884116 -0.39299047 -0.1731614 0.4338482 -0.20055915 -0.16395122
0.14359722 -0.4382878 0.35769814 -0.25526896 0.12569776 0.12012504 0.29955086 -0.11140587

blocks.7.mlp.fc2_FacTs.weight f4 [4, 16]
00000000: 0a32 823e 9766 29bd a70e 98bd bf0d cc3d
00000010: d2a6 4c3e a77c 77bd d01a 0bbc c228 713e
00000020: 25cf 6b3b 9275 1a3d 36e2 103e 79f7 253e
00000030: 2d4e 6e3e e9e6 803e cc88 34bd 1066 15be
00000040: ff37 5abe 724e 523e 6475 7a3d db38 943c
00000050: 79e3 873e 51fb 2b3e 58f5 eb3d 7ba6 b63c
00000060: 1242 d73c f489 5d3d 0929 5ebe 9190 26be
00000070: 067b 613e 1027 2d3e 1f1c 583e cc0e 973e
00000080: b298 f4bc 70fe 623e 05b2 6fbe ec2d 6ebe
00000090: e589 0d3e cc80 533e 84a9 3fbe e61f a6bd
000000a0: 205f 35be 7744 983c 4b0c ea3d 24c7 2a3e
000000b0: bdc7 213e a74a a2bd 31fc 363e 801f 2f3d
000000c0: 1747 73bc b2fa 5bbe 6753 633e a250 34be
000000d0: 5768 3a3e 0aad d3bd 1e6b 8bbe cf36 383e
000000e0: d7ee d73c 7b9e fa3d 2a95 04be 3761 203e
000000f0: 8ea2 1cbc 6376 70be 40b9 c7bd b89a 0fbe
0.25428802 -0.041357603 -0.0742467 0.09963559 0.19985512 -0.060421612 -0.008490279 0.23550704
0.0035981622 0.03770978 0.14148793 0.16207685 0.23272009 0.2517617 -0.044075772 -0.14589715
-0.21310423 0.20537737 0.06114711 0.018093517 0.26540735 0.16795088 0.11521405 0.022296181
0.026276622 0.05408664 -0.21695341 -0.16266085 0.22019586 0.16909432 0.21104477 0.29503477
-0.029857967 0.22167373 -0.23407753 -0.23259705 0.13822134 0.20654601 -0.18717009 -0.08111553
-0.17712069 0.018587334 0.11428126 0.16677529 0.1579885 -0.07924395 0.17869641 0.04275465
-0.014848492 -0.21482351 0.22199784 -0.17608884 0.18203865 -0.10335739 -0.2723016 0.17989658
0.026359005 0.12237259 -0.12947527 0.15662085 -0.00956024 -0.23482661 -0.097521305 -0.14023864

blocks.8.attn.q_FacTs.weight f4 [4, 4]
00000000: 02bf b7be 1445 ccbe 0a8e 623e 1dac 2f3a
00000010: db1e b03d 36e1 693d 019a cbbe 0e38 2dbe
00000020: 41ec 8a3e 72ea 843e bcb7 393e 3977 1fbd
00000030: 8caa 87be 2cc2 483e a358 673d f43f f3bc
-0.35887915 -0.39896452 0.22124496 0.0006701367 0.08599635 0.057099544 -0.39765933 -0.16915914
0.27133372 0.25960118 0.18136495 -0.03893206 -0.26497304 0.1960532 0.056481015 -0.029693581

blocks.8.attn.k_FacTs.weight f4 [4, 4]
00000000: 3b49 82be a05d 903e fb4e 373d 7120 f53e
00000010: 7318 0abe cf4a 8e3d 3862 c7be db33 53bd
00000020: be8e 7b3e 1aea 033d 3dd6 8f3e 3021 f8be
00000030: 4fbb e4be 5238 8bbe da24 e93e 4b1c 3abe
-0.25446495 0.2819643 0.044753056 0.47876313 -0.13485889 0.06947862 -0.38942122 -0.051563125
0.2456617 0.03220568 0.28093138 -0.4846282 -0.44674155 -0.27191406 0.45535928 -0.18174855

blocks.8.attn.v_FacTs.weight f4 [4, 4]
00000000: 9c31 0d3f 30f6 853e e066 98be 9f30 dd3e
00000010: ecc4 9c3e c911 313e d551 073d 86d9 9fbe
00000020: fc17 473e 20d6 d83e 5e66 c0bd 5dd3 e83e
00000030: 198d d63e ae0a 223e 1171 823c 7c79 7d3e
0.5515382 0.2616439 -0.29765987 0.43201157 0.3061899 0.17291941 0.033037025 -0.31220645
0.19442743 0.42350864 -0.09394525 0.45473757 0.41904524 0.15824386 0.015923055 0.24753374

blocks.8.attn.proj_FacTs.weight f4 [4, 4]
00000000: 5570 0ebf 08a9 d23e 5fc2 d5be 70ca 8abe
00000010: ee60 e5be 6201 cfbe dfca 663e 5ec6 423e
00000020: cd5f 7bbc 8ea2 25be 2b82 1f3d e33a e43e
00000030: 9dac 91be bb24 573d d340 bf3e 6b67 c8be
-0.55640155 0.41144586 -0.41749856 -0.27107573 -0.44800514 -0.40430743 0.22538327 0.19020984
-0.015342665 -0.16175291 0.038942497 0.44576177 -0.28452006 0.052525263 0.37354144 -0.39141402

blocks.8.mlp.fc1_FacTs.weight f4 [16, 4]
00000000: 9754 aa3e 271c 193e f126 f93e 43c1 cb3d
00000010: bace 2a3d abdd b0be 6ca6 08bf b52e 583e
00000020: 75db 8f3e 891b 553e 32d3 60bc 9f74 fcbd
00000030: ca6c c9be 152e 9cbe 0e97 85bd a9fd c2be
00000040: 9436 f73e 841f af3e db5b abbd 693e c23e
00000050: 5a32 2a3e 708d c53e 21a1 e83e a75a 17bf
00000060: e1ca b0bd c028 bcbd 0fe5 4abd a661 0ebd
00000070: cb0a ba3e dfce b1be e428 c23d 4033 bfbe
00000080: 2af6 05be 250b d4be 3ee9 99be c8f9 23be
00000090: e3a9 b93e e207 fbbe ca92 f9be 576d 5cbe
000000a0: bfb1 64be cf67 dfbd dabe f5be 217f c0be
000000b0: dd01 453e 12ee 1b3e 3c35 283e 709e bcbe
000000c0: 087c 613e 175c 893e 0561 f5be e71b 023d
000000d0: 5c51 5fbe 7ee4 89be ea28 7f3e 4ba2 93be
000000e0: 6679 e8bd cf28 d53c 947e dd3e cfe0 8b3d
000000f0: 3781 e73d 6130 da3e 782e 9e3e cd00 99be
0.33267662 0.14952146 0.48662522 0.09948971 0.041701056 -0.3454412 -0.5337894 0.21111567
0.2809712 0.20811285 -0.013722228 -0.12326931 -0.39340812 -0.30503908 -0.06522952 -0.38084152
0.48283827 0.34203732 -0.083671294 0.3793824 0.1662077 0.3858447 0.45435432 -0.591227
-0.08632446 -0.0918746 -0.049534854 -0.034761094 0.3633636 -0.34728143 0.094804555 -0.37343788
-0.13082185 -0.41414753 -0.30060762 -0.16013253 0.36262426 -0.49029452 -0.48744804 -0.21526085
-0.2233343 -0.10908472 -0.4799717 -0.37596992 0.19238992 0.15227535 0.16426557 -0.36839628
0.2201997 0.2682807 -0.47925583 0.03176489 -0.2180838 -0.26932138 0.24917951 -0.28834757
-0.1135128 0.026020436 0.43260634 0.06829988 0.11303943 0.42615035 0.30894828 -0.29883423

blocks.8.mlp.fc2_FacTs.weight f4 [4, 16]
00000000: a823 b5bd 402d 2fbe 9279 903d 4c03 9abe
00000010: 1e57 0f3e b2ba 92bd 235d 9dbe c44a 50be
00000020: e7bb 893e 273b 24be 4402 353d 8a71 7fbc
00000030: 20f7 7abe 8c55 13be 1d01 193d 726b 9ebe
00000040: 709b 053e 8980 753e 7d12 12be 3059 013c
00000050: d807 1c3c 75f4 eabd 1ea6 49bd 89c5 99bd
00000060: 820e 903c 47bc 993d 672b 893e c51f 80bd
00000070: 58bb 96be ebf5 9a3d cd24 643d 3329 a23c
00000080: e0b9 52bd 3d41 3fbb dae8 0dbe 768f bd3d
00000090: c4d8 b3bd 0acd db3d b39f 99bd 201b 653e
000000a0: 9442 123e 8e29 283e bc21 473e 6b72 6ebe
000000b0: acf8 4ebe 3986 51be 19d3 54bd aae4 46be
000000c0: ea09 873a 18ae ca3d 523e 56bd 6daf 193e
000000d0: b811 63be 80f3 61be 972c 133e cc10 40bd
000000e0: 939f 33be 5872 86bd b342 9fbd c4e0 343e
000000f0: 0cef 913e b6f6 40bd c355 2abc 3a70 cf3d
-0.088446915 -0.17107105 0.07054438 -0.3008064 0.13998076 -0.071645156 -0.3073512 -0.20341021
0.2690117 -0.1603819 0.044191614 -0.015591035 -0.24508333 -0.14388102 0.037354577 -0.3094135
0.13047576 0.23974814 -0.14264865 0.007894799 0.0095233545 -0.11472408 -0.049230687 -0.0750838
0.017585043 0.07506614 0.26790926 -0.062560596 -0.29439807 0.075664364 0.05569916 0.019795036
-0.051446795 -0.0029183172 -0.13858357 0.092558786 -0.08781579 0.107324675 -0.07501163 0.22373629
0.1428321 0.16422102 0.19446462 -0.23285834 -0.20212048 -0.20461358 -0.05195913 -0.19423166
0.0010302637 0.09896487 -0.052305527 0.15008326 -0.22174728 -0.22065544 0.14372478 -0.04689102
-0.17541341 -0.06564778 -0.07776394 0.17663866 0.2850269 -0.047110282 -0.010396424 0.101288274

blocks.9.attn.q_FacTs.weight f4 [4, 4]
00000000: f126 dabd 34b9 6a3e 645c bfbe 3186 f93e
00000010: 9cfd cb3e f676 d9be 8a38 dfbe 2343 033e
00000020: a450 65be a41d a9be 222a d3be b23e a1be
00000030: 6b45 9f3e c926 3dbe 95e9 42be 6abd 9abe
-0.10651959 0.22922212 -0.37375176 0.48735192 0.39841926 -0.42473572 -0.43597823 0.1281858
-0.22394043 -0.33030427 -0.41243082 -0.31493145 0.3110765 -0.18471827 -0.19034417 -0.30222636

blocks.9.attn.k_FacTs.weight f4 [4, 4]
00000000: 947f 0c3e e05f 56bc d8f7 633e e087 8d3e
00000010: feda 613d 1849 de3e 6cd9 7f3e 60d5 be3e
00000020: 8cf0 aa3e 6f4e 86be 901e f53d ee7b 153e
00000030: 5d7f c6be 5d85 443e fbc8 283a d968 babe
0.13720542 -0.013084382 0.22262514 0.27642727 0.055140488 0.4341514 0.24985284 0.37272167
0.33386648 -0.26231715 0.1196872 0.14598057 -0.38769045 0.19191499 0.000643864 -0.36408117

blocks.9.attn.v_FacTs.weight f4 [4, 4]
00000000: e599 68be fa33 80be d570 e5be eb54 cdbe
00000010: 38ab 883e 4de0 25be 0622 e7be d647 78be
00000020: eb80 d8be c76b 8d3e 4da8 d1be e8b0 d2bd
00000030: d46c a43d 8825 fcbe d04c f7be 599d 56be
-0.22714956 -0.25039655 -0.44812647 -0.4010385 0.2669313 -0.16198845 -0.45143145 -0.24246153
-0.42285857 0.2762129 -0.40948716 -0.102876484 0.0802857 -0.49247384 -0.4830079 -0.20958461

blocks.9.attn.proj_FacTs.weight f4 [4, 4]
00000000: ee16 803d 2216 0d3f 7385 77be 7d53 d93d
00000010: c431 243e cf7a 2d3d d204 86be 965c f83e
00000020: 0f0e cebd e4fe ba3e 5119 ddbd df12 e23e
00000030: 1f27 07be d7a3 d2be f943 a9be 81c4 c53e
0.062543735 0.55111897 -0.24172 0.10611627 0.16034609 0.042353448 -0.26175553 0.48508137
-0.10061275 0.3652259 -0.10795844 0.44155023 -0.13198517 -0.41140625 -0.33059672 0.38626483

blocks.9.mlp.fc1_FacTs.weight f4 [16, 4]
00000000: 37a0 fb3e f450 aa3e ad16 adbe fe63 473e
00000010: 2d5e 513e b692 3cbe 6720 a2be 8c9c 93be
00000020: 04ae d63e cd10 aebe 05fc c0bd f6cc c73e
00000030: 74fb fbbd 2597 3d3d c068 493e 2af2 ebbe
00000040: 7ed8 d1bd 438f dbbe 3a34 09be 4e86 423c
00000050: be42 283e 059f 34be 1372 6e3d 66a7 f7be
00000060: 78bd ecbb 663d 8ebc d730 b1be a115 bc3d
00000070: d3b7 853d 8c03 aa3e fb8a 7bbd 0cb9 3dbe
00000080: c448 abba 659e 4bbe 57e8 79be 88bf 203e
00000090: 747b 8abe 0de7 883e 51e2 d5be dcd1 e23e
000000a0: f22d b0be 6627 abbe 597b 753d 73ab b9be
000000b0: fa4e fdbd 00e2 ea3b 56bf 8cbe a5cb 41be
000000c0: 8f3b b53e 81da e3be 4038 5e3d 3d89 f1be
000000d0: 5c5b 48be ea3a 87be 8594 9cbe b0bb f53d
000000e0: ce9b 963e 0b2f 6c3d 4c9b bcbc 5810 87be
000000f0: b727 133e 005d fb3e 38d0 f6be 0e3e 15bd
0.49145672 0.33264887 -0.33806363 0.19471738 0.20446081 -0.18415341 -0.31665346 -0.28830373
0.41929638 -0.33997193 -0.09423069 0.3902356 -0.1230382 0.04628672 0.19668865 -0.46083194
-0.10246371 -0.42882738 -0.13398829 0.011872841 0.1643171 -0.17638786 0.05821426 -0.48369902
-0.007224735 -0.017363261 -0.34607574 0.09183813 0.06529202 0.3320583 -0.06141184 -0.18527621
-0.001306795 -0.19884641 -0.24405037 0.15698063 -0.27047312 0.26738778 -0.41774228 0.44300735
-0.34410053 -0.33428496 0.059932087 -0.36263618 -0.12368579 0.0071680546 -0.27489728 -0.1892534
0.35397002 -0.44502643 0.054252863 -0.47175017 -0.19566101 -0.26412135 -0.3058206 0.11998689
0.29415745 0.05766205 -0.02302327 -0.26379657 0.14370619 0.4909439 -0.48205733 -0.036436133

blocks.9.mlp.fc2_FacTs.weight f4 [4, 16]
00000000: 0682 603e 5def 0c3e 2f6f 4b3e deb0 0b3d
00000010: 6c5e ebbd 6c6c 863d 42ba 8abe 1ac2 933e
00000020: 1e65 d4bd e0c7 7abd 2d81 233e dc73 03bd
00000030: 67ec 833e 360a d33b 56ae cb3d 971f 73be
00000040: c576 0d3e 8076 8ebe aced 02bd ad55 893d
00000050: d260 7ebe 6cb0 7d3e ef53 8b3e e2f6 da3d
00000060: 70e8 05be 6b73 d6bd 9fae 3c3d 0184 b73b
00000070: d078 1bbc 2d27 83be e10d ef3d b3e4 8d3d
00000080: c377 da3d b54c d63d d1d7 e83d 988e 403e
00000090: fc3f 8a3d be39 66bd 88da f83d f9e9 afbc
000000a0: 5f38 2dbb 904e d2bc 5598 3f3d 8dd4 9d3d
000000b0: c0a5 bb3b c14a 76be 674f fcbd fdb4 dabb
000000c0: ab0b 03be 6bd6 c03d 99b2 20be f10b 993c
000000d0: 08db 59be b635 e2bd c6d3 1ebc ac4c 3f3d
000000e0: a348 643d 0c47 c83d a39e 5dbe e838 3e3c
000000f0: 7a5e 6e3d eadb b73d 8668 263c b3d8 b9bd
0.219246 0.13763185 0.19866632 0.03410422 -0.11492619 0.065636486 -0.27095228 0.28859025
-0.10370849 -0.061225772 0.15967245 -0.032092914 0.25766298 0.006440426 0.09945361 -0.2374252
0.13814838 -0.27824783 -0.031964943 0.067057945 -0.24841622 0.24774331 0.27212474 0.106916204
-0.13076949 -0.10471233 0.04606497 0.005600453 -0.009489253 -0.25615826 0.11672569 0.069283865
0.10667374 0.104638495 0.11369289 0.18804395 0.06750485 -0.05620741 0.121510565 -0.021473872
-0.0026431305 -0.025672227 0.046776135 0.077065565 0.005726546 -0.24051954 -0.12319832 -0.0066744075
-0.1279742 0.09415897 -0.1569313 0.018682452 -0.2127496 -0.11045401 -0.009694045 0.04670398
0.055733334 0.09779176 -0.21642546 0.011610247 0.05819557 0.08977492 0.010156756 -0.09074535

blocks.10.attn.q_FacTs.weight f4 [4, 4]
00000000: c703 da3b d7ea 81be 3206 07be f6b3 a63e
00000010: 018b bebd 1493 953e 6157 eabe f56f c33e
00000020: c3bc 8cbe 5a47 833e 7e46 f63e 5c75 9539
00000030: 05f1 e6be b6d8 503e 7220 973c 9de6 53be
0.0066532823 -0.2537448 -0.13185957 0.32559174 -0.09303857 0.29213774 -0.4576979 0.38171354
-0.27487764 0.25640374 0.48100656 0.00028506934 -0.45105758 0.20395169 0.018448088 -0.2069344

blocks.10.attn.k_FacTs.weight f4 [4, 4]
00000000: 7f77 adbe a48c 933d ad92 c4be da8f f8bd
00000010: b68b 1f3d 48e3 7c3e 778a 043e c431 a7be
00000020: fe09 663e b84b 183d 18a4 083d 672e 48bd
00000030: be86 67be 2b65 20be 806d 9c3e 9e78 ae3e
-0.3388023 0.072045594 -0.38393155 -0.121368125 0.038951598 0.24696076 0.12943445 -0.32655156
0.22464749 0.037181586 0.033359617 -0.048872378 -0.22609994 -0.15663593 0.30552292 0.340764

blocks.10.attn.v_FacTs.weight f4 [4, 4]
00000000: f36b 8fbd 84e1 5e3d cad4 ef3e dec6 e4be
00000010: 40ae 4d3e a9b0 93be 1524 86be 5acb d93d
00000020: aab3 0dbf 99b8 e0be 1ff9 fb3e 817c 7f3e
00000030: e355 f03e 90a9 073f 1346 8b3e 42b4 913e
-0.070030116 0.054414287 0.46842033 -0.44682974 0.20086002 -0.28845719 -0.26199403 0.10634489
-0.5535227 -0.43890837 0.49213502 0.24949838 0.46940526 0.52993107 0.272019 0.28457838

blocks.10.attn.proj_FacTs.weight f4 [4, 4]
00000000: a407 0c3f 4258 1dbe 0e30 3f3e 5fe5 653e
00000010: ca47 ef3d f811 8abe 4653 04bf 9c8f 223e
00000020: 544f ed3e 56a5 1e3e 2002 be3e 5cc6 a9be
00000030: 11c7 92be d7cd d53e e5fe 88be 1cdc 01bf
0.5469916 -0.15365699 0.18670675 0.2245078 0.116836146 -0.26966834 -0.51689565 0.15875095
0.46349585 0.15492758 0.37110996 -0.3315915 -0.286675 0.41758606 -0.2675697 -0.50726485

blocks.10.mlp.fc1_FacTs.weight f4 [16, 4]
00000000: 1f81 63be 9942 c03d 1bd1 e5be c699 7b3e
00000010: 2bd7 663e 831b b4be a567 a33e cc8b 37bc
00000020: 5fc1 e83d 628b 9cbd 21a7 893e b574 8bbe
00000030: 5ef5 93be 499f 07be 40e9 17be df64 a73e
00000040: 3ae1 23be 0478 a03e a127 14be 33b2 ffbe
00000050: 575e bfbe 83f8 b03c fa67 f63e ad60 d4be
00000060: b19a c43e 6c16 07be a61f f13e c1f0 323e
00000070: 344a 993e 2549 e43e d619 d5be 2822 c93e
00000080: 6db3 783e 90d0 9dbd 55ab d2be 771d e83c
00000090: 2045 a93e 3163 dabe 0570 d8be da0e a93e
000000a0: 5779 cebe 86d7 56be a520 993e 6131 a1be
000000b0: aa12 983e c490 373e e67f b83e 5271 833d
000000c0: 9cc3 d9be 0f0a 11be 8b55 40be 2600 95be
000000d0: c6fd c9be 243f cabd b93b 11bc 6d79 b23e
000000e0: a667 9f3e 6d5c a0be 15a0 293e dbcb 12be
000000f0: 2451 b23e 4f58 303e 2398 983e e7ba 1f3e
-0.22217225 0.093877025 -0.44886097 0.24570379 0.22543018 -0.3517724 0.31915012 -0.011202764
0.113650076 -0.07643773 0.26885322 -0.27237478 -0.28898138 -0.13244356 -0.14835072 0.32694146
-0.16003886 0.31341565 -0.14468242 -0.49940643 -0.37376663 0.021602875 0.48126203 -0.41480008
0.3839927 -0.13192147 0.47094458 0.17474653 0.29939425 0.44587055 -0.41621274 0.39283872
0.24287196 -0.07705796 -0.4114634 0.028334362 0.3306055 -0.42653802 -0.42272964 0.33019143
-0.4032695 -0.20980653 0.29907718 -0.31482986 0.2970174 0.17926317 0.3603508 0.064180985
-0.4253205 -0.14163993 -0.18782632 -0.29101676 -0.39451426 -0.09875324 -0.008864337 0.34858266
0.31133765 -0.31320515 0.16564973 -0.14335577 0.3482753 0.17221187 0.2980357 0.15598641
