Final Project/FacT-TT/dmlab_best.pt (torch, 286401 bytes, 76 tensors)

blocks.0.attn.q_FacTs.weight f4 [16, 16]
000000 d9 04 99 3d c7 3a 63 be e8 0b 03 3e b2 a6 23 3e
       0.07471628 -0.2219039 0.1279751 0.15981558
000010 0b df b1 bd c6 d2 c3 3d 8a d8 22 3b 7d 0a 25 bc
       -0.0868512 0.09561686 0.0024848306 -0.010073301
000020 0c fd 97 3d 67 ef 1d 3e a0 41 fb bc 73 46 68 3e
       0.07421312 0.15423356 -0.03067094 0.22683124
000030 03 14 8e 3d ae b7 2b 3e fd d3 93 be 80 18 fc bd
       0.06937411 0.16769287 -0.28872672 -0.123093605
000040 b5 a0 01 3d 7c 0a 1e be a1 a5 e9 3d 20 7b 97 3d
       0.031647403 -0.15433687 0.11408544 0.07396531
000050 cc 76 c3 3d 99 07 30 3e cc 69 33 3e ff 1c f3 3d
       0.09544143 0.17190398 0.17520827 0.11870765
000060 82 a6 25 3d ac 1d d7 3b a8 ed d8 3d 56 53 16 3e
       0.040441997 0.0065648165 0.10592204 0.14680228
000070 09 4f 8e bd ab 7f 49 be 0e c5 44 be 0f 8f ed bd
       -0.069486685 -0.19677608 -0.19215795 -0.11599552
000080 de c5 8e 3e 81 f7 87 3e a6 3a 71 3d 47 75 e1 bd
       0.27885336 0.26556018 0.058893822 -0.11008697
000090 d4 b6 4a 3d 7c d0 02 be cd 49 4c 3e ef 3e 23 be
       0.049490765 -0.12774843 0.19950028 -0.15941976
0000a0 c9 e1 c1 bd 48 0f 30 bd d4 57 10 be c6 db 7b bd
       -0.09466893 -0.042983323 -0.14096004 -0.06148889
0000b0 e0 25 fe bd d0 da 01 3e 93 44 15 3e 3a e8 0c 3b
       -0.12409568 0.12681127 0.1457694 0.0021500723
0000c0 72 6d 79 3e 84 4c 82 3e b2 fd 14 be 23 50 03 3e
       0.24358156 0.25449002 -0.14549902 0.12823538
0000d0 6e 89 0b 3e 7b cb 22 3e 88 00 16 be e4 b8 e6 bd
       0.13626644 0.15897934 -0.1464864 -0.11265734
0000e0 d7 82 29 be b4 a6 51 be b2 c8 91 3d 7e cd 82 bd
       -0.16553818 -0.20473748 0.07118358 -0.06386851
0000f0 05 91 61 be a9 d6 83 be 96 88 7b be 33 bb de bd
       -0.22027977 -0.2574971 -0.24563822 -0.10875549
000100 2a 98 0e bd 78 6a 45 be ae ac fa bd cc fc 7c bd
       -0.034813084 -0.19278896 -0.12239967 -0.061764523
000110 ec 18 b3 3d ce b0 34 3e 52 94 de 3d 0d 3c 7d be
       0.08744988 0.1764557 0.108681336 -0.24729939
000120 65 4d 41 be 3b b8 8c be 2c 0e 60 3e 83 7d 09 3e
       -0.1887718 -0.27484307 0.21880406 0.13426785
000130 a6 4e 23 3e 3d 3c 36 3e 2a 5e e5 bc e0 84 29 be
       0.15947971 0.17796417 -0.027999002 -0.16554594
000140 06 b6 43 3e 58 56 ef 3d 03 a0 ed bd a2 60 d1 3d
       0.19112405 0.11686391 -0.116027854 0.10223509
000150 c7 9a 51 3e 51 93 1a 3e 70 3d f0 bd 84 d1 bc 3d
       0.20469199 0.15095259 -0.11730468 0.092196494
000160 86 b1 dc 3d e3 49 31 bd 87 b6 21 bd 26 28 40 3e
       0.107760474 -0.043283354 -0.039480712 0.18765315
000170 b5 3d df bc 8a df b9 3b 9d 51 e4 bc c1 d3 b2 3d
       -0.027251104 0.0056724 -0.027870947 0.08731795
000180 43 18 80 be 26 90 8b 3d 9e 69 0f 3e 39 75 a8 3d
       -0.2501851 0.068146035 0.14005134 0.082254834
000190 f1 ff a3 bc ae 1b 39 3d fc a4 cf be 51 97 6b be
       -0.020019503 0.045192413 -0.4055556 -0.23006941
0001a0 99 91 a3 3d 22 41 32 bd d7 d7 2f bc 19 d4 a8 be
       0.07986755 -0.043519147 -0.010732613 -0.32974318
0001b0 e5 17 0c 3e 25 bc 63 3e 62 45 7c be d7 d4 12 3e
       0.1368099 0.2223974 -0.24635842 0.14339004
0001c0 99 26 6f 3e 7b 97 22 be be 8d 33 3e e6 07 c3 bd
       0.23354568 -0.15878098 0.17534539 -0.09522991
0001d0 47 69 64 bd b6 84 46 3e 0c 51 ef 3d 07 09 68 3e
       -0.055764463 0.19386563 0.1168538 0.22659694
0001e0 8b 6b fd bd 12 aa c9 3d cd 9d 34 bd 0a f5 26 3e
       -0.12374028 0.098468915 -0.044095803 0.16304412
0001f0 62 be e9 3d 5a 28 32 be 56 2f 50 be 3f da 32 be
       0.11413266 -0.17398205 -0.20330557 -0.17466067
000200 96 17 92 bd 9e de 12 3e 3d 87 39 be 77 d7 9e be
       -0.07133405 0.14342734 -0.18117996 -0.31023762
000210 8a 06 65 bd 4b bf 03 bd 81 e9 8f bd a4 b4 56 be
       -0.05591444 -0.032164853 -0.07026959 -0.20967346
000220 97 69 69 3e a9 ce 3d 3e 06 1a 99 bd b6 d2 f6 3d
       0.22794186 0.18535866 -0.07475667 0.12051909
000230 ad f3 3f 3d 25 b2 65 3d 35 04 57 3e cb bd 98 3e
       0.046863247 0.056078095 0.20997699 0.298323
000240 c8 05 0f 3d 5b 2e 42 be 4f 65 b1 bd 17 f9 78 3d
       0.034917623 -0.18962996 -0.08661901 0.060784426
000250 e4 27 b0 bd a1 19 ae 3d 69 06 fc 3d 81 4e 0b be
       -0.086013585 0.08500982 0.1230591 -0.13604166
000260 ec 65 0d bd 5a 78 13 be 59 6e 3f bd 9f 98 26 3e
       -0.03452103 -0.14401379 -0.046736095 0.16269158
000270 4b 34 f9 bd 11 1f 25 be 56 98 54 3e 41 ed b3 bc
       -0.12168177 -0.16125132 0.20761237 -0.021963717
000280 cf fc 4e 3e 85 81 26 bd 4d 2e 7a 3c e0 1a 98 3b
       0.20213626 -0.040650863 0.015269828 0.0046418756
000290 62 f0 d4 bc 10 b1 b4 bd 5c a9 ad bc cf 78 35 be
       -0.02599353 -0.088228345 -0.02119892 -0.17721866
0002a0 50 49 bc bd fd 14 90 3c 69 10 71 3e 43 5b f7 3c
       -0.09193671 0.017588133 0.23541416 0.030194884
0002b0 5f 71 95 bd 28 5b 8d bd 0d de 83 3e 57 e1 88 3e
       -0.072970144 -0.06902152 0.2575535 0.2673442
0002c0 c5 42 50 bd f2 16 58 bd bd b9 6e 3e 56 2c 34 3c
       -0.050844926 -0.052756257 0.23313041 0.010996899
0002d0 1d 6a 1a 3d 4a 1c 86 3d 48 2b 40 bc d0 cd 8f 3d
       0.037698854 0.065483645 -0.011729069 0.070216775
0002e0 f1 64 92 3c 4a 8c b0 3d 6a 35 54 3e e7 51 15 3d
       0.017870398 0.08620508 0.20723501 0.03645506
0002f0 76 5c f5 3c 78 f8 db bd 86 f0 f4 bd 9a c2 15 3c
       0.029951315 -0.10740751 -0.11959939 0.009140635
000300 81 71 68 be 11 9a 42 bd de 0b 5e 3e 9a e4 ac bd
       -0.22699548 -0.04751021 0.21684214 -0.0844204
000310 2a ca e5 bd 8f bf b1 3d 5e 42 de bc 5a da 7e be
       -0.112202 0.08679115 -0.027131256 -0.24887982
000320 8e 50 88 3e 3f 11 10 be 15 52 6b bd 69 84 b9 bd
       0.26623958 -0.14069079 -0.057451326 -0.09058458
000330 2c 8f de bd 57 c3 d3 3c 41 d7 17 be ae 02 4d be
       -0.108671516 0.025849981 -0.14828207 -0.20020553
000340 25 03 a9 bd 1a 12 40 bd 34 ca 65 3d 4f f0 7b 3d
       -0.08252553 -0.046892263 0.05610104 0.061508473
000350 8a f7 31 be 82 6c 5c bc c7 3a 43 bd b1 83 79 be
       -0.17379585 -0.013453605 -0.047663476 -0.24366643
000360 b3 45 65 be 9f 5c d3 bd 2d 30 38 3e fa ed e3 bd
       -0.2238987 -0.103204004 0.17987128 -0.11129375
000370 1b 9c f1 3d d5 bf 4c 3e f1 7b 80 3d 56 d0 ae 3c
       0.11797353 0.19995053 0.0627364 0.021339577
000380 fb d3 16 3e 20 cf cd 3d 4c c8 c1 bd ba 80 e0 bd
       0.14729302 0.100492716 -0.09462032 -0.10962053
000390 03 ec ca bd 59 8b 04 be fd d0 0f be d4 79 08 be
       -0.09908297 -0.12943782 -0.14044566 -0.13327724
0003a0 29 16 0d be 38 0d 08 be 5a bc 84 be 8e ad 46 3e
       -0.13777985 -0.13286293 -0.2592495 0.19402143
0003b0 5d 1e 1c 3e 6c de a9 bd 3c fb 16 3d c8 cd 2a 3e
       0.15245958 -0.08294377 0.03686069 0.16680062
0003c0 f0 f6 17 be a5 20 1d bd ff 52 c4 3d c0 10 66 3e
       -0.14840293 -0.03836121 0.09586143 0.22467327
0003d0 c5 81 81 bd 8c 07 ae bd 76 f8 1a be f0 2d 08 3e
       -0.0632358 -0.08497533 -0.15133843 0.13298774
0003e0 3a cc 45 bd 53 c8 d4 3d e0 c1 16 bd 0b 84 84 3d
       -0.04829047 0.10389771 -0.036805987 0.06470498
0003f0 c6 a4 59 bd 62 d2 15 be 04 4c ec 38 73 23 35 be
       -0.053135656 -0.14631036 0.00011267516 -0.17689304

blocks.0.attn.k_FacTs.weight f4 [16, 16]
000000 a1 b1 80 be d9 c4 bc bd 82 49 43 be 6f ce 4b 3c
       -0.2513552 -0.09217233 -0.1907101 0.012439354
000010 2f be 81 be ce c6 ed 3d e7 a8 29 3e 69 ef d8 3d
       -0.2534041 0.116101846 0.16568337 0.10592539
000020 28 45 83 be 94 11 11 3e 4d a7 dd 3d e0 a2 06 be
       -0.256387 0.14166862 0.10822926 -0.1314807
000030 1a fc e2 3d 52 a0 39 3e 6c 72 c2 bd 5f 1c 2a bd
       0.11083241 0.18127564 -0.094944805 -0.041530963
000040 6b a0 44 3d 70 24 9a 3d 92 8a 66 be 0f f6 58 be
       0.04800455 0.07526481 -0.22513798 -0.21187614
000050 2b 9a de 3d d5 d1 64 be fc ef 37 be c7 f5 bc 3d
       0.10869249 -0.2234567 -0.1796264 0.09226566
000060 28 c1 b1 3d 68 16 0e be c5 ed 5e be 8a a0 95 3e
       0.0867942 -0.13875735 -0.2177039 0.29224044
000070 a0 ef 1e be cf 52 7d 3d c8 a3 63 bb 95 ed 08 3e
       -0.15521097 0.06184655 -0.0034735072 0.1337188
000080 60 f1 97 3b f2 13 a2 3c ff cc 25 3c b1 1e c8 3d
       0.0046369284 0.019784901 0.010119676 0.09771479
000090 24 04 96 3e d9 21 63 be c9 a3 bd 3d 56 70 bb be
       0.29300034 -0.2218088 0.09259755 -0.36609143
0000a0 c8 60 1f be dd 77 19 3e 05 4b a9 bd 81 b7 fd 3d
       -0.15564263 0.1498713 -0.08266262 0.12388516
0000b0 0b 03 7d be ab 52 29 3e 4a 51 50 be a1 45 1d be
       -0.24708192 0.16535442 -0.2034351 -0.15358593
0000c0 bb da e3 bd 2d 7c 9f bd 67 68 35 be 2e 34 0d be
       -0.11125704 -0.077873565 -0.17715608 -0.13789436
0000d0 a8 77 15 3e 40 87 8e bd 69 8f 46 bd b2 ee 45 be
       0.14596426 -0.06959391 -0.04847661 -0.19329336
0000e0 72 b4 47 ba fe 96 31 bd 4f 12 a2 bd 79 80 97 be
       -0.0007618136 -0.043356888 -0.07913648 -0.29590204
0000f0 72 02 13 be fb af bf bd 14 50 67 bd df 17 38 3e
       -0.14356402 -0.093597375 -0.056472853 0.17977856
000100 0a 71 02 bd 83 3f 83 be 9c 98 17 be 28 6c 91 bc
       -0.031846084 -0.25634393 -0.1480431 -0.017751768
000110 a4 26 d9 bd 88 17 55 be 14 ed 4c 3c 8f 0c 57 3d
       -0.10603073 -0.20809758 0.012507696 0.05250221
000120 00 99 78 bd d1 4f 34 bd c3 b1 71 be dc a0 b7 bd
       -0.060692787 -0.04402143 -0.23602967 -0.08966228
000130 61 88 b1 bd 62 2f b0 bd e4 88 57 be 4b 4c 7e be
       -0.0866859 -0.086027876 -0.21048313 -0.24833791
000140 b3 7f 15 3e 6e 10 08 3e 8f e1 4a 3c 24 c0 8b 3e
       0.14599495 0.13287517 0.012382879 0.2729503
000150 24 dd 44 3e 44 23 14 be 54 34 c6 bd 70 4f 81 3c
       0.19224983 -0.14466578 -0.096779495 0.015784949
000160 80 40 59 be 61 d3 f6 3d 7e 16 4a bb a7 4c fa 3d
       -0.21216011 0.12052036 -0.003083616 0.122216515
000170 33 e6 18 3e 7e 5f f5 3d ad fc 4a be ca 19 ae bc
       0.14931564 0.11981104 -0.1982295 -0.021252532
000180 29 9a 8a 3d 3b 84 2a bd 4e 36 29 3e 05 11 6e 3e
       0.06767685 -0.04163001 0.16524622 0.2324868
000190 10 0f fc 3d ab 95 0b 3d 5f d0 84 be c5 0a ce 3d
       0.123075604 0.03407828 -0.25940225 0.10060648
0001a0 8b d7 27 be f4 60 88 be ae cb b3 3c 4c 69 98 bc
       -0.16390817 -0.2663647 0.021947708 -0.018604897
0001b0 e3 df 2c be 68 5e 37 3e 48 0a c3 bd d1 ed 3e be
       -0.16882281 0.17907107 -0.09523445 -0.18645407
0001c0 cc 9a ba bd 5e 3a 04 be c1 91 9d 3e 65 5a 79 3d
       -0.091115564 -0.1291289 0.30775264 0.060877223
0001d0 2b 6d 0b 3e fc 95 18 3e 3b b2 3e 3e d3 29 13 3c
       0.13615863 0.14900964 0.18622677 0.00898214
0001e0 58 ee 8d 3d 12 5b be 3c cb 2b c0 3d 69 88 0a be
       0.06930226 0.023236785 0.09383353 -0.13528599
0001f0 f5 53 6e be 7b 4d a9 bd 7d 3a bd 3d f4 95 39 be
       -0.23274215 -0.08266731 0.092396714 -0.18123609
000200 4c 4d 3b bd 68 af 94 bd 38 71 1e bd b6 6a 7a 3e
       -0.045728013 -0.072600186 -0.038682193 0.2445477
000210 f5 45 6a be 3b 92 1d 3d 98 80 0e 3e ef 9b 41 be
       -0.22878249 0.038469534 0.13916242 -0.1890714
000220 92 ef 0a 3e 0e 26 9f 3d 5c cd 95 3e 1a f7 be 3d
       0.13567951 0.0777093 0.2925824 0.09324475
000230 78 40 93 bd f3 5a 42 3e fd 66 49 3d a0 3b df 3d
       -0.07190031 0.18980007 0.049170483 0.109000444
000240 75 7c c3 3d 72 16 2c be 03 07 b3 3d 2a 49 0e bd
       0.09545223 -0.16805437 0.08741572 -0.034737743
000250 2f 29 98 bd 86 02 9c 3e a2 6c 02 be b0 32 e2 bd
       -0.0742973 0.30470675 -0.12736753 -0.11044824
000260 55 f8 a9 3d 5d 4e 7a 3d 2f 25 5d be 84 6b 4c be
       0.08299319 0.06110989 -0.21596216 -0.19962889
000270 cf fa 56 be 1f c6 9a be e6 9a 36 3e 94 69 7d 3e
       -0.20994113 -0.3022928 0.17832527 0.24747306
000280 08 c6 45 be 84 83 6d be f9 3c 40 3e 0d 46 26 3e
       -0.19313824 -0.231947 0.18773259 0.1623766
000290 4c 85 8b 3d c3 3a 00 3e 82 45 15 3e 09 70 f7 3d
       0.06812534 0.12522416 0.14577296 0.12081916
0002a0 d1 af 4f 3e 85 6f 18 3e 9a 2d 6e 3e 85 4e 27 be
       0.20281912 0.14886291 0.23259583 -0.16338547
0002b0 66 56 48 bd f1 4e 86 bc de f2 f4 bd 44 25 43 3e
       -0.04891052 -0.016395064 -0.11960386 0.19057184
0002c0 cc 35 48 be 44 43 c6 3d c6 58 46 3e f2 92 99 3e
       -0.19551772 0.09680799 0.19369802 0.29994923
0002d0 f0 7d 9c bd a8 ce 3a bd 68 27 0b be ed 94 4e bd
       -0.07641208 -0.04560724 -0.13589251 -0.050434995
0002e0 8c d0 29 be bb 31 14 3e f1 9e a8 bc 57 dd 07 be
       -0.1658346 0.14472096 -0.020583602 -0.13268028
0002f0 d4 9d 29 bd bc 97 ad 3d 1b 2c 3c 3e c0 a6 c7 3d
       -0.041410282 0.08476207 0.183762 0.09748602
000300 56 04 2b be c0 e9 02 be 3f 09 bf 3d 5e ef 3d 3d
       -0.16700873 -0.12784481 0.093279354 0.046370856
000310 d2 c3 bf bd 13 e0 94 3e 94 b9 10 bd 4e d5 9e bd
       -0.09363522 0.29077205 -0.03533323 -0.077555284
000320 53 4b e5 bd 88 82 e2 3d 5d 3b 16 3e 0e f4 8b be
       -0.111960076 0.11060053 0.14671083 -0.27334636
000330 ec d9 0e 3e 7c b6 26 3e 3d 3a c0 3d 41 72 55 3e
       0.13950318 0.1628055 0.09386108 0.20844366
000340 89 0e 11 be f1 17 10 3e 84 8d 7f 3e 35 95 4e be
       -0.14165701 0.14071633 0.24956328 -0.20174105
000350 dd 9f 42 be 1d 8d 15 be 36 d2 8a be 4f 19 a5 be
       -0.19006296 -0.14604612 -0.27113503 -0.3224587
000360 65 4b 5d 3e f1 6a 45 3e 3b 5b c1 3d 69 21 70 be
       0.21610792 0.19279076 0.09441229 -0.23450245
000370 cb fc c9 bd c0 f4 32 3e 54 5b 55 3d 33 a4 bd 3d
       -0.098626696 0.17476177 0.05208905 0.09259834
000380 66 69 fd 3c 09 12 46 3e 58 02 11 be 87 d3 56 3e
       0.030934047 0.19342817 -0.1416105 0.20979129
000390 01 ef 75 3d 44 cf 05 3d 69 16 41 3e 4d 72 ba bd
       0.060042385 0.032668367 0.18856205 -0.091038324
0003a0 4e cc fc bc 1c 89 65 bc a3 f7 9c be 79 09 67 3d
       -0.030859139 -0.01400974 -0.30657682 0.05640552
0003b0 9b 4e 98 be 66 a8 0f be 5e 17 8c 3d 12 80 9e 3d
       -0.2974747 -0.14029083 0.068403944 0.07739271
0003c0 ee 22 3e 3d 39 63 5b bd 7a 5b 5b bd d2 82 b9 3c
       0.04642003 -0.053561423 -0.053554036 0.022645388
0003d0 1f fb b4 bc 92 cb fd 39 55 78 03 be 18 44 94 3e
       -0.0220924 0.00048407592 -0.12838872 0.289582
0003e0 16 df 96 bd e7 d4 0a 3e 52 9d e3 bd 53 ee df bb
       -0.07366769 0.13557778 -0.11113991 -0.0068338304
0003f0 b6 c2 0b bb 1d e4 51 bd ab f4 78 3e 2b 44 3e be
       -0.0021325774 -0.051242936 0.24312083 -0.18580692

blocks.0.attn.v_FacTs.weight f4 [16, 16]
000000 52 b4 a6 bc 59 e1 8f 3e 31 f4 54 be 89 4f cf 3d
       -0.020349655 0.28101614 -0.20796277 0.10122592
000010 85 95 6e be 12 df c0 3d 70 9e 69 3e 7c 71 2b be
       -0.23299225 0.09417547 0.22814345 -0.1674251
000020 8f 85 4a bd f2 15 30 3e 57 66 c1 bb ad 84 8e 3e
       -0.049443778 0.17195871 -0.0059020924 0.278356
000030 6d 65 dd bd d1 6f 8f bd e8 98 dd 3c 1a b4 9b 3d
       -0.10810361 -0.07003749 0.02705045 0.07602711
000040 cd 39 6c be 75 65 08 3e 04 68 68 3e e3 80 12 3e
       -0.23068924 0.13319953 0.22695929 0.14306979
000050 39 54 00 be 51 9d 6e be ab ad 14 3e ee 94 12 bd
       -0.12532128 -0.23302199 0.14519374 -0.03578656
000060 fe be c8 bd c4 cf 37 be 08 6c 35 bd 43 a2 3c 3e
       -0.09802054 -0.1795035 -0.04429248 0.18421273
000070 02 65 3a 3e 93 7e a6 3d cb 5d 70 be cd ab 27 3d
       0.18202594 0.08129611 -0.23473279 0.040935326
000080 3e f3 10 3e a4 10 4a bd 06 6d f2 3c bd 6a fd bd
       0.1415529 -0.049332276 0.029593002 -0.12373874
000090 7e a3 6d 3e 1d c8 39 3e 02 9f 6c be f0 f7 1a 3e
       0.23206899 0.18142743 -0.23107532 0.15133643
0000a0 fd 6a a5 3d 8b ea 3a 3d af ed c9 bb 16 b1 28 be
       0.08077047 0.045633834 -0.0061623673 -0.16473803
0000b0 9c ca 53 3d 0c 67 bc 3d 38 e0 67 bd 84 6d 62 3e
       0.051706895 0.09199342 -0.056610316 0.2211209
0000c0 b5 36 17 bb ab 85 23 be 49 ac 30 3c a1 74 46 bd
       -0.002307338 -0.15968959 0.0107832635 -0.04845107
0000d0 5c e9 32 3e b7 d8 25 be f9 2c 20 bc 5a e4 e2 bd
       0.17471832 -0.16195951 -0.009776347 -0.11078711
0000e0 22 0b 4b be c3 f6 f8 3d f4 f7 ea bd 24 39 60 bd
       -0.19828466 0.12156441 -0.114730746 -0.054741994
0000f0 cf cd 4b 3e 77 03 b6 bd 19 0c 13 be 7f 95 79 3d
       0.19902728 -0.088873796 -0.14360084 0.060933586
000100 fd f1 c5 bd 26 1a 42 bd 65 f7 b8 3d 36 76 ef bc
       -0.09665296 -0.04738822 0.09031562 -0.029231172
000110 76 b0 31 be 44 b8 89 3d 2e bd d6 bd ad c6 3e 3e
       -0.17352471 0.06724599 -0.10485302 0.18630476
000120 da ec 6e 3c d5 96 4a 3e d9 2b 15 be 0e 5a 0f 3b
       0.014582837 0.197841 -0.14567508 0.0021873745
000130 5a a3 61 3d 8e 7b 16 3e 74 67 35 3e de c9 94 3e
       0.055087425 0.1469557 0.17715245 0.29060262
000140 9d 75 82 be 20 f3 67 be 6b 6a 03 bd a5 cc 7c 3e
       -0.25480357 -0.22651339 -0.03208391 0.2468744
000150 c7 b4 5a be 19 4a 44 3c 31 04 1b be 76 0f 8a bd
       -0.21358024 0.011980557 -0.15138318 -0.0674123
000160 39 f4 0e bd f3 60 ba bd 57 71 a6 3d fd a3 be bd
       -0.034900878 -0.09100523 0.081270866 -0.09308622
000170 58 9e 1f be 71 46 de 3d 76 34 aa bd 93 6e 61 be
       -0.15587747 0.108532794 -0.083107874 -0.22014837
000180 58 da 41 3c 77 09 8b 3d 85 82 3b be 83 0a 0b be
       0.011831842 0.06788915 -0.18311508 -0.13578229
000190 98 0a 39 3e 5b ae 65 be 4f 36 68 3e c4 25 82 be
       0.18070447 -0.22429793 0.22676967 -0.25419438
0001a0 d3 24 7b be a9 ae c8 bd 5c 9c 1b be 83 15 37 be
       -0.24525766 -0.09798939 -0.15196365 -0.178793
0001b0 05 34 86 3e a9 00 47 3d 2e c5 87 3d 78 10 65 3e
       0.26211563 0.048584614 0.06629406 0.22369564
0001c0 91 92 0c 3e 84 0a e4 3c d5 8a 19 be f8 5d 6c be
       0.13727786 0.027837045 -0.14994366 -0.23082721
0001d0 75 c6 23 be d4 bb 5b be b7 4a 80 be 74 07 67 be
       -0.15993674 -0.2145837 -0.25057003 -0.22561437
0001e0 2f 46 ba 3d 86 15 6c bd 83 07 17 be c0 67 14 3e
       0.09095418 -0.057637714 -0.14748959 0.14492702
0001f0 93 08 77 3d 11 49 b8 bd 24 21 d9 bd 81 a3 25 3d
       0.06031091 -0.08998311 -0.10602024 0.040439133
000200 48 a9 ca bd 2f e8 18 3d a5 b5 a5 3d 8a 69 c5 3d
       -0.09895569 0.037330803 0.080912866 0.096392706
000210 9d 78 ef bd 83 e0 84 3d fe a4 bd bd 95 02 a1 3c
       -0.11692927 0.06488135 -0.092599854 0.019654552
000220 5b 55 3a be eb 66 72 3d b3 2a 34 3e 55 d7 48 be
       -0.18196623 0.05918018 0.17594413 -0.19613393
000230 40 34 ca bd ef ad 50 be ef c5 31 bd 3d 21 59 3c
       -0.09873247 -0.2037885 -0.043401655 0.0132525535
000240 6c e7 19 be 49 0f 26 3e 73 e9 84 3e 2d 72 c9 bd
       -0.15029687 0.16216768 0.25959358 -0.098362304
000250 c1 77 34 be ad 7f 42 3b bd 72 ae bd 13 08 25 be
       -0.17623807 0.0029678151 -0.08517978 -0.16116361
000260 be c0 10 bd 1d 98 ae 3c 5d 75 5d 3e 17 13 81 3e
       -0.035340063 0.021312768 0.21626802 0.25209877
000270 07 cc bc bd f5 37 54 3b f0 20 ce 3d dc ee 00 3e
       -0.09218603 0.0032381986 0.10064876 0.12591118
000280 8c cd f6 3c 0c ed 59 3e ad f9 99 bd d1 10 cb bd
       0.03012731 0.21281832 -0.07518325 -0.09915317
000290 1c 26 87 bd 4f b8 65 3e cb 29 f2 bc 24 cb 43 be
       -0.06599066 0.2243359 -0.029560944 -0.19120461
0002a0 d6 d5 f6 3d 5f 2a ad 3d 30 a1 e6 3d ff c3 f6 bd
       0.12052505 0.08455347 0.11261213 -0.12049102
0002b0 84 a8 00 3e fe 30 41 3e 69 90 58 3e 05 3b f7 3d
       0.12564284 0.18866345 0.21148838 0.12071804
0002c0 91 a7 f0 bd b3 7a 4a 3e 52 4f f7 3b e9 af 47 be
       -0.11750711 0.19773369 0.0075472975 -0.19500698
0002d0 28 61 13 3e 12 7c bb bd 62 e9 f6 3d 7d 1c cc bd
       0.14392531 -0.09154524 0.12056233 -0.09966371
0002e0 ef f1 08 3e c6 49 7f 3e fd 60 33 3e 12 70 9a 3d
       0.1337354 0.24930486 0.17517467 0.07540907
0002f0 1e ff 1c be 00 51 cc 3d 4f 00 d5 3d 4c 5f bc 3d
       -0.15331694 0.09976387 0.104004495 0.09197864
000300 d5 fc 62 be c7 ac 38 be ed 06 50 be 30 fc 4e 3d
       -0.2216676 -0.1803466 -0.20315142 0.050533473
000310 9c f1 15 bc 7a 5c 54 be fe 44 2d 3d 6f 08 1f 3e
       -0.009151842 -0.20738402 0.042302124 0.15530561
000320 de dd 5d be 89 78 76 be 21 3e c7 3b 4a c0 01 be
       -0.21666667 -0.24069418 0.0060804044 -0.12671009
000330 c8 81 67 3e 80 a4 83 3e 87 04 16 be cc 34 32 3e
       0.22608101 0.2571144 -0.14650165 0.17402953
000340 a3 5c 86 3d 3b f1 0c be 4e 5b 21 3e 9e 17 30 be
       0.06560638 -0.13763897 0.15757486 -0.17196509
000350 a1 b2 36 be 94 b0 f6 3d 34 f5 bc 3c 12 15 72 be
       -0.17841579 0.12045398 0.02306614 -0.2364085
000360 0a 10 9e 3b 7e ed be bd c5 79 3e 3e f8 e0 ce 3d
       0.0048236893 -0.09322642 0.18601139 0.10101503
000370 7c a0 82 3e 25 f5 88 3c 56 93 1e 3e ff e1 88 be
       0.25513065 0.016718457 0.15485892 -0.2673492
000380 c1 33 1d be 38 e9 3b 3e 48 0a 6a be 05 8b 25 be
       -0.15351774 0.18350685 -0.22855484 -0.16166313
000390 ed 0b e5 bd ac d0 52 be 88 79 c5 3d e8 32 f8 3d
       -0.11183915 -0.20587415 0.09642321 0.121190846
0003a0 29 34 93 3c d6 a9 67 3e 5c dc ef 3d 7d b8 40 bd
       0.017969208 0.22623381 0.11711952 -0.04705094
0003b0 3d 93 f1 bd 10 5e 81 be fe 24 35 bc 00 37 48 be
       -0.117956616 -0.25267076 -0.011056183 -0.19552231
0003c0 ee 40 39 3e dc 29 6d 3d e0 b1 0f 3e e3 0b 86 3d
       0.18091175 0.05790125 0.14032698 0.06545236
0003d0 a6 f7 27 3e 02 9d b0 3d 1b f7 2f 3d 53 37 c6 bc
       0.16403064 0.08623697 0.042960268 -0.024196303
0003e0 81 a4 84 3e bc 42 24 be 80 e6 0d 3a d0 a5 d6 3d
       0.25906757 -0.16041082 0.00054130703 0.10480845
0003f0 0c b8 86 be 74 41 51 3e cf 23 29 bd ba 74 57 be
       -0.26312292 0.20435125 -0.041293915 -0.21040621

blocks.0.attn.proj_FacTs.weight f4 [16, 16]
000000 5c 7d 82 bd 6b f4 00 3e b2 a6 46 3e 61 f2 a2 bd
       -0.06371567 0.12593238 0.19399527 -0.07956386
000010 fc 30 0e 3d de db 32 bd ce e5 70 be 23 20 57 be
       0.034714684 -0.043666713 -0.23525164 -0.21008353
000020 77 24 a6 bd 7e 01 d9 bd b3 04 2d be a8 e4 ff bd
       -0.08112424 -0.10595988 -0.16896324 -0.124947846
000030 25 4d 57 be 59 af 40 be 6a f4 87 3d be 90 31 3e
       -0.21025522 -0.1881689 0.06638415 0.17340371
000040 62 d4 5c 3d 11 92 67 be e9 12 32 3e 9d 80 09 bd
       0.05391348 -0.22614314 0.17390026 -0.03356992
000050 a0 a9 93 3d d8 03 5e be 12 f5 54 3e 46 af ed 3c
       0.07210088 -0.21681154 0.20796612 0.029014241
000060 fd 57 1a bd 94 ff 73 bd 63 0a 1f 3d 27 ea 5a 3e
       -0.03768157 -0.05956991 0.038828265 0.21378385
000070 d8 eb 0f 3e 9a 27 69 3e a0 b6 e0 3d 24 1d 4b be
       0.14054811 0.22769013 0.10972333 -0.19835335
000080 c7 6b bc 3d 2f c2 90 3c 68 02 5e 3e 9a 4e 33 3e
       0.092002444 0.017670719 0.21680605 0.17510453
000090 20 5f 9e bd 7e 60 fb 3c 90 45 56 3e 8d e4 68 bd
       -0.077329874 0.03068566 0.20924973 -0.056858588
0000a0 d4 50 82 bd 6d b7 6a bd 84 a1 fd 3d 49 6a 27 3e
       -0.06363073 -0.057303835 0.12384322 0.16349138
0000b0 2b f8 31 3d d8 5b 85 bd af 3e fd 3c ee f5 63 3e
       0.043449562 -0.065116584 0.030913679 0.22261783
0000c0 d5 18 e5 3d d4 56 1d be 5f 53 56 3d 43 0a d1 3d
       0.11186377 -0.15365154 0.052325603 0.102070354
0000d0 26 52 41 be 1a 90 4a 3e dd 47 63 be fb 33 10 3e
       -0.18878993 0.19781533 -0.22195382 0.14082329
0000e0 9d 1a 21 bd 82 09 c0 3d bc 8e 44 be 02 b5 ab 3c
       -0.03933202 0.093768135 -0.19195074 0.020960335
0000f0 f3 49 62 3e 5b e4 1c 3e 81 38 0d 3e b8 b2 b7 3d
       0.22098522 0.15321486 0.13791086 0.08969635
000100 b5 ae 43 be 53 0b ca 3d 37 9b 3a be 7e 14 0e be
       -0.19109614 0.09865441 -0.18223272 -0.13875005
000110 8f 11 48 be fb 16 b2 bd 72 d7 44 bd 5b 9d 44 be
       -0.19537948 -0.086957894 -0.048057027 -0.19200651
000120 57 31 33 be b6 ba 6f bd 28 2b 08 3d 90 ac 17 3d
       -0.1749929 -0.05852767 0.033244282 0.037029803
000130 63 6a ff bd bb 00 36 be d7 de 9d bd 5b 21 54 be
       -0.124714635 -0.17773716 -0.07708519 -0.20715849
000140 a3 d9 eb bd 5c 2f 51 3e a5 38 3e 3e c2 f0 d3 3d
       -0.1151612 0.20428222 0.18576296 0.10348655
000150 b6 f1 1a 3e 9a 29 17 3e c0 db be 3c 2b b0 0b 3e
       0.15131268 0.14761963 0.023298144 0.13641421
000160 84 44 04 3e 62 a4 1f be 67 4d a4 3d 5c fe 8f bc
       0.12916762 -0.15590051 0.08022576 -0.017577343
000170 73 70 a9 bd bb bc 8b 3e 86 3b f0 3d 32 c7 85 bd
       -0.08273401 0.27292427 0.11730103 -0.06532134
000180 a1 20 0d bd 4c 5c 28 3e 5a e0 1c 3e 63 80 f5 3d
       -0.034454945 0.16441458 0.15319958 0.119873784
000190 5b ba 37 3d 67 a8 5c bc 08 ce 07 be 6e 4a 74 be
       0.044855457 -0.013467885 -0.13262188 -0.23856518
0001a0 3a e4 92 3c b5 47 e8 3d d0 c8 ec bd 80 3c 3b 3e
       0.017931093 0.11341802 -0.115617394 0.18284798
0001b0 da de 90 bd 78 3d be bd e6 b6 b2 bd a6 0a e8 3b
       -0.070737556 -0.09289068 -0.08726291 0.0070813475
0001c0 cf 59 69 bd 2f 9b 80 be ae a6 d3 3d f7 f9 cd 3b
       -0.056970414 -0.25118396 0.10334526 0.0062859016
0001d0 2e e8 fc bc 21 97 ff 3b dc 01 61 be 79 79 ba bd
       -0.03087243 0.0077999984 -0.21973366 -0.091052
0001e0 75 b3 60 be 5b 13 94 be f4 d6 73 bd 49 28 07 3e
       -0.21943457 -0.28921017 -0.059531167 0.13198961
0001f0 01 0a e9 3d 4b 0c 0e 3e c6 cf d9 bc 09 d8 94 3e
       0.11378861 0.13871877 -0.026588332 0.29071072
000200 6c 8c 46 3e fa 92 26 be ca 24 bc bd c3 d1 85 3b
       0.19389504 -0.16267005 -0.091867045 0.0040838434
000210 3a 73 58 3e 9b c8 d5 bd b5 f1 88 3e 1e 8b 6b be
       0.21137705 -0.10438653 0.26746908 -0.23002288
000220 bf 56 85 3e 86 88 ec 3d 54 c6 93 be 0b 54 4a 3e
       0.26042745 0.11549477 -0.2886225 0.19758622
000230 18 7c 81 be 01 e8 82 3e b6 ad b9 bd 68 01 3f 3e
       -0.2528999 0.2556763 -0.09066336 0.1865288
000240 e2 40 3a 3e 95 28 65 3d 8e 7e 4a 3e 5f 2b d5 bd
       0.18188813 0.055946905 0.1977484 -0.10408663
000250 5f c1 29 3c ca e0 1c 3e 03 4e bb 3d 8a 44 e4 bd
       0.010361045 0.15320125 0.09145739 -0.11145885
000260 5d 96 d5 bd db 9d 31 bd c1 f2 ad bd 82 8a 27 3e
       -0.1042907 -0.043363433 -0.08493567 0.1636143
000270 c1 36 4b be 24 06 0a 3e fd d8 85 be a8 9f 14 bb
       -0.19845106 0.13478905 -0.2614211 -0.002267817
000280 24 f5 1e 3b a3 8d 20 3e c7 6b 3e be d5 fd b4 bd
       0.0024255002 0.1567903 -0.18595801 -0.08837477
000290 6e 22 f5 3d cf c9 29 be b7 bf 16 3e 0c f5 ed bd
       0.119694576 -0.1658089 0.14721571 -0.116190046
0002a0 e0 e8 90 be 14 2e 4b be 70 c2 d8 3b 8a 1d 4d 3d
       -0.2830267 -0.19841796 0.0066149756 0.050077
0002b0 22 a7 42 3e 2a 68 57 be c6 a8 06 bb c8 68 8d be
       0.19009069 -0.21035829 -0.0020547374 -0.27619004
0002c0 4a 19 c8 bd 31 12 42 3e 0c ff 14 be 68 46 35 3e
       -0.097704485 0.18952252 -0.14550418 0.17702639
0002d0 ac 6d 41 3e a0 32 dc 3c e6 7e 76 3d f4 2f 38 3e
       0.18889493 0.026879609 0.060179614 0.17987043
0002e0 89 b0 3b 3e 91 0a de 3d c6 3f e3 bc 14 8b 5d 3d
       0.18329062 0.10841859 -0.02774037 0.054087713
0002f0 fb 0d 94 3d 78 fe 82 3e 57 43 24 be 43 1b 1f bd
       0.07229229 0.2558477 -0.16041313 -0.03884436
000300 74 9d 0f be 62 ed 13 3d 94 fd 75 bd 1b 48 dc bd
       -0.14024907 0.036115058 -0.060056284 -0.107559405
000310 1e 16 29 bd 21 ea a8 bc 4a 25 07 be a6 b7 d3 3a
       -0.04128086 -0.020619454 -0.13197818 0.0016152754
000320 ed 84 bb bd 29 26 16 bd c8 4d 0e 3e 28 42 f8 3d
       -0.09156213 -0.036657486 0.13896859 0.12121993
000330 b1 93 87 3e 06 9b 4d 3e 2b d9 34 be 6a 9c 12 3e
       0.26479867 0.20078668 -0.17660968 0.1431748
000340 bb 6f f2 bd 28 b2 81 3d cc 56 ba 3c 5e 40 37 3e
       -0.11837717 0.06332809 0.022746466 0.17895648
000350 72 84 14 3c fc bc aa bc ff b3 6f 3d c2 98 38 3e
       0.009064781 -0.020842068 0.058521267 0.18027022
000360 f2 0b 75 3e fa 8d 92 bd 1c 7f 83 3d 80 35 59 3e
       0.23930338 -0.07155986 0.064207286 0.21211815
000370 9a b7 39 3e f4 d6 86 3d e6 25 24 3e 8f 59 0b be
       0.18136445 0.06583968 0.16030082 -0.13608383
000380 ef 8c bf 3c 76 aa 2c 3e e3 e9 a0 bd 75 59 b1 3d
       0.023382632 0.168619 -0.0785711 0.08659641
000390 a8 1c a3 bd 1b 19 41 3d b8 43 90 be ea 85 b1 3d
       -0.0796445 0.047143083 -0.28176665 0.0866812
0003a0 b9 3d 20 3e 82 87 0a 3e 04 43 23 3e 3f cc 48 3d
       0.15648545 0.13528255 0.15943533 0.04902291
0003b0 02 ac 67 be 06 8b 91 be d2 e0 e8 3d 16 76 57 3e
       -0.2262421 -0.2842638 0.11371006 0.2104114
0003c0 4c 66 22 be cb eb 8d 3b 39 2d 00 3e 8f 1e 38 be
       -0.15859336 0.004331087 0.12517251 -0.17980407
0003d0 dd 28 02 be 28 32 ad bc 50 50 03 be b6 83 d7 3d
       -0.127109 -0.02114208 -0.12823606 0.10523169
0003e0 7a 52 d0 3d d4 88 2b be 0d de dd bd 5b c1 2d be
       0.10171981 -0.16751415 -0.108333685 -0.1696829
0003f0 b4 ba d3 bc 5e 56 18 3c 60 90 1c 3e 44 f3 0d 3e
       -0.025845863 0.009297935 0.1528945 0.1386233

blocks.0.mlp.fc1_FacTs.weight f4 [64, 16]
000000 d8 86 18 3e 35 6a 65 3e 83 34 13 be 46 a6 02 3e
       0.14895189 0.22403796 -0.143755 0.12758741
000010 c1 30 1a be 4d 21 47 3e 8a d6 02 be 32 ef 06 be
       -0.1505766 0.19446297 -0.12777153 -0.13177183
000020 25 92 9c 3c 61 8b 35 3e 7f 47 19 be b1 dd 8a be
       0.019112656 0.1772895 -0.1496868 -0.27122262
000030 b5 18 52 3e 74 b0 2a 3e 89 94 b3 bd 64 50 6f be
       0.20517237 0.16668874 -0.08768565 -0.2337051
000040 0f aa 49 be 12 af dd 3d 44 91 a8 3d 50 e0 90 bd
       -0.19693778 0.10824408 0.08230832 -0.07074034
000050 fc b6 43 3e 94 3b 8c bd c7 ab 57 3e ba 85 09 3e
       0.19112772 -0.06847301 0.21061622 0.13429919
000060 35 03 12 3e 3d 39 1f 3e b8 84 9c 3d 25 4b 7d 3e
       0.14259036 0.15549178 0.076425016 0.24735697
000070 84 ac 3d be 3f 6a fb bc a3 4d 6d be e9 dc 63 be
       -0.1852284 -0.03069031 -0.23174147 -0.2225224
000080 13 46 80 be 79 34 18 be 92 c6 0e 3e c0 34 41 be
       -0.25053462 -0.14863767 0.13942936 -0.18867779
000090 b3 7f 33 3d 1e 9d cf 3b e5 5a 8e bd 4a d3 8a be
       0.043822955 0.0063358685 -0.069509305 -0.27114326
0000a0 1d 7e 1a bd 5f 2a 2c 3e 10 9f 19 bc ea 4e e4 3d
       -0.037717927 0.16813038 -0.009376302 0.11147864
0000b0 49 58 23 3d 5b 52 b4 3d 8d 83 3a be 3d 54 82 bd
       0.039879117 0.088047706 -0.18214245 -0.063637234
0000c0 26 80 a0 bd 5b ad df bc a2 22 a6 3d b2 37 8f be
       -0.078369424 -0.027304342 0.081120744 -0.2797218
0000d0 62 8a bd bd ae fd e2 bd b8 74 65 3e 4f ce 2d be
       -0.0925491 -0.11083542 0.22407806 -0.16973232
0000e0 aa c3 4c 3e 3a cc 7a 3e 4d c7 b4 bd 30 ed 84 3e
       0.19996515 0.24491969 -0.08827076 0.2596221
0000f0 0d d5 fd 3c 3a 60 8b 3c fc 47 3e 3e f1 ab 85 3c
       0.03098538 0.017013658 0.18582147 0.01631734
000100 02 8e d1 bd ed 1b 0a bd ef e5 4f 3e 21 b8 2f 3e
       -0.10232164 -0.03371804 0.20302556 0.17160083
000110 a1 ca 03 3c f8 6c ed 3d 53 7b ff 3c 29 03 ef bd
       0.008043916 0.1159305 0.031186735 -0.116705246
000120 48 fc 7f 3e a5 9a cc bd a2 f3 df 3d bf 83 13 3e
       0.24998581 -0.099904336 0.10935141 0.14405726
000130 f0 9b ec bd 4f a5 7e be 3d bf 7d 3e 19 3b dc bc
       -0.1155318 -0.24867748 0.24779983 -0.026883649
000140 bc ee 47 3e 73 3c 82 bd b1 e6 12 3e a8 19 29 be
       0.19524664 -0.06359186 0.14345814 -0.16513693
000150 b8 11 82 ba 97 70 3d 3e a6 67 a4 3d ff c3 2d 3e
       -0.0009923493 0.18499981 0.08027582 0.16969298
000160 bc 59 2f bc 27 5f 88 be 42 f0 e1 bb 7f fa 40 3e
       -0.010702547 -0.26635095 -0.006895096 0.18845557
000170 8d 3f d2 3d 12 37 0c 3e ec c5 08 be 2e a2 a4 bb
       0.102660276 0.13692883 -0.13356751 -0.005024216
000180 e4 66 89 be 7a 63 1b be dc 77 1c be 69 2b 31 3e
       -0.26836312 -0.15174666 -0.15280098 0.17301716
000190 db 9c f0 3d f0 f7 5b be de 0b 1f 3e ce 84 31 be
       0.11748668 -0.214813 0.1553187 -0.17335817
0001a0 0b 16 5e be 5c 1c 90 3e 68 a2 88 3e 35 08 ef 3c
       -0.21688096 0.28146636 0.26686406 0.029178718
0001b0 75 60 d1 bd 2e 47 90 bd ff 91 41 be c1 1a be 3d
       -0.10223476 -0.070448264 -0.1890335 0.09282447
0001c0 f7 71 2f bd e9 bd 79 be b8 f9 44 be db bf 44 be
       -0.042833295 -0.24388851 -0.19235885 -0.19213812
0001d0 49 0e d9 3d c4 fa bb bd 95 8e 4c 3d 66 9b b8 3e
       0.10598428 -0.09178689 0.049940664 0.3605606
0001e0 16 ea a4 bd 36 31 97 b9 62 e7 b9 3d 81 9e 21 3e
       -0.08052461 -0.0002883763 0.09077336 0.1578312
0001f0 f7 86 5b bd 83 e0 aa 3d d2 8c ba bc 35 17 41 be
       -0.05359551 0.083436035 -0.022772226 -0.18856509
000200 d9 ea c1 bb 64 48 63 3e 7a 93 ce 3d c0 f3 12 3c
       -0.0059178886 0.22195584 0.10086723 0.008969247
000210 42 7a 17 3e e3 b0 c3 bc e3 74 3d 3e 42 bb 03 3e
       0.14792731 -0.023888057 0.1850162 0.12864402
000220 8e 26 67 3e 9a 88 82 3e 2c bc 51 3e c3 da 2f be
       0.22573301 0.25494844 0.20481938 -0.17173295
000230 27 8a bc 3d dc a7 8b bd c9 34 5d 3d 7e a7 67 3c
       0.09206038 -0.06819126 0.054005418 0.014139054
000240 78 69 f1 bd 0c a1 cd 3c 58 ba c9 bd ec 3b 1b 3e
       -0.11787695 0.025101207 -0.098499954 0.15159577
000250 73 d0 16 3e e1 cb 33 be 23 e3 70 be 2e d0 48 3c
       0.14727955 -0.17558242 -0.23524146 0.012256665
000260 d3 b1 83 bd 7c 9a 14 be 75 d4 2e bd 0f 05 01 bd
       -0.06430402 -0.14512056 -0.042683084 -0.031498965
000270 d1 10 63 3e 14 65 78 be 71 73 68 bd f7 ae 4f 3e
       0.22174384 -0.24257308 -0.05675072 0.20281588
000280 5a 67 4b 3e 4e 4f 79 bd 8c 99 f5 bd b5 86 73 3b
       0.19863644 -0.060866646 -0.11992177 0.003715915
000290 06 07 23 3e 85 50 7a be 57 42 f9 bd 91 d1 d6 bd
       0.15920648 -0.24444778 -0.121708564 -0.1048919
0002a0 9b e3 eb 3d 6f 7c 08 bd 1a b3 49 3e 07 06 46 3e
       0.11518022 -0.033321794 0.19697228 0.19338237
0002b0 ba 38 68 3e 97 4a 1c 3e 59 72 df bd b3 12 43 3c
       0.2267789 0.15262829 -0.10910482 0.011906314
0002c0 a0 97 92 3d 5f fd 93 bd bd 42 08 3e bf b8 22 3d
       0.071578264 -0.07226061 0.13306709 0.03972697
0002d0 41 35 12 be 71 36 52 3e e6 ac 99 3d 77 75 ef bd
       -0.14278127 0.2052858 0.07503681 -0.116923265
0002e0 af 00 70 3d 21 6e 50 be aa 30 d2 bb 2c b4 87 3e
       0.058594402 -0.20354511 -0.0064144926 0.26504648
0002f0 e4 7d 8e be 6f c2 8e be 64 46 5d be cd 53 b2 bd
       -0.27830422 -0.27882716 -0.21608883 -0.0870739
000300 92 db 6c 3e f4 3f 0e be 96 c8 b3 bd 20 09 7a 3d
       0.23130634 -0.13891584 -0.08778493 0.06104386
000310 f2 6a fe bc 02 28 a7 bd eb fd a3 3c 74 6b 4b be
       -0.031056855 -0.08161928 0.020018538 -0.19865209
000320 59 47 25 3e 06 59 b8 3d d9 11 06 3e 94 60 ec bc
       0.16140498 0.09001355 0.13092746 -0.028854646
000330 7a 23 4d bd ae f2 06 bd 4f f0 6a be e9 e9 13 be
       -0.05008266 -0.03294628 -0.22943233 -0.14444698
000340 b7 41 25 3e a6 a9 07 be 9f 34 b2 3d da e7 d4 3c
       0.1613835 -0.1324831 0.08701443 0.025989462
000350 00 9b 13 3e 0a 26 1f 3e a2 d6 0a be 59 f0 71 be
       0.14414597 0.15541855 -0.13558438 -0.23626842
000360 8f a1 cb 3d ec 9a 34 bd ed e2 0b be 6a 18 9c 3d
       0.09942924 -0.044093058 -0.13660784 0.07621844
000370 88 07 e6 bc 41 d0 73 be a6 24 64 be 42 89 0c bd
       -0.028079763 -0.23809911 -0.22279605 -0.034310587
000380 12 90 d9 bb 1e 98 43 be 8b c6 8f be 5a 67 b2 bd
       -0.006639489 -0.19100997 -0.28081164 -0.08711119
000390 c3 42 95 bd 0f 7d 44 3e 5c a0 93 bd fd b1 b3 bc
       -0.072881244 0.19188331 -0.072083205 -0.021935457
0003a0 29 e6 32 bd 05 32 c1 bc fd 4e 99 3c 86 c3 21 bd
       -0.04367653 -0.023583421 0.018714422 -0.039493106
0003b0 5f 51 28 be 82 6f 5b 3d db 14 01 be cd 95 9e bd
       -0.1643729 0.05357314 -0.12605612 -0.07743416
0003c0 35 6b 30 be a1 fa 75 3e 81 93 f0 3d e7 d7 02 be
       -0.17228396 0.24021389 0.11746884 -0.12777673
0003d0 3f b0 46 3e f9 b6 33 3c 9e 98 78 3d 2d f5 16 be
       0.1940317 0.010968917 0.060692422 -0.14741965
0003e0 30 a5 0c be 23 73 50 3e cb 2c ce 3d fc 7d 34 3d
       -0.13734889 0.20356421 0.10067137 0.04406546
0003f0 36 a6 ce 3c 93 36 5b be 1f a1 52 3e 69 93 40 3d
       0.02522574 -0.21407537 0.20569275 0.04701558

blocks.0.mlp.fc2_FacTs.weight f4 [16, 64]
000000 31 c4 12 3c 07 91 38 3d 8a 1b a7 3c 19 26 b6 3d
       0.0089579085 0.045060184 0.020398874 0.08893985
000010 47 e2 ae bd a0 e3 98 3d b8 6d c4 3c 1d 84 bb bd
       -0.08539253 0.07465291 0.0239781 -0.09156058
000020 9d e1 ae bd 8b b0 0d 3c 45 e1 82 39 c4 ec 1b ba
       -0.08539126 0.008648048 0.0002496337 -0.00059480616
000030 8a 5b 0b bd 2e 49 bf 3d 23 36 88 bc de 7f 7b 3d
       -0.034022845 0.0934013 -0.016627377 0.06140124
000040 8a e9 d0 bd af 26 39 bd 98 04 f0 3d 90 5d 23 3d
       -0.10200794 -0.045202907 0.11719626 0.03988415
000050 8c 9a 2c bd 1c 61 db bd b3 30 71 bb f9 21 11 be
       -0.042139575 -0.107118815 -0.0036802709 -0.14173116
000060 ba a1 c1 3d 72 d6 6a 3c c0 f1 02 3d 70 1c f2 3d
       0.09454675 0.014333354 0.031968832 0.1182183
000070 ee bf cd bd f5 f4 a1 bc f8 aa 04 3c 69 c1 1e bd
       -0.10046373 -0.019770125 0.008097403 -0.03875867
000080 80 2c f4 bd 72 db 1f 3e a6 88 e4 bd dd 53 a3 bd
       -0.1192255 0.15611055 -0.11158876 -0.0797498
000090 81 02 96 bd 07 f7 94 bd bc 7a c5 3d f2 18 bd 3d
       -0.07324696 -0.07273679 0.0964255 0.092332736
0000a0 46 ce 39 bd 2e 9d 18 3c 56 08 63 3d 91 d9 13 3e
       -0.045362733 0.009314818 0.05542787 0.14438464
0000b0 4a a6 66 3d a4 2d 9c bd fa f0 5b bc 76 f4 c4 3d
       0.05631093 -0.07625893 -0.0134241525 0.0961694
0000c0 e6 63 72 bd b5 6c 9e 3d 1e f7 8a 3c 21 7c 73 3c
       -0.0591773 0.07735578 0.016963538 0.014861138
0000d0 80 38 ff bb 70 91 f2 bd c3 41 ea bd e9 3b 98 bb
       -0.0077887177 -0.11844146 -0.11438324 -0.0046458137
0000e0 e6 9e ac 3d 43 50 66 bd 2d 91 50 3e 0a 44 65 bd
       0.08428745 -0.056228887 0.2036788 -0.05597309
0000f0 a4 39 fa 3d 36 cc 8e 3d b8 b3 c3 3c b5 82 50 3d
       0.12218025 0.06972544 0.023889408 0.050905902
000100 4d 2c b4 bd 6d c8 97 3d 59 34 07 3e 97 15 5b bd
       -0.08797512 0.07411275 0.13203563 -0.053487387
000110 64 3d 72 bd fd e8 c6 bd aa c9 b4 bd c8 56 9b bd
       -0.059140578 -0.09712408 -0.08827527 -0.075849116
000120 07 9a 32 3e df 5a ea bd 1a 98 30 bd ca 96 47 3d
       0.1744157 -0.114431135 -0.043113805 0.048727788
000130 f7 c9 fd bd c1 c8 d7 bd 1b ed 45 bd 18 55 15 3c
       -0.12392037 -0.10536338 -0.048321825 0.009114526
000140 4a aa 28 bd 98 43 e9 bd 60 02 09 3b 31 32 a9 bd
       -0.041178025 -0.113898456 0.0020905957 -0.082615264
000150 10 68 2c 3e 1b 37 bd 3d b4 e7 02 bd b6 cc f8 bd
       0.16836572 0.09239026 -0.03195925 -0.121484205
000160 7b d4 eb 3c ee 98 9e 3d c8 75 6d bd ca 56 93 bd
       0.028787842 0.07744013 -0.057973653 -0.07194288
000170 fa ca 96 bd c6 9d 9b 3d e3 df f3 bd 85 14 13 bd
       -0.073629335 0.07598452 -0.119079374 -0.03590824
000180 6c 6a 83 bd 08 ef 24 be 5b a6 ff 3c f3 04 c9 bc
       -0.06416783 -0.16106808 0.031207254 -0.024538493
000190 3c 92 d6 bd 69 6e 3b 3d 39 f9 aa bd 4d fb e1 bd
       -0.10477111 0.045759592 -0.08348317 -0.1103426
0001a0 46 12 41 bd 91 61 09 3e e6 16 8d bd e4 f0 d9 3d
       -0.047136568 0.13416125 -0.06889133 0.10641649
0001b0 dc 1f e3 bd d0 de c5 3d d9 5d 25 bc 7e 11 36 bc
       -0.11090061 0.09661639 -0.010093176 -0.011112569
0001c0 78 ae ee 3d 6e 58 69 bd 46 b8 c5 bd 33 de 4d 3d
       0.11654371 -0.0569691 -0.09654288 0.050260734
0001d0 fd 0d f9 3d 94 49 ea 3c 92 84 0d bd df 31 52 bd
       0.12160871 0.028599538 -0.034550257 -0.051317092
0001e0 c0 7d 85 bc 01 90 f9 bb 3a ab ab 3d c5 cb 8e 3d
       -0.016295314 -0.0076160436 0.08382268 0.0697246
0001f0 42 63 07 3e 86 54 6a 3d 1a ae fa 3d fc 54 d9 3d
       0.13221458 0.057209514 0.122402385 0.106119126
000200 74 0b 17 be c7 6a 4b 3d 7b 19 42 bd 8f 6b 06 3d
       -0.14750463 0.049662378 -0.04738758 0.03281742
000210 4b 22 1c 3e 39 df 9b bd 51 d8 a6 3d fd ea b5 3c
       0.15247457 -0.07610936 0.08146728 0.022206778
000220 ed fb a3 3c 1e a5 d5 bd cf 0d cf 3d 16 e2 b3 3d
       0.020017589 -0.10431884 0.10110056 0.08783357
000230 b3 23 1e be 08 1d 00 3b f3 6d 20 3d d0 9b 95 3d
       -0.15443306 0.0019548554 0.039167356 0.073051095
000240 88 77 45 bd 0d c4 33 bd dd ef 80 3d b0 33 d6 3d
       -0.048209697 -0.04388814 0.0629575 0.10459077
000250 cb 24 76 3d 81 25 14 3d 8b 51 25 bd 03 63 66 bc
       0.060093682 0.03616858 -0.04036097 -0.014061692
000260 9c a6 4d bd 56 ab 8f 3c b9 ab e3 bd bc 88 d3 3c
       -0.05020772 0.017537754 -0.11116738 0.025822036
000270 a6 c8 15 bd b7 73 41 3b df 51 d8 bd 77 a1 2e be
       -0.036568306 0.0029518434 -0.10562491 -0.17053781
000280 82 2d f8 3d 59 c5 a5 bd 85 b7 a2 3d 4d e4 e4 bd
       0.12118055 -0.08094282 0.0794516 -0.111763574
000290 cc 0a da 3c 50 a2 1e 3e 91 5f 23 3e 81 64 3a 3c
       0.026616476 0.15491605 0.15954424 0.011376501
0002a0 d9 47 8c bb 97 2d c7 bd 06 fe 45 bd 8b f0 03 3e
       -0.004281026 -0.097254924 -0.04833796 0.12884729
0002b0 e2 f6 f3 3c 2a c4 26 3d 5c 43 e3 3c c3 03 4e 3d
       0.029780809 0.04071442 0.02774208 0.050296556
0002c0 b8 7c b3 bb ea ad f6 3c 40 5d eb bd 1e 60 f6 3b
       -0.005477514 0.030112226 -0.114923954 0.0075187823
0002d0 7c 2a cb bd 7f 4c 42 3b 50 45 f9 3b 49 4a 16 3e
       -0.099202126 0.0029647646 0.0076071396 0.14676775
0002e0 1d db a7 3d 28 69 f9 bd 34 7b bf bd 80 42 eb bd
       0.081960894 -0.1217826 -0.09349671 -0.11487293
0002f0 1d 7b cf 3a 32 0c 12 3d d3 84 98 3d 5f 19 51 3d
       0.0015829537 0.03565616 0.07447209 0.051049586
000300 b1 c5 6c 3d 2b 02 a3 3c 4a 33 50 3d 9f 66 31 3d
       0.05780572 0.019898495 0.050830163 0.043310758
000310 5f 5c 00 3d 46 05 83 3c c0 bd 38 3d a6 a9 cf bc
       0.031338092 0.015993726 0.045102835 -0.02534945
000320 36 07 05 be 47 66 b0 3d 67 61 25 3d 5e f3 93 3c
       -0.12991032 0.08613258 0.040376093 0.018060382
000330 9f e8 ec bd f7 19 55 bc 8a 6a b1 3b d0 08 fe bd
       -0.115678065 -0.013006679 0.005414312 -0.124040246
000340 fe 9e 71 3d fa e2 d0 3b 5a fd 34 3e e1 b0 ab bd
       0.058989517 0.006374714 0.17674771 -0.08383346
000350 47 ad 08 bd 12 99 7c bd 6e 61 98 3c 49 48 18 3d
       -0.033368375 -0.061669417 0.018601146 0.03717831
000360 a6 bf 84 bd b3 fb a8 3d 8d 28 10 bc d8 b8 a4 bd
       -0.064818665 0.08251133 -0.008798731 -0.08043069
000370 b1 7f 77 3d 0d b3 90 3d e5 45 f7 bd 3a f3 10 3e
       0.06042451 0.07065401 -0.12073878 0.14155284
000380 f2 79 8e 3d f6 a5 10 3b d4 82 e2 bd 20 b2 f5 bd
       0.06956853 0.0022071577 -0.1106011 -0.11996865
000390 c7 de 09 bd 5e b9 f2 3b f5 e7 89 bd 64 8b 52 bd
       -0.033659723 0.0074073514 -0.067336954 -0.051402465
0003a0 8c a4 0f 3d 7f cd ac 3d b8 95 16 3d 28 c9 0a be
       0.035069034 0.08437633 0.036763877 -0.13553298
0003b0 e1 70 d8 bd 91 56 cb 3b c6 25 6c b9 44 6b 6d bb
       -0.10568405 0.006205388 -0.00022520786 -0.0036227265
0003c0 22 f8 64 3d ef 8f 89 bd cc f9 be 3d a3 f4 57 bd
       0.0559007 -0.06716906 0.09324989 -0.052723538
0003d0 7b 1b 37 bd 14 eb 8d 3c 98 5c c4 3c cd 4f fa 3d
       -0.04470394 0.017324008 0.023969933 0.12222252
0003e0 2c cb 87 bd 8b a0 07 3b 3b b8 ed bc 5d 9d 10 bc
       -0.06630549 0.0020695056 -0.029018512 -0.008826581
0003f0 17 74 d1 bd f5 87 21 be dc 87 22 bd 4e 15 7b bd
       -0.102272205 -0.1577452 -0.039680347 -0.061299615

blocks.1.attn.q_FacTs.weight f4 [16, 16]
000000 97 b2 79 bd d7 7b 21 bd e3 14 98 bd f0 d5 dc 3d
       -0.060961332 -0.039424744 -0.07425859 0.10782993
000010 23 79 37 be 1a 91 2b 3e 23 85 0c be ad cc c7 3d
       -0.17917304 0.1675457 -0.13722663 0.09755836
000020 38 b8 0c be 74 62 12 be 3d a1 5c 3c 13 c9 9d 3c
       -0.13742149 -0.1429537 0.013466177 0.019260919
000030 c6 49 83 3c 53 c7 8c bd 17 42 54 3d 01 cc 1e 39
       0.016026389 -0.068739556 0.05182084 0.00015144052
000040 7f c9 7e 3e b0 b9 44 bd ca ad 6e 3d 08 2c 63 bd
       0.24881552 -0.048028648 0.058271207 -0.055461913
000050 75 3d 48 be 65 59 7e be de 2f e1 bd 11 06 67 3e
       -0.19554694 -0.24838789 -0.10995458 0.22560908
000060 90 99 0b 3e f7 4c 15 3e 75 de 0a be f8 9f 97 3e
       0.13632798 0.14580141 -0.13561423 0.29614234
000070 28 81 57 3e a9 b2 71 be d8 b2 f5 3c 9c f9 29 3e
       0.21045363 -0.2360331 0.029992506 0.16599125
000080 4f 66 7a bd c6 eb 43 be 0e 31 17 be 18 3d cd bd
       -0.061132725 -0.19132909 -0.14764807 -0.10021418
000090 a9 79 df 3d bc 50 82 be 04 f7 5c 3d 2e af 97 be
       0.10911877 -0.2545222 0.05394651 -0.2962584
0000a0 cd 89 db bd b6 f1 13 3d 64 91 0f be 13 f5 2f be
       -0.10719643 0.036119185 -0.14020306 -0.17183332
0000b0 61 f3 37 3e e0 cd 43 bc ac fe 55 bc cb 6e 16 3e
       0.17963935 -0.01195094 -0.013061207 0.14690702
0000c0 f3 92 13 bd 7c 34 ed 3c 69 50 57 bc 35 0b 64 be
       -0.036028814 0.02895569 -0.01314173 -0.222699
0000d0 82 fc 54 3e 0d 5f e2 bd 6f 16 51 be 22 a1 2f bd
       0.20799449 -0.11053286 -0.20418714 -0.042878278
0000e0 d6 31 3f 3d e2 e2 1a 3e 4b 16 e6 bd 33 b7 1b be
       0.046678387 0.15125611 -0.11234721 -0.15206604
0000f0 dc 2d cd 3d 0f 6e 85 3c 4d e1 10 be 4f ef 95 bd
       0.100185126 0.016287832 -0.14148445 -0.07321035
000100 be ec 32 3e 00 21 78 3e 6e 4f a0 3d c9 52 03 be
       0.17473122 0.24231339 0.0782765 -0.12824549
000110 23 ee 2d be e9 ef 22 be 69 20 8a 3e cb ae a2 bc
       -0.16985373 -0.15911831 0.26977852 -0.019858738
000120 71 2c 1f 3e 50 e0 b1 3e ac 73 8f 3e 97 f5 65 3e
       0.15544297 0.3474145 0.28017938 0.22456966
000130 30 f2 20 be bd 2f 00 3e d9 57 b8 3c 26 61 c3 bd
       -0.15717387 0.1251821 0.022502827 -0.09540014
000140 11 6a 61 be ce ed 8c be 71 81 a5 bc 4d 91 12 3e
       -0.22013117 -0.2752518 -0.020203324 0.1431324
000150 dc 9d 06 be 9f 0b 96 3e 6b d1 22 3d 65 fd 1d 3e
       -0.13146156 0.2930574 0.039750498 0.15428694
000160 46 5e 7d be d6 8c 23 bd cd e1 56 3e a9 1a bb be
       -0.24742994 -0.039929233 0.20984574 -0.36543778
000170 c0 6a 19 3d 91 bb 3a be eb 1e 3b be ce 60 79 3e
       0.03745532 -0.18235613 -0.18273513 0.24353334
000180 4b fc a1 be ad 79 76 bd 69 a3 4d 3d c3 09 1d 3e
       -0.31637797 -0.060174633 0.05020467 0.15335755
000190 68 27 00 3e 03 5e 19 be c7 c7 a8 be a3 7b 11 be
       0.12515032 -0.14977269 -0.32964918 -0.1420732
0001a0 48 41 e9 bd 89 68 54 bd 68 f8 97 be 55 3f 52 be
       -0.113894045 -0.051857505 -0.29681706 -0.20531972
0001b0 f7 d9 30 3d 9f ef 82 3d cb e0 3f 3e 09 b5 0d bd
       0.043176617 0.0639336 0.18738095 -0.034596477
0001c0 60 bb 18 3e 83 f1 57 be 24 2d 44 bd f0 ce d6 3d
       0.14915228 -0.21088223 -0.047894612 0.10488689
0001d0 66 c8 1e 3e 43 eb a4 bd 80 7d a1 3e 3a 6e 1b 3e
       0.15506133 -0.08052685 0.3154106 0.15178767
0001e0 dc 31 fc 3d 2e 91 9e 3d 7c 0a d5 3d 75 dc 19 be
       0.123141974 0.077425346 0.1040239 -0.15025504
0001f0 dc 3b 8c 3e 14 8a 01 3e 0c f8 29 be 1e b3 4d 3e
       0.2738942 0.12650329 -0.16598529 0.20087859
000200 e0 02 49 3e 8c 76 27 3e 0b 94 23 be fd 20 4b bc
       0.19630003 0.16353816 -0.15974443 -0.012398002
000210 f8 84 23 be 8c f8 22 bd 90 68 ac be a2 59 13 be
       -0.15968692 -0.039787814 -0.33673525 -0.14389661
000220 f2 bd b6 bd 8e 4a 00 3e 65 fd 79 3d d0 1b 28 be
       -0.08922948 0.1252844 0.06103267 -0.1641686
000230 0e 00 a3 bc b3 fd 49 3d 9f b9 7f be 5a 77 01 be
       -0.019897487 0.049314212 -0.24973153 -0.12643185
000240 38 8c e2 bd 42 44 ac bd 78 bf 7a be ab c6 53 3d
       -0.11061901 -0.08411457 -0.24487102 0.051703136
000250 42 fc 9a be e6 b8 94 3d 4e c9 e0 bc c8 bc 11 be
       -0.30270582 0.07261829 -0.02743974 -0.1423217
000260 82 f5 01 be ee a6 83 be 5e 38 a1 3d b8 f8 90 be
       -0.1269131 -0.25713295 0.07872079 -0.28314757
000270 21 26 2d 3e 24 28 6d 3d 79 2f 18 3e 33 d4 e4 3d
       0.16909076 0.05789961 0.1486186 0.11173286
000280 48 88 9b 3d b9 d6 83 3e ab 0d 51 be 06 fb 19 be
       0.07594353 0.25749758 -0.2041537 -0.15037164
000290 f3 ab ea bd 64 77 3c 3b 5f b1 2a 3e 03 92 9c 3c
       -0.11458578 0.0028757686 0.16669224 0.019112593
0002a0 7a 5e 54 3e ea a6 75 3e 0d 17 aa bc 57 75 8c 3d
       0.20739165 0.23989454 -0.020762945 0.06858318
0002b0 ad ec 8f 3e 30 0e 10 3d 5e f0 fa 3d 91 41 1c bc
       0.28110257 0.03516978 0.12252878 -0.009537117
0002c0 60 1a a3 be 27 4e 3a be 75 bc 9e be e3 45 8a b9
       -0.3185606 -0.18193875 -0.31003156 -0.0002637348
0002d0 e7 cc 65 bd 93 cf ab 3d e9 e1 b1 3c 55 1c 6a 3e
       -0.056103613 0.08389201 0.021714168 0.2286237
0002e0 e3 bb 26 be 62 bb a0 3d 9b 62 2d be a8 14 00 3d
       -0.1628261 0.078482404 -0.16932146 0.0312697
0002f0 a5 f1 0d 3e 95 11 83 3e 5e a0 00 3d 54 80 d8 3d
       0.13861711 0.25599352 0.031402938 0.10571352
000300 0b a3 9b bc 07 43 05 bd 92 93 42 be 76 bc 08 3e
       -0.018998643 -0.032534625 -0.19001606 0.13353142
000310 ac aa d5 3d 6e cb b9 3d 1c 0f 94 bc 61 3f ed 3d
       0.10432944 0.09072004 -0.018073611 0.11584354
000320 1a 10 1e 3c 3f a2 29 be a7 76 a3 3d a2 c7 a1 3d
       0.009647394 -0.16565798 0.079816155 0.07899405
000330 1d 6f 2f 3e 24 2c bc 3d be 53 06 3e 7d 94 31 3e
       0.1713223 0.09188107 0.13117883 0.173418
000340 e6 a9 74 be c5 b0 06 3b 40 77 de bd 6d 10 26 3e
       -0.23892936 0.002055214 -0.10862589 0.16217203
000350 78 f4 7e 3e d9 ce 66 be dd 6b 1d 3e 51 0f 24 be
       0.24897945 -0.22539844 0.15373178 -0.16021468
000360 90 70 14 3e d0 9d 13 3e ef 5d 70 3b dc 34 e6 3d
       0.14496064 0.1441567 0.0036677083 0.11240551
000370 e9 79 ee bd 41 78 60 3e 6a 4c a2 bc df 78 a4 3d
       -0.11644346 0.21920873 -0.019811828 0.08030867
000380 84 47 49 3d bb f1 71 be 4b 5c 22 bc 73 26 4b 3b
       0.04914047 -0.23627369 -0.0099097 0.003099826
000390 90 02 d6 bd 0d 3a 08 3e ae 0a 62 be 85 f0 62 3d
       -0.104497075 0.13303395 -0.22074386 0.05540516
0003a0 0a 35 26 3e 3a 9f 82 be 01 26 3d 3e cd 4f 35 be
       0.1623117 -0.25512105 0.18471529 -0.17706223
0003b0 f8 b5 09 bd 88 b0 16 3c ea ad 06 3e 7d 04 71 3e
       -0.033620805 0.009197362 0.1315228 0.23536868
0003c0 1a 94 df 3c a1 b2 1a be 7f 50 8c 3d ef 91 13 be
       0.0272923 -0.15107204 0.06851291 -0.14411138
0003d0 81 13 81 3d bd 7f 05 bc a4 53 de 3d d2 26 86 3d
       0.06302548 -0.008148131 0.10855797 0.06550373
0003e0 03 07 22 3e b4 97 d1 bc 15 03 9f 3d ce 93 9c 3d
       0.15822987 -0.025585033 0.0776426 0.07645379
0003f0 ff 6b 30 3e 1c cd 27 be 2f eb 23 be e2 45 71 be
       0.17228697 -0.16386837 -0.16007684 -0.23561814
