Final Project/FacT-TT/dsprites_ori_best.pt (torch, 317185 bytes, 76 tensors)

blocks.0.attn.q_FacTs.weight f4 [16, 16]
00000000: b2aa 053e c359 c7bd bfa1 283e a5e7 9a3e
00000010: 6b16 d7bd c19c 7f3e 1737 56bd a89a e03d
00000020: cf04 7e3d fde8 863c 03b2 c4bd dbd9 41bb
00000030: 6a50 0abe 350b 053e bd4c 8dbe 2905 ecbd
00000040: 246a 723d b3d6 1dbe 1fae 0e3e 1541 ca3c
00000050: c7f4 903d 6992 023e 8858 a13d 10bd 5d3b
00000060: c94a 08bd 77a9 d43d 04f4 383e 4175 2abe
00000070: f221 ebbd d513 33be ebde 7abe 9192 6bbe
00000080: 6a3f be3e 9fd0 7f3e 57f2 783e 8413 07bd
00000090: 6c85 7c3e 0063 4cbe b2a6 453b 868d ffbd
000000a0: 30f5 95bd 8023 73bb 0ada 5ebe c69e 3bbd
000000b0: b254 82be 7604 3d3e de8e 1fbe e0d6 753d
000000c0: 6ac9 aa3e 827d 9b3e c0eb 50be a19e 053e
000000d0: ecd4 6d3d bb45 d13d c822 14be a0de c0bd
000000e0: f2c4 d8bd a402 ecbd f411 bf3d 531c d7bc
000000f0: 4f64 96be 4e74 9cbe c90f 45be 3f20 73be
00000100: 5e96 4fbd 466b 74be 5d37 143e 52fd 7fbe
00000110: afd2 b53e 82d1 993e 1dad 1e3d d8e3 c5be
00000120: a950 83bb 2ddc dfbe 1b77 e23e fd27 5b3e
00000130: 2fa2 9d3e f83c 963e 3ec3 52be f6c3 fc3d
00000140: 4bac ad3c 3ae8 953a 5e96 6dbd 396f 6a3e
00000150: a145 3dbd 389b 39bd a419 8ebe 7a27 a93e
00000160: cfdc 623e 7db1 743e 2acd 10be 9cd5 f53d
00000170: e325 90bd 2b53 f6bd fd1f 6a3d 7dff 9dbe
00000180: 4873 8ebe e9e1 1e3e c9cf 403c 88aa 493d
00000190: 13ea f6bd 5b4f 6fbd e896 78be 1c4f 1cbe
000001a0: 974f fc3d 4d77 243e d050 ffbc 4ba4 40be
000001b0: 0209 383e 0c70 033e c7b9 e8bd 4ae5 07ba
000001c0: 60ad d53c bcb5 40be 9555 e93a 3804 10bc
000001d0: b8e2 b7bd 63b3 3c3e f4c2 c93e 4f62 5c3e
000001e0: 24cf 4bbe 4056 3d3e be55 1cbd 94a3 333e
000001f0: 3c53 323e fe38 01be 0131 5dbe c553 66be
00000200: 1f34 58bd c3f7 213e 82d5 c9be 291a 89bd
00000210: 6e29 4ebe f468 8fbe b981 7d3c 2ec1 16be
00000220: 8abb 443e 6cc1 d73e b42e 20be fb9f 7f3e
00000230: 83a1 9c3d 6df0 12be 1211 9f3e 2bc6 0c3d
00000240: a964 d13d 13d8 aebd d0da 87be 8bd6 a6bd
00000250: 7697 8ebe 62e6 25be 38cb 353e 91e1 ee3c
00000260: 7ce1 fdbc be3d 5d3e 4229 42be 508d c83e
00000270: c651 8fbe bdea e8be 51da 9b3e 7bd8 d8bd
00000280: a15f 813e 1b10 b9bd 3ae3 b53d d239 423e
00000290: 99f8 0d3d a683 f1bd 68be d23c bcdb 02be
000002a0: fcdf 9abb e967 a73d 77bd 723c 97d7 4e3e
000002b0: 0c6b 9bbe 67b5 76bd d50f 7b3e 1857 c83c
000002c0: e8c8 7bbc 6efb 32bd e0ec 763e 7e05 a4bd
000002d0: 2b1a 683d 8641 983d 5e17 d2bd 275a 783e
000002e0: 4ed7 c93d 8db6 a33b 245a 1f3e 988a b23d
000002f0: 9d51 8fbd 1912 4bbe 759c 48be 770d 993d
00000300: 18d4 83be 8dbf c1bd f47b 863e 239b 213c
00000310: 9f15 cf3d f799 e13d 5c22 b2bb 8808 d3bd
00000320: d905 ce3e 5423 98be 6ca9 40bd 78dc cfbc
00000330: 69a1 ff3c 6a4d 4b3e 72ff 15be 6345 72bd
00000340: 3139 94bd 0cf0 00be 3557 be3e 7bde 3ebd
00000350: faed 303d 9bd2 9a3e 6d73 8cbd 0550 d4be
00000360: 2421 86bd 4588 a3be 83aa d13e 41fd 21be
00000370: 9fd2 4e3e f024 ab3e 7633 48bd 4b60 b03e
00000380: 677e 473e 15c1 3f3d 9e9d 8bbe 67c9 abbb
00000390: c6d3 a0be 1890 83be 8320 adbd 4207 2abb
000003a0: 18d6 1ebd 5204 ce3a 6ff0 c4be 0804 a53b
000003b0: 8299 d6bd 67b3 61be 5672 9b3d 9774 37be
000003c0: 3eee 723d 0041 9e3d 171d 213c 1a2e 513e
000003d0: 326a 0fbe f4e3 033c 4dd5 15be 1a6a 543e
000003e0: 6a39 03bd b6f3 903d d424 75be dae4 5ebd
000003f0: be8a 09be 56af eabd 799a d33d 450b 0fbe
0.13053396 -0.097339176 0.16467951 0.30254856 -0.10502323 0.2496214 -0.05229863 0.10966998
0.062016305 0.01646852 -0.096042655 -0.0029579315 -0.13507238 0.12992556 -0.2759761 -0.11524422
0.059183255 -0.15413933 0.1393361 0.024689237 0.070779376 0.12751164 0.07878214 0.0033834614
-0.033274446 0.10383885 0.18061835 -0.16646291 -0.11481084 -0.17488034 -0.24499099 -0.2300513
0.37157756 0.24981926 0.24311195 -0.032977596 0.24660271 -0.1995964 0.0030159173 -0.12478165
-0.073221564 -0.0037100017 -0.21762863 -0.045805715 -0.25455242 0.18458733 -0.15581843 0.060019374
0.33356792 0.30369192 -0.20402431 0.13048793 0.058064386 0.10218378 -0.14466393 -0.09417462
-0.10584439 -0.11523941 0.09329596 -0.026258623 -0.29373404 -0.30557483 -0.19244303 -0.2374277
-0.05068051 -0.23869047 0.14474244 -0.24998978 0.355123 0.30042654 0.038739312 -0.38650393
-0.004007418 -0.43722668 0.44231495 0.21401973 0.307878 0.2934339 -0.20582291 0.12342064
0.02120032 0.0011437007 -0.05800473 0.2289399 -0.04620898 -0.045314044 -0.27753937 0.3303793
0.22154544 0.23895831 -0.14140764 0.120036334 -0.07038476 -0.12027582 0.057159413 -0.30858985
-0.27822328 0.15515865 0.01176829 0.049234897 -0.12056365 -0.05842529 -0.24276316 -0.15264553
0.12319868 0.16061135 -0.031166464 -0.18812673 0.17972186 0.12835711 -0.11363559 -0.0005184008
0.026083648 -0.18819326 0.0017801995 -0.008790068 -0.0897879 0.18427806 0.3940655 0.21521877
-0.19903237 0.18489933 -0.038167708 0.17542869 0.17414564 -0.12619397 -0.21600725 -0.22492893
-0.05278408 0.1581717 -0.39420706 -0.06694443 -0.20132992 -0.2800976 0.015472823 -0.1472213
0.19212165 0.42139757 -0.15642816 0.24963371 0.076479934 -0.14349528 0.3106771 0.034368675
0.102242775 -0.08537307 -0.26534128 -0.081463896 -0.2784993 -0.16201165 0.17753303 0.029160293
-0.030991308 0.21605584 -0.18961051 0.39170313 -0.27992076 -0.4549159 0.3044 -0.105881654
0.25268272 -0.09036275 0.08881231 0.18967369 0.03466091 -0.11792688 0.025725558 -0.12779135
-0.004726408 0.08174116 0.01481568 0.20199428 -0.30355108 -0.060231593 0.24517758 0.024455592
-0.015367724 -0.043696813 0.24113798 -0.0800886 0.05666558 0.074343726 -0.10258363 0.2425314
0.09855519 0.004996127 0.1556173 0.08717841 -0.069979884 -0.19831122 -0.19590934 0.07473271
-0.25747752 -0.094603635 0.26266444 0.009863648 0.10111546 0.110156946 -0.005436225 -0.103043616
0.40238836 -0.29714453 -0.047036573 -0.025373682 0.031204896 0.1985375 -0.14648226 -0.059148204
-0.07237471 -0.1259157 0.3717591 -0.046598893 0.043195702 0.30238804 -0.06857953 -0.414673
-0.0654929 -0.31939903 0.40950403 -0.15819265 0.20197533 0.3342662 -0.048877202 0.34448466
0.19481812 0.046814997 -0.2726869 -0.005242515 -0.3141157 -0.25695872 -0.08453467 -0.0025944267
-0.038778394 0.001571784 -0.38464686 0.005035881 -0.10478498 -0.22041093 0.07590167 -0.17915569
0.059309237 0.077272415 0.009833596 0.20427743 -0.14005354 0.008049954 -0.14632149 0.207436
-0.032037176 0.07077734 -0.2393983 -0.05441747 -0.13431832 -0.11459224 0.10332198 -0.13969143

blocks.0.attn.k_FacTs.weight f4 [16, 16]
00000000: ce28 67be 7489 74be 676c 933d f071 593e
00000010: 3f81 a13d 70d8 b23e 7a3d 603e d6e6 8abd
00000020: 02a6 5d3d ec44 e4bd 7f6a 9b3e 6de1 0ebf
00000030: 5d03 77bd a4aa b33e 798d 5abe ab0c e33d
00000040: 90e3 3f3e ca4a 1b3e 247f 8fbe c390 a8be
00000050: 4d63 5e3d 9b04 82be 9fd0 70be 8f65 c73c
00000060: 56d3 20bc 8766 2fbe 4fef 25be 2ec1 363e
00000070: 6f6d 3fbe 92bb 3e3d b41d 2ebc eb37 603e
00000080: 354c 283c bf2a 0b3e ee9c 01bc 959c bfbd
00000090: 8944 803e 023e 70be 9809 65bc 2e06 97be
000000a0: c378 59be d73a 083e e23c 86bd b28d 313e
000000b0: 23ea 78be 4c3c 093d 654e b4bd caa5 b3bd
000000c0: 0a2e 8dbd a44b 3c3d c517 9bbe caf5 c7be
000000d0: 3860 1f3d 978e 60be 6995 18be b86a e6bd
000000e0: 5d79 98bd da2d 823d 2433 5abe fb59 4fbe
000000f0: 6b18 72be 07c5 01be 6d5d 433d 3037 e33c
00000100: d612 6ebb 9ff7 76be 6a2a 07be 8b29 0cbe
00000110: 20ef 4b3d e44e 76be 52fe bcbb b1cd cc3d
00000120: f416 20bd 95ed 003d b4e3 83be 3d03 0dbe
00000130: b9c4 36be 76f6 a0bd 99f3 68be f7d1 adbe
00000140: f59e 223e a603 8d3d ed6a 63bc 2add b83e
00000150: e8ed 6a3e 5de8 39bd 3008 eabc 4e7d a2bd
00000160: ca3b 10be 3327 e23d 4252 053e 198a d03d
00000170: 6f6c 223e b056 503e 8ff6 08be ef69 9f3d
00000180: 552e 223e e6cb 493d 4dcf 63bb 61a5 123e
00000190: 3a3e 0d3e 924a 8d3d d95c ccbd c893 633e
000001a0: 878b 1fbe c1a1 66be 01ed d2bc 043f a03d
000001b0: f683 74bd 6757 3e3e b2d5 3abd c261 0abe
000001c0: f8c6 57bd c8ea 10be 0ca7 9b3e 50e4 2c3e
000001d0: 327b f83d 3076 873d 9cea 2c3e 43ce 083e
000001e0: 636d 913d a27a 5c3d f94e b43d 11be 50be
000001f0: c1d1 56be 1cc8 c03d 73b6 8a3d acfd 5cbe
00000200: 32e6 053d 305f 4fbe a7ef 02bd de3a 893e
00000210: ba84 1fbe 6c49 de3c c8e9 203e 07c1 7ebd
00000220: 7e75 953e f6ec 27bd 5039 b23e ae10 9d3e
00000230: a3f4 88bd 5955 a33e 84a0 c73d 9a48 613e
00000240: e787 543e 7238 9dbe dc75 4d3e a4c2 833e
00000250: 35e8 d63d b7db cc3e 0f76 843c 9c87 b4be
00000260: fd61 7f3e ea1b 19bd a422 c93d 19a0 02be
00000270: db1a 5fbe dc6e 77bd 5041 0f3d 3e9e 9a3e
00000280: 3eaa 06be ef68 87be 5c76 a83e 1ddf 923e
00000290: 8599 493e b89d 9a3e 01bb be3e ed21 d13d
000002a0: 4ac6 a23e f285 5e3d 3cdc d93e 4fdf f7bd
000002b0: 4bad 3c3a 3b34 fb3d 6ae8 6cbd 937a ad3e
000002c0: d6ab eabc 64cd 793d 9699 153c 3398 1b3e
000002d0: 642c 49be 4c85 7cbe d717 60be dfea e43d
000002e0: 4ebb 81be d9f5 033e 4ea2 3bbe b202 0abe
000002f0: 99a1 09be 033d c53c 5f74 993e 9b43 203d
00000300: f193 cabe 45d5 81be 78e8 0bbc 6555 1bbe
00000310: 9a7e bfbd bfc4 ae3d 8ff1 13bd 9d1b b13c
00000320: a98f fabd 2d61 663e 7b5f 993e 48a4 cbbd
00000330: 7c15 913e ab64 593e 10c5 593e 7108 7c3e
00000340: b594 ddba 76b0 343e 4a17 2c3e 9a59 83be
00000350: eda3 43be 7d8a 8abd 71e6 8cbe 8666 b2be
00000360: f28b 003e b8a6 673e 985c 943c 753e 8bbe
00000370: 8d68 88be 6d76 a13d 1712 173e 584c be3d
00000380: 8c35 62ba d46d dd3d c2fe 1e3d 85b8 a83e
00000390: 38ce 4b3e 7c7d 863e c2a8 933e c24c c2bd
000003a0: d41e 0c3c 50fa 71be 2db2 01be 3a0b bebd
000003b0: 00d8 91be 960f a7bc 906d 09be 345c c03e
000003c0: 7e57 25bc 011a d6bd 5b9d 3f3d 2237 b6bd
000003d0: 2855 863d 4ce1 95bc c5e3 88be fae1 d3bb
000003e0: 79d2 16bd 2911 0d3e da1a 47be 08e7 4c3e
000003f0: aa6e 0fbd 5bb0 23bd d0d4 8a3e 88fe 55be
-0.2257416 -0.23880559 0.071984105 0.2123487 0.0788598 0.34930754 0.21898451 -0.0678231
0.054113396 -0.11145958 0.30354688 -0.5581272 -0.06030594 0.35091126 -0.2134303 0.110864006
0.18739152 0.15165249 -0.28026688 -0.32922944 0.05429392 -0.2539414 -0.23517083 0.02434042
-0.009816011 -0.17128955 -0.1620457 0.1784713 -0.1869409 0.0465656 -0.010627199 0.21896331
0.010272075 0.13590525 -0.00791095 -0.093560375 0.25052288 -0.23461154 -0.013979338 -0.29496902
-0.21237473 0.13303696 -0.06554581 0.17339209 -0.24308066 0.03350477 -0.08804015 -0.08771856
-0.06893547 0.045970574 -0.30291572 -0.3905471 0.03891012 -0.21929394 -0.14900745 -0.11250824
-0.07445023 0.06356402 -0.21308571 -0.20249169 -0.23642127 -0.12672816 0.04769652 0.027736276
-0.0036327145 -0.24117897 -0.13199773 -0.13687722 0.049788594 -0.24053532 -0.005767622 0.1000017
-0.03908439 0.031476576 -0.2575966 -0.13770767 -0.17848481 -0.07859509 -0.22749175 -0.33949253
0.1588095 0.068854615 -0.013880474 0.36106235 0.22942317 -0.045387615 -0.028568357 -0.07934056
-0.14085308 0.11042633 0.1301966 0.1018259 0.15861677 0.20345569 -0.13375305 0.07783877
0.15837987 0.04926672 -0.0034761012 0.143209 0.13793269 0.06898989 -0.09978647 0.22224343
-0.15580569 -0.22522642 -0.025747778 0.07824519 -0.05969616 0.18588029 -0.045613952 -0.13513854
-0.052679986 -0.14152062 0.30400884 0.1688397 0.12132873 0.06614339 0.16886371 0.13359933
0.07100942 0.05382789 0.08804125 -0.20385005 -0.20978452 0.09413168 0.06773081 -0.21581143
0.032690234 -0.20251155 -0.03196683 0.26802725 -0.15577975 0.02713462 0.1571418 -0.062195804
0.29191202 -0.040997468 0.3480935 0.30676788 -0.06687286 0.31901053 0.09747413 0.22000352
0.20754968 -0.30707127 0.20064491 0.25734437 0.10493509 0.4001138 0.016169576 -0.35259712
0.24939723 -0.037380137 0.0982106 -0.12756385 -0.21787588 -0.060408458 0.034974396 0.30198854
-0.1315088 -0.26447245 0.329028 0.28685847 0.1968747 0.30198455 0.37252048 0.10211549
0.31791908 0.05432696 0.42550838 -0.121031396 0.00071974535 0.122658215 -0.057838835 0.3388258
-0.02864639 0.06098689 0.009130856 0.15194778 -0.1964584 -0.24660224 -0.21884094 0.111776106
-0.25338215 0.12886752 -0.18323633 -0.1347759 -0.13440551 0.024076944 0.29971597 0.039126974
-0.39565995 -0.25358024 -0.008539312 -0.15169294 -0.09350319 0.0853362 -0.03611904 0.021619612
-0.12234432 0.22498007 0.29955658 -0.099434435 0.28336704 0.21229808 0.2126658 0.24612595
-0.001690528 0.1764544 0.16805759 -0.25654298 -0.19105501 -0.06764696 -0.27519563 -0.34843844
0.12553385 0.22622192 0.018110558 -0.27196088 -0.26642266 0.07883916 0.14752994 0.09291905
-0.0008629195 0.10811964 0.038817175 0.32953277 0.19902885 0.26267612 0.2883969 -0.09487297
0.008552272 -0.23630643 -0.12665625 -0.09279485 -0.28485107 -0.020393174 -0.13420701 0.37570345
-0.010091661 -0.104541786 0.046780925 -0.088972345 0.06559211 -0.018295906 -0.26736274 -0.0064661475
-0.036821816 0.13776077 -0.19443837 0.20010006 -0.035017647 -0.039963108 0.27115488 -0.20897877

blocks.0.attn.v_FacTs.weight f4 [16, 16]
00000000: 7945 083e fde7 8f3e 69fa 91be 8ecf 163e
00000010: 55d1 90be e589 bc3d ee60 f03d 0217 8bbd
00000020: 63b3 80bd 01f1 663e 6788 1ebe f989 ad3d
00000030: 33f6 08be 8e54 0dbe 6c5e 973a fb35 4cbd
00000040: dc98 59be 1b7a 293c d037 413e 468e 1c3e
00000050: a45a bb3c a672 17be e08b 5f3e 2b82 dfbd
00000060: 2c73 39bc f7e8 70be 844b 9a3d c2af 893e
00000070: 81e6 4f3e 6ce1 3b3e 0874 85be 4828 1a3e
00000080: e3a1 6a3e e4a1 e6bd 5437 353d f211 05be
00000090: bdb8 813e 5030 383e 6559 c9bd 7deb 963d
000000a0: c400 1a3e 4586 6c3c a10a d7bc dbd3 bebd
000000b0: 6ff2 903d 0d45 213e 2213 e6bd 1260 953e
000000c0: ec3e eb3d 65b7 34bd 8704 443d bfbc 003d
000000d0: 91bf 153e e901 2fbe fd96 293b 088b 34bd
000000e0: 3839 76be 729f 413c 800c 13be 7ef6 97be
000000f0: e9e4 733e af63 22be b1f3 71be de04 fa3d
00000100: 78d3 98bd 6b65 62be e693 cb3d ec53 a83d
00000110: 06dc 25be 7825 ff3d f4a5 58be 93c6 8b3e
00000120: ecff 013e 68f1 2a3e e970 37bd ab24 023d
00000130: 91fe 253c 2db4 f33d 956d 983e 2287 713e
00000140: 5c20 96be 14ff 17be 46b1 ebbd 810c 5f3e
00000150: 776f 65be 1bbf 6dbd b85c 27be 8ec8 a4bc
00000160: e95e d6bb ee25 afbd 4ae7 193d bb94 6dbd
00000170: 3ee1 05be cc4b a13d 1195 79be b93e 93be
00000180: 3fc4 c63d a0dc 9b3d fff4 3bbe 8f4a ddbd
00000190: 7416 843e 2b4e 43be ea2d 6d3e 50f6 a9be
000001a0: 2c5e 32be fa6f 24be dbb2 27be 4165 b1be
000001b0: 955b 693e 98f0 803d 1d87 3d3c 2fe0 763e
000001c0: e2f9 c63d e6dd 083e c4d2 e6bd 0396 74be
000001d0: 5a1e 79be 2723 9dbe d180 9abe 334b 14be
000001e0: db90 263d c9b7 01bc fd99 58be fe61 c43d
000001f0: 8b26 0c3e ecf3 2fbe 03d0 2fbd 2b5a 313d
00000200: 4dd7 97be 4bcd 943d 1502 5ebd 07df 1bbd
00000210: 49f1 4ebe 13de 62bd 1612 d4bd bffd 2b3e
00000220: f195 8abe 5484 8f3d d80b dd3d 20bd 82be
00000230: 6d18 c3bd c363 7cbe 7a2f 303d 7f44 38bd
00000240: 88bc a7bd 1b7c 473e ff5e 593e 346c 68bd
00000250: 2d62 52be 7003 c1bc db4d 2fbe d5a4 43be
00000260: 7083 7cbd 0bc9 923c 2b95 5c3e a4c5 983e
00000270: 4145 1ebe 2892 10bd fd62 853e 233d 003e
00000280: 6707 d93d 4560 803e de53 4e3d 7890 07bc
00000290: a3fa 1ebe dee4 633e d0f4 a9b8 fb3c f73c
000002a0: fa73 253e 0c1b d33d 126e 723d 5be3 35be
000002b0: 0030 d13d 7200 693d 58ae fb3c 9490 bc3d
000002c0: b651 9abd 40df 403e 4116 7e3d 4322 45be
000002d0: 1bfc 2f3e d0ab 05be 4814 4c3e 15bd a6bc
000002e0: f167 6a3e 7670 663e 4a1c 213e c2af d43d
000002f0: b1cb ebbd 8aab 0e3e dd52 243d d4d9 023e
00000300: f6d1 98be 4c72 0ebe 7551 8dbe 7c6b 363d
00000310: 923b 0abe 1f03 74be ba26 983d 2e7b 883e
00000320: 8899 62be 0deb 52be 3d8d 03bd cecf 82be
00000330: 7662 823e f771 623e 0c3c d9bd 2aec f93d
00000340: a501 1a3e 47fb 4bbe ec60 633e 0325 51be
00000350: 7107 08be 771d c93d 6e26 ac3b 5141 c2be
00000360: a53d 38bb 7616 20be e1f9 233e 33da 5f3e
00000370: e0a1 173e ffc9 913c d89f 1b3e d13b 14be
00000380: f85d c9bd e8b2 593e 6f62 3fbe 88ba 88bd
00000390: ccdf c1bd ea25 7bbe 1eab 0d3d cc3e 993e
000003a0: 65e5 523b fb97 893e 4375 bf3d 728a 91bc
000003b0: 5fd6 cdbd 2b77 89be 9de4 b6bc 50b4 83be
000003c0: 9d8c ae3e 81d3 123e d9da 863e 4cae 0f3e
000003d0: eff6 503e 67e2 f23d c79a 013e 1a0f abbd
000003e0: 84c8 3d3e dfe4 84be b29c 8bbc 36a8 5e3e
000003f0: 2825 66be 37e1 553e e71f 3bbe 3fa0 e6bd
0.13307752 0.2810668 -0.2851136 0.14727613 -0.28284708 0.09205989 0.11737238 -0.06791498
-0.06284215 0.22552873 -0.15481721 0.08473582 -0.13375168 -0.13801786 0.0011548526 -0.049856167
-0.21249717 0.010344054 0.18868947 0.15288648 0.02287037 -0.14789829 0.21830702 -0.109134994
-0.011318963 -0.23526369 0.07533935 0.26891905 0.20302774 0.1834771 -0.26065087 0.15054429
0.22913317 -0.11261347 0.044242218 -0.12995127 0.25336257 0.1798718 -0.09831504 0.073691346
0.15039355 0.014436309 -0.026250185 -0.09317752 0.070774905 0.15748997 -0.11234118 0.29174858
0.11486611 -0.04412021 0.04785588 0.031430002 0.14623858 -0.17090572 0.002587735 -0.044077903
-0.24045265 0.0118178 -0.14360237 -0.29680246 0.23817791 -0.15858339 -0.23628117 0.122079596
-0.074622095 -0.22109 0.09940319 0.08219132 -0.16197214 0.124583185 -0.21157056 0.27299938
0.12695283 0.16693652 -0.044785414 0.03177325 0.010131494 0.118996 0.29771104 0.23586705
-0.29321563 -0.14843398 -0.115084216 0.21782114 -0.22405802 -0.05804358 -0.16343963 -0.020115163
-0.006542076 -0.085521564 0.03757409 -0.05800317 -0.13074204 0.07875785 -0.2437327 -0.2875879
0.097054 0.0761044 -0.18355177 -0.108052365 0.2579838 -0.19072787 0.23162046 -0.33195734
-0.17418736 -0.1605834 -0.16376822 -0.34647563 0.22788842 0.062958896 0.011567858 0.24108957
0.0971563 0.13365898 -0.11270669 -0.2388535 -0.24327984 -0.30690882 -0.30176404 -0.14481811
0.04066549 -0.007917353 -0.21152492 0.09589003 0.13686578 -0.17182893 -0.042922985 0.04329888
-0.2965645 0.07265719 -0.054201204 -0.038054492 -0.2020923 -0.055387568 -0.10355012 0.16796015
-0.2706752 0.070076615 0.10793275 -0.25534916 -0.09526143 -0.24647431 0.043014027 -0.044987198
-0.08190256 0.19480936 0.21227644 -0.056743816 -0.20545264 -0.02356121 -0.17119543 -0.19105847
-0.061648786 0.01791813 0.21541278 0.29838288 -0.15456106 -0.035295635 0.26052085 0.12523322
0.10597115 0.25073448 0.05037295 -0.00827419 -0.15525298 0.22255275 -8.104148e-05 0.030180445
0.16157523 0.10307893 0.059187002 -0.1776251 0.102142334 0.05688519 0.030722782 0.092072636
-0.075351164 0.18835163 0.06203294 -0.19251351 0.17186014 -0.13053823 0.19929612 -0.020353833
0.22891213 0.22503838 0.15733448 0.10385086 -0.115134604 0.13932624 0.040118087 0.12778407
-0.29847687 -0.13910788 -0.2760121 0.0445361 -0.13499287 -0.23829316 0.074292615 0.2665648
-0.2212888 -0.20597477 -0.032117117 -0.25549167 0.25465745 0.22113787 -0.10607156 0.12203248
0.1503969 -0.19920073 0.22204942 -0.20424275 -0.13284089 0.09820073 0.0052536046 -0.37940457
-0.0028112915 -0.15633568 0.1601329 0.2186058 0.14807844 0.017796515 0.15197694 -0.14475943
-0.09832376 0.21259654 -0.18689893 -0.06676203 -0.09466514 -0.24526182 0.03458702 0.29930723
0.0032180187 0.26873764 0.09348538 -0.017766211 -0.10050654 -0.2684873 -0.022325808 -0.25723505
0.34091654 0.14338495 0.26338843 0.14031333 0.20406698 0.11859589 0.12656699 -0.0835249
0.18533522 -0.25955865 -0.017042492 0.21743855 -0.22475111 0.20886694 -0.18273889 -0.11261033

blocks.0.attn.proj_FacTs.weight f4 [16, 16]
00000000: 896b 4ebe 31bb 0f3e bd13 7c3e 79c7 12be
00000010: cbf6 8fbd 70dd 813c 84f5 37be 60fb 39be
00000020: 4503 13be fb14 44be 6903 2dbe 6337 40be
00000030: 53af 7fbe 3978 20be cfbf b33d d118 733e
00000040: 2fe9 1b3e 343c 1dbe dc72 763e 74cf 18bd
00000050: 9562 353e 57e0 fbbd 98c6 c33d 7a2b 6f3d
00000060: 7c31 6abd 4ea7 15be d957 c13d 2629 e13d
00000070: c276 953e 8925 653e 7f90 2e3b f7cf 18be
00000080: 96c5 9d3e c994 c93d 4a52 b93e 1f30 c93e
00000090: 7771 b6bd b117 d33d 905b 813e 07d7 0a3a
000000a0: 191b 6dbd d38f d1bd 5ebb 873d b61c b83d
000000b0: 291a 8a3c f4d4 14be 727e 3b3d 9a2b 6e3e
000000c0: 3e3f 493e 65a3 85be ece9 ef3d 04d1 2f3e
000000d0: eaad 59be 5982 7f3e f62e 3ebe a30e 6e3e
000000e0: 3e76 7c3d c78b 823e 3347 98be 6773 903d
000000f0: 6382 893e 8be0 5a3e 0815 653e bf9f fe3d
00000100: 44d4 24be 36e4 193e 7d35 01be 50da bcbd
00000110: a458 4bbe 26ce 1c3e 1b00 08be ea34 6cbe
00000120: 8be8 97be a77d bbbd b818 c93d 4028 b9bd
00000130: 2549 7bbe c5e0 65be 9b5f c1bd 1fe8 9fbe
00000140: 788f f5bd 33b5 573e 2401 7b3e 352f 233e
00000150: 2579 b83d 5e3d 543e a7fa 743d b70c 8a3e
00000160: 25a0 553e 5467 40be 30b0 b43c bda9 0dbd
00000170: 5109 27be 8766 7e3e 7aeb 363e 8239 85bd
00000180: 7376 7a3d b669 683e e946 a43d 542c 1c3e
00000190: ba86 a03d 6c0e 06be b116 41be 3e20 6ebe
000001a0: 02cd ab3c 2a17 fa3d 55ac 38be 050d d13e
000001b0: 4e2a 32bd 3d21 d9bd 1f32 cfbd b2df 38bd
000001c0: 7286 47be 91b0 c6be e41c 8ebc 6d06 b33b
000001d0: 8c0c d0bd 37b8 4ebe c810 10be 95f5 4cbd
000001e0: 20c2 e6bd c25c 61be ac71 a0bd 5bbb 163e
000001f0: b9c5 ce3d b669 8a3e 5328 af3d 13dd a53e
00000200: 869f b53e 4e20 56be 0b5c 97be a3cf 243d
00000210: 2bc1 903e fb25 0fbe 564d 983e b2de 80be
00000220: 44e5 8b3e 6f10 113e 741b 89be 6a69 943e
00000230: 9fce dabe dd35 623e 0318 c3bd eff1 373e
00000240: f465 4b3e 849e 213d 05dd 823e 2d13 65be
00000250: 4a99 143c 1ed5 db3d 3ad1 573e 6322 b6bd
00000260: b508 febd 18e6 51bd 7459 cfbd d342 be3d
00000270: 0496 71be 2301 4b3e 0507 5cbe 49ec 79bd
00000280: 92e0 af3c 57da 033e 325b 4bbe 3236 f8bd
00000290: a872 c43d b360 78be a7be 953e ec75 04be
000002a0: 93e7 6cbe 666d 7bbe 63d6 063d c6d1 033e
000002b0: 398c 643e c1e7 72be 46f3 583d 36a1 a5be
000002c0: 6b25 ec3c 797f 3b3e 3956 87bd 0f36 843e
000002d0: 0b0c 503e 5f32 6cbd 0abe 653d 2c7b 8d3e
000002e0: 4d20 603e 60de ab3d 9695 e6bd 9a39 a33d
000002f0: 24ed c23d 1ef9 933e c12a 13be 214a a6bd
00000300: 917f 35be 64dc 073e 0048 c1bd 8c10 c4bd
00000310: 071c 4c3d 535c 4dbc 52ca 35be a5ad 85bc
00000320: c48f 87bd 15ef 73bd 0849 793e eeb4 0f3e
00000330: 6983 723e b428 413e 6a36 89be 00e5 1a3d
00000340: 1aa3 4abe d4dd c33d de72 4f3d b461 543e
00000350: 9d77 f6bc e272 263c 99e3 2ebd c2a7 4f3e
00000360: e96c 8f3e 629b e1bd 83e9 ea3c f87b 743e
00000370: 198d 843e a211 51bd c9b8 2f3e 28fc 0abe
00000380: ebd0 e7bd b772 113e 69ff 16be c37a 4abd
00000390: cbd7 13be ed3f 193a 4287 47be 0047 183e
000003a0: 2632 5e3e b960 2f3e 66fd 063e d9dd 9d3c
000003b0: f641 99be 2852 8abe ab6f 063e 02c6 6f3e
000003c0: b85c aabe 44fe 16bd 95d9 2a3e 6e7a 20be
000003d0: 2a9d 5bbe f6f7 c93d 5f2b bebd 1f89 f03d
000003e0: 5057 173e 4df1 00be f840 acbd e3a3 c8be
000003f0: 27e8 70bd 0353 0abd e0b9 943e b2f6 903e
-0.20158209 0.14036252 0.24616905 -0.14333905 -0.07029494 0.01585266 -0.1796475 -0.18162298
-0.14356716 -0.19148628 -0.16895832 -0.18771128 -0.24969225 -0.15670861 0.08776819 0.23739935
0.15225671 -0.15354997 0.24067253 -0.037307218 0.17713387 -0.12298649 0.09559363 0.05839107
-0.0571761 -0.14614603 0.09440584 0.109941766 0.29192168 0.223776 0.002663642 -0.14923082
0.3081481 0.09842832 0.36195594 0.39294526 -0.089083605 0.10307253 0.2526517 0.0005296324
-0.05788717 -0.102325104 0.06627534 0.08989851 0.016858177 -0.1453436 0.045774885 0.2325882
0.19653031 -0.26101223 0.11714539 0.17169577 -0.21257749 0.24952067 -0.18572602 0.23247771
0.061636202 0.25497267 -0.2974182 0.07053261 0.2685729 0.21374719 0.22371304 0.12432813
-0.16096598 0.15028462 -0.1261806 -0.09221327 -0.19858032 0.15313014 -0.1328129 -0.2306706
-0.29669604 -0.09154826 0.09819168 -0.0904088 -0.24539621 -0.22449024 -0.094420634 -0.31231782
-0.11990255 0.21065216 0.24512154 0.15935977 0.090074815 0.20726535 0.059809353 0.26962826
0.20861872 -0.18789417 0.022056669 -0.034585703 -0.16312148 0.24843799 0.17863265 -0.06505109
0.06114812 0.22696576 0.080213375 0.15251285 0.07838197 -0.13091439 -0.18856312 -0.23254487
0.020971779 0.122114494 -0.1803449 0.40830246 -0.043497376 -0.10602043 -0.10116982 -0.045135207
-0.1948488 -0.38806584 -0.01734776 0.0054634125 -0.10158643 -0.2018746 -0.14068902 -0.050038893
-0.11267495 -0.2200804 -0.07834181 0.14719908 0.10096306 0.27033776 0.08552613 0.3239523
0.3547327 -0.20910761 -0.2956241 0.04023708 0.28272375 -0.13979332 0.29746503 -0.25169903
0.27323353 0.14166425 -0.26778758 0.28986675 -0.42735764 0.2209086 -0.09526064 0.17963384
0.19863111 0.039457813 0.2555925 -0.22370596 0.00906975 0.10734008 0.21075907 -0.088932775
-0.124040045 -0.051244825 -0.10124484 0.092900895 -0.23592383 0.19824652 -0.21487053 -0.061016355
0.021469388 0.12876259 -0.19859007 -0.12119712 0.095921814 -0.24255638 0.2924702 -0.12935609
-0.23135214 -0.24553451 0.0329193 0.12872991 0.22319116 -0.2372122 0.05296638 -0.32349557
0.028826436 0.18310346 -0.066082425 0.25822493 0.20317094 -0.057665225 0.05608944 0.27633035
0.21887322 0.08392024 -0.11259 0.07969971 0.09517887 0.28901 -0.14371778 -0.08119608
-0.17724444 0.13267666 -0.09437561 -0.095734686 0.049831416 -0.012534219 -0.1775296 -0.016318152
-0.06619218 -0.05955418 0.24344265 0.14033863 0.23682941 0.18863183 -0.26799327 0.037816048
-0.19788781 0.09563795 0.050646655 0.20740396 -0.030086333 0.010159226 -0.042697523 0.20278838
0.2801278 -0.11015965 0.0286758 0.23875415 0.258889 -0.051042207 0.17160334 -0.13572752
-0.11319145 0.14203916 -0.14745869 -0.04943348 -0.14437787 0.00058460125 -0.1948519 0.14870834
0.21698818 0.1712674 0.13182601 0.019270824 -0.29933137 -0.27015805 0.13128535 0.23415378
-0.33273864 -0.03686358 0.16684563 -0.15671703 -0.21446672 0.09861748 -0.09285616 0.11744904
0.14779401 -0.12592049 -0.08410829 -0.39187536 -0.058815148 -0.033770572 0.2904806 0.28313214

blocks.0.mlp.fc1_FacTs.weight f4 [64, 16]
00000000: f48c 2e3e 24e0 603e 103e abbe 9480 9f3d
00000010: 55a2 77be c496 533e cbc6 2f3d 69fb c53d
00000020: 76cc 9dbd a206 c93d fae4 78be 0aa3 a7be
00000030: 48c8 143e cc00 213d 55a5 4dbd 1144 5dbe
00000040: ab0c acbe b726 eabc 4841 843d 4433 e5bd
00000050: 8b74 103e e045 7cbe 3052 db3d e939 a23e
00000060: 5865 fe3d a4b5 323e 953d c13d 40f7 4b3e
00000070: d3d8 03be 8de9 393d 5326 e8bd 7bb6 54be
00000080: af9e 62be 749d 67be 9a35 953e 0dd6 01bd
00000090: 2da5 8c3e 7d3b 563e a2d2 0bbe ffb1 9cbe
000000a0: a896 863c c94c 2a3d 6ea0 0f3e d926 073e
000000b0: 9a3e cfbb 408d 0e3e cf0f 82be f995 df3d
000000c0: 861d 7ebd 6ebc 373d a1b4 973c cc1f 2bbe
000000d0: 9ea2 2cbe e44d 63bd 6b0f 403e c75e 46bd
000000e0: 0478 813e a4e4 6b3e f913 8cbd 072c 303e
000000f0: 0c6a 443d bc78 433d 8689 543e b60f f2bb
00000100: 1121 c2bb 2676 cd3d 2c0d 843e 4600 513e
00000110: 0016 06bd f686 703e 011d 38bd 13f3 1cbe
00000120: ddbc 513e 9030 c5bd 36bf 1b3e d113 dc38
00000130: 5052 26be d333 87be 1d1e 143e 0f28 1fbd
00000140: dc26 373e 1061 92bd a8c9 103e 779a 99be
00000150: 44e6 243d e803 583d b4cb 0a3d 944e 9b3e
00000160: 9df8 613c 5dda 88be c36c 59bd 9a52 403e
00000170: 1429 f73c 2d78 043e dcd5 ecbd 547d 3b3d
00000180: deb1 67be 1d30 14be 7a74 07be 8a14 593d
00000190: cdbc a3bc 8d5a c0be 41c9 153e 43fa 84bd
000001a0: 324e 84be c3b6 ca3e 6c9f 173e 8971 043e
000001b0: f3bb 95bd e5f6 4cbe a0c5 f5bd 7249 8c3d
000001c0: 7d02 00bc e78c f9bd 4ea6 32be 6677 efbd
000001d0: 1668 853d 5966 bd3d 6d0f 8e3d acac 633e
000001e0: 6c04 31be aa49 9d3d 515a 773d a16d 333e
000001f0: 13ec 06bd 31a6 193e e86b 69bd f915 3abe
00000200: 759e a13c ad73 523e 7f4d 623d 1975 bdbd
00000210: 8e06 aabd 909f 63bd e066 0e3e 03ae fe3e
00000220: 204f 613d 4af2 4b3e accf 823d 4618 03bf
00000230: 9898 113e 2a3c 36be 3b0b 333e 6041 19be
00000240: af6a d6bd 08ac efbc 9fe4 6ebd 8e4d e03d
00000250: 827f 863c c022 14be 9bc7 24be 14dc ec3c
00000260: 765f d7bd d1d9 53be 5b65 23be 48c2 2fbe
00000270: 98ac 363e 62c8 07be 3b96 f93d 6ef2 f43c
00000280: 9db8 b33e 0174 fb3d 6240 bbbe cbc5 073e
00000290: c110 483e 8de7 33be da00 efbd 6741 f2bd
000002a0: 096c 5e3d 6e4a 11be 4fee 1d3e 862d 2c3e
000002b0: ffc7 543e 0235 143e 51e4 7fbe 51a2 eb3c
000002c0: d135 f93b e44a d8bb 619c 2bbe 4a7a 95bc
000002d0: 4ee5 50be 46fb d93d 58ca 373c fcb9 4fbd
000002e0: 0af8 25bc a17c 9bbd 27ec 43bd 69f1 983d
000002f0: f002 80be 63c6 9cbe 2780 30be 9a92 5dbe
00000300: 4db6 ff3d 171d 6abe f937 26be db46 fbbc
00000310: 3572 55bd 6422 21be d06b a33d 97e7 e4bd
00000320: e3d0 4f3e 1c76 0abd 4ed8 763e 8538 36be
00000330: 7a66 cb3b d735 4e3d 6cbd b2bd a975 3ebe
00000340: a88f 043e b08f 12be c6ff 0e3e 0da9 303d
00000350: 28c7 723e 1b5e 543e e98b febd a5d9 79be
00000360: adec 913e 7a45 8abd 1442 57bd ffe1 3b3e
00000370: fbde d4bd 5441 f4bd 7f48 8bbe 2da4 673d
00000380: 6e6d 1f3d a818 5bbe 4c33 36be 330d 27bd
00000390: a503 723c ee1c 8c3e 2abb 77bd 8447 8fbd
000003a0: ef07 f7bc 78a1 86bd 6850 79bc 7836 d33d
000003b0: ea9d 44be bd6f cb3d 2a68 43be 542f 743c
000003c0: 500f 7bbe 464e 223e b4ff 613e 2122 18be
000003d0: 355d a33e 69a0 df3d c912 383e 4d28 47be
000003e0: ddb4 afbd 1d03 713d f7e4 5d3e baab 18bc
000003f0: 3acf aa3d 9306 34be f422 603e a8e9 073e
0.17045957 0.21960503 -0.33445787 0.07788196 -0.24183019 0.20662981 0.042914193 0.09667093
-0.077050135 0.09815718 -0.24306098 -0.32741576 0.14529526 0.0393074 -0.0502065 -0.21607997
-0.33603415 -0.028582914 0.06457764 -0.11191419 0.14106958 -0.2463603 0.107090354 0.31684807
0.124216735 0.17452103 0.09435574 0.19918537 -0.1287568 0.045388747 -0.11335435 -0.20772736
-0.22130845 -0.22618657 0.29142457 -0.031698275 0.2746977 0.2092113 -0.13654569 -0.3060455
0.01642926 0.041577134 0.14026043 0.13198413 -0.0063246014 0.1392107 -0.25402686 0.10917277
-0.062039874 0.044857435 0.018518748 -0.16711348 -0.16858909 -0.055494204 0.18755881 -0.04843023
0.25286877 0.23036438 -0.06839747 0.17204295 0.047952697 0.047722563 0.20755586 -0.007387127
-0.005924352 0.10032301 0.257913 0.2041026 -0.032735825 0.23488984 -0.044949535 -0.153271
0.20482202 -0.09628403 0.1520966 0.000104941086 -0.16242337 -0.26406726 0.14464612 -0.038856562
0.17885917 -0.071474195 0.14139426 -0.3000066 0.04025866 0.0527381 0.033885673 0.30333388
0.013792184 -0.26729098 -0.05308224 0.1878151 0.030170955 0.12936468 -0.11564228 0.04577382
-0.22626445 -0.14471479 -0.13228026 0.052998103 -0.019987488 -0.37569085 0.14627554 -0.06493046
-0.25840908 0.3959256 0.14806908 0.12933935 -0.07311239 -0.20016058 -0.120005846 0.06849946
-0.007813093 -0.12185078 -0.17446253 -0.11692695 0.065139934 0.09248037 0.06936536 0.22233838
-0.17286843 0.07680066 0.060388867 0.17522289 -0.03293998 0.15004803 -0.056987673 -0.18172444
0.019728879 0.2055194 0.055249687 -0.0925085 -0.083020315 -0.055572093 0.13906431 0.49742135
0.0550071 0.19916645 0.063872665 -0.51208913 0.14218366 -0.17796388 0.17484753 -0.14966345
-0.10469567 -0.029256836 -0.0583235 0.109522924 0.016418222 -0.14466381 -0.16091768 0.028913535
-0.105162546 -0.20688559 -0.15956633 -0.17163956 0.17839277 -0.13260034 0.12186857 0.029900756
0.35101786 0.12277985 -0.36572558 0.13259046 0.19537641 -0.17568798 -0.11670084 -0.11828881
0.05430225 -0.14188549 0.15422939 0.16814241 0.20779417 0.14473346 -0.2498944 0.028763922
0.0076052924 -0.0066007245 -0.16758873 -0.018246789 -0.20399973 0.1064363 0.011217676 -0.050714478
-0.010129938 -0.075921305 -0.047832634 0.0746792 -0.2500224 -0.30620107 -0.17236386 -0.21637955
0.12485943 -0.2286266 -0.1623229 -0.030673435 -0.05211087 -0.15735775 0.07979548 -0.11176985
0.20294528 -0.033804044 0.24105951 -0.17794998 0.0062072845 0.050344314 -0.087275356 -0.18599571
0.12945426 -0.14312625 0.13964757 0.04312997 0.23708785 0.20739023 -0.124290295 -0.24399431
0.28500882 -0.06751533 -0.05255325 0.1834793 -0.10394093 -0.11926523 -0.27203748 0.056553055
0.03892272 -0.21396124 -0.17793006 -0.040784072 0.014771377 0.27365822 -0.060481228 -0.069960624
-0.03015515 -0.065737665 -0.015216924 0.103131235 -0.19200864 0.09933422 -0.19082704 0.014903862
-0.2451756 0.15850171 0.22070199 -0.14856769 0.3190705 0.10919268 0.17975916 -0.19448967
-0.08579419 0.05884086 0.21669374 -0.009318287 0.083403066 -0.17580633 0.21888334 0.13272727

blocks.0.mlp.fc2_FacTs.weight f4 [16, 64]
00000000: 8375 21bb 7b7f 15bd dcd6 a4bd aa3a 86bd
00000010: 80c3 3bbe 5d2b e8bd d5db 843c 8f07 27be
00000020: 4540 dcbd c41f 293c 9b9e b7bc f341 803d
00000030: 2130 7e3d 5152 793d 3a55 413e 3dfb df3c
00000040: 33b6 0bbe 41c9 76bd 351c 0f3e 6687 8b3d
00000050: 29c6 223c e4f2 1fbe 06b2 353c 8ebf 19be
00000060: 2119 d13d 1d47 973d c872 5fbd 1a8c b33d
00000070: cc41 f7bd 6462 a53d bfc7 58bc 6cb0 03be
00000080: a3f5 1dbe 0cbb 5c3e 23b2 38be 6236 c73d
00000090: 7b71 13be ad5b 97bd 9191 2f3d aba3 883d
000000a0: b4e9 313d b483 4c3d f17b 54bd e955 b33d
000000b0: 3761 4d3d f440 01bc 5a58 0ebe 2ca5 513e
000000c0: ce3d 8b3d d947 983d 535c 9b3d dae5 3a3d
000000d0: 0352 753d a093 833d b038 ed3a bb28 ee3d
000000e0: 0a70 833e c7fe e2bc af6b 4e3e f805 a83c
000000f0: 91ab 0b3e 7b7a 5c3e 5e7a da3d f3f6 203d
00000100: f413 d63c c796 b43c 9966 bbbb 3b4c 01be
00000110: adf3 43be b430 76be 327f 32be 2c07 0abe
00000120: 7658 d2bc 65b0 69bd b219 b5bd e98e 0b3e
00000130: 91be aabc bb5e 39be aa1c 18ba d2f2 713d
00000140: 9ff3 10be 0672 5ebd 5f2e 423d 30c2 233d
00000150: 9714 103e 8318 343e f6ce 64be e842 59be
00000160: 669b 2c3e 3ebd 2d3e 111a 0abd c143 4ebe
00000170: 8ce3 8bbe 95d1 e53d a12b 1fbe 2519 13be
00000180: b9d9 45be 2efa ecbc d575 2dbe f9d7 aa3d
00000190: fec1 59be 6134 0bbe 2f86 38be 43b0 c83b
000001a0: 7b74 393e 6bc8 8e3e 1233 e8bd 5d86 2f3e
000001b0: bad3 2f3c c310 bc3d 20bf 3ebe cc8b 3b3e
000001c0: f071 b53d 3eee fcbd 81e2 fcbd 0944 3c3d
000001d0: 8ab3 4d3e fd83 173e d08a bb3d ad58 1c3d
000001e0: 25cd bd3d db39 4f3d 8126 3b3e b8f6 163e
000001f0: b14a fd3d 855d 313e f181 d03d 9678 d03d
00000200: e9e4 2fbe 0b9e 633d 2dda 413c 0025 cb3d
00000210: 38de f33c 067a 353d 1a42 d23d eb69 7b3e
00000220: 3857 c0bd 9cdf 173d 8041 263e 0d0d 953d
00000230: 615f 2fbe 01a7 953d 49cb e23e 441b b83c
00000240: 4996 a83d 8475 2bbe ad54 a13d 2106 653d
00000250: 4f87 2fbe ee7b cfbd ac74 38be 6e68 763d
00000260: 27ca 58bd 26a3 c3bd 423e ccbd e31d 383d
00000270: 4e3b b1bd 4df1 36bd 0e51 4abd 5576 1bbe
00000280: 7798 8b3e 9804 7fbe 6a17 613e d897 08be
00000290: 6676 febc da35 003e 8a61 fc3d 2f92 8b3c
000002a0: 57ea eebd 18c2 31be f9b6 273d 1c99 893e
000002b0: 4643 c33d 6bbe 573d a1b8 ce3d 0428 ad3d
000002c0: 8b45 c7bd 0030 fc3d a692 a7be 64e7 4b3e
000002d0: 9855 7cbe 4f48 173d 6408 4abd 6d68 11be
000002e0: 6121 963d ef16 4ebe e51d b2bd 0b99 21bc
000002f0: 0c53 1dbe 051b a7bd 15d0 d0bb 5a84 1b3e
00000300: 8415 1f3e 4278 133c 91f2 193d 1c68 723d
00000310: 2801 4dbb 42d3 52bc 4272 463d 75ab 3abc
00000320: 2d89 33be 2e3d b13d bff7 2f3d 82e0 2439
00000330: 1e82 35bd 836f b13c 1003 0f3d 12a2 7cbe
00000340: b7be acbb 51c1 bebd 8f68 173e 560d 6dbd
00000350: 388d 60be 5d11 27be bde1 7a3b 0c32 59bc
00000360: 302d 5c3c 21e4 2a3e 915f 14bd 19a1 a6bd
00000370: d705 393d 1d6d d43d 2ef5 85bd 393c 6ebd
00000380: 38be 4bbc 1dac 113d 7b10 e4bd 1aa0 19be
00000390: 409a 91bd 1dc3 e6bd e034 03bd 2de4 22be
000003a0: 3464 073e b81b df3d 2f9e 9e3d ae62 2cbd
000003b0: 6ab1 b1bd 331c 02bc f8e7 b43b ccec b3bd
000003c0: 671f 113e fe1a 52be 5589 9c3d 558c 983d
000003d0: 627e d3b9 f4d0 4c3d fc34 2ebe 1d1b 463e
000003e0: 8688 53bc 25c0 cf3c 304c 0c3e e6e7 993d
000003f0: 4ade eebd 93a5 e4bd 4e8a 0ebd 34fb 75bd
-0.0024636693 -0.036498528 -0.08048794 -0.06554158 -0.18336296 -0.11336396 0.016218105 -0.16311477
-0.10754446 0.010322515 -0.022414496 0.06262579 0.062057618 0.06086952 0.18880168 0.02734148
-0.13643722 -0.060250524 0.13975604 0.068129346 0.00993494 -0.15619999 0.011089807 -0.15014479
0.10209871 0.07386611 -0.054552823 0.087669566 -0.12073097 0.08075407 -0.013231217 -0.12860268
-0.15425734 0.21555728 -0.18036704 0.097271696 -0.14398758 -0.07390533 0.042863432 0.06671842
0.043435767 0.04993029 -0.051876012 0.087566204 0.05014154 -0.007889021 -0.13900891 0.20473164
0.06798898 0.07435579 0.07585969 0.04562936 0.059892666 0.064246416 0.0018098559 0.116288625
0.25671417 -0.027709378 0.20158266 0.020510659 0.13639666 0.21531098 0.10667871 0.03929801
0.026132561 0.022044552 -0.0057190177 -0.12626736 -0.19135924 -0.24042016 -0.17431334 -0.13479298
-0.025676947 -0.05705299 -0.088427916 0.13628735 -0.020842822 -0.18102543 -0.0005802611 0.059069462
-0.14155434 -0.05430796 0.047407504 0.039980114 0.14070354 0.17587475 -0.22344574 -0.21216929
0.16856155 0.16966721 -0.033716265 -0.20143034 -0.27322042 0.11221615 -0.15543987 -0.1436506
-0.19321336 -0.028927889 -0.1693948 0.08341975 -0.21265408 -0.135942 -0.18019937 0.0061245277
0.1811084 0.27887282 -0.11337866 0.171411 0.010731632 0.091828845 -0.18627596 0.18315047
0.088596225 -0.123501286 -0.1234789 0.04596332 0.2008802 0.14796443 0.09157336 0.038170505
0.09267644 0.050592285 0.18276407 0.14742553 0.12367762 0.17320831 0.10181034 0.1017925
-0.17177166 0.055570643 0.011831802 0.099191666 0.029769048 0.044305824 0.10266514 0.24552123
-0.09391636 0.037078485 0.16235924 0.0727788 -0.17126228 0.07307244 0.4429572 0.022473939
0.082317896 -0.16744047 0.07877479 0.055914048 -0.1714146 -0.101310596 -0.18013257 0.060158186
-0.052927162 -0.095526025 -0.09972812 0.044950377 -0.086538896 -0.044663716 -0.049393706 -0.15181859
0.2726476 -0.24904096 0.21981588 -0.13339174 -0.031062316 0.12520543 0.123232916 0.01703748
-0.116657905 -0.17359197 0.04094598 0.26874626 0.09534316 0.05267183 0.10093809 0.08454898
-0.09730061 0.12313843 -0.3272907 0.19912487 -0.24642026 0.036934193 -0.04932441 -0.14199992
0.07330585 -0.20125936 -0.08697108 -0.009863148 -0.15363711 -0.081594504 -0.0063724616 0.15187207
0.15535551 0.00900084 0.037584845 0.059181318 -0.0031281207 -0.012867751 0.04844881 -0.011393418
-0.17532797 0.08654247 0.04296088 0.00015723894 -0.044313543 0.021659618 0.03491503 -0.246712
-0.0052717584 -0.09314216 0.1478598 -0.057874046 -0.2192887 -0.16315217 0.0038281523 -0.013256561
0.013438508 0.16688587 -0.03622395 -0.08136196 0.045171585 0.10372374 -0.06540905 -0.0581629
-0.012435488 0.03556453 -0.11135956 -0.1500248 -0.07109499 -0.11267684 -0.032032847 -0.15907355
0.13221818 0.10893959 0.07745015 -0.042086296 -0.08676417 -0.0079412935 0.005520817 -0.087854
0.14172135 -0.20518109 0.076433815 0.07448641 -0.0004033922 0.05000396 -0.170124 0.1934628
-0.012910968 0.025360176 0.13700938 0.07514934 -0.11663492 -0.11164393 -0.034799866 -0.06005402

blocks.1.attn.q_FacTs.weight f4 [16, 16]
00000000: 1bf8 52be deff 86be 3bcf 903d 1413 b43d
00000010: 8a4a 87be 1777 003e 86b8 88be 219f fe3d
00000020: 1a74 ffbd c320 34be ce98 aebd 7344 09bd
00000030: b754 c6bc 4301 cabd 714d ee3d 2576 4e3b
00000040: 3597 603e 9252 193d 7c69 57bd f400 3bbc
00000050: 06b7 bfbd 3a26 11be ee52 b2bc 75e2 4b3d
00000060: 84d1 143e d6ec 5f3d ea19 53be e245 8d3e
00000070: 80dd 933e 2093 46be a1e5 743d d663 513e
00000080: cb22 3fbe 6cde b1be 92f0 9e3d 631c ce3c
00000090: 4b6f 963e ef9a 01bd b49a 873e 3f86 9dbe
000000a0: ff08 efbc 16e5 31bc b334 883d 23d8 9ebd
000000b0: cc2f 6f3e c4aa f73d cc32 abbc 30c8 7a3e
000000c0: 3b15 01be 9771 a33d 915b 19bc 77ee 81bd
000000d0: c0f8 3f3e 2341 a439 e608 35be 47fa 383d
000000e0: cb6c 263d 6ceb 83bc 18e2 c0bd 0690 8bbe
000000f0: 8fd7 c13d 708c 413d e233 89be 8057 1bbe
00000100: 1fc5 5d3e b86e 273e f70b 173e 383f 3fbe
00000110: 3c76 28be 6f09 95be d010 5e3e 2bd5 34be
00000120: d149 b83d 8517 9a3e a153 763e 9938 a73e
00000130: 6053 44be 624d 323d 7e64 4fbc d808 3cbd
00000140: cda7 2cbe 8980 d9be 7a84 bb3d 0944 f13d
00000150: 421a 3ebd aedd 553e 9574 633d 0b95 433e
00000160: a514 4dbe f261 103e 4e8e 993e 654b 0abe
00000170: 0c84 a53d 01d8 18be 04f5 14be d326 943e
00000180: a9e4 8dbe b4d0 79bd b484 f4bc a181 543e
00000190: 6e26 993e 10be 09be 2af4 eebd 74c8 3ebe
000001a0: 829d 80bd 24be 3dbd 4350 64be 04ba bebb
000001b0: bc84 2e3e 7afe a03d 50e0 3a3e ceaf 7ebb
000001c0: 10b2 913d 14f0 b0be e737 34be c9d9 2b3e
000001d0: 79f9 653c 0406 c2bc db8a 973e 3a43 983e
000001e0: d104 8a3e 54f4 d33d 49cb b43d 13a1 f2bd
000001f0: 5676 893e 5d7d 823e 1e15 02be 0e1c 4a3e
00000200: 37d9 b03e 47a5 083e fe90 cebd 88c2 0fbe
00000210: dffa 1ebe 389c 36be e7fb afbe d40b 1ebe
00000220: 8f2d 44be 52b3 a63e 16b2 22bd 1c4f f83c
00000230: e75b b1bd b5f5 bcbd 40ff 47be f5b9 51be
00000240: dae5 01be 3471 aebe f559 49bd ad0e a1bc
00000250: 1511 14be dbf2 533d e2cc b33d 3a8c 90be
00000260: e7d7 d3bd a00e 3dbe 4b3c 243e f2a2 aa3d
00000270: fd09 833d 3908 6e3d de52 833d 5a42 473e
00000280: e117 69bc bbd1 1c3e dedc 75be cd5c 19be
00000290: d61c 82be 2d4c f5bc 1a4e d43d 9363 573e
000002a0: 9809 593e 3b35 783e fcf6 95bd 8d31 b2bd
000002b0: df2f 683e 7ed4 1a3d edf4 673e 9e1d 20bd
000002c0: 3100 8dbe 2b08 3dbe 8fe2 22be dfbf ae3d
000002d0: 0234 5c3c 1d0d be3c 927f 55bd 4e45 4d3e
000002e0: 1716 e8bd 02d3 3c3d 02b2 b0bd f3be 843c
000002f0: 7db4 e73d 3c07 803e 06e2 653c fe51 083d
00000300: 6866 ba3d de66 143e fb93 48be c646 2c3e
00000310: 19b7 1d3e bd47 a53d 8149 ecbb 857b b93d
00000320: 3120 99bb d5fc 3bbe 728b 253e a72d 4e3e
00000330: cbe5 0c3e 6825 e8bc 1c1f 0f3d 79b4 633e
00000340: 8ab3 8abe f91a 58be 010e 5f3d f0d6 853e
00000350: 6654 9f3e 0b48 32be 2fbd 133e 2215 1abe
00000360: efe0 203e 55e8 103e e082 b33d 519e 4a3e
00000370: 0548 06be 0e1f 933e ae13 bcbc b212 fc3d
00000380: 07b7 fdbc ec95 cebd 9464 25bc 1c71 273d
00000390: b526 8ebd 4e10 553e 8ba7 c83b d5aa 8a3e
000003a0: e2c3 9e3e be47 68be 95ab 9b3e ad34 34be
000003b0: d5c2 c93d 1833 4d3d b9a0 003e 9f4a 893e
000003c0: d4af 733c 0e7d 2bbe 2626 ddbb 9392 dcbd
000003d0: 0b41 d1bc 1f11 9dbc 6984 dbbd 9bb7 863e
000003e0: 64f5 1d3e 66bb 22be 2bea f33d 34fa 54bd
000003f0: 8244 e03d 38ce 04be e057 4cbe 8bc1 8ebe
-0.20602457 -0.26367086 0.07070776 0.08792701 -0.26424056 0.12545429 -0.2670328 0.12432695
-0.124733165 -0.17590623 -0.08525239 -0.033512544 -0.024210317 -0.09863522 0.116358645 0.0031503525
0.21932681 0.03743226 -0.052590832 -0.011413801 -0.09361081 -0.14174739 -0.02176806 0.049776513
0.14533049 0.054669224 -0.20615354 0.2759238 0.2887993 -0.19392061 0.059789304 0.2044824
-0.18665616 -0.34740007 0.07760729 0.02516002 0.29381785 -0.031641897 0.26485217 -0.30766484
-0.029179094 -0.010857841 0.066506766 -0.077560686 0.23358077 0.12093118 -0.020898245 0.24490428
-0.12605755 0.0798065 -0.00936021 -0.06344312 0.18747234 0.00031329048 -0.17679176 0.045160558
0.040631097 -0.016103469 -0.09418124 -0.2725832 0.09464943 0.047253072 -0.26797396 -0.15170097
0.21657227 0.1635083 0.14750658 -0.1867646 -0.16451353 -0.2910876 0.21686101 -0.17659442
0.08998454 0.3009607 0.2405534 0.32660368 -0.1917243 0.04353083 -0.012658237 -0.04590687
-0.16860886 -0.42480877 0.09156127 0.11780555 -0.04641176 0.20885345 0.055531103 0.19099824
-0.20027407 0.14099863 0.29991382 -0.13505323 0.080818266 -0.14926149 -0.14546591 0.2893587
-0.27713516 -0.06099005 -0.029848434 0.20752575 0.29912132 -0.1345141 -0.11667664 -0.18631154
-0.06280042 -0.04632391 -0.22296242 -0.0058205146 0.17042822 0.078610376 0.18249631 -0.0038862112
0.07114041 -0.34558165 -0.1759945 0.16782297 0.01403653 -0.02368451 0.29598126 0.2973879
0.269568 0.10349336 0.08827836 -0.11847129 0.26848096 0.2548627 -0.12703368 0.19737265
0.34540722 0.13344298 -0.10086249 -0.14039052 -0.15525387 -0.1783303 -0.34371874 -0.154342
-0.19158004 0.32558686 -0.039720617 0.03031116 -0.08660107 -0.092265524 -0.19530964 -0.20481093
-0.12685338 -0.34070742 -0.049158055 -0.019660318 -0.14459641 0.051745277 0.08779313 -0.28231984
-0.103439145 -0.1846261 0.16038625 0.083318606 0.063983895 0.05811331 0.0641229 0.19458905
-0.014226885 0.15314381 -0.24010035 -0.14976807 -0.25412625 -0.02994355 0.10366459 0.21034078
0.21195066 0.24239056 -0.07322499 -0.08700857 0.22674511 0.037800305 0.22652026 -0.039090745
-0.2753921 -0.18460147 -0.15906738 0.0853269 0.013440134 0.023199612 -0.052123614 0.20045969
-0.11332338 0.04609967 -0.08627702 0.016204333 0.11313722 0.2500552 0.014030939 0.03328132
0.09101564 0.14492366 -0.195877 0.16823873 0.15401877 0.080703236 -0.007210911 0.090567626
-0.004673027 -0.18358167 0.16166475 0.20134602 0.13759534 -0.02833815 0.034941778 0.22236814
-0.27090102 -0.21104039 0.054456715 0.26140547 0.31119078 -0.17410295 0.14427637 -0.15047124
0.15710805 0.14151128 0.08765197 0.19786955 -0.13113411 0.2873463 -0.022958603 0.12308253
-0.030971063 -0.10087189 -0.0100947805 0.040879354 -0.069409765 0.20807001 0.0061234883 0.2708346
0.31008822 -0.22683617 0.30404344 -0.17598219 0.098516144 0.050097555 0.12561311 0.26814744
0.014873464 -0.16746923 -0.0067489324 -0.10770144 -0.02554371 -0.019173203 -0.107186146 0.26311955
0.1542564 -0.158918 0.11909898 -0.051996425 0.10950567 -0.12969291 -0.19955397 -0.27882037

blocks.1.attn.k_FacTs.weight f4 [16, 16]
00000000: 3150 b03d 9c3f 5c3d 8ffa 6dbe 6383 8cbe
00000010: 4fa1 443d d128 95be cdda c03c 00cf 32be
00000020: 543c d3bd 60a4 6d3e e4f5 93be 86b5 7ebe
00000030: 17a6 4bbe 7a11 aebe 382d 843e 96d1 31be
00000040: 6d5a b8bd f16e 10be c83c ea3d 838e 44be
00000050: 60a2 e5bd bac2 0bbe 6fe2 8abe 03ee bfbd
00000060: 2c38 95be f8fe e7bd 9da0 30be 8d67 383d
00000070: 81ed f53d e6a1 50be 26a9 f43d 13e0 223e
00000080: dff5 5e3c 7733 fc3d e695 9f3e 85b1 7cbe
00000090: f7a9 693e 4c6c 77bc ea5a 8cbd 8f58 aebd
000000a0: ec0a 35bd 63a3 42be 945f f23d 6fdd 813d
000000b0: f69f 8abe 8f43 68be 013d fc3c 60e2 95bd
000000c0: f68d 86be 23ef b4be c7f5 943d 6a21 783e
000000d0: 78ba 663c 504f 89bd 6acb 833e 25e6 78be
000000e0: e26e 393c 70b9 9ebd fe1b 98ba baec 4e3e
000000f0: e090 753d b358 843e 169e 273d 733d 4e3e
00000100: a6e4 ed3c d181 7fbd a9e3 683e 6d2b 0cbe
00000110: 6c27 8abe 7b58 9f3d 3ea3 04be 8d41 11bd
00000120: aa51 12bd a9a4 0b3e 3ee2 f83d 4ba2 e53d
00000130: 95a3 76bd af43 bdbe 5405 353d 446d 93be
00000140: 124f 81bd 79f4 abbd 7714 20be 950f 3a3e
00000150: 9e1b 68bc 1a2b 53be e512 23bd 8973 a73d
00000160: 6218 51be 88e0 603e f35c 1ebe 0c37 bebc
00000170: b34e 67bd 2703 91bc d6a6 d4bd 0a76 c7bd
00000180: 904c b9be 9920 383e 018c 9e3d ce98 a63d
00000190: 16fd 593e 6780 9a3b 5ea7 c3bd e659 cfbd
000001a0: 6531 cdbd 2e5a 8abe c204 0a3e c5d5 7bbd
000001b0: 33df e63d b3d2 c23c b9e7 82be 852f 9d3e
000001c0: 5e45 2b3e ac00 c23c 3e0b 5fbe f2b2 e3b9
000001d0: 364f 9cbe d957 69be dba2 d4bc d7b1 3fbd
000001e0: 7535 38be 55b9 4e3e 0251 6dbe d4fe b63d
000001f0: 43e3 1bbd 8323 88bd 70db 3f3e 18ed 133e
00000200: 90f1 82be 32e1 903d 10b9 86bb c8bb 163e
00000210: d43c 13be ff61 82bd 873d 0fbe 5a26 6abe
00000220: 2769 033d 0744 093e c907 e9bd 33a5 03be
00000230: 0d9b 613e 8cb3 023e 1301 2b3e 71fd 233e
00000240: df14 3b3e fe95 5e3e ddb6 1ebe 6ac8 9d3d
00000250: e5ae 84bd f9a6 05be 0203 98bd 427a c93d
00000260: aa18 babe 090b 50bd 95e4 33be 787a ff3d
00000270: e02a e03c c6b0 d63c e3f0 40be c8a6 2dbe
00000280: 41e7 913e ba8e 963e 3e7a 68be 4c92 39be
00000290: a7bf bbbd b867 b9bd 0a49 c3be 8314 233d
000002a0: c0e1 2cbe 934a 5abe 723a 88be 8f66 4cbe
000002b0: e5de 35be cfd7 183e ae87 bebe 65b4 8cbe
000002c0: 0f22 43be 62e4 15be dc8c bc3d aef8 14be
000002d0: 14f6 a2be 7104 d63d 3814 923c bba5 a93c
000002e0: 236d 5c3d 6006 f23b bfb9 8f3e 1933 8abe
000002f0: 59a6 8cbd d63c 16be b561 063e 8da9 103e
00000300: f239 043e 6482 1e3e d302 b6bd 963f 633d
00000310: f71d 183b 8a9c a3be 6860 c3be 0cac a33e
00000320: e92a 4cbd 1bcd 593e cd41 9abe b70b b4bd
00000330: 7875 83be 5600 a4be 8cf8 c83d c6b5 9a3c
00000340: 6a2b 15bd d313 553e 4c28 79bd 1e27 7abe
00000350: 6bc0 33be f9fc 87be 9a4f 00be f0ae 9e3d
00000360: fd1e 18be 54fa b6bd ebab 8dbe b89b 79be
00000370: 6f67 44be 92ab 67be 8289 263e 4b75 38be
00000380: b45d aabe 6b0e 65be 42a5 9bbe 56ca 633e
00000390: f84c 433e f90f ab3d 7694 e6bd fa45 95be
000003a0: b61c 7cbd 9480 eebc 4a74 53be 62ad 403e
000003b0: 24f6 673e 74cf 3c3d b455 b43e 45ae 99bd
000003c0: fe9d 0c3e 46df 193e 92ae aabd c0fb 66bd
000003d0: bcd1 303e 4a3b 0fbe 5c46 68bd 7816 303e
000003e0: b135 763e 9284 cfbd b37a 4fbe 01fe 303d
000003f0: d374 abbc 5777 033d 57fa a0be 29ff 36be
0.08609045 0.0537716 -0.23240112 -0.2744399 0.0480054 -0.29132703 0.023541832 -0.17461777
-0.10314241 0.23207235 -0.28898537 -0.24873933 -0.19887577 -0.3399771 0.2581575 -0.17365107
-0.09001622 -0.14104821 0.11437374 -0.19194989 -0.11212611 -0.13648501 -0.2712588 -0.09371569
-0.29144418 -0.11327928 -0.17248769 0.04502063 0.12008191 -0.2037426 0.11946325 0.1590579
0.013608425 0.12314504 0.3116905 -0.24677093 0.22818743 -0.015101504 -0.06853278 -0.08512985
-0.04419987 -0.1900764 0.11834636 0.06341063 -0.27075166 -0.22682022 0.030790808 -0.07318568
-0.26280183 -0.35338697 0.07273441 0.24231496 0.014082544 -0.06704581 0.2574113 -0.24306543
0.01131794 -0.07750213 -0.0011605022 0.20207492 0.059952617 0.25848922 0.040922247 0.20140629
0.029039692 -0.062379662 0.22743095 -0.1368844 -0.26983202 0.07780548 -0.12952897 -0.035462905
-0.035722412 0.13637032 0.12152527 0.112125956 -0.060214598 -0.369657 0.044194534 -0.287943
-0.063139096 -0.08396239 -0.15632807 0.18170007 -0.014166741 -0.2062191 -0.03981294 0.081763335
-0.20419458 0.21960652 -0.15465145 -0.023219608 -0.056471538 -0.017701698 -0.10383384 -0.09739311
-0.36191225 0.17981185 0.077415474 0.08134614 0.21287951 0.004715014 -0.09553407 -0.10124569
-0.10019187 -0.27021927 0.13478377 -0.061483163 0.112730406 0.02378211 -0.25567415 0.30700317
0.1672568 0.023681961 -0.21781632 -0.0004343014 -0.30529183 -0.22787417 -0.025956562 -0.04680046
-0.17989142 0.20187886 -0.23175433 0.08935323 -0.03805853 -0.06647398 0.18736053 0.14445913
-0.25574923 0.070742026 -0.0041114166 0.1472007 -0.14378673 -0.063663475 -0.13988315 -0.22866192
0.032082703 0.13404857 -0.11378438 -0.12855987 0.22031803 0.12763804 0.16699629 0.16014649
0.1826968 0.21736905 -0.15499444 0.077042416 -0.06478671 -0.13051976 -0.07422449 0.09837772
-0.36346942 -0.050791774 -0.17567666 0.12474531 0.027364194 0.026207339 -0.18841891 -0.16958153
0.28496745 0.29405767 -0.22702882 -0.18122214 -0.09167414 -0.09052986 -0.38141662 0.039814483
-0.16882992 -0.2131751 -0.2660709 -0.19960998 -0.17760809 0.14926074 -0.3721289 -0.2748138
-0.19055961 -0.14637902 0.09206554 -0.14547989 -0.31828368 0.10450066 0.017831907 0.02070891
0.05381502 0.007386014 0.280714 -0.2699211 -0.06867666 -0.14671645 0.1312321 0.14127178
0.1291273 0.15479428 -0.088872574 0.055480562 0.002321122 -0.31955367 -0.3815949 0.319672
-0.04984561 0.21269648 -0.30128327 -0.08791297 -0.2567556 -0.32031506 0.098130316 0.018885504
-0.036418356 0.20808344 -0.060829446 -0.24428985 -0.1755387 -0.2656019 -0.12530366 0.077482104
-0.14855571 -0.08934465 -0.27670226 -0.24375808 -0.19180082 -0.22624043 0.16263393 -0.18013494
-0.33274615 -0.22368781 -0.3039952 0.22245154 0.1907233 0.08352656 -0.112587854 -0.2915495
-0.06155082 -0.029114045 -0.2064983 0.1881614 0.22652489 0.04609628 0.35221636 -0.075039424
0.13732144 0.15026578 -0.08334078 -0.05639243 0.17267507 -0.1398746 -0.056707725 0.17196071
0.24043919 -0.10132708 -0.2026165 0.043210987 -0.02092973 0.032096233 -0.31440994 -0.17870773
