Final Project/FacT-TT/dtd_best.pt (torch, 252673 bytes, 76 tensors)

blocks.0.attn.q_FacTs.weight f4 [8, 8]
0.3201658 -0.19754104 -0.06346202 0.2634176 -0.023273233 0.20900336 -0.06432416 0.018761648
0.5489182 -0.2893616 -0.5342536 0.7205913 0.423959 0.34657833 0.19371076 -0.41526565
-0.13295399 -0.4514184 -0.30662403 0.0011445924 0.6181749 0.024857854 0.16169605 -0.37871864
0.016238585 -0.3570237 -0.40711823 0.2802814 0.22167291 -0.026969774 -0.23440254 -0.24720545
0.124342196 0.075039744 0.2241123 0.0962387 -0.023493538 -0.20331044 0.14872672 0.24510275
-0.20051059 0.19455245 0.004101693 0.32246614 0.26507762 0.33488047 -0.24917792 0.29060683
-0.04704313 0.47907725 0.06725141 -0.308289 -0.3201567 0.117664024 -0.31692457 0.30851337
0.41048244 -0.0052322918 -0.14669852 -0.29534686 -0.08955278 0.09563088 0.007234839 0.1386385
00000000: c6ec a33e 3348 4abe 60f8 81bd acde 863e
00000010: 82a7 bebc fa04 563e 63bc 83bd 07b2 993c
00000020: e785 0c3f 3427 94be d8c4 08bf ac78 383f
00000030: 2711 d93e b772 b13e 1d5c 463e b39d d4be
00000040: 1725 08be 5020 e7be d3fd 9cbe 2606 963a
00000050: b640 1e3f b3a2 cb3c a693 253e 69e7 c1be
00000060: c806 853c cfcb b6be cd71 d0be 0b81 8f3e
00000070: 39fe 623e b7ef dcbc 3807 70be 6d23 7dbe
00000080: 1fa7 fe3d 70ae 993d b27d 653e cc18 c53d
00000090: 8575 c0bc 9d30 50be d14b 183e 37fc 7a3e
000000a0: a652 4dbe c238 473e 7f67 863b 481a a53e
000000b0: 41b8 873e 7475 ab3e 7f28 7fbe 6bca 943e
000000c0: 4cb0 40bd 9d49 f53e 1bbb 893d 0ed8 9dbe
000000d0: 94eb a3be d6f9 f03d f043 a2be 77f5 9d3e
000000e0: c12a d23e a573 abbb 2338 16be b437 97be
000000f0: 7367 b7bd 1fda c33d 3a12 ed3b 40f7 0d3e

blocks.0.attn.k_FacTs.weight f4 [8, 8]
0.20247832 -0.16975848 -0.29538563 -0.12607457 -0.016267026 -0.17597163 0.17548098 -0.14566465
0.17353176 0.2000634 0.50572175 -0.050500914 -0.14250366 0.015934551 -0.1734248 0.344969
0.074844204 0.06994479 -0.13763277 -0.27342847 -0.077094264 -0.02706774 0.027682157 -0.22235109
0.018157478 0.08247257 0.36947724 -0.41292477 0.06228625 0.0070540747 0.42650354 0.63045985
-0.088045605 -0.34837684 -0.5182557 0.17486207 0.23902856 0.053582627 -0.17890488 -0.39539796
-0.17213866 -0.41837963 -0.17419629 0.24876693 0.19685782 -0.10051465 0.21964383 -0.10172266
-0.3577711 0.029792756 -0.10546713 -0.22252545 0.068567775 -0.077513576 0.1712093 -0.42411634
-0.26674464 0.18516155 0.11834316 0.101043515 -0.17575541 0.23943458 0.18159498 0.2870308
00000000: 7a56 4f3e 2bd5 2dbe c93c 97be b119 01be
00000010: 6d42 85bc e831 34be 49b1 333e 1d29 15be
00000020: 4fb2 313e 6cdd 4c3e fb76 013f 0cda 4ebd
00000030: 7bec 11be 2d89 823c 4596 31be c79f b03e
00000040: eb47 993d 373f 8f3d 9bef 0cbe d1fe 8bbe
00000050: 99e3 9dbd 2abd ddbc b1c5 e23c 01b0 63be
00000060: febe 943c 61e7 a83d 1f2c bd3e e06a d3be
00000070: de1f 7f3d de25 e73b ac5e da3e d165 213f
00000080: 4151 b4bd 735e b2be 68ac 04bf 0b0f 333e
00000090: e7c3 743e 7579 5b3d d732 37be 9a71 cabe
000000a0: 1e45 30be db35 d6be 8360 32be c2bc 7e3e
000000b0: 1995 493e a0da cdbd 50ea 603e f853 d0bd
000000c0: c62d b7be f00f f43c 27ff d7bd b6dd 63be
000000d0: 436d 8c3d 70bf 9ebd 7e51 2f3e c725 d9be
000000e0: c192 88be fd9a 3d3e e65d f23d e7ef ce3d
000000f0: 3af9 33be 572e 753e 09f4 393e b3f5 923e

blocks.0.attn.v_FacTs.weight f4 [8, 8]
0.3153343 -0.08529566 -0.48612547 0.61424625 0.364309 -0.013258831 0.2192668 -0.439938
-0.39276043 0.20055182 0.45487484 -0.09522201 -0.16113414 -0.53100187 -0.2687939 0.21452089
0.21960366 0.33025417 0.21440484 -0.47995034 -0.14386187 -0.4115873 -0.34195536 -0.14178915
-0.078953415 -0.12760867 0.24393313 -0.5661205 -0.3768997 0.37308434 -0.45812827 0.18380557
0.51372147 -0.10799522 -0.26691264 -0.08520191 0.5242539 0.00087549747 0.6667177 -0.3607893
-0.045821063 -0.11122879 0.11610912 0.09520272 -0.48304224 0.15759543 -0.02815259 -0.16850123
0.26549122 0.19754201 0.149172 -0.036744338 -0.050801247 0.11635313 -0.1304356 0.06819854
-0.49707204 0.29593152 0.22977966 -0.27224076 -0.3746093 0.20409508 -0.44882348 -0.12502043
00000000: 7f73 a13e 7eaf aebd 70e5 f8be 3e3f 1d3f
00000010: b686 ba3e 913b 59bc 7a87 603e 8e3f e1be
00000020: e517 c9be 755d 4d3e 5be5 e83e c203 c3bd
00000030: 5900 25be bdef 07bf 5b9f 89be 5dab 5b3e
00000040: c8df 603e 1317 a93e f18c 5b3e 0dbc f5be
00000050: 8750 13be 92bb d2be c614 afbe 2d31 11be
00000060: 54b2 a1bd d9ab 02be 9bc9 793e 46ed 10bf
00000070: fff8 c0be e904 bf3e ca8f eabe 8737 3c3e
00000080: 4083 033f 992c ddbd c6a8 88be 577e aebd
00000090: 8135 063f a481 653a 03ae 2a3f 60b9 b8be
000000a0: deae 3bbd ebcb e3bd 9eca ed3d a5f9 c23d
000000b0: 5051 f7be b260 213e 43a0 e6bc 968b 2cbe
000000c0: 77ee 873e 7448 4a3e 8bc0 183e 3b81 16bd
000000d0: f814 50bd 8d4a ee3d e990 05be adab 8b3d
000000e0: 3a80 febe 5684 973e 5c4b 6b3e 2463 8bbe
000000f0: cacc bfbe 4dfe 503e 31cc e5be 5b05 00be

blocks.0.attn.proj_FacTs.weight f4 [8, 8]
-0.3471898 -0.4603733 -0.06706267 0.061962284 0.28682706 0.09632689 -0.544225 -0.3706568
0.013912249 0.050779723 -0.32156596 0.24023524 0.38077694 0.2939923 -0.2887293 -0.24448872
-0.14040451 0.308901 0.36041635 -0.17809264 0.1796527 0.074203245 0.16671221 -0.015158744
0.26231423 0.106601134 0.30234134 -0.23882551 -0.0853302 -0.23475622 0.18085764 0.12055696
0.055207103 0.44298005 -0.4087476 -0.040389605 -0.10759116 0.14573047 0.41327468 -0.4696576
-0.14254506 0.5590992 0.25148767 -0.40000018 -0.06135724 -0.099784 0.4728976 -0.28325763
0.16001754 -0.1649802 -0.44080848 -0.063460454 -0.18907271 -0.0875527 -0.032358225 -0.28634208
-0.050524484 -0.1728899 -0.15133236 0.15118316 0.14065021 -0.09895324 0.28862366 0.35758185
00000000: ddc2 b1be 0db6 ebbe 2758 89bd 2acc 7d3d
00000010: ffda 923e 0847 c53d 5452 0bbf bac6 bdbe
00000020: 34f0 633c 66fe 4f3d 4ba4 a4be 3a00 763e
00000030: 32f5 c23e 2986 963e 54d4 93be 405b 7abe
00000040: 33c6 0fbe 4628 9e3e 7e88 b83e eb5d 36be
00000050: e1f6 373e dff7 973d 9bb6 2a3e 615c 78bc
00000060: 0d4e 863e b251 da3d 7ccc 9a3e ad8e 74be
00000070: 9ac1 aebd ef63 70be bf32 393e 91e6 f63d
00000080: d820 623d 48ce e23e 5e47 d1be 926f 25bd
00000090: c158 dcbd 5e3a 153e bd98 d33e f676 f0be
000000a0: 55f7 11be 2021 0f3f fec2 803e d3cc ccbe
000000b0: bb51 7bbd 8e5b ccbd a21f f23e 2507 91be
000000c0: a3db 233e 92f0 28be a6b1 e1be 8ef7 81bd
000000d0: 479c 41be d44e b3bd 0f8a 04bd 6e9b 92be
000000e0: c3f2 4ebd 0d0a 31be dff6 1abe c2cf 1a3e
000000f0: 9c06 103e ffa7 cabd 7bc6 933e f814 b73e

blocks.0.mlp.fc1_FacTs.weight f4 [32, 8]
-0.20557034 -0.3143886 0.09002499 0.21586464 -0.1301953 -0.34176698 0.2605253 -0.106041335
-0.12615754 -0.077261284 0.08291426 0.017032497 0.394838 0.07728632 -0.17754464 -0.34741855
0.04359545 -0.042996574 0.23177822 0.09814782 0.14227517 0.012713342 -0.09654096 -0.09430242
0.25302616 -0.46368194 0.050867315 0.06963522 0.057547867 -0.2581524 0.06443528 -0.38147584
-0.15677689 0.17025891 0.20471424 -0.36318555 -0.13651147 0.028269747 0.13055009 0.33019832
0.44171533 -0.01776201 0.24162634 -0.020039232 0.19962731 -0.3862313 0.0928349 0.043453142
-0.39726752 -0.03059273 0.03644627 0.31150123 0.019352136 -0.23298231 0.2190657 0.028696807
0.11931817 0.48315886 0.4642972 0.08355083 -0.26348338 -0.50712496 0.09497251 0.25040078
-0.1584098 -0.027610842 -0.17846045 -0.17948441 0.22408107 -0.16682467 0.17560086 -0.49231708
0.0552772 -0.3494456 -0.23666443 0.24378978 0.07873333 0.40882492 -0.35580584 -0.100481436
-0.34909856 0.2525304 -0.12341115 0.37285516 -0.3001374 0.22478415 -0.2843096 0.28194985
0.45786938 -0.32182768 0.33642605 0.1749079 0.11193559 0.25043193 0.22592677 -0.23922859
-0.4662674 -0.19596899 0.1628599 0.14362648 -0.25161472 0.38382635 -0.15786636 -0.051409885
-0.08920369 0.26084828 -0.066330425 0.030706873 -0.22542587 -0.39593288 0.10321238 0.3453791
0.3147964 0.1975525 0.30732915 0.050260536 0.17559406 -0.30231586 0.38659266 -0.15081234
-0.18167801 -0.68654937 -0.56017184 0.27096733 0.060945608 0.5534175 -0.12499658 -0.63388807
0.11374595 0.09909141 -0.2441496 -0.22228342 -0.35284936 -0.36221763 0.14586584 -0.26104647
0.15537111 0.3357786 0.06780542 -0.17423782 0.2797755 0.0878213 0.33172673 -0.17285937
-0.32476887 0.1868079 -0.17588408 -0.2857487 0.43293035 -0.05240943 0.24400274 0.26366135
-0.024416631 0.50379604 0.57758784 -0.33935297 0.2813445 -0.6067424 0.08148609 0.070756294
-0.3035596 -0.12678555 -0.51315206 0.4118567 0.24435006 -0.00012244344 -0.41544658 -0.55221415
0.14403628 -0.060623616 0.05798306 0.1940727 -0.103495255 0.14010546 0.08227346 -0.02712443
0.23288868 -0.0009999635 0.24141397 -0.27684304 -0.27882266 -0.12538557 -0.062326703 0.22343682
0.1942977 0.4887736 0.28628957 -0.17073585 -0.47570288 -0.44614536 0.47952127 0.5539806
-0.71176904 -0.39013922 -0.065072566 0.5584051 0.2715744 0.19285561 -0.7581712 -0.77338964
-0.14704943 -0.1035494 0.30667156 -0.18366182 0.09568574 -0.37089884 0.32436997 0.35006505
-0.3150792 -0.042655263 0.33036935 -0.017691363 -0.11549155 -0.2472266 -0.20917912 0.067209415
-0.12312929 -0.057627555 0.2452659 -0.13794832 0.07561717 -0.3616809 0.1792938 -0.21592695
-0.28014767 0.09892325 -0.39907518 0.05846858 0.26364705 -0.23923716 -0.0099748615 0.17083848
0.41651708 -0.20324676 0.3794565 0.07230269 0.25970876 -0.13789576 0.1437598 -0.12551367
0.038425103 -0.15205513 -0.37208334 0.4451235 0.4051339 0.27259508 -0.26676396 -0.59069586
-0.6343574 -0.56986076 -0.36787283 0.6953172 0.53435355 0.5859155 -0.34808752 -0.41284305
00000000: 0881 52be 8bf7 a0be 065f b83d 9f0b 5d3e
00000010: eb51 05be 15fc aebe 9263 853e 332c d9bd
00000020: 712f 01be 2a3b 9ebd f4ce a93d bc87 8b3c
00000030: 3528 ca3e 4a48 9e3d 43ce 35be d8e0 b1be
00000040: 2591 323d 2d1d 30bd 4557 6d3e b901 c93d
00000050: 95b0 113e 9f4b 503c 44b7 c5bd a121 c1bd
00000060: a58c 813e b867 edbe 3f5a 503d e99c 8e3d
00000070: 50b7 6b3d 8d2c 84be a5f6 833d cd50 c3be
00000080: 1f8a 20be 5a58 2e3e 9ca0 513e 75f3 b9be
00000090: aac9 0bbe f595 e73c ecae 053e c10f a93e
000000a0: 8328 e23e a381 91bc e56c 773e 5129 a4bc
000000b0: 1a6b 4c3e 1cc0 c5be 3920 be3d ecfb 313d
000000c0: a666 cbbe 9b9d fabc af48 153d 177d 9f3e
000000d0: 5f88 9e3c ea92 6ebe c252 603e 9115 eb3c
000000e0: 165d f43d 9960 f73e 5db8 ed3e b31c ab3d
000000f0: 4be7 86be f1d2 01bf f380 c23d 8834 803e
00000100: 2e36 22be 2230 e2bc 56be 36be c3ca 37be
00000110: 8275 653e 16d4 2abe b6d0 333e fc10 fcbe
00000120: 586a 623d 89ea b2be 2958 72be 07a4 793e
00000130: f13e a13d 8051 d13e 2f2c b6be 36c9 cdbd
00000140: 0cbd b2be aa4b 813e fcbe fcbd dfe6 be3e
00000150: 9cab 99be d12d 663e 0791 91be bb5b 903e
00000160: db6d ea3e 99c6 a4be 0940 ac3e 0e1b 333e
00000170: 7d3e e53d 9d38 803e 5959 673e 57f8 74be
00000180: 9aba eebe 18ac 48be bfc4 263e d212 133e
00000190: a5d3 80be e384 c43e b8a7 21be 2c93 52bd
000001a0: 6db0 b6bd e88d 853e 3fd8 87bd fb8c fb3c
000001b0: 0ad6 66be b7b7 cabe 0361 d33d 88d5 b03e
000001c0: fe2c a13e 344b 4a3e 3f5a 9d3e fedd 4d3d
000001d0: eece 333e 25c9 9abe 79ef c53e 8d6e 1abe
000001e0: cd09 3abe b3c1 2fbf 6c67 0fbf 3bbc 8a3e
000001f0: 1aa2 793d c5ac 0d3f 35fe ffbd 7d46 22bf
00000200: a3f3 e83d 70f0 ca3d 5a02 7abe 449e 63be
00000210: aca8 b4be 9774 b9be db5d 153e e2a7 85be
00000220: 9b19 1f3e 2ceb ab3e 91dd 8a3d 666b 32be
00000230: bc3e 8f3e a7db b33d 16d8 a93e 0c02 31be
00000240: 1b48 a6be 924a 3f3e f51a 34be a74d 92be
00000250: 0ca9 dd3e 45ab 56bd dbdb 793e 9ffe 863e
00000260: 6305 c8bc c7f8 003f ccdc 133f acbf adbe
00000270: 630c 903e 7853 1bbf 2ee2 a63d ade8 903d
00000280: 2a6c 9bbe 12d4 01be ef5d 03bf e2de d23e
00000290: e736 7a3e 2964 00b9 6ab5 d4be e85d 0dbf
000002a0: 3f7e 133e 7850 78bd a57f 6d3d feba 463e
000002b0: 52f5 d3bd ce77 0f3e fd7e a83d 0d34 debc
000002c0: 5f7a 6e3e 3511 83ba 3935 773e 5fbe 8dbe
000002d0: d8c1 8ebe 1365 00be 494a 7fbd 9fcc 643e
000002e0: faf5 463e 8940 fa3e 8c94 923e 61d5 2ebe
000002f0: 548f f3be 2a6d e4be d083 f53e acd1 0d3f
00000300: 7f36 36bf 54c0 c7be c444 85bd a3f3 0e3f
00000310: cd0b 8b3e f17b 453e 8217 42bf ddfc 45bf
00000320: 2094 16be b511 d4bd 0e04 9d3e d811 3cbe
00000330: e3f6 c33d 74e6 bdbe d213 a63e ba3b b33e
00000340: 1052 a1be 49b7 2ebd 2c26 a93e 7aed 90bc
00000350: d586 ecbd f828 7dbe 0d33 56be 17a5 893d
00000360: 362b fcbd df0a 6cbd fc26 7b3e 5342 0dbe
00000370: 2ddd 9a3d 3d2e b9be cb98 373e f41b 5dbe
00000380: 846f 8fbe 4698 ca3d 9553 ccbe c07c 6f3d
00000390: bffc 863e 96fa 74be 9a6d 23bc 48f0 2e3e
000003a0: ba41 d53e eb1f 50be 1f48 c23e 6f13 943d
000003b0: 8cf8 843e 8c34 0dbe c535 133e a886 00be
000003c0: a463 1d3d 57b4 1bbe b581 bebe 3ae7 e33e
000003d0: b66d cf3e 9591 8b3e 4995 88be d837 17bf
000003e0: 3f65 22bf 65e2 11bf d459 bcbe 4f00 323f
000003f0: 65cb 083f 8ffe 153f 8738 b2be 2a60 d3be

blocks.0.mlp.fc2_FacTs.weight f4 [8, 32]
-0.44713926 0.4585023 0.35027695 -0.39725223 -0.4859048 -0.20248888 -0.32772467 0.5253232
-0.060797505 0.6570724 0.5197941 -0.2865155 -0.5243197 -0.12172368 -0.08503008 0.17871672
-0.3113683 0.361989 0.4198324 0.16605493 -0.38330996 0.18444556 0.17405896 -0.18644506
-0.3251581 0.6251031 0.30226445 -0.46191284 -0.56749344 -0.22333175 -0.18920922 0.29618257
0.17223547 -0.2744647 -0.051898055 0.20348835 0.2657266 0.3069751 0.010476239 -0.051281914
0.055848647 -0.27744025 -0.23602203 0.2300655 0.16233543 0.26996198 -0.26466402 -0.0039790166
0.11739382 -0.2211256 -0.045218073 -0.20813361 0.2630503 -0.18909556 -0.36081544 0.0063837674
-0.27219582 -0.21628857 -0.16761893 0.16703242 0.35557255 0.13459344 -0.024914552 -0.04575933
0.42307174 -0.10650861 -0.38916725 0.14725024 0.3669771 0.08874583 0.3178301 -0.4489504
0.18780497 -0.38416737 -0.4246282 0.13774088 0.26997033 -0.10608651 0.0010643239 0.081614606
-0.012815025 -0.21604516 -0.12407148 -0.040952872 0.41781375 0.25645584 -0.108231395 0.07129153
-0.0286439 -0.3899824 -0.34922692 0.6003945 0.2901369 0.4334719 0.09631066 -0.47779617
0.06448473 -0.114318885 -0.30175623 0.02971308 0.27676934 0.12548907 0.4004241 -0.049125783
0.1238172 0.039949723 0.0754048 -0.10824179 0.26886433 -0.0075235004 0.07298014 -0.013044662
0.2705057 -0.2831936 -0.05172719 0.20723389 0.30531824 0.21785845 0.14339396 -0.19634469
0.005355493 -0.1373178 -0.21052752 0.26616684 0.20188767 0.052212935 0.03465266 -0.30507094
0.2054038 -0.1611652 -0.16162378 0.016205154 0.11448418 0.30996126 0.05376072 -0.31556764
-0.06941788 -0.10648435 -0.21444802 0.03552933 0.20714845 0.112979025 -0.36781967 -0.05320624
-0.242083 -0.42875123 -0.256327 0.026327016 0.28142393 0.083180524 -0.47951192 -0.08308298
-0.18229054 -0.20282471 -0.14423114 0.3402952 0.13956767 0.28841078 0.018176552 -0.27382365
0.4280157 -0.19323947 -0.6455131 0.41624007 0.64851075 0.18108127 0.3871061 -0.32780755
0.32070792 -0.32489896 -0.21521045 0.2809473 0.43591082 -0.16674659 -0.041967925 0.00953466
0.13334341 -0.3517773 -0.25947705 0.39563036 0.5296155 0.36044544 -0.13924065 -0.18958202
0.20455684 -0.36804917 -0.40131497 0.5187609 0.52026707 0.22959368 0.27639666 -0.2582551
-0.41025102 0.3457404 0.36615327 -0.30169654 -0.5000976 -0.22155087 -0.16534571 0.56749964
-0.418845 0.43913117 0.59405845 -0.24753231 -0.61908656 -0.06253062 0.05977719 0.10925786
-0.2657985 0.32104105 0.24727514 -0.052961715 -0.5241738 -0.15420099 0.14190318 0.06979727
-0.23794077 0.3931629 0.46359456 -0.6478504 -0.47094968 -0.17150772 -0.23406243 0.25188732
0.087128505 -0.018644938 0.014527382 0.009959417 0.0310216 0.15797114 -0.060640953 -0.050291255
-0.12552568 0.18841405 0.1964005 -0.15711793 0.027222758 -0.22307411 0.15105039 0.22725819
-0.0962741 0.06924272 0.22355895 -0.005855472 -0.16192837 -0.15713495 0.19938381 -0.13816668
-0.072454356 0.16745603 -0.023678483 -0.12936233 -0.11929481 -0.1917648 -0.08171815 0.25020903
00000000: 70ef e4be d0c0 ea3e 8057 b33e a564 cbbe
00000010: 84c8 f8be 3f59 4fbe 87cb a7be 957b 063f
00000020: ce06 79bd e635 283f 3a11 053f 29b2 92be
00000030: d139 06bf 444a f9bd 4024 aebd 8401 373e
00000040: aa6b 9fbe 9f56 b93e 46f4 d63e 4e0a 2a3e
00000050: 3441 c4be 4cdf 3c3e 833c 323e 74eb 3ebe
00000060: 1f7b a6be c206 203f 68c2 9a3e d77f ecbe
00000070: 4047 11bf 14b1 64be 10c0 41be 3ea5 973e
00000080: 7f5e 303e a386 8cbe 0e93 54bd 405f 503e
00000090: 510d 883e d72b 9d3e 88a4 2b3c fc0c 52bd
000000a0: 8dc1 643d a60c 8ebe c2af 71be 4a96 6b3e
000000b0: 423b 263e 7538 8a3e 0b82 87be 6962 82bb
000000c0: 2c6c f03d c06e 62be 9636 39bd fa20 55be
000000d0: 87ae 863e 44a2 41be cdbc b8be ec2e d13b
000000e0: 405d 8bbe c07a 5dbe 4ca4 2bbe 8c0a 2b3e
000000f0: 9b0d b63e ddd2 093e 9a19 ccbc 236e 3bbd
00000100: dc9c d83e 3021 dabd ee40 c7be c4c8 163e
00000110: 6ce4 bb3e 60c0 b53d a0ba a23e d4dc e5be
00000120: f24f 403e 96b1 c4be de68 d9be f20b 0d3e
00000130: 8d39 8a3e e243 d9bd c980 8b3a 8f25 a73d
00000140: 1cf6 51bc f13a 5dbe 3019 febd 33be 27bd
00000150: afeb d53e 2e4e 833e 6ca8 ddbd 4b01 923d
00000160: 9da6 eabc c6ab c7be dfcd b2be 74b3 193f
00000170: d38c 943e 07f0 dd3e 863e c53d b3a1 f4be
00000180: 9210 843d 0520 eabd cb7f 9abe d868 f33c
00000190: b6b4 8d3e 3580 003e 6304 cd3e 1e38 49bd
000001a0: df93 fd3d 52a2 233d d56d 9a3d dfad ddbd
000001b0: 96a8 893e b287 f6bb 9d76 953d 47b9 55bc
000001c0: b97f 8a3e c0fe 90be e4df 53bd 1f35 543e
000001d0: ac52 9c3e 4916 5f3e ded5 123e 950e 49be
000001e0: 227d af3b 0a9d 0cbe 8794 57be 0547 883e
000001f0: a4bb 4e3e 3bdd 553d f3ef 0d3d 4232 9cbe
00000200: 6055 523e 7d08 25be b480 25be acc0 843c
00000210: af76 ea3d 3eb3 9e3e 3334 5c3d 1592 a1be
00000220: f62a 8ebd 7814 dabd 4398 5bbe 3487 113d
00000230: b91e 543e 8c61 e73d dc52 bcbe c9ee 59bd
00000240: 9be4 77be 4885 dbbe 4b3d 83be c1ab d73c
00000250: cc16 903e 8d5a aa3d 9682 f5be 6927 aabd
00000260: 5faa 3abe 48b1 4fbe 54b1 13be 2c3b ae3e
00000270: d4ea 0e3e 94aa 933e fee6 943c 9d32 8cbe
00000280: e024 db3e 91e0 45be 5940 25bf 6b1d d53e
00000290: cd04 263f 5e6d 393e c532 c63e 64d6 a7be
000002a0: d433 a43e 2859 a6be 2160 5cbe 53d8 8f3e
000002b0: b42f df3e 9ebf 2abe 8fe6 2bbd 4337 1c3c
000002c0: 2d8b 083e 271c b4be 2dda 84be 1090 ca3e
000002d0: e294 073f 4e8c b83e 1a95 0ebe ca21 42be
000002e0: 5977 513e f170 bcbe 2879 cdbe 84cd 043f
000002f0: 3930 053f 9b1a 6b3e dd83 8d3e 033a 84be
00000300: 6c0c d2be e304 b13e 7178 bb3e f877 9abe
00000310: 6506 00bf 3bde 62be 6350 29be a847 113f
00000320: da72 d6be cdd5 e03e 3714 183f 1c79 7dbe
00000330: 757c 1ebf 0e10 80bd edd8 743d 96c2 df3d
00000340: be16 88be 7e5f a43e b235 7d3e 62ee 58bd
00000350: 4130 06bf dde6 1dbe 114f 113e dff1 8e3d
00000360: bfa6 73be a64c c93e 445c ed3e 86d9 25bf
00000370: 5120 f1be b89f 2fbe 10ae 6fbe 60f7 803e
00000380: 6e70 b23d 45bd 98bc 4204 6e3c d32c 233c
00000390: 0321 fe3c 30c3 213e a662 78bd 34fe 4dbd
000003a0: ce89 00be 9def 403e 361d 493e 86e3 20be
000003b0: 4302 df3c 8a6d 64be f4ac 1a3e 5fb6 683e
000003c0: 5b2b c5bd 21cf 8d3d a3ec 643e 42df bfbb
000003d0: 8dd0 25be fce7 20be 452b 4c3e 917b 0dbe
000003e0: f362 94bd 9879 2b3e 61f9 c1bc 8f77 04be
000003f0: d650 f4bd fe5d 44be d85b a7bd 661b 803e

blocks.1.attn.q_FacTs.weight f4 [8, 8]
0.26554212 0.1483119 0.36373276 0.024516335 -0.2774943 -0.26044345 -0.10597288 -0.10508271
0.15348178 0.28030437 0.29879186 0.1775927 -0.09029416 0.1453904 0.14355111 -0.18977842
-0.46366388 -0.2805327 -0.3899024 0.081215315 0.47810185 0.28974178 -0.20462987 -0.51350635
0.19687195 -0.12292314 0.2878666 0.28733563 -0.18347824 -0.011448355 0.16365251 -0.23651244
0.049113933 -0.23701473 -0.5673727 0.1680331 0.5092908 0.106872655 -0.23874828 0.003217108
-0.26432112 -0.301039 -0.5604504 0.32984114 0.42243347 0.034487866 0.033239927 -0.4388055
0.18350591 0.33168277 0.5158489 0.0042086034 -0.55653566 -0.322603 0.19880433 0.5331564
-0.19948085 -0.26792803 -0.24507034 0.15383592 0.20781328 -0.27004126 0.32955074 0.1780025
00000000: 23f5 873e 13df 173e 2e3b ba3e 7bd6 c83c
00000010: bc13 8ebe d858 85be 4f08 d9bd 9b35 d7bd
00000020: 542a 1d3e 0e84 8f3e 3ffb 983e dcda 353e
00000030: 25ec b8bd 39e1 143e 10ff 123e 4655 42be
00000040: 5a65 edbe fba1 8fbe 4aa1 c7be 3754 a63d
00000050: c4c9 f43e 0959 943e 7e8a 51be 2775 03bf
00000060: cd98 493e 21bf fbbd 4063 933e a81d 933e
00000070: b8e1 3bbe e291 3bbc 8694 273e 5130 72be
00000080: b12b 493d fdb3 72be 563f 11bf de10 2c3e
00000090: e260 023f 0de0 da3d 6e7a 74be 1ed6 523b
000000a0: 1955 87be c921 9abe ad79 0fbf f0e0 a83e
000000b0: 3349 d83e 2643 0d3d 9726 083d 1dab e0be
000000c0: f9e8 3b3e 53d2 a93e ac0e 043f 53e8 893b
000000d0: 1f79 0ebf 382c a5be 5d93 4b3e f07c 083f
000000e0: b544 4cbe dd2d 89be b8f3 7abe 2a87 1d3e
000000f0: 01cd 543e d942 8abe e0ba a83e 4a46 363e

blocks.1.attn.k_FacTs.weight f4 [8, 8]
-0.06760913 -0.18800712 -0.16662931 -0.005223231 0.28367007 -0.19228207 -0.011897479 0.08200437
0.12263887 0.2869818 0.0687421 0.11183502 0.19154972 -0.05468709 0.06896419 -0.24315786
0.22580823 -0.08190507 0.23448256 -0.23766993 -0.234494 0.13799177 0.11350729 -0.14324546
0.16127676 0.4081862 0.5668526 -0.27620184 0.116339415 -0.25541544 0.1840278 0.07968839
0.09767261 0.19680631 -0.15203178 -0.30131575 -0.36287907 -0.36038852 0.004905894 0.3999983
-0.23766091 -0.05928382 -0.21901046 -0.09842285 0.14882073 0.030132616 -0.030954788 -0.1625938
0.25319076 0.12078058 -0.34077078 0.2670716 -0.10548491 0.20870425 0.07802844 0.33844528
-0.017121265 -0.46464333 -0.09815117 -0.1983757 0.34513766 0.123247065 0.012498494 -0.21675599
00000000: a876 8abd f084 40be e0a0 2abe a327 abbb
00000010: 343d 913e 97e5 44be a5ed 42bc e8f1 a73d
00000020: 162a fb3d 47ef 923e a8c8 8c3d c209 e53d
00000030: 9c25 443e 92ff 5fbd 193d 8d3d 60fe 78be
00000040: 463a 673e d8bd a7bd 321c 703e bf5f 73be
00000050: 321f 70be b74d 0d3e 8376 e83d f0ae 12be
00000060: bc25 253e c8fd d03e 411d 113f 546a 8dbe
00000070: 5c43 ee3d d0c5 82be c971 3c3e ab33 a33d
00000080: 9408 c83d 9887 493e 38ae 1bbe 0f46 9abe
00000090: 49cb b9be d884 b8be 9fc1 a03b 94cc cc3e
000000a0: 625d 73be 97d3 72bd 4744 60be eb91 c9bd
000000b0: 7664 183e add8 f63c e594 fdbc fd7e 26be
000000c0: 38a2 813e cf5b f73d 8279 aebe 9cbd 883e
000000d0: 7908 d8bd 91b6 553e 60cd 9f3d b348 ad3e
000000e0: e541 8cbc bbe5 edbe 7b03 c9bd 0023 4bbe
000000f0: e2b5 b03e f568 fc3d 7cc6 4c3c 48f5 5dbe

blocks.1.attn.v_FacTs.weight f4 [8, 8]
-0.15754901 0.20722163 0.1884495 -0.21323642 0.3446504 0.3124958 -0.07398882 0.085280724
-0.09050753 0.3449895 0.44583344 -0.55497324 -0.3068406 -0.08454643 0.103133075 0.3833951
-0.23950951 0.49975225 0.5915093 -0.28967217 -0.62972385 0.23198108 0.1965054 0.33009377
0.31412563 0.18509604 0.17444877 0.03406405 0.083297424 -0.43804747 -0.08660106 0.24958183
-0.10766153 -0.0238937 0.36237073 -0.4443886 -0.5486231 0.15056969 -0.08423894 0.107193835
0.028607888 0.68169266 0.43909636 -0.10585926 0.08569884 -0.5826464 0.5637951 0.05562308
0.07982932 -0.23923393 -0.030338027 0.2844594 -0.099870384 -0.36318612 0.167961 0.37875283
0.3958564 0.10551471 0.009261143 -0.34450895 -0.13039416 -0.23323667 0.4215105 0.14200127
00000000: 8754 21be e831 543e e8f8 403e a65a 5abe
00000010: 0476 b03e 73ff 9f3e 7387 97bd a9a7 ae3d
00000020: 035c b9bd 77a2 b03e 4844 e43e ba12 0ebf
00000030: 361a 9dbe ae26 adbd 6f37 d33d 5d4c c43e
00000040: fb41 75be 87df ff3e 276d 173f e94f 94be
00000050: 9535 21bf 738c 6d3e b638 493e 0d02 a93e
00000060: 13d5 a03e d189 3d3e b3a2 323e bf86 0b3d
00000070: d797 aa3d c247 e0be e65b b1bd 6192 7f3e
00000080: a67d dcbd b9bc c3bc a888 b93e e786 e3be
00000090: 9072 0cbf f12e 1a3e 7785 acbd 7188 db3d
000000a0: 175b ea3c 6983 2e3f 3dd1 e03e bdcc d8bd
000000b0: e082 af3d 5128 15bf e054 103f 07d5 633d
000000c0: 8e7d a33d bdf9 74be 7487 f8bc aaa4 913e
000000d0: d888 ccbd 88f3 b9be f8fd 2b3e e4eb c13e
000000e0: b1ad ca3e 1918 d83d 0dbc 173c 7a63 b0be
000000f0: 0c86 05be 98d5 6ebe 39d0 d73e c868 113e

blocks.1.attn.proj_FacTs.weight f4 [8, 8]
-0.60811406 -0.21067843 -0.75907224 0.02027563 -0.7232151 -0.67425376 -0.32086885 0.67891717
0.31457326 0.24338347 0.03174135 0.42009175 0.08133993 0.48235324 -0.06402001 -0.67933434
0.6605049 0.70305806 0.07146188 0.44346786 0.076899275 0.006945904 0.45099595 -0.5385739
0.13206245 0.08105333 0.28920263 0.20485096 0.5044171 -0.095068246 0.36357495 -0.243823
0.49477327 0.54572403 0.18785524 0.41764367 0.34135655 0.4171507 0.08753154 -0.57002485
0.3064616 0.3975306 0.3976675 0.46692067 0.3426053 0.7329916 0.41023433 -0.40560147
-0.61268544 -0.71910256 -0.3202954 -0.3350007 -0.43243414 -0.4427778 0.34980035 0.73763436
-0.16965038 0.008636174 -0.22632828 -0.020119801 0.17703342 -0.22736499 -0.0041359635 -0.21170291
00000000: 5dad 1bbf 16bc 57be 8f52 42bf 1419 a63c
00000010: a024 39bf e59b 2cbf ec48 a4be 84cd 2d3f
00000020: bf0f a13e 8439 793e 3803 023d 4416 d73e
00000030: 8d95 a63d 01f7 f63e ec1c 83bd dbe8 2dbf
00000040: d916 293f 9dfb 333f 9b5a 923d 380e e33e
00000050: 5e7d 9d3d 779a e33b f1e8 e63e fbdf 09bf
00000060: 613b 073e 4aff a53d 5e12 943e 73c4 513e
00000070: 7b21 013f 24b3 c2bd 7f26 ba3e bdac 79be
00000080: ec52 fd3e 92b4 0b3f 205d 403e 64d5 d53e
00000090: 49c6 ae3e c794 d53e bc43 b33d 26ed 11bf
000000a0: 89e8 9c3e 2189 cb3e 139b cb3e 3a10 ef3e
000000b0: f669 af3e 56a5 3b3f 3c0a d23e ffaa cfbe
000000c0: f4d8 1cbf 1b17 38bf c2fd a3be 3685 abbe
000000d0: 0268 ddbe c6b3 e2be 0819 b33e 9bd5 3c3f
000000e0: d4b8 2dbe bd7e 0d3c 9ac2 67be 48d2 a4bc
000000f0: 4048 353e 5ed2 68be fa86 87bb a6c8 58be

blocks.1.mlp.fc1_FacTs.weight f4 [32, 8]
-0.40977964 -0.015972748 -0.33181927 0.15402165 0.26733214 0.4808721 -0.006134864 -0.0789829
0.021290625 0.44808298 0.07375417 -0.097356915 -0.45782438 -0.11086 0.29985476 -0.04519902
-0.3677106 -0.43114883 0.14006065 0.44248646 -0.18138449 0.13290976 -0.20672578 0.03861
-0.709286 -0.540937 -0.49421126 0.20625299 0.7157693 0.36026508 -0.47728166 -0.70348126
0.44459665 0.38092723 0.45000726 -0.14087681 -0.09275293 -0.18454957 -0.022061542 0.49538288
-0.004710935 -0.3615602 0.076051466 0.03877971 0.36463568 0.4277278 0.25297523 0.20454384
0.34083956 0.15587951 0.18127662 -0.1266347 -0.043164834 -0.009836259 0.2060589 0.0036750662
0.39875427 0.1313217 0.25845063 -0.24447161 0.13737245 -0.14486322 -0.014461372 0.41583616
0.1283037 0.1697781 0.7045602 -0.25420558 -0.63276297 -0.380195 0.3329189 0.5065057
0.104873896 0.49333274 0.53498703 -0.38936734 0.11708322 -0.13374837 0.36409947 0.48200855
0.10974556 0.5412881 0.0031532766 -0.33545384 -0.3755938 -0.6666515 0.4965083 0.14713146
0.115744404 -0.17445846 -0.0589562 -0.09051005 -0.06032708 0.31247357 -0.037975047 0.1355971
-0.11940022 -0.42194733 -0.16733187 0.41991994 -0.004320778 -0.034273565 -0.19482143 -0.57004416
0.2132455 0.34307432 0.6545593 -0.63024974 -0.44698492 -0.20467111 0.08304821 0.4934817
0.12412247 0.08749025 0.23754849 -0.30430025 -0.25385347 0.19775197 -0.08898379 0.34136716
-0.14173448 0.3870668 -0.11022449 -0.40170687 0.063669756 -0.20601274 0.42651385 0.45386738
0.022162741 0.16302687 0.13275823 -0.12355672 0.42099297 0.07067326 -0.33186322 0.05206721
0.20370921 0.2473595 -0.0144056305 -0.2439253 -0.20799093 -0.06773801 0.31802696 0.06502574
0.122359954 0.11147018 -0.051918644 -0.00037176922 -0.19907396 -0.37456328 -0.19662201 -0.073151566
0.038385246 0.17771502 0.09975635 0.3951926 -0.11712683 -0.044579018 -0.42086178 -0.035769414
-0.15552369 -0.14432634 0.3547909 0.05620006 -0.15583484 0.16775373 0.33251467 0.07889178
0.09590034 0.31524542 -0.18360661 -0.17082606 -0.21184377 -0.3727509 0.10834349 0.38022807
-0.3135477 -0.3247739 -0.115542725 0.119078375 0.29197568 -0.05409499 -0.40740928 0.12687333
-0.5913245 -0.017866107 -0.2229043 0.51005447 0.651225 0.58139443 -0.5762233 -0.14609498
-0.09534141 -0.33400932 -0.07410507 0.50908524 0.03395496 0.44999427 -0.16019854 -0.55740553
0.41390938 0.3925442 0.2848596 0.08937074 0.16738439 -0.20498124 -0.02286227 -0.117680386
-0.03079904 -0.34476137 -0.0331812 0.32272056 -0.12628879 -0.00988665 -0.19326508 0.21692747
0.17246872 -0.19008705 -0.11580364 0.17272994 0.1257256 -0.014661451 0.27963364 0.22271346
0.40144086 0.30682597 0.15086888 -0.53030896 -0.5442548 0.06338013 0.4589509 0.1115323
-0.41977072 -0.3599244 -0.468619 0.059092004 0.08839326 0.35447553 -0.19684578 -0.2910325
-0.3462978 -0.13031623 -0.6165067 0.60268205 0.5480616 0.51640004 -0.4135387 -0.12845214
-0.35243583 -0.1511067 -0.47931632 0.39172706 0.21617766 -0.033336796 -0.1902703 0.057809085
00000000: a3ce d1be 48d9 82bc 37e4 a9be dab7 1d3e
00000010: c2df 883e de34 f63e f806 c9bb c9c1 a1bd
00000020: ad69 ae3c 226b e53e 6d0c 973d 1063 c7bd
00000030: f567 eabe 910a e3bd 9086 993e 9c22 39bd
00000040: 9044 bcbe 8abf dcbe 0f6c 0f3e 968d e23e
00000050: dbbc 39be 7f19 083e ecaf 53be 8525 1e3d
00000060: c493 35bf d97a 0abf 4209 fdbe fc33 533e
00000070: a83c 373f aa74 b83e 435e f4be 5917 34bf
00000080: 2ca2 e33e e508 c33e 5a67 e63e 0342 10be
00000090: 40f5 bdbd 90fa 3cbe 68ba b4bc d3a2 fd3e
000000a0: 305e 9abb 6b1e b9be dfc0 9b3d 79d7 1e3d
000000b0: 87b1 ba3e 23ff da3e f885 813e f173 513e
000000c0: 8682 ae3e e19e 1f3e 94a0 393e 87ac 01be
000000d0: 9ccd 30bd 4328 21bc 1b01 533e 61d9 703b
000000e0: 8529 cc3e 3279 063e a453 843e c456 7abe
000000f0: 5dab 0c3e 0657 14be 64ef 6cbc 7ae8 d43e
00000100: 0c62 033e 4fda 2d3e 0f5e 343f 3c27 82be
00000110: c1fc 21bf eba8 c2be 5974 aa3e 5caa 013f
00000120: 20c8 d63d 1c96 fc3e e9f4 083f 285b c7be
00000130: 54c9 ef3d 55f5 08be 3f6b ba3e d3c9 f63e
00000140: 48c2 e03d db91 0a3f 34a7 4e3b 9bc0 abbe
00000150: d54d c0be aca9 2abf 5636 fe3e a1a9 163e
00000160: 670b ed3d 3da5 32be 0e7c 71bd 555d b9bd
00000170: 8719 77bd 89fc 9f3e b98b 1bbd f7d9 0a3e
00000180: 1a88 f4bd 7b09 d8be 0c59 2bbe bfff d63e
00000190: 5095 8dbb 7062 0cbd 457f 47be 6aee 11bf
000001a0: 075d 5a3e 70a7 af3e 3391 273f 0c58 21bf
000001b0: 35db e4be 4e95 51be 2e15 aa3d a2a9 fc3e
000001c0: ec33 fe3d 172e b33d e93f 733e 3ecd 9bbe
000001d0: 15f9 81be 7e7f 4a3e 223d b6bd adc7 ae3e
000001e0: d822 11be 9f2d c63e 61bd e1bd 86ac cdbe
000001f0: 4a65 823d 01f5 52be 0660 da3e 4e61 e83e
00000200: a38e b53c 84f0 263e c6f1 073e 4e0b fdbd
00000210: 648c d73e 24bd 903d fae9 a9be 6d44 553d
00000220: 2699 503e cf4b 7d3e 9805 6cbc 8ec7 79be
00000230: 93fb 54be 3aba 8abd 6ed4 a23e 372c 853d
00000240: db97 fa3d 7a4a e43d a5a8 54bd 05ea c2b9
00000250: 0bda 4bbe c2c6 bfbe 4857 49be 7dd0 95bd
00000260: d939 1d3d edfa 353e 0f4d cc3d af56 ca3e
00000270: 31e0 efbd 7d98 36bd 327b d7be f382 12bd
00000280: 9a41 1fbe 49ca 13be 27a7 b53e 0932 663d
00000290: 2b93 1fbe a2c7 2b3e 5d3f aa3e 0392 a13d
000002a0: 6667 c43d d967 a13e 5f03 3cbe 07ed 2ebe
000002b0: 93ed 58be 35d9 bebe 31e3 dd3d 41ad c23e
000002c0: 5389 a0be c448 a6be aaa1 ecbd 5ddf f33d
000002d0: d67d 953e b592 5dbd f397 d0be 15eb 013e
000002e0: 0b61 17bf f15b 92bc 0641 64be ee92 023f
000002f0: aeb6 263f 44d6 143f 5f83 13bf ec99 15be
00000300: 5b42 c3bd 4503 abbe 66c4 97bd 6953 023f
00000310: 5b14 0b3d a665 e63e 160b 24be 21b2 0ebf
00000320: eeeb d33e 8efb c83e 1ed9 913e 0208 b73d
00000330: d066 2b3e 9ae6 51be a849 bbbc 6a02 f1bd
00000340: 454e fcbc 9084 b0be 03e9 07bd a13b a53e
00000350: d951 01be 9efb 21bc 48e7 45be 3c22 5e3e
00000360: a49b 303e 2ea6 42be 752a edbd 1ee0 303e
00000370: 36be 003e 9536 70bc 242c 8f3e ff0e 643e
00000380: a889 cd3e 4b18 9d3e 5f7d 1a3e 54c2 07bf
00000390: 4854 0bbf 71cd 813d 9dfb ea3e 0c6b e43d
000003a0: 30ec d6be 0348 b8be d4ee efbe 750a 723d
000003b0: 8707 b53d d17d b53e f191 49be 3602 95be
000003c0: f24d b1be 9e71 05be 62d3 1dbf 5f49 1a3f
000003d0: c44d 0c3f cb32 043f 58bb d3be f588 03be
000003e0: 7872 b4be b7bb 1abe f368 f5be 7390 c83e
000003f0: ad5d 5d3e 2a8c 08bd 38d6 42be 38c9 6c3d

blocks.1.mlp.fc2_FacTs.weight f4 [8, 32]
-0.5151253 0.28971165 0.30434936 -0.33513346 -0.525952 0.02360775 -0.27207944 0.3029613
-0.4094335 0.29493037 0.4623181 -0.085370705 -0.49395743 0.04416568 -0.2649593 0.49495006
-0.6242842 0.35066006 0.20519723 -0.16234086 -0.44725397 0.2058581 -0.35670933 0.09647406
-0.37053502 0.3933428 0.56542826 -0.41555056 -0.3997565 -0.23668772 -0.5578644 0.2955883
0.2871338 -0.013003653 -0.11864221 0.12449949 0.33487085 -0.25448042 0.48506954 -0.16283461
0.21783592 -0.44403023 -0.320587 0.18878537 0.35812905 -0.12039491 0.0430368 -0.43205822
0.5220998 -0.1362526 -0.2421694 0.19099438 0.45943594 0.020257592 0.2669478 -0.23539722
0.33422184 -0.45881173 -0.43930462 0.41937158 0.40350923 0.38211066 0.3938195 -0.39324328
0.21663646 0.011216172 -0.43735832 0.19185008 0.430555 -0.05290064 0.14535618 0.012939293
0.40641725 -0.35392302 -0.36121863 -0.0392743 0.31217527 0.07726921 0.19752868 -0.26255536
0.51283467 -0.10462412 -0.38619915 0.3925093 0.29119527 -0.007904228 0.5305403 -0.31458256
0.2531674 -0.09884546 -0.38232023 0.13807714 0.48905215 0.17033568 0.32556567 -0.0038445117
0.17177522 -0.3146762 -0.17629066 0.3461462 0.21235913 0.09016992 0.4123447 -0.28064868
0.03948937 -0.27112922 -0.38468853 0.24761061 0.40886542 0.22910891 0.23369122 -0.12468305
0.19633986 -0.17507108 -0.28669235 0.17062415 0.24925093 -0.09848655 0.32391927 0.03310547
0.23316585 -0.3630081 -0.21359271 0.4432307 0.27415493 0.22359258 0.09431753 -0.2716004
0.13813153 -0.04839509 -0.12247832 0.26848608 0.16784544 -0.06913286 0.28493983 -0.20899212
0.37853995 -0.2823262 -0.15641664 -0.1614241 0.35476965 -0.21464269 0.18978354 -0.2419844
0.24087846 -0.20808011 -0.22215283 0.18872586 0.13791391 -0.13771784 0.22989367 -0.3083009
0.020559864 -0.21864899 -0.39512265 0.33537 0.43848383 0.25597334 0.1683684 -0.00846831
0.35370794 -0.40358168 -0.508276 0.4280191 0.5830852 -0.057149433 0.5357205 -0.20315766
0.3634812 -0.54752487 -0.530527 0.13875166 0.5474535 -0.31213823 0.20339003 -0.54719317
0.4177828 -0.43984038 -0.4250016 0.4745175 0.45810843 -0.15890604 0.55003434 -0.42112446
0.36334458 -0.5362057 -0.48018557 0.51655716 0.40420136 0.3878379 0.48560336 -0.3642231
-0.3565229 0.031682353 0.35422733 -0.29553437 -0.43253773 0.086987 -0.24892464 0.3886971
-0.6335568 0.53851736 0.35010847 -0.025767 -0.3815816 0.2930652 -0.5576179 0.20096377
-0.6215736 0.26114678 0.31418625 -0.47241545 -0.47815347 -0.073170416 -0.6073336 0.46644175
-0.57118946 0.5905634 0.5128503 -0.4939401 -0.6523625 -0.34056163 -0.46951023 0.19021472
-0.20291103 -0.06769016 0.1683211 -0.16480678 -0.19883893 -0.17376055 0.1303244 0.053156123
-0.01905189 0.16426902 0.0015573154 0.12807688 -0.16466033 0.23571852 -0.14643982 0.113227434
-0.1710353 -0.13178538 -0.1125292 0.11806226 -0.09072112 0.29009706 -0.33545274 0.012320616
-0.3149407 0.16200562 0.1626004 0.002356535 -0.2039053 0.1897302 -0.13464771 -0.027270004
00000000: 40df 03bf 1655 943e aed3 9b3e 9d96 abbe
00000010: caa4 06bf 0a65 c13c ff4d 8bbe be1d 9b3e
00000020: 45a1 d1be 1d01 973e f5b4 ec3e d6d6 aebd
00000030: fde7 fcbe 12e7 343d bfa8 87be 186a fd3e
00000040: 17d1 1fbf b789 b33e 391f 523e af3c 26be
00000050: 79fe e4be 77cc 523e 9ba2 b6be 3194 c53d
00000060: c4b6 bdbe 3a64 c93e e8bf 103f 0bc3 d4be
00000070: e2ac ccbe 445e 72be 34d0 0ebf 5a57 973e
00000080: 3403 933e 460d 55bc b0fa f2bd 97f9 fe3d
00000090: 3174 ab3e 424b 82be 095b f83e 1ebe 26be
000000a0: 6110 5f3e ee57 e3be fb23 a4be f450 413e
000000b0: b15c b73e 9b91 f6bd 5b47 303d bc36 ddbe
000000c0: 55a8 053f cd85 0bbe 41fb 77be 0894 433e
000000d0: 303b eb3e 40f3 a53c 62ad 883e f80b 71be
000000e0: 201f ab3e 5fe9 eabe 89ec e0be dfb7 d63e
000000f0: c398 ce3e 02a4 c33e b6a2 c93e 2f57 c9be
00000100: f3d5 5d3e 09c4 373c 6eed dfbe 5974 443e
00000110: b471 dc3e 57ae 58bd 40d8 143e 54ff 533c
00000120: ec15 d03e 6635 b5be a6f1 b8be 17de 20bd
00000130: 70d5 9f3e 523f 9e3d f544 4a3e a86d 86be
00000140: 2249 033f 2c45 d6bd e5bb c5be fbf6 c83e
00000150: 8c17 953e bc80 01bc 7dd1 073f f710 a1be
00000160: 289f 813e 7d6f cabd 7abf c3be 1864 0d3e
00000170: 0b65 fa3e 7a6c 2e3e 8bb0 a63e 34f4 7bbb
00000180: d8e5 2f3e 3d1d a1be 8a85 34be 133a b13e
00000190: ac74 593e 02ab b83d d81e d33e 2fb1 8fbe
000001a0: 9bbf 213d 73d1 8abe e5f5 c4be a38d 7d3e
000001b0: cf56 d13e 879b 6a3e c04c 6f3e d459 ffbd
000001c0: 510d 493e d545 33be 57c9 92be 19b8 2e3e
000001d0: a33b 7f3e 51b3 c9bd bfd8 a53e 9a99 073d
000001e0: 07c3 6e3e 33dc b9be 0cb8 5abe 22ef e23e
000001f0: 095e 8c3e 74f5 643e 8d29 c13d 350f 8bbe
00000200: 5a72 0d3e ee39 46bd ead5 fabd 0277 893e
00000210: addf 2b3e 8795 8dbd a2e3 913e 0802 56be
00000220: fdcf c13e 0f8d 90be af2b 20be 5c4c 25be
00000230: 5ea4 b53e 4bcb 5bbe 9e56 423e c2ca 77be
00000240: d8a8 763e f412 55be 087c 63be 5a41 413e
00000250: 4e39 0d3e e805 0dbe 3f69 6b3e 9ed9 9dbe
00000260: 296d a83c 85e5 5fbe 844d cabe 9eb5 ab3e
00000270: f480 e03e f00e 833e c468 2c3e abbe 0abc
00000280: 3519 b53e 42a2 cebe 601e 02bf 5225 db3e
00000290: 1245 153f 8615 6abd fb24 093f 9008 50be
000002a0: 351a ba3e 972a 0cbf 9ed0 07bf ea14 0e3e
000002b0: ea25 0c3f 95d0 9fbe 7a45 503e da14 0cbf
000002c0: a1e7 d53e c232 e1be cf99 d9be f5f3 f23e
000002d0: 308d ea3e 44b8 22be 0dcf 0c3f a09d d7be
000002e0: 4d08 ba3e c744 09bf e2da f5be 173d 043f
000002f0: 7bf3 ce3e b092 c63e 01a1 f83e 737b babe
00000300: 2b8a b6be 5bc5 013d 495d b53e 4850 97be
00000310: 9675 ddbe 3e26 b23d 1ae6 7ebe 4e03 c73e
00000320: c730 22bf 46dc 093f 6b41 b33e 5115 d3bc
00000330: aa5e c3be a40c 963e 0cc0 0ebf 72c9 4d3e
00000340: 731f 1fbf 08b5 853e 05dd a03e 70e0 f1be
00000350: 88d0 f4be 5fda 95bd 377a 1bbf 74d1 ee3e
00000360: 7939 12bf 2a2f 173f 284a 033f b7e5 fcbe
00000370: 3b01 27bf 185e aebe a563 f0be a6c7 423e
00000380: e9c7 4fbe 23a1 8abd 5e5c 2c3e 1cc3 28be
00000390: 6f9c 4bbe 49ee 31be c273 053e 3cba 593d
000003a0: b612 9cbc 2336 283e d51e cc3a 9626 033e
000003b0: b89c 28be 3260 713e 52f4 15be c9e3 e73d
000003c0: e123 2fbe bff2 06be b675 e6bd a0ca f13d
000003d0: ffcb b9bd 9a87 943e 76c0 abbe 69dc 493c
000003e0: e83f a1be cde4 253e b880 263e 1970 1a3b
000003f0: 8dcc 50be a248 423e 17e1 09be 5865 dfbc

blocks.2.attn.q_FacTs.weight f4 [8, 8]
-0.22437753 -0.3450528 0.13233456 -0.04317975 0.46131384 -0.10531479 -0.22778824 -0.21298721
0.26558372 0.37980387 0.4043618 0.12484985 0.013415482 0.30664453 -0.32401574 0.1126707
0.50177306 0.5327244 0.5048966 -0.6448173 -0.26610318 -0.11964197 0.05551811 0.2455156
-0.1963061 0.45683512 0.18782072 -0.41488388 -0.22004297 0.2661763 -0.3114877 0.22487584
0.3589737 -0.20280227 -0.1664501 -0.30933636 -0.38547373 0.29483515 -0.07812499 0.1520867
-0.14350034 -0.22247326 0.2831713 -0.30376312 0.12898825 -0.31747267 0.070525125 0.38718158
-0.32524487 -0.5166217 -0.3411108 0.058507506 0.3821346 0.5407834 -0.39841405 -0.17093006
-0.189691 -0.070456095 -0.52834237 0.47715503 -0.072833955 0.35806602 -0.28541157 0.06870228
00000000: 39c3 65be c3aa b0be b682 073e 40dd 30bd
00000010: 5431 ec3e 48af d7bd 5241 69be 5219 5abe
00000020: 97fa 873e a775 c23e 8308 cf3e 47b1 ff3d
00000030: 9ccc 5b3c 8300 9d3e 64e5 a5be e5bf e63d
00000040: 3374 003f a060 083f e740 013f bf12 25bf
00000050: ad3e 88be d906 f5bd f566 633d 7168 7b3e
00000060: 7704 49be 4be6 e93e 1354 403e a96b d4be
00000070: f252 61be 4348 883e 517b 9fbe da45 663e
00000080: 67cb b73e 66ab 4fbe e571 2abe 5661 9ebe
00000090: d05c c5be a2f4 963e ffff 9fbd 9ebc 1b3e
000000a0: c1f1 12be 08d0 63be d4fb 903e d786 9bbe
000000b0: 7f15 043e c78b a2be 7a6f 903d aa3c c63e
000000c0: 7f86 a6be 5241 04bf 13a6 aebe 91a5 6f3d
000000d0: 25a7 c33e c870 0a3f edfc cbbe 4a08 2fbe
000000e0: 5c3e 42be 494b 90bd 7241 07bf aa4d f43e
000000f0: f829 95bd 6e54 b73e 7721 92be c8b3 8c3d

blocks.2.attn.k_FacTs.weight f4 [8, 8]
-0.016513636 -0.26494876 -0.16827576 -0.02083996 -0.17038028 0.08474197 -0.23748414 0.13715097
0.5129779 0.61149055 0.18688315 -0.35380572 -0.188197 -0.034415428 0.380903 0.1656171
0.35976046 0.46772155 0.12779777 0.0761762 -0.08880001 -0.3565582 0.06517857 0.3189993
-0.09556686 -0.29426658 0.33031642 0.046177633 -0.26506364 -0.2537142 -0.32032192 0.26641214
0.100292556 0.022355124 0.11730188 0.13541076 -0.14054011 -0.45107776 0.30900258 0.41240907
-0.23311391 -0.008171987 0.33352953 -0.15637273 -0.25981718 0.036619417 -0.22444516 0.30119386
0.31487343 -0.05168627 0.079474546 -0.16738988 -0.06031163 0.1572811 0.21295442 0.40122685
-0.45423067 -0.375591 -0.1378339 0.37019655 0.61187834 0.33024293 -0.35755572 -0.73693764
00000000: 9b47 87bc 5da7 87be 7b50 2cbe 90b8 aabc
00000010: 2b78 2ebe 338d ad3d 0b2f 73be 4e71 0c3e
00000020: 8552 033f a58a 1c3f 4c5e 3f3e 0626 b5be
00000030: b7b6 40be 31f7 0cbd b805 c33e 8797 293e
00000040: 8632 b83e 3379 ef3e 6bdd 023e 4402 9c3d
00000050: c8dc b5bd cc8e b6be 587c 853d e053 a33e
00000060: 8fb8 c3bd 1caa 96be 3c1f a93e c224 3d3d
00000070: 6cb6 87be d4e6 81be 3c01 a4be 2c67 883e
00000080: 2f66 cd3d 1822 b73c f83b f03d 1ea9 0a3e
00000090: bfe9 0fbe aaf3 e6be 9635 9e3e 4827 d33e
000000a0: 6ab5 6ebe cce3 05bc 62c4 aa3e 2c20 20be
000000b0: c206 85be 3efe 153d f4d4 65be 1536 9a3e
000000c0: 1737 a13e fbb4 53bd 8dc3 a23d 4168 2bbe
000000d0: 5409 77bd 4c0e 213e b910 5a3e 9b6d cd3e
000000e0: ec90 e8be 774d c0be 5424 0dbe 678a bd3e
000000f0: 0fa4 1c3f 9a15 a93e 8b11 b7be f2a7 3cbf

blocks.2.attn.v_FacTs.weight f4 [8, 8]
0.08544718 -0.0994343 -0.23254399 0.4576869 0.06815842 0.477604 -0.36975047 0.18515268
-0.16715264 0.042460665 -0.012177514 0.252133 0.25666374 0.05582417 0.17306198 0.09738994
0.49010512 0.070611894 -0.053793732 0.07939445 -0.47400746 -0.09100219 0.16362987 0.113096334
-0.5459588 -0.30336776 -0.5691964 -0.09581692 0.54343945 -0.04409357 -0.058792863 -0.45392415
-0.19069213 -0.083454594 -0.15409411 -0.21481776 -0.2843978 -0.19121665 -0.198087 -0.20364648
-0.2841128 0.09623932 0.22332877 -0.1251058 0.07342263 0.341358 -0.09939897 -0.14076091
0.37866887 0.09231114 0.38989 -0.36218694 -0.45060918 -0.38645804 -0.17619972 0.4322498
0.09509898 0.20492096 -0.24845634 -0.026698928 0.114972144 0.023657274 0.2813352 -0.074278496
00000000: eefe ae3d 36a4 cbbd 0320 6ebe f055 ea3e
00000010: a496 8b3d 8388 f43e ef4f bdbe aa98 3d3e
00000020: 102a 2bbe 3ceb 2d3d 3284 47bc 9417 813e
00000030: 6e69 833e e3a7 643d 2937 313e 6074 c73d
00000040: 0fef fa3e f89c 903d d156 5cbd 8f99 a23d
00000050: 1bb1 f2be 5b5f babd 978e 273e 0d9f e73d
00000060: f5c3 0bbf 0553 9bbe dbb6 11bf a93b c4bd
00000070: d91e 0b3f 769b 34bd c9d0 70bd bf68 e8be
00000080: cc44 43be 3eea aabd d9ca 1dbe 30f9 5bbe
00000090: 979c 91be 4cce 43be 52d7 4abe b488 50be
000000a0: 3c77 91be 1f19 c53d 4cb0 643e bc1b 00be
000000b0: 9b5e 963d 7ac6 ae3e b091 cbbd a123 10be
000000c0: e3e0 c13e 9f0d bd3d a99f c73e 9170 b9be
000000d0: 3fb6 e6be d4dd c5be b36d 34be d94f dd3e
000000e0: 41c3 c23d cdd6 513e 576b 7ebe b6b7 dabc
000000f0: 8476 eb3d e6cc c13c 2b0b 903e 531f 98bd

blocks.2.attn.proj_FacTs.weight f4 [8, 8]
-0.5366632 -0.2976398 -0.4153519 0.16436704 -0.505547 0.5378733 0.5988396 0.43089
0.38483223 0.18706809 0.110351875 -0.2743179 0.517138 -0.48331678 -0.49223462 -0.4378467
0.28728896 0.72973907 0.20583443 -0.2616211 0.5627658 -0.24355745 -0.6198287 -0.45414045
0.28993592 0.25246188 -0.054871492 -0.5989849 0.019459166 -0.5705668 0.12730362 0.015922813
0.7287811 0.30411646 0.6418772 -0.5206528 0.33105054 -0.46815065 -0.6822288 -0.07072201
0.7925289 0.4046083 0.3726489 -0.7606412 0.5437382 -0.6326909 -0.7841087 -0.5550866
-0.26411876 -0.4729658 -0.47775534 0.17951278 -0.5690234 0.077589676 0.3047149 0.53515905
-0.45771977 -0.10953004 -0.027586991 -0.014239235 -0.4281585 -0.04980342 -0.25394067 0.012020009
00000000: c262 09bf 3e64 98be 01a9 d4be d54f 283e
00000010: 876b 01bf 11b2 093f 8d4d 193f 9d9d dc3e
00000020: bb08 c53e c78e 3f3e 2a00 e23d 6573 8cbe
00000030: 2863 043f 4c75 f7be 2d06 fcbe 712d e0be
00000040: 8a17 933e 2ed0 3a3f 43c6 523e 33f3 85be
00000050: 6b11 103f 2067 79be 18ad 1ebf 1985 e8be
00000060: 7b72 943e af42 813e eec0 60bd 1357 19bf
00000070: d468 9f3c aa10 12bf e15b 023e 8f70 823c
00000080: 6691 3a3f 27b5 9b3e 1052 243f 8049 05bf
00000090: 757f a93e 71b1 efbe 8ca6 2ebf b4d6 90bd
000000a0: 2de3 4a3f d228 cf3e d6cb be3e 62b9 42bf
000000b0: 6d32 0b3f 08f8 21bf 59bb 48bf 281a 0ebf
000000c0: 933a 87be 9328 f2be 599c f4be 33d2 373e
000000d0: 84ab 11bf 56e7 9e3d 9703 9c3e 2f00 093f
000000e0: 3f5a eabe 4951 e0bd 1dfe e1bc ae4b 69bc
000000f0: 9737 dbbe acfe 4bbd 8304 82be 92ef 443c

blocks.2.mlp.fc1_FacTs.weight f4 [32, 8]
0.23275317 0.34029952 0.052709837 -0.2712935 -0.0553951 0.07255125 -0.15798883 -0.118495956
-0.11703689 -0.41017342 -0.03533645 0.4036497 0.27780515 0.09255737 -0.14942154 -0.52909154
-0.14702839 0.18364064 0.36928892 -0.21347316 -0.55818313 -0.51576674 -0.12226263 -0.07788366
-0.68586737 -0.509495 -0.51157737 0.3068842 0.052034803 0.36762372 -0.17180993 -0.3201478
-0.11516095 0.012434607 0.15207155 0.1438842 -0.26821947 0.263196 -0.22283694 -0.15833145
-0.44772342 0.082741424 -0.46089345 0.30912834 -0.040248826 0.5200481 -0.050835587 -0.361864
-0.20903638 -0.24850678 -0.2228648 0.26548085 0.28296438 0.61515456 -0.26831758 -0.15039393
-0.33003107 0.30117437 0.19076875 -0.2876066 0.12029548 -0.039185952 -0.34804764 -0.14257339
0.44570425 0.38339958 0.11399424 -0.03904139 -0.24219953 -0.57192886 0.53052455 0.497673
-0.023193033 0.011359839 0.08089403 -0.44913316 -0.49407786 -0.11822762 0.34756294 0.48157105
0.035897978 0.51098484 0.10165946 -0.011232047 -0.5956373 -0.46371552 0.2568123 -0.050844293
-0.34939632 -0.49794817 -0.53194964 0.58057636 0.18028918 0.5482196 -0.5476841 -0.18365134
-0.374047 0.16085932 0.18336116 0.30560276 -0.1658056 -0.060813375 -0.3133045 -0.006627343
-0.42589363 -0.2409516 -0.043237254 0.18812095 0.082496874 0.028598366 -0.47461954 -0.20961405
0.12273033 -0.18488045 0.12217441 -0.2660783 0.011338335 0.19677222 0.16673855 0.05732584
-0.08631083 -0.38280746 0.061035473 0.35122794 -0.25222826 -0.21209025 -0.460304 -0.41716456
-0.16142428 0.41869986 -0.10810972 -0.25857666 -0.43096462 0.03162017 0.43701074 0.31231397
0.69733053 0.2806698 0.49467123 -0.6047793 -0.028365217 -0.6882163 0.46788216 0.6633789
0.13165317 0.069737084 0.26505297 -0.50144345 -0.51279604 -0.47084945 0.38010234 0.15455905
0.4078236 0.5340047 0.12635891 -0.6352916 -0.5420254 -0.6450288 0.59292066 0.38948548
0.1836632 -0.06469058 0.21463165 -0.5180313 -0.18911666 -0.33082783 0.2227302 0.47660315
-0.48126128 -0.5218899 0.017430335 0.42343748 0.24860688 0.5537433 -0.42974067 -0.32557127
0.053422965 -0.09993427 0.017617228 -0.08699601 -0.067656 -0.5213173 0.45589972 0.3231455
-0.61041075 -0.53805155 -0.13573788 0.5358117 0.51739895 0.34623682 -0.18240882 -0.5224945
-0.45350313 -0.4524331 -0.34571576 0.33780646 0.39131737 0.15289319 -0.15575822 -0.06129869
-0.16692767 -0.014932023 -0.5647734 0.2387491 0.23667707 0.5013739 -0.17452788 0.050481882
-0.017803945 -0.0793088 -0.15145166 -0.010095517 0.044655807 0.4116005 -0.50954765 -0.49118614
-0.34319583 0.02823694 0.074110635 0.22390202 -0.22105967 0.16301942 -0.32829037 -0.21201856
-0.06305344 -0.15192038 0.16188808 -0.40816164 0.19164027 -0.16343261 0.37182868 -0.13756998
0.07456367 -0.24380523 -0.19125709 0.030706612 0.059503514 0.03602275 0.03068832 0.11007675
-0.27793354 -0.47855288 -0.26103753 0.31980905 0.043539386 0.057560563 -0.5440355 -0.15489374
0.09124346 -0.4823854 -0.31821296 0.50107217 0.48053437 0.24419914 -0.18954319 -0.15832013
00000000: d956 6e3e bd3b ae3e 45e6 573d fbe6 8abe
00000010: f9e5 62bd c095 943d d3c7 21be 02ae f2bd
00000020: 09b1 efbd 4002 d2be f4bc 10bd 2cab ce3e
00000030: 7a3c 8e3e b88e bd3d f601 19be 8b72 07bf
00000040: 9c8e 16be 4b0c 3c3e 7013 bd3e b598 5abe
00000050: 17e5 0ebf 4a09 04bf d464 fabd 7881 9fbd
00000060: 0195 2fbf 446e 02bf bcf6 02bf ed1f 9d3e
00000070: 7222 553d 2d39 bc3e f1ee 2fbe 6aea a3be
00000080: 81d9 ebbd 86ba 4b3c a5b8 1b3e 6156 133e
00000090: 1054 89be a0c1 863e 5e2f 64be a421 22be
000000a0: 013c e5be 5674 a93d 3afa ebbe 1246 9e3e
000000b0: f4db 24bd df21 053f fa38 50bd 3d46 b9be
000000c0: a20d 56be 9078 7ebe ac36 64be 1bed 873e
000000d0: b5e0 903e c57a 1d3f ec60 89be de00 1abe
000000e0: d5f9 a8be 8733 9a3e e258 433e 2c41 93be
000000f0: 7a5d f63d 7381 20bd 4d33 b2be c2fe 11be
00000100: 5933 e43e f34c c43e d075 e93d dde9 1fbd
00000110: 2703 78be ee69 12bf 75d0 073f ffce fe3e
00000120: 51ff bdbc 9e1e 3a3c c5ab a53d c8f4 e5be
00000130: c6f7 fcbe 5321 f2bd c5f3 b13e 7b90 f63e
00000140: c209 133d e7cf 023f d632 d03d 9f06 38bc
00000150: b07b 18bf 1f6c edbe e77c 833e 1b42 50bd
00000160: 13e4 b2be 10f3 febe da2d 08bf a7a0 143f
00000170: ba9d 383e 1f58 0c3f 0635 0cbf 190f 3cbe
00000180: 1783 bfbe 4eb8 243e 07c3 3b3e f777 9c3e
00000190: f1c8 29be 7217 79bd 7369 a0be 2f2a d9bb
000001a0: bb0e dabe 04bc 76be 8c19 31bd c7a2 403e
000001b0: 1ff4 a83d 1f47 ea3c 5501 f3be 11a5 56be
000001c0: 0a5a fb3d 4d51 3dbe 9436 fa3d 6a3b 88be
000001d0: 6dc4 393c a87e 493e 83bd 2a3e 80ce 6a3d
000001e0: bcc3 b0bd 57ff c3be 5500 7a3d 26d4 b33e
000001f0: 1024 81be 302e 59be f7ac ebbe 9896 d5be
00000200: 684c 25be d45f d63e a168 ddbd 2964 84be
00000210: 65a7 dcbe 2784 013d dfbf df3e 9ee7 9f3e
00000220: 4184 323f f4b3 8f3e 8c45 fd3e d1d2 1abf
00000230: 2c5e e8bc f22e 30bf 408e ef3e 33d3 293f
00000240: 17d0 063e 51d2 8e3d 06b5 873e 995e 00bf
00000250: 9a46 03bf 2e13 f1be c69c c23e ba44 1e3e
00000260: 41ce d03e 88b4 083f 3b64 013e 78a2 22bf
00000270: 2dc2 0abf 9c20 25bf a6c9 173f a46a c73e
00000280: 3512 3c3e 7f7c 84bd 66c8 5b3e b39d 04bf
00000290: cca7 41be 4462 a9be 6313 643e 5405 f43e
000002a0: e167 f6be 949a 05bf 10ca 8e3c cccc d83e
000002b0: cd92 7e3e 1fc2 0d3f f806 dcbe 47b1 a6be
000002c0: 0ad2 5a3d 57aa ccbd 0152 903c f72a b2bd
000002d0: 3b8f 8abd 0d75 05bf b06b e93e 5473 a53e
000002e0: e143 1cbf bfbd 09bf dffe 0abe f52a 093f
000002f0: 4274 043f f445 b13e 61c9 3abe 33c2 05bf
00000300: 9031 e8be 50a5 e7be a801 b1be f8f4 ac3e
00000310: c05a c83e 0890 1c3e 157f 1fbe 5614 7bbd
00000320: 16ef 2abe 72a5 74bc fd94 10bf a57a 743e
00000330: 795b 723e 0a5a 003f 70b7 32be 17c6 4e3d
00000340: 94d9 91bc a76c a2bd 2516 1bbe ab67 25bc
00000350: 02e9 363d 4dbd d23e b771 02bf c07c fbbe
00000360: 5db7 afbe 2851 e73c 51c7 973d 9246 653e
00000370: 775d 62be 90ee 263e ad15 a8be 651b 59be
00000380: 2922 81bd 0491 1bbe fdc5 253e 90fa d0be
00000390: 593d 443e e15a 27be 5460 be3e 25df 0cbe
000003a0: d6b4 983d 14a8 79be e6d8 43be 6f8c fb3c
000003b0: f5b9 733d 978c 133d 1266 fb3c eb6f e13d
000003c0: 4e4d 8ebe e204 f5be b6a6 85be 03be a33e
000003d0: 5b56 323d a0c4 6b3d e945 0bbf 779c 1ebe
000003e0: dadd ba3d 38fb f6be cfec a2be 4446 003f
000003f0: 9a08 f63e 570f 7a3e 9c17 42be ac1e 22be
