Final Project/FacT-TT/eurosat_best.pt (torch, 138881 bytes, 76 tensors)

blocks.0.attn.q_FacTs.weight f4 [8, 8]
00000000: 4b0a 153e d3bd 2dbe 4260 283d ede1 693e
00000010: 52d8 4cbd f328 593e 9dd7 83be b8b4 2abd
00000020: bb37 cc3e 6044 013d 874d 16be bedb b43e
00000030: cfec 3e3c 816b 323e 02bf 663d ad98 d5bc
00000040: 6b86 9bbe 0a4e 3dbe cc38 b0bb 952c 8ebe
00000050: 1345 753e a60c 64be fffe ec3c 0f38 f7bd
00000060: b717 bf3c 44fa af3d 5327 09bd e683 a8bd
00000070: 75ed 24be 7401 a7be 46e2 56be 0dba e2bc
00000080: 36bd ab3d c4ac 053d ae7b 0c3e 89da 473e
00000090: 8d46 783d 278e 08be a8bc 4e3e 2082 3a3e
000000a0: 6f98 a6be 8df2 5a3e 7916 023e c853 903e
000000b0: 4814 213e 381d a43e e95b bcbe 48f6 ce3e
000000c0: 9d84 f23d 12e2 333e e79b 78be 9f9d 873d
000000d0: b803 a33d 64c7 bc3e 0f7d bebe 2f35 a3bc
000000e0: 01c2 b53e 2ee3 843b 7e57 44be 4643 b6be
000000f0: d771 b8bd 6927 9f3d b96b 183c 4f34 713e
0.14554708 -0.16966943 0.041107424 0.2284009 -0.050010987 0.21207027 -0.25750437 -0.041676253
0.3988627 0.031559348 -0.14678012 0.353239 0.011653139 0.17423822 0.056334503 -0.026073778
-0.3037599 -0.18486801 -0.0053778645 -0.27768388 0.23952131 -0.2227045 0.028930185 -0.12071239
0.023326738 0.08592656 -0.033484768 -0.08228283 -0.16106208 -0.32618296 -0.20984754 -0.027676607
0.083856985 0.032635465 0.13719055 0.19516958 0.060614157 -0.13335477 0.20189154 0.18213701
-0.32538173 0.21381588 0.12703885 0.2818892 0.15730393 0.32053542 -0.36788872 0.40422273
0.118417 0.17566708 -0.24278222 0.06621861 0.07959694 0.36870873 -0.37204787 -0.01992282
0.35499576 0.0040554022 -0.19174 -0.355982 -0.09006088 0.07771189 0.009303027 0.2355511

blocks.0.attn.k_FacTs.weight f4 [8, 8]
00000000: 7943 1a3e 4a63 ffbd 5963 8dbe eee6 0ebe
00000010: d871 b9bd 1b39 62be 45aa 833e 2bc3 48be
00000020: dc72 d33d 04b4 893d 507c 8e3e e2c2 1f3e
00000030: 9b61 bc3d 7ab3 393e fc24 a4be 58ea 3f3e
00000040: a245 4fbd 4e2e 66bd ddd9 33be da49 b2bd
00000050: 289c 92bd 5408 193e c45c 09be b989 a0be
00000060: 42a9 49be 2fa1 56be ed74 a63d 9894 d3bd
00000070: 218f b03e c631 ad3e 4042 103e 2694 b63e
00000080: 3480 8d3d fd3c 2ebe 30c7 9dbe 59e6 1c3c
00000090: 130c 1c3c 0b5e 27be 1325 673d 8b27 23be
000000a0: 5993 dabd 8999 66be d702 b9bd 4cd3 ad3d
000000b0: e1ab 593d a08a 75be 0c1a b63e 56c1 3abd
000000c0: 8ecf 92be 7afb 373e 3dc3 5bbc e75d bebe
000000d0: 0f82 1dbe 7ec0 85be 09c7 cd3e 7ec0 a7be
000000e0: 0d89 b3be 511e e33d d244 f13d be6d 0b3e
000000f0: f696 3dbe 9948 973e 56fd 173e 1ac0 bc3e
0.15064801 -0.1247011 -0.2761486 -0.1395528 -0.09054917 -0.22092097 0.25715843 -0.196057
0.10324642 0.067237884 0.27829218 0.15601686 0.09198304 0.18134871 -0.32059467 0.18741739
-0.050603516 -0.056196503 -0.17563577 -0.08705492 -0.07158691 0.14944583 -0.13414294 -0.31355074
-0.19693473 -0.20959924 0.081277706 -0.103310764 0.344842 0.33827037 0.14087772 0.35659903
0.069092184 -0.17015453 -0.3081603 0.009576404 0.009524363 -0.16344468 0.05643184 -0.15933053
-0.106726356 -0.22519507 -0.09033745 0.08487567 0.053142432 -0.23978662 0.35566747 -0.045594536
-0.28673977 0.17967024 -0.013413248 -0.37181017 -0.15381645 -0.26123422 0.40190914 -0.32764047
-0.350655 0.11089767 0.117807046 0.13616082 -0.18514618 0.29547575 0.14842734 0.36865312

blocks.0.attn.v_FacTs.weight f4 [8, 8]
00000000: 029e 423e f8d3 123e c17c 68be b9c0 9a3e
00000010: 81dc a43d 1d36 31be cc90 2f3e 396a edbd
00000020: 306c 24be 8f32 4bbe 0031 5ebc 33b7 9b3e
00000030: bab4 893e d790 5bbe 0666 a3bd e2cd 03be
00000040: 68a5 8e3e ea11 293d c887 8b3d 06d1 75be
00000050: 04ac 013d be69 77be f9cc 61be 965b 87be
00000060: e416 623e 908a 7dbe a104 243c a1c9 85be
00000070: bcdd 6bbd fd13 973e ddd9 05be b6cb bc3c
00000080: dcf8 f93d d35f 7ebc 5f9f 8bbd 29cb 60be
00000090: 84d4 5b3e 093a 033e 796b 563e c79b 67be
000000a0: f95e 4d3e a93d 13be 68da 8f3d fce9 bc3d
000000b0: 5520 95be 0c1a 46bd 6c51 473e 8e61 67bd
000000c0: a042 ca3b 2b48 703e 6dbd 843e 00f8 ecbd
000000d0: 720b 87be 1064 ce3d 7e43 4dbe 763b 303e
000000e0: bd56 46be 091d 583e 4e7f 653d 97d0 1bbe
000000f0: 6b8f b9bd 8e46 ff3d e84e 1cbe 9c77 32be
0.19005588 0.14338672 -0.2270384 0.3022516 0.0804987 -0.17305799 0.1714508 -0.11592526
-0.16056895 -0.19843505 -0.013561487 0.30413207 0.26895696 -0.21441971 -0.07978444 -0.12871507
0.2786057 0.04127685 0.068130076 -0.24005517 0.031658188 -0.24161431 -0.22050847 -0.26437062
0.22079045 -0.24759889 0.010010869 -0.26130393 -0.05758451 0.29507437 -0.1307139 0.023046356
0.12205669 -0.015525776 -0.06817507 -0.219525 0.21467787 0.12815107 0.20939435 -0.22618018
0.2005576 -0.1437899 0.070240796 0.092243165 -0.2912623 -0.048364684 0.19464654 -0.05648952
0.006172493 0.2346503 0.2592577 -0.1157074 -0.2637592 0.10077679 -0.20045277 0.17210183
-0.19369026 0.21104826 0.05602961 -0.1521629 -0.09060558 0.12464629 -0.15264475 -0.1742844

blocks.0.attn.proj_FacTs.weight f4 [8, 8]
00000000: 708f 36be 6b6b 1fbe f9f8 0f3e 6cd4 dabd
00000010: 6b61 2d3e f670 b8bc 2562 21be 4165 ebbd
00000020: 4c32 df3c c9de 0d3d 2ca4 6ebe c471 d73d
00000030: 910a 913e a801 1d3e 9d74 77be b408 20be
00000040: 1258 01be 63e0 6c3e ef4a 8e3e 1bdf 20be
00000050: 6b06 0a3e f484 e93c e16f c93c ed1d 6fbc
00000060: 3d26 8f3d fade b4bd f89f f03d 4dd7 c6bd
00000070: 9ae7 263d 7e15 39bd 5e54 01bd 3b33 cfbd
00000080: 4930 b73d d9d7 823e 834a a5be c110 50be
00000090: 7642 7ebe 6ae6 9abc ded6 863e e08b 84be
000000a0: 19e0 3dbe cfd4 993e 075a db3d 9818 86be
000000b0: b603 3dbc 4c89 caba cd51 123e 6821 9abe
000000c0: e608 4a3e 7297 d33b 0195 7fbe d09a e6bd
000000d0: 6126 1bbe ab81 d9bd 926e 603e 1187 06be
000000e0: 72ad 12be b2d1 64be 221a 89be a2d7 7b3e
000000f0: 2293 113e f2d0 5a3d 267d 533e 71ec 3e3e
-0.17828155 -0.1556832 0.1405982 -0.106850475 0.16931693 -0.022514801 -0.15760095 -0.11493922
0.027245663 0.034636293 -0.23304814 0.10519746 0.28328374 0.15332663 -0.24165578 -0.1562832
-0.12631252 0.23132472 0.27791545 -0.15710108 0.13479011 0.02850578 0.02458948 -0.014594537
0.06989715 -0.08831592 0.117492616 -0.09709034 0.040748216 -0.045186512 -0.0315746 -0.10117193
0.089447565 0.25555304 -0.3228341 -0.20318891 -0.2483004 -0.018908698 0.26335806 -0.25887966
-0.18542518 0.30045173 0.10710531 -0.2619064 -0.011536529 -0.0015452295 0.14289017 -0.30103612
0.19729957 0.0064572627 -0.24959184 -0.11259997 -0.15151359 -0.10620435 0.21917179 -0.13137461
-0.14323977 -0.22345617 -0.2677775 0.24593976 0.14216283 0.053421922 0.20653209 0.18644883

blocks.0.mlp.fc1_FacTs.weight f4 [32, 8]
00000000: ed6e 93be 180a 8ebe 01d2 993c cf54 933e
00000010: 1355 97bd 4cf9 76be ebc4 2f3e ccab 00be
00000020: b01e 503d 9447 3f3d d2a8 1c3e 57a1 eabd
00000030: a573 8a3e 951f 20bd e31f 083b f3e2 1cbe
00000040: 18dd a23d 10e4 12bd 4311 523e fa85 9b3b
00000050: 68e8 2c3d a496 f3bc 0587 9ebd c660 ea3b
00000060: 9855 873e ff7b 97be b443 603d 1584 fd3c
00000070: feea b0bc c62e 99be 1bfc ab3d 9481 a0be
00000080: 3013 96bd 88ac f03d c3d8 9d3d 6275 88be
00000090: caf8 0e3d 2c2e a03d 0b6c d83d 2b05 5c3e
000000a0: 35a1 6a3e c134 a33d 1c80 363e 074a a53d
000000b0: a2e9 ec3d eea9 86be c50f 2a3b 85d9 93bc
000000c0: 3b14 b2be 1d18 bcbd 8014 1dbd 25aa 9b3e
000000d0: ad61 323e eab4 47be 7c86 7f3e aba3 91bd
000000e0: 2f46 9bbc 5b89 6f3e 6f1f 683e 591b 763e
000000f0: f08f bbbb 56a1 a7be b130 66bd 5f47 e43d
00000100: bb2a b4bc f649 e53d d19d d1bd e933 70be
00000110: e71c 893c 90b2 41be 9a8e 5f3e f5af 90be
00000120: 18ba 0fbc 79ec 90be b80b 08be 27d9 013e
00000130: cfdd afbd 38dd 903e 0ac1 97be d2c4 65bd
00000140: 177b 2bbe b0c6 9a3e 6884 39bd 7c65 8c3e
00000150: 0ccf 4cbe 7cf7 b63d 0ca8 0dbe 615d 813e
00000160: 5528 583e 02d1 6ebe 2e4c 993e 93c8 6f3e
00000170: 39ff e2bc aebf ab3e 873a 8dbc ed2d 9fbe
00000180: 3d87 4fbe 5856 10be 612f 583e 36ec e03a
00000190: 9c84 5fbe 6480 403e 3698 693d f271 d73d
000001a0: 547e 0ebe 5c2c f83d 2c6e 2ebe 7638 1b3e
000001b0: 1f6d aebd 7e91 61be 8492 7cbd 6e35 343e
000001c0: 7e9b 403e e827 ee3d 0456 9e3e aea6 2c3d
000001d0: dd05 9b3d 8391 32be 4c39 b53e 2ad0 1dbe
000001e0: ba02 c63d 9201 8abe c0cc 0abe 0964 b23b
000001f0: b8ac 4cbe 0836 4b3e 84c4 f93d 6cbe a2be
00000200: fd26 953d 097a d33d 8c82 86be 2cf7 29be
00000210: ecc5 66be e292 99be d795 203e c3ee b0be
00000220: c431 57bb d25b 783e 7008 923d 8756 27be
00000230: 3a48 5b3d 1ad7 043e e6df 2e3e 8bf7 27be
00000240: b102 94be 721b 523e 4a05 27bd c53c abbe
00000250: af22 723e 0a97 bbbd 39b9 143e 4d05 833e
00000260: 3bad 99be 2982 1d3e d802 993e 5271 08be
00000270: cad7 783e 5ba5 87be 7adb 51be 0309 0cbe
00000280: 9940 5c3c 5109 313e 0209 20be e535 c93d
00000290: 1c52 3b3c 76e7 a0be 9c8e 27bd 5781 59be
000002a0: 8574 14bd 094e dbbd e086 b83c ebfd 6e3e
000002b0: 3f17 e4bd 1a3f 663e 8f97 babd f893 1cbe
000002c0: cfa7 923d ef8a 85bc aa35 413e 6366 3dbe
000002d0: 7362 86be 6a04 dcbc a678 9cbd eb7c 153e
000002e0: 4b88 c9bd 8e14 8e3e c43c 69bd ae82 1a3e
000002f0: db5c 51be 380b f1bd 38e7 373e 207c 853e
00000300: e51f ffbd 05d0 03be 1cbd 813e 94a5 e53d
00000310: a348 ac3d 3da4 65be 328d 50be 5ea6 8bbe
00000320: e24e afbe f70b 73be 2c35 ef3d 4566 eeb8
00000330: b5b9 333e dccc 21be c4b5 093e d6c4 253e
00000340: a3bb 6dbe bdd7 08be 61d9 7f3e 58bc a13d
00000350: ffa5 45bc 3481 19be 0731 89be f54c a3bc
00000360: b1e2 1ebd fe4d 40bd 16d5 053e e48e ae3c
00000370: e9c9 693e 939f 77be 4c2a ee3d 22cd 8ebe
00000380: de0a 25be 9183 903d de7b 9cbe e6da 1e3b
00000390: 232f b53d 9580 94be 8d43 3d3c 2273 7c3e
000003a0: ffdb 923e 12e0 a7be 532c 853e 2034 1f3e
000003b0: ae41 6f3e 284e 30bd dabf 41bd 527e 27be
000003c0: 52dc 3d3e 24c9 96b9 10b3 ecbd 9fb2 4b3e
000003d0: 0343 223e eb5c 613c 8bc3 b7bb 4ea8 62be
000003e0: 4e12 60be a23d 6ebe 6a8b fbbb b120 8f3e
000003f0: 3c2e a03e 272f 243e 931c 733d ab06 3f3c
-0.28795567 -0.27742076 0.018776895 0.2877564 -0.073892735 -0.24118537 0.17164962 -0.12565535
0.050810516 0.04669912 0.15298775 -0.114565544 0.27041355 -0.03909262 0.002077096 -0.1532095
0.079523265 -0.03586203 0.20514397 0.004746196 0.042213827 -0.029734917 -0.07740597 0.0071526496
0.2643249 -0.2958679 0.054752067 0.03094677 -0.021596428 -0.29918498 0.08397695 -0.3134886
-0.073278785 0.11751658 0.0770736 -0.26652056 0.034905232 0.078213066 0.105674826 0.21486346
0.22913058 0.079690464 0.17822307 0.0807076 0.115679994 -0.2630152 0.002594934 -0.018048057
-0.3478106 -0.09184287 -0.03834963 0.30403247 0.17420073 -0.19502607 0.24953645 -0.07111295
-0.018954365 0.2339224 0.22668241 0.2403387 -0.005723946 -0.32740277 -0.05619878 0.111464255
-0.021993032 0.111957476 -0.10235179 -0.23457302 0.016737415 -0.18915772 0.21831742 -0.28259245
-0.008772396 -0.28305414 -0.1328572 0.12680493 -0.085872285 0.28293777 -0.29639465 -0.056095906
-0.16746174 0.30229712 -0.045292288 0.27421176 -0.20000857 0.08933923 -0.13833636 0.25266555
0.21109135 -0.23321918 0.29940933 0.23416357 -0.02770959 0.33544677 -0.017239822 -0.31089726
-0.20266433 -0.14095438 0.21111824 0.001716024 -0.2182793 0.18798977 0.057029925 0.1051978
-0.13915378 0.12117836 -0.17034215 0.15158257 -0.08516907 -0.22028157 -0.061663166 0.17598507
0.18809316 0.11628705 0.30925 0.042151146 0.07569478 -0.17438321 0.35395277 -0.1541144
0.09668489 -0.26954323 -0.13554668 0.005444054 -0.19987762 0.1984483 0.121956855 -0.31785905
0.07282827 0.10326011 -0.26271474 -0.16598195 -0.22536439 -0.29994875 0.1568216 -0.3455716
-0.003283606 0.24253777 0.071305156 -0.16341601 0.053535677 0.1297268 0.17077598 -0.16403024
-0.28908303 0.20518282 -0.04077653 -0.334448 0.23646043 -0.09159668 0.14523782 0.25589982
-0.30014977 0.15381683 0.29884982 -0.13324478 0.24301067 -0.26493344 -0.2049388 -0.13675313
0.013443136 0.1728871 -0.15628436 0.09824733 0.011433151 -0.3142659 -0.040907487 -0.21240745
-0.036243934 -0.107082434 0.02252525 0.2333905 -0.11137246 0.22485009 -0.09110939 -0.1529082
0.07160913 -0.0163016 0.18868127 -0.18496089 -0.26246986 -0.026857574 -0.07640199 0.14598434
-0.09840449 0.27750057 -0.056942716 0.15088913 -0.20445578 -0.11769718 0.17959297 0.26071262
-0.12457255 -0.12872322 0.25339592 0.11213222 0.08412292 -0.22425933 -0.20366362 -0.27275366
-0.3423987 -0.23735033 0.116800636 -0.000113677735 0.1755131 -0.15800804 0.13448244 0.16188368
-0.23216109 -0.13363548 0.24985267 0.07897252 -0.012063502 -0.14990693 -0.26795217 -0.019934157
-0.03879041 -0.04694938 0.13069567 0.02130837 0.22830929 -0.24181966 0.11629161 -0.2789088
-0.16117427 0.07056344 -0.30563253 0.002423936 0.08846881 -0.2900435 0.01155175 0.24653295
0.2868347 -0.3278814 0.2601038 0.15547228 0.23364899 -0.043043286 -0.047302105 -0.16356781
0.18541077 -0.0002876009 -0.11557591 0.19892357 0.15845875 0.0137550635 -0.0056080273 -0.22134516
-0.21881983 -0.23265699 -0.0076765316 0.2795463 0.31285274 0.16033612 0.059353422 0.011659305

blocks.0.mlp.fc2_FacTs.weight f4 [8, 32]
00000000: 7464 813c 1eb2 0a3e 2220 d8bd 20d1 b8bc
00000010: 1c82 a73c ee35 a7bd 91c5 873c 0bd9 953d
00000020: 813d bc3d b407 0b3e 34ff 933c 98e3 3ebd
00000030: 458c 04bd 17b5 e33d 9d75 0bbe c7b5 86bd
00000040: 2e4e 68bc ac8b c03d 30aa 9c3d f858 fd3d
00000050: 14ef e73b 63e6 973d 9677 263e 1d8a 18be
00000060: 7d12 e9bd bd81 fb3d 885d b4bd c0fe a33d
00000070: 6426 6dbd 3451 b73d 7809 37bd 26d2 1abd
00000080: 09f7 a33c 6079 19be 90ce 563e 7f26 033d
00000090: 033f a93a 1b9c 163e 8264 c3bd 7692 213e
000000a0: 1502 213d c0b6 0ebc e220 7a3d a27d f63d
000000b0: 2a78 52bd 695c ef3d cfde adbd 73dd c83d
000000c0: be17 24bc f0bc d9bd 17e7 803c daf9 65bd
000000d0: 72b2 0b3e 9b73 c4bd 8073 49be e416 01be
000000e0: 1f13 1bbe 188d 833d a404 06bc 96fe f1bd
000000f0: 7889 fa3d 17f8 41bd ae43 763d c74e de3d
00000100: 5de3 533e c868 513d c7cf 7dbd 29ba 9ebd
00000110: b711 f43c 1c33 91bc 5966 f23d e3d3 25be
00000120: a488 823c 467b 07be f598 04be a9e3 c23c
00000130: 93ee 36bd 7884 18be 8589 3c3d e9d1 f63d
00000140: 0fa3 afbd f882 3bbd dd70 b33d 23d9 2bbc
00000150: a44a f33d 0abf a03d bf26 063e bc35 f73d
00000160: c34a 1abd 0edd c6bc 0b73 6ebd 5145 023e
00000170: 8b12 cfbd 5335 5a3d 2961 e13d 3bbe 12be
00000180: 984d 1bbe 3381 fdba 924e f3bd ef0f f2bc
00000190: 23a1 ff3c 6cd7 963d bce5 d13d b6a5 c53d
000001a0: 979b e4bd 1e07 e63d 610b da3d 9c17 eebd
000001b0: 1c36 b53d fd29 1a3e 58ed e0bd abb6 93bd
000001c0: e97b e33d 975a 97bd 19c6 263e 4166 993d
000001d0: 9c4d 933c e82a 803d dfcb 853d cfc9 81bd
000001e0: fe4a c1bd 38b1 693d edc7 5b3d 5d39 ce3c
000001f0: 4a57 a8bd e5bb ccbc 2a8a adbd 34ff c3bd
00000200: 5808 613d 4261 84bd 0bc8 9a3b 8c67 87bd
00000210: 3800 7cbd 2591 043c 7600 063d 311e 403c
00000220: 1cff 8dbd d50c 403e 38af 043e 853a 19be
00000230: 79fe 62bb 9f47 2bbc 9699 edbd 000a 6f3d
00000240: c536 0ebe f6eb 17be a2f0 82bd 9537 f43b
00000250: cc85 233e e230 5e3c 0f84 2abe 3319 d8bd
00000260: 3644 233c 498e bb3d f58c 333d f4a8 ae3c
00000270: 0ddf b4bd 44bf 5d3d 958e 103d 3a8d c9bc
00000280: baea 1cbc ed3b 863d bde8 09be 8438 cd3c
00000290: f434 173e 1bd4 bebb b574 f83d f4f6 943d
000002a0: 27fc c1bd b899 0238 ac4d 413e 4c86 843d
000002b0: a6be 883c a1ec dfbd cac4 f9bd 1dc1 0c3e
000002c0: 5f72 c4bc 033a 4a3d 982f 013e 9543 1c3e
000002d0: 82bd a13d 765f cd3d e14d a43d eb64 6a3d
000002e0: 1890 873d 546f 033e d061 6a3d 87fe 87bd
000002f0: 23e3 92bc c96f dfbd e560 883d 0348 e63d
00000300: 6bf1 073e 473f 01bd 58d0 fcbd 5674 893d
00000310: 1291 7f3d c72c 10bd 5e32 2f3e c663 093e
00000320: a113 05be e454 52bd 1752 973d f034 f53d
00000330: d4ca b7bd 26f4 0e3d 47ac 8b3d 4bed 2abe
00000340: 67a6 1e3e c9d5 613c 877f 0abe 8d4a 1a3d
00000350: e932 8ebd 009c 23be 6f16 033e 4679 6a3b
00000360: 09c4 e63d ae73 38bd aed2 2c3d 4ffa e1bd
00000370: a7b7 963d da40 c33d 14c3 193b 4623 f2bd
00000380: 0594 023e 8d1b cbbc 9880 403d 8c03 a4bc
00000390: b96e 023e a73b dc3d a2b2 10be 3004 2bbd
000003a0: 5d8c 43be d705 d93c 7a06 983d b764 40bd
000003b0: 5ea2 273e 0fe3 eebd a6fd 0f3d daa5 823d
000003c0: f89e 71bd f6be a83d 64dc 183e 329b 09bd
000003d0: 21ff 0fbe 8fe8 02be f368 b53d 7d87 55bd
000003e0: 6935 f8bd 1334 02bd 6375 9ebd 4cbc 17bd
000003f0: 4e1d 1dbc c301 53bd 5d6f a8bd 9459 0d3e
0.01579497 0.13544509 -0.10553004 -0.022560656 0.020447783 -0.08164583 0.0165737 0.07316788
0.091914184 0.13577157 0.018066026 -0.04660377 -0.032360334 0.111185245 -0.13619085 -0.0657764
-0.014178796 0.0940164 0.07649648 0.12370485 0.007078061 0.0741699 0.16256556 -0.14896436
-0.113804795 0.12280605 -0.08806902 0.08007574 -0.05789794 0.08951035 -0.044686764 -0.03779807
0.020015256 -0.14987707 0.20977235 0.032019135 0.0012912456 0.14707987 -0.09540655 0.15778527
0.039308626 -0.008710563 0.061066516 0.12035681 -0.05138413 0.11687548 -0.08489763 0.09807863
-0.010015426 -0.1063174 0.015735192 -0.05614648 0.1364229 -0.095923625 -0.19672966 -0.12606388
-0.15144013 0.06423396 -0.008179817 -0.118161365 0.12233251 -0.047355738 0.060123138 0.10854869
0.20692201 0.051125318 -0.06196573 -0.07750351 0.029793603 -0.017724566 0.118359275 -0.1619411
0.015934296 -0.13230619 -0.12948973 0.023790197 -0.044661116 -0.14894283 0.046029586 0.12051756
-0.08576023 -0.0457792 0.08761761 -0.010488781 0.11879471 0.07848938 0.13100718 0.12070796
-0.037668955 -0.024275329 -0.058215182 0.12721755 -0.10110959 0.05327351 0.1100486 -0.1433038
-0.15166318 -0.0019340873 -0.118802205 -0.029548613 0.031204766 0.07365307 0.102488965 0.096507475
-0.11162489 0.11231826 0.106467016 -0.11625597 0.08848211 0.1505508 -0.1098277 -0.072125755
0.11107618 -0.073903255 0.16286506 0.074902065 0.017981343 0.06258184 0.06533026 -0.0633732
-0.09438132 0.057053775 0.05365746 0.025173837 -0.08219774 -0.024991939 -0.08473618 -0.095701605
0.054939598 -0.06463863 0.004723554 -0.06611547 -0.061523646 0.008091246 0.032715283 0.011725948
-0.06933424 0.18754895 0.12957466 -0.1496373 -0.003463654 -0.0104540875 -0.1160156 0.058359146
-0.1388808 -0.14836106 -0.06393553 0.007452915 0.15969008 0.013561459 -0.16651939 -0.10551681
0.009964993 0.09157998 0.0438356 0.021320798 -0.08831606 0.054137483 0.035292227 -0.024603475
-0.009577448 0.06554399 -0.13467689 0.025051363 0.14766294 -0.005823625 0.12131635 0.07273665
-0.09471922 3.1137577e-05 0.18877286 0.064709276 0.01669247 -0.10933805 -0.12195738 0.13745542
-0.023980318 0.04937173 0.12615812 0.15260155 0.07897474 0.10027973 0.08022667 0.05722515
0.066192806 0.12835437 0.057222188 -0.06640344 -0.017930573 -0.10909993 0.06659106 0.11244204
0.13275687 -0.031554487 -0.12344426 0.067116424 0.06239421 -0.035198953 0.17109057 0.13416967
-0.12995769 -0.05135049 0.07388704 0.11972988 -0.08974233 0.034900807 0.06819969 -0.16692083
0.15493165 0.0137838805 -0.1352521 0.037668753 -0.06943304 -0.15977478 0.12801526 0.003577785
0.112678595 -0.045032196 0.042193107 -0.11034071 0.07359248 0.09533854 0.0023462223 -0.11823134
0.12751777 -0.02479341 0.046997637 -0.020021223 0.1273755 0.10753565 -0.14130643 -0.04175204
-0.19096513 0.026492042 0.0742311 -0.04697105 0.16370532 -0.11664402 0.035154007 0.0637929
-0.058989495 0.08239548 0.14927822 -0.03359527 -0.14062168 -0.12784027 0.08857908 -0.052131165
-0.12119562 -0.031787943 -0.077372335 -0.03704481 -0.009589506 -0.051515352 -0.08224366 0.13803703

blocks.1.attn.q_FacTs.weight f4 [8, 8]
00000000: 5e88 753e 21a9 f93d 4881 933e 0c54 c33d
00000010: fd56 21be 2b63 6cbe 5f10 2abe 1b8e 5abe
00000020: a3ef 723e a4f8 873e 3f2a bf3e 204d 0b3e
00000030: 157a 07be b7b0 153e fe60 8e3e 4b67 2bbe
00000040: 4e94 a1be 7d95 c5bd 4dbd 74be ad33 e6bd
00000050: 0ce1 953e c4b7 d33d dd95 1c3d 654b 88be
00000060: 8861 163e ac81 16be 2bb7 943e 8a25 a83e
00000070: 6be7 87be 438a 68bc 1f90 023e 9628 53be
00000080: 04e3 043e b346 cebc 0c4a cabe 41fa dcbc
00000090: 2f4a 9a3e e1d6 debd cfa3 abbd dd0f 8a3e
000000a0: 4ae9 2fbd 916d 95bd a00e 41be 9297 ef3d
000000b0: f401 e43d d413 41be 4c34 8d3e 6c21 27be
000000c0: dd20 24bc 32f6 923d cc67 943e a8fa 813e
000000d0: 1e3a 99be c7c1 6cbc a006 b3ba aba4 923e
000000e0: 2dbd 23be bfda 33be 5404 95be e4c1 c03d
000000f0: 1ee6 4c3e e885 a9be 7133 a73e d188 733e
0.23977801 0.12190462 0.2880957 0.09537515 -0.1575584 -0.23084705 -0.16607808 -0.21343271
0.23724227 0.26556885 0.3733692 0.1360364 -0.13230164 0.14618193 0.27808374 -0.16738622
-0.3155846 -0.09647653 -0.23900338 -0.11240325 0.2927326 0.10337785 0.03822886 -0.2662002
0.14685643 -0.14697903 0.29045996 0.3284114 -0.26543745 -0.01419312 0.1275029 -0.20620951
0.12977225 -0.025180196 -0.39509618 -0.0269748 0.30134723 -0.10880829 -0.083808534 0.26965228
-0.04294709 -0.07296289 -0.18853235 0.116988316 0.11133185 -0.1885522 0.27578962 -0.16321343
-0.010017601 0.07175864 0.2898544 0.25386548 -0.29927152 -0.014450497 -0.0013658591 0.28641257
-0.15990134 -0.17563914 -0.29104865 0.09411982 0.20009658 -0.33109975 0.32656434 0.2378266

blocks.1.attn.k_FacTs.weight f4 [8, 8]
00000000: 95cf 173e df4a a1bd 998e 02bd 6584 9cbd
00000010: 480d 603e 1dfd 88be a5e9 013d 6696 2b3e
00000020: 82cc 7fbd c424 933d 5cb0 d0bd 61e8 4b3e
00000030: fdfd 763e fa57 9b3d d496 5cbd 42ee bdbe
00000040: 78a6 103e d746 dfbd d80c 013e 7e70 44be
00000050: 8f67 48be e605 583e c1f5 0b39 6bcc 25be
00000060: 05f9 90bd 81c6 6a3e dff8 ba3e 81c9 28bd
00000070: 8cda a63e 758f 19bd b49c a73d 91ad d1bd
00000080: 348d 99bd fd6c 313d e37c 63be cb7b 6bbe
00000090: 9300 8abe 361a 86be d3c6 15be 4b4a 773e
000000a0: 77dd 89be e93a 1abe dc0b 98be 3c92 acbc
000000b0: 03bd 823e fb92 203e af8c ddbd b2af 8cbe
000000c0: 1bca 393e a24a 983d da09 88be 9fc6 423e
000000d0: 2359 0bbe c3f8 703e 3d98 683d aaa0 953e
000000e0: 5e2b 953d 2f95 a0be 7cea b93d 01be 96be
000000f0: 1102 e43d 3ba6 32bd f441 903d db0b d0bd
0.1482528 -0.07875609 -0.031874273 -0.0764244 0.21880066 -0.2675561 0.03171696 0.16756591
-0.062450893 0.07184747 -0.10189888 0.19912864 0.24120326 0.075851396 -0.05385478 -0.3709584
0.14126003 -0.109021835 0.12602556 -0.19183537 -0.19570754 0.21096 0.00013347623 -0.1619126
-0.07078747 0.22927286 0.36518 -0.041207794 0.32588613 -0.037490327 0.081841856 -0.10238183
-0.074976355 0.04331683 -0.22215609 -0.22996442 -0.26953563 -0.26191872 -0.14626627 0.24149434
-0.26926777 -0.15061535 -0.29696548 -0.021065824 0.2553483 0.15681069 -0.10817849 -0.27477795
0.18143503 0.0743611 -0.26570016 0.1902108 -0.13608222 0.23532395 0.05678581 0.2922414
0.07283662 -0.31363818 0.090779275 -0.29441836 0.11133207 -0.04361556 0.070438296 -0.10158511

blocks.1.attn.v_FacTs.weight f4 [8, 8]
00000000: d1d0 fcbb ee34 a83d 4546 183e 5e3c 17be
00000010: 8a64 893e 1d37 743e adda a6bd 4fac a73c
00000020: 7f8b 78be c5c7 5b3a dd4b 5f3d 0914 cabd
00000030: 2d3d 9f3c eaa1 3e3e 10db 50be 00c7 f03c
00000040: e202 8bbd d42d 713e a2a4 8c3e 7ee2 a4bd
00000050: 8309 a8be d9e4 863e bc00 123e 1eaf 653d
00000060: 2343 aa3d 65ac f23a b0e7 013d b9d9 f13d
00000070: afe3 563e 9fa8 47be 1350 88be 31c2 fb3d
00000080: 43ec 6ebb d4e1 00be f6c8 ac3d e9c1 65be
00000090: e02c 86be e8e5 933e 8569 acbd 35ee 89bb
000000a0: 6e2b c0ba 4335 9d3e baf4 133e 7ffe ed3d
000000b0: aa83 973e 691e 88be 9149 8e3e 4dce 48be
000000c0: 5d60 70bd 3a65 8ebe fe0f 46bd 1d50 923e
000000d0: 35d9 2ebe b02b 8abe ef9a bb3d 7b8c 853e
000000e0: f5e3 183e 7031 863d bbf0 beba d4bd 84be
000000f0: 96e3 39be 71fe 3ebe 1c75 ad3e 2d31 013e
-0.0077153225 0.082132205 0.14870556 -0.14769122 0.26834518 0.23849149 -0.08147178 0.020467905
-0.24271964 0.0008383955 0.05451571 -0.09867103 0.01943835 0.18616453 -0.20396066 0.029391766
-0.06787659 0.23552638 0.27469355 -0.080510125 -0.32819757 0.26346472 0.14258093 0.056075208
0.083135866 0.0018514512 0.031715095 0.118091054 0.20985292 -0.19497918 -0.26623592 0.122928984
-0.003645674 -0.12586147 0.08436768 -0.22437252 -0.26206112 0.28886342 -0.08418564 -0.0042093047
-0.001466138 0.30704698 0.14448825 0.11620807 0.2959264 -0.265857 0.27790502 -0.19609948
-0.05868565 -0.27811605 -0.048355095 0.28576747 -0.17075045 -0.26986456 0.091604106 0.2608374
0.14930709 0.06552398 -0.0014567593 -0.25926077 -0.18153223 -0.18651749 0.3387841 0.12616415

blocks.1.attn.proj_FacTs.weight f4 [8, 8]
00000000: 225a 1bbe c16c 803e 2c59 5cbe 4b0a 233e
00000010: 03d5 79be a931 53be e2d6 05be 5640 543e
00000020: cf83 3b3d 37bd 043d 2045 babd 4a37 0c3e
00000030: 3efa 78be 0f46 1b3e aa3f 453c b8b5 8abe
00000040: ed61 573e 599d 753e c484 93be 0634 803e
00000050: d9ce 59be 9ea6 88be 39f4 5f3e 3917 26be
00000060: ea9c 3cbd 4ce4 93bd 9dc6 203e 50ad 953d
00000070: 3456 613e 7ba0 8fbe e0ab 943e e30a 84bd
00000080: 7677 ec3d 8ea1 6a3e 02df 0a3d 7bbb 2a3d
00000090: a6ba 0ebe c265 b4bd d6c2 373e 443f 8abd
000000a0: 0e2e f3bd cc45 13bd f36b a2bc f569 3c3e
000000b0: 12e4 dbbc 4f3e 8e3e c693 883e 4cf6 243c
000000c0: 8603 14be b6a7 7dbe 2c65 e43c 8fc9 a3bd
000000d0: 21e9 2ebc 7c7b 02bc e570 6b3e eae5 933e
000000e0: d7f4 863c 14c1 353e ec22 323c d4bd a63d
000000f0: 3c2e 893e 912a fdbd 61f4 f43d 1c78 8ebe
-0.15171102 0.25082973 -0.21518391 0.15921895 -0.24397664 -0.20624413 -0.13070253 0.20727667
0.04578 0.03240701 -0.09095216 0.13692966 -0.2431421 0.15163444 0.0120391045 -0.27091765
0.2103345 0.23985805 -0.2881223 0.2503969 -0.21270312 -0.2668962 0.21870507 -0.16219796
-0.046048082 -0.072212785 0.15700765 0.07308447 0.2200554 -0.28052124 0.2903738 -0.06447389
0.11546223 0.2291319 0.033904083 0.0416827 -0.13938388 -0.08808471 0.17945418 -0.06750348
-0.118740186 -0.035955235 -0.019826865 0.18399794 -0.02684215 0.27781913 0.26675242 0.010068487
-0.14454469 -0.24771008 0.027880274 -0.079974286 -0.010675699 -0.007964011 0.22992285 0.28886348
0.01647417 0.17749435 0.010872584 0.081416756 0.26793087 -0.123616345 0.11960674 -0.2782601

blocks.1.mlp.fc1_FacTs.weight f4 [32, 8]
00000000: 6f94 8abe af73 f43d e3e9 1dbe 7aa7 65bc
00000010: 8ed6 9c3d b403 883e b47f 123e 41a9 923d
00000020: 3d5a a1bc f6d0 9d3e ea5c 7e3d 6ece e23b
00000030: 9ff4 aebe 1279 94bd 2eb1 003e 5d2a 18be
00000040: 1c89 81be aba2 90be 6b6b 773e aca1 963e
00000050: dbdd 30be a364 21bc 954e c9bd 24bb f33d
00000060: 739f 90be 8c35 d2bd 6735 fcbc 8b3e 1dbe
00000070: caee 233e c12f efbd df48 06bd 295e 20be
00000080: efeb 5c3e b5d6 1f3e 4ae5 533e 481d 143e
00000090: 1b8f 473d 5fbe 2f3c 01ca 49be c1a0 833e
000000a0: a391 f8bc f148 a2be 3e0f ec3d 74ab 9bbc
000000b0: 48de 743e 2cf8 9f3e b51b 993e 606d 9d3e
000000c0: e2a4 8b3e 2ad6 e23d 7a24 bb3d cfbb 03bc
000000d0: fd95 1f3d 4ff6 4b3d 7f8d 153e 03ab ccbd
000000e0: 5ea8 783e d8a6 0e3d 5123 d13d 56e9 45be
000000f0: 0d74 5d3e 0f9b 97bd ca6b 2dbd 881d 833e
00000100: d172 40be a134 17be bbc7 a83e b99e cb3d
00000110: 4741 97be 2e36 7cbc 0afa 82bd 7d00 193e
00000120: a91b 8ebd dc1c 7d3e 8ad8 a33e 36b4 47be
00000130: 848b 893e 6872 a83d 02be 303e 9073 813e
00000140: b3e1 59be 80a9 3a3e 0373 8fbe 5cd7 883c
00000150: b0cc e1bd 63fd aabe 469d 173e 49da edbd
00000160: 040a b13d 8192 e5bd 5278 aebc 9b36 19bd
00000170: 6445 b5bd 8963 903e 5cca 5ebd 2764 653d
00000180: e13a cf3d ba6f e7bd 6210 0f3d b613 473e
00000190: 9d29 6dbe a169 81be 7ecb 9d3c 1eed 9ebe
000001a0: 203d b1bd 4a52 573d 396f 973e 040e 81be
000001b0: 0ed0 ddbd 1e6b 2a3e e5e1 77be 5cc4 363e
000001c0: 8232 f73d 8be0 c43d 7151 613e be36 a3be
000001d0: bbd4 87be eb40 293e 0d08 8fbd 5169 ab3e
000001e0: a038 87be 9ae1 6d3e c88a 92be 1f8a 59be
000001f0: 75a3 193e 4112 2ebd 6c4c 763e 5e9c 7c3e
00000200: f853 ddbb 4536 ae3d 22aa 1f3e 0397 29be
00000210: 782c bf3e 3008 7c3d 25f1 8fbe ff4c 8a3d
00000220: ebab 043e 27cc 223e 545b 62bd 1674 14be
00000230: e85d 11be 18c3 c33c 4996 603e 85e4 2f3d
00000240: 2d88 9c3d 1bba cd3d c1f0 22bd 6af7 713c
00000250: cb7a c8bd 6703 93be 932a 42be e63a ebbd
00000260: 24fa e63d b34e 693e 2522 203e 4a46 753e
00000270: 0fff 14be d9ae d8bd 9dcd 91be 0552 433c
00000280: 8cdb 55be 3966 34be 0df2 8d3e f448 903d
00000290: ce4c cebd dcfe 6d3e fbcc 763e e5ac af3c
000002a0: 2ae6 bdbb 1779 5a3e bc31 4ebe de9f b0bd
000002b0: bbd7 05be 5b51 9cbe 4d84 f13c bd2d 823e
000002c0: 4923 9dbe fb21 aabe 397e 80bd dfee 9c3d
000002d0: ad4d 7e3e 8f22 8fbd bf43 9abe ed36 2c3e
000002e0: 6118 5bbe f254 813e fbd4 ae3d b7a2 173e
000002f0: 02e1 9d3e cd63 463e efac 44be e21d ef3d
00000300: 65b0 843d 14cb 0ebe 9ec1 2b3e c64e 813e
00000310: 50e1 4dbe 6184 1e3e 5df0 753d 84ba 87be
00000320: 69f3 b03e 479a 8c3e f2a0 1c3e 840b 153e
00000330: 05a6 6b3e 64a4 f3bd e9af edbd ac01 71be
00000340: 9206 7e3d efa1 85be 3a07 b23d 4c3f 413e
00000350: 520a 65be 3cde 01be c216 72bd 06cc 853e
00000360: a61a 453e f5e0 e4bd 9728 abbd 3507 193e
00000370: f86d 3f3d f474 45bd f494 933e 6b58 843e
00000380: 686b ae3d e76e 0a3c 6610 82bd 576d 89be
00000390: bd95 4ebe 91f6 9c3e abd7 353e 2571 1ebe
000003a0: debf 96be d70b 56be da16 a8be 7468 b0bd
000003b0: bf66 42bc 7fa5 613e 5276 ecbc 10f7 61be
000003c0: 7587 b2bc 326d 2d3e 3310 80be d4a6 6b3e
000003d0: d2ea 6f3e b260 313e 1926 bbbd 49ab ca3d
000003e0: 49c4 39be 1b05 4abd eef4 a1be 8816 7b3e
000003f0: 4a93 ac3d 9aa5 4dbe 129f 6ebd 073c 4c3e
-0.2706637 0.119361274 -0.15421252 -0.01401698 0.076581106 0.26565325 0.14306527 0.07161189
-0.01969635 0.30823487 0.06210033 0.006921581 -0.34171006 -0.07249655 0.12567589 -0.1485991
-0.2529992 -0.28249106 0.2416207 0.2942022 -0.17272131 -0.009850654 -0.098294415 0.119009286
-0.2824665 -0.102641195 -0.030787183 -0.1535589 0.1600906 -0.1167903 -0.03278434 -0.15660919
0.21574377 0.15609248 0.20692936 0.14464295 0.04872046 0.01072654 -0.19705965 0.25708583
-0.030342882 -0.31696275 0.11526345 -0.019002654 0.23912919 0.31244028 0.2990395 0.3074751
0.27274233 0.11076005 0.09137817 -0.0080403825 0.0389614 0.049795445 0.14604758 -0.099935554
0.24282977 0.034827083 0.10211814 -0.19327292 0.21626301 -0.07402622 -0.042339124 0.25608468
-0.18793799 -0.1476617 0.32964882 0.09942383 -0.2954199 -0.015393777 -0.063953474 0.14941593
-0.069388695 0.2471804 0.32001144 -0.19502339 0.26864254 0.08224946 0.17259982 0.2528348
-0.21277504 0.18228722 -0.28017434 0.016704254 -0.11025369 -0.33396444 0.14806089 -0.116139
0.086444885 -0.11209584 -0.021297608 -0.03740559 -0.08851126 0.2820094 -0.054392204 0.056003716
0.10118652 -0.11300607 0.034927733 0.19441113 -0.23160405 -0.252759 0.019262072 -0.3104028
-0.08654237 0.05256871 0.29577044 -0.25206006 -0.10830699 0.16642424 -0.24207266 0.17848343
0.120701805 0.09613141 0.22003724 -0.31877702 -0.26529488 0.1652867 -0.069839574 0.33478788
-0.2641039 0.23230591 -0.28621507 -0.21244095 0.1500376 -0.042497877 0.2405259 0.24669024
-0.0067543946 0.08506445 0.15592244 -0.16561513 0.37338614 0.061531246 -0.28113666 0.06752967
0.12956207 0.1589819 -0.05526288 -0.14497408 -0.14195979 0.023896739 0.21932329 0.042942543
0.07643161 0.100452624 -0.039780382 0.014768461 -0.09789046 -0.28713533 -0.18961553 -0.11485843
0.11278179 0.22783928 0.15638025 0.23952594 -0.14550422 -0.105802245 -0.28477183 0.01192141
-0.20884532 -0.1761712 0.27723733 0.07045165 -0.10073243 0.23241752 0.24101631 0.021444747
-0.00579526 0.21335255 -0.2013616 -0.08624242 -0.13070576 -0.3053082 0.029482031 0.2542552
-0.30690983 -0.3322905 -0.06274075 0.076627485 0.24834318 -0.069890134 -0.3012981 0.16817828
-0.21396019 0.2526012 0.085367166 0.14808165 0.3083573 0.19374008 -0.19206594 0.116756216
0.06478957 -0.13944656 0.16773078 0.25255412 -0.20105481 0.15480186 0.06004368 -0.26509488
0.34560707 0.27461454 0.15295771 0.14555174 0.2301255 -0.118965894 -0.11605818 -0.23535794
0.062017985 -0.26100108 0.086927846 0.18871802 -0.22367218 -0.12682432 -0.059103735 0.2613222
0.19248447 -0.1117572 -0.08357351 0.14944156 0.046735734 -0.04820724 0.2882458 0.25848708
0.0851658 0.008449293 -0.06350784 -0.26841232 -0.20174308 0.30656865 0.17758052 -0.15472849
-0.29443258 -0.20902954 -0.32829934 -0.08613673 -0.011865317 0.22035788 -0.028865013 -0.22066903
-0.021793107 0.16936186 -0.2501236 0.23012859 0.2342942 0.17322043 -0.09138126 0.09895951
-0.18141283 -0.049321275 -0.3163218 0.24520314 0.08426531 -0.20082703 -0.05825717 0.19944774

blocks.1.mlp.fc2_FacTs.weight f4 [8, 32]
00000000: e15d 09be bee1 b73d ac48 b3bb 8202 debd
00000010: 1ded 55bd 2d62 d1bd f702 3c3e 001e c33c
00000020: 266e fcbc f0b2 e1bd 60a3 ff3c 6c7b 2e3e
00000030: d876 d1bd 4464 7dba 537e ac3d 4f20 3c3e
00000040: ed5b 09be bcea 0c3e c7b1 00be 263d 043e
00000050: 2614 51bd fd0c 19bd ba98 083e c0ac a2bd
00000060: 792b cf3c 9d46 c93c 5640 153e 8f67 05bd
00000070: 9d96 743d 97bc 4e3d fca6 4fbe def3 09bd
00000080: 1f6a b4bd 2d2d 033e 5513 033d 81a3 333b
00000090: 20bb 0dbb 73fb 1ebd 51f0 453e 13b2 a3bd
000000a0: 2170 02be bb58 27be a9af 99bd dcad df3d
000000b0: b6d8 a43c ad2f 44bd 24ae fabd 69fe dfbd
000000c0: 9ce5 0f3e 8262 e93b 3dd7 673d 3c23 5ebd
000000d0: c124 fe3d 74b0 9d3d de24 a4bd 7d4d 2dba
000000e0: f312 593d 56b6 d5bd 38e2 d93c 3c41 323d
000000f0: 427b 8dbc 6d8f c43d e416 e33d f8bc acbd
00000100: b073 02be 11ba 203e 4447 43be 7ca7 8d3b
00000110: 5afe 5d3d 374e 133e 5377 f1bd e902 e63d
00000120: f6ed ee3d 8491 91bc 9aa8 14bd 7c12 f3bd
00000130: 93c4 24bd abfd e43d d469 72bd 7e21 3ebd
00000140: 3afb e43d 8a88 e83d 4e49 91bd 7ae4 8c3d
00000150: 5ef1 a8bd e09a 673d 8980 b43d eac3 6ebd
00000160: 8135 bbbd ae07 023e 32d0 04bd cdd9 29be
00000170: f138 053e e936 953d a513 f63b d0a0 2c3e
00000180: d652 a4bd 9a7a 00be 8bcf be3d 0b86 e23d
00000190: 2b9a aabc 88f4 203d 3d53 193e cdd5 56bd
000001a0: 061f c0bd f84b 003d e016 f1bd c031 e83c
000001b0: b1ad 0a3e 933b a33d cb13 f83d cda4 f93d
000001c0: f2e5 3dbd aeb8 9fbd de53 06be 8121 813d
000001d0: 7b19 fd3d 48a7 a13c c32e 0e3e 8dd2 983d
000001e0: 4fc1 103d 4dbe 33be cca6 9e3d 409d 073e
000001f0: d291 06bc a147 99bc 6914 a3bd 7c20 723a
00000200: 9a71 25be 010d 943d e54d 133e aee4 cf3d
00000210: 39d2 04be 2105 d3bb 10d1 b73d e39c 9d3c
00000220: 24a3 ca3d f39c 8bbd d228 cc3c 702a 02be
00000230: 6e25 773d 126f 09bd e836 743d ff55 3b3d
00000240: 39b1 33bd c2b5 efbd 5130 39bd 5e4a 1e3c
00000250: 5a79 dabd 4521 15bd 1d31 d4bc 5550 07be
00000260: b010 18be 5778 013d 9158 33bd 4d18 863d
00000270: 0858 cf3d 1f58 1dbc b5f2 adbc 560c 013e
00000280: aa45 f2bd f1f0 2dbe 8418 14be f21e 0d3e
00000290: 911a d63d b8ab 303e e296 073e 2c1a 673d
000002a0: ae29 9bbd 2615 09be 7e95 d4bd 7e17 34bd
000002b0: f7d7 a93d 7dfd 13be a712 0cbe c6df 29be
000002c0: cb7a 45bd 1250 f1bd f132 22bc 48cc cc3c
000002d0: 179b 9bbc 92d4 94bd 8d97 293d 1e85 1bbd
000002e0: 4fd4 b2bd 6d3d 06be bc6a 313b 5ac1 213d
000002f0: 8b0c 05be d8bf 103e 8982 913d 79b2 19ba
00000300: 35e8 df3d d2c3 99bd d3a5 833d e99b b3bd
00000310: 0c64 453d 3152 06be 7b36 313e 9b86 443e
00000320: 73e9 21be faf1 183e f45f 733b aebf ca3d
00000330: 8492 523d 0b75 443d 1fbf dcbd b39b f7bd
00000340: ff91 abbd e184 bdbd 109a 99bd 0a72 cabd
00000350: c7bd a5bd 6d15 84bd eecc b7bd 4d4d 093e
00000360: 0793 c3bd 7a58 0b3e fced 283d b2e4 93bd
00000370: a665 2ebe f541 98bd cf5a 44bd 5f8f 1fbe
00000380: b24b d5bd 6ce9 a0bd af6d df3d 6305 25be
00000390: e1f7 a6bd 9ebb 29be f545 0e3e 1b34 91bc
000003a0: 768a 0c3e c448 b53d 0b9c babc 51e0 0d3e
000003b0: e094 0abd c3fb ec3d 5bd5 b3bb e6eb e73d
000003c0: 52c8 a83c b50a 6fbc 154d b1bd a4d7 ad3d
000003d0: f9c6 7abb 5a27 903d 9a4b adbd 835d 813d
000003e0: af2a 0bbe fbd5 4e3e e677 a83d 1021 c63b
000003f0: 2d01 45bd 9ceb 893d 1e14 24bd adad f93c
-0.13414718 0.08978604 -0.0054713096 -0.10840322 -0.052228082 -0.10223804 0.18360506 0.023818016
-0.030814242 -0.11020458 0.031205833 0.17039269 -0.10227746 -0.0009666125 0.08422532 0.183717
-0.13413973 0.13761419 -0.12567817 0.12913951 -0.051044606 -0.037365902 0.1333951 -0.07943106
0.025289284 0.024569804 0.14575323 -0.032569464 0.05971395 0.050472822 -0.20278543 -0.033679835
-0.088093035 0.12810202 0.03200086 0.0027410688 -0.0021626428 -0.03881402 0.19329955 -0.07992949
-0.12738086 -0.16342442 -0.07504208 0.10921833 0.020122867 -0.04789703 -0.12240246 -0.10937197
0.14052433 0.0071223387 0.05660175 -0.05423282 0.12409354 0.076996714 -0.08014844 -0.0006610973
0.052996587 -0.104351684 0.026597127 0.043519244 -0.017270688 0.09597669 0.110883504 -0.084344804
-0.12739444 0.15695979 -0.19070154 0.004322944 0.054197647 0.14385305 -0.117903374 0.11231024
0.11666481 -0.017769583 -0.036293603 -0.1186876 -0.04022653 0.11181196 -0.059182957 -0.04641866
0.1118073 0.11354168 -0.0709406 0.06879516 -0.08249162 0.056544185 0.08813579 -0.058292307
-0.091410644 0.12698242 -0.032425113 -0.1658699 0.13010003 0.07285864 0.007509666 0.1685822
-0.08023612 -0.12546769 0.093169294 0.11060723 -0.020825466 0.039295703 0.14973159 -0.05244999
-0.09380917 0.03132245 -0.11771941 0.028344035 0.1354282 0.07970347 0.1211315 0.121896364
-0.04636187 -0.07798897 -0.1311793 0.063052185 0.12358376 0.019733086 0.13885026 0.074620344
0.035340603 -0.17553063 0.07746658 0.1324358 -0.008213477 -0.018710913 -0.07962877 0.0009236408
-0.16156617 0.07229043 0.14385183 0.10151039 -0.12970819 -0.0064398204 0.089754224 0.019239848
0.09894398 -0.06817045 0.024921808 -0.12711501 0.06033843 -0.03355319 0.059622675 0.04573631
-0.043870185 -0.117045894 -0.045212094 0.009661285 -0.10667677 -0.03640868 -0.025902325 -0.13214238
-0.14850116 0.031608906 -0.043785635 0.06547604 0.101242125 -0.009603529 -0.021233896 0.12602362
-0.118296936 -0.16986443 -0.14462477 0.13781336 0.10454286 0.17253006 0.13241151 0.056421444
-0.07576309 -0.13386974 -0.10380076 -0.043967716 0.08293145 -0.14452167 -0.1367899 -0.16589269
-0.048212808 -0.1178285 -0.009899841 0.024999753 -0.018994851 -0.07267107 0.041404296 -0.037968747
-0.08731901 -0.1310937 0.0027071675 0.039491035 -0.12993066 0.14135683 0.07104976 -0.00058630813
0.10932962 -0.07508053 0.06428113 -0.08769972 0.048191115 -0.13117291 0.17305939 0.19191973
-0.1581171 0.14936057 0.003713605 0.09899841 0.05140926 0.047963183 -0.10778641 -0.12090244
-0.08377456 -0.0925386 -0.07500088 -0.098850325 -0.08092838 -0.06449399 -0.08974634 0.13408394
-0.095495276 0.1360797 0.041242585 -0.072213545 -0.17030963 -0.07434455 -0.047938164 -0.15582035
-0.10414828 -0.07857022 0.10909592 -0.16115336 -0.08152748 -0.16575477 0.13893874 -0.017725041
0.13724694 0.088517696 -0.022779485 0.13855101 -0.033833385 0.11571457 -0.0054880804 0.11324291
0.020603333 -0.014589955 -0.0865728 0.08488396 -0.003826557 0.07038756 -0.084616855 0.06316664
-0.13590501 0.20198815 0.08225994 0.006046422 -0.048096824 0.06734392 -0.040058248 0.030478323

blocks.2.attn.q_FacTs.weight f4 [8, 8]
00000000: 7906 f6bb d3c4 c5bd caf6 893e 2bdb 48be
00000010: e123 873e ef5d 8ebe 9ca8 cfbd 7805 033d
00000020: c394 373e 92cf c23e 3166 c23e 3ca6 a63d
00000030: 4ea8 cf3d cd41 a03e 1b6e 7dbe 8b69 6f3d
00000040: 89c9 113e 3bde 213e a236 473e 7d09 b7be
00000050: d4e9 a53b 55d7 033e c1b5 51be 38ca 84bd
00000060: c1d0 21be e9da a73e 2fc0 d23d 7932 a0be
00000070: 1195 59be 4314 803e da9b c9be dfbf 6b3e
00000080: 1491 b33e ec01 9fbe cb5d 7dbe dfc5 8abe
00000090: 0eaf a6be aae5 c43e 1388 debd ff6b 123e
000000a0: ec91 01be d547 90be 7b10 613e fc6a 4cbe
000000b0: e2ff 013e f14b 9dbe 9e69 95bc 89b7 ab3e
000000c0: 66ce 2abe d0c9 94be 5bea f6bd 4d98 2ebe
000000d0: 7655 2d3e 4286 853e af7c 2ebe e87b 0f3d
000000e0: dfee 8f3d 2f43 433e 6bd4 86be 1ad6 403e
000000f0: 49ed b9be 378a d23c b777 d7bc 97fe b03e
-0.007508096 -0.09656682 0.26946098 -0.19614856 0.2639456 -0.2780604 -0.101395816 0.031987637
0.17927842 0.3804899 0.3796859 0.081371754 0.101395234 0.31300202 -0.24749033 0.058450263
0.14237036 0.1580743 0.19454435 -0.35749426 0.005063275 0.12875111 -0.2047949 -0.06483883
-0.1580229 0.32784203 0.10290562 -0.31288508 -0.2124827 0.25015458 -0.39376718 0.23022412
0.35071623 -0.31056154 -0.2474281 -0.2710409 -0.3255543 0.3845647 -0.10865798 0.1429901
-0.12653321 -0.28179803 0.21978943 -0.19962686 0.12695268 -0.30722 -0.018238839 0.33538464
-0.16680297 -0.2906022 -0.120564185 -0.17050286 0.16927132 0.26078993 -0.1703975 0.035030276
0.07027983 0.19068597 -0.26333937 0.18831673 -0.36313847 0.025700672 -0.026302202 0.34569237

blocks.2.attn.k_FacTs.weight f4 [8, 8]
00000000: daa1 623d 2241 a2bd d211 c6bd d241 a4bd
00000010: a330 9abe 5d14 8b3d 2ffd 2ebe 5266 713e
00000020: f71c 5e3e 8b05 6a3e be7f 0cbe 296e eabc
00000030: 2790 603d 3889 923e fe56 173e 8570 2abd
00000040: 08f6 3e3e bc1b 973e cd32 583b 33d9 3b3e
00000050: e565 1b3d 9994 66be 4c82 7fbd 6aee 7a3e
00000060: 1307 b7bd 6480 a9be d87d 9f3e 3e92 083d
00000070: 7034 8ebe 780d 7ebe 7df0 a5be 6e0f 2b3e
00000080: 64fc 2abe 3b21 22be ca78 dbbd a9ba ac3e
00000090: 21d9 b53d cc78 65be 4be2 6c3d acf2 463e
000000a0: e862 7ebe d6e3 953c 8595 a03e da71 1cbe
000000b0: b8f7 72be 2827 bf3d fe04 70be 923d 843e
000000c0: bf18 873e b704 41bd b9b2 85bd aa9f 5fbd
000000d0: 459f 523d a219 5d3e de89 c43d 4621 a43e
000000e0: 2691 04bd c5ab 653b 1b90 aa3e 914e 6bbd
000000f0: 940e 493e fcb4 12be 6e6e 9b3d 0c54 94be
0.055330135 -0.07922579 -0.09671368 -0.08020367 -0.30115232 0.06790993 -0.1708877 0.23574188
0.21690737 0.22853677 -0.13720605 -0.028616982 0.054824974 0.28620315 0.14779279 -0.041611213
0.18648541 0.29513347 0.0032989264 0.18344574 0.03793897 -0.22517623 -0.06238012 0.2450501
-0.08936896 -0.33105767 0.311507 0.033342592 -0.27774382 -0.24809825 -0.3241004 0.16705105
-0.16697842 -0.15832989 -0.10716398 0.3373616 0.08879305 -0.22409362 0.057832997 0.1942851
-0.24842417 0.018297117 0.31364074 -0.15277806 -0.2372731 0.0933364 -0.23439404 0.25828224
0.26386067 -0.047123637 -0.06528229 -0.054595627 0.051421423 0.2159181 0.095966086 0.32056636
-0.032364987 0.003504501 0.3331307 -0.057447974 0.19634467 -0.14326853 0.07589422 -0.28970373

blocks.2.attn.v_FacTs.weight f4 [8, 8]
00000000: 1dba 4c3e 3ced 523d 6955 83bd a21c 883e
00000010: d75d b2bd 9bdc 973e af93 8cbe 04d3 933e
00000020: bbe5 1abe 8bb2 803d 0af1 23bd 853f 253e
00000030: f496 4b3e b720 453d 8c91 0b3e 9a68 5b3d
00000040: 298d 943e 3ccb 11bd 07a0 85be 6412 6b3e
00000050: 9423 81be 6ab6 f23d 2685 86bd bf73 9dbd
00000060: 36c7 9bbe 39ff 37bd b52a 78be 0547 8abe
00000070: 8059 803e 6ea9 7bbe c7e2 c13d 5073 8abe
00000080: 38c1 9cbe b362 05be 2e8a 64be bfc5 e6bd
00000090: 501b 9dbd 428d 92bd e9e4 71be 99c5 87be
000000a0: 8585 86be 3751 273e 7a60 763e 50df e5bd
000000b0: 0645 893d 3334 a03e 7d03 bdbd d264 1abe
000000c0: 1cfb 603e c933 393c 554d 693e a679 6abe
000000d0: 2dee a5be bff5 55be 648a 64be e414 803e
000000e0: 47c6 c93d aeb9 5d3e d632 fcbd 56c2 9dbd
000000f0: 6d5a c03a bed2 8ebd 9d71 873e e0fc 39bc
0.19992872 0.051495776 -0.06412775 0.26584345 -0.08709305 0.29660496 -0.27456424 0.2887193
-0.15126698 0.06284054 -0.040024795 0.16137512 0.19881803 0.048126902 0.1362974 0.053566553
0.29013947 -0.03559421 -0.26098654 0.22956234 -0.25222456 0.11851199 -0.06568365 -0.076880924
-0.30425423 -0.044921134 -0.24235041 -0.2700731 0.25068283 -0.24576351 0.094670825 -0.270411
-0.30616164 -0.13025932 -0.22318336 -0.11268186 -0.07671225 -0.07155849 -0.23622479 -0.26517943
-0.26273742 0.16339575 0.2406024 -0.11224234 0.06702618 0.31289825 -0.09229181 -0.15077522
0.2197079 0.01130385 0.22783406 -0.22897968 -0.32408276 -0.20894526 -0.22318417 0.25015938
0.098522715 0.21652862 -0.12314384 -0.07703082 0.0014675386 -0.0697379 0.26453868 -0.011351794

blocks.2.attn.proj_FacTs.weight f4 [8, 8]
00000000: 9999 3cbe ccab 1b39 3bb6 8cbd 12ca 3ebd
00000010: 6db8 43be fc43 5b3e 3b78 983e 12a3 2c3e
00000020: 9ba1 8e3d b5d9 0dbd 1001 0ebe 66b1 89bd
00000030: 51a6 5a3e d9bb 85be 7f6b 79be 3bf4 4cbe
00000040: 328d 89bd 2353 853e 1cab 50be cdcf 5c3d
00000050: 9681 6c3e 3aa5 b83d 0958 5fbe e1df 1abe
00000060: 3a03 a63d fd2a 90bc a87c 8cbe e507 95be
00000070: 3c77 fcbd 58a0 8dbe ad6e 973e 73e6 0c3e
00000080: 80dc 813e 4b39 b8bd d6ae 503e 3aa6 b5bd
00000090: dd17 a1bb b10e 8cbd 4495 60be 921f 5c3e
000000a0: e455 6c3e 0ef9 32bd 2d00 4abd 9e75 67be
000000b0: 7020 ab3d 0c1d 37be 11e6 8bbe 4ca8 16be
000000c0: bfd4 c23d ccbf 80bd 245a 7bbc 0fb9 58be
000000d0: e722 85be 93d3 9abe eefe 30bd 3d4e 533e
000000e0: 93e0 95be 2a84 9d3c 9092 a53d 8614 73bd
000000f0: 2b45 65be 758d e6bd 558b 96be 89eb b0bd
-0.18417968 0.00014845951 -0.06870695 -0.046579428 -0.19113322 0.21412653 0.2977923 0.16859081
0.069644175 -0.03463145 -0.13867593 -0.06723289 0.21352507 -0.2611988 -0.24357413 -0.20015042
-0.06716384 0.2603999 -0.20377773 0.05390911 0.23096308 0.090158895 -0.21810926 -0.15124466
0.08106084 -0.017598623 -0.27438855 -0.29107586 -0.1232743 -0.27661395 0.29576626 0.13759784
0.2536354 -0.08995303 0.20379195 -0.08869596 -0.004916175 -0.0683874 -0.2193194 0.21496418
0.2307964 -0.04369455 -0.049316574 -0.22603461 0.08355796 -0.17882174 -0.27323964 -0.14712638
0.09513234 -0.06286582 -0.015341315 -0.21164344 -0.2600319 -0.30239543 -0.04321187 0.20635314
-0.292729 0.01922806 0.08084595 -0.059345745 -0.22389667 -0.112574495 -0.29403177 -0.08638675

blocks.2.mlp.fc1_FacTs.weight f4 [32, 8]
00000000: 63b3 923e 923f a93e 3aeb 9f3d 3dbb 76be
00000010: 72de ecbd c41c 083d 3309 4abe 184c e8bd
00000020: 5be7 cd3d 8858 febd 5104 273e b5e5 3f3e
00000030: 88f3 903d f8d1 45bd 00dc bf3d 7dab 9bbe
00000040: 9d34 a6be 5605 343d 471a 183e 5ad4 f93c
00000050: b8b4 afbe 3d06 7dbe 854c b5be f61e 8fbe
00000060: e97a b1be 709a 48be 42a8 26be 8ba6 3abd
00000070: ef9e 8ebe 274a 153c 8073 463e 7e7b ebbc
00000080: 30f6 91bd e589 463d 07ff 6b3e 5f86 fd3d
00000090: d1d4 9abe a1b3 5f3e 9b8c 4cbe 5e55 e1bd
000000a0: d8c3 86be 81c3 693e 3883 88be a00d 073e
000000b0: 6181 85be 03a5 883e 69cd d93d bcd8 07be
000000c0: 025d ed3d cbe8 063d 27a9 ff3c 0f19 01bc
000000d0: 7ca6 403d 8a85 ab3e 50b3 5c3d b932 593d
000000e0: 1a99 84be c38e 923e 531d 1c3e cbeb 6bbe
000000f0: a021 203e 5622 9fbd 113a 9ebe 924c 02be
00000100: 4f78 373e 70e0 2a3e 04e0 1cbd 7e90 233e
00000110: c724 39bd 8630 adbe c0d8 653e 28cc 923e
00000120: a0c8 4abe 5438 07be 3b29 c7bd b70f 91be
00000130: cd7d 97be 1a44 613d 0e7f 093e 82bc 963e
00000140: 2fc1 2bbe de8b 8c3e ae4e 06be 5245 373e
00000150: 6924 aabe 502a 84be eb0b 233d 586d 73be
00000160: cde5 41bd 7b51 64be bb67 72be eba4 9a3e
00000170: 2547 a1bd ddfe 773e 280c 68be 5870 bb3d
00000180: b511 32be 11bf 973e e8fb 833e 9db1 363e
00000190: 893d 87be 292c 1cbe 02d9 39be 6c6f f23d
000001a0: da0a 7abe b771 abbd 15ae c93d 7d4c 4b3d
000001b0: 6129 1dbd 1ecf 0bbe 223f a1be ce23 9dbd
000001c0: fe04 683d 2869 5abe 83dd 8f3d 9bb2 33be
000001d0: b799 cd3d a171 523e ae71 153e f662 7abd
000001e0: 7808 84bc 806d 91be 29d8 123e 0d30 5c3e
000001f0: 5e4d a7be 021e 8abe e049 8cbe 72a5 8fbe
00000200: 7382 70be 7f86 933e 77b0 6ebe 4232 16be
00000210: 77de 9bbe 2933 163e 489b 993e 322b 543e
00000220: 11b0 953e 92ab 24bd b635 093e 5e97 57be
00000230: c4ac 9a3e 0101 81be a731 003e f2bb a53e
00000240: 2d05 a5bd 14c1 07be 4810 543d f196 8bbe
00000250: 26a3 92be c413 48be 9107 3b3e ed57 6bbd
00000260: 7300 3a3e 7abd 743e a79b 25be e00f b2be
00000270: 17b5 4fbe 2f47 cbbe 1ae4 a33e 390e 953d
00000280: ada2 74bd 8312 79be 2779 293c 3ad1 9dbe
00000290: e11c 903a 281c b5bd dc87 213d 1013 963e
000002a0: 6641 6bbe 5eac 5fbe 012d 803e 2273 2e3e
000002b0: f2ae 9c3c 29ef 723e 4add 29be 53e1 48bd
000002c0: 10db 4bbe 55b4 92be a35b 24be 8133 733d
000002d0: fad5 f03d 0dfa b1be 0619 7c3e dd54 073e
000002e0: 3a00 9dbe 0224 16be b6b6 403e 85e4 303e
000002f0: 79c9 6b3e 4bc7 3536 07df 303e d131 4ebe
00000300: c3ec 88be ce4d 8bbe d37d 5abe 3f05 163e
00000310: 5977 553e 1f44 bdbc 868b 423d 5d84 043e
00000320: 0b3e 813d b62b 683e 6bd2 70be b6eb e4bc
00000330: 800d 1ebd 5fa8 813e e93d 4b3d b6ce a93e
00000340: c789 143e 5755 5b3d c80c eb3c 818e 60be
00000350: f555 e8bd fadd 3b3e a534 8dbe b0c6 8fbe
00000360: 248f 2dbe fdcb 363e 6c77 493e fbb3 533d
00000370: c0b3 9dbe 4c13 97bb 15da 49be 9771 7abd
00000380: 79c2 72be a25f 93be d386 6d3c 4e08 87be
00000390: 3df9 b13e ef1c 65bc d304 463e 51ad 8cbe
000003a0: 3e4b 163e 152b 4fbe 3816 4bbe d34a 2a3d
000003b0: a54c df3c 5a38 3a3c 8dc1 e8bc a9b6 0b3e
000003c0: a6b0 8cbd 30bb 6fbe 3b01 fc3b 4574 2c3d
000003d0: e128 11be 9331 5dbe 49a7 a5be 0ecc 8c3d
000003e0: 8eb1 993e 4244 7ebe 4002 eebd d6bd 963e
000003f0: 7543 873e 2708 e53c 1693 073d a088 243c
0.28652486 0.33056313 0.07808538 -0.24094863 -0.115658656 0.033230558 -0.19730072 -0.11342639
0.10053893 -0.1241923 0.1631024 0.1873997 0.070777 -0.048295945 0.093681335 -0.30404273
-0.32462016 0.0439504 0.14853774 0.030496765 -0.34317565 -0.24709411 -0.35409942 -0.2795331
-0.34664086 -0.19590163 -0.16275123 -0.045568984 -0.27855632 0.009111918 0.19379997 -0.02874541
-0.07127035 0.04847135 0.23046504 0.12379145 -0.3024049 0.21845867 -0.19975512 -0.110026106
-0.26321292 0.22828485 -0.26662612 0.13188791 -0.2607527 0.26688394 0.10634882 -0.13266271
0.115900055 0.032936852 0.031208588 -0.00787951 0.047033772 0.3350032 0.053881943 0.05302689
-0.25898057 0.28624544 0.15245561 -0.23039167 0.15637827 -0.07770221 -0.30903676 -0.12724522
0.17916988 0.16687179 -0.038299575 0.15973088 -0.04520109 -0.33826083 0.22445965 0.28671384
-0.19803095 -0.13205081 -0.09724661 -0.28332302 -0.29588166 0.054996587 0.13427374 0.29440695
-0.16772912 0.2745046 -0.13115951 0.17897537 -0.33230904 -0.25813532 0.039806288 -0.2377218
-0.047338296 -0.22296707 -0.23672383 0.30203947 -0.07874898 0.24218316 -0.22660887 0.09152287
-0.17389567 0.2963796 0.25778127 0.17841192 -0.26414135 -0.15251221 -0.18149188 0.11837658
-0.24418202 -0.08371299 0.09847657 0.04963349 -0.03836954 -0.13653228 -0.3149348 -0.07672845
0.056645386 -0.21329176 0.07024672 -0.17548601 0.100390844 0.20551158 0.14594147 -0.061129533
-0.01611732 -0.28403854 0.14340271 0.21502705 -0.32676214 -0.2697602 -0.27400112 -0.28055912
-0.23487262 0.2881355 -0.23309503 -0.1466761 -0.30443165 0.14667954 0.30001283 0.20719603
0.2923589 -0.040202685 0.13399395 -0.21053836 0.30209935 -0.25196078 0.12518941 0.32369953
-0.08057628 -0.13257247 0.05177334 -0.27263597 -0.28640097 -0.1953879 0.18264605 -0.0574569
0.18164234 0.23900405 -0.16172658 -0.34777737 -0.20283924 -0.39702746 0.32009965 0.072781034
-0.059725452 -0.24323468 0.010343826 -0.3082369 0.0010994935 -0.08843261 0.039436206 0.2931142
-0.22974166 -0.21843097 0.25034335 0.17036107 0.01912639 0.23724045 -0.16588321 -0.04904301
-0.19907784 -0.28653207 -0.16050582 0.05937529 0.11759563 -0.34761086 0.2461892 0.13215967
-0.30664235 -0.14662173 0.18819699 0.17274673 0.23026074 2.7087106e-06 0.17272578 -0.20136191
-0.26743135 -0.27207798 -0.2133706 0.14650439 0.20846309 -0.023103772 0.04749634 0.12941118
0.06310662 0.22672924 -0.23517768 -0.027944427 -0.038587093 0.2532377 0.04961959 0.3316552
0.14505683 0.053548183 0.028692618 -0.21929361 -0.1134452 0.18346396 -0.27579227 -0.28081274
-0.16949135 0.17851253 0.19674462 0.051685315 -0.308012 -0.0046104547 -0.19712098 -0.061143484
-0.23706998 -0.287839 0.014497477 -0.26373523 0.34760466 -0.013983949 0.19337778 -0.2747598
0.1467714 -0.20231278 -0.19832695 0.041575264 0.027258227 0.011365974 -0.028412605 0.13643898
-0.068696305 -0.2341125 0.0076905764 0.04210307 -0.1417575 -0.21600942 -0.3235419 0.06874858
0.30018276 -0.24830726 -0.11621523 0.29441708 0.26418653 0.027957989 0.033099256 0.01004234
