Final Project/FacT-TT/kitti_best.pt (torch, 280257 bytes, 76 tensors)

blocks.0.attn.q_FacTs.weight f4 [16, 16]
0	0x3dae1113	0.084993504
1	0xbe313de8	-0.17308772
2	0x3e5b477b	0.21413986
3	0x3e6ee914	0.233311
4	0xbe1a1d98	-0.15050352
5	0x3dbc1c09	0.09185035
6	0xbc373973	-0.011183131
7	0x3e6ef422	0.23335317
8	0x3dd8264b	0.10554179
9	0x3d12cf9e	0.03584253
10	0xbd513109	-0.051072154
11	0x3e5a67ab	0.21328609
12	0xbcb33d5a	-0.02187984
13	0x3e5a4ffb	0.21319573
14	0xbea07880	-0.31341934
15	0xbcf14202	-0.02945042
16	0xbdcf20cf	-0.101136796
17	0xbe87e726	-0.2654354
18	0x3e186e56	0.1488584
19	0x3df8e499	0.121529765
20	0x3e0d18c4	0.13778979
21	0x3e57fb46	0.21091947
22	0x3e1e61a9	0.15466942
23	0x3de22fbe	0.11044262
24	0x3bfcccfb	0.0077148653
25	0x3d61c68d	0.055120993
26	0x3e78f60e	0.24312612
27	0xbcda94a8	-0.026682213
28	0xbcefeeb2	-0.029288623
29	0xbe23911b	-0.15973322
30	0xbe8ada8b	-0.2711986
31	0xbe526f9b	-0.20550387
32	0x3e3fe067	0.18737946
33	0x3e563228	0.2091757
34	0x3e06102d	0.13092108
35	0xbdd79f72	-0.10528459
36	0x3e069155	0.13141377
37	0xbe4a5bdf	-0.19761609
38	0x3e6a28d1	0.22867133
39	0xbd98f482	-0.07468511
40	0xbd92ffbe	-0.07177685
41	0x3dade52a	0.08490975
42	0xbe1bda36	-0.1521996
43	0xbd660e16	-0.056165777
44	0xbde060ac	-0.10955939
45	0x3e442d5a	0.19157925
46	0x3c977c8d	0.018492008
47	0xbd7174d9	-0.058949325
48	0x3e8db863	0.27679738
49	0x3e6c8a3f	0.23099612
50	0xbe4b2f4e	-0.19842264
51	0x3e334ca6	0.17509708
52	0x3e1208d9	0.14261188
53	0x3e09c99d	0.13455816
54	0xbe115ee0	-0.14196348
55	0xbd63f2d0	-0.055651486
56	0xbe1ff5b1	-0.15621068
57	0xbe921f2f	-0.28539416
58	0x3e03566a	0.12825933
59	0xbcf4ebf9	-0.029897677
60	0xbded03b1	-0.1157297
61	0xbea98160	-0.33106518
62	0xbe795661	-0.24349357
63	0xbe425bf7	-0.18980394
64	0xbd3e527e	-0.04646539
65	0xbe15129b	-0.14557879
66	0x3b6f343c	0.003649964
67	0xbe8773f8	-0.26455665
68	0x3e302cd7	0.17204605
69	0x3e4b3a34	0.19846421
70	0xbd0c5b6b	-0.03426687
71	0xbe933d0e	-0.2875752
72	0xbe139406	-0.14411935
73	0xbe9312a6	-0.28725165
74	0x3e702b4d	0.23454018
75	0x3df9088a	0.12159832
76	0x3e78d3ed	0.24299593
77	0x3df756ed	0.12077127
78	0xbe029b00	-0.1275444
79	0xbe1cb911	-0.15304972
80	0x3cba7e4d	0.022765303
81	0x3c932fea	0.017967183
82	0xbd2345f8	-0.03986165
83	0x3e073c3c	0.13206571
84	0x3e2ebd88	0.17064488
85	0x3d9dc632	0.077038184
86	0xbe58a4cd	-0.21156617
87	0x3d504158	0.050843567
88	0x3d09e9e6	0.03367033
89	0xbd1cb228	-0.03825584
90	0xbb064b05	-0.0020491492
91	0x3e2775ee	0.1635358
92	0x3d7348ef	0.059395727
93	0xbc5858d8	-0.013204776
94	0xbd810a07	-0.06300741
95	0xbd918dd3	-0.07107129
96	0xbe4f795f	-0.20261143
97	0x3e51f268	0.20502627
98	0x3d97a81f	0.074051134
99	0x3d9864b8	0.074410856
100	0xbc1cc7ff	-0.009569167
101	0x3b8cc40a	0.0042958306
102	0xbe5b38d4	-0.21408397
103	0xbe84389c	-0.2582444
104	0x3dbb7805	0.09153751
105	0x3d2d1b3e	0.04226231
106	0xbd85d7d3	-0.06535306
107	0xbe28312a	-0.16425005
108	0x3de16d65	0.110071935
109	0x3e355867	0.17709504
110	0xbe5ea5a2	-0.21742871
111	0x3e08f000	0.13372803
112	0x3e16ec7c	0.14738649
113	0xbe325309	-0.17414488
114	0x3e0638ab	0.13107555
115	0x3cc9a7b1	0.024616094
116	0xbdee437d	-0.11633966
117	0x3e5615f2	0.20906809
118	0x3e69cb83	0.2283154
119	0x3e56a408	0.2096101
120	0xbe2ea5f0	-0.17055488
121	0x3e061499	0.13093795
122	0xbe0c5ad9	-0.1370653
123	0x3e337287	0.17524157
124	0x3d196a7a	0.03745506
125	0xbd86f683	-0.06589987
126	0xbe5f1546	-0.21785459
127	0xbe36376f	-0.17794584
128	0xbe02105c	-0.12701553
129	0x3de569be	0.11201809
130	0xbe90660c	-0.28202856
131	0xbe4d0cee	-0.20024464
132	0xbcd308a7	-0.025760962
133	0xbdcf6f4c	-0.1012865
134	0xbce2434e	-0.027619984
135	0xbe82ca42	-0.25544935
136	0x3e40d734	0.18832093
137	0x3e5e3f07	0.2170373
138	0x3c8ea161	0.017410936
139	0x3e0a15bf	0.13484858
140	0x3e196f28	0.14983809
141	0x3a826355	0.0009947816
142	0x3e58f454	0.21186954
143	0x3e4516bc	0.19246954
144	0x3dfa66de	0.122266516
145	0xbd369bcf	-0.044582184
146	0xbd964ca8	-0.0733884
147	0x3d9e091d	0.07716582
148	0xbdc7349f	-0.097268336
149	0xbcd4994e	-0.025952008
150	0x3e220b5c	0.15824646
151	0xbe069086	-0.13141069
152	0x3d043f83	0.032287132
153	0xbcf0d2a4	-0.029397316
154	0xbda489ca	-0.08034094
155	0x3e506ad7	0.20353256
156	0xbe46238c	-0.19349498
157	0xbe42d88b	-0.19027917
158	0x3e07686b	0.13223426
159	0x3d42000a	0.04736332
160	0x3e8d59d7	0.27607605
161	0xbca5e8de	-0.020252641
162	0x3dcd3bfd	0.100212075
163	0x3e359bf6	0.17735276
164	0x3d3c4a3d	0.045969237
165	0xbe1ce883	-0.15323071
166	0x3cf86507	0.030321611
167	0xbe65f8ab	-0.2245814
168	0x3b488d4b	0.0030601795
169	0x3be20499	0.0068975207
170	0x3e0bb88a	0.13644615
171	0x3daefdac	0.08544478
172	0xbe07ed00	-0.13274002
173	0xbd9cea9b	-0.07661935
174	0x3e541205	0.20709999
175	0x3dd53ff8	0.10412592
176	0xbd8a41c5	-0.06750826
177	0xbdb78055	-0.08960024
178	0x3e8312dc	0.25600326
179	0xbe48347e	-0.19551274
180	0x3d5d0ccd	0.053967286
181	0x3d86e3a1	0.065863855
182	0xbdb2a1b5	-0.087222494
183	0x3e115038	0.14190757
184	0x3c93eddd	0.018057758
185	0x3d55901b	0.052139383
186	0x3e24671f	0.16054963
187	0x3e1bf0df	0.15228604
188	0xbd305ad6	-0.043055378
189	0xbe452c6f	-0.19255231
190	0xbddefb97	-0.10887831
191	0x3cd44c56	0.025915306
192	0xbe2643cc	-0.162368
193	0x3cc52146	0.024063718
194	0x3e03b849	0.12863268
195	0xbdf99224	-0.12186077
196	0xbd40e00e	-0.047088675
197	0x3c67c046	0.014144963
198	0xbd7dbc13	-0.06194694
199	0xbe5c763a	-0.21529475
200	0x3e8732ae	0.26405853
201	0xbdfc5d0c	-0.12322435
202	0xbe20bccb	-0.15697019
203	0x3c92b98b	0.01791074
204	0xbe040d48	-0.12895691
205	0x3dcbbdd7	0.099483185
206	0xbda69af8	-0.08135027
207	0xbd2f72d8	-0.042834133
208	0x3cb0033f	0.021485923
209	0x3b7f8f2f	0.0038995256
210	0x3d829c62	0.06377484
211	0x3c922660	0.017840564
212	0xbe673349	-0.22578157
213	0x3d723424	0.059131756
214	0x3c40bdce	0.011764003
215	0xbe330dae	-0.17485687
216	0xbe026545	-0.12733944
217	0xbc8baafc	-0.017049305
218	0x3dfa4a67	0.12221222
219	0xbda2e994	-0.07954708
220	0x3dc8132a	0.0976928
221	0x3db41b3f	0.08794259
222	0x3cce762e	0.025202837
223	0x3d89b929	0.067247696
224	0x3e591382	0.21198848
225	0x39869179	0.00025666857
226	0xbe2c9640	-0.16854191
227	0xbbd8a08c	-0.0066109356
228	0xbe30984f	-0.17245601
229	0xbe351eb3	-0.17687492
230	0xbd996242	-0.07489444
231	0xbe4d1d04	-0.200306
232	0xbe3633cc	-0.17793196
233	0xbe449031	-0.1919563
234	0xbe5e20c0	-0.2169218
235	0x3e65c32f	0.22437738
236	0x3e24460e	0.16042349
237	0xbdff5d4a	-0.12468965
238	0x3ce621a6	0.028092217
239	0x3e334df5	0.17510207
240	0xbd6f7cdb	-0.05846868
241	0x3ca2692e	0.019825544
242	0x3dc49816	0.095993206
243	0x3e5d4360	0.21607733
244	0xbd2a44b2	-0.04156942
245	0xbc21cc63	-0.00987539
246	0xbe0929ab	-0.13394801
247	0x3e628f7a	0.22125044
248	0xbc9ac040	-0.0188905
249	0x3cc1c0c9	0.023651497
250	0xbd7c7123	-0.061631333
251	0x3d8a5cfd	0.06756017
252	0xbdd8b92d	-0.105821945
253	0xbe281fe3	-0.16418414
254	0x3dcd4697	0.100232296
255	0xbdc5fce6	-0.09667377

blocks.0.attn.k_FacTs.weight f4 [16, 16]
0	0xbe0a45ac	-0.1350314
1	0xbd341426	-0.043964528
2	0xbda0c298	-0.07849616
3	0x3c234298	0.009964608
4	0xbd80779a	-0.06272812
5	0x3d7f0da9	0.062268887
6	0x3d2da3f0	0.04239267
7	0x3c3c5c05	0.011496549
8	0xbe4dcca2	-0.20097592
9	0x3e3b7ad8	0.1830858
10	0x3e191980	0.14951134
11	0xbdf7725d	-0.1208236
12	0x3c7f0f8b	0.015567671
13	0x3df0c9b0	0.11757219
14	0xbdaee730	-0.08540189
15	0xbdf8cef2	-0.12148847
16	0x3e03f0fa	0.12884894
17	0x3a7ed29c	0.00097207143
18	0xbe688920	-0.22708559
19	0xbe55b77f	-0.2087078
20	0x3dd7cc34	0.105369955
21	0xbe4e24b4	-0.20131189
22	0xbe4ed9d0	-0.20200276
23	0x3dbb339e	0.091407046
24	0x3d88080f	0.06642162
25	0xbe357dce	-0.17723772
26	0xbe0cb9ff	-0.13742827
27	0x3e56079a	0.20901337
28	0xbe0df567	-0.13863145
29	0x3d757c8f	0.05993324
30	0x3db7482a	0.08949311
31	0x3e1cf511	0.1532786
32	0x3d92e6b7	0.071729116
33	0x3c85f03e	0.016349908
34	0x3d45153d	0.048115958
35	0x3d8900db	0.06689616
36	0x3e894385	0.26809326
37	0xbe2f6ae9	-0.17130627
38	0x3ce4586b	0.027874192
39	0xbe861e0f	-0.26194808
40	0xbd5f4d4b	-0.05451707
41	0x3df49585	0.11942581
42	0xbdd3dff0	-0.10345447
43	0x3e2a17e8	0.16610682
44	0xbe88acf1	-0.26694444
45	0x3ddf1ad5	0.1089379
46	0xbc3bb725	-0.011457239
47	0xbe1c41eb	-0.1525952
48	0xbc839b5d	-0.016065294
49	0xbd9169af	-0.07100236
50	0xbe888643	-0.26664934
51	0xbe4ac6ed	-0.19802447
52	0x3dc5e5ec	0.09662995
53	0xbdf81723	-0.12113788
54	0x3c4bb034	0.012432147
55	0xbe7c1a4e	-0.2461941
56	0xbc592122	-0.013252528
57	0xbd7f6d14	-0.062359884
58	0xbe284491	-0.16432406
59	0xbe8aae4e	-0.2708611
60	0xbdb14dd3	-0.08657422
61	0x3c8adb6d	0.016950333
62	0xbc96c952	-0.018406544
63	0x3e15b091	0.14618136
64	0xbdc3c6d3	-0.09559407
65	0xbe8b438c	-0.27199972
66	0xbda0e46b	-0.07856067
67	0xbe2108af	-0.15725969
68	0x3ce23f48	0.027618065
69	0xbe3b7b74	-0.18308812
70	0x3db1990f	0.08671772
71	0x3dcfa716	0.10139291
72	0xbd70ae7a	-0.058760144
73	0xbd4da5e7	-0.050207045
74	0xbe3fbaed	-0.1872365
75	0xbd5ae112	-0.0534373
76	0x3c9d10f5	0.019173125
77	0xbd2ee364	-0.042697325
78	0xbe8a542a	-0.27017337
79	0xbe3e8f2c	-0.18609303
80	0x3e1943f8	0.14967334
81	0x3db56699	0.088574596
82	0x3cb1317a	0.021630038
83	0x3e99f278	0.300678
84	0x3e2d7b6d	0.16941614
85	0xbe24bd39	-0.16087808
86	0xbddc7ac8	-0.10765606
87	0xbe05cc31	-0.13066174
88	0xbe735aba	-0.23765078
89	0x3e6bcb17	0.23026691
90	0x3d2935c3	0.041311037
91	0x3db3dcb9	0.08782334
92	0x3e24a8bf	0.16079997
93	0x3ce7b03a	0.028282274
94	0xbdf8888c	-0.12135419
95	0xbd43a95f	-0.047768947
96	0x3e32932a	0.17438951
97	0x3db082eb	0.086187206
98	0xbd93bc05	-0.07213596
99	0x3e050276	0.1298922
100	0x3e476e18	0.19475591
101	0x3d4a3fdb	0.049377304
102	0xbdc8042b	-0.0976642
103	0x3eb2fdf2	0.3495937
104	0xbe509ab5	-0.20371516
105	0xbe399494	-0.18123084
106	0x3c964135	0.01834164
107	0x3e585e5b	0.21129744
108	0xbe41aa7c	-0.18912691
109	0x3df94e48	0.12173134
110	0x3c7d4501	0.015458346
111	0xbe2d0df9	-0.16899861
112	0xbbf8faf6	-0.0075982763
113	0xbdffdd87	-0.12493425
114	0x3e7a147f	0.24421881
115	0x3e7063e2	0.23475602
116	0x3e6589a4	0.22415787
117	0xbcb87a7e	-0.022519346
118	0x3e8164e9	0.252723
119	0xbd624617	-0.055242624
120	0xbcd1d2d4	-0.025613226
121	0x3decbc2d	0.11559329
122	0x3d9dbdc2	0.07702209
123	0xbd421bd3	-0.047389816
124	0xbe91b5d1	-0.28459027
125	0x3d244be3	0.040111434
126	0x3dceb543	0.10093167
127	0xbe8f4208	-0.27980065
128	0xbdc706c5	-0.09718088
129	0xbdf6550d	-0.12027941
130	0xbe14872d	-0.1450469
131	0x3e07608c	0.13220423
132	0xbe9f784b	-0.31146464
133	0x3d8ef214	0.069797665
134	0x3d9f67cd	0.0778347
135	0xbd20dc36	-0.03927251
136	0x3e617a75	0.2201937
137	0xbdce18aa	-0.10063298
138	0x3e588466	0.21144256
139	0x3d105db4	0.035245612
140	0xbcf63675	-0.030055264
141	0x3eb33f3a	0.35009176
142	0x3dcc34c1	0.099709995
143	0x3e6055a4	0.2190767
144	0x3d441059	0.047867153
145	0xbe4a2614	-0.19741088
146	0x3d014007	0.0315552
147	0x3df955f5	0.12174598
148	0xbc927f6f	-0.01788303
149	0x3e757b76	0.23972878
150	0xbe76d463	-0.24104457
151	0xbdff8d36	-0.12478106
152	0x3cd8778d	0.026424194
153	0x3d37c83d	0.044868696
154	0xbe6242a1	-0.2209573
155	0xbe5df162	-0.21674111
156	0xbe595b7f	-0.21226309
157	0xbe4b20c3	-0.19836716
158	0x3db97535	0.090555586
159	0x3e0a5ae6	0.13511238
160	0xbe560af3	-0.20902614
161	0xbe15a4cc	-0.14613646
162	0x3e080c84	0.13286024
163	0x3e438156	0.19092306
164	0xbcf356f1	-0.029704543
165	0x3dfefb0e	0.12450229
166	0x3e37da4b	0.17954366
167	0x3e00459a	0.12526551
168	0x3e10803e	0.1411142
169	0x3e3cd696	0.18441233
170	0x3e82e1ba	0.2556284
171	0xbdda0988	-0.10646349
172	0x3d052a6b	0.032511156
173	0xbdd234a7	-0.10263949
174	0x3d75fb03	0.060053837
175	0x3e9ebf01	0.310051
176	0xbe0e71d3	-0.13910608
177	0x3d08cc8a	0.03339819
178	0x3e150a79	0.14554776
179	0x3e4bc640	0.19899845
180	0xbd1bae93	-0.038008284
181	0xbd92e818	-0.071731746
182	0xbdecf6b1	-0.1157049
183	0x3d3e679c	0.04648553
184	0xbe31afd4	-0.1735223
185	0x3c095a6e	0.0083833765
186	0x3db46bfe	0.088096604
187	0xbdb790ee	-0.0896319
188	0x3b299736	0.0025877482
189	0x3d98c0f1	0.07458676
190	0x3e4a90cf	0.19781803
191	0x3e167c80	0.1469593
192	0xbe0e0d85	-0.13872345
193	0xbe79b722	-0.24386266
194	0xbb2b4a00	-0.0026136637
195	0x3d656224	0.056001797
196	0x3ac7e4f8	0.0015250733
197	0x3dd84f2f	0.10561978
198	0x3da7994e	0.081835374
199	0xbd6ed9fd	-0.05831336
200	0xbe6c79a9	-0.23093285
201	0x3e5af9c3	0.21384339
202	0x3e47bf86	0.19506654
203	0xbe0ad211	-0.13556696
204	0x3e36a8f2	0.17837885
205	0x3e1355b7	0.14388166
206	0x3d9df7f9	0.07713313
207	0x3e2357c1	0.15951444
208	0xbe7300b4	-0.23730737
209	0x3e1e2d0a	0.15446869
210	0x3e74bc8a	0.23900047
211	0xbe7e918b	-0.24860208
212	0xbe5ccc15	-0.21562226
213	0xbcc6c9d0	-0.024266154
214	0xbe5a0ca7	-0.21293889
215	0xbe43c1b4	-0.1911686
216	0x3e423130	0.18964076
217	0x3e25bf5e	0.16186282
218	0x3e09140d	0.13386555
219	0xbe664017	-0.22485386
220	0xbda80224	-0.08203533
221	0x3e25a58d	0.16176434
222	0x3e17bfd7	0.14819275
223	0x3d630efd	0.055434216
224	0xbd0d13aa	-0.03444258
225	0x3e580c9f	0.21098565
226	0xbe343442	-0.1759806
227	0x3e3c26ac	0.18374127
228	0x3dade3e3	0.084907316
229	0x3d310157	0.04321417
230	0x3e3a7805	0.18209846
231	0xbe5defa1	-0.21673442
232	0xbe5326a4	-0.20620209
233	0xbd4d3b23	-0.050105225
234	0xbe80c9c8	-0.25153947
235	0x3d14b20b	0.036302608
236	0xbe9f1544	-0.31070912
237	0xbe8f14dc	-0.27945602
238	0x3bfee93a	0.0077792676
239	0x3e256b69	0.16154255
240	0x3d7416f5	0.059592206
241	0xbd0d73a1	-0.0345341
242	0xbd1ddeaf	-0.038542446
243	0xbd077a03	-0.033075344
244	0xbd052ebc	-0.032515272
245	0xbd3a0929	-0.045418892
246	0xbe732e3e	-0.23748109
247	0x3e387b74	0.18015844
248	0xbcedc6dd	-0.02902549
249	0x3dee8754	0.116469055
250	0xbdcedc71	-0.101006396
251	0xbd920fa3	-0.07131889
252	0xbb74775d	-0.0037302591
253	0xbd685e82	-0.056730755
254	0x3e670423	0.22560172
255	0xbe5ee857	-0.21768318

blocks.0.attn.v_FacTs.weight f4 [16, 16]
0	0xbdb42469	-0.08796007
1	0x3e34f129	0.1767012
2	0xbe5550ec	-0.2083165
3	0x3e0228b3	0.12710838
4	0xbe6a06a2	-0.22854093
5	0x3e13c1fe	0.14429471
6	0x3e36d8a5	0.17856081
7	0xbe1a564a	-0.15071979
8	0xbdb6569f	-0.089032404
9	0x3e4b7bd7	0.1987146
10	0x3d468a00	0.04847145
11	0x3e4b2c80	0.19841194
12	0xbd9ed027	-0.07754546
13	0xbd37f99f	-0.04491579
14	0x3c1e1365	0.009648179
15	0x3d87a864	0.06623915
16	0xbe4e649d	-0.20155568
17	0x3e047788	0.12936223
18	0x3e7b7a21	0.24558307
19	0x3d1e4841	0.038643125
20	0x3bb011c3	0.005373211
21	0xbe557ce2	-0.2084842
22	0x3e3ded92	0.18547657
23	0xbd3deddd	-0.046369422
24	0xbd3414bf	-0.043965098
25	0xbe35c183	-0.177496
26	0x3cefd035	0.029274086
27	0x3e2f2094	0.17102271
28	0x3e35c956	0.17752585
29	0x3e0b0e38	0.13579643
30	0xbe8c475b	-0.2739819
31	0x3d8c576c	0.06852612
32	0x3e302d81	0.17204858
33	0xbd860fa3	-0.06545951
34	0x3910b14d	0.0001379896
35	0xbe907b63	-0.28219137
36	0x3e744b40	0.2385683
37	0x3e32278d	0.173979
38	0xbe5ce548	-0.21571839
39	0x3e0a3091	0.13495089
40	0x3dad8b02	0.08473779
41	0x3c8387f0	0.016056031
42	0xbccc441d	-0.024934823
43	0xbe03060e	-0.12795278
44	0x3b0c46ee	0.0021404582
45	0x3da61b5e	0.081106886
46	0xbd98a9c1	-0.07454253
47	0x3e711ded	0.23546572
48	0xbd073e78	-0.03301856
49	0xbe0dd0cf	-0.13849185
50	0x3dceb2a4	0.10092667
51	0xbc10b75e	-0.008832781
52	0x3e3fe859	0.18740977
53	0xbe178f22	-0.14800695
54	0xbd368172	-0.044557042
55	0xbe33aa2c	-0.17545384
56	0xbe574e7c	-0.21026033
57	0xbbe7fbbb	-0.007079569
58	0xbd63e1d9	-0.055635307
59	0xbdedc421	-0.11609674
60	0x3e674e2e	0.22588417
61	0xbe0bf8a3	-0.13669066
62	0xbe482e37	-0.1954888
63	0x3e2b13f2	0.16706827
64	0xbd4459cf	-0.04793721
65	0xbe057894	-0.13034278
66	0x3d8d0015	0.06884781
67	0x3d4e85d5	0.0504206
68	0xbe659c25	-0.22422846
69	0x3cf0f127	0.029411865
70	0xbe22a540	-0.1588335
71	0x3e85c46b	0.26126418
72	0x3dbc21b1	0.091861136
73	0x3e257e8d	0.16161557
74	0xbd7a94fc	-0.06117724
75	0xbdad8f64	-0.08474615
76	0x3d15f560	0.03661096
77	0x3e1112a0	0.14167261
78	0x3e726618	0.23671758
79	0x3e80b7cb	0.25140223
80	0xbe4690e3	-0.19391207
81	0xbe1cf747	-0.15328704
82	0xbbba2cbb	-0.005681602
83	0x3e61ad8c	0.22038859
84	0xbe6b98f3	-0.23007564
85	0xbcbe5811	-0.023235353
86	0xbe24e7c1	-0.16104032
87	0xbd80a61b	-0.06281682
88	0x3c532908	0.012888201
89	0xbda0d33d	-0.078527905
90	0x3d699b8d	0.05703311
91	0xbdaaed5d	-0.08346055
92	0xbe7200e4	-0.23633152
93	0x3d7e4f44	0.062087312
94	0xbe28435f	-0.1643195
95	0xbe975178	-0.29554343
96	0x3ddd27f6	0.107986376
97	0xbb524966	-0.0032087206
98	0xbe69f898	-0.22848737
99	0xbdfdef57	-0.12399166
100	0x3e4a42c1	0.19752027
101	0xbe87fae5	-0.26558605
102	0x3e7c5be8	0.24644434
103	0xbe4d5605	-0.20052345
104	0xbe3c7958	-0.18405664
105	0xbdddeefd	-0.10836599
106	0xbdfd6d82	-0.123744026
107	0xbe274bba	-0.16337481
108	0x3e6f46da	0.23366871
109	0x3c90f57c	0.017695181
110	0x3dcbceec	0.099515766
111	0x3e6d146a	0.23152319
112	0x3e22a6e3	0.15883975
113	0x3d79eaa2	0.06101478
114	0xbdc4ff07	-0.09618955
115	0xbe8ba60d	-0.27275124
116	0xbe32bf1e	-0.17455718
117	0xbe6aa8f8	-0.22916019
118	0xbe5d2478	-0.21595943
119	0xbe6f4694	-0.23366767
120	0x3dc244b4	0.0948576
121	0x3a3b0a68	0.00071350345
122	0xbdbcd5e9	-0.092204876
123	0x3e09f53f	0.1347246
124	0x3ce2fa93	0.027707374
125	0xbe0f1904	-0.13974386
126	0xbddd3d05	-0.10802654
127	0x3db063aa	0.086127594
128	0xbe204bdd	-0.1565394
129	0x3c853d73	0.016264653
130	0xbda3f0e0	-0.08004928
131	0x3d8e4ce2	0.06948258
132	0xbe3d583e	-0.18490693
133	0xbd520847	-0.051277425
134	0xbd28c5be	-0.041204207
135	0x3d8fe0b5	0.07025281
136	0xbe3f82e6	-0.18702278
137	0x3d25e180	0.040498257
138	0x3e2bb473	0.16768055
139	0xbe308550	-0.17238355
140	0xbd92d73e	-0.071699604
141	0xbe60753b	-0.2191972
142	0xbc170dc7	-0.009219593
143	0x3a97f5e3	0.0011593666
144	0x3d7f9b6c	0.06240408
145	0x3e34bc76	0.17650017
146	0x3e874f06	0.26427478
147	0xbdc5fc6b	-0.096672855
148	0xbde36602	-0.11103441
149	0x3d992ae7	0.07478886
150	0xbe2d6ad0	-0.16935277
151	0xbe7eeb55	-0.2489446
152	0xbd5398ad	-0.051659275
153	0x3c299184	0.010349635
154	0x3e93c8cb	0.2886413
155	0x3e565cfb	0.20933907
156	0xbe10ac98	-0.1412834
157	0xbd5a8b66	-0.053355597
158	0x3e11df68	0.14245379
159	0x3e1df5ce	0.15425798
160	0xbccb569f	-0.024821578
161	0x3e39f6fb	0.18160622
162	0x3d840ed7	0.06448143
163	0xbe15ecf9	-0.14641179
164	0xbe13ac32	-0.14421156
165	0x3e62b3d9	0.22138919
166	0x3b69bc26	0.0035665124
167	0xbdfecccf	-0.12441408
168	0x3d9d2932	0.07673873
169	0x3e0cb7ca	0.13741985
170	0x3e052ae5	0.13004644
171	0xbd8fd7d1	-0.070235856
172	0x3e31cb0b	0.17362611
173	0x3d7a1fb7	0.061065402
174	0x3dd45af8	0.103689134
175	0x3e00f8b7	0.12594877
176	0xbd98230e	-0.07428561
177	0x3e5b8b00	0.21439743
178	0xbbdc73cd	-0.0067276717
179	0xbe41abcf	-0.18913196
180	0x3e33eebb	0.17571537
181	0xbe051c7c	-0.12999147
182	0x3e3668eb	0.1781346
183	0xbda8cb90	-0.082419515
184	0x3e2d1f69	0.16906513
185	0x3e4af5c5	0.19820316
186	0x3e1343e3	0.14381365
187	0x3e1f76e3	0.15572695
188	0xbe59c379	-0.21265973
189	0x3e03de06	0.12877664
190	0x3d7623f0	0.060092866
191	0x3dbfbae6	0.0936182
192	0xbe4cf316	-0.20014605
193	0xbe15612f	-0.14587854
194	0xbe18e7ec	-0.14932221
195	0x3dfce695	0.123486675
196	0xbdd0355c	-0.101664275
197	0xbe47ef50	-0.19524884
198	0x3d6443ee	0.055728845
199	0x3e538e23	0.2065969
200	0xbe4c6d5c	-0.19963592
201	0xbe8c9ebd	-0.27464858
202	0xbde3bdbb	-0.111201726
203	0xbe0e252a	-0.13881364
204	0x3e86df58	0.26342273
205	0x3e734481	0.23756601
206	0xbdb69d9e	-0.08916782
207	0x3e211a7a	0.15732756
208	0x3be12a10	0.0068714693
209	0xbe1e8615	-0.15480836
210	0x3e660e55	0.22466405
211	0xbe45c7b5	-0.19314463
212	0xbe2be4e2	-0.1678653
213	0x3d89c901	0.067277916
214	0xbb6e6c79	-0.0036380573
215	0xbe9ec904	-0.31012738
216	0x3d1d0c0c	0.038341567
217	0xbe2977e2	-0.16549638
218	0x3e2da946	0.16959104
219	0x3da78dae	0.0818132
220	0x3e34a4c9	0.17640986
221	0x3d4831ee	0.04887574
222	0x3dfee7ca	0.12446554
223	0xbe3ebbf0	-0.1862638
224	0xbdcc53c8	-0.099769175
225	0x3e37d743	0.1795321
226	0xbe0f4be3	-0.13993792
227	0xbd427e0e	-0.047483496
228	0xbd4693a6	-0.048480652
229	0xbe7bd08d	-0.24591275
230	0x3da6906a	0.081330135
231	0x3e697b80	0.22801018
232	0x3b8129ba	0.003941742
233	0x3e669a86	0.22519884
234	0x3e08a657	0.13344704
235	0xbbb2ed01	-0.005460382
236	0xbdf5d7b9	-0.120040365
237	0xbe789990	-0.2427733
238	0xbd554fbb	-0.05207799
239	0xbe5ec403	-0.2175446
240	0x3dbcdcb9	0.09221787
241	0x3e5ca2ab	0.21546428
242	0x3e7e8792	0.24856403
243	0x3de83af7	0.11339372
244	0x3e210378	0.1572398
245	0x3dec8b1c	0.115499705
246	0x3d8548e8	0.065080464
247	0x3cf03c81	0.029325726
248	0x3e494d34	0.19658357
249	0xbe6065ae	-0.21913788
250	0x3ad75678	0.0016428968
251	0x3e57e5c4	0.21083742
252	0xbe5571b9	-0.20844163
253	0x3e348717	0.17629658
254	0xbd93ba22	-0.072132364
255	0xbe2c30ff	-0.16815566

blocks.0.attn.proj_FacTs.weight f4 [16, 16]
0	0xbdb26161	-0.0870998
1	0x3e32f313	0.17475538
2	0x3e6cd14e	0.23126718
3	0xbcb2aff3	-0.021812415
4	0x3c5f0854	0.013612825
5	0xbdcda58e	-0.10041343
6	0xbdf385d2	-0.118907586
7	0xbe16f278	-0.14740932
8	0xbe5be354	-0.21473438
9	0xbe232793	-0.15933065
10	0xbe6c02bf	-0.23047923
11	0xbd73bb16	-0.05950459
12	0xbe8f6e78	-0.28013968
13	0xbdbb72a8	-0.09152728
14	0x3dd615c8	0.10453373
15	0x3e164c8a	0.14677635
16	0x3d23ed19	0.040021036
17	0xbe434bad	-0.19071837
18	0x3e5568c5	0.20840748
19	0xbcf87ae1	-0.03033203
20	0x3dbc3e79	0.09191603
21	0xbe3b3c73	-0.18284778
22	0x3e2b5365	0.16731031
23	0x3e118b36	0.14213261
24	0xbd14f321	-0.03636468
25	0xbc8b28d7	-0.016987247
26	0x3c90db60	0.017682731
27	0x3e73def1	0.23815514
28	0x3e44e167	0.19226609
29	0x3e2ef521	0.17085697
30	0x3e0ff824	0.14059502
31	0xbe6a8c86	-0.22905168
32	0x3df75813	0.12077346
33	0x3aa1a8f0	0.0012333672
34	0x3e371231	0.17878033
35	0x3e2d518f	0.16925643
36	0xbd260695	-0.04053362
37	0x3b4705d4	0.0030368464
38	0x3e3e77f1	0.18600442
39	0xbd67617f	-0.056489464
40	0xbd2cc56d	-0.042180467
41	0xbd8d3a2c	-0.06895861
42	0x3e1ffb73	0.15623264
43	0x3e103424	0.1408239
44	0x3cec270b	0.02882721
45	0xbe239a8f	-0.15976928
46	0x3d3536fe	0.044241898
47	0x3e63ff13	0.22265272
48	0x3e1aacf7	0.15105043
49	0xbe385a77	-0.1800326
50	0x3d7e9b27	0.062159684
51	0x3e0dce90	0.13848329
52	0xbe3516b4	-0.17684442
53	0x3e821ece	0.25414127
54	0xbe47ece7	-0.19523965
55	0x3e3bf909	0.18356718
56	0xbc573b41	-0.013136686
57	0x3e4978c6	0.19674978
58	0xbe81258a	-0.25223953
59	0x3d992620	0.07477975
60	0x3e3e06ac	0.18557233
61	0x3e42217e	0.18958089
62	0x3e3f75f3	0.18697338
63	0x3d95f122	0.07321383
64	0xbdc41a37	-0.095753126
65	0x3d6efec4	0.058348432
66	0xbe33acf0	-0.17546439
67	0xbdbba91c	-0.091631144
68	0xbe1a5245	-0.15070446
69	0xbd75fe38	-0.060056895
70	0xbd1e5587	-0.038655784
71	0xbe4c9d35	-0.19981845
72	0xbe4722f7	-0.19446932
73	0xbdd4d049	-0.1039129
74	0x3d0d3ec2	0.03448368
75	0x3c8df64a	0.017329354
76	0xbe238d9a	-0.15971985
77	0xbe3a490f	-0.18191932
78	0xbdd24186	-0.10266404
79	0xbe1dba78	-0.15403163
80	0xbdef91d5	-0.11697737
81	0x3e900481	0.28128436
82	0x3e02c9e0	0.12772322
83	0x3dcdf064	0.100556165
84	0x3e167858	0.14694345
85	0x3e032022	0.12805226
86	0x3d67775f	0.056510326
87	0x3e1cee43	0.15325265
88	0x3dd7fe58	0.10546559
89	0xbe3c1316	-0.18366656
90	0x3da8c067	0.08239823
91	0x3c63f86c	0.013914209
92	0xbd573550	-0.052541077
93	0x3e3d8dad	0.18511076
94	0x3df9d6a5	0.12199143
95	0xbd64f91c	-0.05590163
96	0xbd6e1908	-0.05812934
97	0x3e696d93	0.22795705
98	0x3e258b96	0.16166529
99	0x3e12e042	0.1434336
100	0x3dd5b516	0.1043493
101	0xbd23daf0	-0.040003717
102	0xbdf65bad	-0.120292045
103	0xbe3ba751	-0.18325545
104	0x3d8a77bd	0.067611195
105	0x3ddef3e0	0.10886359
106	0xbe30539f	-0.17219399
107	0x3e5eab73	0.2174509
108	0xbe07dfe0	-0.13268995
109	0xbdc2c250	-0.095097184
110	0xbd6f6d73	-0.05845399
111	0x3cdace87	0.026709808
112	0xbd41416b	-0.047181528
113	0xbe794ecd	-0.24346466
114	0x3cf26765	0.029590318
115	0x3dbafbef	0.09130084
116	0xbc45718b	-0.012050997
117	0xbdbf6def	-0.0934714
118	0xbe6009db	-0.2187876
119	0xbddfa049	-0.10919244
120	0xbe80e5f6	-0.25175446
121	0xbe560143	-0.20898919
122	0xbd4fa40d	-0.05069356
123	0x3e0b81d5	0.13623746
124	0x3dd9ef84	0.10641387
125	0x3e30434d	0.17213173
126	0xba9a575c	-0.0011775303
127	0x3e7a3481	0.24434091
128	0x3e1b1a47	0.15146743
129	0xbe2550b2	-0.16144064
130	0xbe0fbfaa	-0.14037958
131	0xbdd55ec5	-0.104184665
132	0x3e1d9ff3	0.15393047
133	0xbd49b30f	-0.04924303
134	0x3e878a59	0.26472738
135	0xbe4bf4ff	-0.19917677
136	0x3e4d6e46	0.20061597
137	0x3e13e53d	0.14442916
138	0xbe7c59e4	-0.24643666
139	0x3e67f98f	0.22653793
140	0xbe629abb	-0.22129337
141	0x3e478f51	0.19488265
142	0xbd6fd62c	-0.05855386
143	0x3e17fe60	0.1484313
144	0x3e30be56	0.17260107
145	0x3cf2cf04	0.029639728
146	0x3e8ec599	0.2788513
147	0xbdc8775b	-0.0978839
148	0x3caba0a5	0.020950625
149	0x3e359a13	0.17734556
150	0x3dfd3d70	0.12365234
151	0xbd4020cf	-0.04690629
152	0xbdf226fc	-0.11823842
153	0xbca4c5d2	-0.02011386
154	0xbdcdad48	-0.100428164
155	0x3e1f3e4d	0.1555111
156	0xbe50182d	-0.20321722
157	0x3e6dbbe2	0.23216203
158	0xbe5675f1	-0.20943429
159	0xbdaecbe5	-0.085349835
160	0x3d5e9e99	0.05435047
161	0x3da0aa90	0.07845032
162	0xbdf9c3c4	-0.121955425
163	0xbd28e027	-0.041229393
164	0x3dcb0968	0.099139035
165	0xbdeb6492	-0.11493792
166	0x3e891740	0.2677555
167	0xbe118da6	-0.14214191
168	0xbe753802	-0.23947147
169	0xbe8025f9	-0.2502897
170	0x3c850f31	0.016242595
171	0x3d946869	0.07246477
172	0x3e106f37	0.14104925
173	0xbe53a6ce	-0.206691
174	0x3ccd82b5	0.02508674
175	0xbe5c679c	-0.21523899
176	0xbe0d3687	-0.13790332
177	0x3e3ad577	0.18245493
178	0xbe0f0c2b	-0.13969485
179	0x3e5500dd	0.2080111
180	0x3e30602e	0.1722419
181	0xbd05ee1e	-0.03269779
182	0xbcd1fda6	-0.025633644
183	0x3e5c2364	0.21497875
184	0x3dee1008	0.116241515
185	0x3e054b48	0.13016999
186	0xbd4bdeae	-0.04977291
187	0x3d9f34e2	0.077737585
188	0x3da599da	0.080859855
189	0x3e6a903a	0.2290658
190	0xbdd7b83c	-0.10533187
191	0xbd874679	-0.066052385
192	0xbe2200b5	-0.15820582
193	0x3e01f9a8	0.12692893
194	0xbdaa713c	-0.08322379
195	0xbd3b2831	-0.045692626
196	0x3d822773	0.063551806
197	0x3cefb721	0.029262127
198	0xbe0d7798	-0.13815153
199	0xbc49435b	-0.012284125
200	0xbca79a74	-0.020459391
201	0xbd31e4ce	-0.043431096
202	0x3e63d3d1	0.2224877
203	0x3daab46b	0.08335193
204	0x3e8c0464	0.273471
205	0x3e339a4e	0.17539331
206	0xbe846b97	-0.25863335
207	0x3dd8994c	0.10576114
208	0xbe103039	-0.14080895
209	0x3db349c0	0.08754301
210	0xbd829a29	-0.0637706
211	0x3e1006c4	0.14065081
212	0x3d31c7ef	0.043403562
213	0xbd9ab5ea	-0.075542286
214	0x3d72b473	0.05925412
215	0x3e0a0588	0.13478673
216	0x3e5994c4	0.21248156
217	0xbe181637	-0.14852224
218	0x3d8a2669	0.067456074
219	0x3e496a29	0.19669403
220	0x3e5d437e	0.21607777
221	0xbd8f773b	-0.07005163
222	0x3dcaa566	0.098948285
223	0xbe27b644	-0.16378123
224	0x3daaba52	0.08336319
225	0x3e216f82	0.15765193
226	0xbda246b7	-0.07923644
227	0x3dddb46a	0.10825427
228	0xbdd83b68	-0.10558206
229	0x3d5e242a	0.054233707
230	0xbe44cd44	-0.19218928
231	0x3e1b749b	0.151812
232	0x3e50942b	0.20369022
233	0x3e0ce6be	0.13759896
234	0x3de09a53	0.10966935
235	0x3c97e975	0.018543938
236	0xbe845a59	-0.2585018
237	0xbe70b849	-0.23507799
238	0x3dcb271f	0.09919571
239	0x3e661736	0.22469792
240	0xbe54cbb9	-0.20780839
241	0xbd00fa20	-0.031488538
242	0x3de04abe	0.10951756
243	0xbe16edae	-0.14739105
244	0xbe060435	-0.13087542
245	0x3d16d173	0.03682084
246	0xbda8c6bd	-0.08241031
247	0x3d82a3b8	0.06378883
248	0x3e000f8e	0.12505934
249	0xbe43a4f1	-0.19105889
250	0xbdbc8e58	-0.092068374
251	0xbe5cf7a6	-0.21578845
252	0xbc6b8f23	-0.014377388
253	0x3cadef11	0.02123216
254	0x3e358648	0.17727005
255	0x3ddcf871	0.10789574

blocks.0.mlp.fc1_FacTs.weight f4 [64, 16]
0	0x3e52d5c1	0.20589353
1	0x3dfdfe26	0.124019906
2	0xbde59e61	-0.11211849
3	0x3e08a6ae	0.13344833
4	0xbe6ed2df	-0.23322628
5	0x3e3d747b	0.18501465
6	0xbd255825	-0.040367264
7	0x3c0fc8cb	0.0087759
8	0xbc1b8811	-0.00949289
9	0x3dfda46d	0.12384877
10	0xbe4a2e8a	-0.19744316
11	0xbe883143	-0.26600084
12	0x3e39d7d3	0.18148737
13	0x3df15260	0.1178329
14	0x3c352da7	0.011058248
15	0xbe61e2f1	-0.22059228
16	0xbe77f21c	-0.24213451
17	0x3d16d76c	0.036826536
18	0x3d9b0a5a	0.07570334
19	0xbd2664d6	-0.04062351
20	0x3e2f33f2	0.1710966
21	0xbd06456f	-0.03278106
22	0x3d14ce9b	0.036329847
23	0x3e1984e3	0.14992099
24	0x3e24d185	0.1609555
25	0x3c326cc1	0.010890187
26	0x3dd2d109	0.102937765
27	0x3e1e67ac	0.15469235
28	0xbe7549ed	-0.23953982
29	0xbd83a8fd	-0.06428716
30	0xbe85b267	-0.26112673
31	0xbde375ff	-0.1110649
32	0xbe39a02b	-0.18127505
33	0xbe4cf551	-0.20015456
34	0x3e02af64	0.12762219
35	0xbe48be2f	-0.196038
36	0x3dcb9d4a	0.0994211
37	0x3d496d26	0.049176358
38	0xbd88e957	-0.06685131
39	0xbe3b219c	-0.1827454
40	0xbe088ae5	-0.13334234
41	0x3e149810	0.14511132
42	0x3cbe15b1	0.023203703
43	0x3e1a26b6	0.1505383
44	0x3dddfa2a	0.10838731
45	0x3e1f6baf	0.15568422
46	0xbe35089c	-0.17679065
47	0xbd84fe46	-0.06493811
48	0xbdd7b648	-0.10532814
49	0x3d56202f	0.052276786
50	0xbd0d118b	-0.03444056
51	0xbe665bba	-0.22495928
52	0xbe1db1c3	-0.15399842
53	0xbdbf6f2a	-0.09347375
54	0x3e8a8086	0.2705118
55	0xbe2b89a4	-0.16751724
56	0x3e9220d2	0.28540665
57	0x3e63e70c	0.22256106
58	0xbdacfb5f	-0.08446383
59	0x3df05dfa	0.117366746
60	0x3cb430e4	0.02199597
61	0xbd79ddd5	-0.06100257
62	0x3e312bfc	0.17301935
63	0x3e02959f	0.12752388
64	0xbdc71d81	-0.09722424
65	0x3e12a931	0.14322354
66	0x3dfa4253	0.122196816
67	0x3e7cbc46	0.24681196
68	0x3cfe2e1d	0.031027848
69	0x3e74fb52	0.23923996
70	0x3d4693b9	0.048480723
71	0xbe962d50	-0.29331446
72	0x3e41e148	0.18933594
73	0x3d2d6e9e	0.04234182
74	0x3d00b69f	0.03142416
75	0x3d708702	0.058722503
76	0xbd88d68a	-0.06681545
77	0xbe893aa8	-0.26802564
78	0x3e8bc906	0.27301806
79	0x3d8608fc	0.065446824
80	0x3e84da83	0.2594796
81	0xbd9f9b36	-0.07793276
82	0x3e53b11c	0.2067303
83	0xbe6095e2	-0.21932176
84	0x3d859fc9	0.06524617
85	0x3e001c21	0.1251073
86	0x3d6cc0bb	0.05780099
87	0x3e35393b	0.17697613
88	0x3d4035c8	0.04692629
89	0xbe926d29	-0.28598908
90	0xbc8324d8	-0.01600878
91	0x3e62cab0	0.22147632
92	0x3d9d3dc6	0.07677798
93	0x3d4fb521	0.050709847
94	0xbe075f40	-0.13219929
95	0x3d98b82d	0.07457004
96	0xbe910206	-0.28321856
97	0xbe5aafd3	-0.21356134
98	0xbd35850b	-0.044316333
99	0x3da4d605	0.080486335
100	0x3dad43aa	0.084601715
101	0xbe11ae67	-0.14226685
102	0x3e12786a	0.14303747
103	0xbdc763fe	-0.09735869
104	0xbe2f8d08	-0.17143643
105	0x3e77d340	0.24201679
106	0x3e9540ce	0.29151005
107	0x3d3e2b60	0.046428084
108	0xbe483045	-0.19549663
109	0xbdcf4e62	-0.10122372
110	0xbe3b8e08	-0.183159
111	0x3dcb9b6c	0.09941754
112	0xbd091933	-0.033471297
113	0xbe08bd05	-0.13353355
114	0xbe1c7e68	-0.15282595
115	0xbde2f4d7	-0.11081856
116	0x3e43846b	0.19093482
117	0xbc4e2243	-0.012581411
118	0x3dd1af3d	0.10238502
119	0x3e599835	0.21249469
120	0xbe2553ec	-0.16145295
121	0x3d970013	0.07373061
122	0x3d7b195b	0.061303478
123	0x3ddde36f	0.10834395
124	0x3cc0058c	0.023440145
125	0x3e3b8f8a	0.18316475
126	0x3d58354b	0.0527852
127	0xbe87ff54	-0.26561987
128	0xbc9ab228	-0.01888378
129	0x3df35694	0.11881748
130	0x3df4f5f7	0.119609766
131	0xbd926b95	-0.07149426
132	0x3d9ebd12	0.07750906
133	0x3bbc10d4	0.0057393108
134	0x3d62864f	0.055303868
135	0x3e783ca7	0.24241887
136	0x3e409522	0.1880689
137	0x3e1a9bea	0.15098539
138	0x3ea9c2f3	0.33156547
139	0xbe185a6d	-0.14878245
140	0xbcb4157e	-0.021982905
141	0xbdd2b258	-0.102879226
142	0x3d2c96aa	0.042135872
143	0x3dae1af4	0.08501235
144	0xbdba5145	-0.09097532
145	0xbba83431	-0.005133175
146	0xbdbc58f9	-0.09196658
147	0x3e28d04e	0.16485712
148	0x3cf2efb0	0.029655308
149	0xbe3884ef	-0.1801946
150	0xbe610efa	-0.2197837
151	0xbca93fda	-0.02066033
152	0xbd7bbc4b	-0.061458867
153	0xbdfdc9b1	-0.12391985
154	0xbda9eaec	-0.08296761
155	0x3d1ace55	0.03779443
156	0x3e1e6302	0.15467456
157	0xbe86da7b	-0.26338562
158	0x3d6a5b3d	0.057215918
159	0x3e12afa6	0.14324817
160	0x3e85a3fc	0.26101673
161	0xbc9a59f9	-0.01884173
162	0xbe83eba5	-0.2576572
163	0x3d8b1bb5	0.06792394
164	0x3e1db603	0.15401463
165	0xbe79d478	-0.24397457
166	0xbd7555f4	-0.059896424
167	0xbe2521db	-0.16126196
168	0x3d1ac23a	0.037782885
169	0xbd1d403f	-0.038391348
170	0x3e4fec75	0.20305045
171	0x3e2fb707	0.17159663
172	0x3e83be4c	0.25731122
173	0x3e52aa9a	0.20572892
174	0xbdc3d792	-0.09562601
175	0x3c85b2af	0.016320555
176	0x3d64ee6f	0.05589145
177	0xbcac9a10	-0.021069556
178	0x3d618d0f	0.055066165
179	0x3d59243f	0.053013083
180	0xbde58f20	-0.112089396
181	0x3e280b62	0.16410592
182	0xbcdfe6d2	-0.027331743
183	0xbdd25a93	-0.10271182
184	0x3dbe6cef	0.09298121
185	0xbe40f9ba	-0.18845263
186	0x3d493730	0.049124897
187	0x3e374375	0.17896827
188	0xbe6b360c	-0.22969836
189	0xbe692615	-0.22768433
190	0xbe877de9	-0.2646325
191	0xbd18ce12	-0.0373059
192	0x3e4f64dd	0.2025332
193	0xbe0cedf9	-0.13762654
194	0xbd917e25	-0.07104138
195	0x3d991178	0.07474035
196	0xbc32f756	-0.010923227
197	0xbd444a8e	-0.047922663
198	0xbd0d3594	-0.034474924
199	0xbe3b75fb	-0.18306725
200	0x3e446d08	0.19182217
201	0x3c5ff94a	0.013670275
202	0x3e55e454	0.20887882
203	0xbe2a0dda	-0.16606846
204	0xbd761027	-0.060073998
205	0x3bd39eaf	0.0064581255
206	0xbe84cce4	-0.2593757
207	0xbe3a02a7	-0.18165074
208	0x3e8774e4	0.26456368
209	0xbd755f9d	-0.059905637
210	0x3e040960	0.12894201
211	0xbbf90a5a	-0.007600111
212	0x3e32874c	0.17434424
213	0x3e5817b0	0.21102786
214	0xbdd5190a	-0.104051664
215	0xbe5ba093	-0.21447973
216	0x3e4f9a43	0.2027369
217	0x3ca6111e	0.020271834
218	0xbdf4f118	-0.119600475
219	0x3da566f0	0.080762744
220	0xbcc84e26	-0.024451327
221	0xbdf58849	-0.11988885
222	0xbe7185bf	-0.23586176
223	0xbd930bcc	-0.071799845
224	0x3d9ad1ba	0.075595334
225	0xbe4bb4f8	-0.19893253
226	0xbe7c7cda	-0.24657002
227	0xbda597b8	-0.08085579
228	0xbdcb9613	-0.09940734
229	0x3e5ce5cc	0.21572036
230	0xbd47230a	-0.0486174
231	0x3d3a8fb3	0.0455472
232	0xbaf47e50	-0.0018653367
233	0x3af661e7	0.0018797488
234	0xbc8fb8e9	-0.017544227
235	0xbcc44b0d	-0.023961568
236	0xbe1c53ab	-0.15266292
237	0x3c9668f0	0.018360585
238	0xbdbdbced	-0.0926455
239	0xbd18792a	-0.037224926
240	0xbe30fda7	-0.1728426
241	0x3e5031cf	0.203315
242	0x3e21e1ea	0.15808836
243	0xbe197449	-0.14985766
244	0x3e77ffc7	0.24218665
245	0xbd940429	-0.07227356
246	0x3e193a4f	0.14963649
247	0xbe1ad3d0	-0.15119863
248	0xbe0dd8ca	-0.1385223
249	0x3e3bb783	0.18331723
250	0x3dfc6ffe	0.12326048
251	0x3dc1425f	0.094364874
252	0x3d2292a9	0.039690647
253	0xbe32e5a2	-0.1747041
254	0x3e42b34e	0.19013712
255	0x3d320858	0.04346499

blocks.0.mlp.fc2_FacTs.weight f4 [16, 64]
0	0xbd82e696	-0.06391637
1	0x3d3f2bc0	0.046672583
2	0xbd742558	-0.059605926
3	0x3be1ea82	0.0068944106
4	0xbcfc2a84	-0.030781992
5	0x3bf70656	0.007538597
6	0x3ced9c20	0.02900511
7	0xbd96c57d	-0.07361887
8	0xbdc473d8	-0.09592408
9	0x3bc33a25	0.005957859
10	0x3c8dced2	0.017310534
11	0x3d7afc81	0.061275963
12	0xbdfe1f0f	-0.12408268
13	0x3d9d6607	0.07685476
14	0x3c719c0a	0.014746675
15	0x3c81db0f	0.015851526
16	0xbdafad01	-0.0857792
17	0xbddc5996	-0.10759275
18	0x3dd6dbaf	0.1049112
19	0x3d02979a	0.03188286
20	0xbb072f69	-0.0020627624
21	0xbc3891f9	-0.011265271
22	0x3c80efee	0.015739407
23	0xbd840421	-0.064461
24	0x3d9ed3c5	0.077552356
25	0x3d84416d	0.064577915
26	0xbd701da9	-0.058622036
27	0x3e001079	0.12506284
28	0xbdd30668	-0.10303956
29	0x3d61086c	0.054939672
30	0x3c098994	0.008394618
31	0xbe23a46b	-0.15980689
32	0xbdb33954	-0.08751169
33	0x3da5e904	0.08101085
34	0xbd9d5b5d	-0.07683442
35	0xbd3539bf	-0.044244524
36	0xbdcc6594	-0.09980312
37	0xbda6d7fb	-0.08146664
38	0x3d369112	0.044571944
39	0x3d4180a5	0.047241826
40	0xbde91465	-0.11380843
41	0xbc007782	-0.007840993
42	0x3c5e7fd7	0.013580284
43	0x3e1b18df	0.15146206
44	0x3cbee0fd	0.023300642
45	0xbcffa460	-0.03120631
46	0xbd5130e1	-0.051072005
47	0x3de50486	0.111825034
48	0x3cec20a4	0.028824158
49	0x3dd4317c	0.10361001
50	0x3db86f4c	0.09005603
51	0x3d495733	0.049155425
52	0xbd915cdf	-0.07097792
53	0xbdbe2776	-0.0928487
54	0xbda8f76b	-0.08250316
55	0x3cbecf3c	0.023292176
56	0x3d54db96	0.051967226
57	0x3d0c86c8	0.034308225
58	0x3db57f48	0.088621676
59	0xbdbc75d4	-0.092021614
60	0x3e042f14	0.12908584
61	0x3d634fab	0.0554959
62	0x3de2f02e	0.11080967
63	0x3d357074	0.044296697
64	0xbd500f3a	-0.05079577
65	0x3da082a8	0.07837421
66	0x3e12553a	0.14290324
67	0xbd373043	-0.04472376
68	0xbdf44d4a	-0.11928804
69	0xbce746c3	-0.028231984
70	0xbdc6baa2	-0.09703566
71	0xbc6d3d90	-0.01448001
72	0x3dc4e603	0.09614184
73	0xbe0682d8	-0.1313585
74	0x3bc83e82	0.006110967
75	0x3dc49fda	0.09600802
76	0xbd1ffe23	-0.039060723
77	0xbd4dc6b9	-0.050238345
78	0xbd198d5f	-0.037488338
79	0x3ca19f5d	0.01972931
80	0x3d0d303b	0.034469824
81	0xbd83df2a	-0.064390495
82	0xbd9a7e8d	-0.07543669
83	0xbdfd5fd0	-0.123717904
84	0x3e03bb92	0.12864521
85	0x3d63fbd1	0.055660073
86	0xbd62664c	-0.05527334
87	0xbde83737	-0.113386564
88	0xbb0537e5	-0.0020327505
89	0x3e15bad5	0.14622052
90	0xbc961f19	-0.018325375
91	0xbd8a19d6	-0.06743209
92	0xbdc4da30	-0.096119285
93	0x3ddf165c	0.108929366
94	0xbdcc6eff	-0.09982108
95	0xbd9f848c	-0.07788953
96	0xbe25918c	-0.16168803
97	0xbdb970c6	-0.09054713
98	0x3c6122b1	0.013741181
99	0xbb89a2c2	-0.0042003104
100	0xbd528fef	-0.051406797
101	0xbd8aaee7	-0.06771641
102	0xbe0a72d2	-0.13520363
103	0xbe0f0852	-0.13968018
104	0x3c9c1d1e	0.019056853
105	0x3df05539	0.11735005
106	0xb9e8ff29	-0.00044440597
107	0x3e036ea0	0.12835169
108	0xbd37891c	-0.044808492
109	0x3d54df86	0.05197098
110	0xbdc466c4	-0.095899135
111	0x3d07b891	0.033135
112	0x3db54809	0.0885163
113	0xbb3e53f1	-0.0029041732
114	0xbdafb933	-0.08580246
115	0x3cebcbee	0.028783765
116	0x3deae647	0.11469703
117	0x3bedda59	0.007258695
118	0xbda58e1f	-0.08083748
119	0xbdb03c47	-0.08605247
120	0xbd8d1718	-0.068891704
121	0xbceba527	-0.028765274
122	0xbcbda15b	-0.02314823
123	0x3e101018	0.1406864
124	0x3d96afce	0.07357751
125	0x3dbc241e	0.09186576
126	0x3d347f7d	0.044066895
127	0x3deafefb	0.11474415
128	0xbe0d7c48	-0.13816941
129	0x3d19a940	0.037514925
130	0xbdf35f63	-0.11883428
131	0x3ab60a5d	0.0013888587
132	0x3d3a2840	0.04544854
133	0x3d125d45	0.03573348
134	0x3ddf5648	0.10905129
135	0x3cd37b84	0.025815733
136	0xbdacfcc4	-0.08446649
137	0xbddbe39f	-0.10736775
138	0x3daded23	0.08492496
139	0x3d7fe0e8	0.062470347
140	0xbddb7584	-0.10715774
141	0x3dc72caf	0.097253196
142	0x3c181f3c	0.009284791
143	0x3ce5899d	0.02801972
144	0xba2bba2a	-0.0006550873
145	0x3be475c2	0.0069720456
146	0x3c79fcec	0.015258055
147	0x3df37a27	0.11888533
148	0x3cfec36f	0.03109905
149	0x3d455b3b	0.048182707
150	0xbd9dc9b1	-0.07704485
151	0xbce73bbb	-0.028226724
152	0xbd82d1d8	-0.06387681
153	0x3d6574dd	0.056019653
154	0xbd978730	-0.07398832
155	0x3ce1adc1	0.027548673
156	0xbe08ac83	-0.13347058
157	0xbd5fd2c5	-0.054644365
158	0xbdf24825	-0.11830167
159	0xbdd8655d	-0.105662085
160	0x3d5af914	0.053460196
161	0xbe1b44c1	-0.15162946
162	0x3dafe73d	0.08589027
163	0xbd9e44b4	-0.07727948
164	0xbd1152e3	-0.035479438
165	0x3e07dc10	0.13267541
166	0x3cf595cf	0.02997866
167	0x3db9d2d4	0.090734154
168	0x3d728e19	0.059217546
169	0xbcc7d8bb	-0.024395337
170	0xbd87e280	-0.06634998
171	0x3dae83c2	0.085212246
172	0x3d26444d	0.04059248
173	0x3c32b514	0.01090743
174	0x3d82dec6	0.06390147
175	0x3d100a04	0.0351658
176	0xbd277213	-0.040880274
177	0x3cd73e85	0.026274929
178	0xbd8cc0f7	-0.068727426
179	0x3d14e71a	0.036353208
180	0xbd913a59	-0.07091207
181	0x3d8b394d	0.06798039
182	0xbd5e32c4	-0.054247633
183	0x3e0cb2dc	0.13740104
184	0x3d51fb47	0.051265027
185	0xbe14cc04	-0.14530951
186	0xbc80e6c2	-0.015735034
187	0xbda2477a	-0.07923789
188	0x3c85fc43	0.01635564
189	0x3de3741d	0.11106131
190	0x3c57e713	0.013177651
191	0x3d6da189	0.05801538
192	0x3e00d813	0.12582426
193	0x3b25d87e	0.0025306041
194	0x3d3fc314	0.0468169
195	0x3e0932bd	0.13398261
196	0x3d31e68e	0.043432765
197	0xbb9281c0	-0.004471034
198	0x3d98aab1	0.07454432
199	0x3ce69edc	0.028151922
200	0xbdd226b6	-0.1026129
201	0x3cd3c4ec	0.025850736
202	0x3dc54554	0.09632364
203	0x3cc8b6f1	0.024501296
204	0xbdb82515	-0.08991448
205	0x3ae96c78	0.0017808815
206	0x3d1a0afd	0.037608135
207	0xbde73f20	-0.11291337
208	0x3dd6c074	0.10485926
209	0x3da35b41	0.0797639
210	0x3df58fb9	0.119903035
211	0xbd8bb5b0	-0.068217635
212	0xbc1c37b9	-0.00953477
213	0xbb8ab5ec	-0.0042331126
214	0xbc33bab0	-0.010969803
215	0x3cfceb37	0.030873878
216	0xbd06ce28	-0.03291145
217	0x3d9c354a	0.076273516
218	0xbcbe15cc	-0.023203753
219	0xbd4ab948	-0.049493104
220	0x3dbfc42b	0.09363588
221	0x3dc8eced	0.09810815
222	0xbde66607	-0.11249929
223	0x3a07efe5	0.00051855884
224	0xbd4d4b6a	-0.05012075
225	0x3d68c02e	0.0568239
226	0xbdbda08b	-0.09259137
227	0xbde8d06f	-0.113678806
228	0xbc5968da	-0.0132696275
229	0xbd997b8b	-0.07494267
230	0xbc474be4	-0.01216409
231	0xbdaddf8c	-0.08489904
232	0x3d2c7ce1	0.04211128
233	0x3d8b29e4	0.067950994
234	0x3d26fc86	0.04076817
235	0x3bb70c9a	0.005586219
236	0xbe155770	-0.14584136
237	0x3c2f200f	0.010688796
238	0xbd8023a7	-0.062568
239	0xbd6acde6	-0.057325266
240	0x3d555291	0.052080695
241	0xbe3d1b97	-0.18467556
242	0x3dda9196	0.106722996
243	0xbce8b640	-0.028407216
244	0xbd0ab02f	-0.033859428
245	0xbcdd087f	-0.02698159
246	0xbd46b3a6	-0.04851117
247	0x3d857dd1	0.06518138
248	0xbda3b8e6	-0.07994251
249	0x3d781208	0.06056407
250	0x3d3867a7	0.045020726
251	0xbdc42635	-0.095776
252	0xbdd751a0	-0.105136156
253	0xbdc2a258	-0.09503621
254	0xbcafc99b	-0.021458438
255	0xbd8dab25	-0.06917409

blocks.1.attn.q_FacTs.weight f4 [16, 16]
0	0xbe4bdcb2	-0.19908407
1	0xbe2afc78	-0.16697872
2	0xbe0aa5ef	-0.13539861
3	0x3dce0815	0.10060135
4	0xbe7a077b	-0.24416916
5	0x3e0207c8	0.12698281
6	0xbe144d0f	-0.1448252
7	0x3d0cdd18	0.03439054
8	0xbd449cad	-0.04800098
9	0xbdd51dea	-0.10406096
10	0xbe0d63a4	-0.13807541
11	0xbca38d50	-0.019964844
12	0xbddc2707	-0.107496314
13	0xbe2217df	-0.15829419
14	0x3dbc686e	0.09199606
15	0x3d7f01c4	0.062257543
16	0x3e44bfe9	0.19213833
17	0xbd908909	-0.070573874
18	0x3d9f28cc	0.07771453
19	0x3d31ac0c	0.043376967
20	0xbe501017	-0.20318638
21	0xbe3cf276	-0.18451867
22	0xbe099529	-0.13435806
23	0x3e5d7ac8	0.21628869
24	0x3dbdd79f	0.09269642
25	0x3e1b63c8	0.15174782
26	0xbe79b47c	-0.24385256
27	0x3e3432a0	0.17597437
28	0x3e4c9e71	0.19982316
29	0xbe781d09	-0.24229826
30	0x3dbf3ac5	0.09337381
31	0x3e24f8ac	0.16110486
32	0x3c49e9e1	0.0123238275
33	0xbe093b87	-0.13401614
34	0xbe3a4b7b	-0.18192856
35	0xbe051051	-0.12994505
36	0x3e0524ae	0.13002273
37	0xbe219b08	-0.15781796
38	0x3e2651d6	0.16242155
39	0xbe37ad80	-0.17937279
40	0xbdd5bb64	-0.104361326
41	0x3d0cbc57	0.034359302
42	0xbda37aaf	-0.079823844
43	0xbe005f13	-0.12536268
44	0x3e1565c1	0.14589597
45	0xbceff1ff	-0.029290197
46	0xbd185d7d	-0.037198532
47	0x3de8ae27	0.11361342
48	0xbdac1293	-0.0840198
49	0x3c29812b	0.010345737
50	0xbc441f45	-0.011970346
51	0xbe040fde	-0.12896678
52	0x3e618317	0.22022663
53	0xbc0c8e07	-0.008578784
54	0xbde79018	-0.113067806
55	0xbd574659	-0.052557323
56	0x3ce549d5	0.027989307
57	0x3cca04d3	0.024660503
58	0xbe21410f	-0.15747474
59	0xbe70cb2c	-0.23515004
60	0x3d4efbba	0.050533034
61	0x3ca692b8	0.020333633
62	0xbe5c93b2	-0.21540716
63	0xbde22ef7	-0.11044114
64	0x3e0e90b2	0.13922384
65	0x3e057eb0	0.13036609
66	0x3dec6997	0.11543577
67	0xbe1628b1	-0.1466396
68	0xbd9d58d8	-0.07682961
69	0xbe5075c2	-0.20357421
70	0x3e7b5bf1	0.24546792
71	0xbd896b36	-0.06709902
72	0x3e0670d7	0.13128982
73	0x3e9199fd	0.28437796
74	0x3e3bef1c	0.18352932
75	0x3e529867	0.2056595
76	0xbe60dcc7	-0.2195922
77	0x3e1cc746	0.15310392
78	0x3d037022	0.03208936
79	0xbe72ac5e	-0.23698565
80	0xbdc8287d	-0.097733475
81	0xbe5f99ce	-0.21836016
82	0xbd996b19	-0.074911304
83	0x3dc76e79	0.09737868
84	0xbe0e2e89	-0.13884939
85	0x3e278bce	0.16361925
86	0x3dd48ce2	0.10378434
87	0x3e12ae5d	0.14324327
88	0xbe7e8a24	-0.24857384
89	0x3dc15768	0.094404995
90	0x3e53c9ae	0.20682403
91	0xbe4bca69	-0.19901432
92	0x3d8dce72	0.06924142
93	0xbe444391	-0.191664
94	0xbd2ff2d2	-0.04295618
95	0x3e5d19b3	0.21591835
96	0xbe3a0972	-0.18167666
97	0xbc511fcc	-0.012763929
98	0x3d6c5f00	0.057707787
99	0x3e14f6a7	0.14547215
100	0x3e474ab3	0.19462089
101	0xbe407b07	-0.18796931
102	0xbe716879	-0.2357501
103	0xbda13499	-0.0787136
104	0xbe0009e2	-0.1250377
105	0xbd95a112	-0.07306112
106	0xbe3c2ad8	-0.18375719
107	0xbe155cdf	-0.14586209
108	0x3dd7b81e	0.105331644
109	0x3d5573b9	0.052112315
110	0x3e52a711	0.20571543
111	0xbe16bfb3	-0.14721565
112	0x3e2105ca	0.15724865
113	0xbe5077da	-0.2035822
114	0xbe2f3273	-0.17109089
115	0x3e12ac73	0.14323597
116	0x3d07f529	0.033192787
117	0xbd32a130	-0.04361075
118	0x3e681620	0.2266469
119	0x3e5fa911	0.21841837
120	0x3e0e7a61	0.13913871
121	0x3dad9349	0.08475358
122	0x3dc9caf5	0.09853164
123	0xbdbeecab	-0.093224846
124	0x3e3b3cb6	0.18284878
125	0x3e483ceb	0.19554488
126	0xbe266952	-0.16251114
127	0x3e2cb369	0.16865315
128	0x3e36d4ab	0.17854564
129	0x3dc92785	0.09821991
130	0xbd89ef48	-0.067350924
131	0xbbe43344	-0.006964119
132	0xbe2e9a61	-0.17051078
133	0xbdbaa832	-0.09114112
134	0xbe9a901d	-0.30188075
135	0xbde557de	-0.111984
136	0xbd75651d	-0.059910882
137	0x3e309207	0.17243205
138	0x3e1408ce	0.14456484
139	0xbdabf07d	-0.08395479
140	0x3ddaba12	0.10680021
141	0x3e22b1bb	0.15888111
142	0xbe4fb7a5	-0.20284899
143	0xbe63e647	-0.22255813
144	0xbdde72fe	-0.10861777
145	0xbd804bc3	-0.062644504
146	0xbe6caca0	-0.23112726
147	0xbce89645	-0.028391967
148	0xbe4b501d	-0.1985478
149	0x3dc1533c	0.09439704
150	0x3e3e196e	0.18564388
151	0xbe88b591	-0.26701024
152	0xbdda1a0c	-0.10649499
153	0xbe5003e0	-0.20313978
154	0xbcbb3dd4	-0.02285663
155	0xbe33e20c	-0.17566699
156	0x3b19e851	0.0023484419
157	0x3e053923	0.13010077
158	0x3e1571e0	0.14594221
159	0xbb3ee2e4	-0.0029126937
160	0x3d34d3af	0.04414719
161	0x3e6029c4	0.21890932
162	0xbdf0bea4	-0.11755112
163	0xbe209d31	-0.15684964
164	0xbdf06121	-0.11737276
165	0x3cef3636	0.029200654
166	0x3e201d96	0.15636286
167	0x3da56f65	0.080778874
168	0x3d960eb3	0.073270224
169	0x3e61dd15	0.22056992
170	0xbe32548f	-0.17415069
171	0x3cc2dfd4	0.02378837
172	0x3e5fbbcd	0.21848984
173	0xbd9f003c	-0.077637166
174	0x3e15f5a6	0.14644489
175	0x3dcfb808	0.10142523
176	0xbe902f04	-0.2816087
177	0xbe2ebaeb	-0.17063491
178	0xbe38750a	-0.18013397
179	0x3cfe8f69	0.031074243
180	0x3d1877a4	0.037223473
181	0xbc1cbc3c	-0.009566363
182	0x3c61280b	0.013742457
183	0x3e2831fb	0.16425316
184	0xbc9f02a6	-0.019410443
185	0x3db62700	0.088941574
186	0xbe25adfa	-0.16179648
187	0x3e027c34	0.12742692
188	0x3e0d78f1	0.13815667
189	0x3e865c4a	0.26242286
190	0x3aec1c70	0.0018013846
191	0x3e01f1d2	0.12689903
192	0x3ce33951	0.027737292
193	0xbd9ecea2	-0.07754256
194	0xbd95c7e0	-0.07313514
195	0x3e1b98a5	0.15194948
196	0x3e6cc5a6	0.23122272
197	0x3d208574	0.03918977
198	0x3c92a43b	0.017900577
199	0x3e31d736	0.17367253
200	0x3d2c7697	0.042105284
201	0xbda862d7	-0.08221977
202	0x3ddbce45	0.10732702
203	0x3dc8b443	0.09800007
204	0x3e20e39c	0.15711826
205	0xbbb22993	-0.005437085
206	0x3da6d6d4	0.08146444
207	0x3e637023	0.22210746
208	0xbe9fd29c	-0.3121537
209	0x3c95f4f4	0.01830528
210	0xbe24002b	-0.16015689
211	0x3e72881f	0.23684739
212	0x3e65c878	0.22439754
213	0xbe2011ce	-0.15631792
214	0x3e1983a0	0.14991617
215	0xbe5ebdda	-0.2175211
216	0x3e43a3d6	0.19105467
217	0x3e304b69	0.17216267
218	0x3bf0cc16	0.0073485477
219	0x3e108c75	0.1411608
220	0xbe11b16a	-0.14227834
221	0x3ea954bb	0.33072457
222	0xbcb09c81	-0.021559002
223	0x3d6761c4	0.05648972
224	0x3d01141d	0.031513322
225	0xbd72eba1	-0.059306744
226	0xbda8414b	-0.08215579
227	0x3ce35371	0.027749749
228	0xbd9a2171	-0.0752591
229	0x3e65d248	0.22443497
230	0xbe23647b	-0.15956299
231	0x3e0195c1	0.12654783
232	0x3e33667d	0.17519565
233	0xbe35e5a9	-0.1776339
234	0x3e3c157c	0.1836757
235	0xbda86532	-0.082224265
236	0xbd50b537	-0.05095407
237	0xbd9d0148	-0.0766626
238	0x3dea7334	0.114477545
239	0x3e538603	0.2065659
240	0x3d48eefe	0.049056046
241	0xbdd1b27d	-0.10239122
242	0xbbd15f4d	-0.0063895346
243	0xbe52cc84	-0.20585829
244	0x3de8ca6d	0.11366735
245	0xbb403d43	-0.002933339
246	0x3e020e05	0.1270066
247	0x3d6b0a0a	0.05738262
248	0x3e09f8e4	0.1347385
249	0xbe0f8204	-0.14014441
250	0x3d82acc9	0.063806124
251	0x3da17a2d	0.07884631
252	0x3d30b0b6	0.043137275
253	0xbe399cb0	-0.18126178
254	0xbe6788d2	-0.22610787
255	0xbe80acd0	-0.25131845
