Final Project/FacT-TT/oxford_iiit_pet_best.pt (torch, 221953 bytes, 76 tensors)

blocks.0.attn.q_FacTs.weight f4 [8, 8]
0.06448315 -0.10279258 0.079902925 0.23026565 -0.16321412 0.44131887 -0.30560035 0.011921848
0.27683055 0.12665004 -0.0366174 0.31458122 -0.09199033 0.20097479 -0.12846826 0.07871388
-0.33029565 -0.16187163 -0.037554443 -0.26447448 0.31360516 -0.18023786 0.12812476 -0.19992444
0.305719 -0.27059725 -0.048166893 -0.14493112 -0.16443124 -0.5598441 -0.09322295 -0.14164545
0.20572118 -0.06640351 0.16100277 0.026024956 -0.018296814 -0.33888662 0.22677873 0.09964613
-0.4035858 0.19052617 0.18490514 0.25739062 0.12784894 0.39304063 -0.29850808 0.36829433
0.042047564 0.15764597 -0.21438178 0.23248231 0.18022642 0.46838567 -0.28438187 -0.023252465
0.26149762 0.06684958 -0.11600162 -0.37591 -0.20184374 0.17016128 -0.057377446 0.20195262
00000000: be0f 843d eb84 d2bd 25a4 a33d c2ca 6b3e
00000010: 9a21 27be 8cf4 e13e a677 9cbe db53 433c
00000020: bcbc 8d3e 8cb0 013e 20fc 15bd ca10 a13e
00000030: 6d65 bcbd 56cc 4d3e 2f8d 03be be34 a13d
00000040: 831c a9be adc1 25be b0d2 19bd 3369 87be
00000050: db90 a03e 4690 38be 2333 033e feb8 4cbe
00000060: 3387 9c3e b98b 8abe a64a 45bd d368 14be
00000070: aa60 28be f151 0fbf adeb bebd 810b 11be
00000080: 93a8 523e 90fe 87bd e9dd 243e 4a32 d53c
00000090: 33e3 95bc 8c82 adbe af38 683e 4513 cc3d
000000a0: cca2 cebe 4b19 433e c657 3d3e b4c8 833e
000000b0: d5ea 023e 9f3c c93e 0dd6 98be 1391 bc3e
000000c0: 113a 2c3d f26d 213e e686 5bbe d80f 6e3e
000000d0: 468d 383e 3fd0 ef3e 809a 91be f47b bebc
000000e0: 04e3 853e 6fe8 883d 4292 edbd 4777 c0be
000000f0: 20b0 4ebe c23e 2e3e 9d04 6bbd abcc 4e3e

blocks.0.attn.k_FacTs.weight f4 [8, 8]
0.3812438 -0.32377642 -0.37053627 -0.3739521 -0.27489147 -0.36294612 0.38411167 -0.2734836
0.12308566 -0.09243932 0.26811618 0.19397813 0.036111027 0.22147031 -0.3129028 0.23518927
-0.020959506 -0.055253692 -0.28064665 -0.23339641 -0.037427463 0.053097352 -0.05507563 -0.37364978
-0.22846451 -0.20394444 0.15862505 0.05459753 0.48771808 0.26709607 0.24820663 0.3617694
0.1697273 -0.24402636 -0.28912047 -0.08287949 -0.0273405 -0.20421185 0.0993656 -0.13462886
0.21635683 -0.40004772 -0.3477927 -0.12119072 0.026333433 -0.532038 0.6289765 -0.29381302
-0.1117018 0.097988226 -0.09764126 -0.44928294 -0.22039214 -0.31604964 0.4646477 -0.3941396
-0.09049804 -0.09026629 -0.08375497 -0.04518645 -0.18792565 0.1266112 0.3901423 0.16961548
00000000: 6332 c33e 06c6 a5be eeb6 bdbe a676 bfbe
00000010: 93be 8cbe 13d4 b9be 49aa c43e 0b06 8cbe
00000020: 5614 fc3d d450 bdbd 8646 893e 34a2 463e
00000030: 28e9 133d 1dc9 623e cc34 a0be 75d5 703e
00000040: 45b3 abbc b251 62bd ebb0 8fbe 78ff 6ebe
00000050: 8a4d 19bd 9c7c 593d fc96 61bd 064f bfbe
00000060: 9af2 69be d0d6 50be 9b6e 223e a9a1 5f3d
00000070: 2fb6 f93e d1c0 883e e129 7e3e d739 b93e
00000080: fecc 2d3e 0ce2 79be 9907 94be b9bc a9bd
00000090: 2ff9 dfbc e91c 51be 3180 cb3d 26dc 09be
000000a0: a58c 5d3e 0ed3 ccbe e311 b2be d732 f8bd
000000b0: 36b9 d73c a433 08bf 9b04 213f a96e 96be
000000c0: eac3 e4bd 0dae c83d 24f8 c7bd 6a08 e6be
000000d0: 7aae 61be 42d1 a1be 4ee6 ed3e aacc c9be
000000e0: 0957 b9bd 88dd b8bd ba87 abbd 6d15 39bd
000000f0: 956f 40be 5ea6 013e bbc0 c73e aeaf 2d3e

blocks.0.attn.v_FacTs.weight f4 [8, 8]
0.3648162 0.06621396 -0.25237322 0.41259295 0.260651 -0.24439573 0.36716422 -0.23106807
-0.11742259 -0.23510607 -0.08520613 0.3115543 0.37953362 -0.43799543 0.010964752 -0.24417613
0.3108069 0.14572333 0.014157868 -0.2804184 0.052932378 -0.2659125 -0.21625938 -0.30907813
0.19880167 -0.31142098 0.018562786 -0.3919836 -0.17224844 0.42007175 -0.27579355 0.16476427
0.2531097 -0.16822647 -0.09527352 -0.32986438 0.19783299 0.19951238 0.3403356 -0.3155756
0.2740475 -0.09515496 0.074238025 0.29120368 -0.12016139 -0.14162011 0.43577564 -0.21827942
0.0163795 0.3267141 0.38843054 -0.43426716 -0.5095827 0.2063892 -0.41158134 0.3975141
-0.40653282 0.30655086 0.25220641 -0.37667513 -0.33661306 0.23117033 -0.4081946 -0.03394061
00000000: 30c9 ba3e 2f9b 873d 1037 81be 623f d33e
00000010: 0c74 853e e042 7abe f3fc bb3e 1c9d 6cbe
00000020: 417b f0bd a5bf 70be 8d80 aebd 0c84 9f3e
00000030: 3b52 c23e f040 e0be 81a5 333c 4f09 7abe
00000040: 1522 9f3e 7f38 153e 67f6 673c 0093 8fbe
00000050: 9fcf 583d af25 88be 1973 5dbe 7d3f 9ebe
00000060: aa92 4b3e 9272 9fbe fc10 983c 13b2 c8be
00000070: e561 30be a513 d73e d034 8dbe f7b7 283e
00000080: 9897 813e 8f43 2cbe c31e c3bd fce3 a8be
00000090: bb94 4a3e f94c 4c3e 7840 ae3e 2093 a1be
000000a0: f44f 8c3e 9be0 c2bd 1b0a 983d a618 953e
000000b0: 2d17 f6bd dd04 11be fc1d df3e a484 5fbe
000000c0: 4d2e 863c 1247 a73e 5ee0 c63e 4458 debe
000000d0: 0374 02bf b157 533e caba d2be f886 cb3e
000000e0: 1225 d0be 3cf4 9c3e 3321 813e 90db c0be
000000f0: 8c58 acbe eab7 6c3e e2fe d0be 4f05 0bbd

blocks.0.attn.proj_FacTs.weight f4 [8, 8]
-0.34839538 -0.1319565 0.25290334 -0.11550313 0.26474625 -0.17230564 -0.27507043 -0.18005443
-0.051603183 0.054390658 -0.24103038 0.21533044 0.39739123 0.16196018 -0.46883088 -0.1878372
-0.11416924 0.22908464 0.27111396 -0.28189808 0.11969196 0.04545208 0.02900823 -0.082963325
0.112289615 -0.091790676 0.15269093 -0.0983344 0.07158577 -0.050722554 -0.028619928 0.03176748
0.24375525 0.44656262 -0.4683688 -0.4020005 -0.4474624 -0.14236076 0.5264796 -0.44448215
-0.27364 0.45095038 0.14112246 -0.4361593 -0.05869451 -0.16900262 0.38002935 -0.5061204
0.41540158 -0.033923008 -0.3193194 -0.28882602 -0.3630867 -0.11915578 0.4419959 -0.26211908
-0.333721 -0.42462072 -0.26004845 0.41893813 0.2649021 0.029185127 0.11066206 0.48760998
00000000: e160 b2be 9b1f 07be 8c7c 813e e88c ecbd
00000010: d28c 873e e470 30be 08d6 8cbe 3060 38be
00000020: dc5d 53bd bdc8 5e3d abd0 76be 957f 5c3e
00000030: dd76 cb3e e4d8 253e 9a0a f0be 6558 40be
00000040: 90d1 e9bd 2a95 6a3e 73cf 8a3e f254 90be
00000050: 0f21 f53d f62b 3a3d aba2 ed3c ade8 a9bd
00000060: 19f8 e53d c0fc bbbd 035b 1c3e 8c63 c9bd
00000070: 8f9b 923d 74c2 4fbd 5774 eabc 9e1e 023d
00000080: fa9a 793e dba3 e43e 09ce efbe 02d3 cdbe
00000090: cb19 e5be 05c7 11be 5ec7 063f 2a93 e3be
000000a0: 8b1a 8cbe f8e2 e63e 6882 103e 4650 dfbe
000000b0: a869 70bd 060f 2dbe 3593 c23e 1b91 01bf
000000c0: 84af d43e daf2 0abd d57d a3be 01e1 93be
000000d0: 80e6 b9be f207 f4bd 494d e23e 7934 86be
000000e0: 7bdd aabe e367 d9be 1225 85be 0f7f d63e
000000f0: 40a1 873e a615 ef3c caa2 e23d 04a8 f93e

blocks.0.mlp.fc1_FacTs.weight f4 [32, 8]
-0.22850712 -0.37856847 0.10162981 0.21494088 -0.14020075 -0.32652336 0.3058822 -0.2814161
0.11130572 -0.073898174 0.22201581 -0.14695783 0.3375589 -0.026408197 -0.070148446 -0.09866124
0.21109699 -0.29608905 0.29779115 -0.071729936 -0.05047908 -0.090751834 -0.025893634 0.09653529
0.45742875 -0.5681175 0.13760294 -0.13871853 -0.05688492 -0.50711596 0.24355808 -0.35344034
-0.019152753 0.18070272 0.07103026 -0.44301122 -0.06722776 -0.034240816 0.23556328 0.25942183
0.36785403 -0.103080146 0.267041 -0.084823854 0.030305581 -0.39301583 0.0059861057 -0.07168901
-0.2295479 -0.14765012 -0.0946363 0.2889107 0.21493171 -0.29039997 0.33085796 -0.047217607
-0.005263236 0.25139076 0.17240408 0.28218472 0.07050495 -0.3122683 0.0111898575 0.026608394
-0.07593149 0.13555731 -0.003921418 -0.27405056 0.046128903 -0.25690562 0.26998568 -0.31085083
0.16576964 -0.49770862 -0.109757066 0.09922047 -0.11667617 0.3117793 -0.3543181 0.00072257675
-0.21981314 0.34617543 -0.14550139 0.33027968 -0.21637674 0.13208345 -0.046862878 0.22773875
0.2881288 -0.31980148 0.27508274 0.27876973 0.014242919 0.41337907 -0.067414634 -0.38123357
-0.19135177 0.04796145 0.21003962 -0.04974591 -0.22301506 0.1597412 0.22372194 0.06770936
-0.030189345 0.07783297 -0.2192092 0.08291323 -0.1945774 -0.3161601 0.022000162 0.21744141
0.109843865 0.13784261 0.3686717 0.17056635 0.038642984 -0.21998781 0.3279223 -0.15211433
0.0058232644 -0.29898435 -0.09062735 -0.06877926 -0.2676843 0.31256694 0.06849414 -0.4316208
0.14083514 0.139853 -0.29514787 -0.22836821 -0.33118185 -0.37604842 0.2624538 -0.4619106
-0.04253793 0.44714484 -0.029715398 -0.0920668 0.22335072 0.13008447 0.2511448 -0.19752471
-0.4042919 0.26665685 -0.087105565 -0.23443161 0.29115823 0.045766193 0.15799281 0.4235843
-0.28051528 0.26712337 0.36829323 -0.10416563 0.32056063 -0.3689951 -0.19584617 -0.17606965
-0.099707276 0.2526887 -0.15670434 0.15807672 0.0073415064 -0.26243725 -0.124902695 -0.19676673
-0.04609922 -0.0013359213 -0.11547015 0.35502616 -0.03734407 0.31947643 -0.15436004 -0.18287997
0.16023998 -0.117594205 0.25199318 -0.31280777 -0.5644481 -0.043117408 -0.24209096 0.2365696
9.820638e-05 0.13170052 0.02316851 0.018263854 -0.3418004 -0.26398087 0.14838028 0.34872374
-0.26302 -0.07749576 0.37808695 0.12814727 -0.014703544 -0.2147359 -0.2818504 -0.33292
-0.2885497 -0.2998368 0.16535291 -0.022280188 0.3295215 -0.18450353 0.14961745 0.14344777
-0.36575356 -0.059696395 0.33483538 0.1607098 -0.0683138 -0.082049325 -0.29124233 0.05004953
-0.06863038 -0.10831884 0.009654678 -0.006241724 0.39307216 -0.2825588 0.15734766 -0.3059813
-0.17803526 0.0865365 -0.32845116 -0.061701402 0.15740381 -0.31587648 0.011512695 0.3928638
0.37160435 -0.34962407 0.1792912 0.086813904 0.16474785 -0.10913415 0.16407229 -0.2417862
0.34362245 -0.06784603 -0.21029545 0.18215908 0.3269174 -0.026178611 0.037140787 -0.377341
-0.340641 -0.1168984 0.1086696 0.3492791 0.44709307 0.27895504 -0.0013134695 -0.03731491
00000000: c5fd 69be bad3 c1be 4a23 d03d 7619 5c3e
00000010: c990 0fbe 122e a7be 979c 9c3e c515 90be
00000020: 41f4 e33d ed57 97bd 1d58 633e 1d7c 16be
00000030: 85d4 ac3e 0156 d8bc fda9 8fbd e70e cabd
00000040: cf29 583e fc98 97be 1578 983e 25e7 92bd
00000050: 27c3 4ebd 19dc b9bd e31e d4bc 4bb4 c53d
00000060: 1a34 ea3e 2670 11bf c9e7 0c3e 3b0c 0ebe
00000070: 2900 69bd 5ad2 01bf 4a67 793e 22f6 b4be
00000080: 3ce6 9cbc 220a 393e 5078 913d 5ed2 e2be
00000090: b5ae 89bd 1940 0cbd 8037 713e f0d2 843e
000000a0: 5d57 bc3e af1b d3bd 99b9 883e 21b8 adbd
000000b0: 6943 f83c 5f39 c9be 1827 c43b b0d1 92bd
000000c0: 9b0e 6bbe 9831 17be add0 c1bd 1aec 933e
000000d0: 0f17 5c3e 4eaf 94be 3766 a93e 4067 41bd
000000e0: 3977 acbb 4ab6 803e b28a 303e 847a 903e
000000f0: e664 903d a1e1 9fbe aa55 373c d9f9 d93c
00000100: f881 9bbd 89cf 0a3e 3d7f 80bb 5b50 8cbe
00000110: a9f1 3c3d 2289 83be 903b 8a3e d727 9fbe
00000120: 84bf 293e aad3 febe 50c8 e0bd 1a34 cb3d
00000130: eaf3 eebd 89a1 9f3e 2f69 b5be 4e6b 3d3a
00000140: b216 61be e83d b13e 51fe 14be 6b1a a93e
00000150: dd91 5dbe e240 073e 4af3 3fbd 5934 693e
00000160: 9e85 933e 05bd a3be a5d7 8c3e e8ba 8e3e
00000170: 225b 693c 6ca6 d33e af10 8abd 0c31 c3be
00000180: b8f1 43be 3a73 443d a014 573e 5ec2 4bbd
00000190: 0f5e 64be 3293 233e 5d17 653e 34ab 8a3d
000001a0: a54f f7bc e466 9f3d 6078 60be 69ce a93d
000001b0: 4c3f 47be bddf a1be af39 b43c f6a8 5e3e
000001c0: d2f5 e03d 9d26 0d3e 89c2 bc3e f2a8 2e3e
000001d0: 1b48 1e3d 7c44 61be 6fe5 a73e dcc3 1bbe
000001e0: 15d1 be3b 7a14 99be d59a b9bd 24dc 8cbd
000001f0: eb0d 89be c608 a03e a846 8c3d 67fd dcbe
00000200: 1637 103e a035 0f3e 9f1d 97be 5bd9 69be
00000210: ab90 a9be 6b89 c0be 5860 863e 8c7f ecbe
00000220: 413c 2ebd 2bf0 e43e b56d f3bc 858d bcbd
00000230: 0db6 643e dd34 053e 0d96 803e eb43 4abe
00000240: 59ff cebe 3f87 883e 6764 b2bd d70e 70be
00000250: b112 953e 5575 3b3d dec8 213e 0be0 d83e
00000260: b39f 8fbe 65c4 883e ee90 bc3e ca54 d5bd
00000270: 8620 a43e edec bcbe e68b 48be 9a4b 34be
00000280: 5433 ccbd 6a60 813e 1a77 20be ddde 213e
00000290: 0591 f03b 2d5e 86be fccc ffbd 387d 49be
000002a0: 89d2 3cbd 151a afba 9d7b ecbd fdc5 b53e
000002b0: 18f6 18bd 6a92 a33e 8f10 1ebe e344 3bbe
000002c0: f315 243e 3bd5 f0bd 4005 813e 5728 a0be
000002d0: ac7f 10bf e19b 30bd b1e6 77be 4d3f 723e
000002e0: 26f4 cd38 80dc 063e e3cb bd3c 149e 953c
000002f0: 7600 afbe 8028 87be 00f1 173e eb8b b23e
00000300: 8faa 86be 19b6 9ebd 9d94 c13e 0a39 033e
00000310: 22e7 70bc bae3 5bbe b24e 90be 7e74 aabe
00000320: c9bc 93be 3684 99be 4652 293e f184 b6bc
00000330: 0bb7 a83e 7eee 3cbe 5135 193e f9e3 123e
00000340: 0d44 bbbe 3584 74bd 8b6f ab3e 1c91 243e
00000350: 1be8 8bbd 7a09 a8bd b71d 95be bc00 4d3d
00000360: 168e 8cbd 45d6 ddbd a82e 1e3c 6087 ccbb
00000370: c140 c93e 8cab 90be bf1f 213e 95a9 9cbe
00000380: e04e 36be 0c3a b13d c02a a8be 9cba 7cbd
00000390: 772e 213e 90ba a1be be9f 3c3c 7225 c93e
000003a0: ed42 be3e ed01 b3be 1d98 373e 7dcb b13d
000003b0: a9b3 283e ba81 dfbd 9102 283e cd96 77be
000003c0: 48ef af3e dcf2 8abd b157 57be e987 3a3e
000003d0: b861 a73e 8774 d6bc f020 183d d732 c1be
000003e0: 7f68 aebe 6e68 efbd 2b8e de3d b6d4 b23e
000003f0: 62e9 e43e 32d3 8e3e b928 acba 85d7 18bd

blocks.0.mlp.fc2_FacTs.weight f4 [8, 32]
0.071285 0.124136575 -0.12818152 -0.16702612 -0.09747848 -0.1614593 -0.034604713 0.09478273
0.08206575 0.27281377 0.019148776 -0.16835919 -0.24432544 0.072492406 -0.24264525 -0.22205259
0.12194326 0.1778198 0.06862975 0.025710864 -0.09769482 0.017106105 0.25702748 -0.37887126
-0.06160995 0.16079432 -0.07967434 -0.081088886 -0.10870773 0.034272723 0.059608456 -0.195126
0.12718458 -0.2462209 0.049389448 -0.058896832 -0.09613956 -0.03839189 0.16565545 0.027861854
0.06641537 0.092841625 0.15629703 0.16649087 0.043322366 0.06605988 -0.0039939326 0.18044464
-0.09927452 -0.03643306 0.108366616 -0.034653854 0.33415297 -0.0054399534 -0.25082913 -0.15095305
-0.16513407 0.08967052 -0.045732915 -0.11083905 0.18351054 -0.16306761 0.014475667 0.15534543
0.123967625 0.07009717 -0.048129275 -0.11039496 -0.01649159 -0.09495542 0.19621046 -0.22894573
0.06980764 -0.06785924 -0.02935758 -0.029679717 -0.053223845 -0.07635938 0.07822424 0.12794842
0.045391165 -0.09365486 0.06241419 -0.0028671098 0.18477434 0.07101415 0.09639633 0.07836533
-0.045901276 0.0016236515 -0.045510653 0.14172995 -0.06474177 0.07019583 0.012736539 -0.05746639
-0.27411133 0.09777292 -0.09911748 0.02465024 0.21039727 0.2539916 0.24630389 0.057191815
-0.09000933 -0.04005337 0.1451876 -0.00068155094 0.30492106 0.32601458 -0.1605147 -0.10122609
0.06324376 -0.04909045 0.21668135 0.20878999 0.12734006 0.27736577 0.117976494 -0.037282605
-0.1743563 0.12981355 0.10291653 0.06401079 0.015426652 0.034411043 -0.04529169 -0.12131563
0.04277427 0.08331187 0.0753732 -0.005483638 0.0033369889 0.19368659 0.119080566 -0.024358606
-0.02907514 0.050055157 0.028886722 -0.123904705 -0.027124874 0.017698476 -0.30533102 0.17329378
-0.08273211 -0.19340098 -0.06362692 0.038267028 0.20151146 -0.04936977 -0.31235102 -0.03469849
-0.08229842 0.19386871 0.082590535 0.14305907 -0.0015656 0.07700966 -0.014246061 0.048343863
-0.04006158 0.054059424 -0.18281046 0.17237553 0.2689732 -0.03517635 0.20959714 0.2140893
-0.09520954 -0.14506753 -0.039428703 0.120522134 0.102382846 -0.2393018 -0.10405079 0.15457244
0.06535745 -0.037591286 0.08584897 0.18165919 0.03120982 -0.13683121 0.1596741 0.12556797
-0.059785556 0.0685537 0.13903633 0.13583036 0.15462273 0.024502926 0.009014696 0.27287835
-0.017020307 0.11262378 -0.065280676 0.21266352 0.037784413 -0.010454249 0.10892991 0.31615594
-0.110300355 -0.04665536 -0.0063903495 0.23640126 -0.06936554 0.05816456 0.052877977 -0.09555924
-0.014091989 0.11304625 -0.06586196 0.08930629 -0.08360317 -0.14559136 0.2090909 0.15302484
0.15018974 -0.20386407 -0.07842883 -0.11047847 0.028689956 0.124823175 0.021309385 -0.26083687
0.20088407 -0.1291884 0.06820074 -0.019287402 0.047729507 0.18817937 -0.058746655 -0.04367981
-0.17680697 0.07141156 0.014714887 -0.058171358 0.116242975 -0.13438635 0.05359987 0.095478036
-0.035854552 -0.025030365 0.24718806 -0.15732644 -0.15900965 -0.057212662 0.20552444 -0.08999163
-0.1548196 -0.05227372 -0.19092414 -0.08574023 -0.055951286 -0.111943044 -0.10744146 0.16064773
00000000: dffd 913d 513b fe3d 0442 03be e508 2bbe
00000010: cca2 c7bd 9655 25be acbd 0dbd 731d c23d
00000020: 1712 a83d 3fae 8b3e e5dd 9c3c 5a66 2cbe
00000030: 7330 7abe e676 943d ff77 78be c161 63be
00000040: 63bd f93d 6516 363e c18d 8c3d 979f d23c
00000050: 3914 c8bd 1a22 8c3c 1b99 833e 6afb c1be
00000060: b75a 7cbd 44a7 243e 4d2c a3bd ee11 a6bd
00000070: 29a2 debd 8e61 0c3d ff27 743d 1ccf 47be
00000080: ad3c 023e 5521 7cbe 974c 4a3d ce3d 71bd
00000090: d1e4 c4bd d040 1dbd 95a1 293e 8b3e e43c
000000a0: c804 883d c023 be3d 540c 203e 957c 2a3e
000000b0: cb72 313d 674a 873d 89df 82bb 7bc6 383e
000000c0: 7150 cbbd d53a 15bd 51ef dd3d 33f1 0dbd
000000d0: 1916 ab3e a341 b2bb ad6c 80be 7093 1abe
000000e0: e818 29be 2da5 b73d 7052 3bbd 95ff e2bd
000000f0: 30ea 3b3e 32fb 26be 592b 6d3c df12 1f3e
00000100: bde2 fd3d 1b8f 8f3d 3423 45bd c116 e2bd
00000110: 5f19 87bc fd77 c2bd 65eb 483e c070 6abe
00000120: 4ff7 8e3d c9f9 8abd 4f7f f0bc e122 f3bc
00000130: 3f01 5abd 4e62 9cbd 0834 a03d e904 033e
00000140: 16ec 393d 1fce bfbd 06a6 7f3d 1fe6 3bbb
00000150: 7c35 3d3e de6f 913d 706b c53d 017e a03d
00000160: fa02 3cbd b4d0 d43a 6169 3abd a821 113e
00000170: 5597 84bd d5c2 8f3d ebac 503c e161 6bbd
00000180: 5258 8cbe 2b3d c83d 1bfe cabd 4def c93c
00000190: 6272 573e 300b 823e 1637 7c3e f741 6a3d
000001a0: d056 b8bd 010f 24bd 0fac 143e 1caa 32ba
000001b0: 9d1e 9c3e 62eb a63e f75d 24be a04f cfbd
000001c0: f285 813d 1113 49bd b7e1 5d3e 0bcd 553e
000001d0: 6f65 023e e302 8e3e a99d f13d a5b5 18bd
000001e0: 758a 32be d8ed 043e e7c5 d23d 1718 833d
000001f0: 11c0 7c3c 98f2 0c3d c783 39bd 5474 f8bd
00000200: 1334 2f3d 6a9f aa3d 445d 9a3d 17b0 b3bb
00000210: 62b1 5a3b c755 463e 83e0 f33d b38b c7bc
00000220: fd2e eebc a306 4d3d d9a3 ec3c c0c1 fdbd
00000230: fc34 debc 65fc 903c 5954 9cbe ed73 313e
00000240: 746f a9bd e80a 46be d54e 82bd e3bd 1c3d
00000250: 0559 4e3e f537 4abd 79ec 9fbe 0120 0ebd
00000260: 138c a8bd 8585 463e 3a25 a93d 147e 123e
00000270: d234 cdba 3eb7 9d3d 5068 69bc 3704 463d
00000280: 9c17 24bd 6a6d 5d3d aa32 3bbe 3683 303e
00000290: dbb6 893e 1415 10bd a2a0 563e 3a3a 5b3e
000002a0: 38fd c2bd 958c 14be fe7f 21bd 4fd4 f63d
000002b0: 19ae d13d 880b 75be 9518 d5bd 3d48 1e3e
000002c0: 20da 853d 52f9 19bd 96d1 af3d de04 3a3e
000002d0: bdab ff3c 7b1d 0cbe 9b81 233e e494 003e
000002e0: b3e1 74bd e265 8c3d 8a5f 0e3e 1d17 0b3e
000002f0: 6c55 1e3e 5cba c83c 60b2 133c b6b6 8b3e
00000300: 2c6e 8bbc 4ca7 e63d e0b1 85bd 77c4 593e
00000310: d4c3 1a3d 4c48 2bbc a516 df3d 31df a13e
00000320: 27e5 e1bd b119 3fbd 2366 d1bb 2c13 723e
00000330: 850f 8ebd f63d 6e3d 9496 583d 90b4 c3bd
00000340: 16e2 66bc cb84 e73d a3e2 86bd 37e6 b63d
00000350: 2438 abbd e715 15be ed1b 563e 8bb2 1c3e
00000360: 57cb 193e bec1 50be 4b9f a0bd 8942 e2bd
00000370: 3307 eb3c 4ba3 ff3d 0591 ae3c 698c 85be
00000380: 8eb4 4d3e f749 04be d4ac 8b3d 9d00 9ebc
00000390: 0480 433d 18b2 403e 55a0 70bd 9ae9 32bd
000003a0: e30c 35be 3940 923d b616 713c 1745 6ebd
000003b0: cc10 ee3d 939c 09be 8a8b 5b3d fd89 c33d
000003c0: 39dc 12bd 7b0c cdbc de1e 7d3e 2f1a 21be
000003d0: 6dd3 22be d357 6abd 0075 523e 884d b8bd
000003e0: 0789 1ebe f81c 56bd 9e81 43be 9398 afbd
000003f0: 2d2d 65bd 6542 e5bd 450a dcbd d780 243e

blocks.1.attn.q_FacTs.weight f4 [8, 8]
0.2573556 0.0913244 0.28748256 0.24687783 -0.07012316 -0.18535745 -0.22304812 -0.16887076
0.36873686 0.19040817 0.2557201 0.19228712 0.09094413 -0.0030405852 0.3905657 -0.16893475
-0.4019297 -0.14565904 -0.17482871 0.07444455 0.30267155 0.24484834 -0.1312916 -0.124505855
0.189404 -0.11025004 0.27877778 0.27326354 -0.26422635 0.18403807 -0.00078169355 -0.16083409
0.19632688 -0.12799004 -0.33880147 -0.10240314 0.19669722 -0.048649296 -0.024786938 0.27023292
0.015615495 -0.00814059 -0.2259004 0.17007565 0.34663606 -0.21762747 0.3044851 -0.04782717
-0.028321363 -0.057055265 0.27292883 0.3394882 -0.26032874 0.009742818 -0.11830679 0.4094531
-0.058157485 -0.28495482 -0.21739557 0.19830923 0.30019835 -0.43299693 0.41180548 0.16043985
00000000: 1dc4 833e 4908 bb3d ea30 933e 8bcd 7c3e
00000010: bb9c 8fbd 58ce 3dbe ba66 64be 75ec 2cbe
00000020: 14cb bc3e 5cfa 423e bfed 823e eae6 443e
00000030: eb40 ba3d 8e44 47bb 3af8 c73e 3bfd 2cbe
00000040: bbc9 cdbe a527 15be 4c06 33be 6276 983d
00000050: c4f7 9a3e 86b9 7a3e 4e71 06be edfc febd
00000060: 1ff3 413e c6ca e1bd f6bb 8e3e 33e9 8b3e
00000070: ad48 87be 7a74 3c3e 91ea 4cba b1b1 24be
00000080: ea09 493e d20f 03be 6377 adbe bdb8 d1bd
00000090: ff6a 493e 7c44 47bd fa0d cbbc f85b 8a3e
000000a0: 22d8 7f3c 1c60 05bc 6f52 67be 5028 2e3e
000000b0: 487a b13e bcd9 5ebe 79e5 9b3e 6ce6 43bd
000000c0: 3402 e8bc c8b2 69bd 54bd 8b3e 66d1 ad3e
000000d0: cf49 85be 57a0 1f3c d54a f2bd d6a3 d13e
000000e0: 8b36 6ebd 99e5 91be f29c 5ebe 9311 4b3e
000000f0: 99b3 993e c6b1 ddbe 2bd8 d23e 584a 243e

blocks.1.attn.k_FacTs.weight f4 [8, 8]
0.2245662 -0.20632486 -0.06172094 -0.16653396 0.24339406 -0.43712536 0.08212824 0.05890699
-0.057044208 0.06494488 -0.08844916 0.28496698 0.2783924 0.054110847 -0.042359743 -0.280445
0.18953441 -0.17420454 0.16700718 -0.26168028 -0.16246396 0.17726395 0.06056218 -0.30343515
-0.0779683 0.30527502 0.42961863 -0.08515211 0.36233366 0.08750246 -0.03668563 0.027200451
0.11825923 -0.11472836 -0.2641654 -0.38667917 -0.3657378 -0.27842975 0.015521114 0.12478405
-0.03542948 -0.3010898 -0.41255298 -0.19264919 0.2686594 -0.21085984 0.11809879 -0.46403176
0.12134387 0.14294471 -0.15224437 0.40011573 -0.060212746 0.2556825 -0.021274304 0.49868137
0.16744794 -0.3944582 0.124757804 -0.34793958 0.30628937 -0.16768396 0.14353037 -0.13621442
00000000: aff4 653e d346 53be 19cf 7cbd e187 2abe
00000010: 4b3c 793e e5ce dfbe da32 a83d 7548 713d
00000020: 30a7 69bd d201 853d d524 b5bd 31e7 913e
00000030: 7389 8e3e 56a3 5d3d 6981 2dbd 7d96 8fbe
00000040: 4f15 423e ad62 32be ee03 2b3e f5fa 85be
00000050: f45c 26be ae84 353e 0c10 783d da5b 9bbe
00000060: d8ad 9fbd 024d 9c3e f9f6 db3e 3b64 aebd
00000070: cc83 b93e 7d34 b33d ac43 16bd 7bd3 de3c
00000080: e531 f23d b4f6 eabd b040 87be d0fa c5be
00000090: fc41 bbbe 588e 8ebe 454c 7e3c c88e ff3d
000000a0: 811e 11bd 7128 9abe 253a d3be d445 45be
000000b0: ba8d 893e a4eb 57be c7dd f13d 9295 edbe
000000c0: 2383 f83d 1960 123e f3e5 1bbe f8db cc3e
000000d0: a4a1 76bd d1e8 823e 7347 aebc 2a53 ff3e
000000e0: 7977 2b3e 6df6 c9be 0581 ff3d 2325 b2be
000000f0: f6d1 9c3e 58b5 2bbe a0f9 123e cb7b 0bbe

blocks.1.attn.v_FacTs.weight f4 [8, 8]
0.10591585 0.13363278 0.0466486 -0.35734418 0.2585551 0.15886271 0.04686942 -0.21151237
-0.21206096 -0.10130566 0.044523906 -0.12910739 0.066110194 0.19103502 -0.18247524 0.07511131
-0.029531414 0.2875168 0.313509 -0.04776979 -0.22903103 0.17051068 0.39750987 -0.027918963
-0.031694263 0.10946824 0.1748386 0.34925964 0.22799988 -0.030072091 -0.4678491 0.18136643
0.065810494 -0.077565216 0.055344723 -0.460742 -0.3933915 0.18168351 0.029944347 -0.27947673
0.03520571 0.40886953 0.09466136 0.1272282 0.3676587 -0.41726792 0.41978338 -0.30228516
-0.10806764 -0.16343127 -0.006419013 0.5065283 0.047348313 -0.32703173 0.2980685 0.34482047
0.19224559 0.07218685 0.13227378 -0.25969476 -0.25158238 -0.05995371 0.3254874 0.17683469
00000000: 69ea d83d 08d7 083e 9a12 3f3d d1f5 b6be
00000010: 5661 843e e8ac 223e 26fa 3f3d b396 58be
00000020: 8226 59be 5879 cfbd b35e 363d ba34 04be
00000030: c864 873d af9e 433e cada 3abe f5d3 993d
00000040: ddeb f1bc 6735 933e 4084 a03e 41aa 43bd
00000050: 1c87 6abe 5a9a 2e3e 6a86 cb3e 4fb6 e4bc
00000060: d8d1 01bd e230 e03d e408 333e 29d2 b23e
00000070: cd78 693e bf59 f6bc eb89 efbe 1fb8 393e
00000080: a7c7 863d 83da 9ebd 26b1 623d 60e6 ebbe
00000090: 9c6a c9be 3e0b 3a3e d94d f53c 9317 8fbe
000000a0: dd33 103d 5957 d13e d1dd c13d 1c48 023e
000000b0: c33d bc3e 24a4 d5be d9ed d63e 1fc5 9abe
000000c0: 9152 ddbd 875a 27be 9556 d2bb d7ab 013f
000000d0: 4ef0 413d b470 a7be 6f9c 983e 4f8c b03e
000000e0: 07dc 443e b3d6 933d c772 073e b6f6 84be
000000f0: 68cf 80be 0592 75bd 49a6 a63e 2714 353e

blocks.1.attn.proj_FacTs.weight f4 [8, 8]
-0.13655585 0.21369599 -0.3981701 0.21956109 -0.50052947 -0.4223244 -0.21710607 0.2874843
0.12659921 0.08841262 -0.15769452 0.16391659 -0.27084446 0.189299 0.0948147 -0.5279343
0.33786032 0.32733598 -0.52820086 0.36000696 -0.37528098 -0.5395849 0.22458756 -0.08444114
0.118973576 -0.17205936 0.37901795 -0.0033542733 0.43370265 -0.18103495 0.51182705 -0.15676653
0.3494642 0.15165392 0.1520247 -0.11939809 -0.04396945 -0.024429308 0.36571935 -0.19932914
-0.09034484 -0.15976748 0.017421065 0.10920515 -0.013368772 0.35482597 0.43966305 0.0040382356
-0.29636875 -0.3355137 0.14436993 -0.07144925 0.04774232 0.057597253 0.38075387 0.3388351
-0.086915046 0.26857102 -0.14274114 0.15008028 0.2369294 -0.14345707 0.055299804 -0.21007809
00000000: 4cd5 0bbe 1fd3 5a3e f4dc cbbe 9fd4 603e
00000010: b322 00bf e73a d8be 0e51 5ebe 2431 933e
00000020: 39a3 013e ad11 b53d ac7a 21be c0d9 273e
00000030: 20ac 8abe 99d7 413e 362e c23d b426 07bf
00000040: 07fc ac3e 9598 a73e 2c38 07bf d552 b83e
00000050: d424 c0be 3c22 0abf 48fa 653e 7aef acbd
00000060: 6ba8 f33d 5430 30be a40e c23e 5ed3 5bbb
00000070: 460e de3e 3a61 39be 1907 033f 6887 20be
00000080: f9ec b23e 2a4b 1b3e 5dac 1b3e fc86 f4bd
00000090: 4f19 34bd f91f c8bc 913f bb3e f01c 4cbe
000000a0: b706 b9bd 169a 23be 9fb6 8e3c f3a6 df3d
000000b0: b208 5bbc c0ab b53e 841b e13e 2d53 843b
000000c0: a5bd 97be 74c8 abbe b6d5 133e fc53 92bd
000000d0: 738d 433d 19eb 6b3d 2cf2 c23e cb7b ad3e
000000e0: 8400 b2bd 2482 893e bc2a 12be a5ae 193e
000000f0: 9f9d 723e 69e6 12be 0c82 623d b61e 57be

blocks.1.mlp.fc1_FacTs.weight f4 [32, 8]
-0.28167802 0.13812348 -0.115380295 0.051157292 0.15951042 0.3498229 0.08986275 0.18485758
-0.06007972 0.34547332 -0.014422459 0.048628196 -0.21745741 -0.024201674 0.2550853 -0.070272796
-0.36909652 -0.20973022 0.33703074 0.47896534 -0.18207166 0.121231094 -0.23211315 0.23563273
-0.3369163 -0.039112534 -0.09396513 -0.16288869 0.31739184 0.006327983 -0.11346261 -0.32543817
0.16086186 0.22452608 0.21256725 0.14476296 0.18021996 0.08899771 -0.30871803 0.25354606
0.040947296 -0.3930928 0.32295254 -0.011538561 0.22160216 0.37712798 0.3005085 0.472088
0.17157318 0.21663356 0.23347843 0.031385828 0.09738048 0.07318538 0.10900105 -0.0006503454
0.38323495 -0.0703138 0.10307453 -0.2696958 0.09460962 -0.10785698 -0.055451382 0.28854778
-0.20263009 -0.2560667 0.37809724 0.098806195 -0.33436117 -0.02533692 -0.030789949 0.26114747
0.013881417 0.22184297 0.2907648 -0.30840296 0.21657255 -0.019121075 0.2507192 0.29046953
-0.20496984 0.26076195 -0.37154415 -0.043550376 -0.07421818 -0.3708942 0.22284123 -0.29832736
0.13022575 -0.18340497 0.04508857 -0.123274766 -0.057054974 0.28318152 -0.047469452 0.2870955
0.12111691 -0.1703975 0.11085903 0.20744874 -0.27552694 -0.2559415 -0.022760468 -0.35700464
-0.009195756 -0.068171784 0.24005577 -0.39121646 -0.25067574 0.09867152 -0.19939372 0.11754861
0.23811182 0.040066503 0.14758553 -0.41470072 -0.36209002 0.12172065 -0.041696038 0.19220273
-0.24920157 0.17357664 -0.2920843 -0.28493527 0.18521257 -0.073947 0.34177825 0.23824027
0.07536101 0.15666586 0.09842138 -0.17145045 0.3536841 -0.046128836 -0.22475858 -0.06339677
0.23303734 0.08458657 0.011255576 -0.3143553 -0.19893615 -0.097435854 0.34029377 -0.03436383
0.18114746 0.03571337 -0.15889987 -0.061220013 -0.20574948 -0.43715233 -0.13976493 -0.15821762
-0.004740926 0.41588593 0.15291974 0.41312152 -0.079519056 -0.021227958 -0.46101096 -0.10417649
-0.25077128 -0.062358197 0.3316694 0.16067718 -0.043460675 0.24940565 0.24567543 -0.12707326
0.07974844 0.17032939 -0.35062423 -0.11661592 -0.16093005 -0.3256789 0.07611248 0.3121102
-0.2041918 -0.3248232 -0.22355191 0.02142824 0.21969405 -0.17073894 -0.2393576 -0.022977062
-0.4139806 0.49703506 0.11611048 0.34701335 0.5118922 0.33721796 -0.31315035 0.084146395
0.11093871 -0.15505381 0.079653434 0.30682385 -0.17961793 0.23496388 0.07339809 -0.31067196
0.21351922 0.3805812 0.25778863 0.3024672 0.34090835 -0.008240051 -0.21870156 -0.11549288
0.08679968 -0.28846684 -0.038458657 0.23104785 -0.28578618 -0.088488035 -0.10193334 0.4311733
0.27066123 -0.20009497 -0.029145505 0.068403386 -0.031303346 -0.117815085 0.39562264 0.25042596
0.04836104 0.08781369 0.00971218 -0.22524254 -0.22700433 0.3818724 0.12679484 -0.13520318
-0.303327 -0.29201412 -0.37967798 -0.09319013 -0.053302195 0.22906457 -0.05783589 -0.24854909
-0.15812284 0.27439347 -0.29541886 0.43174645 0.2753938 0.36268577 -0.21414773 0.2177969
-0.11741377 -0.16757888 -0.4143739 0.1704516 -0.035629936 -0.2530365 0.020987185 0.15050356
00000000: 1a38 90be 3e70 0d3e 814c ecbd 4f8a 513d
00000010: b356 233e fd1b b33e f609 b83d 4e4b 3d3e
00000020: 2716 76bd e1e1 b03e 2d4c 6cbc 5c2e 473d
00000030: 28ad 5ebe 9742 c6bc 8a9a 823e 2feb 8fbd
00000040: 38fa bcbe 85c3 56be 4b8f ac3e f23a f53e
00000050: fe70 3abe 0248 f83d 12af 6dbe b549 713e
00000060: 4b80 acbe 7734 20bd ca70 c0bd 4bcc 26be
00000070: 2f81 a23e f85a cf3b 165f e8bd d59f a6be
00000080: f9b8 243e 2aea 653e 3bab 593e be3c 143e
00000090: 958b 383e 6e44 b63d 4a10 9ebe cad0 813e
000000a0: 5ab8 273d 7643 c9be 095a a53e 3c0c 3dbc
000000b0: adeb 623e eb16 c13e 40dc 993e 85b5 f13e
000000c0: e1b0 2f3e 30d5 5d3e f814 6f3e 6d8e 003d
000000d0: 6b6f c73d 37e2 953d f13b df3d f17b 2aba
000000e0: 5f37 c43e ae00 90bd bd18 d33d 9115 8abe
000000f0: b0c2 c13d 1fe4 dcbd fd20 63bd 89bc 933e
00000100: 437e 4fbe 2d1b 83be f695 c13e e75a ca3d
00000110: 6331 abbe 5f8f cfbc 343b fcbc 1fb5 853e
00000120: e26e 633c ce2a 633e 20df 943e fee6 9dbe
00000130: 32c5 5d3e cda3 9cbc 445e 803e 6cb8 943e
00000140: 9de3 51be 9782 853e 093b bebe e161 32bd
00000150: b3ff 97bd d8e5 bdbe 7e30 643e 5dbe 98be
00000160: e659 053e 83ce 3bbe cbae 383d 7b77 fcbd
00000170: 7ab2 69bd 2bfd 903e 546f 42bd 2efe 923e
00000180: 240c f83d af7c 2ebe 0f0a e33d 716d 543e
00000190: de11 8dbe c40a 83be 2974 babc 50c9 b6be
000001a0: cca9 16bc a69d 8bbd 2ed1 753e 864d c8be
000001b0: 9258 80be 4b14 ca3d de2d 4cbe 53bd f03d
000001c0: 96d3 733e c61c 243d a920 173e a753 d4be
000001d0: dd63 b9be ad48 f93d 77c9 2abd cbd0 443e
000001e0: b22e 7fbe 13be 313e 138c 95be 09e3 91be
000001f0: 5da8 3d3e 8671 97bd 8ffd ae3e 42f5 733e
00000200: e056 9a3d 046d 203e 2691 c93d b590 2fbe
00000210: 1516 b53e 97f1 3cbd 1d27 66be 2ad6 81bd
00000220: 57a1 6e3e b93b ad3d 4f69 383c 2ef3 a0be
00000230: ebb5 4bbe 738c c7bd fc3a ae3e 16c1 0cbd
00000240: b87e 393e 2f48 123d a6b6 22be d6c1 7abd
00000250: feaf 52be 6ed2 dfbe 8a1e 0fbe cd03 22be
00000260: c559 9bbb 00ef d43e fe96 1c3e aa84 d33e
00000270: e3da a2bd 41e6 adbc a109 ecbe 7c5a d5bd
00000280: 1865 80be 4f6b 7fbd 92d0 a93e 8f88 243e
00000290: d203 32bd 3264 7f3e 5792 7b3e 7e1f 02be
000002a0: 2653 a33d d46a 2e3e 0585 b3be 54d4 eebd
000002b0: d9ca 24be 63bf a6be dce0 9b3d e8cc 9f3e
000002c0: a817 51be 3a4f a6be cbea 64be 478a af3c
000002d0: 7af7 603e 30d6 2ebe 291a 75be 643a bcbc
000002e0: 44f5 d3be 617b fe3e 55cb ed3d bcab b13e
000002f0: 5e0b 033f d5a7 ac3e 3e55 a0be f254 ac3d
00000300: d633 e33d 6dc6 1ebe 5721 a33d 0418 9d3e
00000310: c3ed 37be 5f9a 703e bd51 963d 6510 9fbe
00000320: c8a4 5a3e 8adb c23e dffc 833e fbdc 9a3e
00000330: 8a8b ae3e 4701 07bc 4df3 5fbe 8887 ecbd
00000340: 08c4 b13d edb1 93be d386 1dbd cf97 6c3e
00000350: 9152 92be 3739 b5bd 6dc2 d0bd bfc2 dc3e
00000360: 1c94 8a3e b2e5 4cbe 8ec2 eebc 1317 8c3d
00000370: f037 00bd 0949 f1bd 0d8f ca3e d537 803e
00000380: 3a16 463d aad7 b33d d61f 1f3c fba5 66be
00000390: d373 68be c784 c33e 82d6 013e b472 0abe
000003a0: ad4d 9bbe e082 95be 2765 c2be 78da bebd
000003b0: 6753 5abd e78f 6a3e 54e5 6cbd a783 7ebe
000003c0: f4ea 21be 4d7d 8c3e 2441 97be df0d dd3e
000003d0: 6b00 8d3e f3b1 b93e 8b49 5bbe 2706 5f3e
000003e0: a176 f0bd cc99 2bbe d128 d4be dd8a 2e3e
000003f0: b2f0 11bd 008e 81be 51ed ab3c 9b1d 1a3e

blocks.1.mlp.fc2_FacTs.weight f4 [8, 32]
-0.14125992 0.21093659 -0.14144169 -0.020026267 -0.0037877848 -0.15361068 0.15848072 -0.054361653
0.017152334 -0.04949929 -0.034017257 0.32086164 0.06156482 0.1089787 0.11028214 0.233396
-0.22718993 0.15776207 -0.058791522 0.14775932 -0.08175382 -0.0031079706 0.07777497 -0.043780915
0.1805906 0.038566057 -0.025816519 -0.080398485 -0.0055657984 -0.023427606 -0.09522083 -0.1925865
-0.07407146 0.123489834 0.17104359 0.026586998 -0.014423924 -0.20631415 0.15893815 0.01179858
-0.13247879 -0.23712231 0.01081409 0.07034819 -0.10349665 -0.12835234 -0.10179635 -0.20291102
0.12040445 0.08454375 0.14025216 -0.0047801323 0.17006202 0.042105533 -0.22904162 0.071934946
0.01981876 -0.097756706 0.03718106 0.070707306 0.028082319 0.17206427 0.15934695 -0.120396584
-0.31062272 0.22240819 -0.0655114 -0.024024898 -0.053801507 0.18254836 -0.28063533 0.26015812
0.0087920595 0.11696211 -0.118282475 -0.053568136 0.09644216 0.26447585 -0.110014826 0.00242587
0.1114501 0.17380756 -0.14836659 0.050969698 -0.16867091 0.116654314 -0.010908743 -0.15904659
-0.044086333 0.29514948 0.025822347 -0.23880608 0.06831477 0.04632958 0.04245683 0.117252715
-0.12464147 -0.16291353 0.17043614 0.1086278 -0.030165253 0.11021333 0.14120954 -0.013394127
-0.023262877 -0.008161985 -0.20582816 -0.06868352 0.07389256 0.121166125 0.18742177 -0.0037774374
0.11457061 -0.25684282 -0.2892114 -0.03288444 0.01628806 -0.060295966 0.24944705 0.044036057
-0.08330762 -0.20699891 0.12425845 0.19568804 0.027764983 0.07233863 -0.16067508 0.14035916
-0.048452426 -0.062033165 0.08053634 -0.065604776 -0.18431869 -0.043132022 0.1642626 -0.023412278
0.14370908 -0.18314044 -0.028978648 -0.17594229 0.0024721506 -0.13663757 0.1217619 -0.048051476
-0.09928003 -0.0193239 -0.110344455 0.09482606 -0.04498839 -0.09141848 -0.12841319 -0.08940088
-0.22177033 0.06659194 -0.045805857 0.0937229 0.1424303 0.1024538 -0.037583068 0.200608
-0.14918064 -0.23992684 -0.2019601 0.20916308 0.1870923 0.21993951 0.20108439 0.11575114
-0.11356386 -0.11528556 -0.24111514 0.039860014 0.19625966 -0.10753963 -0.0929534 -0.042802654
-0.029301552 -0.12540273 0.051898498 0.10098414 0.09364319 -0.25420204 0.13596188 0.051269908
-0.008292358 -0.22889523 -0.008751147 0.16084115 -0.076131254 0.20031334 0.16879074 -0.07148456
0.13831677 -0.09832932 -0.027363067 -0.15228023 0.017887995 -0.20824277 0.14692564 0.16564438
-0.026851734 0.0030755128 0.014369177 0.07376361 -0.085061125 -0.07741496 -0.19862151 -0.08319236
-0.060624357 -0.017009119 -0.063547745 -0.07833031 -0.019017585 -0.13540034 -0.011586911 0.09024247
-0.105082765 0.20839486 0.08441711 -0.02632594 -0.18871225 -0.08311964 -0.06175019 -0.11241534
-0.34263358 0.08212458 0.23952009 0.116066694 0.059095316 0.070917726 0.016956965 0.1446896
0.102666266 0.16102907 0.017251883 0.20067918 -0.009893408 0.20901193 -0.040858608 0.13548851
0.02774073 0.005370898 0.017175166 0.018829174 -0.08439379 0.048070982 -0.22565734 0.029581307
-0.06975673 0.074490234 0.071036324 -0.09883496 -0.20734528 0.0935663 0.020438245 -0.03163742
00000000: 71a6 10be c3ff 573e 17d6 10be 200e a4bc
00000010: 7c3c 78bb 1e4c 1dbe c548 223e 53aa 5ebd
00000020: 0d83 8c3c c4bf 4abd ae55 0bbd fa47 a43e
00000030: 652b 7c3d 3a30 df3d 9adb e13d 5cff 6e3e
00000040: 7aa4 68be 618c 213e 61cf 70bd 384e 173e
00000050: 8c6e a7bd 18af 4bbb 7c48 9f3d 9e53 33bd
00000060: beec 383e 71f7 1d3d 2a7d d3bc f6a7 a4bd
00000070: 4d61 b6bb 40eb bfbc 2303 c3bd 6535 45be
00000080: c7b2 97bd 3de8 fc3d 0d26 2f3e facc d93c
00000090: 5252 6cbc 0444 53be afc0 223e d54e 413c
000000a0: 85a8 07be 31d0 72be 952d 313c b612 903d
000000b0: 0df6 d3bd cc6e 03be 9b7a d0bd e8c7 4fbe
000000c0: 9c96 f63d 4625 ad3d 439e 0f3e a8a2 9cbb
000000d0: bd24 2e3e da76 2c3d e389 6abe a152 933d
000000e0: f45a a23c ab34 c8bd 2b4b 183d fece 903d
000000f0: e40c e63c 9e31 303e d92b 233e 7c92 f6bd
00000100: f109 9fbe f9be 633e d72a 86bd ddcf c4bc
00000110: f85e 5cbd f5ed 3a3e 6faf 8fbe 7233 853e
00000120: 920c 103c d589 ef3d 153e f2bd 436a 5bbd
00000130: 7883 c53d 6169 873e 744f e1bd 58fb 1e3b
00000140: f33f e43d 9cfa 313e 69ed 17be 9ac5 503d
00000150: 11b8 2cbe 75e8 ee3d 96ba 32bc 1cdd 22be
00000160: df93 34bd d51d 973e 6389 d33c 9589 74be
00000170: 9de8 8b3d 16c4 3d3d 37e7 2d3d 3122 f03d
00000180: 0744 ffbd ced2 26be d086 2e3e 4178 de3d
00000190: 1f1d f7bc 87b7 e13d 3c99 103e 0a73 5bbc
000001a0: ca91 bebc d9b9 05bc 9ec4 52be f2a9 8cbd
000001b0: fc54 973d f225 f83d 7eeb 3f3e e28e 77bb
000001c0: ffa3 ea3d e780 83be 8413 94be d6b1 06bd
000001d0: 8a6e 853c e7f8 76bd 0c6f 7f3e 275f 343d
000001e0: 2f9d aabd 86f7 53be 377b fe3d 7262 483e
000001f0: 6473 e33c 4726 943d 0288 24be 50ba 0f3e
00000200: 0d76 46bd 7d16 7ebd 3df0 a43d cc5b 86bd
00000210: 0abe 3cbe 34ab 30bd 7434 283e 1bcb bfbc
00000220: 7928 133e 2b89 3bbe a164 edbc 372a 34be
00000230: ce03 223b b8ea 0bbe 4e5e f93d a0d1 44bd
00000240: 5453 cbbd 284d 9ebc 46fc e1bd 2a34 c23d
00000250: bf45 38bd 9d39 bbbd bf7e 03be cf17 b7bd
00000260: c317 63be 5b61 883d ec9e 3bbd cbf1 bf3d
00000270: 40d9 113e 4cd3 d13d b4f0 19bd 2f6c 4d3e
00000280: cfc2 18be 62af 75be a1ce 4ebe d92e 563e
00000290: 2095 3f3e d337 613e 11e9 4d3e ef0e ed3d
000002a0: 2b94 e8bd d61a ecbd e3e6 76be 4144 233d
000002b0: 4bf8 483e bd3d dcbd 5a5e bebd d651 2fbd
000002c0: cf09 f0bc 9369 00be 8593 543d c6d0 ce3d
000002d0: 00c8 bf3d c526 82be 9739 0b3e 6500 523d
000002e0: acdc 07bc 8363 6abe f960 0fbc 8bb3 243e
000002f0: b4ea 9bbd f11e 4d3e 7bd7 2c3e 7f66 92bd
00000300: e9a2 0d3e e260 c9bd 8328 e0bc 59ef 1bbe
00000310: d889 923c 983d 55be ad73 163e ae9e 293e
00000320: 2bf8 dbbc 8b8e 493b b26c 6b3c 6011 973d
00000330: 8734 aebd bc8b 9ebd 7063 4bbe c260 aabd
00000340: 3f51 78bd b556 8bbc 5225 82bd a46b a0bd
00000350: c4ca 9bbc 63a6 0abe 07d7 3dbc 0bd1 b83d
00000360: a235 d7bd 7665 553e e1e2 ac3d 7fa9 d7bc
00000370: c93d 41be a13a aabd c4ed 7cbd 043a e6bd
00000380: ab6d afbe ef30 a83d c144 753e 60b4 ed3d
00000390: ee0d 723d 503d 913d 55e9 8a3c 8329 143e
000003a0: b142 d23d cee4 243e d253 8d3c d87e 4d3e
000003b0: f617 22bc 3907 563e 5b5b 27bd 80bd 0a3e
000003c0: 8740 e33c 5cfe af3b efb2 8c3c a43f 9a3c
000003d0: a7d6 acbd 14e6 443d b812 67be 7f54 f23c
000003e0: 9edc 8ebd 568e 983d 7e7b 913d fc69 cabd
000003f0: 5252 54be b09f bf3d 1b6e a73c 3d96 01bd

blocks.2.attn.q_FacTs.weight f4 [8, 8]
-0.059336774 0.041087095 0.26377955 -0.12697174 0.41102323 -0.30221862 -0.028396044 -0.15482299
0.44925985 0.20733306 0.1921786 -0.075905286 -0.011878873 0.11199634 -0.12691678 -0.1759319
0.16418181 0.34552717 0.23051484 -0.21810736 0.13783607 0.26944807 -0.25152183 0.027321337
-0.09463327 0.38150144 0.067750774 -0.41663092 -0.16613905 0.17361666 -0.21208346 0.16446161
0.2770912 -0.1603062 -0.22166112 -0.30358914 -0.26418194 0.36991477 -0.023458682 0.03208843
-0.1563844 -0.3308483 0.30235302 -0.2599068 0.051554516 -0.33919933 -0.07571963 0.5443532
-0.03578325 -0.4763707 -0.004478226 -0.2318315 0.097668774 0.2784506 -0.16726698 0.1768081
-0.016304998 0.20594995 -0.26634768 0.29737723 -0.23867229 0.21380274 -0.118707865 0.3416852
00000000: 1e0b 73bd f14a 283d 1d0e 873e e104 02be
00000010: a371 d23e 66bc 9abe d29e e8bc eb89 1ebe
00000020: 6305 e63e 1e4f 543e 78ca 443e 3b74 9bbd
00000030: 9b9f 42bc 565e e53d 79f6 01be 7e27 34be
00000040: 471f 283e f0e8 b03e 150c 6c3e 8957 5fbe
00000050: e624 0d3e 19f5 893e 78c7 80be ffd0 df3c
00000060: 16cf c1bd 2854 c33e ebc0 8a3d a650 d5be
00000070: 5b20 2abe 91c8 313e 682c 59be a068 283e
00000080: e6de 8d3e 4f27 24be 22fb 62be 0970 9bbe
00000090: db42 87be 7865 bd3e 6c2c c0bc 286f 033d
000000a0: 3b23 20be f364 a9be 04ce 9a3e 8112 85be
000000b0: d42a 533d 89ab adbe e512 9bbd bb5a 0b3f
000000c0: 7591 12bd dce6 f3be 15be 92bb 3d65 6dbe
000000d0: 9106 c83d 1491 8e3e 0948 2bbe 2f0d 353e
000000e0: 0f92 85bc 8be4 523e b95e 88be d441 983e
000000f0: 8266 74be 1bef 5a3e 1c1d f3bd 5df1 ae3e

blocks.2.attn.k_FacTs.weight f4 [8, 8]
-0.004395333 -0.11833929 -0.03444048 -0.08246003 -0.29736587 0.06634832 -0.24827488 0.28963396
0.39579892 0.4195559 -0.08900683 -0.20353167 0.005868721 0.17402665 0.2581225 -0.22627874
0.32891414 0.32625034 0.03558052 0.10251159 -0.087307565 -0.29902565 -0.0087361345 0.12486505
-0.19299561 -0.29135498 0.4214996 0.13076547 -0.20597728 -0.18492448 -0.40550914 0.38579783
0.041284457 -0.20864256 -0.24354681 0.16904326 -0.035655793 -0.31594202 0.17495975 -0.0034078849
-0.14311361 -0.1588928 0.35354036 -0.23763448 -0.2804923 -0.112246655 -0.1298084 0.21605448
0.415843 -0.28969 -0.05783512 -0.2536648 -0.052695785 0.10761905 0.22722141 0.26317838
-0.14702943 0.102146015 0.27747908 0.0416231 0.24943024 -0.027526036 0.04174272 -0.26014885
00000000: ba06 90bb df5b f2bd 7611 0dbd cee0 a8bd
00000010: 5740 98be a1e1 873d c53b 7ebe e74a 943e
00000020: 28a6 ca3e 08d0 d63e 3649 b6bd 9b6a 50be
00000030: 664e c03b 0b34 323e a228 843e 9db5 67be
00000040: 6f67 a83e 490a a73e e1bc 113d 99f1 d13d
00000050: 4fce b2bd e419 99be 0122 0fbc 3fb9 ff3d
00000060: a4a0 45be 7b2c 95be ccce d73e 62e7 053e
00000070: b5eb 52be d85c 3dbe e59e cfbe 4b87 c53e
00000080: e419 293d 65a6 55be 5664 79be ad19 2d3e
00000090: cf0b 12bd 27c3 a1be a628 333e d256 5fbb
000000a0: 608c 12be cbb4 22be 3e03 b53e 7456 73be
000000b0: b09c 8fbe 93e1 e5bd 7eec 04be 633d 5d3e
000000c0: 60e9 d43e 3f52 94be 85e4 6cbd 5ae0 81be
000000d0: 89d7 57bd 6067 dc3d bbac 683e 51bf 863e
000000e0: e28e 16be ee31 d13d bd11 8e3e fc7c 2a3d
000000f0: a46a 7f3e 487e e1bc 6afa 2a3d 3b32 85be

blocks.2.attn.v_FacTs.weight f4 [8, 8]
0.22972725 -0.013439359 0.0021967958 0.27999836 -0.11614153 0.31053513 -0.29514456 0.37163585
-0.16060053 0.065532714 0.0058828667 0.23635247 0.23952825 0.027536942 0.12716171 0.27386698
0.23860238 -0.04711616 -0.20613737 0.23020789 -0.3689444 0.17057186 -0.077149324 -0.12723039
-0.3391153 -0.075573675 -0.5110814 -0.2675448 0.42195246 -0.21321206 0.10508303 -0.33790588
-0.45845515 -0.23094885 -0.347189 -0.10442335 -0.2834468 -0.08776188 -0.43537894 -0.26430407
-0.22069591 0.252392 0.11386823 -0.25110325 0.0987219 0.23544775 -0.009545926 -0.3540756
0.16507442 0.0038173192 0.1564787 -0.14738998 -0.27586058 -0.19986226 -0.31023887 0.42608884
0.1247775 0.16922337 -0.1958147 -0.13595463 -0.08079454 -0.0695072 0.3073797 0.0035123993
00000000: 9f3d 6b3e c230 5cbc 1ef8 0f3b f25b 8f3e
00000010: 9cdb edbd 76fe 9e3e 301d 97be 0e47 be3e
00000020: 7774 24be 0436 863d 10c5 c03b 6206 723e
00000030: e546 753e 2795 e13c ae36 023e 4b38 8c3e
00000040: 2f54 743e e0fc 40bd ad15 53be 9ebb 6b3e
00000050: 48e6 bcbe 64aa 2e3e 7700 9ebd af48 02be
00000060: 85a0 adbe 5fc6 9abd 3bd6 02bf a2fb 88be
00000070: 270a d83e 4354 5abe c635 d73d 0002 adbe
00000080: a2ba eabe db7d 6cbe c2c2 b1be e9db d5bd
00000090: f01f 91be 80bc b3bd fde9 debe dd52 87be
000000a0: 1cfe 61be 8639 813e bf33 e93d 9b90 80be
000000b0: b52e ca3d 3719 713e 8466 1cbc 6649 b5be
000000c0: 4509 293e fd2b 7a3b f43b 203e 66ed 16be
000000d0: 993d 8dbe b1a8 4cbe a1d7 9ebe 5128 da3e
000000e0: 598b ff3d e448 2d3e a683 48be b137 0bbe
000000f0: 9c77 a5bd ca59 8ebd df60 9d3e 4830 663b

blocks.2.attn.proj_FacTs.weight f4 [8, 8]
-0.36118868 0.11508862 -0.0614445 0.03670665 -0.28846538 0.36993948 0.46952182 0.18159808
0.21317467 -0.11500975 -0.2640425 -0.26174742 0.22024071 -0.37532946 -0.1972054 -0.15814732
-0.1848027 0.329614 -0.34709042 0.15559848 0.0690579 0.16558303 -0.13509527 -0.36899832
0.12626585 -0.057548374 -0.37313613 -0.42826802 -0.11178995 -0.3670422 0.23849726 0.24927512
0.45999235 -0.1402708 0.32331142 -0.24392487 -0.005387926 -0.12013853 -0.28370732 0.4017387
0.33368987 -0.048347853 0.02198505 -0.29256576 0.17742047 -0.1861084 -0.36542544 -0.14419775
0.13629782 -0.09301222 -0.097935736 -0.1885093 -0.35091895 -0.35354933 -0.061033763 0.21460031
-0.4604549 0.113283984 0.10136484 -0.0685248 -0.42981547 -0.043462593 -0.4740157 -0.1204745
00000000: b9ed b8be 95b3 eb3d 3aad 7bbd b659 163d
00000010: bcb1 93be b568 bd3e 2a65 f03e d9f4 393e
00000020: 764a 5a3e 3b8a ebbd 9430 87be c203 86be
00000030: c886 613e 2f2b c0be 36f0 49be 5ff1 21be
00000040: eb3c 3dbe 2bc3 a83e d6b5 b1be 3555 1f3e
00000050: 3a6e 8d3d 998e 293e 6a56 0abe 59ed bcbe
00000060: d64b 013e d8b7 6bbd b30b bfbe f245 dbbe
00000070: 21f2 e4bd f5ec bbbe a038 743e fa41 7f3e
00000080: 1e84 eb3e 26a3 0fbe 1389 a53e 71c7 79be
00000090: 338d b0bb 310b f6bd 1642 91be b2b0 cd3e
000000a0: 66d9 aa3e 6608 46bd fe19 b43c 2ecb 95be
000000b0: b6ad 353e 3393 3ebe 0b19 bbbe 93a8 13be
000000c0: a891 0b3e 317d bebd 8892 c8bd 9508 41be
000000d0: a6ab b3be 6b04 b5be 8afe 79bd 2fc0 5b3e
000000e0: bfc0 ebbe 6f01 e83d 5f98 cf3d bb56 8cbd
000000f0: c610 dcbe d505 32bd 30b2 f2be 56bb f6bd

blocks.2.mlp.fc1_FacTs.weight f4 [32, 8]
0.19800206 0.34948578 0.10333123 -0.2584517 -0.11074035 0.106373385 -0.24266924 -0.07792933
0.21440932 -0.28673437 0.11913378 0.059337515 -0.050395172 -0.23576893 0.16785146 -0.41519454
-0.26529855 -0.09049937 0.16046187 -0.0659081 -0.41724214 -0.34719425 -0.27745795 -0.34397137
-0.42274916 -0.0664297 -0.14181615 0.049773287 -0.2054939 0.11584304 0.10273167 -0.06786612
-0.11484699 0.071674466 0.22504944 0.10047408 -0.36063525 0.25968683 -0.21001473 -0.101399586
-0.3703349 0.4172588 -0.20213492 0.23189232 -0.1123186 0.43154663 0.034616724 -0.11750456
0.13330542 0.011985225 0.07160697 -0.06540339 -0.018138051 0.23380172 0.082227245 0.09783209
-0.3369716 0.22973919 0.10190621 -0.26295733 0.14536333 -0.036140073 -0.31537846 -0.15752009
0.19242394 0.18262367 -0.04190269 0.21525452 0.07803131 -0.3104048 0.27516437 0.3077498
-0.14342558 -0.18733956 -0.10102142 -0.29942462 -0.33517206 -0.005100669 0.2134558 0.28350073
-0.2235565 0.31563044 -0.05090434 0.2438037 -0.34395358 -0.22740684 -0.012443256 -0.23518337
-0.0152488 -0.29177916 -0.27092412 0.24982516 -0.13565755 0.20051228 -0.22360314 0.07026735
-0.34990934 0.36293137 0.3462565 0.3120484 -0.19321594 -0.09119067 -0.2897775 0.19990782
-0.278271 -0.07693669 0.0964703 0.022764111 -0.1368073 -0.09122092 -0.34571376 -0.10442959
0.17473492 -0.39491335 0.07998103 -0.30965644 -0.019895976 0.1706439 0.20045212 -0.0033682631
0.04575142 -0.34675738 0.11878683 0.24030618 -0.3686431 -0.3565843 -0.32155818 -0.3715274
-0.30737433 0.29596448 -0.24378316 -0.11494712 -0.2810377 0.17006718 0.29017112 0.21386577
0.46770522 -0.22312267 0.098582335 -0.3921319 0.20119525 -0.46963388 0.21692288 0.27966335
0.02069852 -0.22880654 0.03134465 -0.3868583 -0.38392243 -0.36240712 0.261629 -0.12140527
0.19816424 0.21216735 -0.289831 -0.4153977 -0.3004023 -0.43766358 0.3897038 0.0005357756
0.017051065 -0.27083418 0.09465136 -0.36328003 -0.036756504 -0.13883586 0.036230907 0.26622877
-0.31658873 -0.22416463 0.46994832 0.21875578 0.030824551 0.36676487 -0.24923585 0.101638235
-0.06300245 -0.38021863 -0.22257107 0.059921827 0.06908651 -0.3661096 0.3024656 0.10189099
-0.33214235 -0.1753189 0.14152452 0.25128445 0.22278248 0.053480357 0.11962985 -0.22152188
-0.3167659 -0.17138255 -0.15759623 0.20389125 0.28927803 0.043725833 -0.030478647 0.15930267
0.0525689 0.2986776 -0.26112536 0.008422291 0.007750368 0.270089 0.046495512 0.3254113
0.14247651 0.05455907 -0.0082049845 -0.17107558 -0.118583485 0.2298908 -0.2950227 -0.32324445
-0.25998822 0.27286348 0.22752687 0.15464939 -0.29378796 0.098753326 -0.26135123 -0.06776873
-0.30254865 -0.2563734 0.13706802 -0.20374765 0.40678164 0.07957755 0.11291178 -0.18934338
0.13407497 -0.26484135 -0.16123666 -0.031429537 -0.023887685 -0.027606927 0.0721242 0.07486066
-0.064619035 -0.25357285 -0.047553167 0.10240672 -0.17827736 -0.14128868 -0.3208177 0.03906193
0.38019356 -0.34112045 -0.20749708 0.24206902 0.19033156 -0.0062138005 0.07803542 -0.0125423325
00000000: 0dc1 4a3e cdef b23e 539f d33d c853 84be
00000010: d6cb e2bd 4ada d93d 497e 78be 6a99 9fbd
00000020: 1e8e 5b3e d9ce 92be 69fc f33d e50b 733d
00000030: 2b6b 4ebd 696d 71be 41e1 2b3e 6194 d4be
00000040: 36d5 87be bc57 b9bd 1e50 243e d3fa 86bd
00000050: c3a0 d5be 72c3 b1be f80e 8ebe 041d b0be
00000060: 9472 d8be 4b0c 88bd 4138 11be 13df 4b3d
00000070: fe6c 52be 1e3f ed3d fb64 d23d 64fd 8abd
00000080: e634 ebbd 10ca 923d 5c73 663e 5bc5 cd3d
00000090: 2fa5 b8be acf5 843e 1a0e 57be 96aa cfbd
000000a0: 899c bdbe f2a2 d53e 75fc 4ebe 2e75 6d3e
000000b0: 4b07 e6bd aef3 dc3e 44ca 0d3d 3ba6 f0bd
000000c0: 3781 083e ad5d 443c ada6 923d 36f2 85bd
000000d0: 4096 94bc b869 6f3e c266 a83d 315c c83d
000000e0: 8b87 acbe c040 6b3e 34b4 d03d 58a2 86be
000000f0: 20da 143e 9d07 14bd 4979 a1be f24c 21be
00000100: c80a 453e b301 3b3e 28a2 2bbd ae6b 5c3e
00000110: e1ce 9f3d 61ed 9ebe 58e2 8c3e 6291 9d3e
00000120: 28de 12be f1d5 3fbe 51e4 cebd 2f4e 99be
00000130: ac9b abbe 8323 a7bb 2894 5a3e 0227 913e
00000140: ffeb 64be 509a a13e 1281 50bd ada7 793e
00000150: af1a b0be 57dd 68be ccde 4bbc e9d3 70be
00000160: 1ad6 79bc 1464 95be 91b6 8abe 2bd2 7f3e
00000170: d0e9 0abe 1753 4d3e 39f8 64be 54e8 8f3d
00000180: 5127 b3be 24d2 b93e 8848 b13e cfc4 9f3e
00000190: 66da 45be 2dc2 babd b75d 94be a3b4 4c3e
000001a0: 8979 8ebe fc90 9dbd 3892 c53d cd7b ba3c
000001b0: 3617 0cbe 09d2 babd 6501 b1be 2edf d5bd
000001c0: b6ed 323e 1532 cabe 18cd a33d 4a8b 9ebe
000001d0: e3fc a2bc 46bd 2e3e 5243 4d3e 14be 5cbb
000001e0: d765 3b3d 2f8a b1be 8246 f33d d312 763e
000001f0: cabe bcbe 3892 b6be 46a3 a4be d738 bebe
00000200: 2b60 9dbe a888 973e 4ba2 79be 6569 ebbd
00000210: 2ce4 8fbe 1726 2e3e 4f91 943e a1ff 5a3e
00000220: 0f77 ef3e 457a 64be 89e5 c93d 83c5 c8be
00000230: 2106 4e3e da73 f0be 0821 5e3e 0930 8f3e
00000240: f18f a93c 434c 6abe 3f63 003d 4b12 c6be
00000250: 7b91 c4be 6d8d b9be 3cf4 853e 54a3 f8bd
00000260: 91eb 4a3e 6642 593e bb64 94be 02af d4be
00000270: 55ce 99be 7115 e0be 4287 c73e 4b73 0c3a
00000280: adae 8b3c c7aa 8abe 92d8 c13d d7ff b9be
00000290: fd8d 16bd fd2a 0ebe dc66 143d 234f 883e
000002a0: eb17 a2be 6a8b 65be 119d f03e 8401 603e
000002b0: c583 fc3c 9bc8 bb3e af37 7fbe b527 d03d
000002c0: 6e07 81bd 04ac c2be ace9 63be 9770 753d
000002d0: 3a7d 8d3d b872 bbbe c5dc 9a3e 39ac d03d
000002e0: 900e aabe cc86 33be ceeb 103e 5ba8 803e
000002f0: 1721 643e 380e 5b3d 7f00 f53d a2d6 62be
00000300: 242f a2be e87e 2fbe e860 21be dec8 503e
00000310: 401c 943e dc19 333d 5bae f9bc 3d20 233e
00000320: 7d52 573d 45ec 983e 39b2 85be a6fd 093c
00000330: cdf6 fd3b 1b49 8a3e 1472 3e3d 4f9c a63e
00000340: 5de5 113e 5579 5f3d 336e 06bc 702e 2fbe
00000350: e6db f2bd 7e68 6b3e 370d 97be 4c80 a5be
00000360: 2d1d 85be c3b4 8b3e cefc 683e 695c 1e3e
00000370: 606b 96be 2f3f ca3d d4cf 85be 55ca 8abd
00000380: a8e7 9abe 6043 83be 8f5b 0c3e 39a3 50be
00000390: af45 d03e 8ef9 a23d 4b3e e73d 3be3 41be
000003a0: f34a 093e 4999 87be 391b 25be 42bc 00bd
000003b0: 1bb0 c3bc ec27 e2bc dab5 933d 8c50 993d
000003c0: fc56 84bd 4dd4 81be 1cc7 42bd 9dba d13d
000003d0: 578e 36be fbad 10be 3842 a4be 67ff 1f3d
000003e0: bba8 c23e 57a7 aebe 1d7a 54be f1e0 773e
000003f0: 47e6 423e 239d cbbb 09d1 9f3d 5b7e 4dbc
