Final Project/FacT-TT/patch_camelyon_best.pt (torch, 114305 bytes, 76 tensors)

blocks.0.attn.q_FacTs.weight f4 [8, 8]
0	0x3e92a681	0.28642657
1	0xbe1c9581	-0.15291406
2	0xbdab054d	-0.083506204
3	0x3e1c5744	0.15267664
4	0xbddb2ea2	-0.10702254
5	0x3eaa4175	0.33253065
6	0xbe520f0d	-0.20513554
7	0xbd0352e5	-0.032061476
8	0x3e9d5a56	0.30732983
9	0x3d5e3f19	0.054259393
10	0xbe2a1ba1	-0.16612102
11	0x3e9d0f18	0.30675578
12	0xbc6c9a55	-0.0144410925
13	0x3e2885af	0.16457246
14	0x3dc79472	0.097451106
15	0xbc70786e	-0.01467715
16	0xbe706b5f	-0.23478459
17	0xbe56d659	-0.20980205
18	0xbc8e8c51	-0.017400892
19	0xbea3bc17	-0.3197944
20	0x3e8a43e2	0.27004915
21	0xbe8cadd9	-0.27476385
22	0xbb188527	-0.0023272724
23	0xbe153515	-0.1457103
24	0xbbc60687	-0.0060432586
25	0x3d0884d6	0.033329807
26	0x3d508e6c	0.050917074
27	0xbd80d894	-0.06291309
28	0x3c391c46	0.011298245
29	0xbe9ee424	-0.31033432
30	0xbe897b1d	-0.2685174
31	0x3d354387	0.044253852
32	0x3e54a132	0.20764616
33	0x3d47dc51	0.048794094
34	0x3e063511	0.1310618
35	0x3e08f492	0.13374546
36	0x3d833359	0.06406278
37	0xbd8e36a1	-0.069440134
38	0x3e18195e	0.14853427
39	0x3e97a9b7	0.2962167
40	0xbebba1d8	-0.36646914
41	0x3e606fed	0.21917696
42	0x3df41145	0.119173564
43	0x3e5a4fba	0.21319476
44	0x3d980e8c	0.074246496
45	0x3e92579f	0.28582475
46	0xbe3ddf3f	-0.18542193
47	0x3e83eafa	0.2576521
48	0x3d623e53	0.05523522
49	0x3e68fa84	0.22751814
50	0xbe8ea319	-0.2785881
51	0xbd5252c2	-0.051348455
52	0x3da074b8	0.07834762
53	0x3eb99983	0.36249933
54	0xbec55108	-0.38538384
55	0x3c9214dd	0.017832214
56	0x3eca4fe8	0.3951409
57	0x3d433018	0.047653288
58	0xbe3ce67b	-0.18447296
59	0xbeb3806b	-0.35058913
60	0xbdc5ff28	-0.09667808
61	0x3e251219	0.16120185
62	0x3c034776	0.008012643
63	0x3e2b58f4	0.16733152

blocks.0.attn.k_FacTs.weight f4 [8, 8]
0	0x3e352de2	0.17693284
1	0xbe08f1d7	-0.13373505
2	0xbe9b7c39	-0.30368212
3	0xbe830f69	-0.25597695
4	0xbdc6a76d	-0.09699903
5	0xbe2ad57d	-0.16683002
6	0x3e226bf1	0.15861489
7	0xbe76495b	-0.2405142
8	0x3e1f5ab9	0.15561952
9	0x3c535f29	0.012901106
10	0x3eb44ca6	0.35214728
11	0x3d6e6f99	0.058211897
12	0x3e091705	0.13387688
13	0x3e1f0c76	0.15532097
14	0xbe84f2cc	-0.2596649
15	0x3e160333	0.14649658
16	0xbddd2fc5	-0.10800127
17	0xbca8e348	-0.020616189
18	0xbe3e6346	-0.18592557
19	0xbe334fd2	-0.17510918
20	0xbcdaff28	-0.026732996
21	0x3d8cba7f	0.06871509
22	0xbe0b8164	-0.13623577
23	0xbe832fd1	-0.2562242
24	0xbe6d50ea	-0.23175398
25	0xbe04273e	-0.12905595
26	0x3e04d87f	0.12973212
27	0xbc111491	-0.008855001
28	0x3e802bef	0.2503352
29	0x3eb06e9b	0.34459385
30	0x3df6bf41	0.120481975
31	0x3eba562d	0.36393872
32	0x3e3b4764	0.18288952
33	0xbe59bd70	-0.21263671
34	0xbe88b401	-0.26699832
35	0xbd55c08d	-0.052185584
36	0x3d340d77	0.043958154
37	0xbe213dad	-0.15746184
38	0x3c83cf47	0.016090048
39	0xbd9c806b	-0.07641681
40	0xbdb8c2e2	-0.09021546
41	0xbe7b6020	-0.24548388
42	0xbda192e6	-0.07889347
43	0x3e51ac59	0.20475902
44	0x3dd0378e	0.10166846
45	0xbe79d5da	-0.24397984
46	0x3eaf84a4	0.34280884
47	0x3d410886	0.04712727
48	0xbe86fc2a	-0.2636426
49	0x3db4557e	0.08805369
50	0xbd609425	-0.05482878
51	0xbeba3fa5	-0.36376682
52	0xbdaa4748	-0.08314377
53	0xbe58d5c6	-0.21175298
54	0x3eb8b11d	0.36072627
55	0xbe9873bb	-0.29775795
56	0xbe99f8ca	-0.30072623
57	0x3e33dcb6	0.17564663
58	0x3d9e80b8	0.07739395
59	0x3daf9435	0.0857319
60	0xbe5c3769	-0.21505512
61	0x3eacf188	0.33778024
62	0x3e04e2ea	0.12977186
63	0x3e928197	0.28614494

blocks.0.attn.v_FacTs.weight f4 [8, 8]
0	0x3e91e6ef	0.284965
1	0x3e4b399c	0.19846195
2	0xbe8c841b	-0.27444538
3	0x3e81c757	0.25347397
4	0x3e221ac8	0.15830529
5	0xbe3d57fe	-0.18490598
6	0x3e7423ce	0.23841783
7	0xbd2fb296	-0.042894922
8	0xbde851e3	-0.11343744
9	0xbe80f082	-0.25183493
10	0xbc79bced	-0.015242797
11	0x3eaed64f	0.3414788
12	0x3e90ac90	0.28256655
13	0xbe947098	-0.28992152
14	0xbd9c0429	-0.07617981
15	0xbe5b3acc	-0.21409148
16	0x3eaf4c66	0.34237975
17	0x3da8ef47	0.082487635
18	0x3b10e18a	0.0022107088
19	0xbea380a3	-0.3193408
20	0x3de88644	0.11353734
21	0xbec6e262	-0.3884459
22	0xbe623ad9	-0.22092761
23	0xbe81effa	-0.253784
24	0x3e96361a	0.2933815
25	0xbea8ba6b	-0.32954726
26	0xbc8071fa	-0.015679348
27	0xbeae9a12	-0.3410192
28	0xbcf8d6bf	-0.030375836
29	0x3ebef7a6	0.37298316
30	0xbe2aab82	-0.16666988
31	0x3db2d79f	0.08732533
32	0x3d8e04b6	0.06934492
33	0xbe011a4f	-0.12607692
34	0xbda72781	-0.08161832
35	0xbe53b0da	-0.20672932
36	0x3e7c3c10	0.24632287
37	0x3df2d787	0.11857515
38	0x3e9805bb	0.29691872
39	0xbeae05a6	-0.33988684
40	0x3e21a0b3	0.15783958
41	0xbe14f07d	-0.14544864
42	0xbcb7f0f5	-0.022453764
43	0x3e361e98	0.17785108
44	0xbe745fc4	-0.23864657
45	0xbe425e41	-0.18981268
46	0x3eb70158	0.35743213
47	0xbe22460b	-0.15847032
48	0x3ca8a048	0.02058424
49	0x3ec02b93	0.37533244
50	0x3eb5cc9a	0.3550766
51	0xbe3556f1	-0.17708947
52	0xbe9adb36	-0.3024537
53	0x3e878356	0.2646739
54	0xbea7d6a6	-0.3278095
55	0x3e59e370	0.21278167
56	0xbe626370	-0.22108245
57	0x3e82a18e	0.2551388
58	0x3e1a3fa0	0.15063334
59	0xbe25e983	-0.16202359
60	0xbe31fd49	-0.17381777
61	0x3e2e421c	0.17017406
62	0xbe6be2a6	-0.23035678
63	0xbe007bfa	-0.12547293

blocks.0.attn.proj_FacTs.weight f4 [8, 8]
0	0xbe55ecfb	-0.20891182
1	0xbe951284	-0.2911569
2	0x3e3c8e70	0.1841371
3	0xbd7f8694	-0.062384203
4	0x3e240076	0.16015801
5	0xbddf0d92	-0.1089126
6	0xbe5f8392	-0.21827534
7	0xbe4612d9	-0.19343127
8	0x3db01bf4	0.08599082
9	0x3c35037a	0.011048192
10	0xbea53963	-0.32270345
11	0x3db7513c	0.08951041
12	0x3ebfc86b	0.37457594
13	0x3de7785f	0.11302256
14	0xbeb3604c	-0.35034406
15	0xbe62d931	-0.22153164
16	0xbe0a5692	-0.13509586
17	0x3e125f05	0.1429406
18	0x3eac7c1c	0.33688438
19	0xbe5de00d	-0.216675
20	0x3e2a6cb7	0.16643034
21	0x3d5f171e	0.054465406
22	0xbd73eca6	-0.059551857
23	0xbc94209f	-0.018081961
24	0x3de0f023	0.109833024
25	0xbdb2cc21	-0.08730341
26	0x3e2ef13a	0.17084208
27	0xbd9c2108	-0.07623488
28	0x3cac5d51	0.02104059
29	0xbe07be7a	-0.13256255
30	0xbcd42564	-0.025896735
31	0x3d02d955	0.031945545
32	0x3e0d49d0	0.13797688
33	0x3e99410f	0.29932448
34	0xbedfccc8	-0.43710923
35	0xbe50b71b	-0.20382349
36	0xbe61116e	-0.21979305
37	0xbdc60b84	-0.09670165
38	0x3e9f8924	0.31159317
39	0xbea57fdf	-0.3232412
40	0xbea2f838	-0.3183
41	0x3eb32132	0.34986264
42	0x3ded3c91	0.11583818
43	0xbea076d5	-0.31340662
44	0xbd0b752e	-0.034047298
45	0x3d523947	0.051324155
46	0x3e3b14b6	0.1826962
47	0xbec2f547	-0.38077757
48	0x3e8b023c	0.27150142
49	0xbb388981	-0.002815813
50	0xbe995ed8	-0.29955173
51	0xbe2fdf28	-0.17174971
52	0xbe592bdf	-0.21208142
53	0xbdbefbb5	-0.09325353
54	0x3ea379bd	0.31928816
55	0xbe5d265b	-0.21596663
56	0xbe5d1ece	-0.21593782
57	0xbe9ee817	-0.31036445
58	0xbeb3e66a	-0.3513673
59	0x3e9bee75	0.30455366
60	0x3e7164d3	0.23573618
61	0x3df037ec	0.11729416
62	0x3e89df53	0.26928195
63	0x3e90d5f2	0.28288227

blocks.0.mlp.fc1_FacTs.weight f4 [32, 8]
0	0xbe27e291	-0.16395022
1	0xbea29924	-0.31757462
2	0x3bda09f5	0.006654019
3	0x3e93e5d9	0.28886297
4	0xbd0fd4e6	-0.035115145
5	0xbe96f0f7	-0.29480717
6	0x3e5b95ad	0.21443816
7	0xbe3d2a6f	-0.18473218
8	0xbc19dc81	-0.009390951
9	0x3d686e88	0.056746036
10	0x3e78a3e7	0.24281274
11	0xbe16cc9a	-0.14726487
12	0x3ec6e832	0.38849026
13	0xbe3b1594	-0.1826995
14	0x3c81b993	0.015835559
15	0xbe104d25	-0.14091928
16	0x3dd228c1	0.102616794
17	0xbdd008dc	-0.1015794
18	0x3eb8adb0	0.36070013
19	0xbd925179	-0.07144446
20	0x3cd27c23	0.025693959
21	0xbe2f249d	-0.1710381
22	0xbd784600	-0.060613632
23	0x3dc3c0ee	0.09558283
24	0x3e44cf31	0.19219662
25	0xbeac0d0f	-0.33603713
26	0x3e18a104	0.14905173
27	0x3c9454f0	0.018106908
28	0xbc8caa30	-0.017170995
29	0xbe938b7a	-0.2881735
30	0x3e014634	0.12624437
31	0xbe9d94ee	-0.30777687
32	0xbdcf355d	-0.101176
33	0x3d811f3d	0.06304786
34	0x3e0180a8	0.12646735
35	0xbed51a38	-0.41621566
36	0xbbf8b438	-0.007589843
37	0xbd9968f6	-0.07490723
38	0x3df4a7e8	0.11946088
39	0x3e93b91d	0.28852168
40	0x3ea47266	0.3211853
41	0x3c4787fa	0.012178415
42	0x3e50292e	0.20328209
43	0x3d8ac071	0.067749865
44	0x3dc458ac	0.09587225
45	0xbe8d5bb9	-0.2760904
46	0xbd77aa75	-0.060465295
47	0xbce5ba2b	-0.028042873
48	0xbe984836	-0.29742593
49	0x3cb49421	0.02204329
50	0xbdad1bf3	-0.084525965
51	0x3ec1edb1	0.37876657
52	0x3e92b12a	0.2865079
53	0xbe6cc27b	-0.23121063
54	0x3eac9dc5	0.3371412
55	0xbdf970e2	-0.12179734
56	0xbdc236f8	-0.09483141
57	0x3e999a2b	0.30000433
58	0x3e869f69	0.26293495
59	0x3ea23b2b	0.31685767
60	0x3d94d069	0.072663136
61	0xbe9f38a1	-0.31097892
62	0x3d1f9af4	0.038966134
63	0x3d1d0806	0.03833773
64	0xbd25c54a	-0.040471353
65	0x3e33dac9	0.17563929
66	0x3d00116b	0.03126661
67	0xbe964ad6	-0.2935397
68	0x3dc5473e	0.09632729
69	0xbe950172	-0.29102665
70	0x3e93cbc2	0.28866392
71	0xbec01367	-0.37514803
72	0x3e38a70c	0.18032473
73	0xbed4b3e7	-0.41543505
74	0xbd4c51a5	-0.04988255
75	0x3d55b6e3	0.052176367
76	0xbe19446b	-0.14967506
77	0x3ea9158f	0.3302426
78	0xbec8539e	-0.39126295
79	0x3ce91dfc	0.02845668
80	0xbe89928c	-0.2686962
81	0x3e7b4e61	0.24541618
82	0xbd832836	-0.06404154
83	0x3ea9e01e	0.331788
84	0xbe8099df	-0.25117394
85	0x3e0dc8cf	0.13846134
86	0xbe2fa07a	-0.1715106
87	0x3e9a47cd	0.30132905
88	0x3ef17422	0.47158915
89	0xbe603537	-0.218953
90	0x3e88b26a	0.2669862
91	0x3e9d8a2f	0.30769488
92	0x3d97d33b	0.07413336
93	0x3eecc9d8	0.46247745
94	0x3dcdf729	0.10056908
95	0xbebac7ab	-0.3648046
96	0xbe976eb0	-0.29576635
97	0xbe81b9ea	-0.25337154
98	0x3e9fe476	0.3122899
99	0xbdd05a52	-0.10173477
100	0xbeafdd12	-0.3434835
101	0x3e274ce3	0.16337924
102	0x3d6a29b3	0.057168674
103	0x3e4090bf	0.18805216
104	0xbe1da40c	-0.1539461
105	0x3e1c5684	0.15267378
106	0xbe57d41c	-0.21077007
107	0x3e498534	0.19679719
108	0xbe1d33d1	-0.15351798
109	0xbe8fe38c	-0.28103292
110	0xbd5921c8	-0.053010732
111	0x3ea774c9	0.32706288
112	0x3e130f80	0.14361382
113	0x3e86c400	0.2632141
114	0x3ea41fd9	0.32055548
115	0x3dd2c858	0.10292119
116	0x3e282c17	0.16423069
117	0xbe81c85d	-0.25348178
118	0x3ec6dd0d	0.38840523
119	0xbe86d307	-0.26332876
120	0x3e1f6e05	0.15569313
121	0xbe94ab6a	-0.2903703
122	0xbe85ab4e	-0.26107258
123	0xbd60032e	-0.054690532
124	0xbe59d24f	-0.21271633
125	0x3e7abab9	0.24485292
126	0x3e4525d2	0.19252709
127	0xbeb71398	-0.35757136
128	0x3de37e2b	0.11108049
129	0x3ce5a7ab	0.028034052
130	0xbecc1ca2	-0.39865595
131	0xbe290601	-0.16506197
132	0xbe920752	-0.2852121
133	0xbe75fca5	-0.24022157
134	0x3de4e7a9	0.11176998
135	0xbe928a6b	-0.2862123
136	0x3d701ce2	0.058621295
137	0x3ea21c92	0.31662422
138	0x3d5f9632	0.054586597
139	0xbdac50f1	-0.08413876
140	0x3e32b4c6	0.17451772
141	0x3e4f304a	0.20233265
142	0x3ea91905	0.330269
143	0xbe8454f8	-0.25846076
144	0xbe9f726f	-0.31141993
145	0x3ea2ec34	0.31820834
146	0xbe4181ca	-0.18897167
147	0xbe894a75	-0.2681462
148	0x3e95d06e	0.29260582
149	0xbda41b33	-0.08013
150	0x3e5bb081	0.2145405
151	0x3ebce6d4	0.36894858
152	0xbe8dec24	-0.27719223
153	0x3e4da9f9	0.2008437
154	0x3ec5c048	0.3862326
155	0xbe2fcf38	-0.17168891
156	0x3e8a5b51	0.27022794
157	0xbeb90e6c	-0.36143816
158	0xbe96c9b6	-0.29450768
159	0xbe177f47	-0.14794646
160	0xbcd61267	-0.026131822
161	0x3e00e40f	0.12586997
162	0xbe561e15	-0.20909913
163	0x3ddd7b8b	0.108145796
164	0xbd2e9ffb	-0.042633038
165	0xbe934275	-0.2876164
166	0xbd6dd2cf	-0.05806237
167	0xbe522980	-0.20523643
168	0x3d08aaa4	0.03336586
169	0xbddcf37e	-0.1078863
170	0xbd57b0a0	-0.052658677
171	0x3e9d2326	0.3069088
172	0xbdd5ca24	-0.10438946
173	0x3e5e2448	0.21693528
174	0xbd768c6c	-0.06019251
175	0xbe463ba1	-0.19358684
176	0x3d5d4ce0	0.05402839
177	0x3d0588da	0.032601215
178	0x3e565a4b	0.20932882
179	0xbe3cb6a2	-0.18429044
180	0xbe9804b8	-0.296911
181	0x3d07c927	0.03315082
182	0xbd889746	-0.06669478
183	0x3e2cacf8	0.16862857
184	0x3d084059	0.03326449
185	0x3e59e883	0.21280102
186	0xbc879691	-0.016551288
187	0x3dead6ed	0.11466775
188	0xbe907740	-0.2821598
189	0xbe316dbc	-0.17327017
190	0x3d931634	0.07181969
191	0x3e9972d7	0.29970428
192	0xbe8586db	-0.2607945
193	0xbe616f8c	-0.22015208
194	0x3eb51928	0.35370755
195	0x3d8cdb1e	0.06877731
196	0x3d3cb690	0.046072543
197	0xbe8df143	-0.2772313
198	0xbe90bb1d	-0.28267756
199	0xbe94de3e	-0.29075807
200	0xbea418f1	-0.3205028
201	0xbeae49a9	-0.34040573
202	0x3dd52a2b	0.104084335
203	0xbd0fbf5c	-0.035094604
204	0x3e631a19	0.22177924
205	0xbe7ffd26	-0.24998912
206	0x3e09a656	0.13442358
207	0x3e2eedd9	0.17082919
208	0xbed3e039	-0.41382006
209	0xbccf6a8f	-0.025319366
210	0x3e8b55ba	0.27213842
211	0x3e0121a1	0.12610485
212	0x3d6df537	0.058095183
213	0xbe0827a6	-0.13296375
214	0xbe53fe3d	-0.20702453
215	0xbdc70724	-0.09718159
216	0xbdb2487a	-0.0870523
217	0xbd815e4d	-0.063168146
218	0x3db1ffe6	0.08691387
219	0xbccf1f1e	-0.025283393
220	0x3e7fc1bc	0.24976248
221	0xbea5af78	-0.32360435
222	0x3e3645f2	0.1780012
223	0xbeaaabca	-0.3333419
224	0xbe659da3	-0.22423415
225	0x3d9a1c6c	0.07524952
226	0xbea89b57	-0.32931015
227	0xbde83ae0	-0.113393545
228	0x3d7f3d32	0.06231422
229	0xbeee586c	-0.46551836
230	0x3cb99de1	0.02265829
231	0x3eb7597d	0.35810462
232	0x3eb5f36c	0.3553728
233	0xbe771f08	-0.24132931
234	0x3e152ae4	0.14567143
235	0x3e895ef3	0.26830253
236	0x3ebcafc1	0.3685284
237	0xbd596baa	-0.053081192
238	0x3dfa72c0	0.12228918
239	0xbe883253	-0.26600894
240	0x3e94f48c	0.29092824
241	0x3c84891e	0.016178664
242	0xbe13ba7c	-0.14426607
243	0x3e869bdb	0.26290783
244	0x3e8ee11e	0.27906126
245	0xbca4c94d	-0.020115519
246	0xbc046e4b	-0.0080829365
247	0xbea063d8	-0.31326175
248	0xbe566f4f	-0.20940898
249	0xbe5b2e8e	-0.21404478
250	0x3d213007	0.039352443
251	0x3ea31bc1	0.31857112
252	0x3ea7adec	0.3274988
253	0x3e7f9715	0.24959977
254	0x3dd4bd01	0.10387612
255	0xbcd95407	-0.026529325

blocks.0.mlp.fc2_FacTs.weight f4 [8, 32]
0	0xbb208f28	-0.002449939
1	0x3e7b68a5	0.24551637
2	0xbde4312a	-0.1114219
3	0xbdd5cc0d	-0.1043931
4	0x3c9bab16	0.019002479
5	0xbd52bcac	-0.051449463
6	0x3c8100cc	0.01574745
7	0x3e452240	0.19251347
8	0x3df357e6	0.11882
9	0x3e3e99d2	0.18613365
10	0x3daa3c05	0.08312229
11	0xbc482d31	-0.012217806
12	0x3c62ccd6	0.013842782
13	0x3e39fd8b	0.18163125
14	0xbdb2f882	-0.08738805
15	0xbdf74103	-0.12072947
16	0xbd6ade77	-0.057341065
17	0x3e6c0482	0.23048595
18	0x3dd5dcf4	0.10442534
19	0x3e8f9d6d	0.28049794
20	0x3bd37c4f	0.0064540277
21	0x3e0dca00	0.13846588
22	0x3e74733e	0.23872086
23	0xbe1f885c	-0.1557936
24	0xbe07c3de	-0.13258311
25	0x3e437e86	0.19091234
26	0xbe1a94e3	-0.15095858
27	0xbd83ef03	-0.06442072
28	0xbd52232c	-0.051303074
29	0x3df58e78	0.119900644
30	0xbd4485e9	-0.04797927
31	0xbdd16a75	-0.10225383
32	0xbdbb7df3	-0.09154882
33	0xbe0aae36	-0.13543019
34	0x3e0b1da3	0.13585524
35	0x3de69304	0.1125851
36	0x3d45f192	0.048326083
37	0x3ddac0d1	0.10681308
38	0xbc4722cc	-0.012154292
39	0x3df2ccdd	0.11855481
40	0x3bbd2632	0.0057723755
41	0xbd146010	-0.036224425
42	0xbc987e93	-0.018615043
43	0x3e062e01	0.13103487
44	0x3cce65e4	0.02519507
45	0x3dbdb793	0.0926353
46	0xbe1dab66	-0.15397415
47	0x3dc82be4	0.097739965
48	0xbd97586b	-0.07389911
49	0xbe1887a5	-0.14895494
50	0x3ca564ff	0.02018976
51	0xbd928b04	-0.071554214
52	0x3e45b85b	0.19308607
53	0xbe62cf79	-0.22149457
54	0xbe351409	-0.17683424
55	0xbde53437	-0.111916
56	0xbe469143	-0.1939135
57	0x3c5c9676	0.013463607
58	0xbcbdb176	-0.023155909
59	0xbe0ba39f	-0.13636635
60	0x3e2947ad	0.16531248
61	0xbe3145f4	-0.17311841
62	0x3c91b9a3	0.017788714
63	0x3dd82818	0.10554522
64	0x3e0ce376	0.13758644
65	0x3e200a50	0.15628934
66	0xbd1dbbb2	-0.03850908
67	0xbd8cffb5	-0.0688471
68	0x3d0d723d	0.034532774
69	0xbe4ce227	-0.20008145
70	0x3e258c5a	0.16166821
71	0xbe6d4db5	-0.23174174
72	0x3cda8ed2	0.02667943
73	0xbda00a45	-0.07814459
74	0xbe1c5f85	-0.15270813
75	0x3d731c0a	0.059352912
76	0xbda0eab6	-0.078572676
77	0xbe55657c	-0.20839494
78	0x3e2d65c5	0.16933353
79	0x3d59b084	0.053146854
80	0xbdd38f52	-0.103300706
81	0xbdc9eb06	-0.0985928
82	0xbb03ff30	-0.0020141117
83	0xbd9b2635	-0.07575647
84	0x3e783e30	0.24242473
85	0x3d1994f5	0.037495572
86	0x3d62f009	0.055404697
87	0x3e179db6	0.14806256
88	0xbc7894ab	-0.015172164
89	0x3cef8c42	0.029241685
90	0xbd46e7c0	-0.048560858
91	0x3e5e3d18	0.21702993
92	0xbdaa3adc	-0.08312008
93	0x3e0308af	0.12796281
94	0x3e1e7fb4	0.15478402
95	0xbd856ba3	-0.06514671
96	0xbe1145ce	-0.14186785
97	0xbbc19a80	-0.0059083104
98	0xbdf329fd	-0.11873243
99	0xbcf4458a	-0.029818315
100	0x3cebe2a5	0.028794596
101	0x3e4878cb	0.19577329
102	0x3e4d40bf	0.2004423
103	0x3db98c57	0.09059971
104	0xbe0b75d9	-0.13619174
105	0x3d5788f5	0.052620847
106	0x3e75438c	0.23951548
107	0xbe1976ce	-0.14986727
108	0x3dfbec68	0.1230095
109	0x3e0be5bb	0.13661854
110	0xbe340203	-0.17578892
111	0xbd0d0007	-0.034423854
112	0x3e0e5a5d	0.13901658
113	0xbc82930a	-0.015939254
114	0x3e3ffb53	0.18748216
115	0x3e0d7967	0.13815843
116	0xbd2f05f3	-0.042730283
117	0x3e1329bf	0.14371394
118	0x3e2879d7	0.16452728
119	0xbdeb1506	-0.11478619
120	0xbe22572a	-0.15853563
121	0x3d6204e7	0.055180456
122	0x3c598854	0.013277132
123	0x3d6e41e9	0.058168326
124	0xbd899f05	-0.06719784
125	0x3b17cf99	0.002316451
126	0xbd1ebcb4	-0.03875418
127	0xbe129de7	-0.14318047
128	0x3db2dfab	0.087340675
129	0xbdc7509a	-0.097321704
130	0x3ccf675b	0.025317838
131	0xbe10cf22	-0.14141515
132	0xbdc518c2	-0.09623863
133	0x3e10c57c	0.14137834
134	0x3c2b4b55	0.010454972
135	0xbcab5931	-0.020916553
136	0x3d4ca647	0.049963262
137	0x3e130b52	0.14359787
138	0xbcb6865a	-0.02228086
139	0xbe111e1e	-0.14171645
140	0x3b84b007	0.0040493044
141	0xbd1f37a3	-0.03887142
142	0xbe293eef	-0.16527914
143	0x3e0288d9	0.12747516
144	0xbdbe81ea	-0.09302123
145	0xbe5ffef1	-0.21874596
146	0xbe14721e	-0.14496657
147	0xbdb3df83	-0.08782866
148	0x3e4a5102	0.19757465
149	0xbd8f20b1	-0.06988657
150	0xbe7259cf	-0.23667072
151	0xbdd8b9e5	-0.105823316
152	0x3d5537a8	0.05205503
153	0x3b03fe37	0.0020140538
154	0x3d03d202	0.0321827
155	0x3d8ab621	0.067730196
156	0xbdfd0bb9	-0.123557515
157	0xbd8ea578	-0.069651544
158	0x3c356314	0.011070985
159	0xbd572da1	-0.05253375
160	0x3d8052cc	0.06265792
161	0x3dcd61db	0.1002843
162	0xbe6ea81a	-0.23306313
163	0x3d86b053	0.065766
164	0x3dd1c832	0.10243262
165	0xbcd662ca	-0.026170153
166	0x3e0a3df5	0.13500197
167	0x3cbf93cf	0.02338591
168	0xbdbabf69	-0.0911854
169	0xb8f5b9fe	-0.00011717154
170	0x3e1edbec	0.15513581
171	0x3df9dce8	0.12200338
172	0x3c3bce46	0.011462754
173	0xbe2f44d4	-0.171161
174	0xbe5f2f01	-0.21795274
175	0x3dc6026f	0.09668433
176	0x3caa408a	0.020782728
177	0x3c7939fe	0.01521158
178	0x3defd1e9	0.11709959
179	0x3df2c3c7	0.11853748
180	0x3d1098d1	0.035301987
181	0x3b0a60a1	0.0021114724
182	0xbd2ff9cb	-0.04296283
183	0x3e3aacac	0.18229932
184	0x3d036d85	0.032086868
185	0x3d499f94	0.04922445
186	0x3e20a0b0	0.15686297
187	0x3d09b3c7	0.033618715
188	0xbd17aa17	-0.037027445
189	0xbe3a8160	-0.18213415
190	0x3ce3b87c	0.02779793
191	0x3e45e969	0.1932732
192	0x3dd1cb4b	0.10243853
193	0x3d8f8745	0.070082225
194	0xbe30ed96	-0.17278132
195	0x3e1b7422	0.1518102
196	0x3da39e03	0.07989123
197	0xbd0bf3c5	-0.034168024
198	0x3e807852	0.25091797
199	0x3e314bd2	0.1731408
200	0xbe6f9962	-0.23398355
201	0xbdf00645	-0.11719946
202	0x3ddef798	0.108870685
203	0x3dd56eb5	0.10421506
204	0xbcb35399	-0.021890448
205	0x3dec3932	0.11534347
206	0x3d9a908e	0.07547103
207	0xbe5d04c3	-0.21583848
208	0x3dbbe825	0.091751374
209	0x3d55ca16	0.052194677
210	0xbd89b2ec	-0.0672358
211	0x3d89065c	0.06690666
212	0xbdccce7a	-0.1000032
213	0xbe6dafcd	-0.23211594
214	0x3e4ab67d	0.19796176
215	0x3d29dbcf	0.04146939
216	0x3d65c998	0.056100458
217	0xbd3da0ac	-0.046295807
218	0x3db660d3	0.089051865
219	0xbdf389b3	-0.118914984
220	0x3d82ac90	0.0638057
221	0x3e3d6a6d	0.1849763
222	0x3d853cd7	0.06505745
223	0xbe1a86aa	-0.15090433
224	0x3e045d76	0.12926278
225	0x3d23dc06	0.040004753
226	0x3cdd31ef	0.02700135
227	0x3dd12244	0.10211614
228	0x3d9fb29d	0.0779774
229	0x3d9ba19d	0.07599185
230	0xbd1baba6	-0.038005494
231	0xbd07d728	-0.033164173
232	0xbe5d634f	-0.21619914
233	0xbd3ea4f0	-0.046544015
234	0x3d951c90	0.072808385
235	0xbe07190c	-0.13193148
236	0x3e46b492	0.1940482
237	0xbe0e1110	-0.13873696
238	0x3d090347	0.03345039
239	0x3d8f2194	0.069888264
240	0xbdafb39a	-0.08579178
241	0x3df99169	0.12185938
242	0x3e89d5bb	0.26920876
243	0xbd012a7b	-0.031534653
244	0xbdf6b4f9	-0.120462365
245	0xbe35b686	-0.17745408
246	0x3e2b0b33	0.16703491
247	0xbd6068e7	-0.054787543
248	0xbe0d6bf2	-0.13810709
249	0xbb080706	-0.002075614
250	0xbd96fe89	-0.073727675
251	0xbd24215d	-0.04007088
252	0x3d142ab8	0.036173552
253	0x3d0679fa	0.03283117
254	0xbe306ecc	-0.17229766
255	0x3de29101	0.110628136

blocks.1.attn.q_FacTs.weight f4 [8, 8]
0	0x3e55f7b1	0.20895268
1	0x3e82b378	0.2552755
2	0x3e4923ee	0.19642612
3	0x3cdd4780	0.027011633
4	0xbd8642c8	-0.06555706
5	0xbe879d98	-0.26487422
6	0xbd6c54ef	-0.057698186
7	0xbe7f85eb	-0.2495343
8	0x3e3fd341	0.1873293
9	0x3e713575	0.23555548
10	0x3ec43d3d	0.3832797
11	0x3deb6778	0.114943445
12	0xbe4de4f4	-0.2010687
13	0x3d744480	0.05963564
14	0x3e67be1d	0.22631116
15	0xbe449d70	-0.19200683
16	0xbed3c078	-0.4135778
17	0xbda1ec8a	-0.07906444
18	0xbe822b9e	-0.25423902
19	0xbe102a71	-0.1407869
20	0x3e9dcc07	0.30819723
21	0x3d4068b8	0.046974868
22	0x3dd82e3b	0.10555693
23	0xbec806a1	-0.39067557
24	0x3d9f7473	0.07785883
25	0xbe27adde	-0.16374919
26	0x3e7d388e	0.24728605
27	0x3e782e74	0.2423647
28	0xbe3f7944	-0.18698603
29	0xbd3832dd	-0.044970382
30	0x3e7c82ab	0.24659221
31	0xbea55d0c	-0.32297552
32	0x3eafab21	0.34310248
33	0x3c5c537e	0.01344764
34	0xbe9668e0	-0.29376888
35	0x3da237fd	0.07920835
36	0x3e39547a	0.18098632
37	0xbd3987ed	-0.045295645
38	0xbe0558c5	-0.13022144
39	0x3e9a14ab	0.30093893
40	0x3de50ef3	0.11184492
41	0xbd5c6fba	-0.05381749
42	0xbec4060b	-0.3828586
43	0xbc4f5970	-0.012655601
44	0x3e8033db	0.25039563
45	0xbe9208c9	-0.28522328
46	0x3eb04fb3	0.34435806
47	0xbe224e65	-0.15850218
48	0x3cac64cd	0.02104416
49	0x3d9f0faf	0.07766663
50	0x3e6a318c	0.22870463
51	0x3e54be66	0.20775756
52	0xbe9567ea	-0.29180843
53	0xbdcbbe04	-0.09948352
54	0x3c0c75ff	0.008573054
55	0x3eac4f94	0.33654463
56	0xbea9855b	-0.33109555
57	0xbe7fc437	-0.24977194
58	0xbe706063	-0.23474269
59	0x3dca0b5f	0.0986545
60	0x3e43e787	0.1913129
61	0xbe9528da	-0.2913273
62	0x3ebee311	0.37282613
63	0x3e1f9d42	0.15587333

blocks.1.attn.k_FacTs.weight f4 [8, 8]
0	0x3e1e6b65	0.15470655
1	0xbd88b58e	-0.06675254
2	0xbd02e746	-0.03195884
3	0xbdbf91f2	-0.09354009
4	0x3e73a0f3	0.23791866
5	0xbea5419a	-0.32276613
6	0x3e03130e	0.12800238
7	0x3e194547	0.14967833
8	0xbbef1c6b	-0.007297089
9	0x3e321a9b	0.17392962
10	0xbd57bef3	-0.052672338
11	0x3e61dfcb	0.22058026
12	0x3e9cc41e	0.30618376
13	0x3e2e8dcb	0.17046277
14	0xbd5b0ca1	-0.05347884
15	0xbedb5e94	-0.42845595
16	0x3de4e05b	0.11175605
17	0xbd9c60f5	-0.076356806
18	0x3e51f8cd	0.20505066
19	0xbe459226	-0.19294032
20	0xbdf09da3	-0.11748817
21	0x3e5994e6	0.21248206
22	0x3d04264f	0.032263096
23	0xbe84af3d	-0.25914946
24	0x3c8330b8	0.016014442
25	0x3e3787c7	0.17922889
26	0x3ebab761	0.36468032
27	0xbe2eabef	-0.17057775
28	0x3e87fee7	0.26561663
29	0xbcc3f9bc	-0.023922794
30	0x3aaa73c5	0.0013004473
31	0xbcca6cbf	-0.024710057
32	0xbc31df43	-0.010856452
33	0x3d0cb5f7	0.034353223
34	0xbe622c81	-0.2208729
35	0xbe1ea765	-0.15493543
36	0xbe903495	-0.28165117
37	0xbe080aac	-0.13285321
38	0xbe450b0f	-0.192425
39	0x3ec80b85	0.3907129
40	0xbed9b6b3	-0.425222
41	0xbe0a0e0e	-0.13481924
42	0xbea80242	-0.32814223
43	0xbcecaff7	-0.0288925
44	0x3e75a825	0.23989923
45	0x3e12e8f2	0.14346674
46	0xbdd2b116	-0.10287683
47	0xbe8335df	-0.25627038
48	0x3e873054	0.2640406
49	0x3e54ab5c	0.20768493
50	0xbe995411	-0.2994695
51	0x3e763af8	0.24045932
52	0xbe1dd15c	-0.15411896
53	0x3e4694d4	0.19392711
54	0x3dbf697d	0.09346292
55	0x3ea320c0	0.31860924
56	0x3d819aae	0.06328331
57	0xbec74ed3	-0.38927326
58	0x3dd03450	0.10166228
59	0xbe937154	-0.287974
60	0x3e6bf24b	0.23041646
61	0xbda5a8aa	-0.08088811
62	0x3e05ca5f	0.1306548
63	0xbe0f72ea	-0.1400868

blocks.1.attn.v_FacTs.weight f4 [8, 8]
0	0xbd70eef1	-0.058821622
1	0x3e0651cc	0.1311714
2	0x3e28b150	0.1647389
3	0xbe5f0ed0	-0.21782994
4	0x3ec30191	0.38087133
5	0x3e86483c	0.26226985
6	0xbd5bedb3	-0.053693485
7	0x3caccc9b	0.021093657
8	0xbe9e0dae	-0.30869812
9	0x3d4e0078	0.050293416
10	0x3cd55f41	0.026046397
11	0xbe3eaa9a	-0.18619767
12	0x3c9eff87	0.019408954
13	0x3e95b642	0.29240614
14	0xbe6d6070	-0.23181319
15	0x3c4dc797	0.012559793
16	0x3baf5658	0.005350869
17	0x3e671b5d	0.22569032
18	0x3eb6aa78	0.35676932
19	0xbe003f82	-0.12524226
20	0xbeb66fdf	-0.35632226
21	0x3ebc841a	0.36819535
22	0x3e3461a4	0.17615372
23	0x3e24822a	0.16065279
24	0x3dcfe0f0	0.10150325
25	0xbcc17537	-0.023615463
26	0x3de004b3	0.10938396
27	0x3e5908f2	0.21194819
28	0x3e238de5	0.15972097
29	0xbe6598d3	-0.22421579
30	0xbeb06b6b	-0.34456953
31	0x3deea65a	0.11652823
32	0xbdbec221	-0.09314371
33	0xbdf4e912	-0.11958517
34	0x3df202cf	0.11816942
35	0xbe6ca1b3	-0.23108558
36	0xbe9f926d	-0.31166402
37	0x3e740ee6	0.23833808
38	0xbde823b2	-0.11334933
39	0xbd845053	-0.06460633
40	0xbd363b02	-0.044489868
41	0x3ebb868d	0.36626092
42	0x3e259828	0.16171324
43	0x3df618f1	0.12016476
44	0x3eb5c1c5	0.35499397
45	0xbe9fdeb7	-0.31224605
46	0x3eb38f2f	0.35070178
47	0xbe7d2b80	-0.24723625
48	0xbd295683	-0.04134227
49	0xbed2c40d	-0.411652
50	0xbd4b2578	-0.04959628
51	0x3e847091	0.2586713
52	0xbe3da273	-0.18519
53	0xbea43eb3	-0.32079086
54	0x3dee93c6	0.11649279
55	0x3eb22e7f	0.348011
56	0x3e104325	0.14088114
57	0x3d8c1b7d	0.068411805
58	0x3a01c564	0.0004950373
59	0xbeaa3593	-0.33244
60	0xbe16f247	-0.14740859
61	0xbe53ebcd	-0.2069542
62	0x3ec5c811	0.386292
63	0x3d0d341d	0.034473527

blocks.1.attn.proj_FacTs.weight f4 [8, 8]
0	0xbdef3295	-0.1167957
1	0x3ebeaa67	0.37239382
2	0xbe964c64	-0.29355156
3	0x3e3f9b35	0.1871155
4	0xbeb2839a	-0.3486603
5	0xbe73b8f1	-0.23801018
6	0xbda50b8c	-0.08058843
7	0x3e998df9	0.2999113
8	0x3d83997d	0.0642576
9	0x3cf3777c	0.02972006
10	0xbe04dd1a	-0.12974969
11	0x3e11e26d	0.14246531
12	0xbe920be7	-0.28524706
13	0x3e02dc01	0.12779237
14	0xbd621077	-0.055191483
15	0xbe9f3fa4	-0.3110324
16	0x3e663deb	0.22484557
17	0x3e6bfecd	0.23046418
18	0xbeb87549	-0.3602698
19	0x3e6b584a	0.22982898
20	0xbe4e38d9	-0.20138873
21	0xbeb4fbbc	-0.35348308
22	0x3e8d3b3e	0.2758426
23	0xbe4c49fd	-0.199501
24	0xbcbb0032	-0.022827242
25	0xbd5503c4	-0.052005544
26	0x3e458f3e	0.19292924
27	0x3e0dd680	0.13851357
28	0x3e92a0c9	0.28638294
29	0xbe8d6000	-0.27612305
30	0x3e9d63bd	0.30740157
31	0xbc7eb758	-0.015546642
32	0x3de6eb26	0.1127532
33	0x3e20b438	0.15693748
34	0x3c70107f	0.0146523705
35	0xbd359e03	-0.044340145
36	0xbe3c4f9d	-0.18389745
37	0xbd9e7a78	-0.07738203
38	0x3e342d67	0.17595445
39	0xbe14c18f	-0.14526962
40	0xbdde32c8	-0.108495295
41	0xbc3a0e07	-0.011355883
42	0xbca5d6c6	-0.020244014
43	0x3e65b47f	0.22432135
44	0xbd03311a	-0.03202925
45	0x3ea3c2b6	0.3198449
46	0x3e9d94f9	0.3077772
47	0x3db5ea60	0.08882594
48	0xbe0f1ad7	-0.13975082
49	0xbe74325c	-0.23847336
50	0x3d225c8d	0.039639045
51	0xbb043809	-0.0020175
52	0x3b0d13c4	0.0021526674
53	0xbc9443a1	-0.018098654
54	0x3eb6e55f	0.3572187
55	0x3eadb6aa	0.33928424
56	0x3c83488a	0.0160258
57	0x3e1ce883	0.15323071
58	0xbd8b0dc3	-0.06789734
59	0x3b8955e8	0.004191149
60	0x3e849588	0.25895333
61	0xbe202554	-0.1563924
62	0x3e0d5fd6	0.1380609
63	0xbeab7d06	-0.33493823

blocks.1.mlp.fc1_FacTs.weight f4 [32, 8]
0	0xbe511388	-0.20417607
1	0x3e506c49	0.20353808
2	0xbe3c2956	-0.18375143
3	0x3c41b118	0.011822008
4	0x3e157474	0.14595205
5	0x3ea3036b	0.31838545
6	0x3e4f17a5	0.20223863
7	0x3d882f9d	0.066497065
8	0xbcb73d49	-0.02236809
9	0x3edab2f2	0.4271465
10	0xbd836f29	-0.064176865
11	0x3d1b777c	0.037955746
12	0xbe95d333	-0.29262695
13	0x3cd01c87	0.025404228
14	0x3e7c8c7e	0.24662969
15	0xbe2be3be	-0.16786095
16	0xbeb2d0fe	-0.34925073
17	0xbea62e18	-0.32457042
18	0x3eaa7859	0.33294943
19	0x3e778c93	0.24174719
20	0xbeb2f57d	-0.34952918
21	0xbdbfd547	-0.09366851
22	0xbdd59202	-0.104282394
23	0x3e2d3719	0.1691555
24	0xbe8a3340	-0.26992226
25	0xbde8d451	-0.11368621
26	0xbcdcfcce	-0.026976015
27	0xbe8bab4d	-0.2727913
28	0x3e798efc	0.2437095
29	0xbdd357fd	-0.10319517
30	0xbd95e34c	-0.07318744
31	0xbe6b06e5	-0.22951849
32	0x3e1adef8	0.15124118
33	0x3dbd0729	0.09229881
34	0x3e67c82f	0.22634958
35	0x3dca5d2c	0.098810524
36	0x3df14e32	0.11782493
37	0x3c268f7b	0.010166044
38	0xbe85d852	-0.26141602
39	0x3e90cd85	0.282818
40	0x3d99125d	0.07474206
41	0xbec2cf19	-0.38048628
42	0x3dd030d0	0.1016556
43	0xbba55a48	-0.0050461628
44	0x3e86f953	0.26362094
45	0x3ec77330	0.3895507
46	0x3e9137e3	0.2836295
47	0x3e99f94a	0.30073005
48	0x3e8e5cd5	0.278052
49	0x3da8124f	0.08206617
50	0x3e24e89a	0.16104355
51	0xbdd7fa54	-0.10545793
52	0xbd2fb584	-0.042897716
53	0x3c5fe4fd	0.013665435
54	0x3e054f6c	0.13018578
55	0xbd071e64	-0.032987967
56	0x3e807b09	0.25093868
57	0x3dde1ea9	0.10845692
58	0x3df2e896	0.118607685
59	0xbe3a152a	-0.18172136
60	0x3e800eef	0.25011393
61	0xbd45bdcc	-0.048276708
62	0xbdfa1cd9	-0.122125335
63	0x3e96dd24	0.29465592
64	0xbea471b7	-0.32118008
65	0xbe6db83e	-0.23214814
66	0x3eab4052	0.3344751
67	0x3dbee110	0.09320271
68	0xbe9b6a1d	-0.30354396
69	0x3c8dcab7	0.017308576
70	0xbd6c08f3	-0.057625722
71	0x3dc1271c	0.09431288
72	0xbd8d757e	-0.069071755
73	0x3e920c8f	0.28525206
74	0x3ecb8446	0.39749354
75	0xbe7dccc5	-0.24785145
76	0x3e8930de	0.26795095
77	0x3c22aad0	0.00992842
78	0x3e0b39ec	0.13596314
79	0x3ead394f	0.33832785
80	0xbe84f1b2	-0.2596565
81	0x3e74720b	0.23871629
82	0xbebef1e7	-0.37293932
83	0x3bdb8668	0.006699372
84	0xbcd7aa0c	-0.026326202
85	0xbeac20a8	-0.33618665
86	0x3e855222	0.26039225
87	0xbe359043	-0.17730813
88	0x3d839166	0.06424217
89	0xbe34bb86	-0.1764966
90	0xbcfd3261	-0.030907812
91	0xbdaf49fb	-0.085590325
92	0xbd393f53	-0.045226406
93	0x3e98fd6b	0.29880843
94	0xbd2fb43f	-0.042896505
95	0x3e081295	0.13288338
96	0x3e043ad6	0.12913069
97	0xbe808b81	-0.25106433
98	0x3d92bf23	0.07165363
99	0x3e1f0350	0.15528607
100	0xbe796de9	-0.24358334
101	0xbe9871a2	-0.29774195
102	0x3da44bf4	0.080222994
103	0xbea942e9	-0.3305886
104	0xbe23cbf2	-0.15995768
105	0x3cf93b8b	0.0304239
106	0x3e9fabf6	0.31185883
107	0xbe990afa	-0.29891187
108	0xbe091c39	-0.13389672
109	0x3e21e461	0.15809776
110	0xbe9c08eb	-0.30475554
111	0x3e34050c	0.1758005
112	0x3db1387a	0.0865335
113	0x3d1c8caa	0.038220085
114	0x3e91c194	0.28468
115	0xbec82615	-0.39091554
116	0xbe87be29	-0.26512268
117	0x3e1c6b74	0.15275365
118	0xbd531852	-0.051536866
119	0x3eaef0ed	0.34168187
120	0xbeb100ef	-0.34571025
121	0x3e8a8a25	0.2705852
122	0xbe8e068f	-0.2773938
123	0xbe74a7f3	-0.23892193
124	0x3e682679	0.22670926
125	0xbdb98045	-0.090576686
126	0x3ead4ab6	0.33846062
127	0x3e96b88c	0.29437673
128	0x3dbbba84	0.091664344
129	0x3e4e1ac9	0.20127405
130	0x3dcc6d6a	0.099818066
131	0xbe047c55	-0.12938054
132	0x3ed21fda	0.41039926
133	0x3d8d76c5	0.06907419
134	0xbe899663	-0.26872548
135	0x3de23746	0.11045699
136	0x3dd573c3	0.104224704
137	0x3e12e6b4	0.14345819
138	0xbc606cec	-0.013697844
139	0xbe6d0b98	-0.23148954
140	0xbe1eba4a	-0.15500751
141	0xbd22af9d	-0.03971826
142	0x3e6516a7	0.22371922
143	0x3d5e709f	0.054306623
144	0xbd832c5d	-0.06404946
145	0x3db3da97	0.08781927
146	0xbd286483	-0.04111148
147	0x3b363648	0.002780335
148	0xbe12542c	-0.14289922
149	0xbeab96b7	-0.33513424
150	0xbe6c634d	-0.23084755
151	0xbe05ec35	-0.13078387
152	0x3e005c2a	0.12535158
153	0x3e48713d	0.19574447
154	0x3e63018a	0.22168556
155	0x3e8bb71e	0.27288145
156	0xbe6eee91	-0.23333193
157	0xbe0cd54f	-0.13753246
158	0xbec553aa	-0.38540393
159	0x3d5bb7ad	0.053641964
160	0xbe911f30	-0.28344107
161	0xbe2c9f68	-0.16857684
162	0x3e9c6f7b	0.30553803
163	0x3dd6cf96	0.104888126
164	0xbe0057de	-0.12533519
165	0x3e8533c7	0.26016065
166	0x3e870618	0.26371837
167	0xbc22b927	-0.009931839
168	0xbd623082	-0.055222042
169	0x3e940ca1	0.28915885
170	0xbe929578	-0.2862966
171	0xbd6228a6	-0.055214547
172	0xbdd5fb9d	-0.10448382
173	0xbe7e1533	-0.24812774
174	0x3ce2bd83	0.027678257
175	0x3e8457a9	0.2584813
176	0xbea38094	-0.31934035
177	0xbe96415a	-0.29346734
178	0xbdec0abe	-0.115254864
179	0x3dabbf58	0.08386105
180	0x3e846f9a	0.25866395
181	0xbdc85674	-0.097821146
182	0xbea3f913	-0.32025966
183	0x3e4d4777	0.20046793
184	0xbe8de7bf	-0.2771587
185	0x3e85b9a2	0.2611819
186	0x3dc32893	0.09529223
187	0x3e416a29	0.18888153
188	0x3e98de0f	0.29856917
189	0x3e7451b0	0.23859286
190	0xbea94b72	-0.33065373
191	0x3e65e23c	0.22449583
192	0x3e1dbdf9	0.154045
193	0xbdb3e7d5	-0.08784453
194	0x3e46aff5	0.1940306
195	0x3ea1a783	0.31573114
196	0xbe3aba35	-0.18235095
197	0x3e40e710	0.18838143
198	0x3d440c3b	0.047863226
199	0xbe9ee01c	-0.31030357
200	0x3e8bdd04	0.2731706
201	0x3eaab63e	0.33342165
202	0x3e54dd5d	0.20787568
203	0x3e4cc7f7	0.19998156
204	0x3e821958	0.2540996
205	0xbda7a784	-0.08186248
206	0xbe0cf213	-0.13764219
207	0xbe69af61	-0.22820808
208	0x3d832331	0.064031966
209	0xbe992d91	-0.29917577
210	0x3d6fab5f	0.05851304
211	0x3e3252cf	0.17414401
212	0xbe8391c1	-0.2569714
213	0xbe2afded	-0.16698427
214	0xbdafbf17	-0.08581369
215	0x3eb3ac45	0.3509237
216	0x3e89c353	0.26906833
217	0xbe03e05c	-0.12878555
218	0xbdd9cb9b	-0.10634538
219	0x3e054450	0.1301434
220	0x3d9a4613	0.07532897
221	0xbd1c969c	-0.03822957
222	0x3e988a6a	0.29793102
223	0x3e8cf010	0.27526903
224	0x3dab0419	0.08350391
225	0xbc072eb0	-0.008250877
226	0xbd99ea94	-0.07515445
227	0xbeac5f21	-0.33666328
228	0xbe912810	-0.28350878
229	0x3e91cec0	0.2847805
230	0x3e598f50	0.21246076
231	0xbdd6f049	-0.104950495
232	0xbea3c827	-0.31988642
233	0xbe8f13c9	-0.27944782
234	0xbec9a871	-0.39386323
235	0x3d012eff	0.03153896
236	0x3d08af61	0.03337038
237	0x3e9fb8c3	0.3119565
238	0xbd949fca	-0.0725704
239	0xbe92cbf1	-0.2867122
240	0xbd9cc3da	-0.07654543
241	0x3e4cdadf	0.20005368
242	0xbebe0a32	-0.37117153
243	0x3ec23b89	0.37936047
244	0x3e97be2f	0.29637286
245	0x3e8e5433	0.27798614
246	0xbded1ac1	-0.115773685
247	0x3d50c528	0.050969273
248	0xbdd60bf9	-0.10451502
249	0xbd6de777	-0.05808207
250	0xbea8298c	-0.32844198
251	0x3e6c05e8	0.23049128
252	0x3d8d49a9	0.06898815
253	0xbe28b3b6	-0.16474804
254	0xbda6f3b3	-0.08151951
255	0x3e7b91e3	0.2456737

blocks.1.mlp.fc2_FacTs.weight f4 [8, 32]
0	0xbdfa136a	-0.12210734
1	0x3d317c1e	0.043331258
2	0xbda3fe99	-0.08007545
3	0xbe0e58e3	-0.13901095
4	0xbdef9a4a	-0.1169935
5	0xbe1db732	-0.15401915
6	0x3d48fcca	0.049069203
7	0xbd41eafd	-0.047343243
8	0xbca27081	-0.019829037
9	0xbe11f559	-0.14253749
10	0x3d4eedef	0.05051988
11	0x3e5bb07d	0.21454044
12	0x3bd92c1d	0.006627573
13	0x3b491101	0.00306803
14	0x3de25208	0.110508025
15	0x3e20d80f	0.1570742
16	0xbe054e69	-0.13018192
17	0x3e3d7c21	0.18504383
18	0xbde9091b	-0.1137869
19	0x3e24292a	0.16031328
20	0xbde9cc3e	-0.11415909
21	0x3ccb364e	0.024806168
22	0x3e460182	0.19336513
23	0xbe3d8b53	-0.18510179
24	0x3d137a4a	0.036005296
25	0xbb06ef82	-0.0020589535
26	0x3d367354	0.04454358
27	0x3d08031a	0.033206083
28	0x3df5401b	0.11975118
29	0xbc698c42	-0.0142546315
30	0xbe410616	-0.18849978
31	0x3d0192b6	0.031634055
32	0xbc24df45	-0.010062997
33	0x3e1eda04	0.15512854
34	0x3d6ac4a7	0.05731645
35	0xbcd2c4f4	-0.02572868
36	0x3d232651	0.039831463
37	0xbdafb152	-0.08578743
38	0x3e37bedc	0.17943901
39	0xbd249f7f	-0.04019117
40	0xbdee8a46	-0.11647467
41	0xbe431756	-0.1905187
42	0xbd724990	-0.059152186
43	0x3e0c7d9b	0.1371979
44	0xbc020f72	-0.007938253
45	0xbda6ea20	-0.081501245
46	0xbe2fb801	-0.17160036
47	0xbe145abe	-0.1448774
48	0x3e0953f6	0.13410935
49	0x3bb6a9b2	0.0055744285
50	0x3d8a685b	0.067581855
51	0xbd4ff538	-0.05077097
52	0x3de6ba39	0.11265988
53	0x3d01222d	0.031526733
54	0xbe11f6e4	-0.14254338
55	0xbbf648e8	-0.0075160153
56	0x3df38724	0.118910104
57	0xbd88213c	-0.06646964
58	0x3bc33837	0.005957629
59	0xbd458e8a	-0.04823164
60	0xbd27c41f	-0.04095852
61	0x3de3136e	0.1108769
62	0x3de26eed	0.11056314
63	0xbe319263	-0.17340998
64	0xbdf9b078	-0.12191862
65	0x3e0865c0	0.13320065
66	0xbde2559f	-0.11051487
67	0xbc97eebd	-0.018546456
68	0x3da08ff6	0.07839958
69	0x3e0905f8	0.13381183
70	0xbe080028	-0.1328131
71	0x3e1d5795	0.15365441
72	0x3daef92f	0.08543622
73	0x3c45edb7	0.012080601
74	0xbdb9d9b1	-0.090747245
75	0xbe4ec99c	-0.20194095
76	0x3c5ef699	0.013608598
77	0x3e62a79c	0.2213425
78	0xbce8cea2	-0.028418843
79	0xbd19408a	-0.037415065
80	0x3d80baa0	0.06285596
81	0x3d94f346	0.07272963
82	0xbda17047	-0.07882743
83	0x3d411c8b	0.04714636
84	0xbdc48a34	-0.09596673
85	0x3c9c5cd4	0.019087233
86	0x3dbced98	0.09225005
87	0x3d359a96	0.044336878
88	0xbbc77dd7	-0.0060879993
89	0x3e8177f5	0.25286832
90	0xbdfc51c3	-0.12320282
91	0xbdfc8543	-0.12330105
92	0x3e252201	0.16126253
93	0x3d8ddcfe	0.069269165
94	0x3dd45fd8	0.10369843
95	0x3e620c48	0.22074997
96	0xbdd72ea6	-0.10506944
97	0xbdfce967	-0.123492055
98	0x3d7ab7cb	0.061210435
99	0x3d3cf529	0.04613224
100	0xbd8eb796	-0.0696861
101	0x3d3e5083	0.0464635
102	0x3e191a0b	0.14951341
103	0xbe336fad	-0.1752307
104	0xbcf7ee57	-0.030265016
105	0xbd46a525	-0.048497338
106	0xbd94b24d	-0.07260571
107	0x3cc8fe1b	0.02453523
108	0x3d9a5513	0.07535758
109	0x3db09713	0.08622565
110	0x3e00cae2	0.12577394
111	0x3de04c13	0.1095201
112	0xbd069be4	-0.032863513
113	0xbe3a933e	-0.18220231
114	0xbde724b0	-0.112862945
115	0x3dd338db	0.10313579
116	0x3d1f62c8	0.038912565
117	0x3d1ab3b9	0.037769053
118	0x3e0d5b8e	0.13804457
119	0x3c7421b4	0.014900614
120	0x3cef784d	0.029232169
121	0xbe2f1a5b	-0.17099898
122	0x3d2f08f5	0.04273315
123	0x3e179a61	0.14804985
124	0x3d06aab3	0.032877635
125	0x3c9b223e	0.018937226
126	0xbdeef663	-0.11668088
127	0x3be0ce3f	0.006860524
128	0xbd696446	-0.056980394
129	0x3dff9219	0.12479038
130	0x3dadaa07	0.08479696
131	0x3ddbe7f6	0.107376024
132	0xbd88fcbc	-0.0668883
133	0x3b36f627	0.0027917714
134	0x3d9d6fbb	0.076873265
135	0x3d4f5b79	0.050624344
136	0x3dd36a37	0.10322993
137	0xbd41f140	-0.047349215
138	0xbcb3380b	-0.02187731
139	0xbe42a598	-0.19008482
140	0x3da00f10	0.07815373
141	0x3c41c543	0.011826816
142	0x3e04e436	0.1297768
143	0x3b5678b4	0.0032725753
144	0xbdacce9b	-0.08437844
145	0xbd2e0bc7	-0.0424917
146	0x3c05acde	0.0081588905
147	0xbd5fcd20	-0.05463898
148	0xbd86c267	-0.06580048
149	0xbdd24f27	-0.10269003
150	0xbdea1914	-0.114305645
151	0xbd5e268b	-0.054235976
152	0xbe541de1	-0.20714523
153	0x3b13ce62	0.0022553434
154	0x3ccc6bbc	0.024953716
155	0xbcfc149f	-0.030771552
156	0x3d6cf34f	0.057849225
157	0x3d26adf9	0.040693257
158	0x3c8b8478	0.01703094
159	0x3d62b972	0.055352636
160	0xbd9faec0	-0.07797003
161	0xbe401210	-0.1875689
162	0xbdbfb515	-0.093607105
163	0x3e1ba554	0.15199786
164	0x3e048fc8	0.12945473
165	0x3e12c5b2	0.14333227
166	0x3e05209f	0.13000725
167	0x3d5c441b	0.053775888
168	0xbe050b02	-0.1299248
169	0xbdf93c7a	-0.12169738
170	0xbde980e9	-0.11401541
171	0xbd8b70f3	-0.06808653
172	0x3ca12512	0.019670997
173	0xbdae59d9	-0.08513231
174	0xbdc0787c	-0.093979806
175	0xbe1e3ecf	-0.15453647
176	0xbd7ace5e	-0.061231963
177	0xbd695f22	-0.05697549
178	0x3d52f13c	0.05149959
179	0xbc9273de	-0.017877515
180	0xbc86653d	-0.016405696
181	0xbe37abc4	-0.17936617
182	0x3e0c6172	0.13709047
183	0xbd517ff5	-0.05114742
184	0xbd0f3296	-0.034960352
185	0xbd9e98dd	-0.07744
186	0x3d12fc34	0.03588505
187	0x3d62643f	0.055271383
188	0xbe393fa4	-0.18090683
189	0x3e443d18	0.1916393
190	0x3c00e648	0.007867403
191	0xbcfcf2fc	-0.030877583
192	0x3dfdfcc4	0.12401727
193	0xbe1e7de7	-0.15477715
194	0x3d5172c5	0.051134843
195	0xbdafe7db	-0.08589145
196	0x3ce963cc	0.02848997
197	0xbe440fac	-0.19146603
198	0x3e2915ff	0.16512297
199	0x3de92cc0	0.113854885
200	0xbe72a04d	-0.23693962
201	0x3e2120b2	0.15735129
202	0x3d1c5b1a	0.03817282
203	0x3e3ddd92	0.18541554
204	0x3d5cc557	0.053899135
205	0x3cf2ffbf	0.029662965
206	0xbe5e389f	-0.21701287
207	0xbe1ec67b	-0.15505402
208	0xbe163e95	-0.1467231
209	0xbc74faa5	-0.014952336
210	0xbd5dbacc	-0.05413322
211	0xbd5b0bc0	-0.053478003
212	0xbd93ca13	-0.07216277
213	0xbd9ff5bf	-0.07810544
214	0xbdd59cd0	-0.104303
215	0x3dbf6d14	0.09346977
216	0xbd5ef42e	-0.054432087
217	0x3e7b1fbe	0.24523827
218	0xbb4dd921	-0.0031409936
219	0xbcaed118	-0.021339938
220	0xbe3deb2d	-0.18546744
221	0xbe23f43f	-0.16011141
222	0xbd85651d	-0.065134265
223	0xbdaa76e5	-0.083234586
224	0xbdef62e9	-0.116887875
225	0xbd93f74c	-0.072249025
226	0x3dd996b4	0.106244475
227	0xbe61a614	-0.2203601
228	0xbd62d6e8	-0.05538073
229	0xbe49d4ac	-0.19710034
230	0x3e36ede5	0.17864187
231	0xbcd2bd09	-0.025724905
232	0x3d9ecfcb	0.07754477
233	0x3d8f326d	0.0699204
234	0xbcc878c5	-0.02447165
235	0x3e40eb57	0.18839775
236	0xbdac217d	-0.08404825
237	0x3e0b42eb	0.13599746
238	0xbd2014c9	-0.039082322
239	0x3e11bd0e	0.14232275
240	0x3d327b4e	0.043574624
241	0xbd28467a	-0.041082837
242	0xbd60903f	-0.054825064
243	0x3e02c914	0.12772018
244	0xbd24c667	-0.040228274
245	0x3d748930	0.059701145
246	0xbde2993d	-0.11064384
247	0x3dbf9df3	0.09356298
248	0xbdcdeeaf	-0.10055291
249	0x3e39670f	0.1810572
250	0x3d13ab76	0.03605219
251	0xbcb658d5	-0.022259155
252	0xbd9d4862	-0.076798216
253	0x3dc557d4	0.096358925
254	0x3c1932a6	0.009350454
255	0xbcd689a5	-0.02618868

blocks.2.attn.q_FacTs.weight f4 [8, 8]
0	0xbbfc9a33	-0.0077088117
1	0xbe1a3cde	-0.15062281
2	0x3eb6d68c	0.3571056
3	0xbe480cd2	-0.1953614
4	0x3e4b3868	0.19845736
5	0xbe69ddfc	-0.22838587
6	0xbe3a8eda	-0.18218556
7	0x3c82e0bf	0.015976308
8	0x3e7134b1	0.23555256
9	0x3ed58b2f	0.4170775
10	0x3e9b89e4	0.3037864
11	0x3e41365d	0.18868394
12	0x3e35cef7	0.17754732
13	0x3e84a3f6	0.25906342
14	0xbe9a5946	-0.30146235
15	0x3ddedd83	0.10882094
16	0x3e46b046	0.1940318
17	0x3e55447a	0.20826903
18	0x3dd5862e	0.10425983
19	0xbead77c0	-0.33880424
20	0x3d5725e3	0.052526366
21	0x3e640e33	0.22271042
22	0xbe6d56f6	-0.23177704
23	0xbd918405	-0.07105259
24	0xbdf22c52	-0.1182486
25	0x3ec3973c	0.3820132
26	0x3e3d7af3	0.18503933
27	0xbeae423a	-0.34034902
28	0xbe803b08	-0.25045037
29	0x3eae7371	0.3407245
30	0xbec34f56	-0.38146466
31	0x3e8b157c	0.2716483
32	0x3eb9a7a7	0.3626072
33	0xbe6f53a7	-0.23371755
34	0xbe97de82	-0.29661947
35	0xbe84fc76	-0.25973862
36	0xbe95b372	-0.29238468
37	0x3ebae1a3	0.36500272
38	0xbd9e93db	-0.07743045
39	0x3d31bef2	0.04339499
40	0xbe2f7d74	-0.171377
41	0xbe572da6	-0.21013507
42	0x3e93c717	0.2886283
43	0xbdb4650a	-0.08808334
44	0x3e193555	0.14961751
45	0xbe932313	-0.28737697
46	0xbcb9ffe5	-0.022705028
47	0x3ec941bd	0.39307967
48	0xbe560f99	-0.20904388
49	0xbec196b5	-0.37810293
50	0xbd217a1a	-0.039423086
51	0xbe344ea8	-0.1760813
52	0x3e0e5ce9	0.1390263
53	0x3e48703d	0.19574066
54	0xbe1a67d8	-0.15078676
55	0xbc6a0027	-0.014282263
56	0x3d5a3cde	0.053280704
57	0x3e32dfa3	0.17468123
58	0xbe38e229	-0.18055023
59	0x3e1d8022	0.1538091
60	0xbece6e92	-0.40318733
61	0x3d99f5da	0.075175956
62	0xbd58cb2b	-0.05292813
63	0x3eb8831a	0.36037523

blocks.2.attn.k_FacTs.weight f4 [8, 8]
0	0x3da6f4d6	0.081521675
1	0xbd625265	-0.05525436
2	0xbc3441ef	-0.011002048
3	0xbe18fa78	-0.14939296
4	0xbe9b976f	-0.30388972
5	0x3d2966b5	0.041357715
6	0xbe3c6202	-0.18396762
7	0x3ea45cdf	0.32102105
8	0x3ea107bf	0.31451222
9	0x3eb52677	0.3538091
10	0xbdaa1c24	-0.08306149
11	0xbd114bfd	-0.03547286
12	0x3c92721b	0.017876675
13	0x3e94b891	0.29047063
14	0x3da092a0	0.078404665
15	0x3c4265b1	0.011865065
16	0x3e8deebb	0.277212
17	0x3ed8a3dc	0.42312515
18	0x3d9c5885	0.07634071
19	0x3ed1ac21	0.40951636
20	0x3d667564	0.056264296
21	0xbe4c448f	-0.19948028
22	0xbe38c904	-0.18045431
23	0x3e8d3b75	0.27584425
24	0xbdd6ebf9	-0.10494227
25	0xbea37567	-0.31925508
26	0x3eae250e	0.34012645
27	0xbcfe9d74	-0.031080939
28	0xbe966ad8	-0.2937839
29	0xbe5325a8	-0.20619833
30	0xbe9d66c1	-0.30742458
31	0x3e67a750	0.22622418
32	0xbbf69196	-0.0075246794
33	0xbe7c35e8	-0.24629939
34	0xbe0631b9	-0.13104905
35	0x3ea7fa88	0.32808328
36	0x3e1c707e	0.15277287
37	0xbe7c939a	-0.2466568
38	0x3db1b591	0.08677209
39	0x3e794bf4	0.2434538
40	0xbeb297db	-0.34881482
41	0xbd80bc75	-0.06285945
42	0x3e834d6a	0.25645
43	0xbe26892f	-0.16263269
44	0xbe6d8526	-0.23195323
45	0x3c18da27	0.009329355
46	0xbe5a5e1d	-0.21324964
47	0x3e50c724	0.20388466
48	0x3ea6b42b	0.32559332
49	0xbe6abc7f	-0.22923468
50	0xbb8aa86e	-0.004231504
51	0xbe2b3e67	-0.16723023
52	0xbc9cb51d	-0.01912933
53	0x3e53cedd	0.20684381
54	0x3df23360	0.11826205
55	0x3ee70f67	0.4512894
56	0xbdb77d45	-0.0895944
57	0x3e2b6069	0.16735996
58	0x3e917216	0.28407353
59	0xbd3b78a9	-0.045769367
60	0x3e4c367c	0.19942659
61	0xbdc14204	-0.094364196
62	0x3daa3a34	0.083118826
63	0xbe991f11	-0.29906514

blocks.2.attn.v_FacTs.weight f4 [8, 8]
0	0x3e5939e5	0.21213491
1	0x3d55d5b9	0.052205775
2	0xbe04de41	-0.12975408
3	0x3e96710e	0.2938313
4	0xbdb89887	-0.09013467
5	0x3ea8572c	0.32879007
6	0xbe9f9f27	-0.3117611
7	0x3ea115f9	0.31462076
8	0xbe42899a	-0.18997803
9	0x3e0c065c	0.13674301
10	0xbd08ed9f	-0.033429738
11	0x3e91564a	0.28386146
12	0x3e854dcc	0.26035917
13	0x3cf67ff5	0.030090312
14	0x3e0350e6	0.12823829
15	0x3d63387e	0.055473797
16	0x3e7b1c71	0.24522568
17	0xbdfe5ac5	-0.12419657
18	0xbe6e2542	-0.232564
19	0x3e8d7bb7	0.2763345
20	0xbea28560	-0.31742382
21	0x3e36b409	0.17842115
22	0xbc937b43	-0.018003112
23	0xbde766cf	-0.11298906
24	0xbead1b76	-0.33810014
25	0xbde58d9b	-0.1120865
26	0xbeb25b6c	-0.34835374
27	0xbeb2d523	-0.34928235
28	0x3ea6ffe4	0.32617104
29	0xbe6e3b56	-0.23264822
30	0x3e014c69	0.12626804
31	0xbe8f1257	-0.2794368
32	0xbe939b95	-0.28829637
33	0xbe0424d8	-0.1290468
34	0xbe91de24	-0.28489792
35	0xbdfb245b	-0.12262794
36	0xbe3d0788	-0.18459904
37	0xbdfc9e1b	-0.12334844
38	0xbe8d107c	-0.2755164
39	0xbe8e447e	-0.2778663
40	0xbe952c9f	-0.29135606
41	0x3dd49d34	0.103815466
42	0x3e7fc71a	0.24978295
43	0xbe2e47e0	-0.17019606
44	0x3e082334	0.13294679
45	0x3ebbb9ce	0.36665195
46	0xbd724782	-0.059150226
47	0xbe2e55c9	-0.17024912
48	0x3e66e05d	0.22546525
49	0xbcbaeaa2	-0.02281696
50	0x3e50902e	0.203675
51	0xbe87940f	-0.26480147
52	0xbea22703	-0.3167039
53	0xbe67b1ed	-0.22626467
54	0xbe7dea54	-0.2479642
55	0x3ea67652	0.32512146
56	0x3e24d6e9	0.16097607
57	0x3e8a3d45	0.2699987
58	0xbe629772	-0.22128084
59	0xbd8580c6	-0.06518702
60	0x3d736a74	0.059427693
61	0xbde0cd6b	-0.1097668
62	0x3e9be8c5	0.30451027
63	0xbcbc946b	-0.02301999

blocks.2.attn.proj_FacTs.weight f4 [8, 8]
0	0xbe84c781	-0.2593346
1	0x3c88d7aa	0.0167044
2	0xbd95a374	-0.07306567
3	0xbde674fe	-0.11252783
4	0xbe50452e	-0.2033889
5	0x3e6d65aa	0.23183313
6	0x3e91f36e	0.28506035
7	0x3e1e58ca	0.15463558
8	0x3e2b136a	0.16706625
9	0xbc0f69f2	-0.008753287
10	0xbe1bd8fe	-0.15219495
11	0xbd89fb41	-0.06737376
12	0x3e7fb60b	0.24971788
13	0xbe73d570	-0.23811889
14	0xbe50c308	-0.20386899
15	0xbdc324e5	-0.095285214
16	0xbda5e446	-0.0810018
17	0x3e97c362	0.29641253
18	0xbe5c6164	-0.21521527
19	0x3da2e11f	0.07953095
20	0x3e7b96d9	0.24569263
21	0x3de3022c	0.110843986
22	0xbe92039d	-0.28518382
23	0xbe0fff9a	-0.14062348
24	0x3d43d02d	0.047805954
25	0x3bdad679	0.006678399
26	0xbe8ec1d4	-0.27882254
27	0xbea98fe9	-0.33117607
28	0xbe2840ee	-0.16431019
29	0xbe983b42	-0.2973271
30	0x3eb79230	0.3585372
31	0x3e529c89	0.20567526
32	0x3ea3a32e	0.31960434
33	0xbc9c42d7	-0.01907484
34	0x3e805a1f	0.25068757
35	0xbe07fa3b	-0.13279049
36	0xbd7bc021	-0.061462525
37	0xbd52dd54	-0.051480606
38	0xbe90d4ca	-0.28287345
39	0x3e947a7d	0.289997
40	0x3ea5d877	0.32391712
41	0xbd7d639d	-0.061862577
42	0xbdb09799	-0.08622665
43	0xbe765b0a	-0.24058166
44	0x3de40cba	0.1113524
45	0xbe2b698b	-0.1673948
46	0xbea149c2	-0.31501585
47	0xbe1a2155	-0.15051778
48	0x3db69261	0.08914638
49	0xbcdb98a7	-0.026806189
50	0xbdac7eb9	-0.08422608
51	0xbe56827a	-0.2094821
52	0xbe8d1ea0	-0.27562428
53	0xbe99dbe1	-0.30050567
54	0x3aa1d651	0.0012347196
55	0x3e59836d	0.21241541
56	0xbe9f7c58	-0.31149554
57	0x3d3f022b	0.046632927
58	0x3d3eaa06	0.046548866
59	0xbe11017a	-0.1416072
60	0xbe93e5e4	-0.2888633
61	0xbe033d4b	-0.1281635
62	0xbead7edb	-0.33885846
63	0x3cc3b917	0.023891969
