Final Project/FacT-TT/resisc45_best.pt (torch, 246529 bytes, 76 tensors)

blocks.0.attn.q_FacTs.weight f4 [8, 8]
0	0x3eac10b9	0.33606508
1	0xbe12d7af	-0.1434009
2	0x3e04b7aa	0.12960687
3	0x3e39aa06	0.18131265
4	0xbe45667e	-0.19277379
5	0x3db15e83	0.08660605
6	0xbd9fd389	-0.07804019
7	0x3e0b8e5a	0.13628522
8	0x3eefa926	0.46808738
9	0xbcff19c4	-0.031140216
10	0xbde069dd	-0.10957692
11	0x3eabd991	0.33564427
12	0x3ab9cbd4	0.0014175125
13	0x3c542ed4	0.012950618
14	0x3e290f47	0.16509734
15	0x3d034bec	0.032054827
16	0xbe4e9e35	-0.20177539
17	0xbe8a4c26	-0.27011222
18	0x3c95f3c9	0.018304722
19	0xbec55899	-0.38544157
20	0x3e8f171d	0.27947322
21	0xbe8f0b1c	-0.27938163
22	0x3dc1a3f0	0.09455097
23	0xbd958292	-0.07300295
24	0x3e1b8f2c	0.15191334
25	0xbda9a673	-0.08283701
26	0x3d324cdf	0.04353034
27	0xbe487ae6	-0.19578132
28	0xbe392084	-0.1807881
29	0xbf05ab39	-0.5221439
30	0xbe53f117	-0.20697437
31	0x3d546465	0.051853556
32	0xbc8b5dba	-0.017012466
33	0xbd89cf5b	-0.06729003
34	0xbcecc0e0	-0.028900564
35	0x3e4d604d	0.20056267
36	0x3e537e15	0.20653565
37	0xbdbf7377	-0.09348195
38	0x3e19ed87	0.15032016
39	0xbad550a0	-0.0016274638
40	0xbec5233c	-0.38503444
41	0x3ed93373	0.42422065
42	0x3e81fa34	0.25386202
43	0x3e845927	0.25849268
44	0xbdd87086	-0.10568337
45	0x3e639913	0.22226362
46	0xbe9e229b	-0.30885777
47	0x3ecf723c	0.4051684
48	0xbe0dddd1	-0.13854147
49	0x3ee2f701	0.44329074
50	0xbe6b28b7	-0.2296475
51	0x3e4c402a	0.19946352
52	0xbe030a74	-0.12796956
53	0x3ee96029	0.45581177
54	0xbf06f449	-0.527165
55	0xbd13e9e0	-0.036111712
56	0x3e856849	0.26056126
57	0x3de73875	0.11290065
58	0x3b3c09bd	0.0028692328
59	0xbe89dd83	-0.26926813
60	0xbeafc407	-0.34329244
61	0x3d131712	0.035910673
62	0xbcbaf4f2	-0.022821877
63	0x3e98b0c4	0.2982236

blocks.0.attn.k_FacTs.weight f4 [8, 8]
0	0x3e11602c	0.14196843
1	0xbde1c9c7	-0.11024814
2	0xbe9e93c5	-0.30972114
3	0xbdd41b1d	-0.10356734
4	0x3b160f31	0.0022897238
5	0xbe16ffb4	-0.1474598
6	0x3e367567	0.17818223
7	0xbe5a8c09	-0.21342482
8	0xbdcd52f4	-0.10025588
9	0x3dfd5f54	0.12371698
10	0x3d3ad85c	0.045616493
11	0x3ec5f0ad	0.38660184
12	0x3e9411ab	0.2891973
13	0x3ed46eae	0.41490692
14	0xbf05bc6c	-0.52240634
15	0x3ba00c45	0.004884275
16	0x3d869e5f	0.06573176
17	0xbe236480	-0.15956306
18	0xbda8e4b2	-0.08246745
19	0xbe7a2fa6	-0.24432239
20	0xbdfe1ea8	-0.12408191
21	0xbc18f5e7	-0.009335971
22	0x3b926b61	0.004468367
23	0xbe3087c4	-0.1723929
24	0xbe6d367e	-0.23165318
25	0xbe1871ba	-0.14887133
26	0x3e1b107c	0.15143007
27	0xbdc96fd4	-0.09835783
28	0x3eb19a5e	0.34688085
29	0x3ea6f110	0.3260579
30	0x3df54a61	0.11977077
31	0x3e85d59b	0.2613953
32	0x3e893e5d	0.26805392
33	0xbeb6068f	-0.3555188
34	0xbe0a0a63	-0.13480525
35	0xbe3c9668	-0.1841675
36	0xbca7ba18	-0.020474479
37	0xbe9cf840	-0.3065815
38	0x3e3fd1b1	0.18732335
39	0x3c8b3972	0.016995165
40	0xbde900d9	-0.11377115
41	0xbe84a9cc	-0.25910795
42	0xbe0811e4	-0.13288075
43	0x3e3427f1	0.17593361
44	0x3d811824	0.063034326
45	0xbe29e98d	-0.16592999
46	0x3e9d8e23	0.30772504
47	0xbd3e81b1	-0.046510402
48	0xbeccff1a	-0.40038377
49	0x3e96306a	0.29333812
50	0xbe81a194	-0.25318587
51	0xbdcc9bcd	-0.09990654
52	0x3d7f4720	0.06232369
53	0xbc45458a	-0.012040505
54	0x3e2396ed	0.15975542
55	0xbecf0019	-0.40429762
56	0xbf035151	-0.51295954
57	0x3e9bd98f	0.30439422
58	0xbe4208e0	-0.18948698
59	0x3ea9f453	0.33194217
60	0x3da5e6a9	0.081006356
61	0x3f07219d	0.52785665
62	0xbd10f979	-0.035394166
63	0x3d8b6db9	0.06808037

blocks.0.attn.v_FacTs.weight f4 [8, 8]
0	0x3e7da334	0.24769288
1	0x3df2f366	0.11862831
2	0xbe0f8043	-0.14013772
3	0x3eb50a45	0.35359398
4	0x3cf8c2b5	0.030366281
5	0xbe6bfca0	-0.23045588
6	0x3e3c87aa	0.18411127
7	0xbd8cc5e0	-0.06873679
8	0xbbab2e58	-0.0052240305
9	0xbf02013f	-0.5078315
10	0xbe9717c6	-0.29510325
11	0x3e231678	0.1592654
12	0x3f292008	0.660645
13	0xbe917462	-0.28409106
14	0x3e1ecaeb	0.15507095
15	0xbeab85c9	-0.33500507
16	0x3ef22de1	0.47300628
17	0x3cfc1feb	0.030776938
18	0x3e77b918	0.24191701
19	0xbed91589	-0.42399243
20	0x3db4dda6	0.088313386
21	0xbef59c61	-0.4797087
22	0xbdde2167	-0.10846215
23	0xbe7bc883	-0.24588208
24	0x3f17fc64	0.5936949
25	0xbf2876b1	-0.6580611
26	0xbe69e212	-0.22840145
27	0xbf2e018d	-0.67971116
28	0x3ec7e9a9	0.39045456
29	0x3e4148f3	0.18875484
30	0x3e69279b	0.22769015
31	0xbe626e8c	-0.22112483
32	0x3e7148d9	0.23562945
33	0xbe59e39f	-0.21278237
34	0xbde07a2b	-0.10960802
35	0xbeb862b0	-0.36012793
36	0x3ef14d0a	0.4712909
37	0x3dad6520	0.08466554
38	0x3ec795da	0.38981515
39	0xbeae8811	-0.34088185
40	0x3dd49660	0.10380244
41	0x3dbd9c38	0.09258312
42	0x3de0fb91	0.109854825
43	0x3e3dedef	0.18547796
44	0xbee9348d	-0.45547906
45	0x3c4d9a2b	0.012548964
46	0x3e131371	0.14362885
47	0xbd8744a1	-0.06604887
48	0xbd4fefbc	-0.050765738
49	0x3eb4f154	0.3534037
50	0x3e28671a	0.1644558
51	0xbdf9bb8a	-0.12193973
52	0xbe7f4f99	-0.24932708
53	0x3e909e2e	0.28245682
54	0xbeb5192f	-0.35370776
55	0x3d6952ac	0.056963608
56	0xbeea1c2d	-0.4572462
57	0x3eeb7d84	0.45994198
58	0x3f06eba0	0.52703285
59	0xbd929454	-0.071571976
60	0xbf0c55d7	-0.5481848
61	0x3dd7e42f	0.105415694
62	0xbe93d6f3	-0.2887493
63	0x3e55d3a0	0.2088151

blocks.0.attn.proj_FacTs.weight f4 [8, 8]
0	0xbd9977d4	-0.074935585
1	0xbeb35f87	-0.3503382
2	0x3e839754	0.25701392
3	0xbe8344ad	-0.25638333
4	0x3d7f6d5a	0.062360145
5	0xbe5d52ce	-0.21613619
6	0xbd00c407	-0.031436946
7	0x3c4f7d4d	0.012664151
8	0x3e5ae3dd	0.21375985
9	0xbd70cf02	-0.058791168
10	0xbe2d2f96	-0.16912684
11	0x3d92a7a5	0.07160882
12	0x3e923ec3	0.28563508
13	0x3d8c20e6	0.068422124
14	0xbec76212	-0.3894201
15	0xbdca79bb	-0.098864995
16	0xbe03a686	-0.12856492
17	0x3e359452	0.17732361
18	0x3ecea7ed	0.40362492
19	0xbe2dc397	-0.16969143
20	0x3e11856e	0.14211056
21	0x3b38dcc7	0.0028207765
22	0xbdfbc1c4	-0.12292817
23	0x3d16f3e9	0.036853705
24	0x3dee219d	0.11627505
25	0xbd844bfb	-0.064598046
26	0x3e25134b	0.16120641
27	0xbd1e3a8d	-0.038630057
28	0x3d835071	0.06411827
29	0xbdb906df	-0.09034514
30	0xbe3d0939	-0.1846055
31	0xbca4bc84	-0.020109423
32	0x3ca7a4c8	0.020464316
33	0x3eee1d95	0.46506944
34	0xbed68ae9	-0.41902855
35	0xbd9ddc45	-0.07708029
36	0xbea0f5a6	-0.31437415
37	0x3dd47c2f	0.10375249
38	0x3e8cf45b	0.27530178
39	0xbecf69aa	-0.40510303
40	0xbe9bf3b8	-0.3045938
41	0x3ec676ba	0.38762456
42	0x3d837fe6	0.06420879
43	0xbebdc897	-0.370671
44	0x3e27f390	0.16401505
45	0x3d8e7b9c	0.0695717
46	0x3ea9c43f	0.33157536
47	0xbf0002eb	-0.5000445
48	0x3ea00903	0.31256875
49	0x388dacdb	6.755601e-05
50	0xbe98e991	-0.29865697
51	0xbe84f41c	-0.2596749
52	0xbe8ed4a3	-0.27896604
53	0xbe16ccd4	-0.14726573
54	0x3ebb78a8	0.3661549
55	0xbe0fed85	-0.1405545
56	0xbda2363e	-0.07920502
57	0xbf03034d	-0.5117691
58	0xbd2d4fca	-0.04231242
59	0x3e1d1249	0.15339006
60	0x3d3c077a	0.045905568
61	0xbe41fd16	-0.18944201
62	0x3e9be378	0.30446982
63	0x3f18c20a	0.5967108

blocks.0.mlp.fc1_FacTs.weight f4 [32, 8]
0	0xbe5b4908	-0.21414578
1	0xbee5c861	-0.4487944
2	0x3e08c378	0.13355815
3	0x3e469d1c	0.1939587
4	0x3de4678b	0.11152562
5	0xbea32ca3	-0.31869993
6	0x3e6677d8	0.22506654
7	0xbde2a5df	-0.11066794
8	0x3e32c45b	0.17457716
9	0xbd8c0353	-0.068365715
10	0x3ea89d10	0.3293233
11	0xbe65203b	-0.22375576
12	0x3ecf8ed8	0.4053867
13	0xbe264079	-0.16235532
14	0x3d5cb66d	0.053884912
15	0xbe0fad41	-0.14030935
16	0x3caa6645	0.020800719
17	0x3d97a2a1	0.07404066
18	0x3e49b361	0.19697334
19	0x3dbd94ba	0.09256883
20	0xbdc033ea	-0.09384902
21	0xbd1f2b0e	-0.03885942
22	0xbd79affe	-0.060958855
23	0xbd39d016	-0.04536446
24	0x3e30148c	0.17195338
25	0xbe730f86	-0.2373639
26	0x3ccb341e	0.024805125
27	0x3de33c9b	0.11095544
28	0x3db096bc	0.086225
29	0xbe67ceff	-0.22637556
30	0xbc1113c4	-0.00885481
31	0xbecd63a4	-0.40115082
32	0xbe83c338	-0.25734878
33	0x3e958716	0.29204625
34	0xbdc1650a	-0.094431
35	0xbe11031f	-0.14161347
36	0x3debde2e	0.11516987
37	0x3e646857	0.22305427
38	0xbbcb2b70	-0.0062002465
39	0x3d9c8ff7	0.076446466
40	0x3ecb7635	0.39738622
41	0xbe13de22	-0.14440206
42	0x3ebb1a9f	0.36543748
43	0xbdd7c40f	-0.10535442
44	0x3e3712f3	0.17878322
45	0xbef244a4	-0.47317994
46	0x3df018c2	0.11723472
47	0x3d8b6bc0	0.06807661
48	0xbea43f2f	-0.32079455
49	0xbe054b1e	-0.13016936
50	0x3d2a6445	0.04159953
51	0x3e950076	0.29101914
52	0x3e3dae88	0.1852361
53	0xbe8025e0	-0.25028896
54	0x3e73bc71	0.23802353
55	0xbca36a96	-0.019948285
56	0x3d94f6b4	0.072736174
57	0x3e26415a	0.16235867
58	0x3eaa7738	0.33294082
59	0x3e464e66	0.19365844
60	0x3bdbbaa7	0.0067056003
61	0xbecd689e	-0.4011888
62	0xbc8d7ba0	-0.017270863
63	0x3de7a0ed	0.11309991
64	0xbe590347	-0.21192656
65	0x3ea3d6a1	0.31999686
66	0xbe4ea8eb	-0.20181625
67	0xbe0995a7	-0.13435994
68	0x3dfb8f55	0.12283198
69	0xbdd99050	-0.106232285
70	0x3d41467f	0.04718637
71	0xbf0b96d1	-0.54527
72	0x3e8f1a6f	0.27949855
73	0xbf077f9c	-0.5292909
74	0x3c401bd6	0.011725387
75	0xbd3c17ac	-0.045921013
76	0x3df152f4	0.117834
77	0x3e28785b	0.16452162
78	0xbe0c952b	-0.13728778
79	0x3e040c6f	0.12895368
80	0xbea98c7d	-0.33114997
81	0x3eeda4e0	0.46414852
82	0xbe9047c5	-0.28179756
83	0x3ee69b43	0.4504033
84	0xbdc758b6	-0.09733717
85	0x3ea440ff	0.32080838
86	0xbeab9901	-0.3351517
87	0x3e2f3793	0.17111044
88	0x3ea11a6f	0.3146548
89	0xbea2c04f	-0.31787345
90	0x3ecbff2b	0.39843115
91	0x3e3f1b23	0.18662696
92	0xbdf18c36	-0.11794321
93	0x3e8ffe0d	0.28123513
94	0x3d23000e	0.039794974
95	0xbe8a0982	-0.2696038
96	0x3cb7ad2b	0.02242144
97	0xbed4a3b2	-0.4153114
98	0x3ecbf11b	0.39832386
99	0xbe7a2f2d	-0.24432059
100	0xbdd07139	-0.101778455
101	0xbc55dae4	-0.013052676
102	0x3eadc337	0.33938
103	0x3eb3e969	0.35139015
104	0xbdd34bcc	-0.103171915
105	0x3d162dee	0.036664896
106	0xbd68c17a	-0.05682514
107	0x3d3b4e9b	0.04572926
108	0xbeb602c2	-0.3554898
109	0xbec8c6d2	-0.39214188
110	0x3dd74ff9	0.105133004
111	0x3eb02a16	0.3440711
112	0x3e703029	0.23455872
113	0x3deb1ceb	0.11480125
114	0x3ec84210	0.39112902
115	0x3cc30394	0.023805417
116	0xbdbe959f	-0.09305882
117	0xbea316d2	-0.31853348
118	0x3ec43c2c	0.38327157
119	0xbde3584a	-0.11100824
120	0x3d7326cc	0.05936317
121	0xbe8e6070	-0.2780795
122	0xbe862906	-0.26203173
123	0x3c195eb5	0.009360959
124	0xbe66918f	-0.22516464
125	0x3e890b69	0.26766518
126	0x3df3347c	0.11875245
127	0xbed9ae8b	-0.42515978
128	0x3d964465	0.07337264
129	0x3dfb7bc2	0.12279464
130	0xbeb90d1e	-0.3614282
131	0xbdd792ed	-0.10526071
132	0xbe5b5545	-0.21419246
133	0xbe92bbbf	-0.28658864
134	0x3da56a53	0.0807692
135	0xbecb9f85	-0.3977014
136	0x3df3943e	0.11893509
137	0x3e7519c1	0.23935606
138	0x3d9b57a0	0.075850725
139	0xbe54bfdb	-0.20776312
140	0x3eb04d69	0.3443406
141	0x3e02bfb8	0.12768447
142	0x3ea022cf	0.31276557
143	0xbe392ae0	-0.18082762
144	0xbe29f6fe	-0.16598126
145	0x3db92368	0.09039956
146	0x3d33b788	0.0438762
147	0xbef0bd17	-0.47019264
148	0x3e8d1fce	0.27563328
149	0xbe5c9365	-0.21540602
150	0x3ec2bec8	0.3803618
151	0x3eff1fab	0.49828848
152	0xbe8d5d0d	-0.27610055
153	0x3e8bead5	0.273276
154	0x3ea4bd57	0.32175705
155	0xbd33dad5	-0.043909866
156	0x3e8c5c66	0.27414244
157	0xbea78cab	-0.3272451
158	0xbe67d201	-0.22638704
159	0xbe390d10	-0.18071389
160	0x3d7a4c9d	0.06110822
161	0x3df169ad	0.11787734
162	0xbe4cea46	-0.20011243
163	0x3d42e371	0.047580186
164	0x3d92d16b	0.071688496
165	0xbec12659	-0.3772457
166	0xbd9187bc	-0.071059674
167	0xbe4de7fd	-0.20108028
168	0xbda41f5f	-0.08013796
169	0xbb96c4e7	-0.0046011093
170	0xbe00ef66	-0.12591323
171	0x3ecdc8ec	0.40192354
172	0xbe7c93b0	-0.24665713
173	0x3eac3b10	0.3363881
174	0xbe1d60ac	-0.15368909
175	0xbe91e628	-0.28495908
176	0xbe218d54	-0.15776569
177	0x3e14fa19	0.1454853
178	0x3ce9479e	0.028476533
179	0x3be10b24	0.006867783
180	0xbee1db93	-0.44112834
181	0x3e2961ce	0.16541216
182	0xbeaef038	-0.34167647
183	0xbba5ac29	-0.0050559235
184	0xbdb6f40b	-0.08933266
185	0x3ea74755	0.3267161
186	0xbd351b7e	-0.04421567
187	0x3e2fcadf	0.17167233
188	0xbe166abd	-0.14689155
189	0xbe150f3a	-0.1455659
190	0x3e277cfb	0.1635627
191	0x3e6d4a8d	0.2317297
192	0xbee3d56f	-0.44498774
193	0x3defe7f9	0.11714167
194	0x3d7e18c7	0.06203535
195	0x3ebe3bd9	0.37155035
196	0x3c66b040	0.014080107
197	0x39f9ff0f	0.00047683014
198	0xbf0244be	-0.5088614
199	0xbf0e0eb3	-0.5549118
200	0xbea3187c	-0.31854618
201	0xbe9ca320	-0.30593204
202	0x3e571f56	0.21008047
203	0xbd35b590	-0.044362605
204	0x3e83677e	0.25664896
205	0xbe6de4ed	-0.2323186
206	0x3e491484	0.19636732
207	0x3e2d1ca4	0.16905457
208	0xbebd36ea	-0.3695596
209	0xbd7818e0	-0.060570598
210	0x3e9373a4	0.28799164
211	0x3dd49a53	0.103809975
212	0xbdb01e0e	-0.085994825
213	0xbe1446e7	-0.14480172
214	0xbe89a602	-0.26884466
215	0xb91d3dea	-0.00014995752
216	0x3cd31cdb	0.025770595
217	0xbe79ea54	-0.24405795
218	0x3e958b6e	0.2920794
219	0xbe542a70	-0.20719314
220	0x3eae74d3	0.34073505
221	0xbedca6d9	-0.43096045
222	0x3e6e062c	0.23244542
223	0xbe2fa7f7	-0.17153917
224	0x3b07de40	0.0020731837
225	0xbddc6505	-0.107614554
226	0xbe2648d1	-0.16238715
227	0xbe700deb	-0.2344281
228	0x3ea2632a	0.3171628
229	0xbf0b7b2d	-0.54484826
230	0x3e93572a	0.28777438
231	0x3ed84ef3	0.42247733
232	0x3e91dc96	0.28488606
233	0xbea11b75	-0.3146626
234	0x3e8346b4	0.2563988
235	0x3e4bb1a6	0.19891986
236	0x3d9eecfe	0.077600464
237	0xbcb571d1	-0.022148998
238	0x3d6f69c2	0.058450468
239	0xbe3965c9	-0.18105234
240	0xbbc3bd0c	-0.005973464
241	0x3e92866d	0.28618184
242	0xbee2d5be	-0.44303697
243	0x3f07af62	0.5300199
244	0x3ed13983	0.4086419
245	0x3ea82fc6	0.32848948
246	0xbeab4071	-0.33447602
247	0xbf26b861	-0.6512509
248	0xbf061491	-0.5237513
249	0x3da38b15	0.07985512
250	0xbe9f3a82	-0.31099325
251	0x3f20151f	0.6253223
252	0x3e9c1dc4	0.3049146
253	0x3ef2d282	0.4742623
254	0xbe8372f6	-0.25673646
255	0xbea6a07f	-0.32544324

blocks.0.mlp.fc2_FacTs.weight f4 [8, 32]
0	0xbe537b36	-0.2065247
1	0x3eb52d14	0.35385954
2	0xbdd45516	-0.10367791
3	0x3e48d0f4	0.1961096
4	0xbe0d9f2c	-0.1383025
5	0x3db7e5f2	0.089794055
6	0xbe67f5ca	-0.22652355
7	0x3e6eef5c	0.23333496
8	0xbd667dbd	-0.056272257
9	0x3eca5816	0.3952033
10	0x3dd7e628	0.10541946
11	0x3e150582	0.14552882
12	0xbe835db4	-0.25657427
13	0x3e8d0971	0.27546266
14	0xbdec3922	-0.11534335
15	0x3c262a8c	0.01014198
16	0xbd250a96	-0.0402933
17	0x3e968d36	0.2940461
18	0x3e379efa	0.17931738
19	0x3e961701	0.29314426
20	0xbe19b823	-0.15011649
21	0x3e3791e1	0.17926742
22	0x3e275ced	0.16344042
23	0xbe6c7776	-0.23092446
24	0xbe371f0e	-0.1788294
25	0x3e5a45b3	0.2131565
26	0x3d03c439	0.032169554
27	0x3c9bf433	0.019037342
28	0xbe7721ae	-0.24133942
29	0x3e1233ad	0.14277525
30	0xbe2b92eb	-0.16755264
31	0x3d91a9c1	0.07112456
32	0x3c11a65e	0.008889763
33	0xbe28a4c9	-0.1646911
34	0xbd2c4d55	-0.042065937
35	0x3cf95227	0.030434681
36	0x3e9922e0	0.2990942
37	0x3ee3f109	0.44519833
38	0xbceed11e	-0.02915245
39	0xbdf783fb	-0.1208572
40	0x3ecc594e	0.39911884
41	0xbe841c06	-0.2580263
42	0x3de3515c	0.110995024
43	0xbddf14aa	-0.10892613
44	0x3e4cf6da	0.20016041
45	0xbe117fb8	-0.14208877
46	0xbcee5173	-0.029091572
47	0x3dd3e697	0.10346716
48	0xbe2de539	-0.16981973
49	0xbe41cf56	-0.18926749
50	0xbe577f2b	-0.21044604
51	0xbe1a6802	-0.15078738
52	0x3ebdef35	0.37096563
53	0xbd14f29f	-0.036364194
54	0xbe1450b8	-0.14483917
55	0xbe1737ae	-0.14767334
56	0xbeaa6623	-0.3328105
57	0x3ddf0164	0.10888937
58	0xbe925b22	-0.28585154
59	0x3d3ee6be	0.04660677
60	0x3ebe09d1	0.37116864
61	0x3d906df5	0.07052223
62	0xbc93d85d	-0.018047506
63	0xbdfba6f3	-0.122877024
64	0x3ee58e94	0.4483534
65	0xbdee39f3	-0.11632147
66	0xbdedf183	-0.1161833
67	0xbeaf999d	-0.34296885
68	0x3e78473a	0.24245921
69	0xbebd5aa4	-0.36983216
70	0x3edd3c1a	0.43209916
71	0xbe9afc60	-0.30270672
72	0x3e97cf92	0.2965055
73	0xbea652f2	-0.32485157
74	0xbe59a440	-0.21254063
75	0xbe057ca2	-0.13035825
76	0x3e3cf72d	0.18453665
77	0xbe904169	-0.28174904
78	0x3e8d6eb8	0.27623534
79	0xbc094538	-0.008378319
80	0x3daced6b	0.084437214
81	0xbe02804a	-0.12744251
82	0x3db2217d	0.08697794
83	0xbe46a85b	-0.1940016
84	0x3ebab468	0.36465764
85	0x3dd03b6b	0.10167583
86	0x3e70548e	0.23469755
87	0xbd8f2b5b	-0.06990691
88	0xbe6680f3	-0.22510128
89	0x3d46532d	0.048419166
90	0xbe984893	-0.2974287
91	0x3e92670e	0.2859425
92	0x3dfd2b8a	0.1236182
93	0x3e453139	0.19257058
94	0x3d8c3efa	0.06847949
95	0xbebb52e5	-0.3658668
96	0xbdfc99cd	-0.12334023
97	0xbdd0f567	-0.10203057
98	0xbe1b1c2b	-0.15147464
99	0xbe1d5e23	-0.15367942
100	0x3e0a30c7	0.1349517
101	0x3e0a5df2	0.135124
102	0x3e81faac	0.2538656
103	0xbba9183d	-0.00516036
104	0xbde840eb	-0.11340507
105	0xbce5dd85	-0.02805973
106	0x3e35451f	0.17702149
107	0xbe71097b	-0.23538773
108	0x3e3c3bcd	0.18382187
109	0x3d9da96f	0.076983325
110	0xbe00cd0f	-0.12578224
111	0xbd5c69e0	-0.053811908
112	0x3cbc4ee5	0.022986839
113	0xbde54002	-0.11193849
114	0x3db295e9	0.08719999
115	0x3d40fb08	0.047114402
116	0x3dc5efde	0.09664892
117	0x3e540cf8	0.20708072
118	0x3c8dfd7d	0.017332787
119	0xbd1376a9	-0.036001835
120	0xbe7535fe	-0.23946378
121	0x3e4ee023	0.20202689
122	0xbe4879a1	-0.19577648
123	0x3e66acd5	0.22526868
124	0x3dd0de1d	0.10198615
125	0x3da404bf	0.08008718
126	0xbe1af938	-0.15134132
127	0xbe936f1c	-0.28795707
128	0x3d8f1946	0.069872424
129	0xbbce5ee4	-0.006297933
130	0xbcadfddd	-0.021239216
131	0xbd7173dc	-0.058948383
132	0xbd4f37f3	-0.050590467
133	0x3e842de6	0.25816268
134	0xbd5ce07f	-0.053925034
135	0xbe20665c	-0.15664047
136	0x3db00f30	0.08596647
137	0xba2534bc	-0.00063021085
138	0x3eb05ece	0.3444733
139	0xbe86798a	-0.26264602
140	0xbcc2fc77	-0.023802025
141	0xbe3644ce	-0.17799684
142	0xbea77d9f	-0.3271303
143	0x3e9b0502	0.30277258
144	0xbe4f38a9	-0.20236458
145	0xbe4302f7	-0.190441
146	0xbd8b83b4	-0.0681223
147	0xbcd71abe	-0.026257869
148	0x3e28ecd3	0.16496591
149	0xbd861b67	-0.06548195
150	0xbe8d334a	-0.27578193
151	0x3de46fe3	0.11154153
152	0xbe0cf111	-0.13763835
153	0x3e44c121	0.19214298
154	0xbd847d25	-0.06469182
155	0x3e646b6f	0.22306608
156	0xbd66b04a	-0.056320466
157	0x3db7fbca	0.08983572
158	0xbdc85d67	-0.0978344
159	0xbdb056a9	-0.08610279
160	0x3bffa2ae	0.0078013754
161	0x3dde2bfb	0.10848232
162	0xbe244d84	-0.16045195
163	0x3da33093	0.07968249
164	0x3e110130	0.14160609
165	0xbd6644f3	-0.0562181
166	0x3dfa43cc	0.122199625
167	0x3de862eb	0.11346992
168	0xbd9d0912	-0.07667746
169	0xbceffd24	-0.029295512
170	0x3e88d167	0.2672226
171	0x3da02db7	0.078212194
172	0x3d007d90	0.031369746
173	0xbe3b1e1f	-0.18273209
174	0xbde9ba16	-0.11412446
175	0x3d879f41	0.06622172
176	0xbc25f40f	-0.010128989
177	0x3ccc2ab3	0.024922704
178	0x3df21255	0.11819903
179	0x3e2dc190	0.1696837
180	0x3d999a7b	0.07500168
181	0x3d114999	0.03547058
182	0x3d0fd279	0.03511283
183	0x3e177f03	0.14794545
184	0x3e6c5991	0.23081042
185	0x3b6af260	0.0035850033
186	0x3e6af315	0.22944291
187	0xbe2a1b0f	-0.16611885
188	0xbbd38648	-0.0064552166
189	0xbe44b6cd	-0.19210358
190	0x3e6f1479	0.23347653
191	0x3e8199ea	0.2531274
192	0xbe2840f5	-0.16431029
193	0x3e0be060	0.13659811
194	0xbdd31df3	-0.10308447
195	0x3ecb49b8	0.3970468
196	0xbe8b2903	-0.27179727
197	0x3c2d6441	0.010582984
198	0xbdfcbd3c	-0.12340781
199	0x3ed44ccc	0.4146484
200	0xbee57b05	-0.4482042
201	0x3e7b2118	0.24524343
202	0x3e2ad527	0.16682874
203	0x3ed38849	0.41314915
204	0xbed8c7db	-0.42339978
205	0x3ea93c01	0.33053592
206	0xbc4f1698	-0.012639664
207	0xbe05c6ef	-0.13064168
208	0x3e7c1514	0.24617416
209	0x3e552f48	0.20818818
210	0x3c2db298	0.010601662
211	0x3e853a36	0.26020974
212	0xbec5fb78	-0.38668418
213	0xbe84fc4e	-0.25973743
214	0x3d92b040	0.07162523
215	0x3df35cc4	0.11882928
216	0x3e0cdc17	0.13755833
217	0xbd9b213f	-0.075747006
218	0x3e921902	0.28534704
219	0xbe410210	-0.18848443
220	0xbe65c791	-0.2243941
221	0x3e2d7138	0.16937721
222	0xbcf06387	-0.029344333
223	0x3ddc7a73	0.10765543
224	0x3e11c74b	0.1423618
225	0x3dfc6bc8	0.12325245
226	0xbd8f0d6a	-0.069849804
227	0x3d009256	0.031389557
228	0x3d96846a	0.07349475
229	0x3e684811	0.22683741
230	0xbe58925f	-0.21149586
231	0xbd805005	-0.062652625
232	0xbe91e5f5	-0.28495756
233	0x3e176eb0	0.14788318
234	0xbdd971c7	-0.106174044
235	0x3d8bc68f	0.068249814
236	0x3e5bbc6b	0.21458595
237	0x3cc8f08c	0.024528764
238	0x3cb88ad9	0.022527145
239	0x3d7a196b	0.061059397
240	0xbc20ea1c	-0.009821441
241	0x3dd2a891	0.10286058
242	0x3e9cc1b2	0.30616528
243	0xbe14cc0c	-0.14530963
244	0xbe0f4e59	-0.13994731
245	0xbe14b556	-0.14522299
246	0x3e8e2ea0	0.27769947
247	0xbe21d3f2	-0.15803507
248	0xbe9844e1	-0.2974005
249	0x3e017565	0.12642439
250	0xbe7596d5	-0.23983319
251	0x3dd0e5bd	0.10200069
252	0xba8e32f6	-0.0010848928
253	0x3d5ccd64	0.053906813
254	0xbe9f823f	-0.31154057
255	0x3de22bad	0.11043487

blocks.1.attn.q_FacTs.weight f4 [8, 8]
0	0x3ec8bd74	0.3920704
1	0xbc6fc9a5	-0.014635478
2	0x3ea22a7c	0.31673038
3	0x3ba1cf2a	0.004938026
4	0xbe399a5b	-0.18125288
5	0xbea0a76f	-0.31377742
6	0x3a81584c	0.0009868233
7	0x3a5c85b2	0.0008412256
8	0x3eeb1488	0.45914102
9	0x3dccdb39	0.10002751
10	0x3f1aaeca	0.60422957
11	0xbe26bcef	-0.1628301
12	0xbea46fb8	-0.32116485
13	0xbe093d72	-0.13402346
14	0x3f04024a	0.5156599
15	0x3dcf77ed	0.10130296
16	0xbf01677c	-0.5054853
17	0x3d65139e	0.05592691
18	0xbea04c35	-0.3130814
19	0x3d3fe6b0	0.04685086
20	0x3e82226d	0.2541689
21	0x3e876ae6	0.26448745
22	0xbe423589	-0.18965735
23	0xbef376d0	-0.47551584
24	0x3ef41384	0.4767114
25	0xbebfee8e	-0.3748669
26	0x3ede474e	0.43413776
27	0x3da9838f	0.08277046
28	0xbe8e7c48	-0.27829194
29	0xbe66fcba	-0.22557345
30	0x3e941d90	0.28928804
31	0x3d3ea7f5	0.046546895
32	0x3df35599	0.11881561
33	0xbcae2961	-0.021259965
34	0xbecb9b7c	-0.39767063
35	0xbd3eaee0	-0.046553493
36	0x3ea49405	0.3214418
37	0xbd1f3a1c	-0.038873777
38	0xbca18d0e	-0.01972058
39	0x3e4b36a9	0.1984507
40	0xbd449ff6	-0.048004113
41	0xb908b872	-0.00013038682
42	0xbeaec6b5	-0.34135976
43	0x3e22af45	0.15887173
44	0x3e377df1	0.17919137
45	0xbe257a6d	-0.16159983
46	0x3e38aa42	0.18033698
47	0xbe9484bb	-0.29007515
48	0xbd27d783	-0.040977012
49	0x3e33494f	0.17508434
50	0x3ea702c1	0.3261929
51	0x3e7ca6ca	0.24673
52	0xbf108892	-0.5645839
53	0xbd98bb97	-0.07457655
54	0x3c351bdf	0.011054008
55	0x3e6fea6e	0.23429272
56	0xbc9cceeb	-0.019141635
57	0xbebebe5f	-0.37254617
58	0xbda9c01a	-0.082885936
59	0xbce7862d	-0.028262222
60	0x3d59914a	0.053117074
61	0xbf05cfef	-0.52270406
62	0x3f0af982	0.5428697
63	0x3ec872a6	0.3914997

blocks.1.attn.k_FacTs.weight f4 [8, 8]
0	0x3e740e0f	0.23833488
1	0xbe5253a2	-0.20539716
2	0x3d35a99b	0.0443512
3	0xbe3f2690	-0.18667054
4	0x3e87594e	0.26435322
5	0xbebefb68	-0.37301183
6	0x3e302d8d	0.17204876
7	0x3e771809	0.24130262
8	0x3db223a2	0.08698203
9	0xbc840603	-0.016116148
10	0xbd2533a0	-0.040332437
11	0x3d9f3821	0.077743776
12	0x3e48b861	0.19601585
13	0xbb45ffe4	-0.0030212337
14	0x3d40470a	0.046942748
15	0xbe837663	-0.2567626
16	0xbe3ebf75	-0.18627723
17	0x3e407388	0.18794072
18	0xbdf7fb1a	-0.12108441
19	0x3e284bf6	0.16435227
20	0x3dbbc880	0.09169102
21	0x3f1481c8	0.5801053
22	0xbe9c9f0e	-0.305901
23	0xbf0e2483	-0.5552446
24	0xbd4229be	-0.04740309
25	0x3e720647	0.23635207
26	0x3ed83e41	0.42234996
27	0xbe360fe7	-0.17779504
28	0x3cc52d99	0.024069594
29	0xbe0698a9	-0.13144173
30	0x3db24d83	0.087061904
31	0x3c0fff8f	0.008788957
32	0xbe067c72	-0.1313341
33	0x3dc3c75d	0.0955951
34	0xbead51a1	-0.3385134
35	0xbe11ff6b	-0.1425759
36	0xbe120c3d	-0.14262481
37	0xbe168250	-0.14698148
38	0xbe0c3726	-0.13692912
39	0x3e4ad913	0.1980937
40	0xbec10786	-0.37701052
41	0xbd9f950c	-0.077921
42	0xbe9d1908	-0.3068316
43	0x3c40273b	0.011728103
44	0x3eb5cb57	0.35506698
45	0x3e3e00b5	0.18554957
46	0xbe13fae9	-0.14451183
47	0xbe9d2634	-0.3069321
48	0x3e556498	0.20839155
49	0x3d8e6f0f	0.069547765
50	0xbeb826c4	-0.35967076
51	0x3e91739f	0.28408524
52	0xbdd131ab	-0.102145515
53	0x3e72eb67	0.23722611
54	0xbd14003c	-0.036133036
55	0x3eb32fee	0.34997505
56	0x3e820e97	0.25401756
57	0xbefbda06	-0.49189776
58	0x3e703748	0.23458588
59	0xbeff11d4	-0.4981829
60	0xbd01c8de	-0.031685703
61	0xbe7642b2	-0.2404888
62	0x3e8bf590	0.27335787
63	0x3dbc0932	0.09181441

blocks.1.attn.v_FacTs.weight f4 [8, 8]
0	0x3dcdce52	0.10049118
1	0xbc9855f1	-0.018595668
2	0x3e794370	0.24342132
3	0xbea393c3	-0.3194867
4	0x3ed00563	0.4062911
5	0x3e2c8b11	0.16849925
6	0x3d7f69c4	0.062356725
7	0x3df91755	0.12162653
8	0xbefd9194	-0.4952513
9	0x3d250b09	0.040293727
10	0x3c8b9068	0.017036632
11	0xbdf2131c	-0.11820051
12	0xbd29d174	-0.041459516
13	0x3eb1fd9b	0.34763798
14	0xbe8cdf80	-0.27514267
15	0xbb87e0e2	-0.004146681
16	0xbe633497	-0.2218803
17	0x3eb82237	0.35963604
18	0x3e8aa9ef	0.27082774
19	0xbc8bba6a	-0.017056663
20	0xbea383e0	-0.3193655
21	0x3f00b839	0.502811
22	0x3d480f9a	0.048843004
23	0x3dd0391a	0.10167141
24	0x3e4b3520	0.19844484
25	0xbdae6730	-0.08515775
26	0x3dc2fd23	0.09520938
27	0x3e2ad864	0.16684109
28	0x3e674a47	0.22586928
29	0xbe80e68b	-0.2517589
30	0xbe8e0a42	-0.277422
31	0x3dea2e3e	0.11434601
32	0xba255c11	-0.00063079695
33	0xbe728361	-0.2368293
34	0x3e62b7fe	0.221405
35	0xbed0c6a3	-0.40776548
36	0xbef6ac60	-0.48178387
37	0x3e2c920f	0.16852592
38	0x3c09bf3e	0.008407412
39	0x3d981335	0.074255385
40	0xbe100318	-0.1406368
41	0x3eff71a7	0.49891397
42	0x3d94d9f7	0.07268136
43	0x3e774798	0.24148405
44	0x3ec44bff	0.3833923
45	0xbe77815d	-0.24170442
46	0x3e4eba42	0.20188239
47	0xbe9f62df	-0.3113012
48	0x3c26bd21	0.010176928
49	0xbed3b548	-0.41349244
50	0x3d3015da	0.04298959
51	0x3e5360a4	0.20642334
52	0xbeac1c84	-0.33615506
53	0xbef75219	-0.48304823
54	0x3e958f81	0.29211047
55	0x3ef11b7c	0.4709128
56	0x3e7129ab	0.23551051
57	0x3d473987	0.048638847
58	0x3d8cb34b	0.06870135
59	0xbea380aa	-0.319341
60	0xbe72adcc	-0.23699111
61	0xbe650b75	-0.22367652
62	0x3ebb73f0	0.3661189
63	0x3dd7698f	0.105181806

blocks.1.attn.proj_FacTs.weight f4 [8, 8]
0	0xbe9de758	-0.30840564
1	0xbd1228a3	-0.035683285
2	0xbeddaafc	-0.43294513
3	0xbe1cfd5b	-0.15331022
4	0xbf38d5ed	-0.72201425
5	0xbf23bb3e	-0.63957584
6	0xbe99a2d6	-0.30007046
7	0x3f0c5743	0.5482065
8	0x3e873e5e	0.2641477
9	0x3e99ddc0	0.30051994
10	0x3d288066	0.041138075
11	0x3ea7abfc	0.327484
12	0xbd17033c	-0.03686832
13	0x3ed3aad4	0.4134127
14	0x3e7b8435	0.24562152
15	0xbf1af158	-0.6052451
16	0x3f08e5bd	0.5347555
17	0x3ebb35ff	0.36564633
18	0xbdac5e9d	-0.084164836
19	0x3eaf86bd	0.34282485
20	0xbe09d58c	-0.13460368
21	0xbeaedc4f	-0.34152457
22	0x3f0ba81f	0.5455341
23	0xbebf3a35	-0.37349096
24	0x3e64188e	0.22274992
25	0x3e18ea98	0.1493324
26	0x3eefbdc1	0.46824458
27	0x3e5f5234	0.21808702
28	0x3f137d48	0.5761304
29	0xbd45c286	-0.048281215
30	0x3f1b1944	0.6058543
31	0xbea4f3a5	-0.32217136
32	0x3ea17bb2	0.31539685
33	0x3f13ff9d	0.5781191
34	0x3dfd6cee	0.12374292
35	0x3ebc603c	0.3679217
36	0x3e85b3d7	0.2611377
37	0x3eb3fa02	0.35151678
38	0x3e98795e	0.29780096
39	0xbebadb15	-0.3649527
40	0xbe81296f	-0.25226924
41	0xbe115c0e	-0.14195272
42	0xbe219ffb	-0.15783684
43	0x3e2f37f6	0.17111191
44	0xbe39b8b2	-0.18136862
45	0x3e43b9de	0.19113871
46	0x3e568cdd	0.20952173
47	0x3e2f9854	0.17147952
48	0xbed90190	-0.42384005
49	0xbf2a6f49	-0.6657606
50	0xbe314688	-0.17312062
51	0xbe7b7c52	-0.24559143
52	0xbea46093	-0.3210493
53	0xbea94ac5	-0.33064857
54	0x3e06b25c	0.13153976
55	0x3f1aedce	0.6051911
56	0xbdf76684	-0.120801
57	0xbcd87e94	-0.026427545
58	0xbe380bad	-0.17973204
59	0xbe57880a	-0.21047989
60	0x3bc91956	0.0061370535
61	0xbebdb19e	-0.37049574
62	0x3ccda6f0	0.025104016
63	0xbdf688cb	-0.1203781

blocks.1.mlp.fc1_FacTs.weight f4 [32, 8]
0	0xbea7affe	-0.3275146
1	0x3e58ead5	0.21183331
2	0xbe71db92	-0.23618916
3	0x3d7dc254	0.061952904
4	0x3e1af022	0.15130666
5	0x3ec14a03	0.3775178
6	0x3df47dd5	0.11938063
7	0x3a59bae8	0.0008305744
8	0xbe680f98	-0.22662199
9	0x3f00c9f8	0.5030818
10	0xbe3335ff	-0.17501067
11	0x3e24427b	0.16040985
12	0xbe799610	-0.2437365
13	0x3e27e2c5	0.163951
14	0x3c5ee8cc	0.013605308
15	0xbe9cc321	-0.30617622
16	0xbe8053d4	-0.25063956
17	0xbeaf3faf	-0.34228274
18	0x3e8e1dce	0.27757114
19	0x3ea653fc	0.3248595
20	0xbe75d300	-0.24006271
21	0xbc99d20c	-0.018776916
22	0xbda111b5	-0.078647055
23	0x3e1c59d9	0.15268649
24	0xbe5ae722	-0.21377233
25	0xbe0f9dac	-0.14024991
26	0x3c157e1a	0.009124303
27	0xbe8bda55	-0.27315012
28	0x3e9c046d	0.30472127
29	0xbe112e3f	-0.14177798
30	0x3c2ec6c5	0.010667508
31	0xbe819c3e	-0.25314516
32	0x3df223c6	0.118232295
33	0x3e8b169f	0.27165696
34	0x3dbbdb2d	0.09172664
35	0x3e3e8213	0.18604307
36	0x3e6ce4fd	0.23134227
37	0x3e1a4d19	0.15068473
38	0xbea71906	-0.3263628
39	0x3e2e1774	0.17001134
40	0x3d4c14d1	0.04982454
41	0xbeaa7fb3	-0.33300552
42	0x3e2769d6	0.16348967
43	0xbd413f34	-0.047179416
44	0x3e96ddf7	0.2946622
45	0x3ea5f1cd	0.32411042
46	0x3eaf0da8	0.34190106
47	0x3e9e375f	0.3090162
48	0x3e8da562	0.2766524
49	0x3d665725	0.05623545
50	0x3e1fd6e6	0.15609321
51	0xbdba43d6	-0.0909497
52	0xbc09f89d	-0.00842109
53	0x3c1dc186	0.009628659
54	0x3e3d6f0f	0.18499397
55	0x3993e730	0.00028210273
56	0x3e9f383e	0.31097597
57	0xbc84cce7	-0.016210986
58	0x3e4ec267	0.20191346
59	0xbe415cd2	-0.18883064
60	0x3e280202	0.16407016
61	0xbddabe13	-0.10680785
62	0xbd99ce4c	-0.07510051
63	0x3ec11660	0.37712383
64	0xbe2b4c76	-0.16728386
65	0xbe73710c	-0.23773593
66	0x3ed5a44e	0.41726917
67	0x3d2cad1f	0.04215729
68	0xbeb754d2	-0.358069
69	0xbdaa609b	-0.08319207
70	0x3ce2bd35	0.027678112
71	0x3e504cb6	0.20341763
72	0x3d8dee6a	0.069302395
73	0x3e268e79	0.16265287
74	0x3eff1a38	0.4982469
75	0xbeaea943	-0.3411351
76	0x3e6b9f52	0.23009995
77	0xbde1815f	-0.11011004
78	0x3eaf36f4	0.34221613
79	0x3ed7d10c	0.42151678
80	0xbe09cb35	-0.13456424
81	0x3df3afe0	0.1189878
82	0xbe5e2996	-0.21695551
83	0xbdbc3148	-0.09189087
84	0xbe43d37d	-0.19123645
85	0xbee3e782	-0.44512564
86	0x3e8f4a4a	0.27986366
87	0xbd7fd7e2	-0.06246174
88	0x3e8d5718	0.2760551
89	0xbeb6693e	-0.35627168
90	0x3e1b5357	0.1516851
91	0xbe824014	-0.25439513
92	0xbe7ecc06	-0.24882516
93	0x3e09d319	0.13459434
94	0x3deb5a0d	0.11491785
95	0x3e9e3b0b	0.3090442
96	0x3c5d35ce	0.013501598
97	0xbd434c1a	-0.047679998
98	0xbd1a1e06	-0.03762629
99	0x3ea53c4a	0.3227256
100	0xbe074c16	-0.13212618
101	0xbe3b4be7	-0.18290673
102	0xbd9e639b	-0.07733842
103	0xbefeb267	-0.49745485
104	0xbe24c888	-0.16092122
105	0x3d07a8d9	0.03312001
106	0x3e9e467b	0.30913147
107	0xbe908da1	-0.28233054
108	0xbdd562b7	-0.10419219
109	0x3e23c4b1	0.15993
110	0xbe95c492	-0.29251534
111	0x3e11c11b	0.1423382
112	0x3e5878d9	0.2113985
113	0x3c8dc176	0.017304163
114	0x3eabd60d	0.33561745
115	0xbed5adba	-0.41734105
116	0xbeadb1ce	-0.33924717
117	0x3de22468	0.110421
118	0xbc7c7607	-0.015408999
119	0x3ed5ca50	0.41755915
120	0xbe8345e3	-0.25639257
121	0x3e43c9a1	0.19119884
122	0xbe74039a	-0.23829499
123	0xbe96b4ce	-0.29434818
124	0x3e231b9c	0.15928501
125	0xbd795087	-0.060867812
126	0x3e970520	0.29496098
127	0x3eb0656d	0.34452382
128	0x3e45e49c	0.19325489
129	0xbb221dad	-0.0024736926
130	0x3e88d509	0.26725033
131	0xbe9333a5	-0.2875034
132	0x3e84ef17	0.2596366
133	0xbdd270f3	-0.102754496
134	0xbe1d9b2d	-0.15391226
135	0x3e770928	0.24124587
136	0xbba48027	-0.0050201598
137	0x3e94918b	0.2901729
138	0xbe3620e6	-0.17785987
139	0xbda75ddf	-0.08172201
140	0x3cec5310	0.028848201
141	0x3de065b2	0.10956897
142	0x3e20970b	0.15682618
143	0xbddf5854	-0.10905519
144	0xbcc4b804	-0.024013527
145	0x3e4c7fa4	0.19970566
146	0xbe111b6b	-0.14170615
147	0x3e05496f	0.13016294
148	0xbded1ff0	-0.11578357
149	0xbe7f3255	-0.24921544
150	0xbebf7e4a	-0.37401038
151	0xbe534433	-0.20631485
152	0x3c2d5c89	0.010581144
153	0x3ec1cf8d	0.3785366
154	0x3db175dd	0.08665059
155	0x3edc845d	0.43069735
156	0xbda85f81	-0.08221341
157	0x3c1e5331	0.009663389
158	0xbef3a4c3	-0.4758664
159	0xbdea098b	-0.114276014
160	0xbe2bc6b6	-0.16775021
161	0xbe5300bb	-0.20605747
162	0x3eb16a81	0.3465157
163	0x3daabcdd	0.08336804
164	0xbe2d91df	-0.16950177
165	0x3e5230de	0.20526454
166	0x3e9e993b	0.3097628
167	0x3d02cf18	0.03193578
168	0xbdc5416e	-0.0963162
169	0x3eb59a80	0.35469437
170	0xbeb68339	-0.3564699
171	0x3c662d11	0.014048831
172	0xbdc2517a	-0.09488197
173	0xbe2854fc	-0.16438669
174	0xbdce0464	-0.10059431
175	0x3e4ec8a4	0.20193726
176	0xbe9b6cdf	-0.303565
177	0xbea8fd1b	-0.33005604
178	0xbdece9c7	-0.11568027
179	0x3daae7eb	0.08345016
180	0x3e93dfbe	0.2888164
181	0xbdbc1ac5	-0.091847934
182	0xbeb94c5c	-0.3619107
183	0x3e255316	0.16144976
184	0xbe7c04d8	-0.24611223
185	0x3e8707ad	0.26373044
186	0x3dd0eb7a	0.102011636
187	0x3e1e7896	0.15475687
188	0x3e988f63	0.29796895
189	0x3e78d2dc	0.24299186
190	0xbe786cef	-0.24260305
191	0x3e65659b	0.2240204
192	0x3e0c3785	0.13693054
193	0xbe299f31	-0.16564633
194	0x3e571dfe	0.21007535
195	0x3e84ea5e	0.25960058
196	0xbe864e37	-0.26231548
197	0x3e31bb07	0.17356502
198	0x3de178fe	0.110094056
199	0xbe94ad05	-0.29038253
200	0x3e68d2e4	0.22736698
201	0x3eba8333	0.36428222
202	0x3daeb6d7	0.08530968
203	0x3e8aa272	0.2707706
204	0x3eaaaeb9	0.33336428
205	0xbc1984d5	-0.0093700485
206	0xbe5780f3	-0.21045284
207	0xbe9d3af3	-0.30709037
208	0x3dd25a77	0.10271161
209	0xbe909dce	-0.28245395
210	0x3d8e85b4	0.069590956
211	0x3e371d7d	0.17882343
212	0xbe6afc9b	-0.22947924
213	0xbe1a1baf	-0.15049623
214	0xbd26d625	-0.040731568
215	0x3ea64a0f	0.32478377
216	0x3e77168d	0.24129696
217	0xbe2072ff	-0.15668868
218	0xbd912867	-0.07087784
219	0x3dd4d824	0.10392788
220	0x3d343ff8	0.044006318
221	0xbdacc42e	-0.08435856
222	0x3eba4431	0.3638015
223	0x3e9c9be6	0.3058769
224	0x3dc5fbb2	0.09667148
225	0x3d92933c	0.07156989
226	0xbe0c5f2b	-0.13708179
227	0xbe7ce20f	-0.2469561
228	0xbe6df2a6	-0.23237094
229	0x3eb6f569	0.35734108
230	0x3e156385	0.14588745
231	0xbe311fe9	-0.17297329
232	0xbed9a7be	-0.4251079
233	0xbe3afb7b	-0.18259995
234	0xbedde52d	-0.4333891
235	0x3d0ffcd7	0.035153236
236	0x3daa4f76	0.08315937
237	0x3eaf7a23	0.3427287
238	0xbe448061	-0.19189598
239	0xbe843166	-0.25818938
240	0x3d4e622b	0.05038659
241	0x3d877310	0.06613743
242	0xbe56ab9e	-0.20963904
243	0x3e611e65	0.21984251
244	0x3de3090e	0.110857114
245	0x3e0047d3	0.12527399
246	0xbd016142	-0.031586893
247	0x3e60f488	0.21968281
248	0xbe2a6b40	-0.16642475
249	0xbdb3a80d	-0.087722875
250	0xbe8ca947	-0.27472898
251	0x3e46d10e	0.19415686
252	0x3c334762	0.010942312
253	0xbe625e8d	-0.22106381
254	0x3d1e2e0c	0.038618132
255	0x3e75e40e	0.24012777

blocks.1.mlp.fc2_FacTs.weight f4 [8, 32]
0	0xbe479963	-0.19492106
1	0x3e6c49db	0.23075049
2	0xbdbe0c3c	-0.09279677
3	0xbd0b64fb	-0.03403185
4	0xbe1bea18	-0.15226018
5	0xbdb25a39	-0.08708615
6	0xbb849e13	-0.004047164
7	0x3daf2272	0.08551492
8	0xbdf28bb5	-0.11843053
9	0xbc7a34bf	-0.015271365
10	0xbdbf9c8e	-0.09356032
11	0x3e9e195c	0.30878723
12	0xbdb54cd8	-0.088525474
13	0x3e3376a4	0.17525727
14	0xbd245727	-0.040122177
15	0x3de186f2	0.11012067
16	0xbe9038dd	-0.28168383
17	0x3e903157	0.28162643
18	0xbeaa8245	-0.33302513
19	0x3e8cc08b	0.2749065
20	0xbe1afd4e	-0.1513569
21	0x3e35c5da	0.17751256
22	0xbbe521c7	-0.006992552
23	0x3bd4ab74	0.0064901654
24	0xbd808da7	-0.06277018
25	0x3e24a25c	0.1607756
26	0x3dcce4b6	0.10004561
27	0x3e219475	0.15779288
28	0xbb2673a4	-0.0025398517
29	0x3e488196	0.19580683
30	0xbe9c202b	-0.30493292
31	0xbdd06bc5	-0.101768054
32	0x3e679311	0.22614695
33	0xbe489255	-0.19587071
34	0x3c80e94e	0.015736248
35	0xbe91f755	-0.28509012
36	0x3e876491	0.26443914
37	0xbe8d4778	-0.2759359
38	0x3ed14d2f	0.408792
39	0xbea18a9b	-0.3155106
40	0x3e34d338	0.17658699
41	0xbed9cf4d	-0.4254097
42	0xbe6318f3	-0.22177486
43	0xbde83cbf	-0.113397114
44	0x3e92e45a	0.28689843
45	0xbe98675c	-0.29766357
46	0x3d932050	0.071838975
47	0xbef22306	-0.47292346
48	0x3ec8667b	0.39140686
49	0xbe3c2159	-0.18372096
50	0xbe57fbda	-0.21092167
51	0xbe9a6172	-0.3015247
52	0x3eca00d1	0.39453748
53	0xbb429bf1	-0.0029695
54	0x3e06311f	0.13104676
55	0xbe9f4d48	-0.31113648
56	0x3eab2f16	0.3343436
57	0xbec5e6e4	-0.38652718
58	0xbe5501c7	-0.20801459
59	0xbe41bebf	-0.1892042
60	0x3e85a9b5	0.2610604
61	0xbd82a003	-0.06378176
62	0x3eb6f217	0.35731575
63	0xbea46a17	-0.3211219
64	0x3d5cdd6e	0.05392211
65	0xbc8ee408	-0.017442718
66	0xbe31c1e9	-0.17359127
67	0xbe6bbca1	-0.23021175
68	0x3e516ae9	0.20450939
69	0xbdd4397e	-0.10362528
70	0x3d0626a6	0.0327517
71	0x3dbf3052	0.09335388
72	0x3e831876	0.256046
73	0xbe0ba89c	-0.13638538
74	0x3c417bf3	0.011809337
75	0xbe9ee00e	-0.31030315
76	0x3d05d236	0.032671176
77	0x3ceb4351	0.028718622
78	0x3e043242	0.12909797
79	0xbd2fc42d	-0.042911697
80	0x3eac5f4c	0.33666456
81	0xbcc4c7e5	-0.024021098
82	0xbd6debf8	-0.058086365
83	0xbd8bcf5b	-0.06826659
84	0x3d8347ff	0.064102165
85	0xbe30d408	-0.17268384
86	0x3e86b6bd	0.26311293
87	0xbe0ff469	-0.14058079
88	0x3d7163f0	0.0589332
89	0xbb1df87f	-0.0024104414
90	0xbe00a4da	-0.12562886
91	0xbe87e9d5	-0.26545587
92	0x3e9608c0	0.2930355
93	0xbcd6a945	-0.02620376
94	0x3e4a4206	0.19751748
95	0x3d80c9bd	0.062884785
96	0x3d6950d8	0.056961864
97	0xbe8f7149	-0.28016117
98	0x3ce4ecd8	0.027944967
99	0x3bafb73e	0.0053624203
100	0x3cabbd68	0.02096434
101	0xbd6c9b05	-0.057765026
102	0x3e8ba3d9	0.27273443
103	0xbe7006af	-0.2344005
104	0x3d325ca9	0.0435454
105	0xbdeb57de	-0.11491369
106	0xbe173775	-0.14767249
107	0xbde59167	-0.11209374
108	0x3e53a57d	0.20668598
109	0x3d85ee72	0.065396205
110	0x3e816770	0.2527423
111	0x3d07a5ab	0.033116978
112	0x3dac4b43	0.084127925
113	0xbe532f78	-0.20623577
114	0xbd789474	-0.06068845
115	0xbca26208	-0.019822136
116	0x3e283cdb	0.16429465
117	0xbd614515	-0.054997522
118	0x3e53ab56	0.20670828
119	0xbcb703ab	-0.022340616
120	0x3d38806e	0.045044355
121	0xbe64aa9f	-0.22330712
122	0xbd468018	-0.048462003
123	0x3de821b6	0.11334555
124	0x3da0e814	0.078567654
125	0x3d7472f3	0.059679937
126	0xbcff1ac2	-0.031140689
127	0xbc899f13	-0.016799485
128	0x3d4b7b11	0.049677912
129	0xbcd88115	-0.026428739
130	0x3e633216	0.22187075
131	0xbcac0658	-0.020999119
132	0xbd824335	-0.06360475
133	0xbdc2b6cf	-0.09507524
134	0x3e3b9207	0.18317424
135	0xbd85938d	-0.06522284
136	0x3e52452c	0.205342
137	0xbe27d29c	-0.16388935
138	0xbdc5f35a	-0.09665556
139	0xbe63cbe4	-0.22245747
140	0x3e3c381f	0.18380783
141	0xbe2d8ba5	-0.16947801
142	0x3e4db199	0.2008728
143	0xbdf82dff	-0.12118148
144	0x3d5b98da	0.053612567
145	0xbe0c472a	-0.13699022
146	0xbdd116f6	-0.102094576
147	0xbdda6f13	-0.10665717
148	0x3cab9275	0.02094386
149	0xbdce391f	-0.10069489
150	0x3cd2b202	0.025719646
151	0xbea360e1	-0.3190985
152	0xbda28922	-0.07936312
153	0xbd9d57c3	-0.07682755
154	0xbe3ac67f	-0.18239783
155	0xbdac6ed2	-0.08419575
156	0x3e695c24	0.22789055
157	0xbc4293ac	-0.011876028
158	0x3de21c14	0.11040512
159	0x3e208ea4	0.15679413
160	0xbe8f38fa	-0.27973157
161	0xbd2eb5be	-0.04265379
162	0xbde96822	-0.11396815
163	0x3e8e7822	0.2782603
164	0xbb8727f9	-0.004124638
165	0x3e89f1b9	0.26942232
166	0xbc7fc03c	-0.015609797
167	0x3e297fd8	0.16552675
168	0xbe5381b5	-0.20654948
169	0xbb2ac6a6	-0.0026058345
170	0xbd24340b	-0.040088695
171	0xbbc75bae	-0.006083927
172	0xbd3fd174	-0.04683061
173	0xbd9ded39	-0.07711262
174	0xbe4843ca	-0.1955711
175	0xbcde8d0f	-0.027166871
176	0xbe5584c5	-0.20851429
177	0xbb398c45	-0.0028312367
178	0x3de6c12c	0.11267313
179	0x3e1deca4	0.15422302
180	0xbe2affed	-0.1669919
181	0xbe1868d0	-0.14883733
182	0x3ca4a877	0.020099862
183	0x3e08cc3a	0.13359156
184	0xbe4d1d84	-0.2003079
185	0xbd1dff0d	-0.038573314
186	0x3db53b59	0.0884921
187	0x3e15e838	0.14639366
188	0xbe46341f	-0.1935582
189	0x3e825869	0.25458077
190	0xbcab65f2	-0.020922635
191	0x3d1667c0	0.036720037
192	0xbe2d8161	-0.16943885
193	0x3e4da7ca	0.20083538
194	0xbcb2fcc4	-0.021849044
195	0x3e0a03ce	0.13478014
196	0xbe431c66	-0.19053802
197	0xbc958571	-0.018252106
198	0xbd77b4e6	-0.060475253
199	0x3ebbe7ae	0.36700195
200	0xbedce01f	-0.4313974
201	0x3ed53487	0.41641638
202	0xbd5ec827	-0.0543901
203	0x3ebb2a61	0.3655577
204	0xbe14053d	-0.14455123
205	0x3ead20c6	0.33814067
206	0xbecc66fd	-0.39922324
207	0x3db491af	0.088168494
208	0xbeb49e8e	-0.35277218
209	0x3dbc5335	0.09195558
210	0x3d2f9378	0.042865247
211	0x3e0ce9a3	0.13761
212	0xbe88cc30	-0.26718283
213	0xbda6fe0e	-0.08153926
214	0xbea57e00	-0.32322693
215	0x3eda1626	0.42595023
216	0xbeb66bdc	-0.35629165
217	0x3ed7fde5	0.42185894
218	0x3e4e6d2e	0.20158836
219	0x3e2ebcb7	0.17064176
220	0xbeca9039	-0.39563158
221	0x3cae85e0	0.021304071
222	0xbe8af9c6	-0.27143687
223	0xbca80fc3	-0.020515328
224	0xbe26f6c5	-0.16305073
225	0xbc5c3b76	-0.013441911
226	0x3e77d73e	0.24203202
227	0xbdf31351	-0.11868919
228	0xbde33715	-0.110944904
229	0xbe252b53	-0.16129808
230	0x3dac0195	0.08398739
231	0x3cc92056	0.024551552
232	0x3d21576b	0.03939001
233	0x3e22046f	0.15822004
234	0xbe087176	-0.13324532
235	0x3e6c6cff	0.23088454
236	0xbdb3891d	-0.08766387
237	0x3ea0f332	0.31435543
238	0xbe19e77f	-0.15029715
239	0x3db66ea2	0.0890782
240	0x3c66a9e2	0.014078589
241	0x3d12adc7	0.03581026
242	0xbd493c9d	-0.04913007
243	0x3e070321	0.13184787
244	0xbddd0206	-0.107914016
245	0x3e13efb4	0.14446908
246	0xbe6964f6	-0.2279242
247	0x3e54c019	0.20776404
248	0xbe15da36	-0.14634022
249	0x3e64c79f	0.22341774
250	0x3e30a14c	0.1724903
251	0x3d816ff6	0.06320183
252	0xbe146279	-0.1449069
253	0x3dca9bb6	0.09892981
254	0xbdb527c7	-0.088454776
255	0x3cd5134e	0.026010182

blocks.2.attn.q_FacTs.weight f4 [8, 8]
0	0x3d3ca86e	0.046059065
1	0xbe4340b5	-0.19067653
2	0x3ea8a968	0.32941747
3	0xbe867129	-0.2625821
4	0x3e3ffe16	0.1874927
5	0xbead79e9	-0.33882073
6	0xbd13a10f	-0.03604227
7	0xbd4608ae	-0.04834812
8	0x3d5038de	0.050835483
9	0x3f051818	0.5198989
10	0x3e2ffbd8	0.17185915
11	0x3eb47225	0.35243335
12	0x3e81d7b5	0.25359884
13	0x3f06447d	0.52448255
14	0xbef0eebd	-0.47057143
15	0xbe039d3e	-0.12852952
16	0x3db578cb	0.0886093
17	0x3e944dc0	0.2896557
18	0x3d758a46	0.05994632
19	0xbe74ebfc	-0.23918146
20	0x3dcf5b6f	0.101248614
21	0x3ea2c61c	0.3179177
22	0xbe9a8006	-0.301758
23	0xbdf5bbbd	-0.11998699
24	0xbe264bd3	-0.16239862
25	0x3e8e7432	0.27823025
26	0x3e5fcdec	0.21855897
27	0xbedff75a	-0.43743402
28	0xbe88347c	-0.26602542
29	0x3e5ff213	0.21869688
30	0xbe7da883	-0.24771313
31	0x3ea5a628	0.3235333
32	0x3e3ff6f9	0.18746556
33	0xbe376968	-0.17911303
34	0xbebf643c	-0.3738116
35	0xbe1c7b4d	-0.1528141
36	0xbdc96bd6	-0.09835021
37	0x3ef18653	0.47172794
38	0xbe5f1ebc	-0.21789068
39	0x3b62746f	0.0034554263
40	0xbe5d8ea5	-0.21636446
41	0xbe811b02	-0.25215918
42	0x3e72d12b	0.23712604
43	0xbe85c495	-0.26126543
44	0x3e77b277	0.24189173
45	0xbe9cd0d7	-0.30628082
46	0x3c3a2359	0.011360967
47	0x3eb8ea51	0.3611627
48	0xbdf47c06	-0.11937718
49	0xbe89c40b	-0.2690738
50	0xbe104509	-0.14088835
51	0xbe0920a8	-0.13391364
52	0x3e70e863	0.23526148
53	0x3ec5e3bf	0.3865032
54	0xbe4f3676	-0.20235619
55	0xbd26d45a	-0.040729858
56	0x3e830474	0.25589335
57	0x3abb6960	0.0014298372
58	0xbd48e784	-0.049048916
59	0x3d6b3166	0.057420157
60	0xbeef8be1	-0.46786407
61	0xbd7e23e8	-0.06204596
62	0x3df36b01	0.11885644
63	0x3ed58873	0.41705665

blocks.2.attn.k_FacTs.weight f4 [8, 8]
0	0x3da3377e	0.07969569
1	0xbe416879	-0.1888751
2	0x3ce413be	0.027841445
3	0xbe52b6b1	-0.20577504
4	0xbecb3ceb	-0.39694914
5	0xbda104fc	-0.07862279
6	0xbdb5982a	-0.088669136
7	0x3e90599c	0.28193367
8	0x3ed275e9	0.41105583
9	0x3e302712	0.17202404
10	0x3d93c9c3	0.07216217
11	0xbe8fe527	-0.28104517
12	0xbdd63241	-0.10458804
13	0x3dbc8294	0.09204593
14	0x3e983e52	0.29735047
15	0xb9239470	-0.00015600189
16	0x3e8311bc	0.25599468
17	0x3e988569	0.29789284
18	0x3d2f40e4	0.042786494
19	0x3e4432fb	0.19160073
20	0x3c4bbeff	0.012435674
21	0xbe8392c8	-0.25697923
22	0xbd8de0ae	-0.0692762
23	0x3e742d10	0.23845315
24	0xbdfc52d0	-0.12320483
25	0xbe836022	-0.2565928
26	0x3ea8a08c	0.32934988
27	0x3d892186	0.06695847
28	0xbe9ba357	-0.30398056
29	0xbe448dbf	-0.19194697
30	0xbec06602	-0.37577826
31	0x3e4a6574	0.19765264
32	0xbe1aa795	-0.1510299
33	0xbe19e79b	-0.15029757
34	0xbe41d2a4	-0.1892801
35	0x3ed8e52b	0.4236234
36	0x3e754070	0.23950362
37	0xbe1a304a	-0.15057483
38	0x3d46fbaf	0.048579868
39	0x3dae705c	0.085175246
40	0xbe88d44d	-0.26724473
41	0xbd95da3d	-0.07317016
42	0x3ecf7929	0.40522125
43	0xbe803999	-0.25043944
44	0xbec49ab9	-0.38399294
45	0xbb18386d	-0.0023226992
46	0xbe4ded97	-0.20110165
47	0x3ebdb991	0.37055638
48	0x3e6e43cd	0.23268051
49	0xbdfcfebe	-0.12353276
50	0xbd257b32	-0.04040069
51	0xbd983b4d	-0.07433186
52	0x3dab5d1f	0.08367371
53	0x3e8ed1b6	0.27894372
54	0x3e2927d2	0.16519096
55	0x3e8f3000	0.2796631
56	0x3cb76a58	0.022389576
57	0x3bfd1b17	0.0077241766
58	0x3ec91f20	0.3928156
59	0xbe08e8c1	-0.13370039
60	0x3e15a652	0.14614227
61	0xbe26dda5	-0.16295488
62	0x3e2437cb	0.16036908
63	0xbe7107a5	-0.23538072

blocks.2.attn.v_FacTs.weight f4 [8, 8]
0	0x3e44b86b	0.19210975
1	0xbaf04b39	-0.0018332965
2	0xbd48d831	-0.0490343
3	0x3e7e0408	0.24806225
4	0xbe060086	-0.13086137
5	0x3eb0d267	0.34535524
6	0xbe7cd238	-0.24689567
7	0x3ecb447b	0.39700684
8	0xbe2fb53b	-0.17158978
9	0x3dad4d4d	0.084620096
10	0xbc66a80f	-0.014078154
11	0x3e668bcd	0.22514267
12	0x3e4fef4d	0.2030613
13	0x3da846bf	0.08216619
14	0x3de67bdd	0.11254094
15	0x3d92427d	0.07141588
16	0x3e9f587e	0.31122202
17	0xbd26704b	-0.040634435
18	0xbe8e12a6	-0.27748603
19	0x3ea97b15	0.33101717
20	0xbeca1d5e	-0.3947553
21	0x3e0d6208	0.13806927
22	0xbd69df3e	-0.057097666
23	0xbe23e0cb	-0.1600372
24	0xbe3b6796	-0.18301234
25	0xbe537147	-0.2064868
26	0xbe818e91	-0.25304082
27	0xbece6f1b	-0.40319142
28	0x3e96d2e1	0.29457763
29	0xbeb32f07	-0.34996817
30	0x3e88d9ff	0.26728818
31	0xbe63c7f9	-0.22244252
32	0xbe92bb88	-0.286587
33	0xbe8232e8	-0.25429463
34	0xbe33876a	-0.17532125
35	0xbe76f527	-0.24116956
36	0xbe5b00e7	-0.21387063
37	0xbe39b5d3	-0.18135767
38	0xbe31cdc2	-0.17363647
39	0xbe497d19	-0.19676627
40	0xbf06ad7b	-0.5260846
41	0x3eb6600e	0.3562016
42	0x3d789c86	0.060696147
43	0x3d7d3f54	0.061827973
44	0x3e96113a	0.29310018
45	0x3f0d5a63	0.55216044
46	0xbea4ef0b	-0.32213625
47	0xbea16438	-0.31521773
48	0x3e131842	0.14364722
49	0x3c3073ec	0.010769825
50	0x3e6ca7a6	0.23110828
51	0xbe70426b	-0.23462836
52	0xbe9f6cb1	-0.31137612
53	0xbe71bb44	-0.23606592
54	0xbebc23f1	-0.3674617
55	0x3ebc6e7d	0.36803046
56	0x3e810662	0.25200182
57	0x3e617f28	0.22021163
58	0xbe3d2b83	-0.1847363
59	0xbdae4eca	-0.085111216
60	0x3c0e9b05	0.008703952
61	0xbdacaeae	-0.08431755
62	0x3ec5968b	0.38591418
63	0x3a1d83d4	0.00060087186

blocks.2.attn.proj_FacTs.weight f4 [8, 8]
0	0xbf0874be	-0.53303134
1	0x3e36ca9e	0.1785073
2	0xbe979c29	-0.29611328
3	0x3d11f610	0.035635054
4	0xbf0537b1	-0.52038103
5	0x3ecf7d5a	0.40525323
6	0x3f1c6bd1	0.61102015
7	0x3efc109f	0.4923143
8	0x3ebb04a0	0.36526966
9	0xbe35685f	-0.17715596
10	0x3cc710f2	0.024300072
11	0xbde991c1	-0.114047535
12	0x3ee9e07d	0.45679083
13	0xbeb3ddaf	-0.3513007
14	0xbf02850c	-0.50984263
15	0xbec4a314	-0.3840567
16	0xbe19e4ec	-0.15028733
17	0x3f004534	0.50105596
18	0xbea2ae96	-0.31773823
19	0x3e673092	0.22577122
20	0x3eaccd93	0.3375059
21	0x3e4bf1ab	0.19916408
22	0xbeef10d1	-0.46692517
23	0xbe963b58	-0.2934215
24	0x3e979860	0.2960844
25	0xbe556784	-0.2084027
26	0xbdb76ab9	-0.089559026
27	0xbf1aea8d	-0.60514146
28	0xbd9d7d17	-0.076898746
29	0xbf259b08	-0.64689684
30	0x3e51035c	0.20411438
31	0x3d86c357	0.06580227
32	0x3f22f33a	0.63652384
33	0xbec0318f	-0.3753781
34	0x3f0ef140	0.5583687
35	0xbea9c4fe	-0.33158106
36	0x3e2633cf	0.16230701
37	0xbe5bd0bd	-0.21466346
38	0xbf034955	-0.5128377
39	0x3defb05b	0.11703559
40	0x3e8ba982	0.27277762
41	0x3d42a597	0.0475212
42	0xbe0349ad	-0.12821074
43	0xbe04ba0a	-0.12961593
44	0x3e296940	0.16544056
45	0x3d4f2bf3	0.050579023
46	0xbefd9883	-0.4953042
47	0xbe8e2a15	-0.2776648
48	0xbe4fabf1	-0.20280434
49	0x3e316575	0.17323859
50	0xbeaedf0a	-0.3415454
51	0xbddc1c80	-0.107476234
52	0xbf11c58d	-0.56942064
53	0xbe7d615d	-0.24744172
54	0x3e9db85f	0.30804726
55	0x3f0657e0	0.52477837
56	0xbf1d7f03	-0.6152193
57	0x3e6a41a6	0.22876605
58	0xbdc3e989	-0.09566028
59	0x3c665698	0.0140587315
60	0xbf09480b	-0.53625554
61	0x3d93b98e	0.07213126
62	0xbdf5c347	-0.12000137
63	0x3e309e32	0.17247847
