Final Project/FacT-TT/smallnorb_azi_best.pt (torch, 323329 bytes, 76 tensors)

blocks.0.attn.q_FacTs.weight f4 [16, 16]
00000000: 8157 9c3d 79dd 82be f9f4 423e 3a6b 8d3e
00000010: e8d7 c3bd 8309 3c3e e08c 8dbd 5505 ea3d
00000020: 1ca5 413d efa7 60bc 1ed9 0abd 187f 813e
00000030: ce2c c23d 5b6f 0e3e 626a 5abe 9d1e bcba
00000040: 3202 c2bd ecc3 7fbe ddb4 e63d 05ba 113e
00000050: b5d1 a83d 7f60 113e 1815 4d3e c545 be3c
00000060: 0094 883a a1ca d63d 972c 8d3e 4e1e 193d
00000070: 70b1 293c c52a 33be 887a 94be 18d7 31be
00000080: 8805 7a3e 9bbe 763e e789 b63d 600e ebbd
00000090: b0d6 293e 1ce3 30be b170 1e3e b9bd 25be
000000a0: 9a70 d5bd afae 9f3c 0ccb 0cbe e44b 88bd
000000b0: 4386 e9bd a500 4e3e 92b1 f6bc 6277 75bd
000000c0: a687 7e3e 1ca2 843e 78ea 73be 6914 ef3d
000000d0: 4f30 dd3d 333a b33d ba20 25be a4d6 fabd
000000e0: 8325 2fbe 4a47 70be 1cbc d33d b3bb f23c
000000f0: 4b8e 47bd acf5 5bbe df54 83be 2c8d edbd
00000100: fe7d 7abd a853 82bd ef3f 2bbd fe69 08be
00000110: 2b49 123e fa52 673e 0cae e73c 1eee a8be
00000120: d8f1 b6bd 0c7b 3dbe cfcf 713e 8f8f 5b3e
00000130: d188 a13e 5213 d13d e205 25be b3b9 1cbe
00000140: feae aa3d f741 493d 8262 07be 1f83 983d
00000150: 66e4 483e 8284 bc3d 4fbf 2ebe 151a 033e
00000160: e3a5 ff3d 47f9 a5bc cd39 7f3c f6be e23d
00000170: c047 c2bc 81da 17bd 5ce2 b9bd 51dd 38bd
00000180: 023d 53be 81e0 2d3e a80c a6bc 1c99 9fba
00000190: 93d1 93bd 8cc0 d03c f5d8 2abe 6c88 77be
000001a0: 499b f23d 0009 983d 56da 8bbd 4056 52be
000001b0: f1dc 513e 99d6 533e ecfd 1ebe a56c b13d
000001c0: 1bf8 303e c2c0 eabd 6a55 4a3d 9a50 21bd
000001d0: 81ed 07be 73e0 423e fc78 743e cd68 793e
000001e0: 2db6 59be eaac 403e f7bb 54bd b5f5 143e
000001f0: cff1 0a3e 4c8a 04be 153f edbd 348f 2dbe
00000200: 62ec 5fbe aea1 ad3d 9a9a 37be 5247 59be
00000210: 514a 07be ae33 c6bd 730e 38be 28af 86be
00000220: 5a32 573e 9f32 673e 40ab 84ba 363c 87bd
00000230: db07 043e 95e6 223c 8f95 153e e5a0 f23d
00000240: 6685 203e cf33 d1bd 9a81 e6bc b97d c7bc
00000250: 6522 a8bc 15fa e13c b3e0 1a3e 8ddd cdbd
00000260: f695 293d 94fb a2bd f18e e6bd 6da2 9b3e
00000270: dfc4 6cbe e821 32be 1215 6a3e 4c8d 243d
00000280: 9be1 8b3e 6fbd 473c f6d7 ea3d d361 9e3d
00000290: 8dfe 883d 31c0 38be 7099 553d 2c3a 83be
000002a0: 1315 3ebd 8ac3 393d fc78 803d da8e 603b
000002b0: 987d 38be 86f4 0dbc cd43 823e c57d 663d
000002c0: 83af 1cbd 617b 7cbd c754 843e fa30 23be
000002d0: 8344 ba3d f0e8 bebc be46 eabd 4b78 5d3e
000002e0: e06a b23d 9bfd 003d 7caf 413e 9edb 003e
000002f0: 859d fabb b659 69be c236 60be 981e b13c
00000300: b48a 21be 7c39 ec3d 7702 823d bcb4 e4bd
00000310: 1ce7 433d 6080 853d 0646 edbc e54b 18be
00000320: b657 393e 54f8 39be 4f19 f4bd 93d6 433d
00000330: 72b9 b7bd 6525 033e 6e7e f4bd 65ed 79bd
00000340: 9015 923d 05db 55bd 75d6 313e b449 d6bc
00000350: 4cf7 87bd a405 d93d 83e3 f0bd d563 46be
00000360: a2dd 3bbe c44c 10be 9350 3e3d 5873 c0bd
00000370: da79 d13d 9ecc 2a3e 8242 663d 129d ce3d
00000380: 77e3 2b3e 5953 bbbb fca6 13be c351 a9bd
00000390: 9b88 a0bd 72fe e1bd 1814 bfbd 85eb 09be
000003a0: e88e f7bd 0ee3 60be 6624 9bbe d5c5 653e
000003b0: db3b 003e 5c39 39bd 14b4 053d 8cab f13d
000003c0: 562b 27bc 9b17 9bbd ca3d 833b 9158 6f3e
000003d0: 3a33 ebbd a4dc 3fbc 7af0 e8bd d2a7 e83d
000003e0: 12d4 3e3b 7a16 4a3d 1faf 99bd 00b4 e03d
000003f0: eace c3bd 2485 0dbe ee7f ec3d a019 93bd
0.076338775 -0.25559595 0.19038762 0.2762087 -0.09562665 0.18363003 -0.069116354 0.11426798
0.0472766 -0.0137119135 -0.033898465 0.25292277 0.09481202 0.13909666 -0.21329644 -0.0014352385
-0.09473075 -0.24977082 0.11264966 0.14231117 0.082431234 0.14196967 0.20027578 0.023226628
0.0010420084 0.10487867 0.27573082 0.037382416 0.010357246 -0.17496784 -0.28999734 -0.17367208
0.24416173 0.24096148 0.089130215 -0.11477351 0.16585803 -0.17274135 0.15472676 -0.16185655
-0.10421868 0.019492475 -0.13749331 -0.066551 -0.114025615 0.20117433 -0.030113969 -0.059928305
0.24856433 0.2590493 -0.23819911 0.11673815 0.1080023 0.08751335 -0.16125765 -0.12247971
-0.17104153 -0.23464695 0.103386134 0.029630518 -0.048719686 -0.21480435 -0.2565069 -0.11599192
-0.06115531 -0.063636124 -0.04180902 -0.13321683 0.14285724 0.22590247 0.028281234 -0.3299417
-0.08932847 -0.1850397 0.23614429 0.21441482 0.31549695 0.10208763 -0.16115525 -0.15305214
0.08334158 0.049135175 -0.13221171 0.07446884 0.19618377 0.09204961 -0.17065166 0.12802918
0.12482812 -0.020260466 0.015577746 0.11071579 -0.023715854 -0.037073616 -0.09076378 -0.04513294
-0.20628741 0.16980173 -0.020269707 -0.0012176367 -0.072177075 0.025482439 -0.16684325 -0.24173135
0.118460245 0.074235916 -0.06828754 -0.20540714 0.20494439 0.20687331 -0.15526551 0.086633004
0.17282145 -0.11462547 0.049397863 -0.03938351 -0.13274194 0.19030933 0.23874277 0.24356385
-0.21260901 0.18815961 -0.05193707 0.14546855 0.13568805 -0.12943381 -0.115842976 -0.16949159
-0.21867517 0.084781036 -0.1793007 -0.21218613 -0.13211943 -0.09677826 -0.17974262 -0.2630551
0.21015301 0.22577904 -0.0010121837 -0.06603281 0.12893622 0.00994267 0.14607833 0.118470944
0.15675887 -0.1021496 -0.02813797 -0.024351941 -0.020524213 0.027585069 0.15124778 -0.10052023
0.04140278 -0.07958141 -0.11257733 0.3039736 -0.23121975 -0.17395747 0.228596 0.040173814
0.2732056 0.012191161 0.114669725 0.07733502 0.06689177 -0.18042065 0.052148283 -0.2563032
-0.046406817 0.045352496 0.06273076 0.0034264834 -0.1801666 -0.008664256 0.25442353 0.056272287
-0.03825332 -0.0616411 0.2584593 -0.15936652 0.09095099 -0.023304433 -0.11439274 0.2162792
0.08711791 0.031491857 0.18914598 0.12583777 -0.0076481723 -0.22788128 -0.21895888 0.021621034
-0.15775567 0.11534402 0.063481264 -0.11167285 0.047827825 0.06518626 -0.028964054 -0.14872701
0.18099865 -0.18161136 -0.1191889 0.047812056 -0.08970918 0.12807234 -0.11938177 -0.061017413
0.07133019 -0.052210826 0.17366965 -0.026158191 -0.06638965 0.10596779 -0.117621444 -0.1937402
-0.18346265 -0.14091784 0.04646356 -0.09397 0.102283195 0.16679618 0.05621577 0.100885525
0.1678599 -0.005716723 -0.14419168 -0.08267548 -0.078385554 -0.1103486 -0.093300045 -0.1346875
-0.12087804 -0.21961614 -0.30301207 0.22438748 0.12522833 -0.045220718 0.03264244 0.11800298
-0.010203203 -0.07572862 0.0040051686 0.23373629 -0.1148438 -0.01171032 -0.11373992 0.11360134
0.0029118103 0.04933784 -0.07504105 0.10971832 -0.0956095 -0.1382032 0.11547838 -0.07182622

blocks.0.attn.k_FacTs.weight f4 [16, 16]
00000000: a8e2 2bbe 541d 05bd 002d f9bd 8b4c 013d
00000010: 1da5 0ebe 6842 eb3d a21a c63d 1f62 a93c
00000020: 91cd 3ebe 427f 8f3d dc33 933d 6d08 28be
00000030: 37ca 273d c5ab 803d 8c7a 0abe 8499 58bb
00000040: fc4f 423e f0cc 873d 52e0 a7be cf5c 96be
00000050: ab5d a13d 05aa 8cbe 9f76 09be 1f5e 063e
00000060: bd0f 2fbb cac1 30be a728 19be f1cd b63e
00000070: 5217 28be 2b62 ff3d 33ec 123d a4c2 583e
00000080: b1c5 20bc 586d 58bd 718a ed3c 823a 633d
00000090: 8212 663e 3fa8 8ebd 74df 9b3d c2ca 3ebe
000000a0: 0a78 e4bd 4466 133c 63cd 04be 6f61 553e
000000b0: 301a 24be cdc2 033e 8787 80bd a5a6 09be
000000c0: 1367 37bd aeed 57bd 9b82 35be 73e6 56be
000000d0: ea6b 5c3e e361 fabd 8dab f1bc 7f64 54be
000000e0: 2386 303d b199 7cbd 9828 79be 5a12 49be
000000f0: 53eb 19be 352b 4abc 81ed 88bd 1e1c 103e
00000100: 4b29 02bd 079b 3bbe a4e4 2abe b16c e0bd
00000110: a22a 433d 2ec0 86be bf5f fe3c 14ff c13d
00000120: f0f5 75bd bcc8 bc3c 042c 47be ee70 4abd
00000130: 5c77 76bc 728e cfbd 8f7b 6cbe 18b7 01be
00000140: 048a 103e 22bb bf3d dc22 35bd 796c 2b3e
00000150: cc48 493e eaa3 aabd cdb7 c2bd 7096 e4bc
00000160: 0be8 41be ee2d 263e b7d5 22bd 2494 0e3d
00000170: 98f7 303e 9fa9 d03d f000 49be d803 27bd
00000180: c3d2 a43d fdaa 8a3d 5cf9 6b3c 3497 993d
00000190: 2d80 f73d ecba ef3d 01aa a3bd 6298 283e
000001a0: a2a4 e3bd ad9d 34be 7281 f23b 3d1d bb3d
000001b0: d5dc 11be fc42 803e 6f51 313b 8e21 20be
000001c0: 4dfc 87bd 2dfa 7ebd f66e 303e 6ac3 213e
000001d0: d6d9 143e 58c2 7b3d c030 1f3e 6761 3e3d
000001e0: 8cfd 5d3d 796a 053e 1084 383d a513 1ebe
000001f0: 306d 7bbe 5b4c d63d 9116 823d 7619 79be
00000200: aaa5 e6ba 1807 0abe 9836 aabd 8736 173e
00000210: 2a01 a1be ff3e bcbc b6dc 633d 33ce 24be
00000220: f609 983d 87e2 8fbc dade 8c3e a6a5 b73d
00000230: e90f 0abe ab2f 8c3e 88be 363e d6df fe3d
00000240: 0446 023e fede 86be df40 df3d 97c4 bc3d
00000250: ac95 313b 2b74 793e a75b 2abe 53b1 01be
00000260: b96b 683d 5770 033d bae1 39be 8add 83be
00000270: cd61 4abe 9480 6abe 433f 0d3d eddb 9b3d
00000280: 1000 96be 2d26 8dbe ecfc 783e a9b7 4a3e
00000290: e789 723d ae1c 2d3e 3982 273e 4098 c23d
000002a0: eca0 0b3e 6b57 e43d 79ff 673e 6e04 24be
000002b0: e248 0cbd d026 50bd 2d8e 7b3c d1e8 803e
000002c0: 2624 35be 9471 6a3b 7839 323d 3e53 4e3e
000002d0: a087 ffbd a096 36be 50f9 16be 5e8a 2d3d
000002e0: 11ee 3dbe 7c91 773d 160e b73c ead4 e7bd
000002f0: 6a85 09bd c022 063e abaa 643e 1d28 233e
00000300: 3585 43bd 8066 39be 4f51 c3bd eef8 013c
00000310: bc69 c0bc ebe0 cd3d 18a5 0b3e 6996 4dbd
00000320: bf8b 34be e6e9 543e f8b2 863e 1902 2fbe
00000330: be76 433e 7386 4b3e a6b7 8c3d 2b4e 363e
00000340: 843c 51be 3433 013e 3f25 883e 35c5 6dbe
00000350: 0963 51be 4365 40be d5cd 5bbe 91ef 3dbe
00000360: fe32 223e f67c 733e bb3e 043e 2347 55be
00000370: d597 0dbe 2f13 8a3d bd12 f03d 0793 f13d
00000380: 73cc 643c 32e3 3a3e 9466 3fbe 26e9 043e
00000390: 8e4c a23d 62eb 5d3d 205e 4a3e c778 07be
000003a0: d845 eabd 4684 2dbd a1ff 75be 4149 66bd
000003b0: 0885 81be abdd 30be ce21 e5bc aa0f 483e
000003c0: 5f34 1a3e d755 723d d0d1 32bd 72f0 3ebe
000003d0: d78b 363d 0e0c bdbd 7d0a 60be 0ba3 8b3e
000003e0: bc85 a2bd fab2 233e c7c3 62be 884e 54bc
000003f0: c39e 5dbd 5fe7 9cbd e63a 5a3e 8fc0 a2be
-0.16785681 -0.032498673 -0.12166786 0.031567138 -0.13930173 0.11487275 0.096730486 0.02067667
-0.18633105 0.070066944 0.07187626 -0.16409464 0.04096433 0.062827624 -0.1352331 -0.0033050487
0.18975824 0.066308856 -0.3278833 -0.29367682 0.07879194 -0.27473465 -0.13424157 0.13121842
-0.0026712262 -0.17261425 -0.14956914 0.35703996 -0.16415146 0.12469896 0.03586979 0.21168
-0.009812758 -0.052838653 0.028996678 0.05547572 0.22467998 -0.06965684 0.0761098 -0.18632033
-0.11155708 0.00899655 -0.12968974 0.20837949 -0.16025615 0.1286728 -0.0627585 -0.13442476
-0.044776034 -0.052716903 -0.17725603 -0.20986347 0.21525541 -0.12225702 -0.029500747 -0.20741461
0.043096673 -0.06167001 -0.24331892 -0.19635907 -0.15031175 -0.012339403 -0.06685925 0.14073226
-0.03177766 -0.18320857 -0.16688782 -0.10958231 0.04764808 -0.26318496 0.031051515 0.094724804
-0.060048997 0.023044936 -0.19450384 -0.049424104 -0.015043106 -0.10134591 -0.23094009 -0.12667501
0.14115149 0.093618646 -0.044222698 0.16740598 0.19656676 -0.083320454 -0.095077135 -0.027903765
-0.18936174 0.16228458 -0.039754596 0.034809247 0.1728195 0.10188603 -0.19629264 -0.04077515
0.08048012 0.06770895 0.014402714 0.07499543 0.120849945 0.117055744 -0.0799141 0.1646438
-0.111153856 -0.17638274 0.007400685 0.09136436 -0.14244397 0.25051105 0.0027056595 -0.156378
-0.066399194 -0.062250305 0.17229828 0.15797201 0.14536223 0.061464638 0.1554594 0.04647961
0.05419688 0.13028897 0.04504782 -0.15437181 -0.2455337 0.104637824 0.063519605 -0.24326119
-0.0017596979 -0.13479269 -0.08311194 0.14766894 -0.314462 -0.022979258 0.05563041 -0.16094284
0.07423775 -0.017564071 0.27513772 0.08967142 -0.13482632 0.27380118 0.1784612 0.12445037
0.12722021 -0.26342005 0.10901045 0.09217184 0.0027097268 0.24360721 -0.16636525 -0.126653
0.056743357 0.032089557 -0.18152514 -0.25754958 -0.1976387 -0.22900611 0.03448416 0.07610307
-0.29296923 -0.27568188 0.24315232 0.19796623 0.059213545 0.16905472 0.1635827 0.09501696
0.13635606 0.11149486 0.22656049 -0.16017315 -0.034249194 -0.050818264 0.015353722 0.25177625
-0.17689571 0.0035773264 0.043511838 0.20148942 -0.1247704 -0.17830896 -0.14743543 0.042368285
-0.18547846 0.06044148 0.022345584 -0.11319907 -0.0335745 0.13099194 0.2233073 0.15933271
-0.047734458 -0.18105507 -0.09536993 0.007932885 -0.023487918 0.10052665 0.13637197 -0.05019227
-0.17631434 0.2079235 0.26308417 -0.17090644 0.19088265 0.19875507 0.06870966 0.17803256
-0.20433241 0.12617189 0.26590917 -0.2321976 -0.20447935 -0.18788628 -0.21465237 -0.18548419
0.15839764 0.23778138 0.12914555 -0.20827918 -0.1382745 0.0674194 0.11722324 0.11795621
0.01396476 0.1825073 -0.18691474 0.12979564 0.07924758 0.054179557 0.19762468 -0.13229667
-0.11439103 -0.042362474 -0.24023296 -0.056222204 -0.25296807 -0.1727206 -0.02797022 0.19537225
0.1505904 0.059163895 -0.043657124 -0.1864641 0.044566955 -0.09230815 -0.21879001 0.2727283
-0.07935664 0.15986243 -0.22144996 -0.012958176 -0.054106485 -0.07661318 0.2131153 -0.31787536

blocks.0.attn.v_FacTs.weight f4 [16, 16]
00000000: e25f 71bd 638d ec3d 9a7b 11be 1314 bd3d
00000010: 3e44 15be 2c29 da3d 1d7e ef3d 6e42 2bbe
00000020: 2a2f 70bd 4443 1c3e d81a cfbb 0e94 393e
00000030: 1bec ebbd 791a d23b fe62 133c 2d54 863d
00000040: 6a61 38be 2c66 c13d cda1 f43d 6e4c c73d
00000050: 86b8 b4bd 02b2 23be 4bb3 a03d fb7a 93bc
00000060: 6e1a d03b db8c f3bd 7d85 dcbc d7ac eb3d
00000070: 3289 f43d 6560 ac3d f314 f8bd d834 4c3d
00000080: 5a74 113e 6038 85bd 3a37 e23c c055 27be
00000090: 4105 1a3e b910 b93d 3701 01be 8789 083e
000000a0: 7ff0 b83d 18da c23c 0800 b1bd 7c75 ccbd
000000b0: a216 8a3d 00b3 da3d c907 59bd 0c04 0d3e
000000c0: 79a7 4a3d 5749 80bd 1c7b 013d cd90 bf3c
000000d0: 7591 0b3e 53ed 01be 3f9e ea3b 22e4 fcbd
000000e0: 542e 3dbe 1dac 5cbc 8ade 89bc 65a4 c0bd
000000f0: 7381 563e 8886 f0bd 4198 03be 6b9d dd3d
00000100: e822 30bc 1921 06be eac2 b33d 0d15 96bc
00000110: 465f aabd 900e c13d f402 2bbe 56ce 253e
00000120: 77f0 153d 039c db3d 983b c7bd 9a62 2fbd
00000130: fac2 8c3b 8db1 003e 053e e03d 78fd 343e
00000140: ee2f 19be bfdd 01be 3e84 51bd a9a0 ed3d
00000150: c1c4 13be 594b 0bbc 49b6 d8bd 90d9 81bd
00000160: fe66 17bd f5be 07be 7c67 b73c 59e0 8fbd
00000170: ad37 19be f14b a53d fdc4 3ebe 7172 58be
00000180: 08ef 293b d05e d73c c6fe 2cbe 6750 14be
00000190: 3ff2 233e cbb0 3bbe 7b59 e73d 9448 17be
000001a0: bca8 f6bd 1572 d0bd 081f 92bd 3270 41be
000001b0: 64d8 5d3e 4501 233d 05b0 983d ea31 533e
000001c0: e70e 853d d614 843b 24ff 11bd 0c8a 1abe
000001d0: d056 19be 78dd 4fbe faf1 44be 6d6a dcbd
000001e0: 94b2 823d 5e4f 65bd a712 f7bd 0db5 fe3d
000001f0: a1a4 8c3d 4dcf efbd 4aae 2fbc f969 aa3d
00000200: dc6f 2ebe 2815 123d b4da 46bd 5c2d 233d
00000210: 7410 d8bd c9ef 49bd 05d8 07bd efe7 4e3d
00000220: bd16 3dbe 430a f13c b0ca ae3d 6935 00be
00000230: 40c2 26be c4b0 2bbe 8cc9 11bd 1a4d be3c
00000240: 7c61 b4bc 7c48 333e 310c 6c3e f090 c637
00000250: e743 c4bd f232 5a3d 8d1b e4bd 4d73 4ebe
00000260: d91a 5fbd 3842 1ebd d3a5 293e 09e0 443e
00000270: ade3 35bd a43f d0bb bc33 d73d 02ed a03d
00000280: 2dba 15bd eeb5 183e 7186 ec3c 49e7 b3bd
00000290: a3d4 afbd 4bec 163e 4621 c93d 90b8 0fbe
000002a0: 5ad0 823d 37ea ea3d 6e5d 8c3d d4d9 bdba
000002b0: 93c5 7f3d 5702 cb3d c157 883d 0147 d63d
000002c0: 20e3 14bd 9d0b 2c3e 81b3 acbc 1986 32be
000002d0: 7f08 1c3e 64e1 cabd 3ee0 dd3d 3602 6ebd
000002e0: 43d6 e53d e6a4 3b3e b13a bf3d 67de 053e
000002f0: 908d 59be 21ce de3d 857f 913d 4214 a53d
00000300: 50c7 31be 505c 0dbe 8ba7 2dbe 2436 bc3c
00000310: da7e a2bd 8ffd 00be f233 613d 6362 b43d
00000320: 309d 4abe 7243 3fbe 0fb7 adbd 1380 b3bd
00000330: 7e36 d63d e069 353e 0180 bebd 6693 a73d
00000340: da9e 013d dbb4 03be bc64 413e cfb0 45be
00000350: 2f20 2fbe 86b1 c6bc cd72 f13c 92d9 64be
00000360: 809f 653d 77c6 c4bd c879 f43d a673 8b3d
00000370: a663 173e d586 aa3c 1cbe b73d 9b64 2fbe
00000380: 2b7d cabd 5385 be3d 9519 b0bd 5ebf 57bd
00000390: b7e4 a93a d0da 24be 0a7e 733d 34c3 0c3e
000003a0: f9c1 24bc a8ca 113e 13e3 bd3d b104 95bc
000003b0: a1c4 b1bd fb09 25be 5a73 efbd 1636 26be
000003c0: 168c e13d 17cf 023e e568 6f3e 0885 a73d
000003d0: e0f8 013e 2eec ae3d c4f5 8f3d 3076 1a3d
000003e0: 8930 ca3d 85ad e9bd 0918 823d 5ed6 033e
000003f0: cd82 32be e526 063e 3f4e c6bc f19e 10be
-0.05892933 0.11550405 -0.14207307 0.092323445 -0.14576814 0.10652384 0.11693976 -0.1672456
-0.05863873 0.15260035 -0.0063203387 0.18122885 -0.11519643 0.006411847 0.00899577 0.06559024
-0.1800591 0.09443316 0.119449235 0.09731375 -0.088242576 -0.15985873 0.078466974 -0.018002978
0.006350807 -0.118921004 -0.02691912 0.11507576 0.119402304 0.08416823 -0.12113371 0.049855083
0.14204541 -0.06504893 0.027614225 -0.16341305 0.15041067 0.09036393 -0.1259812 0.13333713
0.09030246 0.023785636 -0.08642584 -0.09983346 0.06742598 0.10678673 -0.05298594 0.13771075
0.04947612 -0.062639885 0.031611547 0.023384476 0.13629706 -0.12688188 0.0071599777 -0.123482004
-0.18474704 -0.013468769 -0.016829748 -0.09406356 0.20947818 -0.1174441 -0.12851049 0.10821041
-0.01075051 -0.13098563 0.08777411 -0.018320585 -0.08318953 0.09426606 -0.16700345 0.16191992
0.03660628 0.10723116 -0.097281635 -0.042818643 0.004295704 0.1256773 0.10949329 0.17674816
-0.1495969 -0.12682246 -0.051151507 0.11602909 -0.14430524 -0.008501851 -0.10581643 -0.06340325
-0.036963455 -0.13256438 0.022388212 -0.07025213 -0.14962645 0.08071125 -0.18629833 -0.21137406
0.0025929827 0.026290327 -0.16894063 -0.14483796 0.16010378 -0.1832916 0.11296364 -0.1477378
-0.12043902 -0.101780094 -0.07134825 -0.18890455 0.21664578 0.039796133 0.07455448 0.2062451
0.06496983 0.004030804 -0.03564371 -0.15091723 -0.14974523 -0.20299327 -0.19232932 -0.107624866
0.06381717 -0.055983894 -0.120641045 0.124368764 0.06867338 -0.11709461 -0.010722706 0.08320994
-0.17034858 0.035664707 -0.048548415 0.03983818 -0.10550013 -0.049300943 -0.033164997 0.050514158
-0.18465705 0.029423838 0.08534753 -0.12520374 -0.16285038 -0.1676665 -0.0355926 0.023230124
-0.02201914 0.1750812 0.23051526 2.3670931e-05 -0.09583264 0.05327124 -0.111380674 -0.20161171
-0.054468963 -0.03863737 0.16567163 0.19226088 -0.04440658 -0.006355243 0.105079144 0.07857706
-0.036554504 0.1491315 0.0288727 -0.087843485 -0.08585479 0.14738576 0.098207995 -0.14035249
0.06387396 0.11470454 0.06853758 -0.0014484474 0.06244428 0.09912556 0.06657363 0.10462762
-0.036349416 0.16801305 -0.021081688 -0.17433967 0.15237616 -0.09906271 0.108337864 -0.058107577
0.11222508 0.18324623 0.09337366 0.13073121 -0.21245408 0.1087916 0.071044005 0.080605045
-0.17361188 -0.13804746 -0.16958444 0.022975035 -0.07934351 -0.12596725 0.05498118 0.08807828
-0.19786525 -0.18678072 -0.08482181 -0.087646626 0.10459612 0.1771617 -0.093017586 0.08182411
0.031645633 -0.1286196 0.18886083 -0.19305728 -0.17102121 -0.024254572 0.029473687 -0.22348621
0.056060314 -0.09608167 0.119372904 0.068091676 0.14784107 0.020816246 0.08971807 -0.17128222
-0.09887155 0.09302773 -0.085986294 -0.052672736 0.0012961839 -0.16099095 0.059446372 0.13746339
-0.010056012 0.14237463 0.092718266 -0.018190714 -0.08680082 -0.16117088 -0.116919234 -0.1623157
0.110130474 0.12774311 0.23379858 0.081796706 0.12692595 0.085411415 0.07029298 0.03771037
0.098725386 -0.11410049 0.063522406 0.12874743 -0.17432709 0.13100775 -0.024207233 -0.14123131

blocks.0.attn.proj_FacTs.weight f4 [16, 16]
00000000: 6d71 d2bc 44ab 9a3d 1734 533e 790c 94bd
00000010: e4e8 edbc 6b61 a1bd 52bf 2bbe 543a 13be
00000020: 27ea 0ebe 89a1 f9bd 944c 21be 96ee 95bd
00000030: 1592 54be 7730 f7bd a46b 513d 8104 0f3e
00000040: e99a be3d 2715 06be 8a5c 493e 52d5 d7bc
00000050: 1ace 853d 118c cebd 1240 c83d f1b2 d23d
00000060: faf4 14bd 6dfa 873a 02be 793d a9c0 0d3e
00000070: 0f20 0e3e 3432 8b3d 86ec a23d f62c 0dbe
00000080: de5a 9a3d d445 943c 9fda 123e d872 dc3d
00000090: 2719 79bd 719a 09bc a7b1 1e3e 2082 7fbd
000000a0: 0eff cc38 f004 3bbc af5f 7e3d 7a53 153e
000000b0: 6947 953c 0965 9dbd dbf0 0c3d 4cd7 133e
000000c0: f959 d33d fc5c 25be 405f a93b a81b e63d
000000d0: be7f dfbd 64f6 1c3e f787 29be 4f8a e93d
000000e0: fdd5 733a 8f03 1d3e 6f12 3cbe c631 4f3d
000000f0: d3a1 0b3e ea60 0d3e f70a f13d dc9c fa3d
00000100: c6dc febd d5f0 c13d 0f03 15be 2e9d bebd
00000110: 543c e5bd bee3 78bc 2cce 27bd 5990 17be
00000120: f666 27be 487c 23bd bf16 4c3d 96ca 56bd
00000130: f957 1cbe f48d 2dbe 9608 88bd dbcf a1bd
00000140: 7833 a6bd 8359 143e b1e3 bc3d 850c c83d
00000150: 5ad3 293e beea 993d 0767 babc bb96 f83d
00000160: c4cb 603d 18bd 2dbe 586f 533d dada 6b3d
00000170: f18a 73bd e8dd 1c3e b91d bd3d 0f0c 9cbd
00000180: 5424 96bb 81ad 1d3e 5a90 163e 2314 063e
00000190: fb32 a63d 302e 76bb 9857 dcbd 417a 08be
000001a0: 879b 9b3d ba7a 613d 78c7 0abe 917a 153e
000001b0: abe4 edbd c1ea 60bd c6ee 95bd 4dc7 353d
000001c0: 4f1c e9bc b7b8 53be 3dbc 173b 4ee2 2c3d
000001d0: 19f9 27bd e988 a3bd 83bf 16be 7a40 b6bd
000001e0: 18ad 23be af66 12be 149d 4bbd 7760 b73d
000001f0: f847 6f3d 612d ce3d 1155 6dbb c023 3e3e
00000200: c948 1a3e ae0b 02be 35ae 92bd 1467 34bd
00000210: a49e 253e bf5d 5dbd 946f 513e ceea 1bbe
00000220: cbda 3c3e 8eb1 f53d 5ada 32be 9f89 633e
00000230: 2104 37be 5027 b13d 2cb4 50bd 4623 443e
00000240: 7a2d 0d3e 8b7d 543d a816 303e df10 98bd
00000250: 4d80 763d 0e9c ba3d af0b df3d 99a3 84bd
00000260: 4cbd c8bd fcc3 9dbd 0e34 85bd 9f96 1c3e
00000270: c046 0abe e7fa f23d 86b4 40be 2c97 19bd
00000280: b7c8 833d 39a4 e63d 0ab8 ecbd be7c 9dbd
00000290: 9cad c73d 8025 d8bd 379b 3e3e 5860 dcbd
000002a0: 14ce 28be 1183 4ebe a309 3a3d 6246 be3c
000002b0: 0be3 af3d 325c 0fbe 667d de3c 7596 14be
000002c0: 2d84 f5bd 0b46 a83d 4d8c 47be 599d 0e3e
000002d0: 3250 e73d 49b0 a9bc 8ad1 493d 8755 063e
000002e0: 3c22 003e c9eb d23d e0a5 cdbc d1d9 9b3d
000002f0: 4f27 083d 97db 073e 4a41 e7bd 946e 2dbd
00000300: 2cab f5bd 51a5 a13d 39ba 2cbd c849 a5bd
00000310: f5ea 7c3d 0fac f13c a079 0fbe dcd3 973c
00000320: d3fe 15bd 2e31 e93c a38f 373e 81b7 fe3d
00000330: 871c 5e3e be77 273e 8638 53be e444 b33d
00000340: 8da8 bcbd 73dd af3d b864 abbb 4861 323e
00000350: 605a a8bc 69c2 b139 4774 b93a ddc7 f73d
00000360: bf39 513e 7284 5abd f797 363d 86db 473e
00000370: 2d6d 143e 279d 0cbd 5ebc e03d 6d05 f1bd
00000380: c3dc aa3d d5e6 0a3e fe9b 40bd 6dd2 813d
00000390: 7108 8cbd 78f5 503d 4960 45be f563 153e
000003a0: 2d0f 223e ed80 a23d c6a1 113e 6c41 ebbb
000003b0: 9f86 04be 543c 2cbe 49ab 3f3d ba17 0c3e
000003c0: 5a87 3cbe 7420 51bd a894 883d 2bb6 98bd
000003d0: 64ee afbd 3240 bebc f642 97bd ee3c 2a3d
000003e0: 9458 bc3d 6417 0dbe 36ba b6bd c517 15be
000003f0: b8e4 2dbb 665a 103d 5c19 4b3e d1e9 103e
-0.025688851 0.075521976 0.2062534 -0.072289415 -0.029041715 -0.07879909 -0.16772202 -0.14377719
-0.1395651 -0.121890135 -0.15751868 -0.07320897 -0.20758851 -0.12069791 0.051128045 0.13966562
0.093068905 -0.13094006 0.19664207 -0.026346836 0.065334514 -0.10085309 0.097778454 0.102880366
-0.03636644 0.0010374315 0.06097222 0.13843025 0.13879417 0.06796685 0.079552695 -0.13786682
0.07536863 0.018099703 0.1434121 0.10764092 -0.060815003 -0.008398638 0.15497456 -0.062379956
9.774986e-05 -0.011414751 0.06210297 0.14582625 0.018222528 -0.076852866 0.034409385 0.14437598
0.10319895 -0.16148752 0.0051688254 0.11235744 -0.10913037 0.15328366 -0.16555773 0.114033334
0.0009301601 0.15333389 -0.18366407 0.050584577 0.1363595 0.13806501 0.117696695 0.1223695
-0.12444453 0.09469763 -0.14551948 -0.093073234 -0.11193147 -0.015191017 -0.040968105 -0.14801158
-0.1634787 -0.039913446 0.04982638 -0.052439295 -0.15267934 -0.16948682 -0.06642263 -0.079009734
-0.08115286 0.14487271 0.09223116 0.09768013 0.1658453 0.07515477 -0.022754205 0.121381246
0.054881826 -0.16966665 0.051619858 0.05758176 -0.059458677 0.15319026 0.09234185 -0.076194875
-0.0045819674 0.15398218 0.14703503 0.13093619 0.081151925 -0.003756415 -0.10758895 -0.13327886
0.07598024 0.05504868 -0.13552654 0.14597537 -0.116158806 -0.05491138 -0.07320933 0.04437952
-0.028455881 -0.20675932 0.002315297 0.04220801 -0.041009042 -0.07985098 -0.14721493 -0.08899017
-0.15983999 -0.14296983 -0.04971035 0.08953946 0.058418244 0.10067249 -0.0036214034 0.18568325
0.15066828 -0.12699768 -0.071621336 -0.044043615 0.16173798 -0.05404448 0.2045272 -0.1522629
0.18442838 0.119967565 -0.17466107 0.22220467 -0.17872669 0.086500764 -0.050953075 0.19154081
0.13786879 0.05187754 0.17196143 -0.07425093 0.06018095 0.09111796 0.108909 -0.06476516
-0.098017305 -0.07703397 -0.06504069 0.15291832 -0.13503551 0.11864262 -0.18818864 -0.037497684
0.06434768 0.11261792 -0.1155854 -0.07689808 0.0974991 -0.105540276 0.18613897 -0.107605636
-0.16484863 -0.20167185 0.045419347 0.02322692 0.08588227 -0.14000013 0.027159404 -0.1451052
-0.11988101 0.08216485 -0.19487114 0.13927211 0.11294593 -0.020713942 0.049272098 0.13118564
0.1251306 0.10298879 -0.02510351 0.076099046 0.033240613 0.1326736 -0.1129175 -0.042341784
-0.11995539 0.0789286 -0.042169783 -0.08070713 0.06174751 0.02950099 -0.1401124 0.01853364
-0.036619972 0.028465834 0.17925887 0.12437344 0.2169057 0.16354272 -0.2062703 0.08753374
-0.09211836 0.0858716 -0.0052305125 0.17419922 -0.020550907 0.00033904918 0.0014149033 0.12098668
0.20432185 -0.053348966 0.04457852 0.19517335 0.14494772 -0.03432956 0.10973428 -0.11768613
0.08342888 0.13564618 -0.047023766 0.06338964 -0.068375476 0.051015347 -0.19275011 0.14588912
0.15826102 0.07934747 0.14221868 -0.0071794298 -0.12941979 -0.16819888 0.04679421 0.13680926
-0.18411008 -0.05105634 0.06668979 -0.07456621 -0.08590391 -0.02322397 -0.07385819 0.041562013
0.091965824 -0.13778454 -0.08922236 -0.14559849 -0.0026534032 0.03524246 0.19833893 0.14151694

blocks.0.mlp.fc1_FacTs.weight f4 [64, 16]
00000000: 5c98 f93d 1995 d13d ee0d 99bd 08e6 cb3d
00000010: aa14 5fbe 8e6e 1c3e 76bd 79bd 3e6a 1f3d
00000020: 3f32 063d 7dcb c33d 8377 30be f5e4 83be
00000030: 8ffd 5b3e c88a 04bc a187 413d 6940 80be
00000040: dc79 34be 50e6 823c 35ed 9a3d 5b3f 133d
00000050: 58e8 3c3e 0e57 373c c708 293d 9381 163e
00000060: daf6 813d d7e0 323d 0de6 a63d 79d7 ef3d
00000070: 6dda 58be d94d 22bd 2efb 87be 11c9 cbbd
00000080: 63ad 85be 576a d4bd 069c 0f3e c580 14be
00000090: b407 403d ea06 933d b7c4 2fbd edbd 3dbe
000000a0: 6281 71bd e444 333e 2967 57bd 2b5d 1e3e
000000b0: 4301 b93d 76fd 863d b870 38be 9207 03bd
000000c0: 0fd2 a0bd 51a3 e03c f808 3b3d 65af 68be
000000d0: 895f 11be 6e0d 57bd 178d 0a3e 8ab2 21be
000000e0: ddf7 233e 8f93 2f3e e43a c1bd cdca f03d
000000f0: 5213 da39 a01d 823d 903d 3a3e a1cd 0a3d
00000100: aa91 17be 7c1e 0b3d 5332 183e 6767 013e
00000110: f639 61bd ab4c 273e 744b b33b 5332 2abe
00000120: 5cc9 0d3e 5e82 6fbc 9d69 9a3d 9927 cb3d
00000130: d463 8ebd 0c0f 87be 8af9 0d3e 2de4 0ebd
00000140: dc7e 3a3e 2aee 60bd 3a2f 4e3e 2037 44be
00000150: 8401 4c3d 5848 fe3d 3d6f 56bd 8856 383e
00000160: 253b 983d 5aa4 3dbe 5cd6 1dbd b135 4c3e
00000170: 4bba 783d 801c c13d 6dda 23be e0ce d83c
00000180: cbb6 6ebe b0bd 1bbe ccb6 94bc 1355 033e
00000190: fe62 b13d 9432 fabd 6bf8 323d 7fae bcbd
000001a0: 1d66 4abe cd89 533e 1785 5a3e ed1b 033d
000001b0: a5cd 06be 8ff5 f3bd 163d 16be f04c 103e
000001c0: 7993 fe3c 04e0 ecbd ec68 12be 54a0 d3bd
000001d0: 266e fd3d ec94 0cbd 8af0 cf3d 72d8 313e
000001e0: 8a1f bbbc c5e6 823c 71f1 953d f14b 073e
000001f0: 9f51 54bd 3639 6b3e 9c5b 5fbd a7ce 49be
00000200: 8547 943d d7b0 293e 51f4 dc3d bfb2 01bd
00000210: e453 f03d 47f9 623b f3d3 4c3e 6bdb 483e
00000220: 14d8 f63d ac73 0c3e 9bcf 3d3e 9b1c f9bd
00000230: df83 b13d 78d9 4dbd 7a93 023d c3b5 373e
00000240: f4e8 e7bd d76f 673d 7e8d dabc da8f 833d
00000250: 8f3d 0b3e ff47 34be e395 91be bfc8 73bd
00000260: 94cf 82bd 0cef b8bd 7693 6ebd c1c7 8c3b
00000270: d7e5 103e 5d4c 5abe a025 3a3c 99c6 f13d
00000280: eb15 1b3e 2572 92b9 3feb 5bbe 5144 5a3d
00000290: 6e13 013e b4ff 37be 7f22 10be a5e5 dbbd
000002a0: 4fa3 8a3d 540f 7dbd b3f1 1c3e b5ab ee3d
000002b0: ebf6 813e ebc5 253e 370e 64bd 2801 31bd
000002c0: 12c1 163b 7d60 b3bc f620 2a3d 1f82 853d
000002d0: 6f24 d9bd 7093 213e 06d5 e5bb cb7b d1bd
000002e0: 0fd8 9b3d 37fe 32be f1c5 1e3d 5ee4 083e
000002f0: 4c92 50be 31b7 4bbe fa4d 74be 713d c8bd
00000300: 05e5 6a3e 8a60 01be 948e 11be 59e4 ca3d
00000310: e7d3 babd f893 cfbd cbb6 b3bc 8a5d f2bd
00000320: f755 ea3d 6766 153d 4616 4e3e 8c82 17be
00000330: 7737 b8bc 0629 b6bc ce93 48be 07bb d1bd
00000340: 50b9 2a3e 2fa6 a6bd f11c ee3c 81f2 89bc
00000350: 6715 0d3e 53cc 323e 63e8 e3bd a0a6 4fbe
00000360: 082b 273e ab6e 503d 2dcd 09be 967e b039
00000370: dfc0 c3bc eca4 4bbe 9c63 72be 9501 bbbd
00000380: f64d 5c3d f621 44be 40f1 15be a0f1 01be
00000390: 843e 79bd 4107 293e b5ee bbbd 6229 2f3d
000003a0: 9f1f bcbd ca87 f93c 55f9 2abd b672 39bc
000003b0: 9790 1abe 2500 c1bc f658 d3bd 869c 19bd
000003c0: 3c09 55be bfe4 133e 47cb 123e beae 11be
000003d0: c67a 1f3e 6978 59bd 96d8 b73c 4151 d5bd
000003e0: 189e cebd f14e c73d 6a1c 763d 6c1d ef3b
000003f0: 6b17 3a3b 7408 5ebe e4f7 3f3e 7061 a33d
0.12187263 0.10233516 -0.0747336 0.09955984 -0.21785226 0.15276548 -0.0609717 0.03891968
0.032762762 0.09560297 -0.1723309 -0.25760618 0.21483444 -0.008089729 0.047248486 -0.2504914
-0.1762461 0.015978962 0.07564775 0.035949092 0.18448007 0.011190189 0.041268136 0.14697866
0.06345911 0.043671455 0.081493475 0.1171102 -0.21177073 -0.039625023 -0.26558822 -0.0995046
-0.26108846 -0.10371845 0.14024362 -0.14502247 0.046882346 0.07179053 -0.04291221 -0.18529482
-0.05896128 0.17506748 -0.052588616 0.15465228 0.09033444 0.065913126 -0.18011749 -0.03198964
-0.078525655 0.027421625 0.04566285 -0.22723158 -0.141966 -0.052503042 0.13530384 -0.15790763
0.16012521 0.17146133 -0.094350606 0.11757431 0.00041594595 0.06353307 0.18187547 0.03388751
-0.1480166 0.03396462 0.14862947 0.12637101 -0.054986916 0.1633784 0.005471641 -0.1662076
0.13846344 -0.014618484 0.075396754 0.09919662 -0.069526345 -0.26378667 0.13864723 -0.034885574
0.18212456 -0.05491463 0.20135203 -0.19161654 0.049806133 0.12416142 -0.05235218 0.18001759
0.07433156 -0.18519726 -0.038534507 0.19942357 0.060724538 0.09429264 -0.16001292 0.026465833
-0.23311917 -0.15209079 -0.01815357 0.12825422 0.086614594 -0.12216678 0.04369394 -0.0921297
-0.19765516 0.20658036 0.21339832 0.032009054 -0.13164385 -0.11912071 -0.1467174 0.1409185
0.03107618 -0.11566165 -0.14297837 -0.103333145 0.12374525 -0.03432171 0.10153301 0.17367724
-0.022842187 0.01597918 0.07321442 0.13212563 -0.051835652 0.22971043 -0.054530725 -0.19707738
0.07240204 0.16571365 0.10788787 -0.031664606 0.11734751 0.0034633444 0.20002727 0.19614951
0.120529324 0.13716 0.18536226 -0.12163659 0.086677305 -0.050256222 0.031878926 0.1794043
-0.11323729 0.056503143 -0.026678797 0.06423922 0.13597701 -0.1760559 -0.28434667 -0.05951762
-0.06387249 -0.090299696 -0.0582461 0.0042962735 0.14150177 -0.21318193 0.01136151 0.118054576
0.1514508 -0.00027932334 -0.21476458 0.053287808 0.12605068 -0.17968637 -0.14075659 -0.107371606
0.0676943 -0.061782196 0.15326576 0.11653844 0.25383696 0.16188781 -0.05567762 -0.043213993
0.0023003262 -0.021896595 0.04153534 0.06518959 -0.10602652 0.15778899 -0.0070139198 -0.1022869
0.07609569 -0.17479788 0.03876299 0.13368365 -0.20368308 -0.198941 -0.2385787 -0.09777344
0.22938927 -0.12634483 -0.14214545 0.09906835 -0.091224484 -0.10135645 -0.021937748 -0.118342474
0.11442178 0.03647461 0.20125684 -0.14795893 -0.022487385 -0.022236358 -0.19587633 -0.10240751
0.16672254 -0.08137166 0.029066535 -0.016839268 0.13777696 0.17460756 -0.111283086 -0.20278406
0.16325009 0.05088679 -0.13457175 0.0003366365 -0.023895679 -0.19887131 -0.2367081 -0.09131161
0.053785287 -0.1915358 -0.14642811 -0.12689829 -0.060850635 0.16506673 -0.09176389 0.042764075
-0.09185719 0.030460257 -0.041741688 -0.011318853 -0.15094219 -0.02355964 -0.10319702 -0.037502788
-0.20804304 0.14442728 0.14335357 -0.14226815 0.15574178 -0.053093348 0.022442143 -0.104158886
-0.10088748 0.09731854 0.06008569 0.0072972085 0.0028395306 -0.21682912 0.18746907 0.07977569

blocks.0.mlp.fc2_FacTs.weight f4 [16, 64]
00000000: 2207 77bc 08f1 c13d aeda a63c c0de 113d
00000010: 9881 f3bc 6cb0 133d f51b 863d 0103 e8bd
00000020: 1e8c b43c 0013 eb3c 6182 84bc c4cd bdbc
00000030: 6f36 d6ba 52e5 82bb 467c 33bb 719c b73d
00000040: 461e 5dbd ee6c a2bd 90bd e23d 8b1a 2a3c
00000050: d9d5 bdb8 bc1e 09be bb28 6b3d 0cc1 04bd
00000060: bd80 1a3d 7cec e53c 1cd4 5dbb b11d 663d
00000070: a822 ab3c b05e f23c d5c3 15bc a2bc 08be
00000080: 09bf 7ebd 0525 183e 8983 dbbd 957e 033c
00000090: 0ee3 17bd 9086 6fbd 049d 983d 9d13 4dbc
000000a0: ed79 6dbd ae8f 003d 5cb6 653d b82f c93d
000000b0: d3f7 babc f161 0dbd f36a 55bc 8e94 433d
000000c0: c52b 173d 7c94 4b3d 190b 203d 291a ee3a
000000d0: d19f 563c b832 acbc ec29 b5bd 6c23 d2bc
000000e0: 009e aa3d 6185 acbd fc75 f13d 43e8 66bd
000000f0: a774 653d 0a91 0e3d 45f3 24bd e7b6 5fbc
00000100: ab46 adbc 3c98 0f3e a12f ca3d 76d6 3f3c
00000110: f4c6 cebd 33a6 38ba 81f6 9cbd 9ca3 09bd
00000120: db0a 353d 56f4 18be fcf5 08bd 10c3 a23d
00000130: 52e1 d4bd 6726 7cbd 59f3 88bd 88bd d73c
00000140: 2de6 a6bc 5507 07bd 31ba 383d 6904 b4bd
00000150: b7d7 943d fdd4 d23d f8d7 96bd 0184 b6bd
00000160: 4aa0 0e3d 41b7 aa3d 8916 a5bc 2331 5cbd
00000170: 4c36 bdbd da3c 113c 5327 e2bd 84f0 cb3c
00000180: 5b15 8cbd a22e 95bd 4536 913d f642 25bc
00000190: 0831 99bd 477c 4cbd 60b0 cebd 8818 3cbe
000001a0: 4f1d 693d fdaf fa3d de35 623d 1c58 3a3d
000001b0: 80b9 b9bd 2392 aa3d bff5 6dbd 103c 593c
000001c0: 97a0 5a3d d291 2fbd 1dff f4bd e7f5 6d3d
000001d0: ae6e 803d bc02 b73d 0713 bcbd b530 8abd
000001e0: d5bb 98bd d020 4a3c 13d9 3bbd 0a2a 993d
000001f0: 18b2 153e d3d1 9e3d 3747 163d 3f57 de3c
00000200: 3de7 d1bd d3a6 0a3c 4334 56bd fa8e 093d
00000210: c5f2 9d3d 5840 823d 19c9 713d 8d2d 993d
00000220: a994 923c ffbb c3bd c35a e13d e106 af3c
00000230: edc3 23bd 2ad4 083c 3b45 aebc 5643 923d
00000240: 990c 223d d635 a03c 4cc1 bb3c f2f0 663d
00000250: c0dd 23bc 0fb3 8d3c f9c0 bdbd 2a5b 7dbd
00000260: ee86 a1bd e1be 283d 6723 b33c c61c 4fbd
00000270: 2d48 f6bd b1ab acba 2f97 93bc 5c9f edbd
00000280: 2c6f 2b3d b485 dabd 6905 df3d 3d6c 87bd
00000290: d8be 513d 2320 b03b 5bd3 583d 6c3f a93d
000002a0: 6452 5b3c 8e8c f8bc 6d1c 59bd 9c93 083e
000002b0: 1cda e33d fa18 6f3b fceb 763c 5c9a 17bd
000002c0: 7632 02bb 749d 38bc cc50 0dbe f3c0 ab3d
000002d0: 95b6 aebd 013e 713d 081a e2bc 1e9d e43d
000002e0: 149f e83d 7a4e b1bc fcb6 4cbd 3aab 92bd
000002f0: e5ca 0c3d b1d7 d03d ac78 fd3a 98ee 433d
00000300: 5a7f 763d 11b6 7f3d a622 193d 6ed9 063e
00000310: e948 0abc ca4f 543d 56e7 133d e41a c53b
00000320: 624f debd ce01 3d3d 9b12 023c 1e58 b83d
00000330: 80ed 43bd c85f 98bc 92b2 803d 3924 9fbd
00000340: 1b6a df3c 869b 4fbc daff 2a3e 3a32 643b
00000350: 0c20 553c f6cf 2cbd 4d56 503c 2bd8 debc
00000360: 8767 45bc 779f 4c3d 2c6c cf3b 932b a7bd
00000370: f8ac c73d 402b 493d f352 cabd 2ad9 433d
00000380: 841e a7ba 1fc4 2a3c 6417 62bd be8a 01be
00000390: 3186 a5bd f213 08bd 0dc2 cbbd 602a d2bd
000003a0: 624c c73d f087 a13d 8dc3 60bc 526b a8bc
000003b0: b981 14be 7050 af3d a826 523c f46a 40bd
000003c0: 5fce ddbb dbdb 7ebb 5c03 853d de23 86bd
000003d0: ddc2 243c a52d fd3c 9fab 9fbd 7723 f93d
000003e0: 57f7 633c c282 0abd abbb a73d bf2f 6dbd
000003f0: 5b1e 6abd f68c bdbd 3484 56bd 0776 62bd
-0.015077384 0.09469801 0.020367946 0.03561282 -0.029724881 0.03605692 0.06548301 -0.11328698
0.02203947 0.028695583 -0.01617545 -0.023169406 -0.0016343127 -0.0039946223 -0.0027387305 0.08965386
-0.05398395 -0.07930933 0.110713124 0.010382305 -9.0520545e-05 -0.1339063 0.05741189 -0.032410666
0.03772043 0.028066866 -0.003384835 0.05618066 0.020890549 0.029586166 -0.009140928 -0.13353208
-0.062193904 0.14857872 -0.10718448 0.008025785 -0.03708177 -0.05847794 0.07451823 -0.012516883
-0.057977606 0.031387024 0.056082115 0.09823555 -0.02282325 -0.034517232 -0.013025987 0.047749095
0.036906976 0.049702153 0.039073084 0.0018165755 0.013099627 -0.021020278 -0.088458866 -0.025651656
0.08330917 -0.084238775 0.11790082 -0.056373846 0.05601945 0.03480629 -0.040271062 -0.013654447
-0.021151861 0.14022917 0.09872366 0.011708846 -0.10096541 -0.00070438086 -0.076642044 -0.033603296
0.044199806 -0.14936957 -0.033437714 0.079473615 -0.10394539 -0.06156006 -0.0668704 0.026335493
-0.020373428 -0.032965977 0.04509944 -0.08789904 0.07267707 0.102945305 -0.073654115 -0.089118965
0.034820832 0.08335734 -0.020152347 -0.053757798 -0.09238872 0.008864606 -0.11042657 0.02489496
-0.06840011 -0.07284285 0.07090429 -0.0100867655 -0.07480055 -0.049923208 -0.100922346 -0.18368733
0.056912716 0.12240598 0.055227153 0.045494184 -0.090685844 0.083286546 -0.05809569 0.013258949
0.053375807 -0.042863674 -0.119627215 0.05809584 0.062711105 0.089360684 -0.09183317 -0.067475714
-0.07457701 0.012336925 -0.045861315 0.074787214 0.14618719 0.077548645 0.03668901 0.027141212
-0.10249183 0.008462626 -0.052295934 0.03358362 0.0771232 0.06359929 0.059029672 0.07479391
0.017893152 -0.09557342 0.110036395 0.021365585 -0.03998177 0.008351365 -0.021273246 0.071417496
0.039562795 0.019556921 0.02291932 0.056382127 -0.0100016 0.017297296 -0.09265322 -0.06185452
-0.07887064 0.04119766 0.021867467 -0.05056455 -0.12025485 -0.0013173727 -0.018016426 -0.11602661
0.04185407 -0.10670033 0.10889704 -0.06612442 0.051207393 0.0053749247 0.05293594 0.0826405
0.013386343 -0.03034046 -0.053005625 0.13337559 0.111255854 0.0036483393 0.0150709115 -0.037012443
-0.0019866503 -0.0112680085 -0.13800353 0.083864115 -0.085309185 0.058897022 -0.027600303 0.1116278
0.11358467 -0.021643866 -0.049979195 -0.07161565 0.034373183 0.1019739 0.0019338331 0.047834963
0.060180046 0.06242949 0.03738656 0.1316888 -0.008440235 0.051833905 0.03610929 0.0060151685
-0.10854985 0.0461443 0.007939006 0.09001182 -0.04783392 -0.01860036 0.062840596 -0.07770581
0.027272275 -0.012671357 0.16699162 0.0034819976 0.013008129 -0.042190515 0.012715888 -0.027202686
-0.012048609 0.049956765 0.0063300338 -0.08162608 0.09749788 0.049113512 -0.098791026 0.047814526
-0.0012750183 0.0104227355 -0.05519809 -0.12650582 -0.080822356 -0.033222146 -0.099491216 -0.10261989
0.09731366 0.07887256 -0.013718498 -0.020558987 -0.1450261 0.08560264 0.012826599 -0.046977
-0.006768986 -0.0038888368 0.064947814 -0.0654981 0.010056225 0.030905554 -0.07796406 0.121649675
0.013913951 -0.033816107 0.08190092 -0.057906862 -0.057157855 -0.09255402 -0.052372172 -0.05528834

blocks.1.attn.q_FacTs.weight f4 [16, 16]
00000000: bf13 08be 64c6 4ebe 0c4a bbbc d365 343d
00000010: 1a43 25be 88e6 2e3e 8336 22be cd70 1fbc
00000020: 8798 b2bd 586c 57be 6172 e4bd c51e ad3d
00000030: 669a bbbc 17a6 22be c12c f73d 6d00 843d
00000040: 288e 763e 3a24 1dbb 8e9a 513d 65d2 b0bd
00000050: ece2 08be d188 32be 4cb9 d2bd a21f 473e
00000060: 472f b83d efda ab3d aeb7 3cbe 0263 703e
00000070: 07fc 363e 2935 30be 5371 07bc 155f d13d
00000080: 0803 a5bd 4576 babd dc36 41be d4fa bdbd
00000090: 957d 2a3e f7a5 09be 8717 0f3e 67ab 34be
000000a0: 3cfc 0abe 19a6 103e b966 cbbd f7bb 23be
000000b0: b369 0d3e 0a2b 0b3d f1d0 983b 9777 303e
000000c0: 16cb 9dbd 4c6a d53c 5291 b23a 11a9 21be
000000d0: 9d94 673e be6a 94bd c0bf 5cbe e4e8 00bc
000000e0: 83e3 5cbc bf22 113e 3a5c c4bd e628 67be
000000f0: 97c0 1b3e b89b fe3b b6fb 56be 5d75 d6bd
00000100: 87a5 433e a0a3 273e 7171 423d 735f 11be
00000110: 6aac 24be e205 6abe 5411 7f3e 15af 49bd
00000120: 2342 3b3e c42c 393e e58d 2c3e db29 173e
00000130: 1433 c7bd 7e13 e53d df45 8cbd 06b6 e8bd
00000140: d848 38be e8ab 53be cc51 92bb 8ac6 1e3e
00000150: 0ff6 34be 3376 593e 3485 ef3d e434 4d3e
00000160: 6c70 17be 7438 9e3d c298 193e ab55 74be
00000170: f2ed 343d a3ae 1fbe 1535 bdbc 210e 553e
00000180: 244f 77be eac7 db3d 3e09 193d 0ad5 293e
00000190: 7796 393e 823d 28be 8ce5 7dbe 5b99 aabd
000001a0: e870 31be ae4c 73bd fb78 4cbe 37aa dcbd
000001b0: 9ce9 7b3d 40e8 683d 38e4 4f3e 9d87 10be
000001c0: b730 d83d 573a 15be 304d 1fbe c528 ff3d
000001d0: 172d a13d de22 c0bc 0656 473e e508 7f3e
000001e0: c93a 543e 7fc4 d93d b767 833d 8258 adbd
000001f0: 2647 753e 4efc 953e ed4c 6abe 5260 443e
00000200: 7b88 8a3e 1c4d f83d c727 f8bd 12bb 0dbd
00000210: 898b 98bd 7be1 bebc 3a1a 70be a394 c6bd
00000220: 2bae a5bd 2b10 1f3e cd9f 193e 29f8 d73c
00000230: 1386 b5bc a3d1 b5bb b562 72be baea 36be
00000240: 3080 aebb ed6c e5bd 4675 33be 5c6a 3a3d
00000250: 7106 70be c811 bbbb dd2c 023e 6eca 22be
00000260: dba6 b2bd 4999 0fbe a4a0 7dbc e58f 04be
00000270: 3257 803d 1425 ce3d e3b0 1d3e d24a 903d
00000280: b6fb e13c 8f04 7b3e a479 5bbe e366 37be
00000290: cbf3 d2bd 000b 4dbc 8397 d03d a3cd c83d
000002a0: af87 ad3d 6faa 843e d652 91bd 6603 113c
000002b0: fe45 223e f8ec 063d c657 4d3e 2555 003e
000002c0: 4b17 62be 0d5f 51be 9383 20be 32bd 323d
000002d0: 9dfa a03d 257c 533c 757c 6abd 4874 3b3e
000002e0: 523d 38be 1711 943d a2c7 32be 54f2 543e
000002f0: 2b48 033e 918b 7b3e dd90 e6bb 9b1b 463d
00000300: a7c2 093d 1a9c 66bb 27cb 4fbe 712d f43c
00000310: 6ae6 f23d 7c10 b13d 5f96 2c3a 4128 f73d
00000320: 47f8 b4bb 3b38 49be ab7d e13d 7edd 8c3d
00000330: bb98 093e 1480 f33b fd61 823d 93b9 283e
00000340: 2e71 64be d6b6 adbd 7c58 e8bd 596c 313e
00000350: 61f0 983e 1f03 5bbe 32f9 253e 4871 58be
00000360: 0152 013e 9e12 4c3e 910c dbbc 526a 5d3e
00000370: c544 3dbe d5d2 633e 223a f33c d096 2c3e
00000380: 3e12 653d 22de acbc b816 053d 0b8b 0bbd
00000390: c82a 76bd 340f 1e3e 0464 76bd 81b1 813e
000003a0: dcee 6c3e 0223 3bbe 76cb 3d3e 1f7e a8bd
000003b0: 0a8c cb3b ec44 03bd a075 203e 5bf4 4e3e
000003c0: facc 503d ee7e 4cbe 5c42 643d 11bb 01be
000003d0: 311a f93d db6b a2bc ff78 80bc 73b7 013e
000003e0: 963d ad3d a7a4 7bbd 9397 da3c 864f 0a3e
000003f0: c50c 1f3e b638 36be b055 31be 318a 07be
-0.13288783 -0.20192868 -0.022862457 0.04404242 -0.16138878 0.17080128 -0.15841107 -0.009731484
-0.087204985 -0.21037424 -0.111546285 0.084531344 -0.022900771 -0.15883671 0.12069083 0.06445394
0.24077666 -0.0023977892 0.051172785 -0.086338796 -0.13367814 -0.17435004 -0.10289249 0.1944566
0.089933924 0.08391368 -0.18429443 0.23475268 0.17869578 -0.17207779 -0.008266765 0.102232136
-0.08057219 -0.091045894 -0.18868583 -0.09276357 0.16649468 -0.13442217 0.13973819 -0.1764351
-0.13572782 0.14125861 -0.09931702 -0.15989672 0.13809852 0.033976592 0.0046635796 0.1723312
-0.07704751 0.026051663 0.0013623631 -0.1578715 0.22615285 -0.07246922 -0.21557522 -0.007868025
-0.013481977 0.14173411 -0.09587903 -0.22574195 0.15210186 0.007770028 -0.20994458 -0.10471604
0.19106112 0.16371012 0.047471467 -0.14196567 -0.16081396 -0.22853807 0.24908954 -0.049239237
0.18286948 0.18083483 0.16851003 0.1476206 -0.09726539 0.111853585 -0.06849264 -0.11362843
-0.17996538 -0.20671046 -0.0044653174 0.15505424 -0.17671989 0.21236496 0.11695328 0.20039707
-0.1478898 0.07725611 0.14999679 -0.23860805 0.044172235 -0.15593962 -0.0230966 0.20806171
-0.24151284 0.1073149 0.03736233 0.16585174 0.18123804 -0.16429713 -0.24794596 -0.083300315
-0.17328227 -0.0593993 -0.19968025 -0.107746534 0.061502084 0.056862116 0.20301902 -0.14114232
0.105561666 -0.14573036 -0.15556788 0.12458948 0.07869928 -0.023454126 0.19466409 0.24905737
0.2072555 0.10633182 0.064162664 -0.08464147 0.23952922 0.29294056 -0.22880907 0.19177368
0.2705725 0.121240824 -0.12116962 -0.034602232 -0.07448489 -0.023300877 -0.23447505 -0.09696319
-0.080898605 0.15533511 0.15002365 0.02636345 -0.022158658 -0.0055486723 -0.23670466 -0.17862979
-0.0053253397 -0.112024166 -0.17525205 0.04551159 -0.23439957 -0.005708907 0.12712426 -0.15897533
-0.087232314 -0.14023317 -0.015480194 -0.12945516 0.06266631 0.10065666 0.15399508 0.07045521
0.027585845 0.24513458 -0.21433121 -0.17910342 -0.10300406 -0.01251483 0.101851486 0.09804847
0.08473145 0.2591128 -0.07095878 0.008850908 0.15847012 0.032940835 0.20053014 0.1253248
-0.22079198 -0.20446415 -0.15675192 0.043637462 0.07860301 0.012908016 -0.057247598 0.18306077
-0.17992142 0.07229822 -0.17458966 0.20795566 0.12820499 0.24564959 -0.007036312 0.04836617
0.0336329 -0.0035188259 -0.2029234 0.029806824 0.11860354 0.08645722 0.00065836863 0.12068225
-0.005522761 -0.19650356 0.110102974 0.06878184 0.13437168 0.0074310396 0.06366346 0.16477041
-0.223088 -0.08482139 -0.11345002 0.17326488 0.29870895 -0.2138791 0.16208342 -0.21136963
0.12628938 0.19928977 -0.02673939 0.21622589 -0.18483265 0.22248395 0.029690806 0.16854405
0.0559256 -0.021102015 0.03249237 -0.03406815 -0.060099393 0.15435487 -0.060153976 0.25330737
0.23137993 -0.18275073 0.18534645 -0.08227181 0.0062117623 -0.03204815 0.1566987 0.20210402
0.05097673 -0.19970295 0.055727348 -0.12669016 0.12163199 -0.01982682 -0.015682695 0.12667637
0.08459012 -0.06143632 0.026683604 0.13506898 0.15532215 -0.17795071 -0.17317843 -0.1323631

blocks.1.attn.k_FacTs.weight f4 [16, 16]
00000000: 8bd5 01be 5691 c4bc b570 63be fd64 f1bd
00000010: 0bb3 0a3e f95f 2bbe 928f 9f3e a15e 6bbe
00000020: f92f 1d3e 7101 443c 913f 3ebc 2421 a4bd
00000030: 7892 193d f776 55be 3515 5b3e 4a18 6abd
00000040: dd63 61be 63a9 f0bd 1b52 c63d 1dae 87bd
00000050: 3ea3 c2bd 7186 843b ca65 4ebe 6391 3cbe
00000060: 5eea 72be 4b4b 2ebe bcd2 5dbe 46c0 923d
00000070: f0c3 673e ccfc 21bd 513d 1f3e ed91 9d3e
00000080: acea 9ebd b93e 3f3e c8d9 523e eace 5bbe
00000090: 319e 813e 5e99 20bd ada5 5fbd b05b a5bc
000000a0: 5e20 4dbc 832d 5ebe a891 123d 2a98 c33d
000000b0: 817d 2cbe 20e3 21be b98e 0d3e 43a2 9cbd
000000c0: 4fc9 15be 88bf 16be 6437 4a3d e9fa 433e
000000d0: 28c4 43bd 7b15 0fbe 0d39 583e 7711 01be
000000e0: 2471 03bd 0fd2 a3bd fc1f 06be 314a 5f3e
000000f0: 9d3f 67bd 1f96 663e 64a8 48bc 4b0c b93d
00000100: ad36 36bd c968 423d 5b62 8e3d 9455 3ebd
00000110: 4a28 8bbe b8a8 4c3e 6918 00be fa42 2ebe
00000120: dab4 43bc 4b6a a93c baf7 583e d35f 123e
00000130: eaaa 963c 48c4 5ebe 3e4d 5e3d d0fa 34be
00000140: 9b60 e7bc bba0 29bd 9905 463c ce69 d03d
00000150: 6859 c23d 4af3 eebd 1f15 a33d b6e3 d53c
00000160: c12b 15be 0ce1 583e 9700 acba 3e24 043b
00000170: ccb2 e83d 5077 8f3d 560b c2bc 258b 58bc
00000180: f1dd 8abe 28cd 483e 2de5 063e 0df5 9abd
00000190: a352 6f3d f09c 083d fb2c 99be ef05 ffbd
000001a0: a7ff 28be a5f4 4cbe 47c7 673d 3cf3 3ebe
000001b0: a40f 0ebc 7b27 0abe a7b2 afbe db2d 7f3e
000001c0: 2e82 033e 17a7 6f3d e542 31be c627 f9bc
000001d0: 8ba4 84be 8c10 65be 68b8 e2bd d799 f7bd
000001e0: 4db5 31be 08d7 173e e3fd 67be 7dd4 dd3c
000001f0: 293e 81bd bf66 d5bd a61c 4e3e 5ee6 753d
00000200: c784 6fbe a5db ab3d 1439 35bb bb5e c43d
00000210: 556f a2bd 6ab5 f2bd 1844 1dbe 03f9 b6bd
00000220: 36ce 95bb 431e 063e a3e2 0dbe 307f eebd
00000230: fa14 183e d1a6 393e e776 5c3e 8097 aa3d
00000240: 9b12 433d 1628 8e3d 6ffc 3fbc c949 803d
00000250: ed3a 3e3e 19e1 1abd bcef ca3d 3927 c83c
00000260: 0895 64be e1a0 22be abf5 2e3d 15f1 663e
00000270: 27c8 223e 2762 233e faff 3ebe 2b96 12bb
00000280: acf6 263e 6256 d53d 1333 28be 0217 31be
00000290: cf57 aa3d d6db 8dbd d664 9fbe 0875 38be
000002a0: f9ba bebd 891f 86be b38a ebbd 121e edbd
000002b0: 21ae a3bd cc4c 953e 1d83 9cbd 69d2 77be
000002c0: b22b 67be de0d 57be 3c40 c33b c8f7 69bd
000002d0: 68bb 8fbe 7236 263e fe34 ad3d 8df2 5ebe
000002e0: 0f31 143e a8f5 e4bd 7dbe 743e 5ced 85be
000002f0: 0da2 f2bd 9315 08be 1b60 c7bc cdb8 123e
00000300: 0bee 3bbd b461 9fbb a73b 22bd 5b9e 153e
00000310: f5b6 253e a39b 45be aa80 2dbe 1859 043e
00000320: c200 8f3d eeb3 0c3e 910a 28be fee3 2cbd
00000330: 85a3 25be c8a1 98be 23c6 853e 5d62 1a3e
00000340: ff14 f4bd 7cbb 583e e420 08be 46fd 2dbe
00000350: 4f3f 11bd 4f4b 8dbe 604e a33c afd2 3c3e
00000360: d16c a2bd 40b9 09be cba4 40be fbf6 68be
00000370: 19cd 14be 3860 fbbd 8fad 7e3e ff0d 14be
00000380: 5440 90be 756e 2ebe 348a 63be e2b5 5a3e
00000390: ff14 483d f30f 073e 3099 99be ac9e 62be
000003a0: b105 29be 80cc d0bd 1b54 83be 426f 393d
000003b0: 71c0 a23d 55bc 80bd f97c ac3d 5141 33be
000003c0: a004 693d bb25 553e d62b 6cbc 7407 28be
000003d0: 2c48 513e cb22 76be 8d3d 033c a23e 4d3e
000003e0: 9038 043e 4b32 9d3c 7385 6bbe be0b a03d
000003f0: d157 37bd 1591 243b e9de 43be 0c3b 53be
-0.12679116 -0.023995083 -0.22210963 -0.1178684 0.13544862 -0.1673583 0.31164223 -0.22985317
0.15350331 0.011963234 -0.011611835 -0.080141336 0.0374932 -0.20846163 0.21394809 -0.05715207
-0.22010751 -0.11751058 0.09683629 -0.06625006 -0.09503792 0.004044347 -0.20156017 -0.18414836
-0.23722216 -0.1702091 -0.2166242 0.071655795 0.22633338 -0.039547727 0.15550734 0.30775395
-0.07759604 0.1867627 0.2059089 -0.2146565 0.25316003 -0.039208762 -0.05460136 -0.020185322
-0.012519924 -0.21697049 0.03578344 0.09550507 -0.16844751 -0.15809298 0.13823976 -0.076481365
-0.14627574 -0.14721501 0.04936923 0.19138683 -0.04779449 -0.13973038 0.21115513 -0.12604319
-0.03209032 -0.0799905 -0.13098139 0.21805646 -0.05645715 0.22518204 -0.012247179 0.09035548
-0.044485737 0.047463212 0.069523536 -0.046468332 -0.27179176 0.19986236 -0.12509312 -0.17017737
-0.011944974 0.020680567 0.2118825 0.14294367 0.018392045 -0.21754563 0.054272883 -0.17673802
-0.028244307 -0.04141305 0.0120862955 0.10176431 0.09489709 -0.116674975 0.07963013 0.026109558
-0.14567472 0.21179599 -0.0013122734 0.0020163204 0.11362228 0.07005179 -0.023687046 -0.013216768
-0.27122453 0.19609511 0.13173361 -0.07566271 0.058428418 0.033352792 -0.2991713 -0.124523036
-0.16503774 -0.200152 0.05658653 -0.18647474 -0.008670721 -0.13491623 -0.34315988 0.24919836
0.12842628 0.05850896 -0.17310674 -0.030414473 -0.25906786 -0.22369593 -0.11070329 -0.120898895
-0.17354317 0.14828122 -0.22655444 0.027078861 -0.06310684 -0.10419988 0.20128116 0.06003415
-0.23390494 0.08391503 -0.002765243 0.09588381 -0.07931391 -0.11851008 -0.15358007 -0.08934214
-0.0045717014 0.13097481 -0.13855986 -0.11645353 0.14851752 0.18130042 0.21529733 0.083296776
0.047625165 0.069412395 -0.0117179 0.062640734 0.18577166 -0.037812326 0.09909007 0.024432765
-0.22322476 -0.15881683 0.042714756 0.22552903 0.15896665 0.15955411 -0.18652335 -0.002236734
0.16305035 0.10416867 -0.16425733 -0.17293933 0.083175294 -0.06926696 -0.3113162 -0.18013394
-0.09313006 -0.26195934 -0.11501064 -0.11578001 -0.07992197 0.29160154 -0.076421954 -0.24201359
-0.22575262 -0.21001384 0.005958585 -0.05712107 -0.28072667 0.16231707 0.08457373 -0.21772213
0.1447184 -0.11179668 0.2390079 -0.26157653 -0.11847315 -0.1328948 -0.024337819 0.14328308
-0.045881312 -0.004863942 -0.03960767 0.14611189 0.16183074 -0.19297652 -0.16943613 0.12924612
0.069825664 0.13740513 -0.16410281 -0.042209618 -0.16175659 -0.2981093 0.2612773 0.15076585
-0.11918067 0.2116527 -0.13293797 -0.16991147 -0.035460766 -0.27596518 0.019934833 0.18439744
-0.07930911 -0.13449574 -0.18812864 -0.22750466 -0.14531364 -0.12274212 0.24870895 -0.14458464
-0.28174078 -0.17034324 -0.22220689 0.21358445 0.04884815 0.13189678 -0.29999685 -0.22130841
-0.16506077 -0.10195255 -0.25650105 0.04527212 0.079468615 -0.062859215 0.08422274 -0.17505385
0.056889176 0.20815174 -0.014414748 -0.16409093 0.20437688 -0.2403671 0.00801028 0.20043424
0.12912202 0.01918902 -0.23000126 0.0781474 -0.044761483 0.002511089 -0.19128002 -0.20627993
