Final Project/FacT-TT/smallnorb_ele_best.pt (torch, 135809 bytes, 76 tensors)

blocks.0.attn.q_FacTs.weight f4 [8, 8]
000000 c4 a7 a1 3e 5e 9b 46 be 2f 65 24 3d 6f 00 6d 3e
       0.31573308 -0.19395205 0.04013556 0.23144697
000010 12 14 af bd 36 d5 45 3e eb 50 0a be 70 0f 59 3d
       -0.0854875 0.19319615 -0.1350743 0.052993238
000020 c0 14 c6 3e ed 8d 76 3d e0 c3 ab be 76 d7 bf 3e
       0.38687706 0.060193945 -0.33547878 0.3746907
000030 ec 29 aa 3d 4e 84 be 3d a5 60 57 3d 5c 64 1a 3c
       0.08308777 0.09302579 0.0525824 0.009423342
000040 d6 79 81 be 4f 6f 9c be 79 10 aa bd aa 1b 47 be
       -0.25288266 -0.30553672 -0.08303923 -0.19444147
000050 a2 53 62 3e 02 3f 6f be 7e fe a3 bc 9b 12 b8 bd
       0.22102216 -0.2336388 -0.020018812 -0.08987924
000060 4b 37 8c 3b 2a 94 5e 3e cd 3e 6d bd 23 6c 24 bd
       0.0042790524 0.21736208 -0.05792122 -0.04014219
000070 4d fe e2 bd 51 9f c8 be 0f 8e 8f be 1f 3a e3 3d
       -0.1108366 -0.3918405 -0.2803807 0.1109507
000080 0d e3 20 3e da d3 43 bd ab 8e 7a 3e 37 02 43 3e
       0.15711613 -0.04780946 0.24468486 0.19043814
000090 a3 53 72 ba f2 aa 12 be fc 8a 5b 3e 85 28 19 3e
       -0.000924403 -0.14323023 0.21439737 0.14956863
0000a0 41 cb a1 be 58 b8 4a 3e 7d b8 20 3e 2a 87 7e 3e
       -0.31600383 0.19796884 0.15695377 0.24856248
0000b0 d8 1a 9f 3d 1b fc bb 3e 7c 7c c9 be ee c2 d0 3e
       0.07768792 0.3671578 -0.39352787 0.4077372
0000c0 b1 3b e4 3d f3 c1 93 3e cd 95 8b be 58 97 de bc
       0.11144198 0.2885891 -0.27262726 -0.027171776
0000d0 ad 6d 22 3d f4 6a b1 3e 30 e3 b6 be 9d 5b 20 3d
       0.039655376 0.3465191 -0.35720205 0.03914987
0000e0 f3 f8 91 3e 68 58 1a 3e 31 3a be bd ac a1 d2 be
       0.28510246 0.15072787 -0.09288443 -0.4113897
0000f0 cb c1 39 bd 3f fb fd 3d 37 ea 0f 3e 01 6c ea 3d
       -0.04535083 0.12401437 0.1405419 0.11446381

blocks.0.attn.k_FacTs.weight f4 [8, 8]
000000 17 54 97 3d d0 57 be be 81 16 81 be d6 ee c4 bc
       0.07389086 -0.3717637 -0.25212482 -0.024039667
000010 5d 91 54 be 7b cd ed bd 40 65 d6 3d 9a 9c 3c bd
       -0.20758577 -0.11611458 0.10468531 -0.046047784
000020 a5 7e 69 3e 9b c5 e3 3c 31 cf c3 3e 29 01 09 3e
       0.22802217 0.027804187 0.38244012 0.13379349
000030 c0 f2 2f 3e f1 e3 f2 3d fb 3b 85 be 0c 3d 8a 3e
       0.17182446 0.118598826 -0.26022324 0.269997
000040 49 09 4b be 93 7d 19 be 51 db 32 be d1 ae 26 bd
       -0.19827761 -0.14989309 -0.17466475 -0.04069406
000050 58 9e cf bd 8f 03 50 3e 9c 98 58 be ac 04 c7 be
       -0.101376235 0.20313857 -0.21151966 -0.38870752
000060 da ba 52 be 2b 67 34 bd e7 98 d9 3d c8 08 c9 bd
       -0.2057909 -0.0440437 0.10624867 -0.09816128
000070 83 02 b1 3e 93 6f 6e 3e 6b 8d 80 3e 83 84 f4 3e
       0.3457223 0.2328475 0.25107893 0.47757348
000080 ec 9f ca 3d 1a e2 3f be 50 e4 bf be cf e3 ca bd
       0.09893784 -0.18738595 -0.37478876 -0.09906732
000090 de c4 f9 3d 24 76 20 be cb ac 41 3d 90 80 3f be
       0.121957526 -0.15670067 0.04728393 -0.18701386
0000a0 1d 29 ca bd 0c 28 8a be 97 fa 31 be 85 6d a9 3d
       -0.09871123 -0.26983678 -0.17380749 0.08272842
0000b0 2b 40 0b 3e 4d dc 2f be 1a f4 b3 3e 10 3c 02 be
       0.13598697 -0.17173882 0.35147172 -0.12718225
0000c0 0f 25 19 be a3 99 29 3d e7 5a c3 3d 23 4b 67 be
       -0.14955543 0.041406285 0.095388226 -0.22587256
0000d0 80 4b 14 be fb bf 5a be b0 4f 89 3e 6b d8 8e be
       -0.14481926 -0.21362297 0.2681861 -0.2789949
0000e0 29 19 a6 be 22 cd 05 3e 89 0c 2b 3e 52 8e 83 3d
       -0.3244107 0.13066533 0.16704 0.0642363
0000f0 fb b8 23 bc 1d ce 60 3e 9e 28 98 3e e3 65 9d 3e
       -0.009992833 0.21953626 0.29718488 0.30741796

blocks.0.attn.v_FacTs.weight f4 [8, 8]
000000 b5 6b 81 3e 91 6f 43 3d b4 0a 5f be 5c ff c2 3e
       0.25277486 0.04771382 -0.21781427 0.3808545
000010 e3 45 2d 3e 2e a0 45 be d9 1b 80 3e 34 20 1a be
       0.16921191 -0.19299385 0.25021246 -0.15051347
000020 f8 a0 3b be 8f 1e 22 be 6d e5 71 bd c0 a7 97 3e
       -0.18323123 -0.1583197 -0.059056688 0.2962017
000030 d7 8f 86 3e d9 f0 90 be 0c f4 ae bd 3d b8 4b be
       0.26281616 -0.28308752 -0.08542642 -0.198945
000040 44 14 b5 3e b5 5c e3 3d 47 35 7e 3d fb ab aa be
       0.35367024 0.11101667 0.062062528 -0.33334336
000050 18 d7 02 3d 72 e1 dd be 3c 72 9a be af ed ca be
       0.03194341 -0.43336064 -0.3016528 -0.39634463
000060 98 35 a3 3e 24 ea 6f be fb 59 c9 bc ee 16 7c be
       0.31876826 -0.23429161 -0.024579039 -0.24618122
000070 39 6e 2f bb b2 0d b6 3e f6 9d 1a be 9b 6e 8e 3d
       -0.0026768579 0.35557324 -0.1509932 0.0695469
000080 bb 1d 42 3e d7 d2 e3 bc c1 7d af bd 28 b8 4c be
       0.18956654 -0.027810497 -0.085689075 -0.19992125
000090 7d 81 83 3e ee c9 08 3e 00 12 9a 3e 5a 7e 7b be
       0.2568473 0.1335828 0.30091858 -0.24559918
0000a0 fd b7 b4 3e e8 5a 5e be 2d a9 69 3d e0 d9 c4 3d
       0.35296622 -0.21714365 0.057046104 0.09611869
0000b0 45 0c ae be df f0 13 be 52 6c 73 3e b1 78 0e be
       -0.33993736 -0.14447354 0.2377179 -0.13913228
0000c0 e4 4b 39 bd 52 a8 7c 3e 34 5c a1 3e 29 a6 48 be
       -0.04523839 0.24673584 0.31515658 -0.19594635
0000d0 e7 59 ad be 8b 3b 81 3e 82 f7 9b be e0 17 89 3e
       -0.33857653 0.2524074 -0.3046227 0.26776028
0000e0 41 9d be be bf f1 6f 3e 20 2c 1b 3e 75 80 2f be
       -0.3722935 0.23432063 0.15153551 -0.17138846
0000f0 25 92 48 be 45 e1 04 3e 98 65 35 be 82 38 49 be
       -0.19587 0.12976559 -0.17714536 -0.19650462

blocks.0.attn.proj_FacTs.weight f4 [8, 8]
000000 80 da 9e be 4e 5b 7a be 0a e5 de 3c c2 7f bf bd
       -0.31026077 -0.24448892 0.027208824 -0.0935054
000010 1c a9 59 3e f8 6d 82 bd 18 2a 66 be b5 73 3e be
       0.21255916 -0.06368631 -0.22476995 -0.18598826
000020 f6 4b 0a 3e e2 38 82 3d f7 b7 c8 be b4 98 fb 3d
       0.1350554 0.06358506 -0.39202854 0.12284985
000030 f7 cf a2 3e 86 c9 34 3e e2 14 8c be 2e 51 89 be
       0.3179929 0.17655 -0.27359682 -0.26819748
000040 15 f9 30 be f7 9d 1f 3e cc c0 f2 3d cf e2 73 be
       -0.17282517 0.15587603 0.11853179 -0.2381699
000050 5d ab 5a 3e 07 d5 b6 bc 39 1c 0e 3d 2b 03 66 bd
       0.21354432 -0.022318376 0.034694884 -0.056155365
000060 0a 07 4e 3e b6 f4 18 bd 7a 50 f7 3d 07 42 08 be
       0.20119873 -0.03734275 0.120758966 -0.13306437
000070 4a da ee bd 3a a6 cb bd 7b 87 a4 3d 58 67 11 be
       -0.11662729 -0.099438146 0.08033653 -0.14199579
000080 28 b9 de 3d a0 89 92 3e f7 9e d5 be e2 7a 4f be
       0.108751595 0.28620625 -0.41722843 -0.2026172
000090 5e ff b1 be d0 3f fd bc 7e 9c b8 3e 94 0d 91 be
       -0.34765142 -0.030914217 0.36056894 -0.28330672
0000a0 ca 94 72 be 89 39 c0 3e c0 f3 f2 3d 2f 93 99 be
       -0.23689571 0.37543896 0.11862898 -0.29995105
0000b0 e1 a0 a4 3c ea d8 68 bb e3 db 8b 3e 84 2f b9 be
       0.020096244 -0.0035529681 0.27316198 -0.36169064
0000c0 f7 03 b5 3e f1 16 14 bd 7b 33 89 be 55 5c 15 be
       0.35354587 -0.03615469 -0.2679709 -0.14586003
0000d0 1d ea 58 be 9b 94 43 be e3 0f 85 3e b2 e9 5d be
       -0.21183057 -0.19099657 0.25988683 -0.21671179
0000e0 c5 a8 49 be c8 b9 8c be 0a ea 9a be 26 0d 9a 3e
       -0.19693287 -0.2748549 -0.30256683 0.30088156
0000f0 e6 fc 25 3e d5 24 8b 3d 5c a7 9b 3e 2a 8e 96 3e
       0.16209754 0.067941345 0.30401123 0.29405338

blocks.0.mlp.fc1_FacTs.weight f4 [32, 8]
000000 12 c4 08 be dc b3 cf be ec 62 90 3d 10 b0 7b 3e
       -0.13356045 -0.4056691 0.07050118 0.24578881
000010 b6 4b 0f be 1d 59 48 be 25 7a d6 3d 64 ce 85 be
       -0.13993725 -0.19565244 0.10472516 -0.26134026
000020 38 a6 c6 3a 3d 40 47 3c 6d a2 8d 3e 95 d9 20 be
       0.0015155738 0.012161312 0.27662984 -0.15708001
000030 d0 f9 bb 3e 85 7f b5 bd d9 cf 9b 3d e7 26 29 be
       0.3671403 -0.08862213 0.07608003 -0.16518746
000040 ec 5d 3e 3d 7e a5 e1 3c 72 24 1c 3e b6 06 25 3a
       0.04647629 0.027544733 0.15248278 0.00062952505
000050 1e 31 8b 3d f2 28 03 bd e2 64 08 bd f6 17 29 3d
       0.06796478 -0.03202147 -0.033299334 0.041282617
000060 a7 34 93 3e 18 6c ae be 13 e1 29 3e 36 e9 1e bc
       0.28751108 -0.34066844 0.16589765 -0.0096991565
000070 71 0c 75 3d 3e 97 c3 be 19 86 53 3e b2 0a b4 be
       0.05982632 -0.38201326 0.20656623 -0.3516441
000080 ae 20 0c be 69 b3 99 3d 85 ed 41 3e 86 05 a8 be
       -0.13684341 0.07504923 0.18938263 -0.32816714
000090 21 9b 92 bd 24 eb 0a 3e 62 42 84 3d 39 c9 95 3e
       -0.07158495 0.13566262 0.06457974 0.29255083
0000a0 e0 76 8f 3e 14 32 86 bd 95 3e 9e 3e 59 cf 07 3e
       0.28020382 -0.065525204 0.3090712 0.1326269
0000b0 52 3f af 3d 36 cd 8d be 6d a0 8c bd 41 4d 89 bd
       0.08556999 -0.27695626 -0.06866536 -0.06704188
0000c0 7b 46 f5 be b9 9b b4 bc b3 3e 8a 3d f0 f5 bb 3e
       -0.47905335 -0.02204691 0.0675024 0.36711073
0000d0 58 65 04 3e c0 57 4a be 0c 89 56 3e 88 1d 9e 3c
       0.12929285 -0.19760036 0.20950717 0.019301191
0000e0 39 36 17 be 14 fb 9c 3e 36 da a2 3e 3f 56 8e 3e
       -0.14766778 0.30660307 0.31807107 0.27800176
0000f0 7d 16 26 be a0 8b 96 be 9c ac d8 bd 14 77 e0 3d
       -0.16219516 -0.294034 -0.105797976 0.10960212
000100 c0 49 bf bd 6b fb 27 3e ab c5 4b bd da 88 90 be
       -0.093402386 0.16404502 -0.049749058 -0.2822941
000110 fc 21 e1 3d 54 9b a7 be 8c c1 b4 3e 0a 07 a7 be
       0.1099281 -0.32735693 0.35303915 -0.32622558
000120 43 17 72 3d fb 27 48 be 0c 76 99 3c ae 09 28 3e
       0.059104215 -0.19546501 0.018733047 0.16409943
000130 d2 ef 70 bd ce b1 c2 3e 27 f6 9b be 8a b9 1f bd
       -0.05882246 0.3802628 -0.30461237 -0.038995303
000140 f5 c7 3c be c0 f6 7c 3e 58 f4 02 be 09 75 b2 3e
       -0.18435653 0.24703503 -0.12788522 0.34854916
000150 b2 2e 87 be d9 a7 34 3e 28 77 14 be cb e2 c8 3e
       -0.26402813 0.17642154 -0.1449858 0.3923553
000160 89 b2 58 3e f6 c3 94 be bd 9f d9 3e 22 5f 8a 3e
       0.21161856 -0.29055756 0.42504683 0.27025706
000170 0c 8f f2 bc 4e e0 e9 3e 4a 82 81 bc bb 9e 81 be
       -0.029609226 0.45678943 -0.015809197 -0.25316414
000180 b5 08 61 be 80 d6 15 be 81 72 6b 3e 92 6f 32 3d
       -0.21975978 -0.14632607 0.22992899 0.043563433
000190 b9 43 ab be 6b a0 8a 3e 30 2a 7d 3d 1a 29 ed 3d
       -0.33450106 0.27075514 0.06180781 0.11580105
0001a0 04 fd 5e be 7a d6 3f 3e 8d 49 80 be c7 b4 32 3e
       -0.21776205 0.1873416 -0.25056115 0.17451774
0001b0 54 3a 45 be b1 d6 4d be 9f 74 fc bd 25 f1 21 3e
       -0.19260532 -0.2010143 -0.12326931 0.15814646
0001c0 c8 9e 79 3e d0 d2 e3 3d bf 1f 3b 3e 15 e9 cb 3c
       0.24376976 0.11124194 0.18273829 0.024891416
0001d0 62 d2 20 3d c6 eb 8b be ad 93 c5 3e 73 52 3f bd
       0.039263137 -0.27328318 0.3858923 -0.04670949
0001e0 28 4f 09 bd e4 0a b0 be 5e 3b 88 be a2 0c 6c bc
       -0.033522755 -0.3438331 -0.26607794 -0.014407309
0001f0 78 63 60 be c3 17 74 3e 0f 14 1d 3e ce 72 83 be
       -0.21912944 0.2383719 0.15339683 -0.25673527
000200 ad c4 4b 3d 72 13 23 3e 40 43 9b be 1c e5 f8 bd
       0.04974811 0.15925387 -0.30324745 -0.12153074
000210 61 24 ad be 82 44 83 be 0c 8e c0 3d c5 09 d1 be
       -0.33816817 -0.25638205 0.09402093 -0.40827766
000220 45 11 88 3c 97 22 a1 3e c3 da 8b 3c 3a 39 47 be
       0.016609797 0.31471702 0.017072087 -0.19455424
000230 c2 fa ef 3d 16 75 4e 3e c7 2d 7c 3e 0b 25 73 be
       0.1171775 0.20161852 0.24626838 -0.237446
000240 83 14 b4 be c9 9c 33 3e f2 43 fc bd cc bc 91 be
       -0.351719 0.17540278 -0.12317647 -0.28464353
000250 c9 2f 94 3e 1c 92 5b bd d6 d4 5a 3e bf 9d 75 3e
       0.28942707 -0.053606138 0.21370253 0.23985957
000260 77 31 ed bd ef d1 17 3e 84 7d c1 3e 13 f5 34 bd
       -0.115817 0.14826177 0.37791073 -0.044179033
000270 5d 6e 8b 3e a9 75 a1 be 87 93 87 be 08 2c 5a be
       0.27232638 -0.3153508 -0.26479742 -0.21305859
000280 6d 54 1e 3d f5 93 ce 3d ae 41 60 be e8 25 f0 3d
       0.038654733 0.10086814 -0.21900055 0.1172598
000290 4e 85 68 bd 6f c6 f3 be 4d 2a 02 be 95 e7 12 be
       -0.056767754 -0.4761233 -0.12711449 -0.14346154
0002a0 02 ca a8 bd 51 00 c7 bd ff c4 2f 3d 84 40 9b 3e
       -0.08241655 -0.09716857 0.04291248 0.3032266
0002b0 11 d5 fa bd 1b 6e 84 3e 6b b3 aa bd 07 52 de bd
       -0.122476704 0.25865254 -0.083350025 -0.10855489
0002c0 b2 0f 05 3e 51 b4 b2 3b 0b 64 a5 3e 5c be 07 be
       0.12994269 0.0054536243 0.3230289 -0.1325621
0002d0 4e 61 c3 be 4f d6 2a 3d 6b c9 15 be d5 37 0a 3e
       -0.38160175 0.041708287 -0.14627616 0.1349786
0002e0 17 35 b7 bd ff 8e 77 3e 6a fe 48 bd 35 c2 9f 3d
       -0.08945673 0.24175642 -0.049070753 0.07800714
0002f0 47 ed 3d be b4 82 70 be d3 54 14 3e 45 9d 97 3e
       -0.18547545 -0.2348736 0.14485483 0.29612175
000300 3b 49 72 be bd b2 c1 bd c4 3a 91 3e 7b 83 fb 3d
       -0.23660748 -0.0945792 0.28365147 0.12280937
000310 cc 63 ec 3d b3 e1 5c be 62 ed 3f be ea 00 a8 be
       0.11542472 -0.21570472 -0.18742898 -0.32813197
000320 7c 1d 99 be cb 5f 46 be 00 a9 29 3e 50 10 b6 3d
       -0.29905307 -0.1937248 0.16568375 0.0888983
000330 5d 7c b4 3e bc ce 2a be 07 1d 1c 3e d4 66 8c 3d
       0.35251132 -0.16680425 0.15245448 0.068555504
000340 2f fd ce be fc 34 9b bc a6 6a 4b 3e 8e 37 79 3d
       -0.4042754 -0.018946163 0.19864902 0.060843997
000350 42 d0 61 3d 8c 27 0f be 37 ea 45 be 7b 3b 10 bc
       0.05513025 -0.1397993 -0.19327627 -0.008803244
000360 df cf 23 be 2e 9a 76 bd 68 07 20 3e 29 54 99 bd
       -0.15997265 -0.06020563 0.15627825 -0.074867554
000370 09 92 70 3e ca e7 b4 be 6a 0d 03 3e cb 99 89 be
       0.23493208 -0.3533309 0.12798086 -0.26875147
000380 26 cc 81 be dc 2e 08 3e d6 46 a1 be 62 a0 4d bc
       -0.25351065 0.13299125 -0.31499356 -0.012550445
000390 e5 ff 00 3e 74 5b a4 be b6 79 27 3d ee 84 95 3e
       0.12597616 -0.32101023 0.040887557 0.2920298
0003a0 06 85 97 3e 49 d4 a2 be 91 bd 91 3e 3b eb 6a 3e
       0.29593676 -0.31802586 0.2846494 0.22941296
0003b0 cc f6 82 3e d9 77 05 3d 88 38 38 bd 6b fb 8d be
       0.25578916 0.032585 -0.044975787 -0.2773088
0003c0 d8 0b 87 3e 5c 42 5d 3c 48 d7 6a be 0d e5 0c 3e
       0.26376224 0.013504591 -0.22933686 0.13759251
0003d0 80 65 b2 3e 04 ee 1d bb 36 42 65 3d 4f 36 8e be
       0.34843063 -0.0024098167 0.055971347 -0.2777581
0003e0 ce 68 59 be bf b4 7a be f6 d5 28 bd f6 92 98 3e
       -0.21231386 -0.24483012 -0.041219674 0.29799622
0003f0 85 ee a5 3e 58 cb 0d 3e cd 1a cd 3d 13 44 f5 ba
       0.32408538 0.138471 0.100148775 -0.0018712304

blocks.0.mlp.fc2_FacTs.weight f4 [8, 32]
000000 27 aa 7a bc b5 20 3d 3e 1d 9f fc bc 0c a5 b4 bd
       -0.015299357 0.18469508 -0.03083759 -0.08820543
000010 02 e5 dc bc 6f ff e4 bd 9f 8c 54 3a 8c d4 98 3d
       -0.026964668 -0.111815326 0.00081081124 0.07462415
000020 d9 56 2e 3e 0c fa 22 3e 02 df 3a 3e 69 fc 2a 3d
       0.17025317 0.15915698 0.18249133 0.041744623
000030 0d de f2 bd 71 ff 32 3e d6 f1 ff bd f8 36 92 bd
       -0.11858759 0.17480256 -0.124972984 -0.07139391
000040 f6 07 02 be fb 03 12 3e 6c 2d f2 3d 2a 8c 79 3e
       -0.1269835 0.14259331 0.1182507 0.24369875
000050 84 45 29 bd c2 b7 09 3e 61 d8 a3 3d 32 ea 11 be
       -0.04132606 0.13449004 0.080002554 -0.14249495
000060 93 70 87 3d 5e 2b d1 3d e5 dc a1 bd 4e b4 45 3d
       0.06613269 0.1021335 -0.079034604 0.048267655
000070 be 30 54 be a9 3c 15 3e 2f f4 8c bd f9 32 8d bd
       -0.20721719 0.14573921 -0.06882512 -0.06894488
000080 be 0b ab bc 00 d9 70 be 53 66 da 3d 12 57 5b 3b
       -0.020879623 -0.23520279 0.10664048 0.0033468646
000090 49 5b 8b 3c 9b 53 89 3e 62 dc e8 bd a8 a1 3d 3e
       0.017011302 0.26821598 -0.1137016 0.18518698
0000a0 90 e0 f2 3d 05 13 42 bd f0 96 46 bc 6d bf a1 3d
       0.11859238 -0.04738142 -0.012120947 0.0789784
0000b0 a0 0b d1 3c 59 23 0e 3e 1d 5c d3 bd d0 a3 23 3e
       0.025518239 0.13880672 -0.103203036 0.15980458
0000c0 cd a5 7a 3d e7 4d f5 bd 58 63 01 3d a7 5a 18 be
       0.061193276 -0.11977749 0.031588882 -0.14878331
0000d0 5e 06 3b 3e fc e1 1e be c5 2f ee bd 87 fc 29 be
       0.18264148 -0.15515894 -0.11630205 -0.16600238
0000e0 02 c8 53 be 09 12 61 3d f2 0a a6 bd 04 c8 06 be
       -0.20681766 0.05494884 -0.081075564 -0.13162237
0000f0 9b 32 af 3d ee 02 c5 bd 03 01 86 3d 13 68 aa 3d
       0.08554574 -0.096196994 0.06543162 0.08320632
000100 95 92 9d 3e 63 68 43 3e 61 e5 7d 3d 96 33 28 3c
       0.30775896 0.19082789 0.06198633 0.010266205
000110 ef b7 ac 3c ae b6 4d 3d 9d 7b 92 3d a5 7c 68 be
       0.0210838 0.050223045 0.071524836 -0.22703798
000120 e9 2e d2 3c 71 84 0f be 17 d9 fc bd 8c a4 05 3e
       0.025657134 -0.14015366 -0.12346094 0.13051051
000130 e9 b0 3d bd 42 94 5f be 22 d4 d1 3d 4f a6 3a 3e
       -0.046311293 -0.218339 0.10245539 0.18227504
000140 2f a6 bf bd 57 46 97 3d 18 3a 1a 3e 0e 1b 09 3b
       -0.09357869 0.07386463 0.15061224 0.0020920667
000150 dc 62 9b 3d 65 e6 0e 3e 4a c9 2f 3e e2 a3 16 3d
       0.07587215 0.13955076 0.1716663 0.036777385
000160 67 c2 a9 bc 44 0e 32 3d 19 e3 3a bd f9 a1 8c 3e
       -0.020722581 0.043470636 -0.045626733 0.27467325
000170 a1 2f d7 bd 10 cb c6 bb 12 95 fb 3d 17 bf 1f be
       -0.10507131 -0.0060666874 0.12284292 -0.15600239
000180 4d 12 a2 bd ea 04 80 bd fe fd 4c bd f8 45 8f bd
       -0.07913647 -0.06250937 -0.050046913 -0.06995767
000190 e4 c9 a1 3c 55 fe 23 3e a7 08 33 3e bf c0 5f 3e
       0.01974959 0.16014989 0.1748377 0.2185087
0001a0 95 e3 e7 bd cb 62 1f 3e 51 bf 00 3e 1c aa b7 bd
       -0.11322705 0.1556503 0.12572981 -0.08967993
0001b0 e6 6c ec 3d 4e 95 89 3e 13 ae c0 bd 25 32 3b bd
       0.11544208 0.26871723 -0.09408202 -0.04570212
0001c0 9a e8 88 3e c2 df ff bd 95 9b 31 3e 6c 9a cf 3c
       0.2673996 -0.1249385 0.17344506 0.025342189
0001d0 2e 5f a5 3d c0 3f eb 3d ea 96 7e 3b 3d 7e 8e bd
       0.08074795 0.11486769 0.0038847276 -0.06957672
0001e0 f2 02 32 be 7b 40 0a 3e a4 05 32 3d aa cf 6b 3c
       -0.17383936 0.1350116 0.04346241 0.014392773
0001f0 4d 7d 18 3d ca 1f e4 bd b4 33 76 bc a3 b1 fd bd
       0.03722887 -0.11138876 -0.015026975 -0.12387397
000200 12 b3 d3 3d 24 11 c8 bd be 21 f3 3d 66 da f6 bd
       0.10336889 -0.09768894 0.1187167 -0.12053375
000210 47 33 33 be 34 f9 26 3e 9b c8 36 3e c7 43 0f bd
       -0.1750003 0.16306001 0.17849962 -0.034976747
000220 24 34 32 bc ee d2 5e 3d 20 0f 4f 3e 2a 2a 23 be
       -0.010876689 0.054400377 0.20220613 -0.15934053
000230 65 b1 3a 3b f7 39 0c bd 3d 5d 47 be 83 82 91 3d
       0.0028487083 -0.034234967 -0.19469161 0.07104971
000240 97 86 58 be 69 2f 3b bd 67 a6 c5 bd b8 e4 24 3c
       -0.21145092 -0.04569951 -0.09650879 0.010064296
000250 68 12 39 3e 4d b6 94 bd 25 4b 30 be d7 e2 b5 bd
       0.18073428 -0.072613336 -0.17216165 -0.08881157
000260 a8 ce 3f 3d e4 dc db 3b 39 d0 9e 3d 4c 0c 39 3e
       0.046827942 0.006709682 0.07754559 0.18071097
000270 a0 8c 4c be ca 32 08 3e 04 8d 55 bd 78 36 cc bd
       -0.19975519 0.13300624 -0.052136436 -0.099713266
000280 c5 52 96 bc 35 d5 80 3d 73 a8 31 be 7a 18 89 3d
       -0.018350014 0.06290666 -0.17349415 0.06694122
000290 3f 26 2a 3e 33 79 79 3c cf b6 09 3e 13 49 04 3e
       0.16616152 0.01522665 0.13448642 0.129185
0002a0 6a 13 c3 bd 2d 73 8f bc 4b de 5c 3e f0 a9 18 3e
       -0.09525187 -0.017510975 0.21569173 0.14908576
0002b0 97 7c 15 3d 1c fa cc bd 78 09 1a be ba ae e4 3d
       0.03649577 -0.10008642 -0.15042675 0.11166139
0002c0 3c 58 5e 3d 65 b1 00 3d 71 10 0e 3e d2 95 cd 3d
       0.054283366 0.031419177 0.1387346 0.100383416
0002d0 31 39 f1 3c 6b 4e c5 3d ca 62 c8 3d 89 75 b6 3d
       0.029446216 0.09634098 0.097844675 0.08909137
0002e0 2d 68 c9 3b d7 c2 5a 3e c5 af ff 3c cc 30 4b bc
       0.006146452 0.21363388 0.031211743 -0.012401771
0002f0 38 9c 9f bb 92 63 4d bd 44 fe 96 3c da 2e 0e 3e
       -0.0048709176 -0.050143786 0.01843179 0.1388506
000300 2a 90 bd 3d d1 d6 9a bc 0d 71 9c bd 5f 06 f3 3d
       0.09256013 -0.01890126 -0.0763875 0.118664496
000310 5e f5 0d bd fd cc 14 be 66 98 34 3e 51 fc 5b 3e
       -0.03465783 -0.14531322 0.1763626 0.2148297
000320 7f 5c 38 be ec 7b 1b be 8c cd 79 3d 00 74 25 3e
       -0.18004034 -0.15183991 0.06098704 0.16157532
000330 a8 23 56 be 2c af 31 3e 90 63 63 3c 9d 96 a4 be
       -0.2091204 0.17351979 0.013878718 -0.3214616
000340 05 14 00 3e ce ca bf 3d 55 6b 8d bd 10 eb ab 3d
       0.12507637 0.09364854 -0.069052376 0.08394444
000350 5d 0f 07 be ea 40 4f be 8d a9 5c 3e 80 22 77 bd
       -0.13189454 -0.20239606 0.21549053 -0.060335636
000360 64 b4 c4 3d b7 a0 7a be f6 d0 70 3d a8 fd c4 bd
       0.09604719 -0.2447537 0.05879303 -0.096186936
000370 74 76 96 3d 48 a5 ed 3d a6 5b 82 3d bb 54 28 be
       0.07346812 0.116037905 0.06365137 -0.16438572
000380 bc 7d d9 3d ef de 55 3c 94 11 6c 3d 47 fd c0 bd
       0.10619685 0.01305364 0.05763395 -0.09423309
000390 84 63 57 3d 90 1d 11 3e ff 33 76 bd f2 c4 c7 bd
       0.05258514 0.14171433 -0.06010818 -0.09754361
0003a0 e1 22 1a be 72 4b a4 3d 3d 73 31 3d b1 d2 67 bc
       -0.15052368 0.080222026 0.04332279 -0.014149354
0003b0 1a 49 27 3e f3 e1 1f be 4d f1 f0 bc ed 95 02 3e
       0.1633648 -0.15613537 -0.029411936 0.12752505
0003c0 6f 96 3f be 9d 66 df 3c 71 e8 20 3e 1f a1 99 3b
       -0.1870973 0.02727061 0.1571367 0.0046883966
0003d0 24 1d e5 bd 53 6c 2a be 8f 6e dc 3d 64 eb ca bb
       -0.11187199 -0.16642885 0.10763275 -0.0061926115
0003e0 04 2b f3 bc 19 35 01 3e 65 b3 63 bd 4e 60 ce 3c
       -0.029683597 0.12617911 -0.055591006 0.025192406
0003f0 a6 69 7e bd ef 7d 19 bd 01 e1 63 bd bb db 3c 3e
       -0.062112473 -0.037473615 -0.055634502 0.18443196

blocks.1.attn.q_FacTs.weight f4 [8, 8]
000000 a8 68 80 3e 81 f5 08 3e b5 17 9a 3e f1 44 74 3e
       0.25079846 0.13374902 0.30096212 0.23854424
000010 22 a2 1e be c3 08 d3 bd 17 5a 2e be c7 ca 3e be
       -0.15491536 -0.103044055 -0.17026554 -0.18632041
000020 61 95 8a 3e ef 9f aa 3e f6 ed a3 3e 0b b0 6b 3c
       0.27067092 0.33325145 0.32017487 0.014385234
000030 5c 08 37 be c8 e1 dd 3d fd fa 75 3e 23 b7 3a be
       -0.17874283 0.1083408 0.24021526 -0.18233924
000040 8f 8f 99 be 4f 13 4f be be a3 81 be 3d 77 33 be
       -0.2999234 -0.2022221 -0.25320238 -0.17525955
000050 3c 8a 8c 3e ec f0 7e bb 0e 49 4b bd 3d 11 7e be
       0.27449214 -0.0038900925 -0.049630217 -0.24811263
000060 d3 4a 29 3e 60 a6 12 bb fa 2f af 3e 42 e1 ae 3e
       0.1653245 -0.0022377 0.3421629 0.34156233
000070 4c 50 2f be 99 56 ba b9 d3 44 36 3e 99 35 23 be
       -0.17120475 -0.00035541205 0.17799692 -0.15938415
000080 fe e1 84 3e 95 8b 4d 3d bf 5a 8d be 3b ff b8 3c
       0.25953668 0.050181944 -0.27608296 0.02258264
000090 2e 7a b8 3e f1 27 14 be 41 25 8f 3d 8a f8 78 3e
       0.36030716 -0.14468361 0.069895275 0.2431356
0000a0 a1 7f 7c 3d d8 be 1a bd d0 64 a1 be 19 f7 ca 3d
       0.061645154 -0.03777966 -0.31522226 0.099104114
0000b0 ec 42 e1 3d f1 7d 91 be 8a 97 75 3e 39 f6 06 be
       0.109990925 -0.28416398 0.23983589 -0.13179864
0000c0 02 76 f9 bd 1d 8a 06 3d db 03 88 3e 85 2b bf 3e
       -0.12180711 0.03284656 0.2656544 0.3733789
0000d0 ff 7c b3 be db ff 76 bd a8 45 84 3d 58 40 bd 3e
       -0.35056302 -0.060302597 0.064585984 0.36963153
0000e0 33 c5 1e be 03 8d a0 be a0 a3 ca bd 47 cc 29 3e
       -0.15504913 -0.31357583 -0.0989449 0.16581832
0000f0 8b 5c 94 3e 01 03 d0 be bb 78 d2 3e 40 e4 81 3e
       0.28976855 -0.40627292 0.41107735 0.25369453

blocks.1.attn.k_FacTs.weight f4 [8, 8]
000000 a5 2b e1 3d 90 ab 3d 3b 36 2d 05 be a6 30 e3 bc
       0.10994653 0.002894137 -0.13005528 -0.027733158
000010 26 ee 4d 3e 55 82 bb be 82 64 08 3e 35 c3 5a 3d
       0.20110378 -0.36622873 0.1331959 0.05340882
000020 75 5f 84 bd ff 4c e7 3d 9b b6 94 bd d0 7d 2a 3e
       -0.064635195 0.11293983 -0.07261392 0.16649556
000030 69 a8 b6 3e a5 db 21 3e aa c7 84 bb a5 d8 c7 be
       0.35675362 0.15806444 -0.004052122 -0.39032474
000040 82 dc 81 3e eb 56 07 be aa 00 1b 3e 09 a1 1e be
       0.25363547 -0.1321675 0.15136972 -0.15491118
000050 59 e6 81 be a1 ac ab 3e b4 2b 95 bd a0 20 9d be
       -0.25371054 0.33530143 -0.07283726 -0.30688953
000060 b6 b0 96 bd 93 ac b5 3e 8d 37 e8 3e 33 ee 43 be
       -0.07357924 0.35483226 0.45354882 -0.19133835
000070 12 6a cc 3e 0a a5 3f be 52 24 a6 3d 33 e7 0e bd
       0.39924675 -0.18715301 0.08112396 -0.034888458
000080 be ea 91 bd 41 d6 10 3e 69 bb b2 be 1c f6 06 be
       -0.07124852 0.14144231 -0.34908608 -0.13179821
000090 c9 ce 7d be 99 40 c2 bd de 76 22 be ea f9 87 3e
       -0.24785914 -0.09484977 -0.15865657 0.26557857
0000a0 da 03 91 be e3 ca f6 bd 8d b1 b9 be 36 c7 33 39
       -0.2832325 -0.12050416 -0.36268273 0.00017144982
0000b0 2a c3 b4 3e 8b ca 10 3e 77 44 e6 bd ed b1 74 be
       0.35305148 0.14139764 -0.112435274 -0.23895998
0000c0 51 d9 9a 3e 81 23 47 3e 49 62 c4 be f2 bd a8 3e
       0.30243924 0.19447137 -0.38356236 0.32957417
0000d0 67 d7 90 be 78 97 8e 3e 65 40 11 3d 8b 4c a0 3e
       -0.2828934 0.27849936 0.035461802 0.31308398
0000e0 a1 9f 51 3e 67 dc 83 be 28 e7 d1 bb 4c 7c f6 be
       0.2047105 -0.2575409 -0.00640573 -0.48141706
0000f0 31 dc 6f 3e 66 8f f8 bc 0d b9 19 3d 5b 76 33 be
       0.2342384 -0.030341815 0.037529994 -0.17525618

blocks.1.attn.v_FacTs.weight f4 [8, 8]
000000 2a 45 3d 3d 22 e7 88 3d c3 e8 27 3e 02 58 55 be
       0.046208538 0.0668471 0.16397385 -0.20834354
000010 90 ac d3 3e af a3 9b 3e d5 fe 88 bd b9 94 7e 3d
       0.41342592 0.30398318 -0.0668923 0.06215355
000020 c8 20 dd be 2c cb ee bd 79 44 7d 3d 61 3d dc bb
       -0.43189073 -0.11659846 0.06183288 -0.006721184
000030 0d 15 d7 bc fa 56 e6 3e bd dc 58 be 9e fe 14 bd
       -0.026255155 0.44988233 -0.21177955 -0.036375634
000040 5a ea 03 be 85 ff 70 3e 36 b8 aa 3e da 22 24 be
       -0.12882367 0.23534973 0.33343667 -0.1602892
000050 b1 4a 89 be 26 08 c0 3e 70 ac 48 3e 23 37 c6 3d
       -0.26814798 0.37506217 0.1959703 0.09678485
000060 d6 bb a8 3d 7a c6 03 bd ba 70 9c 3d e3 55 53 3e
       0.08238952 -0.032171704 0.076386884 0.20638232
000070 95 00 4d 3e 14 9b 91 be d2 ef a6 be b4 3a da 3c
       0.20019753 -0.28438628 -0.32604843 0.02663932
000080 a8 eb 57 bc 36 04 0a be 5f ee fe 3d 8f a0 cd be
       -0.013178743 -0.13478169 0.124478094 -0.4016156
000090 09 cf a2 be e4 fd 8e 3e 31 eb 8c bd 2b a0 c0 bc
       -0.3179858 0.27928078 -0.06880797 -0.023513874
0000a0 0c 7f 9e bc 6e c4 c2 3e b9 4e 55 3e 4b c9 34 3e
       -0.01934769 0.3804049 0.20830812 0.17654912
0000b0 dc d9 af 3e 26 30 ad be 2e b3 a0 3e 8e c6 13 be
       0.343459 -0.33825797 0.31386703 -0.14431211
0000c0 e1 1a c0 bd 8f cd c2 be 5e 8a 8a bd b5 b7 b7 3e
       -0.09380127 -0.38047454 -0.06764673 0.35882345
0000d0 07 73 49 be ea dc 7e be 89 91 2a 3e 92 a9 ab 3e
       -0.19672786 -0.2488896 0.1665708 0.3352781
0000e0 4c 2b 81 3e 99 51 11 3d 54 89 1b 3d 8c 48 97 be
       0.25228345 0.03547821 0.037972763 -0.29547536
0000f0 a9 30 62 be ef 02 4b be 42 75 a3 3e d3 94 19 3e
       -0.22088875 -0.19825338 0.31925398 0.14998178

blocks.1.attn.proj_FacTs.weight f4 [8, 8]
000000 c6 af 1a be 71 90 5e 3e cf 47 9d be 7d e2 98 3e
       -0.15106115 0.21734788 -0.30718848 0.29860297
000010 5e d4 f1 be ee 1f ad be 15 3d 30 be fd e4 74 3e
       -0.47232336 -0.33813423 -0.17210801 0.23915477
000020 0d 63 73 3d 5d 99 98 3d 02 98 da bd 86 4c b6 3d
       0.059420634 0.07451127 -0.106735244 0.089013144
000030 c1 3b 8c be b8 76 90 3d 51 7c 0f 3e d7 1b 90 be
       -0.2738934 0.07053894 0.14012267 -0.2814624
000040 c7 a9 91 3e 01 cd 94 3e 6f 5f b8 be db 20 8e 3e
       0.28449842 0.29062656 -0.3601031 0.27759442
000050 73 22 5d be 96 58 4f be b7 0d 47 3e 7c 1b 19 be
       -0.21595173 -0.20248637 0.19438826 -0.1495189
000060 25 0e b2 bd ae 2a 66 bd 44 69 5d 3d 9a c2 9a 3d
       -0.08694104 -0.056193046 0.054055467 0.075566486
000070 13 97 c6 3e de 83 52 be 8e 00 c1 3e f2 ed d3 3c
       0.38787135 -0.20558116 0.37695736 0.025870297
000080 62 02 09 3e fe a6 96 3e 24 69 63 bc 35 5b 43 3c
       0.13379815 0.2942428 -0.013880048 0.011923601
000090 90 91 fb bd 49 8e 78 bd 65 fb 23 3e 41 02 13 be
       -0.12283623 -0.06068257 0.16013868 -0.14356329
0000a0 02 93 e9 bd 0f 8f d8 bd 63 c7 58 bd c7 e7 38 3e
       -0.11404993 -0.10574161 -0.052924525 0.18057166
0000b0 17 1f 9d bd 55 05 a9 3e d6 76 a0 3e 12 b3 31 3d
       -0.076719455 0.3301188 0.31340665 0.043383665
0000c0 f4 c7 43 be 7b e6 af be fd d8 d7 3c f6 44 ae bd
       -0.19119245 -0.3435553 0.026348585 -0.08509247
0000d0 5d 23 b0 bd 3e 14 7c bd fe 1e b7 3e bf 3b 93 3e
       -0.08600495 -0.061542742 0.35765833 0.2875652
0000e0 32 21 6c bd 61 8b 41 3e a8 a1 b2 bd 51 77 4b bd
       -0.057648845 0.18900825 -0.0872224 -0.049674336
0000f0 e9 67 b8 3e 7e c2 44 bd 74 6a db 3d ad ed bf be
       0.36016777 -0.048037045 0.10713664 -0.3748602

blocks.1.mlp.fc1_FacTs.weight f4 [32, 8]
000000 16 9b 91 be a2 43 25 3e 14 d9 2f be dd 35 37 bd
       -0.28438634 0.16139081 -0.17172652 -0.044729102
000010 3c 7c 3c 3e b0 6c a8 3e 41 da 3d 3e 00 3d 04 3e
       0.18406767 0.32895422 0.18540289 0.12913895
000020 57 e4 a0 bd 17 73 82 3e f3 56 04 3d 9d b7 96 bd
       -0.07856052 0.25478432 0.032309484 -0.0735924
000030 3b a7 c9 be 60 b8 ca bb e8 af 63 3e 68 82 98 bd
       -0.393854 -0.00618653 0.22235072 -0.07446748
000040 0f f6 98 be f6 aa 94 be 61 bb 52 3e 51 cd b9 3e
       -0.29875228 -0.29036683 0.20579292 0.36289456
000050 e3 4f 86 be d2 f2 28 3b 74 56 ad bd 7a ad 0e 3e
       -0.26232824 0.0025779498 -0.08463755 0.13933364
000060 e2 6d 7a be 51 9a f0 bd 4d 7f a0 bd 65 b0 42 be
       -0.2445598 -0.117481835 -0.07836781 -0.19012602
000070 de 2a 95 3e 52 14 d4 bd b2 22 9a bd ac 64 95 be
       0.29134268 -0.10355438 -0.07526149 -0.2917837
000080 ed 47 86 3e a9 9c 20 3e 24 1c 20 3e c8 d7 ad 3d
       0.2622675 0.15684761 0.15635735 0.08488423
000090 d0 6c e3 3d 65 0f 98 3d a5 74 76 be 01 23 8f 3e
       0.11104739 0.07424811 -0.24067934 0.27956393
0000a0 43 5a 92 3d 47 a3 c4 be ec 6e 03 3e ec e9 c3 bd
       0.07146122 -0.3840582 0.12835282 -0.095661014
0000b0 82 5f 91 3e 9c 86 9b 3e c2 fb bf 3e 5a f2 a3 3e
       0.2839318 0.30376136 0.37496763 0.32020837
0000c0 54 cf 7c 3e 0e bd 8d 3d 0b 6c 32 3b 5a 07 b9 bd
       0.24688464 0.06920825 0.0027225043 -0.09034605
0000d0 61 7a aa 3b a4 70 4d 3d 9b d0 2b 3e dc dd 65 bc
       0.005202577 0.05015625 0.16778795 -0.014029946
0000e0 78 38 83 3e 4c fd 00 3e 80 d6 3e 3e 02 35 40 be
       0.2562902 0.12596625 0.18636513 -0.18770221
0000f0 93 1a 5d 3e 92 c3 93 bd 66 3d da bd 0a f7 a0 3e
       0.21592169 -0.072150365 -0.10656242 0.31438476
000100 79 98 75 be 2b c9 14 be 0f e6 a2 3e f2 ff 5d 3d
       -0.23983945 -0.14529864 0.31816146 0.054199167
000110 05 e0 97 be 27 39 31 bd fa 97 be bc 84 9b 2d 3e
       -0.296631 -0.043267395 -0.023265827 0.16953856
000120 27 85 43 bd e4 6f 83 3e 2b 43 ab 3e ad 52 32 be
       -0.047734406 0.25671303 0.33449683 -0.17414351
000130 55 99 8a 3e d5 48 4a 3d 75 8d 0a 3e 51 14 69 3e
       0.27070108 0.049385864 0.13530524 0.22761656
000140 99 bc 78 be 54 34 5c 3e dd 90 99 be 85 a2 10 bd
       -0.24290694 0.21504337 -0.29993334 -0.03531124
000150 f1 93 35 bd 8f 7b b1 be f8 0c 4c 3e 0e f7 30 be
       -0.04433054 -0.3466458 0.19926822 -0.17281744
000160 ae d9 df 3d c7 15 29 be f3 7c e1 3b 11 35 c1 3c
       0.10930191 -0.16512214 0.00688135 0.023584874
000170 68 6d d6 bd 0f 2c b6 3e 7e 6c fe bd b8 91 e7 3d
       -0.10470086 0.3558049 -0.12423037 0.113070905
000180 e1 a8 43 3e c9 fd 58 be 32 5b 16 3e 5a f3 97 3e
       0.19107391 -0.21190561 0.14683226 0.2967785
000190 7a db 8d be aa 3d 6f be df d4 83 bd 5d 89 cc be
       -0.2770651 -0.23363367 -0.06437086 -0.3994855
0001a0 0f c5 17 be 93 3a 0a 3d 1d 25 ac 3e 91 88 92 be
       -0.14821266 0.033747267 0.33622065 -0.28619817
0001b0 83 69 50 be 6f e7 05 3e 95 9e 88 be 39 76 19 3e
       -0.2035275 0.13076566 -0.26683488 0.14986505
0001c0 0e 6e 68 3e 7c 7f 94 3d 19 d6 46 3e 28 53 d0 be
       0.22698233 0.07250878 0.1941761 -0.40688443
0001d0 71 11 83 be 67 9f 00 3e e3 71 42 bd a2 eb bc 3e
       -0.25599244 0.12560807 -0.047471892 0.36898524
0001e0 78 16 8d be 32 4a 7f 3e ad cd a3 be 75 17 84 be
       -0.27556205 0.24930647 -0.31992856 -0.25799146
0001f0 4e 05 50 3e 57 5f fa bc da 77 8e 3e 04 28 9c 3e
       0.20314524 -0.03056304 0.27825814 0.3049928
000200 ad 4c 26 3d 91 22 02 3e d0 f5 68 3d 07 55 33 be
       0.040600467 0.12708499 0.05687505 -0.17512904
000210 e3 43 b2 3e 35 4f de 3c aa 6f 8d be 4e b4 15 3e
       0.34817418 0.027137378 -0.27624255 0.14619562
000220 19 53 d8 3d 05 e8 1b 3e 4f d8 ef bd fa 8c 5d be
       0.105627246 0.15225227 -0.117111795 -0.2163581
000230 a9 37 8d bd b5 41 1a bd dd eb 87 3e eb a4 6f 3c
       -0.06895382 -0.03766032 0.26547137 0.014626722
000240 f7 19 dd 3d 53 89 18 3e ba df cf bc 02 3f 90 3d
       0.10795968 0.14896135 -0.025375236 0.07043268
000250 7d 27 17 be 3c 33 92 be 45 79 85 be c7 48 20 be
       -0.14761157 -0.28554714 -0.26069084 -0.15652762
000260 54 18 27 3e 25 1a b1 3e 6d af 86 3e 8a 0f a7 3e
       0.16317874 0.3459026 0.26305714 0.32629043
000270 75 43 19 be 34 e9 05 be cd ac a6 be 58 bb c8 3c
       -0.14967139 -0.13077241 -0.32553712 0.024503395
000280 90 16 4e be 3f c9 47 be 17 8c 9a 3e a5 b1 82 3d
       -0.20125794 -0.19510363 0.30185005 0.06381539
000290 41 e3 fe bd 59 5d 66 3e 5d 3e 9d 3e 2e c2 8c 3d
       -0.12445689 0.22496547 0.30711642 0.06872974
0002a0 be e7 99 bc dc 56 84 3e 09 23 3b be ee a7 a8 bd
       -0.018787261 0.25847518 -0.18275084 -0.08235155
0002b0 49 f2 08 be e0 98 9b be 6b 23 11 3b f4 6d 98 3e
       -0.13373674 -0.30390072 0.0022146355 0.29771388
0002c0 64 a3 39 be 75 8f 90 be 41 35 c3 bd 45 63 7b 3d
       -0.18128735 -0.2823445 -0.09531642 0.061373968
0002d0 e2 a7 5b 3e bb 33 30 be 31 ef ae be bf b0 62 3e
       0.21450761 -0.17207234 -0.34166864 0.22137736
0002e0 18 aa 79 be 34 d6 b2 3e 1a 3e ba 3d a7 13 47 3e
       -0.24381292 0.3492905 0.09093876 0.1944109
0002f0 ea 7c 9d 3e c1 e9 8e 3e f5 90 8d be ba 84 04 3e
       0.30759364 0.27912715 -0.27649656 0.12941256
000300 6d d2 46 3e d4 02 10 be af f7 f8 3d 10 78 9f 3e
       0.19416209 -0.14063579 0.12156617 0.31146288
000310 a2 e0 3f be 15 e0 76 3e 7c 59 5d 3d 87 cc b5 be
       -0.18738034 0.24108918 0.054040417 -0.35507604
000320 ba 51 ac 3e 85 9a af 3e 5d 5b 5d 3e ca 8c 64 3e
       0.33656102 0.34297577 0.21616884 0.22319332
000330 0e 19 4c 3e c0 d5 e8 bd ff ef 1b be 63 4e 82 be
       0.19931433 -0.113688946 -0.1522827 -0.2545043
000340 c4 bf 0f 3e e9 23 93 be 7e 3a 32 3d 55 cc 56 3e
       0.14037997 -0.28738335 0.043512814 0.20976384
000350 c4 c9 7e be b4 16 f4 bd 99 71 86 bd fb 45 a5 3e
       -0.24881655 -0.11918393 -0.06564636 0.32279953
000360 63 d7 25 3e d7 cb b1 bd 7b b7 b8 bd 8f 6a 5c 3d
       0.16195445 -0.086814575 -0.09019371 0.05381256
000370 5f 26 21 3e f7 f1 0f be 19 15 d1 3e 1e db c5 3e
       0.15737294 -0.14057146 0.4083641 0.38643736
000380 eb f9 4e 3e a2 b6 8b 3d 52 0e 0a be da b8 4e be
       0.20212524 0.06821944 -0.13482025 -0.20187703
000390 28 02 73 be 6e 97 c3 3e 4f 1a 17 3e 6f ee 45 be
       -0.23731291 0.3820147 0.1475613 -0.19329236
0003a0 32 aa ba be 20 55 8f be b9 7d c3 be 87 51 cf bc
       -0.36457974 -0.27994633 -0.38181856 -0.02530743
0003b0 f8 94 54 bc c5 d2 82 3e fc 58 d5 bd ff a2 58 be
       -0.01297497 0.2555143 -0.10417363 -0.21155928
0003c0 8a ce 16 bd 0a 7f 19 3e 54 a9 c9 be e0 e8 a7 3e
       -0.036818065 0.14989868 -0.39387 0.32794857
0003d0 0c 6e 93 3e 35 42 49 3e 4a d5 df bd 7e 32 36 3e
       0.28794897 0.19654162 -0.109293535 0.17792699
0003e0 17 9f 51 be 66 e8 d2 bd 3e 8a a4 be 2a ef 86 3e
       -0.20470844 -0.10298233 -0.3213672 0.26354343
0003f0 43 f9 7c 3d 1a c0 04 be a2 59 84 bd ec 61 41 3e
       0.061761152 -0.12963906 -0.064624086 0.1888501

blocks.1.mlp.fc2_FacTs.weight f4 [8, 32]
000000 e7 31 53 bd 30 78 b7 3d 7e 8a 36 3d 4e 67 50 be
       -0.051561262 0.08958471 0.04456567 -0.20351908
000010 78 e7 d6 bb cd f7 42 be 37 c4 2a 3e f3 ce 31 3d
       -0.006558355 -0.19039841 0.16676413 0.043410253
000020 47 db 22 bd f5 71 41 be 9a d7 a6 3d 26 ca d4 3d
       -0.0397599 -0.18891127 0.081465915 0.10390119
000030 e7 63 99 bd 51 a5 36 3d b0 e2 55 3d 12 b4 1e 3e
       -0.07489758 0.04459125 0.05221814 0.15498379
000040 4e 98 a4 bd d5 ff 3a 3e ec b1 3a be bc 41 04 3e
       -0.08036862 0.18261655 -0.18231934 0.129157
000050 24 5c c9 3c c2 e4 13 3d c0 7d 78 3e ee cd 4d be
       0.024580069 0.036106832 0.2426672 -0.20098087
000060 1d 5a d2 3b 6c 41 72 ba f8 b2 70 3d 63 e0 36 bd
       0.0064194337 -0.0009241316 0.058764428 -0.044647586
000070 be 04 77 bd fa f1 cc 3d 89 9a fd bd 93 06 92 bd
       -0.060307257 0.10007091 -0.12382991 -0.0713016
000080 cf 30 9b bd fb 03 1a bd a2 9c c6 3d 8b 22 5f bc
       -0.07577669 -0.037601452 0.09697844 -0.0136190755
000090 d1 f7 08 bd 92 b0 01 bd b1 f4 b5 3d 26 7b 8f bd
       -0.03343946 -0.03166253 0.08884562 -0.070059106
0000a0 65 8c 20 bd ab 4b 02 be 0e 00 18 bd e6 81 28 3e
       -0.03919639 -0.12724178 -0.037109427 0.16455802
0000b0 3b e5 ec 3c 3b 76 b5 bc fc c7 11 be 17 64 56 be
       0.0289179 -0.022151103 -0.14236444 -0.20936619
0000c0 28 34 5a 3e dd 41 45 3c da cf 40 3d a4 8a d0 bd
       0.21308959 0.012039629 0.047073223 -0.101826936
0000d0 b3 21 c5 3d c0 58 a6 3c 70 fa ef bd d2 4c 28 bd
       0.09625568 0.020305991 -0.11717689 -0.041088887
0000e0 52 60 25 3e 1f 54 aa bd 6f 08 22 3b cc fa ef 3d
       0.16150025 -0.08316826 0.0024724265 0.117177576
0000f0 c0 57 fe 3b 0b e2 28 3e 5b f7 d4 3d 4d a4 a3 bd
       0.0077619255 0.16492479 0.10398742 -0.07990322
000100 dd f6 b0 bd fd e9 09 3e d3 1c ac bd 0e 19 2a bc
       -0.086408354 0.13468166 -0.08403935 -0.01038195
000110 3d 5f 6c 3d 85 9f c9 3d 83 93 f8 bd 9c c4 c7 3d
       0.057708014 0.09844879 -0.12137511 0.09754297
000120 f6 96 a3 3d bd 23 c9 bd ee 11 d2 3c 6b f2 66 be
       0.07987778 -0.0982127 0.025643315 -0.22553413
000130 d2 ae 43 bd d9 a6 85 3d 52 e9 17 3d 56 84 4a 3c
       -0.047774144 0.06525964 0.037087746 0.012360653
000140 73 66 6f 3e bd 46 4f 3e 21 74 d5 bc 43 64 2f 3e
       0.23378925 0.20241828 -0.026056351 0.1712809
000150 e1 1e 42 bd 32 95 01 bb 57 ad 35 3e 6c 69 2c be
       -0.04739273 -0.0019772765 0.17741905 -0.1683709
000160 f2 b7 23 bd dd 80 d6 3d 7d eb ce bd 64 d9 08 be
       -0.039970346 0.104737975 -0.101035096 -0.13364178
000170 82 ba 46 3e 8a 26 06 3d d7 fe e4 bb d6 da 37 3e
       0.19407085 0.032751597 -0.006988387 0.17954573
000180 f9 93 9e bd 5c 9e 54 be c8 a3 15 3d 90 a8 f7 3d
       -0.07743067 -0.20763534 0.036533147 0.120926976
000190 60 01 9a bd 3a 93 ee 3d 1e 14 6b 3e 06 01 12 be
       -0.075197935 0.11649175 0.22956893 -0.14258203
0001a0 37 e2 88 bd 10 cb 53 bc 7b c9 e8 bd 56 2d 3a 3d
       -0.06683772 -0.012926832 -0.11366554 0.045453392
0001b0 77 f6 21 3e 89 d8 0f 3e 1a ef 0b 3e 6f 4c a7 3d
       0.15816675 0.14047445 0.13665429 0.081688754
0001c0 a2 b4 f2 bd fe 39 2c be da 99 1c be 9c c5 2a 3d
       -0.11850859 -0.16818997 -0.15293065 0.04169236
0001d0 6a 53 44 bc 1a 4b 58 bc 07 ed db 3d 95 38 13 3e
       -0.011982778 -0.013201499 0.10738569 0.14377053
0001e0 fd 1f 88 3c ac f1 52 be 3e 45 93 3d 59 65 f6 3d
       0.016616816 -0.20600003 0.07190941 0.12031049
0001f0 75 90 cc 39 03 a0 f5 3d cf 8f 16 be 8d 16 86 3c
       0.0003901754 0.119934104 -0.14703296 0.016368175
000200 7f 94 1e be c2 c1 d7 3d d7 74 c9 3d 37 87 1c 3e
       -0.15486334 0.10535003 0.098367386 0.15285955
000210 3b 1a 2e be a3 4e 16 bd c7 2c df 3d fe 79 67 3d
       -0.17002194 -0.036696088 0.108972125 0.056512825
000220 3f f2 03 3e 8d 76 83 bd 21 9b 90 3c 0f 44 0a ba
       0.12885378 -0.06419096 0.017652096 -0.0005274424
000230 9a 93 b9 3d d1 2b 58 3c 2f 3a a0 3d 6e e5 ed 3b
       0.09061356 0.01319404 0.07823598 0.007260016
000240 2a b4 18 bd 92 3a e2 bd 58 df 22 3d 0e 19 62 3d
       -0.037281193 -0.11046328 0.03976378 0.055199675
000250 75 86 0a be 77 4a 13 be 3b f5 ca bd 2d c7 2a be
       -0.13527854 -0.14383875 -0.09910055 -0.16677542
000260 9a ff 54 be a7 d1 f6 bc ab d1 11 bd ea 23 27 bd
       -0.2080063 -0.030129267 -0.035600346 -0.040805735
000270 10 c3 06 3e 4c 81 9b bd 81 ad 86 3d 49 d5 08 3e
       0.13160348 -0.07593021 0.06576062 0.13362612
000280 85 1d 2a be d5 6e 59 be 66 65 c4 bd 3a b0 f6 3d
       -0.16612823 -0.21233685 -0.09589653 0.12045331
000290 b6 15 d5 3d a0 1b 22 3e 70 89 b8 3d 9d e0 3e 3d
       0.10404532 0.1583085 0.09010589 0.046600927
0002a0 ab ec 82 bd f0 0a c3 bd ea e8 2c be 65 01 41 bc
       -0.06392797 -0.095235705 -0.16885725 -0.011780118
0002b0 bc 6b b3 3d 0f 0e d9 bd 25 ab 04 be 4b 9c 12 be
       0.08760783 -0.105983846 -0.12955911 -0.14317434
0002c0 af 55 a5 bd b1 41 9b bd a0 f0 9c 3d 63 1f 5f bc
       -0.080729835 -0.07580889 0.07663083 -0.013618323
0002d0 51 c7 14 bd 87 d9 63 be cf c6 c3 3d 37 e1 ca bd
       -0.036322895 -0.22250949 0.09559404 -0.099062376
0002e0 a0 9b a3 3b fc 38 b2 bd b3 8d 46 bd 91 e8 23 3e
       0.004992917 -0.08702275 -0.04847498 0.16006686
0002f0 79 4f e0 bd 01 cf 39 3e f8 ce f2 3c e2 d6 fa bc
       -0.10952658 0.18145372 0.029639706 -0.030620042
000300 f4 1e 1a 3e bc 5a 8b 3d d0 2b e0 3d 6e 3c 95 bc
       0.1505087 0.068044156 0.109458566 -0.018217292
000310 b5 83 b2 3d d9 cc 9b be 04 7e 42 3e 91 24 26 3e
       0.087165274 -0.30429724 0.18993384 0.16224886
000320 e0 81 c8 bd 2a 5f 4b 3e eb 09 fb bb f8 35 e4 3d
       -0.09790397 0.19860521 -0.0076610944 0.11143106
000330 66 c8 bd 3c 14 cf 8d 3d 22 4f 4e be 84 d8 55 bd
       0.023166846 0.06924263 -0.20147374 -0.05220844
000340 45 b4 7f bd 0e df bc bd d0 8f 53 be 90 da 85 bd
       -0.062427778 -0.09222232 -0.20660329 -0.06535828
000350 7f ac 17 be b7 c9 30 bd 73 e3 e2 bd 6e 5f 06 3e
       -0.14811896 -0.04316112 -0.11078539 0.13122341
000360 fb 78 a2 bc 33 ec 27 3e 80 5c 7e bd 1a ac c6 bd
       -0.019833079 0.16398697 -0.062099934 -0.097007945
000370 34 20 73 be 8b 7c 9b bd 9f fd a6 bd ec a8 36 be
       -0.23742753 -0.07592114 -0.08153843 -0.17837876
000380 1e 03 fb bd 10 7f a5 bd 43 fd f4 3d b0 6f b8 bd
       -0.12256454 -0.08080876 0.11962368 -0.09005678
000390 dc 58 0f be a0 c0 1f be 0b c0 7e 3e 68 82 4c bd
       -0.13998741 -0.15600824 0.24877946 -0.049929053
0003a0 c1 d6 2a 3e b7 36 16 3e b7 b8 27 3d f6 21 24 3e
       0.16683485 0.1466931 0.040947642 0.1602858
0003b0 75 d0 8f bc 55 e3 cc 3d 00 18 94 bc a5 21 df 3d
       -0.017555455 0.10004298 -0.01807785 0.10895089
0003c0 e9 bd 06 3e 8a 35 20 bd 5a 7f 2a bd 08 4a 0b 3e
       0.13158382 -0.03911356 -0.04162536 0.1360246
0003d0 10 32 62 bc 9a f5 95 3d 85 39 1c be fa e4 25 3e
       -0.013805881 0.073222354 -0.15256317 0.16200629
0003e0 bc ec 3a be c6 2f f1 3d e0 d0 82 3e a4 f7 cb 3c
       -0.1825437 0.1177669 0.25549984 0.024898358
0003f0 f7 5d 18 be 68 02 61 bc 33 5a 99 bb ef d1 d7 3c
       -0.14879595 -0.013733484 -0.004679942 0.026345221

blocks.2.attn.q_FacTs.weight f4 [8, 8]
000000 c3 d8 ef 3c ce bc bc bd 0d f6 97 3e bf 37 84 be
       0.029278165 -0.09215699 0.2967991 -0.2582378
000010 32 f7 8f 3e d6 02 8a be 35 a5 22 be 63 90 0f bd
       0.28118283 -0.2695529 -0.15883334 -0.035049807
000020 65 f4 5b 3e 69 63 e3 3e 84 1d cb 3e b5 c8 23 3e
       0.21479948 0.4441178 0.39670956 0.15994532
000030 3c 8e c6 3d b5 47 96 3e a9 84 b2 be ae ce 08 3d
       0.09695098 0.29351583 -0.34866837 0.03340023
000040 e1 a9 e6 3d c8 e5 84 3e e7 34 81 3e 3c ff cc be
       0.112628706 0.2595656 0.25235674 -0.40038478
000050 22 05 14 3c 96 60 44 3e 6c 9f 32 be 26 00 ae bd
       0.009034427 0.1917747 -0.17443627 -0.08496122
000060 e5 a3 ef bd 4b 70 e2 3e 53 e6 33 3e c6 f0 bf be
       -0.11701182 0.44226298 0.1756833 -0.37488383
000070 75 38 ae bd 40 bd 82 3e 44 5e ab be 91 4d 7f 3e
       -0.08506862 0.2553501 -0.33470356 0.24931933
000080 d5 a8 c3 3e 8b dc 94 be 32 69 83 be 16 46 95 be
       0.38214746 -0.2907451 -0.25666195 -0.29155034
000090 73 8f af be 2a 43 b9 3e fa 08 1f be 59 cd 5e bb
       -0.3428913 0.36184055 -0.15530768 -0.0033996908
0000a0 25 db ca bd 21 e9 4c be 55 7c 3d 3e 87 4b 41 be
       -0.0990508 -0.20010807 0.1850446 -0.18876468
0000b0 c3 9b 86 3e 6a 8d 8f be 6c e2 a3 3b cc e1 82 3e
       0.26290712 -0.28037578 0.005001357 0.25562894
0000c0 fa 12 8e bd ea ca 86 be 68 02 27 be 77 16 da bd
       -0.06937213 -0.26326686 -0.16309512 -0.10648816
0000d0 61 5c 27 3e 56 c4 87 3e 4d 0a c6 bd 8d 6f a9 3d
       0.16343834 0.2651698 -0.096699335 0.0827323
0000e0 30 11 c5 bd 44 9c 1d 3e b7 e1 12 be c4 23 29 3e
       -0.09622419 0.15391642 -0.14343916 0.1651755
0000f0 f0 08 b8 be 81 e2 30 3e 4b 92 97 bd 2d b2 88 3e
       -0.3594432 0.17273904 -0.0740095 0.26698437

blocks.2.attn.k_FacTs.weight f4 [8, 8]
000000 6a ee 35 bd 24 21 68 be 7c 31 d9 bd a9 c3 08 be
       -0.044416822 -0.22668892 -0.106051415 -0.13355888
000010 e3 90 5c be ce 39 c3 3a 0f ca e0 bd 61 1c 99 3e
       -0.21539645 0.0014894546 -0.109760396 0.29904464
000020 6e 12 22 3e 5c fd b0 3e b5 6d 34 be 05 15 0b be
       0.15827343 0.34568298 -0.17619975 -0.13582237
000030 78 3c 22 3e 23 12 a5 3e 31 43 11 3e 7c 57 16 be
       0.1584338 0.322404 0.14185788 -0.1468181
000040 30 db c7 3e 50 82 7d 3e 22 7d d9 ba 56 b3 ad 3e
       0.39034414 0.24756742 -0.0016593079 0.33925885
000050 d8 b8 4b 3d 1c 36 92 be 43 3f e5 bc 31 91 5c 3e
       0.049736828 -0.28556907 -0.027984267 0.21539761
000060 99 d7 c8 bd 15 37 99 be 80 ff ba 3e 43 38 be bc
       -0.09806747 -0.29924837 0.36523056 -0.023220187
000070 3c 2a 95 be 13 c9 80 be 5f 4d bc be 53 cd 24 3e
       -0.29133785 -0.25153407 -0.3677778 0.1609395
000080 1b 26 20 be 5e 31 0e be a5 14 ea bc 9b 02 b4 3e
       -0.15639536 -0.1388602 -0.028574297 0.35158238
000090 b1 42 33 3e 1e 09 58 be 4a 87 93 3d a6 6c 9d 3d
       0.1750591 -0.21097228 0.07203539 0.07686739
0000a0 c9 8e 7f be fd 47 32 bd 2f 99 8c 3e e4 b9 05 be
       -0.24956812 -0.043525685 0.2746062 -0.13059193
0000b0 bb f6 8c be 5e de 99 3d f2 4d 91 be 09 9f 9f 3e
       -0.2753199 0.07513116 -0.2837978 0.31176022
0000c0 97 7c b9 3e 30 76 4a be 7b c2 db 3d 88 33 d7 bc
       0.36227867 -0.19771647 0.107304536 -0.02626969
0000d0 08 3f 61 bc 03 97 35 3e 50 0f 11 3e 2e cb 8f 3e
       -0.013747938 0.17733388 0.14165998 0.280847
0000e0 b4 d2 80 3d 83 3c e3 3d 69 8e bb 3e 66 00 58 bd
       0.062901884 0.11095526 0.36632088 -0.052734755
0000f0 43 90 7c 3e 09 68 24 be ad 6b ff 3d 51 0c 9b be
       0.24664406 -0.16055311 0.124717094 -0.30282834

blocks.2.attn.v_FacTs.weight f4 [8, 8]
000000 f8 e4 5f 3e 1b be 43 3d e2 43 9a bd d3 bd 8b 3e
       0.21864688 0.04778872 -0.07532479 0.27293262
000010 23 26 3f bd 4e a4 c0 3e 5e d9 38 be 83 34 ae 3e
       -0.04666723 0.37625355 -0.18051669 0.34024438
000020 d6 d5 57 be 0c 65 5d 3c 86 f7 6a bb 27 dd 86 3e
       -0.21077666 0.013512861 -0.0035853102 0.263406
000030 31 23 64 3e cc 7a 9f 3d 6a 7a b0 3d c0 b9 70 b9
       0.2227905 0.077870935 0.08617099 -0.00022957381
000040 a1 94 c4 3e 52 a9 f2 bd 78 cc 9f be 02 ab a6 3e
       0.38394645 -0.118487015 -0.31210685 0.32552344
000050 bc 64 99 be 80 83 f7 3d b9 7f 44 bd d0 26 a6 bd
       -0.29959667 0.120856285 -0.04797337 -0.08112872
000060 8c 49 aa be a9 57 79 bd af 1e b0 be 1b 54 b4 be
       -0.33259237 -0.060874615 -0.3439841 -0.35220417
000070 1b fb 90 3e 4f 7f 56 be 6f c5 bd 3d 6a ef 96 be
       0.28316578 -0.20947002 0.09266173 -0.29479533
000080 75 c0 88 be 55 e4 01 be 64 70 a6 be 6f 02 31 be
       -0.26709333 -0.12684758 -0.32507622 -0.17286085
000090 3e 0c f6 bd f2 8e f8 bd c7 58 97 be b1 48 97 be
       -0.12014054 -0.1213664 -0.2955992 -0.29547647
0000a0 3c 8e 91 be 19 d2 e3 3d eb f9 60 3e b6 b9 c6 bd
       -0.2842883 0.11124057 0.21970336 -0.0970339
0000b0 8b 64 07 3e a2 93 ba 3e c5 61 a7 bc 40 f0 85 be
       0.13221948 0.3644076 -0.020432362 -0.2615986
0000c0 04 24 84 3e c2 97 01 3b c2 a8 9a 3e aa 85 9a be
       0.25808728 0.0019774293 0.30206877 -0.30180103
0000d0 12 79 c0 be 48 27 8a be e6 7c 99 be 66 66 9b 3e
       -0.3759237 -0.26983094 -0.29978102 0.3035156
0000e0 7f 74 0b 3e 2a 4b 70 3e 59 8f 45 be 21 36 05 be
       0.13618658 0.23466173 -0.19292964 -0.1300893
0000f0 08 15 ff 3c b8 4b 33 bd cd a7 81 3e aa 51 02 3d
       0.031137958 -0.043773383 0.25323334 0.031816162

blocks.2.attn.proj_FacTs.weight f4 [8, 8]
000000 6e 1b 65 be 79 17 a7 3d 43 88 f1 bd 31 e0 50 be
       -0.22373745 0.08158774 -0.11793568 -0.20398022
000010 38 2f 84 be e5 7f 66 3e 89 eb d6 3e 5f 10 ec 3d
       -0.25817275 0.22509725 0.41976574 0.1152656
000020 44 7d 15 3e cd 0f dd 3c 09 f4 03 be 14 2d d7 bd
       0.14598566 0.026985073 -0.12886061 -0.10506645
000030 0d 9c 84 3e e0 ce 87 be 42 8f 23 be bb 30 2a be
       0.25900307 -0.2652502 -0.15972617 -0.16620152
000040 4e 88 9f bb d2 cc ce 3e f0 2d 27 be bb 4f fd 3d
       -0.0048685437 0.4039064 -0.16326118 0.12368723
000050 8f b2 8c 3e af fc e3 3d c1 e4 88 be cc 55 e6 bd
       0.2747998 0.1113218 -0.26737025 -0.11246833
000060 4d f3 95 3d 2f 15 3a bc b3 50 ce be b9 60 a0 be
       0.073217966 -0.01135759 -0.40295944 -0.31323794
000070 48 70 31 be 8d f6 9e be 49 ab c7 3e 98 f1 2c 3e
       -0.17327988 -0.31047478 0.38997868 0.16889036
000080 6e f3 b4 3e 67 ab 8a bd 4b d8 81 3e b8 93 04 be
       0.35341972 -0.06770974 0.2536033 -0.12946975
000090 1b 0e b7 bd 17 f2 9b bd 45 93 a2 be 3f cb c4 3e
       -0.08938237 -0.07614534 -0.31752983 0.38436314
0000a0 1f 9e aa 3e c2 b0 68 bd c1 f2 00 be e8 00 ac be
       0.33323762 -0.056809194 -0.12592603 -0.3359444
0000b0 db d0 e3 3d d3 d3 55 be 25 53 a5 be 67 a5 53 be
       0.111238204 -0.20881586 -0.32289997 -0.20668565
0000c0 89 b3 1c 3e c4 43 81 bd 53 c5 17 bd f8 d9 50 bd
       0.15302862 -0.063117534 -0.037053417 -0.05098912
0000d0 50 93 7e be 64 dc a2 be aa f6 27 bd ab 76 5c 3e
       -0.24860883 -0.3180877 -0.04100672 0.21529643
0000e0 da ec 8d be 4a be 76 3d 82 f3 02 3e 62 09 32 bd
       -0.27719766 0.060240068 0.12788203 -0.04346598
0000f0 2f dd a0 be d4 8f 42 be aa 9b e4 be 47 d8 2b 3c
       -0.3141875 -0.19000179 -0.44650012 0.010488576
