Final Project/FacT-TK/caltech101_best.pt (torch, 661655 bytes, 6 tensors)

FacTp f4 [32, 144]
000000 bc ea a7 be 95 69 9d be a3 cb c0 bc 20 32 b6 bd
       -0.32796276 -0.30744615 -0.023534602 -0.08896279
000010 8e de f2 bd 90 6f 8a bd cb 2d 3d be 08 77 c7 bd
       -0.11858855 -0.0675956 -0.184745 -0.097395
000020 5e 48 cd 3d cd 94 29 bd c0 c3 15 bd 3a 83 2e bd
       0.100235686 -0.041401673 -0.036563635 -0.042605616
000030 0a f8 81 3d 39 25 3c be bb ba 3f be a0 0f 62 3e
       0.06346138 -0.18373574 -0.18723576 0.22076273
000040 3b 10 46 3e e6 91 e4 3d e0 43 43 be 42 6a 85 3c
       0.19342129 0.111606404 -0.19068861 0.01628602
000050 20 cf 2b be 93 ce 27 3d b9 3a 0f 3e 0e f6 84 bc
       -0.1677823 0.04096849 0.13987245 -0.01623061
000060 71 82 37 be 01 81 55 bd 00 8a 23 3e 42 ae ae 3d
       -0.17920853 -0.05212498 0.15970612 0.08529331
000070 9c ab 15 be c9 f2 47 3e 0b ab 4c 3d 42 93 92 bb
       -0.14616245 0.19526209 0.049967807 -0.004473121
000080 60 87 50 bc f0 5e 02 be d4 73 65 bd 72 a5 f4 bd
       -0.012727588 -0.12731528 -0.056018665 -0.11945619
000090 88 1e 56 bd 0f 54 2d 3d 26 be d5 3c ab 30 58 3d
       -0.05227521 0.042316493 0.026091646 0.05278079
0000a0 37 79 8a bd 29 d9 6d bc d5 a4 07 3e 37 4b d6 bd
       -0.06761401 -0.014517107 0.13246472 -0.10463565
0000b0 d8 c9 0d be f8 bd 9e 3d 89 7d bc bd a9 b6 37 be
       -0.13846529 0.077510774 -0.092036314 -0.17940773
0000c0 46 d7 f8 3b 6a 09 0d be c6 52 fc 3d 86 6c 01 bd
       0.007594022 -0.13773122 0.12320475 -0.031597637
0000d0 d0 71 31 bc 80 a7 d8 3c 05 a2 0a 3e b0 21 75 bd
       -0.010830358 0.026447058 0.13538368 -0.05984658
0000e0 69 af 22 3e 57 20 66 3c d8 77 c6 bc 96 4d 46 3e
       0.15887226 0.014045796 -0.024227068 0.19365534
0000f0 2c 8d a1 3d 75 e0 9f 3e 22 bd 23 be 90 90 8d 3e
       0.078882545 0.31225935 -0.15990117 0.27649355
000100 01 1a 35 3e 36 00 18 bd 4f 49 7d bd 9f ae 1a be
       0.17685701 -0.037109576 -0.06183749 -0.15105675
000110 c0 dd 93 bd f1 26 3f be 21 c3 dd bd fe 94 15 3d
       -0.0722003 -0.18667199 -0.108282335 0.036519043
000120 02 64 76 bd ae 20 0e be d6 29 bc 3c 66 73 c2 bc
       -0.06015397 -0.13879654 0.022969168 -0.023736667
000130 2a 9e 85 bd 70 26 f7 bd b3 55 dc 3c cc 70 36 be
       -0.06524308 -0.12067878 0.026896333 -0.17816466
000140 a5 4b 1c be 31 83 e5 3d ac 22 9d bd 46 91 17 3e
       -0.15263231 0.112066634 -0.07672629 0.14801511
000150 c9 f9 5b be 7e a1 01 3e d5 27 8d bc 11 cd 8a 3e
       -0.21482004 0.1265926 -0.017230907 0.27109578
000160 1c 29 26 3d a5 ca 1a 3e 26 0e ed 3d 90 d3 ce 3c
       0.04056655 0.15116365 0.11574964 0.025247365
000170 e7 7c d6 3d 33 a6 35 3e 77 41 0a 3e db 4a db bd
       0.10473042 0.17739181 0.13501535 -0.10707637
000180 99 3b 2b 3d 79 62 68 3e 89 17 d4 bd 7c 8e 14 3e
       0.041804884 0.22693814 -0.103560515 0.14507478
000190 f7 04 13 be 39 be 2b be 9d 8b 26 be cd 1f 3e bd
       -0.14357363 -0.16771783 -0.16264196 -0.046417046
0001a0 10 ce 01 3e 18 65 57 3e a4 80 7e 3d b1 cc 15 bd
       0.12676263 0.21034658 0.0621344 -0.036572162
0001b0 e1 8e 4e be f9 8b 14 3c 46 8c 14 be a4 3f 73 3d
       -0.20171691 0.009066575 -0.14506635 0.059386864
0001c0 7f 92 1c be 89 31 0d be ec fd eb bd 72 5a 08 3e
       -0.15290259 -0.13788427 -0.11523041 0.13315752
0001d0 e0 40 65 be af 09 5b bd 9e c6 12 3e a9 4b 4c be
       -0.22388029 -0.053476032 0.14333579 -0.19950737
0001e0 2f 25 21 3e 3a c3 71 3e aa cb f0 3d 02 9f 5b be
       0.1573684 0.2360963 0.11757596 -0.21447375
0001f0 93 df 1f be 80 6e 74 bd 18 41 17 3e 5f 25 8f bd
       -0.1561263 -0.059675694 0.14770925 -0.0698955
000200 1c 1b b2 3d e8 23 a0 3e f7 59 a4 be 7f a5 e1 bd
       0.08696577 0.31277394 -0.32099888 -0.11017894
000210 a1 4e c7 bd b8 f1 22 3e 12 b9 ac bd 73 cd 4b be
       -0.09731794 0.15912521 -0.08433737 -0.19902591
000220 d6 be 16 bd 46 be c8 3d 0b 47 36 3e 33 3a 5f 3d
       -0.03680309 0.09801917 0.17800538 0.054498862
000230 ea 0b a2 3d d5 00 58 be f4 76 86 3e b9 20 cd 3d
       0.07912429 -0.21094067 0.2626263 0.10016007
000240 c3 60 fe 3d c4 6a c6 3c 62 21 26 be 8e d1 ac bd
       0.124207996 0.024220832 -0.16223672 -0.08438407
000250 c3 7b 2c bd a3 49 a5 bc 19 6d f4 bd 55 9f c4 3d
       -0.042110216 -0.020176714 -0.11934871 0.09600703
000260 64 87 97 bb ae 1a 3b be 6c fc e0 bd f1 ec 4d be
       -0.004624294 -0.18271896 -0.10985646 -0.20109917
000270 03 16 61 bc df f3 7b be 72 bc e2 bd 05 bc 1c 3e
       -0.013738158 -0.24604748 -0.11071099 0.15306099
000280 1d 5e f3 bd f5 0c e9 bd f7 df 65 3c 27 46 d6 bd
       -0.11883185 -0.113794245 0.014030448 -0.10462599
000290 7c 8f 16 bb 08 ca 05 be 3b 14 18 be 5a 86 b7 bd
       -0.0022973707 -0.1306535 -0.14851467 -0.089611724
0002a0 a8 3a 42 3d 41 36 77 bc 27 b6 d5 3d 9a e8 ec bd
       0.04741922 -0.015088619 0.104351334 -0.11567803
0002b0 77 ee bd bd f5 e1 a6 bd 5b 18 2d be ba 8c e0 bd
       -0.09273999 -0.08148567 -0.16903822 -0.109643415
0002c0 f2 20 fa 3d c2 fd fd 3d 5e 26 1e be b6 3a ca 3d
       0.12213315 0.12401916 -0.15444323 0.098744795
0002d0 c1 01 8e 3d c0 fa 84 3c 1b 83 57 3c 13 7a 24 be
       0.06933928 0.016232848 0.013153817 -0.16062193
0002e0 8d 29 a5 3d 22 9a 28 bd 42 b6 05 3e 53 3e ed 3c
       0.08064566 -0.041162618 0.13057807 0.028960383
0002f0 c8 8a 0b be 94 97 c5 bb 86 ff 51 3e fc b3 50 3d
       -0.1362716 -0.0060300324 0.2050763 0.050952896
000300 28 68 54 3e 32 2a 0f 3c 14 18 3d 3e 46 63 ea bd
       0.20742857 0.0087380875 0.18466216 -0.11444716
000310 96 29 b8 3d 6f 03 bc bb d7 38 d8 bb ee 08 f8 3d
       0.08992307 -0.005737714 -0.0065985727 0.12111078
000320 e7 0f 4f 3e d5 1c 04 be 77 e9 1c bd bd 0b 14 be
       0.2022091 -0.12901624 -0.038308587 -0.14457603
000330 72 48 26 be 90 2c ed bd df af 55 3e d8 78 57 3d
       -0.16238573 -0.11580765 0.20867871 0.05260548
000340 9b 7a 44 be 67 d2 db 3d af 0e 8e 3d c7 1f 0b bd
       -0.19187395 0.107334904 0.069363944 -0.033965852
000350 6e 99 8b 3e fc 0c 71 3c ea 72 a3 3d d8 62 2f 3e
       0.27265495 0.014712568 0.079809025 0.1712755
000360 00 8b ce 3d 6f 5b 67 3d bc ef c1 3d ed e1 92 bc
       0.10085106 0.056483682 0.09469554 -0.017929995
000370 c7 87 bc bd 4b be 09 3e d0 67 a7 bc 8a 2e c6 3d
       -0.09205585 0.13451497 -0.020435244 0.09676845
000380 0b 3f 5c be 09 5c 07 be 71 7a b0 3b d5 23 22 3d
       -0.21508424 -0.13218702 0.00538569 0.039584953
000390 a2 e7 c6 bc b9 ae 25 3d 8d bd bb 3d 42 df 45 be
       -0.024280373 0.04044983 0.09167013 -0.19323447
0003a0 74 3e 60 bd 07 d3 31 bd 9d 5f 5b be 15 c9 04 be
       -0.05474706 -0.043414142 -0.21423192 -0.12967332
0003b0 1b d3 94 be 22 c3 64 3e d8 eb 19 bd 2f 3a 0e 3e
       -0.2906731 0.22340062 -0.037578434 0.13889383
0003c0 df 6d 25 be 52 7b 79 be 93 a3 1a be bb b4 48 3d
       -0.16155194 -0.24363449 -0.15101461 0.049000483
0003d0 ed 4c 19 3c 6d d1 8c 3e a6 67 f2 bd ca 02 48 3e
       0.009356719 0.2750353 -0.118361756 0.19532314
0003e0 42 6a 93 be fa 2e e6 bd d5 d0 28 be 24 95 82 be
       -0.28792006 -0.11239429 -0.16485913 -0.2550441
0003f0 9e d7 0b be 08 81 8a 3b 45 1d db bd 9f a1 a2 3e
       -0.1365647 0.0042268075 -0.10698942 0.31763932

FacTc f4 [32, 32, 32]
000000 06 f6 9f bc ab 7c c0 3d 37 3c 64 bc ab a6 ad bd
       -0.019526493 0.093987785 -0.013930372 -0.08479055
000010 d4 f3 75 bd 21 4d de 3c 0a c1 98 bc c1 a6 9f ba
       -0.060046986 0.027136387 -0.018646736 -0.0012180434
000020 71 52 a9 bc 42 9c 80 3c ec 54 13 bc 9a 1c 5d bc
       -0.020669194 0.01569951 -0.008992415 -0.013495589
000030 d2 cd 95 39 cc b2 88 3d 76 fb 07 bc b0 74 9a bc
       0.00028572843 0.06674728 -0.008299699 -0.018854469
000040 c7 59 e0 3c 48 0f 63 38 66 10 64 bd aa f4 b7 3d
       0.02738656 5.413525e-05 -0.0556797 0.08982213
000050 91 94 0d bc 0c 82 52 bc c5 8f 6d 3d e7 6c 65 3d
       -0.008641378 -0.012848388 0.057998437 0.05601206
000060 2b b7 fd 3b f9 63 6c bd 5f eb 8d 3d b1 73 16 3e
       0.0077427826 -0.05771253 0.06929659 0.1469257
000070 19 72 6a 3c e4 83 84 3d f7 3c 97 bc 0d fd 26 3d
       0.01430943 0.06470469 -0.018461687 0.04076867
000080 3c 7d 08 3e 34 72 55 bd 3e 1a 7d bd 40 29 d2 bd
       0.13329023 -0.052110866 -0.061792605 -0.10261774
000090 0f 51 1d 3d d6 23 a2 bd bb 64 92 bd 59 17 af 3d
       0.03840738 -0.079169914 -0.07148119 0.08549375
0000a0 51 6e aa 3d ed 59 49 bd 18 86 5b bd 51 e2 6c bc
       0.083218224 -0.049158026 -0.05359468 -0.014458255
0000b0 c0 e2 1e 3c b8 d6 00 bd 3f 51 0a bc b4 3f 03 3d
       0.009697616 -0.03145477 -0.008442222 0.032043174
0000c0 61 b4 9b bd 99 be 2e 3d 3f 6a 40 3b af e6 98 bd
       -0.07602764 0.042662237 0.0029360203 -0.074658744
0000d0 5c de 31 bd df 4c 6a bd 41 3a 2f ba f3 a9 86 3c
       -0.04342495 -0.057202216 -0.0006684401 0.01643846
0000e0 82 89 69 bd f7 bc 59 bc 9f d9 dd 3c c8 be a7 3d
       -0.057015903 -0.013289682 0.027081309 0.081906855
0000f0 84 b9 6a bd 45 71 00 bd a6 fa 38 bd 1b 5b 29 3d
       -0.057305828 -0.031358022 -0.045160912 0.04134665
000100 b1 fb f1 3c 6d c4 9e bd ab e7 16 bd 1d b7 d5 bd
       0.029538961 -0.07752309 -0.03684203 -0.10435317
000110 ae cc 7f bd 44 16 c9 3c 9e 73 ae bb 13 a9 0e bd
       -0.062451057 0.02454675 -0.0053238412 -0.03482921
000120 87 d2 3b 3d e6 6a 71 3c 61 2d 51 3d 90 06 17 bd
       0.04585507 0.014734959 0.051068667 -0.036871493
000130 9f 2f 74 3b b0 24 cc 3c a5 2f e9 3b 4f e7 1f bd
       0.003725983 0.024919838 0.0071162754 -0.039038952
000140 7b df 5d 3b d1 d3 be 3c fb 1a dc b8 47 a9 83 3c
       0.0033855129 0.023294361 -0.00010495443 0.016071929
000150 65 98 d8 bd ca 22 0b 3d 2b 3c a6 bc 7a cd 0e bd
       -0.10575942 0.033968724 -0.020292362 -0.034863926
000160 5d e0 77 bd 4a e3 74 bc 5f 62 0f 3d 22 d0 a1 bd
       -0.060516704 -0.014946768 0.035005923 -0.07901026
000170 cd 4e c5 b9 a2 ae f0 39 9e 98 5d 3d 86 30 34 bd
       -0.0003763348 0.0004590648 0.054100625 -0.043991588
000180 b3 1b 49 bc cf 62 7c bc e7 8f 12 3d fb f3 1d 3e
       -0.01227467 -0.015404417 0.035781767 0.15425102
000190 51 2b 44 bd 4a de 25 bc fa 9f d9 3d aa c0 3c 3d
       -0.047892872 -0.010123799 0.10626216 0.046082176
0001a0 a2 ea 60 3c 90 5c b0 bd 3b c6 c7 bb 49 d3 84 3d
       0.013727816 -0.08611405 -0.006096629 0.06485612
0001b0 c9 1d 63 3d 02 5e 85 3d 40 87 7d 3c c5 12 47 3c
       0.055448327 0.06512071 0.015474141 0.012150471
0001c0 b9 55 cf 3c 37 f3 d6 bc c8 8c 0f 3d 04 b9 95 bd
       0.02530943 -0.02623902 0.03504637 -0.073106796
0001d0 64 ea 6b bd 5e 7f b6 bc 31 40 07 3c ea 6c 81 bd
       -0.05759658 -0.02227753 0.0082550505 -0.06319602
0001e0 7a 44 6b 3c e0 e1 34 3d 21 28 3c bc a9 f6 9d 3d
       0.014359588 0.044160724 -0.011484177 0.07713062
0001f0 c2 d4 ce 3c 54 0a 5a bc 4b bb 8a 3d df ce 2a 3d
       0.025247935 -0.0133081265 0.067740045 0.041701194
000200 16 6a 1b 3d 6a 87 28 bc 3d 15 f2 3c af 22 6b 3c
       0.03794297 -0.0102861915 0.029551143 0.014351531
000210 3c 09 e4 bd 90 8f bc bd 82 60 14 3d ca a1 1d 3b
       -0.11134574 -0.0920707 0.03622485 0.0024052733
000220 3d 90 31 bd 70 97 6b bd 52 e5 a0 bd 7c 52 be bc
       -0.043350447 -0.05751747 -0.078562394 -0.023232691
000230 37 ab 4f 3d 65 82 78 3b f4 04 0c 3d 46 a7 02 3d
       0.050700393 0.0037919518 0.03418441 0.031897806
000240 28 db c9 3d 8d 48 4a bc 44 e5 31 bc 71 fa 15 bc
       0.09856254 -0.012346399 -0.010857884 -0.009153948
000250 e7 56 ab bd d0 77 17 3c 30 63 f5 3c 34 68 d4 3b
       -0.08366185 0.009244874 0.029954523 0.0064821485
000260 07 d5 08 bd 42 2d 89 bc c6 f4 ae 3c e3 da ac bc
       -0.033406284 -0.016745213 0.021356951 -0.021100467
000270 25 38 1c bd 6b f5 0f 3d cd d7 a9 bb 65 fa f8 bb
       -0.03813948 0.03514616 -0.005183196 -0.0075982087
000280 f2 dd 89 3d 8c 1e 87 3c c9 67 85 bc 96 8a e0 3d
       0.06731786 0.016494058 -0.01628484 0.10963933
000290 68 26 c1 bc 72 9d 77 bd 5b 9d 9e 3d 0b 5e a2 b9
       -0.023577884 -0.060452886 0.07744857 -0.00030969115
0002a0 2d 62 e0 bd ff 1a 6f 3c 0c f5 c5 bd c9 5b fc bb
       -0.109562255 0.014593839 -0.096658796 -0.0077013713
0002b0 5c 07 b0 3d e1 07 3a 3d e8 54 c2 3c a1 4a d1 bd
       0.08595154 0.04541767 0.023722127 -0.102193125
0002c0 9b 82 93 bd 1e 3b 25 3d 4b 72 52 bd 35 24 d5 bc
       -0.072026454 0.04033958 -0.05137853 -0.026018241
0002d0 c3 42 f7 bd f7 2e 4d bd 00 c3 f9 3c cd ef 78 bc
       -0.12073281 -0.050093617 0.030488491 -0.015193892
0002e0 89 34 3c 3d 97 5d 11 bc 46 6c e6 bd 06 f5 ab 3c
       0.04594854 -0.008872411 -0.1125112 0.02099086
0002f0 40 33 40 bd 29 73 2c 3d e8 0f 82 bd 67 95 83 3c
       -0.046923876 0.042102013 -0.0635069 0.016062452
000300 8c e3 77 bd 11 37 c2 bc c9 43 83 3d a8 3a 8c 3d
       -0.06051974 -0.023707898 0.06409413 0.06847125
000310 f6 ab 5f 3d 00 d9 12 bd ff 6d 58 bd f3 b8 9b 3d
       0.054607354 -0.03585148 -0.052839275 0.07603636
000320 df 23 62 3c 7c b6 a6 bc 29 71 90 bc 0f 50 7b 3c
       0.013802498 -0.020350687 -0.017632084 0.015338912
000330 00 4e c9 3c d6 2a 66 bd 36 a1 65 3c d1 d4 b2 bb
       0.024573326 -0.056193195 0.014015486 -0.0054574986
000340 14 80 d6 bd 64 b0 1d bd 3b a3 aa bd a2 3c cd bd
       -0.10473648 -0.038498297 -0.08331915 -0.100213304
000350 cf 73 60 3d 84 4a c9 3b e6 62 3a bd 11 d4 b8 bc
       0.054797944 0.006142916 -0.045504473 -0.022562059
000360 72 2e e7 bc c0 90 71 bd 71 41 27 bc 55 a9 79 bd
       -0.028220389 -0.058975935 -0.010208474 -0.060952503
000370 4d db 9c 3d df 3d 8c 3b d7 88 81 bd d1 4d 97 3d
       0.07659016 0.0042798365 -0.06324928 0.07387889
000380 0b 98 8f bd 94 6f 08 ba b9 a0 8d bd cf 8b bb 3c
       -0.07011422 -0.0005204615 -0.06915421 0.022893814
000390 24 90 38 3d 9f 7c 1d bc d0 a0 9e 3d 2f 8d 07 bd
       0.04505934 -0.0096122315 0.07745516 -0.033093628
0003a0 fc ba fa bc 9a 87 eb bd 47 3d b8 bd 10 95 74 3d
       -0.03060674 -0.11500473 -0.08996063 0.05971247
0003b0 72 15 c6 bb 5e 2d 9c bd e7 8c 7b 3c d3 ad 97 bc
       -0.006045037 -0.076258406 0.015353418 -0.018515503
0003c0 81 8d e8 ba a3 dd b7 bd cc 4b 83 3d 96 0f 08 bc
       -0.0017742367 -0.08977821 0.064109415 -0.008304497
0003d0 1d 30 77 3d a9 1f bd bd a6 f2 0c be e7 13 ce bd
       0.06034862 -0.09234554 -0.13764438 -0.1006239
0003e0 a5 98 82 3d 92 07 bd bc 71 32 4c 3d 05 57 b6 3b
       0.06376771 -0.023074899 0.049852792 0.0055645728
0003f0 a1 46 57 bc fa 63 c8 ba 83 a2 be bb 21 b6 1c 3c
       -0.013139398 -0.0015288584 -0.0058177128 0.009564907

head.weight f4 [102, 768]
000000 25 c0 26 bd 1c 10 4c bd e4 e6 8b bd c3 3c 84 bc
       -0.040710587 -0.04982005 -0.06831148 -0.016142255
000010 ed 08 6a bd 61 14 35 bb 29 58 32 bd 9b d7 ad 3d
       -0.05713742 -0.0027630555 -0.043541107 0.08488389
000020 61 e8 36 bd a8 c2 29 3d 57 c1 be bd eb f7 2c b9
       -0.044655208 0.041445404 -0.093142204 -0.00016495555
000030 f5 94 2e 3d a0 d7 e5 bd 3b f6 72 3d d6 87 86 bd
       0.042622525 -0.11222768 0.059316855 -0.065688774
000040 7b c8 c4 bc 35 c3 24 3d 1e 0d ed 3c c0 a9 a2 3d
       -0.024021378 0.040225226 0.028936919 0.079425335
000050 d3 48 15 3d e9 b4 ad bd 22 0e b4 b8 cb c1 05 bd
       0.036446404 -0.084817715 -8.585701e-05 -0.03265552
000060 e9 08 d7 bc eb 37 89 bd 5a 3e 7d 3d 8e c1 72 3d
       -0.026249366 -0.06700119 0.06182704 0.05926662
000070 61 36 6d bd 24 ce 68 bd b9 4b 63 3c b6 88 a1 39
       -0.057913188 -0.056837216 0.013873034 0.0003081017
000080 3c f1 a5 bb 86 dd fe 3d 26 e4 cc 3d 2c 03 6a bd
       -0.005064158 0.12444596 0.10004453 -0.05713193
000090 50 4f 97 3d c6 58 a7 3d 0d d9 b4 bd a0 75 80 3c
       0.073881745 0.08171229 -0.08830462 0.015681088
0000a0 36 b7 bd bd a6 d9 f2 3c f0 e8 cf bd 35 2d 9e bd
       -0.0926346 0.029644798 -0.10151851 -0.07723466
0000b0 be 23 a7 bd 1d e3 0a bc c3 1b 29 3c ab b9 ee bc
       -0.08161114 -0.008477 0.01032156 -0.029141268
0000c0 61 2f 17 bd 93 d8 45 bc 89 47 36 bc bf cf 7c bd
       -0.03691042 -0.012075561 -0.011125454 -0.06172156
0000d0 de 02 c1 3d 47 46 e4 bc bb 09 d6 bd a8 21 01 3e
       0.09424375 -0.027865542 -0.10451075 0.12610495
0000e0 92 19 9b bd 47 14 08 3d 2b b5 17 3b bd b6 99 3d
       -0.075732365 0.033222463 0.0023148756 0.07505558
0000f0 f3 ae 21 bd 05 2b ef bd 4b 3f 71 bd da 74 94 bd
       -0.039473485 -0.11678127 -0.05889825 -0.0724885
000100 0a 07 8f 3d 23 44 01 be 8e fc 0f 3d 22 09 f0 3d
       0.069837645 -0.12623648 0.035152964 0.11720492
000110 a7 86 96 3d 7f aa c2 3d 41 6f 38 3c 14 28 0f be
       0.07349902 0.09505176 0.011256994 -0.13980132
000120 53 73 2b 3d f6 c7 f3 bb 75 97 c6 bd 45 c3 21 3d
       0.04185803 -0.0074396087 -0.09696857 0.039492864
000130 5f b4 df bd 8c 3c 11 bd 29 4a 85 bd 6a 28 11 bd
       -0.10923075 -0.035458133 -0.065082856 -0.035438932
000140 c4 dd a1 bd 30 82 be 3b ed 7d c3 bb 07 63 24 3d
       -0.079036266 0.0058138594 -0.0059659393 0.040133502
000150 b6 b4 da 3c e2 73 98 3c f6 59 92 3c c0 9c a6 3d
       0.026697498 0.018609945 0.017865162 0.081353664
000160 ce 7a 3f 3d e6 d5 c5 bc 4d 86 26 bc 3a 88 1b 3c
       0.046747975 -0.024149846 -0.010163856 0.009492928
000170 66 ae d6 bd 93 65 5e 3d ef cd dc 3c 0b 3b e3 3d
       -0.104824826 0.054296087 0.026953666 0.11095246
000180 86 d1 fb 3d 20 24 4e 3d e5 13 75 bd 47 22 75 bd
       0.12295823 0.05032742 -0.059833426 -0.059847143
000190 7f c3 e4 bd 5c 0e 22 bd b7 14 91 bd 54 b0 17 bd
       -0.111701004 -0.039564475 -0.07084029 -0.037033394
0001a0 d4 59 ca 3d 20 54 bb bd 34 fc d1 bd 56 50 72 3d
       0.098804146 -0.09146905 -0.10253182 0.059158646
0001b0 18 e2 9f bd ea 6d 92 3d 00 19 81 3d 8e 56 5d 3d
       -0.07806796 0.07149871 0.063035965 0.054037623
0001c0 27 95 28 3d 13 fc ef 3d 26 22 07 3e b6 12 e1 3d
       0.041157868 0.11718001 0.1319662 0.10989897
0001d0 8f b0 9a 3c 7c df be 3d a2 0f d2 3c cf 41 21 3b
       0.018883018 0.0931997 0.02564222 0.0024605875
0001e0 b2 2c 1e bd 5b 5e 8a 3d c7 f6 bf bc 4c 95 58 3d
       -0.038616844 0.06756278 -0.023433102 0.052876756
0001f0 99 58 5b 3d fa 5c e0 bd bd 08 4c 3d 3e 0a 00 3e
       0.05355129 -0.10955234 0.04981302 0.12503907
000200 3a 32 29 3d 2a 9b d3 bd c2 69 67 3d 7f 1b 02 3e
       0.041307665 -0.103323296 0.056497343 0.12705801
000210 98 98 e0 bd 00 f3 5a 39 24 67 8d 3d 91 e3 cb 3d
       -0.10966605 0.00020880625 0.06904438 0.09955514
000220 f4 21 8e 3d eb 93 bf 3d b3 f8 9f 3b 45 83 3b 3d
       0.0694007 0.09354385 0.004881942 0.045779485
000230 32 8f ba bd 53 7e 2f bd ae 2f f2 3b 93 30 07 be
       -0.091093436 -0.04284508 0.007390938 -0.13202123
000240 33 97 77 3d 24 d7 50 bc 9e 29 82 3c 04 8a ce 3d
       0.06044693 -0.012746606 0.015888985 0.10084918
000250 ef 6d 48 bd bd ae 71 bd ec 68 9b bd b3 51 a8 3d
       -0.048932966 -0.059004534 -0.07588372 0.08218708
000260 c4 df 0e bc 86 7c aa bc ed d4 7b bd cf 7d 18 3c
       -0.008720342 -0.02081133 -0.06148236 0.009307339
000270 82 99 32 bd 62 b2 57 3d 95 86 10 3c 99 8a de bc
       -0.043603428 0.052660353 0.008821149 -0.027165698
000280 0c 22 ec 3c 7c 74 ab bc ce e7 73 bd 1f 8e 04 bd
       0.028824829 -0.020929568 -0.059547238 -0.0323621
000290 09 fa b2 3c c2 98 ab b9 9a 67 0d be 4b 2a df 3d
       0.021847742 -0.00032729475 -0.13809052 0.108967386
0002a0 69 33 de 3c 9f 6f 69 3d 4f c3 e0 bb 2d da f4 bd
       0.027124124 0.056991216 -0.00685922 -0.11955676
0002b0 8e 5f 28 bc eb 6f d2 3b 8b ae 7f 3d bc 3a 8d 3d
       -0.010276688 0.006422033 0.062422317 0.06895968
0002c0 d9 d9 94 bd 57 b7 6c 3c 58 b3 40 3c 71 12 a3 3d
       -0.07268114 0.0144480085 0.011761509 0.07962502
0002d0 d1 2c 0a bd 09 1b a5 3d da 22 aa 3d 6a 3f 67 bd
       -0.033734147 0.08061797 0.08307429 -0.05645696
0002e0 e4 57 96 3d 4d 6c b0 3d 7a 25 03 3e 5b 95 2b bc
       0.073409826 0.08614407 0.12807265 -0.010472621
0002f0 47 45 b1 bd c3 0b bb bd ef b4 0a 3e 10 2a ae 3d
       -0.08655792 -0.09133103 0.13545583 0.085041165
000300 eb 4d 7b 3d ad b6 4a bd dd 15 6a 3d 55 98 ea 3d
       0.061353605 -0.04949062 0.057149757 0.11454836
000310 cd c0 a8 bd 12 95 62 3d 94 de 08 3c 83 54 aa bc
       -0.08239899 0.055317946 0.008353848 -0.020792251
000320 7a df 82 bc 69 f8 e3 bd d7 b4 84 3d e4 73 3f 3c
       -0.015975703 -0.11131365 0.06479805 0.011685345
000330 16 2a cf 3d eb d2 d7 3d 22 26 03 bd 38 33 8a 3c
       0.10115449 0.10538276 -0.03201879 0.016870126
000340 04 0e 57 bc fc 3a 82 bd 7e 16 1b 3c b1 20 9b bd
       -0.0131259 -0.063589066 0.009465812 -0.07574595
000350 5e e1 ec 3d 58 00 b2 3d 20 ae fd bc 19 01 7f bd
       0.11566423 0.08691472 -0.030966818 -0.062256906
000360 c1 c2 4c bd 82 5c bf bd 96 8a fd b9 7b fb 60 3d
       -0.04999042 -0.09343816 -0.00048359175 0.05492733
000370 dc 1d af 3d 0d 21 9e 3d 34 df 99 3d 9e 97 81 3d
       0.08550617 0.07721148 0.07513276 0.06327747
000380 5d 4e 9f bd 9f e0 dc bd 6f 8d 64 bd 27 83 b7 3d
       -0.077786185 -0.107850306 -0.055798944 0.08960562
000390 95 21 af 3d 2b 9b b5 bd a0 9c b0 3d 07 df 26 bd
       0.08551327 -0.088674866 0.08623624 -0.04074004
0003a0 79 9c 62 3d 40 bb 3a 3d 24 6c 9c bd 1b 80 84 bc
       0.055325005 0.04558873 -0.07637814 -0.016174367
0003b0 25 2b 57 bd 2d 07 59 bd cf cf f5 bd e4 6b 39 bc
       -0.05253138 -0.05298536 -0.12002527 -0.011317227
0003c0 54 bb 06 be fa c1 2a bc e1 e2 95 3c 57 0b eb ba
       -0.13157398 -0.010422224 0.01829666 -0.0017932457
0003d0 59 67 a8 bc 18 fe 0e 3d 6d 06 2a 3d 26 cf 29 bd
       -0.020557093 0.03491029 0.041510034 -0.041457318
0003e0 31 25 fd bc 0c 2b 6b bd 83 f9 52 bd 02 53 d6 3d
       -0.030901523 -0.0574141 -0.051507484 0.10465051
0003f0 63 7e ec 3c 3e 28 a4 bd 45 07 5c bd 4a 8b a2 bc
       0.02886886 -0.08015488 -0.05371787 -0.019841809

head.bias f4 [102]
000000 8d 28 7f 3c 58 aa 20 bd a4 50 52 bc 91 d3 0f 3c
       0.015573633 -0.039224952 -0.012836609 0.008778469
000010 e0 d2 af 3d 95 17 a8 3b 28 26 ff 3c 6e 5d d3 3c
       0.08585143 0.0051297643 0.031146124 0.025801387
000020 ff c5 14 3d 7e 6e 2b 3c 51 01 2b bc 86 99 54 bb
       0.036321636 0.010463355 -0.010437326 -0.003244014
000030 11 d4 de 3c ac e7 2c 3d 81 d2 44 bd fe ca 01 3c
       0.02720073 0.042213127 -0.048052315 0.007921932
000040 c4 c4 43 bd 83 27 88 3a ad 59 24 bc de 71 20 3d
       -0.047795072 0.0010387752 -0.010031146 0.039171092
000050 07 e5 da 3c 61 a8 c2 3a 42 e5 2f 3c e2 5b cc 3c
       0.026720537 0.0014851206 0.010735812 0.024946157
000060 44 6a c9 bc 29 fd 98 3c 94 18 04 bd ef 25 e0 3c
       -0.024586804 0.018675404 -0.032250002 0.027361838
000070 0c b7 99 3b a2 85 53 3c 78 d6 2a 3c 87 92 83 bb
       0.0046910103 0.0129102785 0.01042711 -0.00401527
000080 6e 1d fd ba 11 c5 8b 3c 35 9a 7c bc 2e 4d 81 bc
       -0.0019311139 0.017061742 -0.015417625 -0.015783872
000090 e6 e9 d1 3c 8e 21 c9 3c 15 fe fb ba 8e ff a1 bc
       0.025624227 0.024552133 -0.0019225503 -0.019775178
0000a0 fb b3 7f bb 94 1c 4a bd 68 2f 16 bc d8 7f 82 3b
       -0.0039017189 -0.04934366 -0.009166576 0.0039825253
0000b0 84 7c 21 bb ec d0 fb bc 58 71 1e bd e4 2e a1 bb
       -0.0024640867 -0.03073927 -0.03868231 -0.00491892
0000c0 ed 76 34 3b 2c 9f d1 3c 28 c6 e8 bc e1 78 8a bc
       0.0027536706 0.025588594 -0.0284148 -0.016903343
0000d0 0b 46 26 bd 8b f5 fc bc 5b 63 be bc 86 0e 30 bc
       -0.040594142 -0.030878803 -0.023240736 -0.01074565
0000e0 2c 69 be bc 9a 6a 70 3b 4b 32 83 3c d5 20 72 3c
       -0.02324351 0.0036684633 0.016015192 0.014778336
0000f0 62 71 10 bb 68 70 0a 3c 5e 1c aa bc 9a 6e 0b bb
       -0.0022040238 0.008449651 -0.02076548 -0.002127564
000100 73 df 60 3c 43 78 97 3c a7 a0 2b bd 9a 8e 9f b9
       0.013725149 0.018489962 -0.041901257 -0.0003043309
000110 49 76 4b 3d 10 62 51 bc 97 1e 88 bc 38 aa 88 3c
       0.049673352 -0.012779728 -0.016616149 0.01668273
000120 85 11 0b 3c 7a e2 6c 3a e0 f3 45 3b 36 d7 8b bb
       0.008488064 0.0009036433 0.0030205175 -0.0042675985
000130 9e 2b 12 3c df 3c a2 bc 83 0e 69 bc 7b 62 5f bc
       0.008921532 -0.019804416 -0.014224651 -0.013634319
000140 88 b9 24 bc 25 67 47 bc 93 db 0e bd 13 e4 15 3d
       -0.010054 -0.012170588 -0.03487737 0.03659446
000150 2e 12 97 bc d0 7e 43 bc 26 ea 8d 3c 42 d8 a4 bc
       -0.018441286 -0.01193209 0.017323565 -0.020122651
000160 ad 23 e6 3c 09 d0 f2 3b c2 e5 43 3c 34 4b b4 bc
       0.028093183 0.0074100536 0.011956634 -0.022008516
000170 d7 1c bd bc 22 d0 71 bc fb c7 ee bc 0c ec 11 bc
       -0.023085041 -0.014759095 -0.029148092 -0.008906376
000180 64 1d fc bb 87 a8 b1 bc 00 fc 0a bc 5a 1f 74 3c
       -0.0076939333 -0.021686805 -0.008482933 0.014900053
000190 8d dc f3 3c 4d 76 85 3c
       0.029768253 0.016291762

FacTu.weight f4 [32, 768]
000000 08 d3 74 bd b6 2a 91 bd 02 de ba 3d 84 37 db 3c
       -0.059771568 -0.070882246 0.09124376 0.02675987
000010 e4 6b 16 bd 5b 13 3a 3d 3c a1 7c 3d 1b 8a f6 3c
       -0.036723986 0.045428615 0.061677203 0.03009515
000020 0e 1b 3c 3d 1c 67 8e bd 56 db f4 3c 44 e4 51 bc
       0.04592424 -0.0695326 0.029889744 -0.01281077
000030 d5 96 2e 3d 79 84 3c 3d 75 b5 bc bd 50 a7 cf 3c
       0.042624313 0.046024773 -0.09214298 0.025348336
000040 72 60 03 bd 18 e8 76 3c b4 f4 36 bd f8 88 82 bd
       -0.0320744 0.015069984 -0.04466696 -0.06373781
000050 a8 6c 61 3d a6 9b 4f bd 37 11 0d 3d a4 f9 08 3d
       0.055035263 -0.050685547 0.034440245 0.0334412
000060 9d f8 83 3c e5 53 29 bd 67 8e a0 bb e0 9f 24 bc
       0.016109759 -0.041339774 -0.004899788 -0.010047883
000070 90 75 24 3d bb 75 77 3d 66 f0 55 3d 4f dc e7 bc
       0.04015118 0.06041501 0.052231215 -0.028303294
000080 24 ed 85 3c 46 c3 9f 3c 8c a1 c1 bb 05 f1 0b bd
       0.016348429 0.019502293 -0.0059091505 -0.0341654
000090 06 bf 55 3c 96 23 cb 3d e0 f5 94 3d 25 7d 32 bd
       0.013046032 0.09918897 0.072734594 -0.04357638
0000a0 65 6c 21 3d d0 c1 07 3d 8b 48 a4 3b 5f 31 97 3d
       0.039410014 0.03314382 0.0050135306 0.07382464
0000b0 30 3f 32 3d b1 e6 64 bd a9 36 43 bd ee 4f 15 3e
       0.04351729 -0.055884067 -0.04765955 0.14581272
0000c0 fc bf 89 3d d4 0a 94 bc 23 e4 ca bc 96 89 ce ba
       0.06726071 -0.01807157 -0.024766987 -0.0015757557
0000d0 68 54 8f bd c6 09 80 3d eb 9c ad bb 8e 43 f4 bc
       -0.06998521 0.06251864 -0.005298247 -0.029817369
0000e0 a5 99 7a bd 09 e7 d0 bd 5d f4 e3 3b a0 83 b0 bd
       -0.061181683 -0.102003165 0.0069566206 -0.086188555
0000f0 bb 31 8c bd 8a 85 2f bc ae 57 36 3d bf e7 6f 3d
       -0.06845423 -0.010712991 0.04451721 0.05857062
000100 ec 04 19 bc 70 4b a0 3d 6e f7 9b 3d ab 31 1f bd
       -0.009339552 0.078268886 0.07615553 -0.038865726
000110 b1 9f df bd 3f 11 0c 3c f0 dd 83 3d 60 d0 8d bd
       -0.109191306 0.008549034 0.064388156 -0.0692451
000120 04 1c ae bd 64 70 06 3d f4 26 ab 3c 85 1c d7 bc
       -0.08501437 0.032822028 0.020892598 -0.026258716
000130 42 fe 94 3d 07 07 39 3d 88 a2 31 3c 2c 2e be 3c
       0.07275058 0.045172717 0.010841973 0.023215376
000140 9b 27 24 3d 1c 73 5d 3c ac bf 8b 3d 0a 86 99 3d
       0.040076833 0.013516214 0.06823668 0.07496269
000150 96 c9 34 3c 5f cb d3 bd 01 91 76 3d 70 58 65 bd
       0.01103439 -0.10341524 0.06019688 -0.055992544
000160 76 1b 36 3c 4d d7 df 3b 19 a8 94 bd 86 c8 45 bd
       0.011114946 0.006831086 -0.072586246 -0.048286937
000170 d1 4a b9 bd 5f b0 1e 3d 20 10 2d 3c 96 30 45 bd
       -0.09047473 0.03874242 0.0105629265 -0.04814204
000180 85 c8 d4 bb 67 f5 b4 3d 31 5b ad 3c c8 30 0e 3d
       -0.0064936304 0.08835869 0.021161648 0.03471449
000190 85 e0 3a 3d 68 fe c2 3c c6 81 a1 bd e3 08 50 bd
       0.045624275 0.023802951 -0.078860804 -0.050789725
0001a0 cc 3c 88 bc 38 6c d9 bc 95 18 66 bc 1f 0d 5b 3d
       -0.016630553 -0.02654086 -0.014043947 0.05347931
0001b0 8f 86 29 3d 42 a9 b4 3d fc 21 e9 3c ef 18 9e 3c
       0.04138809 0.08821346 0.028458588 0.019298999
0001c0 8a c7 37 3d 2b 46 4d bc 09 14 86 3c 89 78 ed bc
       0.04486803 -0.012528936 0.016366975 -0.02898814
0001d0 f2 09 02 bd ce 50 90 3d 28 fa 39 3c f8 5e 93 bb
       -0.031747766 0.07046662 0.011351146 -0.004497405
0001e0 10 66 0e 3d 48 d1 ef 3d b6 40 b1 bb d7 e5 10 bd
       0.034765303 0.11709839 -0.0054093255 -0.035375442
0001f0 d9 be b0 bb 05 3e ff bc 8f a3 7b 3c 63 44 9d 3c
       -0.0053938446 -0.031157503 0.01535882 0.019197648
000200 e5 d5 48 bd df d0 3a ba be fa 61 3c da ae 2d bd
       -0.04903211 -0.0007126461 0.013792692 -0.04240308
000210 a9 ac 2c 3d 37 45 b6 3c 3f b9 91 bc 46 dc bf bc
       0.04215685 0.022249801 -0.017788528 -0.023420464
000220 e8 fa 0b bb 27 1c 44 3d 1e b5 7e bd 16 31 84 bd
       -0.0021359269 0.04787841 -0.062184446 -0.06454675
000230 91 41 74 3c 5b d0 cf bc 25 33 8f bd 17 ce 86 3d
       0.01490821 -0.025367906 -0.06992177 0.06582277
000240 65 ac cb bd 42 fd 3d 3d da 5b f0 bd 24 c3 87 bc
       -0.09944991 0.046384104 -0.11736269 -0.016572542
000250 0a b7 98 3c 6e e2 53 bd 95 cc db 3d 61 d9 12 bd
       0.018641967 -0.051729612 0.1073238 -0.03585184
000260 34 a3 f5 bc c9 2b 85 3d 44 13 02 bc bd 9b 16 bd
       -0.029985048 0.06502492 -0.007939164 -0.036769617
000270 05 70 5c 3d 5e 33 7e bc 50 8c c2 3c 3a fe e3 3c
       0.053817768 -0.015515177 0.023748547 0.027831186
000280 30 51 7a 3d 69 f7 b9 3b 14 f8 fb 3c 4a 71 4b bd
       0.061112583 0.0056752455 0.030757941 -0.049668588
000290 aa 26 3e 3d 05 4d 72 bd e4 5c 76 bb a7 32 41 3d
       0.04642359 -0.059155483 -0.0037591988 0.047167446
0002a0 63 9f 87 3c c3 58 4f bb 86 4b ec 3b 9c 72 4e 3c
       0.016555494 -0.00316386 0.0072111515 0.012600567
0002b0 0c ef 7c bd 0c b6 4f bc ff c5 b4 3d 52 6d 32 bb
       -0.06175141 -0.012677681 0.08826827 -0.0027225805
0002c0 9f 3e 37 bc e9 1b 1b bd 49 5e 86 bb 5e b5 8b bc
       -0.011184364 -0.037868414 -0.004100595 -0.017054256
0002d0 51 a8 8d bb 43 31 32 3d 9d 1d 59 3c a9 80 dd bc
       -0.0043230434 0.04350401 0.013251689 -0.027038889
0002e0 07 ad d8 bd 54 0e eb 3a 92 30 14 be 06 55 e1 3d
       -0.10579877 0.0017933347 -0.14471653 0.11002545
0002f0 88 c2 43 bd d0 1e fb 3c 1e 63 9d bc 1f ff 43 3b
       -0.04779294 0.030654341 -0.019212302 0.0029906703
000300 fc ad 26 3d 94 a2 75 3d 54 0e df 3b 21 48 19 3d
       0.04069327 0.0599695 0.006807128 0.037422303
000310 83 7c 81 bd 3c 03 7b bd 3c 93 b1 3c e9 3e a8 3d
       -0.06322577 -0.06128238 0.021676652 0.08215124
000320 a2 ed eb bc e7 02 ea bc e6 a5 71 3d fe e2 9a 3c
       -0.028799836 -0.028565837 0.058996104 0.018907066
000330 47 b4 f8 bd 00 02 a3 bd 62 21 3e 3d e8 bd 84 bc
       -0.1214376 -0.07959366 0.046418555 -0.016203836
000340 9d 03 11 3d b1 e1 77 bd 02 7b 07 bd f8 b8 53 3d
       0.035403837 -0.06051797 -0.033076294 0.05169007
000350 59 c5 77 bd b3 ff 65 3d 4f 2d a3 bc a4 5d 04 bd
       -0.06049094 0.056152057 -0.019919066 -0.032315865
000360 32 ae 2a 3c 19 e8 31 bd d4 d3 cb bc f1 9c ad bd
       0.010417508 -0.043434236 -0.024881281 -0.084772
000370 51 13 60 3d d2 d6 2a bd 44 aa c9 3c 11 3a 62 3d
       0.05470592 -0.041708775 0.024617322 0.055231158
000380 4a 58 60 bd b5 0f fa ba 5a 2f 2b bd e9 8a ff bc
       -0.0547717 -0.0019078167 -0.041793205 -0.031194167
000390 6f 74 3f 3c e1 1e 08 3e 42 97 53 bd 02 f1 7b bc
       0.011685475 0.1329303 -0.051657923 -0.015377285
0003a0 e8 12 d3 3c 09 49 91 bd dc 29 27 3d 10 b1 99 3d
       0.025765851 -0.070940085 0.040811405 0.07504475
0003b0 83 1f 38 3c 5b 4f c6 bc db 16 ea bc 0a d3 36 ba
       0.011237982 -0.024207762 -0.028575351 -0.00069741963
0003c0 fb 52 3d 3d cb 9d 00 bd 0a 9b 87 3d b5 5e 0a bc
       0.046221714 -0.031400483 0.06621368 -0.0084454315
0003d0 99 53 00 3c bf d8 95 bb 7f fd 87 3d b6 94 02 bc
       0.007832431 -0.0045729573 0.066401474 -0.007970026
0003e0 44 e7 0d bd a3 19 86 3d 65 96 30 bd 17 40 2a 3d
       -0.03464438 0.065478586 -0.043112177 0.041565027
0003f0 19 63 80 3d d2 33 fe bc db c2 8f bd a4 b9 ae 3c
       0.062689014 -0.03103057 -0.070195876 0.021328755

FacTv.weight f4 [768, 32]
000000 3a 58 4d 3b 59 52 64 3c 77 63 1b bb 25 46 2c 3d
       0.0031333105 0.013935649 -0.0023710409 0.042059083
000010 f9 dc 64 3a 80 2e d5 bb 3f d2 fe 3b d1 8b c4 bc
       0.0008730437 -0.0065057874 0.007776528 -0.02399245
000020 9c 80 0d bd c3 e0 d9 bc 85 2a e1 3c f7 4f 08 bd
       -0.03454648 -0.026596433 0.027486095 -0.033279385
000030 cd 74 d1 bb aa 3c c4 3c 79 5d de 3b 99 92 c2 3b
       -0.0063920976 0.023954708 0.006786045 0.005937886
000040 25 dd 9d 3c 31 bf 54 3d ee f3 13 3d f3 af 97 bb
       0.019270489 0.051940147 0.0361213 -0.004629129
000050 c4 49 5d 3c fa 1a 24 3d bb df 7e bc 66 d0 08 bc
       0.013506357 0.04006479 -0.015556271 -0.008350467
000060 18 fa f9 bc 08 76 0b bd 30 9d 0f bd 12 d5 ec 3c
       -0.030514762 -0.03404811 -0.035062015 0.028910194
000070 f0 ee bd 3b de ae c0 3c 5e 15 87 3b ac 52 f4 3b
       0.005796306 0.023520883 0.00412242 0.0074561443
000080 0e b8 ab 3c 27 54 89 3c be d6 90 bd 99 16 1a bc
       0.020961788 0.01676376 -0.07072209 -0.009404802
000090 d4 9a 8c bc 02 de 0d bd 6c b4 17 bd b5 c1 98 bc
       -0.017163672 -0.03463555 -0.037037298 -0.018647054
0000a0 91 64 89 bc 8b 7f 96 3d 74 71 ac bb 49 cc 47 bd
       -0.016771587 0.07348546 -0.005262548 -0.048778806
0000b0 6f 0e c4 bb c5 04 3b 3d ff ed 0d bc bf d9 15 3c
       -0.005983166 0.045658845 -0.0086627 0.009146153
0000c0 2f 61 c2 3b 01 96 60 bc 7c f0 46 bc 76 15 8c 3c
       0.0059319953 -0.013707639 -0.012142297 0.017100077
0000d0 4d 0a ca 3c f3 2f 9b 3c d1 8b ca 39 0c 36 b3 bc
       0.024663115 0.018943762 0.00038632614 -0.021876357
0000e0 e5 e2 b2 3c 0f 81 bf 3c b9 b7 00 3d 6d 24 b7 bc
       0.021836707 0.02337697 0.03142521 -0.022356236
0000f0 1f b8 cd 3c 9a 60 9c 3c 7f 76 b9 3c 09 f6 4e 3c
       0.02511221 0.019089032 0.022639511 0.012631902
000100 05 50 7e bc 5f 8a e0 bc 68 6b 88 3b 8f 60 b5 bb
       -0.015522008 -0.02740973 0.0041631944 -0.0055351923
000110 f0 12 db bb 96 9a e7 bc 7f 5e 8c bc bf b2 2e 3c
       -0.006685607 -0.028271955 -0.017134903 0.010662734
000120 ab a1 19 bd 43 31 e9 bc af f5 0b 3d cc a0 98 bb
       -0.037507694 -0.028465873 0.03416985 -0.0046578404
000130 f3 3d d2 ba 21 64 42 bc 77 e2 10 3c 71 60 ac ba
       -0.0016040191 -0.011864693 0.008843056 -0.00131513
000140 0d 6d cd 3c aa 32 55 3c fc 3d 8b bc db d4 44 3c
       0.025076414 0.013012568 -0.01699733 0.012013639
000150 ce b0 a1 3c 8c 9a 8e bc 18 ad 9e bc 41 db 15 bc
       0.019737627 -0.017407678 -0.019369647 -0.0091465125
000160 21 44 8a bc 42 f9 52 bd ff 2e 99 bb 85 f9 30 bd
       -0.01687819 -0.051507242 -0.004674792 -0.04320671
000170 08 e3 45 3c 05 3e 06 3d a0 7b c1 bb 66 7f 8c 3c
       0.012078054 0.03277399 -0.00590463 0.017150592
000180 34 03 65 bd fa 4f 96 3b e8 d6 80 bc 9e e4 07 bd
       -0.055911258 0.0045871707 -0.015727475 -0.03317701
000190 90 3c d4 3b 56 d4 59 3c 84 56 3a 3b dd 79 cf 3c
       0.006476946 0.013295254 0.0028432915 0.025326664
0001a0 4a e6 5d bb 49 ad 4d bc 42 8e 00 3d 96 66 97 bb
       -0.0033859187 -0.012553521 0.031385668 -0.0046203835
0001b0 eb 1d a1 bc 89 d1 f5 bc 53 c8 51 3b f6 56 a9 3c
       -0.019667586 -0.03000714 0.0032010272 0.020671349
0001c0 5a 4d 02 3c b4 6b d0 3b 1e 57 f8 3b 11 54 f9 3c
       0.007953012 0.0063604955 0.0075787446 0.030435594
0001d0 30 fa 3b bc f0 1b a0 bc 39 61 fb 3c da 04 99 3b
       -0.011473224 -0.019544572 0.030686008 0.004669768
0001e0 ce 67 04 3c c8 7f 68 3b 79 a6 40 bc df 5d 4b 3d
       0.00808139 0.0035476554 -0.01175844 0.04965007
0001f0 bc 49 bd 3c 90 0c 62 bd 57 1a 95 bc a1 61 99 bb
       0.023106448 -0.05518776 -0.018201036 -0.0046808277
000200 f8 1b 9f 3c 24 47 b2 bc 0c 60 0d 3d ec 4b b9 bc
       0.019422516 -0.021762438 0.034515426 -0.02261921
000210 6a f4 43 bd f5 93 d7 3c f4 9c fa 3b 2f 0f 19 3b
       -0.047840513 0.026315669 0.007648105 0.0023354997
000220 16 fb 08 bd e7 fb de bb 1f e0 62 3b 67 35 95 3c
       -0.03344258 -0.0068049314 0.003461845 0.01821394
000230 1c 92 39 bc a0 db 6e 3b d1 bc 3a 3d 9c 9f 51 3c
       -0.011326339 0.0036446825 0.045590226 0.0127944015
000240 6b b0 92 3c 1e 5b 22 bd 51 ca ca bc fd 58 10 3d
       0.017906388 -0.039637677 -0.024754675 0.035241116
000250 9c d6 23 3c 4c ac 7f 3c f4 5a a8 bc aa b6 0f bd
       0.009999897 0.015605044 -0.020551182 -0.03508631
000260 92 1b 1f bc 1f d4 91 bc 84 e8 2f bc 22 22 33 3d
       -0.009711163 -0.017801343 -0.010736588 0.043733723
000270 85 17 58 3b 3b 35 a8 3a f7 04 6f b9 8d 9c 21 bd
       0.0032973003 0.0012833247 -0.00022794666 -0.03945594
000280 da b4 e2 ba 58 bd 3d bb d8 3d 3c bc 33 a1 a1 3c
       -0.001729633 -0.002895197 -0.011489354 0.019730186
000290 b1 ef 0c bd 0c 3f 09 bd a7 30 f6 bb 44 99 59 bc
       -0.034408275 -0.03350739 -0.007513124 -0.01328117
0002a0 2d 46 97 bc 7d b0 3d 3d 6e 4f 19 bc e6 cb 2e 3c
       -0.01846608 0.04631089 -0.009357316 0.01066873
0002b0 26 0c 9c 3a ef 78 99 3b 71 d3 6c bc db 04 9a 3c
       0.0011905476 0.004683606 -0.014454708 0.018801143
0002c0 18 89 78 3a 8e 6e e8 bb 5c d7 38 3c 23 8c df 3c
       0.0009480878 -0.0070932573 0.011281814 0.027288502
0002d0 94 fa f5 bb a3 1c 0c 3d a7 5a 9d 3c f3 1f 13 3c
       -0.007506678 0.034206998 0.019208265 0.008979785
0002e0 cf 11 d1 bc d9 d6 51 bc b0 b1 d3 3b 1e 53 d9 bb
       -0.025521187 -0.012807571 0.006460391 -0.006632223
0002f0 ba 58 46 3c 7c fc 9f 3c eb 41 5f 3d 0b 5a 5e bc
       0.012106115 0.019529574 0.054506224 -0.013571273
000300 84 01 ee bb ef 48 7f 3c 6a bf 8a bc 85 b6 86 bc
       -0.0072633643 0.015581354 -0.016936976 -0.016444454
000310 0c eb a8 bb 82 52 d6 bb de 2d 7a bc 70 34 f9 bb
       -0.005154973 -0.0065405974 -0.015269725 -0.007605128
000320 9e 1f 05 3b 4e 99 84 3b 1a c3 de bb 5a b7 5a bc
       0.0020313035 0.0040465957 -0.0067981603 -0.0133493785
000330 6a ca 0d bd a1 29 9d 3c 49 43 d3 bc ff 7f 2b bc
       -0.034616865 0.01918489 -0.02578892 -0.010467528
000340 ec d2 a0 3c dd aa 16 bd a2 5d 4a bd de ef 5a 3c
       0.019631825 -0.03678404 -0.0494057 0.013362853
000350 0d 29 8a 3c 87 92 34 3c 9f 0b c6 bb 3b c6 f9 bb
       0.016865278 0.011021263 -0.006043866 -0.007622508
000360 8b 41 d6 3b 21 b8 9f bc a3 41 8a bb 20 c0 83 bc
       0.006538575 -0.01949698 -0.0042192503 -0.016082823
000370 ca f6 2a 3c 49 01 dc 3c c1 1d 0f 3c e0 92 25 bc
       0.010434816 0.026856082 0.008735121 -0.0101058185
000380 2e be 55 3c 9d 86 c8 bb d1 ef 58 bb bb a4 98 3c
       0.013045831 -0.006119563 -0.0033101926 0.018633237
000390 60 82 2a 3d 1a 7d a6 3c 3b 8b 29 3d e9 cd bb 3c
       0.04162824 0.020323325 0.041392546 0.022925334
0003a0 a0 1a 55 bc 09 24 a8 bc 71 5b d5 3c 17 cb 83 3c
       -0.013006836 -0.020524995 0.02604458 0.016088052
0003b0 05 8d eb 3b ef fb 0f 3c 77 e8 ca bc f2 42 8d bc
       0.0071884417 0.008788093 -0.024769051 -0.017243836
0003c0 f9 e5 8d bc c0 05 b1 bb 88 cb 41 bd 40 78 4c bc
       -0.017321574 -0.005402297 -0.047313243 -0.012479842
0003d0 54 59 bd bc 67 68 ef bb 16 e3 c3 3b 0d 46 bd bc
       -0.023113884 -0.007306147 0.0059779985 -0.023104692
0003e0 fa b1 66 3c 0a cc 4e bc ba 2d b2 bc aa 0c 56 3c
       0.014080519 -0.012621889 -0.02175032 0.013064543
0003f0 e4 26 83 bc a3 5e 0c bc df a2 a6 bc ac 51 b4 3b
       -0.016009755 -0.008567485 -0.020341335 0.0055029
