Final Project/FacT-TK/cifar_best.pt (torch, 655511 bytes, 6 tensors)

FacTp f4 [32, 144]
-0.09330367 -0.33166495 0.1674524 0.048935864 0.042546906 0.13945381 -0.055978093 -0.07563328
0.06607172 0.09130629 0.044409726 -0.041173685 0.089846335 -0.11220953 -0.10844812 0.4431928
0.16796443 0.090061806 -0.24928315 -0.054555163 -0.15132418 0.08407192 0.19824226 0.038533837
-0.22268723 -0.13583656 0.17287508 0.28438234 -0.17121388 0.19574873 0.16770977 -0.011296005
-0.015008019 -0.07259648 -0.07062091 -0.20068024 -0.046697877 0.06961446 0.01796375 0.05972473
-0.09760121 -0.0819348 0.2035468 -0.1558195 -0.11917083 0.12602186 -0.1109416 -0.17257094
0.18692921 -0.066402815 0.10603356 -0.15462852 -0.104175255 -0.005469309 0.060119722 -0.16522926
0.20405369 0.030147228 -0.08458376 0.18200587 -0.045889936 0.29155555 -0.124979936 0.299125
0.29373085 0.0162506 -0.031180045 -0.28217196 -0.18153904 -0.12339811 -0.10912647 -0.009661287
-0.07307211 -0.30682218 0.09324631 0.10760161 -0.032554235 -0.23098966 0.08830856 -0.27278697
-0.24946697 0.13380118 0.05554509 0.054461617 -0.22443993 0.058831252 0.05912083 0.40579602
-0.095352605 0.21164288 0.060446322 0.057537306 -0.14056191 0.23655364 0.26263022 -0.07101316
0.1545751 0.26571935 -0.086724535 0.27592176 -0.15106517 -0.26400396 -0.12894914 0.010763973
-0.013881589 0.25403914 0.17263192 -0.04788209 -0.12842803 0.13282031 -0.24227943 -0.13445242
-0.2532241 -0.18025151 -0.13023072 0.22166827 -0.20513827 -0.035687663 -0.008506051 -0.33502844
0.19665174 0.30474326 0.10879335 -0.29915115 -0.09668658 -0.0723251 0.14438428 0.015792148
0.063428506 0.106969886 -0.30397967 -0.036419176 -0.1265209 0.13066167 0.058914855 -0.29864523
0.02027933 0.120912075 0.21370488 0.010171201 0.028259391 -0.15905723 0.38136193 0.23720144
0.09234671 0.25077295 -0.40626565 -0.35441706 -0.13001724 -0.15742674 -0.0973076 0.039882198
0.12730926 -0.24094124 -0.1649817 -0.27607757 -0.000415879 -0.14177877 -0.14425017 0.22743304
-0.014113306 -0.113167726 0.1251793 -0.1700277 0.09111791 -0.15553993 -0.17244485 -0.13900536
0.1428538 0.064928755 0.034494624 -0.3723941 -0.13598697 -0.11676902 -0.29746422 -0.14036186
0.106731236 0.10124026 -0.17596442 0.0346596 -0.03047194 0.049812533 0.042793687 -0.19392309
0.14228366 0.071101286 0.21073712 0.109922215 -0.19745512 -0.046188783 0.17395303 0.09029034
0.099563316 0.033069186 0.16407436 0.006669247 0.18042095 0.058951266 -0.016489018 0.10699323
0.1449355 -0.14414948 -0.09189258 -0.10538511 -0.10234925 -0.15486939 0.15726143 -0.109092794
-0.28038314 0.091884024 0.10223955 -0.0032387734 0.23987965 -0.010144422 0.028922893 0.21638474
0.24169818 0.16925003 0.05097869 -0.10624728 -0.11819796 0.24297279 -0.088436686 0.16308683
-0.15442783 -0.17342512 -0.113164335 -0.033017505 0.069111615 0.08188246 0.14695287 -0.21209899
0.062483884 0.020650512 -0.275104 -0.2834638 -0.07108305 0.11208512 -0.05900123 0.110380545
-0.20263611 -0.24136835 -0.06601402 0.02019538 0.027044872 0.23764682 -0.18729284 0.27358732
-0.12878422 -0.12087342 -0.16570137 -0.25481585 -0.18591543 -0.02614552 -0.11562151 0.45769417
00000000: ff15 bfbd fdcf a9be a478 2b3e f970 483d
00000010: aa45 2e3d fbcc 0e3e 4949 65bd 9fe5 9abd
00000020: 9c50 873d cbfe ba3d f9e6 353d bda5 28bd
00000030: 5b01 b83d 1cce e5bd 0c1a debd 2bea e23e
00000040: defe 2b3e 5372 b83d 1544 7fbe 3c75 5fbd
00000050: baf4 1abe e62d ac3d 0500 4b3e a8d5 1d3d
00000060: 1f08 64be bd18 0bbe 2a06 313e 909a 913e
00000070: b152 2fbe 5b72 483e 1cbc 2b3e e112 39bc
00000080: 32e4 75bc 77ad 94bd b2a1 90bd 1f7f 4dbe
00000090: 4646 3fbd 0792 8e3d b728 933c eba1 743d
000000a0: 25e3 c7bd 6fcd a7bd 936e 503e 268f 1fbe
000000b0: d60f f4bd e00b 013e 5935 e3bd 70b6 30be
000000c0: 5f6a 3f3e 33fe 87bd 2028 d93d f056 1ebe
000000d0: d659 d5bd e437 b3bb 1940 763d dc31 29be
000000e0: 73f3 503e 52f7 f63c 403a adbd bf5f 3a3e
000000f0: 16f7 3bbd c546 953e 7bf5 ffbd e926 993e
00000100: e463 963e fa1f 853c 4b6d ffbc d878 90be
00000110: 5fe5 39be 26b8 fcbd b37d dfbd 604a 1ebc
00000120: d5a6 95bd cc17 9dbe ecf7 be3d 3c5e dc3d
00000130: 9757 05bd 8e88 6cbe 1edb b43d bcaa 8bbe
00000140: 4574 7fbe 2d03 093e 4083 633d 2513 5f3d
00000150: 95d3 65be 0af9 703d af28 723d 7fc4 cf3e
00000160: 3a48 c3bd e9b8 583e 9096 773d 3dac 6b3d
00000170: 76ef 0fbe 1e3b 723e 7877 863e 596f 91bd
00000180: ef48 1e3e 5e0c 883e a29c b1bd 9e45 8d3e
00000190: d4b0 1abe 872b 87be 3e0b 04be 605b 303c
000001a0: 9b6f 63bc 6b11 823e 6cc6 303e 0320 44bd
000001b0: a382 03be 0c02 083e 1918 78be e5ad 09be
000001c0: 97a6 81be da93 38be 345b 05be 02fd 623e
000001d0: c40f 52be 3a2d 12bd f75c 0bbc d988 abbe
000001e0: 135f 493e 4f07 9c3e 0ccf de3d 572a 99be
000001f0: 9d03 c6bd 2f1f 94bd 79d9 133e 895e 813c
00000200: cee6 813d 0713 db3d 39a3 9bbe 462c 15bd
00000210: b28e 01be 2ccc 053e b450 713d 07e8 98be
00000220: d620 a63c c0a0 f73d 74d5 5a3e 1ca5 263c
00000230: 3d80 e73c e6df 22be df41 c33e efe4 723e
00000240: 4620 bd3d 5065 803e 0d02 d0be 2776 b5be
00000250: 3d23 05be 7a34 21be 3549 c7bd 845b 233d
00000260: 5c5d 023e 4db9 76be f6f0 28be 0a5a 8dbe
00000270: 560a dab9 742e 11be 51b6 13be 35e4 683e
00000280: 7f3b 67bc 7bc4 e7bd 012f 003e be1b 2ebe
00000290: 079c ba3d dc45 1fbe 6295 30be 6c57 0ebe
000002a0: 4448 123e 5ef9 843d 3c4a 0d3d 71aa bebe
000002b0: 2b40 0bbe 9924 efbd 3b4d 98be 05bb 0fbe
000002c0: e895 da3d 0e57 cf3d 0430 34be 3af7 0d3d
000002d0: 4aa0 f9bc 3a08 4c3d 6f48 2f3d c693 46be
000002e0: cfb2 113e 8d9d 913d 79cb 573e e61e e13d
000002f0: ad31 4abe 7330 3dbd be20 323e 24ea b83d
00000300: dae7 cb3d 8e73 073d 1c03 283e b389 da3b
00000310: 45c0 383e e276 713d fa13 87bc 441f db3d
00000320: f969 143e ec9b 13be 2d32 bcbd 26d4 d7bd
00000330: 7c9c d1bd 1596 1ebe 2409 213e 0b6c dfbd
00000340: 618e 8fbe b12d bc3d f862 d13d 9a41 54bb
00000350: 03a3 753e ca34 26bc b4ef ec3c f693 5d3e
00000360: ba7f 773e e14f 2d3e 08cf 503d 2d98 d9bd
00000370: c611 f2bd dccd 783e 4b1e b5bd 3c00 273e
00000380: 5422 1ebe 5b96 31be b4c2 e7bd 5d3d 07bd
00000390: 648a 8d3d feb1 a73d d07a 163e 7a30 59be
000003a0: 1aef 7f3d 432b a93c 6eda 8cbe 2b22 91be
000003b0: fd93 91bd e28c e53d 46ab 71bd 320f e23d
000003c0: d77f 4fbe 4429 77be 5c32 87bd c870 a53c
000003d0: 358d dd3c b059 733e b2c9 3fbe a313 8c3e
000003e0: 03e0 03be 7c8c f7bd 9fad 29be 3977 82be
000003f0: 9d60 3ebe 212f d6bc f8ca ecbd e456 ea3e

FacTc f4 [32, 32, 32]
-0.038846996 -0.0011792611 0.112952486 0.059632048 -0.07108563 0.1626988 -0.049934145 -0.09414003
0.10885258 -0.035623852 -0.0057750354 -0.1527931 -0.08045904 0.011004476 0.06361307 -0.17442867
0.15231906 0.074788146 -0.17079666 0.046316456 0.1032601 0.008275492 0.22034319 -0.06726085
0.057707515 -0.0434623 0.19524616 0.124263875 0.10086489 -0.08207715 -0.040517032 -0.029979507
0.12440878 -0.09008944 -0.12842304 -0.19161104 0.18610457 -0.010960933 -0.10223777 0.037296556
-0.04477527 0.07909432 -0.098989435 -0.12163905 0.14991662 -0.04191556 0.030209014 0.07443875
0.011544199 0.039449602 -0.111179285 -0.09871876 -0.040154167 -0.13546218 -0.040394392 0.0042407457
-0.065562 -0.15035558 -0.006463532 0.16062306 -0.14568812 -0.12729575 -0.094870254 0.14347048
0.08031961 -0.11757264 -0.05438833 -0.02823668 -0.09960067 0.041395966 0.040567357 0.04931595
-0.0072909584 0.065864384 0.16186185 -0.12198031 0.031056117 0.014344436 0.05736935 -0.070791766
-0.02740058 0.04425384 -0.068364955 0.020868223 -0.0936767 0.04959441 -0.021048397 -0.06340962
-0.11545017 0.07484476 0.17766656 -0.012524403 0.04013576 0.068094 -0.064060226 -0.05856367
-0.13703024 0.054268435 -0.036491867 0.075836256 -0.008588674 0.016919157 0.01135216 -0.0780221
0.05243767 -0.14385054 0.0013880958 0.043957278 0.102404736 -0.030769479 -0.11843188 -0.013186955
0.0670791 0.0126813585 0.088101506 -0.050198667 -0.13556957 -0.07795344 -0.00039133307 0.10255286
0.14954858 -0.04680426 0.0066168797 0.16774525 0.034395333 -0.106084675 0.014368442 -0.07670084
0.01378708 -0.0901958 -0.14346151 -0.012584289 -0.12155168 -0.0931959 0.07763918 -0.048304796
0.13458863 0.04539777 -0.08304054 -0.1130826 -0.11911323 -0.14790443 -0.029194344 0.1565075
0.028318377 -0.1066328 -0.048778657 -0.08814159 -0.13949998 0.11326989 -0.07279011 0.040165167
-0.13468309 0.088321395 0.03796454 -0.10386133 -0.0007423179 0.07543933 0.0112807825 -0.040113237
0.059880085 -0.06954625 -0.05025527 0.059273914 -0.049690507 -0.07801131 0.033460338 0.02978559
-0.013928841 0.11694402 0.060170162 0.060043618 -0.053275738 -0.06410796 -0.021851853 0.010682015
0.04433291 0.11759149 0.014481115 0.008354887 -0.19449787 -0.08240023 0.0022261764 0.13831213
0.010604383 -0.12359875 0.0083833905 0.1309335 -0.039902985 0.11158048 -0.07237975 0.024333587
0.0049792095 -0.121620625 0.0013707039 0.09467966 -0.037164837 -0.10532094 -0.08011422 0.11080339
0.08317248 0.055707976 0.13399793 0.08905411 0.06022355 -0.035860043 -0.10873238 -0.10762494
-0.0066901366 -0.0073351227 -0.07647441 -0.0004517962 0.035403486 -0.079141185 -0.039380126 0.008324904
0.07218584 -0.083942175 0.060002334 -0.011023773 0.029704263 0.09369673 0.025018053 -0.15101437
-0.112817824 0.08712131 0.0055150813 -0.061073978 0.06085532 0.06886724 0.08513788 -0.112416916
-0.0036226145 -0.23495476 -0.05603695 0.055030283 0.14150934 0.057230134 -0.042603645 -0.011123713
0.09529346 -0.028094092 0.11245163 -0.081245735 0.10399043 -0.13262804 -0.09362923 -0.08841168
0.046085104 -0.0539562 0.0019711906 0.17079113 -0.05677383 -0.106327325 0.013009009 -0.011900523
00000000: 071e 1fbd 7091 9aba a253 e73d bc40 743d
00000010: 5895 91bd 849a 263e bf87 4cbd 7dcc c0bd
00000020: 1aee de3d 51ea 11bd 823c bdbb cb75 1cbe
00000030: b6c7 a4bd 1e4c 343c 9247 823d 6e9d 32be
00000040: 87f9 1b3e 872a 993d 52e5 2ebe 53b6 3d3d
00000050: 087a d33d ee95 073c a5a1 613e 0ec0 89bd
00000060: b75e 6c3d 8605 32bd 9cee 473e 0f7e fe3d
00000070: 4092 ce3d 1118 a8bd 30f5 25bd 9597 f5bc
00000080: 08ca fe3d d080 b8bd 5481 03be af35 44be
00000090: 3292 3e3e 7c95 33bc 0962 d1bd 46c4 183d
000000a0: 4666 37bd 34fc a13d f9ba cabd e51d f9bd
000000b0: be83 193e a6af 2bbd e578 f73c 5873 983d
000000c0: e123 3d3c e895 213d f7b1 e3bd 102d cabd
000000d0: b278 24bd 99b6 0abe 9774 25bd f4f5 8a3b
000000e0: 5f45 86bd d0f6 19be 09cc d3bb 5f7a 243e
000000f0: 442f 15be d159 02be 564b c2bd ede9 123e
00000100: 9c7e a43d edc9 f0bd 4cc6 5ebd 9c50 e7bc
00000110: 70fb cbbd d18e 293d f529 263d 86ff 493d
00000120: fee8 eebb e8e3 863d 1dbf 253e d0d0 f9bd
00000130: 6669 fe3c ed04 6b3c 20fc 6a3d 46fb 90bd
00000140: 2e77 e0bc 8443 353d ed02 8cbd d6f3 aa3c
00000150: 92d9 bfbd 8223 4b3d b06d acbc e7dc 81bd
00000160: 2471 ecbd 3648 993d 39ee 353e 2733 4dbc
00000170: 6565 243d de74 8b3d 0232 83bd 75e0 6fbd
00000180: a851 0cbe 9448 5e3d 7f78 15bd 0a50 9b3d
00000190: 82b7 0cbc 0b9a 8a3c 69fe 393c 0dca 9fbd
000001a0: e2c8 563d 8e4d 13be c4f0 b53a 8c0c 343d
000001b0: 93b9 d13d 4610 fcbc 6a8c f2bd 190e 58bc
000001c0: c460 893d 79c5 4f3c 906e b43d 1e9d 4dbd
000001d0: c0d2 0abe 0ea6 9fbd d62b cdb9 3c07 d23d
000001e0: 4323 193e d3b5 3fbd 69d2 d83b 69c5 2b3e
000001f0: 1fe2 0c3d ec42 d9bd 9d69 6b3c 5415 9dbd
00000200: 34e3 613c 93b8 b8bd 93e7 12be 552e 4ebc
00000210: 16f0 f8bd 7edd bebd 4a01 9f3d 40db 45bd
00000220: 9ad1 093e 03f3 393d 2911 aabd da97 e7bd
00000230: a3f1 f3bd 4274 17be fa28 efbc 8143 203e
00000240: f1fb e73c 4c62 dabd 21cc 47bd 9483 b4bd
00000250: 15d9 0ebe 0bfa e73d fb12 95bd 3b84 243d
00000260: 5dea 09be d9e1 b43d b580 1b3d 40b5 d4bd
00000270: 1c98 42ba ef7f 9a3d 08d3 383c c74d 24bd
00000280: d244 753d 446e 8ebd 78d8 4dbd 34c9 723d
00000290: 4688 4bbd 65c4 9fbd b50d 093d e900 f43c
000002a0: cb35 64bc 5980 ef3d fd74 763d 4cf0 753d
000002b0: a937 5abd 094b 83bd a802 b3bc 9e03 2f3c
000002c0: 6d96 353d cfd3 f03d 3342 6d3c f0e2 083c
000002d0: 732a 47be 74c1 a8bd 0be5 113b b2a1 0d3e
000002e0: 02be 2d3c 5721 fdbd 7d5a 093c 6e13 063e
000002f0: 5071 23bd 4f84 e43d d63b 94bd 3b57 c73c
00000300: a328 a33b 3c14 f9bd 31a9 b33a 69e7 c13d
00000310: 283a 18bd 81b2 d7bd ed12 a4bd e3ec e23d
00000320: 5556 aa3d 0c2e 643d c136 093e 0062 b63d
00000330: f8ac 763d fbe1 12bd 15af debd 776a dcbd
00000340: ef38 dbbb 785b f0bb 9e9e 9cbd 0fdf ecb9
00000350: 3f03 113d c614 a2bd 0e4d 21bd 2e65 083c
00000360: 2bd6 933d e0e9 abbd 02c5 753d 0e9d 34bc
00000370: 5b56 f33c 12e4 bf3d a9f2 cc3c 83a3 1abe
00000380: 080d e7bd a86c b23d dbb7 b43b b528 7abd
00000390: 6e43 793d 440a 8d3d c55c ae3d d73a e6bd
000003a0: 6369 6dbb fb97 70be 0087 65bd 6f67 613d
000003b0: d3e7 103e 256a 6a3d 2981 2ebd 3c40 36bc
000003c0: 3829 c33d 9525 e6bc 0a4d e63d 2a64 a6bd
000003d0: eff8 d43d a5cf 07be afc0 bfbd 2f11 b5bd
000003e0: bcc3 3c3d 2d01 5dbd 172f 013b dfe3 2e3e
000003f0: ad8b 68bd 24c2 d9bd bd23 553c 69fa 42bc

head.weight f4 [100, 768]
0.09161231 -0.03013777 -0.07568014 -0.024499815 0.09681125 0.028474646 -0.10038821 -0.08056804
0.06963035 0.08796106 -0.044033736 -0.13775653 0.035641726 -0.04565076 -0.09799939 -0.027759252
-0.019224321 -0.08507418 0.05187183 -0.110460296 0.09786254 0.08369564 -0.11307499 0.09435924
0.018457852 0.1566684 -0.05876647 -0.015905496 0.047797926 -0.0041712667 0.10512787 -0.08470764
0.012050922 0.12406729 0.07655762 -0.050534975 -0.031430844 -0.07848189 -0.10524027 -0.10071491
0.062021956 -0.04372009 0.010162421 0.12123528 -0.09082717 0.16759731 0.06374336 -0.08784914
-0.051546134 0.08004323 0.16710259 -0.07383475 0.11659945 -0.12978213 -0.14372098 0.07686949
0.031192975 0.12114506 0.15604486 0.11282798 0.15477867 -0.08150948 -0.028393641 0.059917755
-0.10445517 0.02075181 0.10004333 -0.02482495 -0.06864205 -0.08433457 -0.037333705 -0.039572977
0.12185132 0.10141146 0.072228 -0.1251407 -0.042595964 -0.07354942 0.038050592 0.058980647
-0.12447991 -0.06501594 0.08197765 -0.049134094 0.06188949 0.089981675 -0.006369952 0.18336686
0.055889286 0.08898121 -0.11967302 -0.058253694 -0.03338078 -0.04756157 -0.09874495 -0.03949538
-0.085693784 -0.044867437 -0.14695877 -0.039498344 -0.07911839 0.02990542 0.04204476 -0.0082722595
0.06746922 -0.105641134 -0.08280004 -0.124562904 0.059213366 0.05153615 0.097572125 -0.052079286
-0.046758723 0.13022344 0.0013347764 0.10220447 -0.005502341 0.07213134 -0.04155806 0.069140665
-0.06326856 0.08854284 -0.038936142 -0.06907265 0.053101227 0.08069509 0.124448776 0.085295066
-0.07859013 -0.12830079 -0.040452827 -0.05392474 -0.09615504 -0.07574857 0.05767999 -0.056815583
-0.10317565 -0.014161094 0.11268217 -0.12711504 -0.09357188 0.1323181 -0.034555536 0.09439089
-0.077302694 -0.051980853 -0.18507876 -0.053885985 0.13635866 -0.0070327264 0.04250196 -0.100248516
-0.05823059 0.0650166 -0.018125474 -0.096716076 -0.008004485 -0.01100938 -0.05828366 0.056601666
-0.062346995 -0.079938285 -0.031949833 0.16225503 0.025963169 0.12247009 -0.1147467 -0.017213782
0.044896744 -0.03212011 0.098878525 -0.09241324 -0.016219668 -0.084532544 0.15040384 -0.081906036
0.13469765 -0.061685782 -0.09949033 -0.046376962 0.044761565 -0.07937294 -0.1220881 -0.12811804
0.1258792 -0.0790548 -0.05323022 -0.09440204 0.10054946 -0.055038415 0.035920378 0.07642355
-0.11636864 -0.0199281 -0.11475389 0.13760117 0.050224695 -0.14001782 -0.07046541 -0.07288101
0.07508097 -0.020791112 -0.17180806 -0.08846931 0.075490594 0.018791582 -0.08807687 -0.0005579637
-0.14741424 0.0751103 0.03401665 0.09451089 0.010977777 -0.05625612 0.011340057 0.16933817
-0.03587381 0.061308518 -0.014097142 0.122375034 -0.05376499 -0.12468088 -0.07356411 0.019989202
-0.10205541 -0.10837944 -0.04189264 0.054380547 -0.04996386 0.103752896 0.09470735 0.005160103
-0.09792356 -0.122314736 0.060278762 -0.0025661644 -0.13037963 -0.053608216 -0.15627249 0.046828084
0.08103824 -0.025833877 0.108618565 0.12521324 0.07596475 0.0048244875 -0.13922581 -0.09117435
0.03231467 -0.04574241 -0.12509619 0.14515947 0.123919755 0.10856821 -0.092543855 0.07534697
00000000: 3c9f bb3d 7ce3 f6bc 30fe 9abd d6b3 c8bc
00000010: fa44 c63d a943 e93c 5598 cdbd db00 a5bd
00000020: 5b9a 8e3d ee24 b43d b85c 34bd 0c10 0dbe
00000030: 0ffd 113d 4bfc 3abd e7b3 c8bd 5f67 e3bc
00000040: 537c 9dbc 5f3b aebd 8e77 543d 0239 e2bd
00000050: 286c c83d 9f68 ab3d dc93 e7bd 6b3f c13d
00000060: ec34 973c ae6d 203e 1cb5 70bd 3e4c 82bc
00000070: c2c7 433d 1faf 88bb 484d d73d 337b adbd
00000080: 3b71 453c fe16 fe3d 3eca 9c3d c3fd 4ebd
00000090: a1bd 00bd 1dbb a0bd 3688 d7bd 9e43 cebd
000000a0: bc0a 7e3d d613 33bd 4880 263c 344a f83d
000000b0: 9803 babd a19e 2b3e e18b 823d 40ea b3bd
000000c0: 0a22 53bd b4ed a33d f11c 2b3e ac36 97bd
000000d0: b1cb ee3d 9be5 04be 982b 13be c06d 9d3d
000000e0: 6988 ff3c e71a f83d 39ca 1f3e 5b12 e73d
000000f0: 4d7e 1e3e 71ee a6bd c899 e8bc 526c 753d
00000100: 98ec d5bd b3ff a93c 84e3 cc3d b25d cbbc
00000110: 3494 8cbd 9ab7 acbd 3aeb 18bd 4617 22bd
00000120: 2f8d f93d d0b0 cf3d 46ec 933d e224 00be
00000130: 1b79 2ebd 14a1 96bd f0da 1b3d b195 713d
00000140: 53ef febd 1427 85bd e6e3 a73d d540 49bd
00000150: d57f 7d3d 5048 b83d 08bb d0bb 86c4 3b3e
00000160: 2aec 643d c83b b63d 2117 f5bd 6d9b 6ebd
00000170: 49ba 08bd eccf 42bd cb3a cabd e8c5 21bd
00000180: 3980 afbd ebc6 37bd 5c7c 16be 04c9 21bd
00000190: d308 a2bd 36fc f43c 2037 2c3d 5f88 07bc
000001a0: 4d2d 8a3d 615a d8bd 1193 a9bd d61a ffbd
000001b0: b789 723d 9217 533d e5d3 c73d 1751 55bd
000001c0: 1386 3fbd 4b59 053e aaf3 ae3a 9450 d13d
000001d0: fb4c b4bb 99b9 933d c938 2abd 9f99 8d3d
000001e0: f292 81bd f355 b53d 817b 1fbd f675 8dbd
000001f0: ac80 593d 7843 a53d 00df fe3d 2eaf ae3d
00000200: ddf3 a0bd 4861 03be ddb1 25bd 30e0 5cbd
00000210: efec c4bd 1122 9bbd da41 6c3d 75b7 68bd
00000220: c14d d3bd ef03 68bc e9c5 e63d 722a 02be
00000230: 9da2 bfbd 657e 073e 1b8a 0dbd 0350 c13d
00000240: e050 9ebd e0e9 54bd 4985 3dbe 8db7 5cbd
00000250: 9ba1 0b3e c972 e6bb 8916 2e3d 184f cdbd
00000260: 3383 6ebd 6c27 853d e07b 94bc 1413 c6bd
00000270: 3e25 03bc b060 34bc d9ba 6ebd 26d7 673d
00000280: 905f 7fbd afb6 a3bd d4dd 02bd 2f26 263e
00000290: b6b0 d43c 99d1 fa3d 5100 ebbd eb03 8dbc
000002a0: a6e5 373d 6090 03bd d380 ca3d 2743 bdbd
000002b0: 1cdf 84bc 661f adbd 7703 1a3e 5abe a7bd
000002c0: 2eee 093e 3baa 7cbd 96c1 cbbd c5f5 3dbd
000002d0: e757 373d 488e a2bd 5309 fabd 6031 03be
000002e0: 7ae6 003e 7ce7 a1bd ee07 5abd db55 c1bd
000002f0: e0ec cd3d f66f 61bd 3f21 133d f383 9c3d
00000300: ae52 eebd 4140 a3bc 1604 ebbd 52e7 0c3e
00000310: 69b8 4d3d d560 0fbe 2b50 90bd a442 95bd
00000320: 0dc4 993d 1f52 aabc 74ee 2fbe 662f b5bd
00000330: d09a 9a3d cef0 993c a561 b4bd 4f44 12ba
00000340: c2f3 16be 6ed3 993d 0b55 0b3d ed8e c13d
00000350: 22dc 333c d16c 66bd a5cb 393c fc66 2d3e
00000360: 6bf0 12bd a41e 7b3d b3f7 66bc c39f fa3d
00000370: ae38 5cbd b058 ffbd c8a8 96bd 65c0 a33c
00000380: 6d02 d1bd 0af6 ddbd 9e97 2bbd 23be 5e3d
00000390: e8a6 4cbd 667c d43d edf5 c13d 1516 a93b
000003a0: 268c c8bd 2680 fabd dde6 763d 182d 28bb
000003b0: 3d82 05be 4a94 5bbd e505 20be cece 3f3d
000003c0: 60f7 a53d 91a1 d3bc 6973 de3d e637 003e
000003d0: 6893 9b3d bc16 9e3b 3691 0ebe 9eb9 babd
000003e0: 635c 043d 655c 3bbd 3719 00be afa4 143e
000003f0: a4c9 fd3d 0259 de3d a287 bdbd 834f 9a3d

head.bias f4 [100]
-0.007882441 -0.026771775 0.019691985 0.0120910695 -0.03266441 -0.0060986048 0.04852158 0.020360371
0.019185271 -0.0013221061 -0.038170915 0.036082014 0.0010008437 -0.046485286 0.035902794 0.02120193
0.019767195 0.010983239 -0.01269308 0.0229125 -0.027330846 0.021427123 0.007307132 -0.0005588309
-0.056103416 -0.010992218 -0.02417727 -0.00793997 0.028952852 -0.0022263809 -0.024730377 -0.057591274
0.0149324285 0.0013657702 -0.020078309 -0.011848178 -0.0042743953 -0.014947458 0.0002904024 0.037251256
0.051073603 0.02610254 -0.019004764 -0.035163693 0.032593682 0.023618314 0.024294851 0.019021055
-0.062760234 0.001809589 -0.011726329 0.036304597 0.0021524483 -0.04048995 -0.02105906 0.022139387
-0.032491095 -0.005623137 -0.04392033 -0.023511373 -0.012459758 0.016002964 0.008895479 0.008462611
0.05537456 0.019950889 -0.015464082 -0.01086284 -0.021939324 0.019058667 -0.013038243 0.0025952072
0.038957138 -0.01827093 -0.050533187 -0.0036501323 -0.0048671947 0.0009185999 -0.00584641 -0.005828567
0.01804178 -0.020697357 0.0043896753 -0.028805926 0.040522303 -0.023243723 -0.013188934 -0.07448142
-0.028178632 -0.028333126 0.029836114 -0.0049373345 0.01664787 0.03449021 -0.022642413 -0.014243717
0.02031908 -0.042639595 0.026921142 -0.057705242
00000000: 5b25 01bc 7b50 dbbc 1651 a13c 9f19 463c
00000010: 1ecb 05bd ced6 c7bb 90be 463d cbca a63c
00000020: 6e2a 9d3c 854a adba 1b59 1cbd bcca 133d
00000030: be2e 833a 5b67 3ebd cf0e 133d abaf ad3c
00000040: d0ee a13c 0bf3 333c a3f6 4fbc ffb2 bb3c
00000050: f0e4 dfbc ef87 af3c aa70 ef3b 827e 12ba
00000060: b2cc 65bd b418 34bc 690f c6bc a616 02bc
00000070: 882e ed3c 79e8 11bb 5c97 cabc d4e4 6bbd
00000080: 25a7 743c a503 b33a 447b a4bc dc1e 42bc
00000090: 3a10 8cbb 2fe6 74bc 2641 9839 c694 183d
000000a0: 8e32 513d fed4 d53c e1af 9bbc ce07 10bd
000000b0: f480 053d 327b c13c ff05 c73c 0bd2 9b3c
000000c0: 7088 80bd bb2f ed3a ca1f 40bc 21b4 143d
000000d0: 1710 0d3b cad8 25bd 0d84 acbc a95d b53c
000000e0: 6215 05bd 4b42 b8bb cee5 33bd ec9a c0bc
000000f0: 0324 4cbc a618 833c 58be 113c c3a6 0a3c
00000100: 6fd0 623d 0c70 a33c 105d 7dbc 0efa 31bc
00000110: 19ba b3bc ec20 9c3c 5b9e 55bc 5a14 2a3b
00000120: 8591 1f3d ebac 95bc e3fb 4ebd 0f37 6fbb
00000130: fd7c 9fbb 32ce 703a 3e93 bfbb 90fd bebb
00000140: 5bcc 933c 818d a9bc 44d7 8f3b 68fa ebbc
00000150: b7fa 253d 9f69 bebc 6616 58bc b789 98bd
00000160: e0d6 e6bc df1a e8bc de6a f43c 5dc9 a1bb
00000170: 1d61 883c 9b45 0d3d 957c b9bc 7b5e 69bc
00000180: 3374 a63c dba6 2ebd ba89 dc3c 555c 6cbd

FacTu.weight f4 [32, 768]
-0.1260635 0.074927144 -0.052909125 1.4727138e-05 -0.048173416 0.079501614 -0.020363467 0.016719189
0.15075551 -0.07264388 0.018766697 -0.1437574 -0.15079431 0.03737548 0.06430196 0.12735172
-0.16936891 -0.074013464 -0.12672232 -0.16682774 -0.028634982 -0.045784168 0.04372124 -0.014457785
0.11162336 -0.21973455 -0.008200332 -0.042562723 -0.0063121873 0.27472055 -0.014505529 -0.096413516
-0.022827134 0.0069645634 -0.024015665 -0.11097368 -0.07141393 -0.00015319025 -0.024954563 -0.07696951
-0.113356434 -0.05486728 -0.036956962 -0.10379557 -0.043227546 0.058438703 0.17670682 -0.038830683
0.15187632 0.0596821 -0.12486356 -0.16209163 -0.16418314 -0.03573557 0.010515352 -0.13938655
-0.004889599 0.10961303 0.1359786 -0.16882427 -0.14450957 -0.12605265 0.035057023 -0.023985889
-0.098765016 0.124215424 -0.08305655 0.035533145 -0.035447493 -0.11290542 0.100138105 -0.13925661
0.114026174 -0.11874134 -0.21196511 -0.030424325 0.042562455 -0.03485171 0.061339267 -0.19145721
0.102247044 -0.09093626 0.0038418574 -0.05458931 -0.06837686 -0.18322827 0.22363742 -0.11662411
-0.02293039 -0.10357317 0.0022222192 0.035694174 -0.03962106 -0.0056948913 0.07140809 -0.06694775
-0.030088909 -0.10302069 0.02413869 -0.004490099 0.016988477 -0.016877245 -0.28457975 0.08261699
-0.049355097 -0.07284422 0.1368271 -0.040013254 0.0007806188 -0.02985987 -0.123784006 0.10916369
0.10797537 0.10946437 -0.10117697 -0.056737743 0.060726482 0.093803786 0.13438162 -0.19547956
-0.11192615 0.08723413 0.012158333 0.031458765 -0.026068892 0.1305048 0.038182802 -0.16010934
-0.13906567 -0.11303297 0.05701378 0.1783586 -0.045141853 -0.20857745 -0.066111565 0.0037196046
-0.0017106686 -0.08360837 -0.2003756 -0.10585223 -0.120158836 -0.02398976 -0.009750788 -0.15561564
-0.099738054 0.103547014 -0.16850843 -0.06538757 0.015886895 -0.15556514 0.074006766 -0.0021211337
-0.06410245 0.009891204 0.072955914 0.07345854 -0.10222398 -0.1489317 0.014887559 0.004522772
0.106558725 0.055189505 0.03322433 0.082035445 -0.0862585 -0.09409335 -0.106410496 0.09155296
-0.06531554 0.063386135 -0.063665755 0.057592355 -0.038853597 -0.06382449 0.063072026 -0.099124335
0.011550536 -0.058902252 -0.00038102717 0.006394759 0.25791448 0.16999583 0.026162373 -0.14907867
-3.7935777e-05 -0.026287936 -0.14666103 0.109032735 -0.09178788 0.04495811 -0.12058963 -0.021807881
0.098382466 -0.08756426 -0.100419894 -0.08490266 -0.12746991 -0.124689944 -0.015197959 -0.049970057
0.02950182 -0.0322081 0.0037052343 0.12309642 -0.19185938 -0.075137444 0.10487852 -0.04099059
0.023746781 -0.011937316 -0.16899505 0.06720721 0.06536722 0.0721144 -0.074952364 -0.015868923
0.10925679 0.0407121 0.077359155 -0.029364543 0.042754933 0.028637681 0.20980738 -0.09831763
0.021844778 -0.07211222 -0.13861233 -0.21021767 0.03130719 -0.112443745 -0.14451726 -0.09838046
-0.07891808 0.003332786 -0.0008125052 0.07904116 0.06595434 -0.062363323 0.15582411 -0.0667158
-0.061713386 -0.02415768 0.18874308 0.05057245 -0.12198285 -0.044609863 0.15736058 0.13807116
0.01986009 0.07334401 -0.06619443 -0.024116 -0.058536604 -0.06933873 -0.14019622 -0.20751728
00000000: ca16 01be 6773 993d 3db7 58bd 9314 7737
00000010: 7d51 45bd bed1 a23d 49d1 a6bc aef6 883c
00000020: a75f 1a3e 51c6 94bd 9ebc 993c 2435 13be
00000030: d369 1abe 0817 193d bfb0 833d 7d68 023e
00000040: 0b6f 2dbe 5f94 97bd 7fc3 01be e4d4 2abe
00000050: e993 eabc 2e88 3bbd 0b15 333d 58e0 6cbc
00000060: ca9a e43d 1802 61be af5a 06bc 4056 2ebd
00000070: 77d6 cebb 2ca8 8c3e 99a8 6dbc 7374 c5bd
00000080: f8ff babc fe36 e43b 80bc c4bc 2b46 e3bd
00000090: 7741 92bd b2a1 20b9 836d ccbc 31a2 9dbd
000000a0: 6b27 e8bd 83bc 60bd 2f60 17bd c692 d4bd
000000b0: 5e0f 31bd 6c5d 6f3d a2f2 343e ec0c 1fbd
000000c0: 7785 1b3e 3875 743d 77b8 ffbd 59fb 25be
000000d0: a01f 28be 765f 12bd 9548 2c3c 59bb 0ebe
000000e0: ee38 a0bb cc7c e03d f93d 0b3e 45e0 2cbe
000000f0: 51fa 13be f213 01be f497 0f3d 0e7e c4bc
00000100: 5045 cabd a864 fe3d 8d19 aabd 348b 113d
00000110: 6431 11bd f53a e7bd 3515 cd3d 4999 0ebe
00000120: 8e86 e93d a92e f3bd 620d 59be 6f3c f9bc
00000130: f855 2e3d abc0 0ebd e23e 7b3d 5c0d 44be
00000140: e666 d13d ca3c babd acc7 7b3b 0a99 5fbd
00000150: 2b09 8cbd 31a0 3bbe 3501 653e 9fd8 eebd
00000160: 83d8 bbbc 2c1e d4bd a7a2 113b 0e34 123d
00000170: b149 22bd 369c babb 683e 923d e71b 89bd
00000180: 047d f6bc 83fc d2bd 81be c53c ae21 93bb
00000190: 6b2b 8b3c 2642 8abc 70b4 91be 1933 a93d
000001a0: 9228 4abd 5a2f 95bd 671c 0c3e f0e4 23bd
000001b0: 71a2 4c3a b09c f4bc 7882 fdbd 3691 df3d
000001c0: 3122 dd3d db2e e03d df35 cfbd d665 68bd
000001d0: 55bc 783d 331c c03d 569b 093e cb2b 48be
000001e0: 8a39 e5bd cfa7 b23d bf33 473c e8da 003d
000001f0: 6e8e d5bc 0da3 053e 9265 1c3d b4f3 23be
00000200: 3b67 0ebe d47d e7bd 4887 693d a3a3 363e
00000210: aae6 38bd 5495 55be 8065 87bd 9cc4 733b
00000220: 8338 e0ba dd3a abbd 432f 4dbe 0ec9 d8bd
00000230: d615 f6bd 2c86 c4bc c5c1 1fbc b559 1fbe
00000240: 7743 ccbd 7510 d43d 798d 2cbe ebe9 85bd
00000250: 3c25 823c 784c 1fbe dc90 973d b802 0bbb
00000260: 2548 83bd b70e 223c e969 953d 6e71 963d
00000270: ce5a d1bd 8d81 18be f3ea 733c c333 943b
00000280: 763b da3d 640e 623d 3c16 083d 3302 a83d
00000290: 4ca8 b0bd 04b4 c0bd bfed d9bd 1e80 bb3d
000002a0: 27c4 85bd 97d0 813d 3163 82bd f6e5 6b3d
000002b0: f324 1fbd 6ab6 82bd e82b 813d b301 cbbd
000002c0: 763e 3d3c 7d43 71bd 9ac4 c7b9 208b d13b
000002d0: 5e0d 843e 6313 2e3e 7952 d63c 14a8 18be
000002e0: 3b1d 1fb8 cc59 d7bc 4f2e 16be 8e4c df3d
000002f0: 49fb bbbd ff25 383d b2f7 f6bd 71a6 b2bc
00000300: bf7c c93d e454 b3bd f2a8 cdbd 72e1 adbd
00000310: 7987 02be 715d ffbd dc00 79bc 67ad 4cbd
00000320: cdad f13c a4ec 03bd 84d3 723b fa19 fc3d
00000330: c976 44be a9e1 99bd 8dca d63d c0e5 27bd
00000340: 9c88 c23c bb94 43bc 0a0d 2dbe efa3 893d
00000350: 40df 853d b7b0 933d a080 99bd 8bff 81bc
00000360: 06c2 df3d bbc1 263d 7a6e 9e3d e98d f0bc
00000370: cc1f 2f3d 9299 ea3c bfd7 563e c15a c9bd
00000380: d2f3 b23c 92af 93bd 64f0 0dbe 4d43 57be
00000390: f83b 003d e848 e6bd 55fc 13be b27b c9bd
000003a0: cd9f a1bd df6a 5a3b 4dfe 54ba 55e0 a13d
000003b0: 1213 873d af70 7fbd 5b90 1f3e 4ba2 88bd
000003c0: 2dc7 7cbd 54e6 c5bc de45 413e 0f25 4f3d
000003d0: 25d2 f9bd d5b8 36bd 2223 213e 8762 0d3e
000003e0: a1b1 a23c 6235 963d f290 87bd eb8e c5bc
000003f0: 14c4 6fbd 7701 8ebd 998f 0fbe 697f 54be

FacTv.weight f4 [768, 32]
0.0124437185 -0.013621032 -0.0034377102 -0.01632376 -0.037730772 -0.033536036 0.0006962059 0.05713772
-0.0517907 0.01467355 -0.017723195 0.0273449 -0.008416801 -0.020685492 -0.06473365 0.12386213
0.036930136 -0.004492535 -0.06287687 -0.032849334 -0.00024672167 0.050330043 -0.034353282 -0.01160398
0.026934806 -0.0004634913 -0.041880827 0.051350538 0.0005307913 0.019315002 0.032988578 0.054025814
-0.045820627 0.035591885 0.014218347 0.013499181 0.008063088 0.022534966 -0.014317277 0.014523382
-0.026334245 0.0048602764 -0.07778589 0.015274425 -0.012504957 -0.0116475765 -0.094259046 0.06806479
0.02415085 -0.07258382 -0.020852143 -0.0050799195 -0.02876741 0.017511757 0.023221713 -0.04845891
-0.10033843 -0.016040115 0.09391043 0.054473408 0.021736126 0.029027032 -0.009058453 -0.021971054
-0.057257134 0.08200239 -0.057030283 -0.01684131 -0.081814416 -0.0073426 -0.0019182457 0.030173508
-0.0011952386 0.005916974 0.0141137 -0.024876868 -0.0007090716 0.05329868 0.018068198 -0.015431896
-0.022613822 0.0574015 -0.013885194 0.018763907 0.03402323 0.000925908 -0.023340428 -0.0126413
0.01771396 -0.0747105 0.07677901 -0.04139313 0.023144843 0.049715344 -0.018337978 0.021146992
0.03573196 0.0031681417 0.008869508 0.012531066 -0.010833412 0.0031869411 -0.051171403 0.034243178
-0.006121324 0.009650747 -0.00030346203 -0.071405075 0.0154732745 -0.020807428 -0.041441888 -0.022237593
0.03024399 -0.02467858 -0.017846799 0.005361667 -0.005561707 0.025265526 -0.024003996 -0.004617706
0.0387374 -0.033914264 0.017892981 0.0148646 -0.006932707 0.0022685616 -0.023890415 0.008311103
-0.039687987 -0.0061545586 -0.03821899 0.003318362 -0.0029807931 0.0123175075 -0.018183514 0.0024717653
-0.031887375 -0.013656752 -0.012173554 -0.015313972 -0.045275714 0.007136625 -0.048708078 0.0017586921
0.0006226485 -0.068038195 -0.0058321967 0.01380066 0.028110089 0.072432175 0.00812207 -0.024518255
-0.050102927 0.055199035 0.032654975 0.045084808 0.029640554 -0.028238352 -0.039658647 -0.057365835
0.06378787 -0.02537459 -0.011530226 0.04207509 -0.04154419 0.009339836 -0.039816476 -0.017665144
-0.03946791 -0.0034094863 0.012838038 -0.06445697 -0.019297322 0.0052990173 -0.024981359 0.06084573
-0.048106432 -0.021430053 -0.021034408 -0.018425427 0.036547042 0.047364615 0.01960769 0.061429434
-0.014842242 -0.04543148 0.0002998559 -0.007990994 -0.0014501923 -0.004456172 0.05094938 -0.029847696
0.025731806 0.08382844 -0.0030781794 -0.011549602 -0.07020283 -0.022044847 -0.06354192 0.02149637
-0.037645508 -0.014437639 0.024431754 -0.014044772 0.08414959 0.0051596 0.005237535 -0.00982418
0.0087367 -0.0555504 0.032139488 -0.017449554 0.031523336 0.0049678995 -0.055423416 -0.12429712
0.080304645 -0.02373161 0.0023474554 -0.05208893 -0.025891835 -0.034028776 -0.0024690432 0.05729886
0.053557668 0.055635843 0.032477073 -0.056372903 0.06606365 -0.0012603967 0.0576131 -0.027555555
-0.010095376 -0.022203105 0.0055144355 -0.017521761 -0.06932287 -0.017789729 -0.023529764 0.046691388
0.052860674 -0.02857733 0.03784289 0.02246801 -0.0076737097 0.020755418 0.02187765 -0.063730806
0.024068186 0.066906646 -0.031954747 0.0003326433 0.02563514 -0.044752378 -0.004161074 -0.011099705
00000000: bde0 4b3c c02a 5fbc 354b 61bb 68b9 85bc
00000010: 958b 1abd 155d 09bd 9681 363a 3e09 6a3d
00000020: 7c22 54bd 5469 703c 3c30 91bc 6902 e03c
00000030: 9fe6 09bc 9f74 a9bc 1393 84bd 6eab fd3d
00000040: 0e44 173d 1d36 93bb 97c5 80bd 068d 06bd
00000050: 6c5a 81b9 e026 4e3d 07b6 0cbd 9f1e 3ebc
00000060: 62a6 dc3c c000 f3b9 3b8b 2bbd f154 523d
00000070: cd24 0b3a 7f3a 9e3c 081f 073d 2c4a 5d3d
00000080: 69ae 3bbd ccc8 113d 12f4 683c ab2b 5d3c
00000090: 0b1b 043c 409b b83c 0393 6abc 7bf3 6d3c
000000a0: eaba d7bc f442 9f3b 354e 9fbd 9541 7a3c
000000b0: 97e1 4cbc 7ad5 3ebc e30a c1bd 8d65 8b3d
000000c0: 01d8 c53c d3a6 94bd 1dd2 aabc 7475 a6bb
000000d0: a2a9 ebbc d174 8f3c 763b be3c da7c 46bd
000000e0: 3c7e cdbd 8f66 83bc 1d54 c03d 821f 5f3d
000000f0: f60f b23c 19ca ed3c e869 14bc a4fc b3bc
00000100: 7586 6abd def0 a73d 9698 69bd c9f6 89bc
00000110: 518e a7bd 319a f0bb a56d fbba 6f2e f73c
00000120: 8da9 9cba 2de3 c13b 263d 673c 93ca cbbc
00000130: fde0 39ba b74f 5a3d c203 943c 10d6 7cbc
00000140: 9f40 b9bc d61d 6b3d ba7e 63bc c4b6 993c
00000150: f15b 0b3d a2b8 723a 6d34 bfbc 751d 4fbc
00000160: de1c 913c d201 99bd 503e 9d3d d88b 29bd
00000170: 419a bd3c 51a2 4b3d 8739 96bc 753c ad3c
00000180: ad5b 123d 99a0 4f3b 6a51 113c 1a4f 4d3c
00000190: a07e 31bc 00dc 503b 1b99 51bd 9342 0c3d
000001a0: 6395 c8bb 2b1e 1e3c fc19 9fb9 d33c 92bd
000001b0: 9e83 7d3c 5774 aabc f8be 29bd 9d2b b6bc
000001c0: 3ec2 f73c bc2a cabc 7333 92bc ecb0 af3b
000001d0: fb3e b6bb a6f9 ce3c 07a4 c4bc 2050 97bb
000001e0: 1cab 1e3d afe9 0abd 4d94 923c a78a 733c
000001f0: c32b e3bb 26ac 143b d5b5 c3bc 4b2b 083c
00000200: df8f 22bd 2eac c9bb 848b 1cbd e078 593b
00000210: 6959 43bb 5fcf 493c 98f5 94bc 57fd 213b
00000220: 569c 02bd 92c0 5fbc 9673 47bc 74e7 7abc
00000230: 0773 39bd 59da e93b 1f82 47bd ea83 e63a
00000240: 3c39 233a 9c57 8bbd 031c bfbb 2a1c 623c
00000250: 2147 e63c 5257 943d 6e12 053c 82da c8bc
00000260: ba38 4dbd 6218 623d 39c1 053d d9aa 383d
00000270: bfd0 f23c 1e54 e7bc 1b71 22bd 70f8 6abd
00000280: 37a3 823d 5fde cfbc 46e9 3cbc ee56 2c3d
00000290: 3e2a 2abd 1d06 193c 9a16 23bd 7eb6 90bc
000002a0: 1aa9 21bd b071 5fbb a256 523c 0402 84bd
000002b0: 6b15 9ebc 61a3 ad3b b5a5 ccbc 5f39 793d
000002c0: 400b 45bd 148e afbc 5a50 acbc ecf0 96bc
000002d0: 5ab2 153d 6601 423d 4ea0 a03c 6e9d 7b3d
000002e0: e02c 73bc 5c16 3abd fa35 9d39 a8ec 02bc
000002f0: 6114 beba 1505 92bb 4cb0 503d 2883 f4bc
00000300: 82cb d23c 3fae ab3d 48bb 49bb 8b3a 3dbc
00000310: 80c6 8fbd 6597 b4bc 4422 82bd 2819 b03c
00000320: 2d32 1abd d98b 6cbc 1a25 c83c 0b1c 66bc
00000330: 9f56 ac3d dd11 a93b a19f ab3b 99f5 20bc
00000340: 6024 0f3c d188 63bd b2a4 033d 5ef2 8ebc
00000350: 9d1e 013d c3c9 a23b aa03 63bd 7d8f febd
00000360: c376 a43d cb68 c2bc c4d7 193b 345b 55bd
00000370: 1d1b d4bc c261 0bbd accf 21bb 36b2 6a3d
00000380: 495f 5b3d 69e2 633d ae06 053d 46e7 66bd
00000390: 614c 873d e533 a5ba b7fb 6b3d 30bc e1bc
000003a0: 1367 25bc 49e3 b5bc 70b2 b43b cc89 8fbc
000003b0: 26f9 8dbd c4bb 91bc 7ec1 c0bc 783f 3f3d
000003c0: 6f84 583d 011b eabc 2501 1b3d d50e b83c
000003d0: be73 fbbb 4407 aa3c c238 b33c 4c85 82bd
000003e0: a52a c53c 5a06 893d fbe2 02bd a166 ae39
000003f0: c900 d23c 454e 37bd 9e59 88bb 89db 35bc
