Final Project/FacT-TK/clevr_count_best.pt (torch, 372503 bytes, 6 tensors)

FacTp f4 [32, 144]
-0.10671954 -0.25053328 0.069811575 -0.12194501 -0.11184466 -0.0338427 -0.1397421 -0.06029331
0.07430785 0.022588324 -0.0046137106 -0.03849781 0.082775876 -0.12555511 -0.12978409 0.23037529
0.19056801 0.085191436 -0.15496206 -0.060546916 -0.14242014 0.1006123 0.21022189 0.07265525
-0.19616476 -0.059152853 0.17716686 0.11428147 -0.1087334 0.15231296 0.071625516 0.0176938
-0.013248059 -0.07451124 -0.08838647 -0.1580214 -0.004908011 0.0596328 -0.004319862 0.056007322
-0.093982816 -0.032348547 0.11262018 -0.07583501 -0.11990857 0.13660337 -0.13338374 -0.14361736
0.10575208 -0.105360545 0.13502479 -0.09730168 -0.011783356 0.028291471 0.11009061 -0.09822609
0.14331831 0.004835967 -0.010941535 0.18293355 0.034786347 0.16258022 -0.12568615 0.17627671
0.20038956 -0.07920604 -0.071826614 -0.20179807 -0.07728356 -0.16860177 -0.108479716 0.047107525
-0.056200694 -0.16195887 0.040145315 -0.0048014997 -0.026974907 -0.16255678 0.045403972 -0.13961193
-0.121655636 0.020009536 -0.053258065 0.09680987 -0.16660348 0.0981808 -0.0047387034 0.20070906
0.048191458 0.15634511 0.057066724 0.01762097 0.08302284 0.19114779 0.13164176 -0.111862786
0.05518752 0.17913717 -0.08908232 0.09523269 -0.12651318 -0.17982493 -0.16508304 -0.047262337
0.11482599 0.12720363 0.10913704 -0.026787119 -0.17594926 0.06307888 -0.1182917 0.012480524
-0.13456257 -0.15384082 -0.13605922 0.119458005 -0.17883916 -0.023601625 0.14960743 -0.097867884
0.12381911 0.1925576 0.1254908 -0.13816336 -0.17637691 -0.010009033 0.122411944 -0.09298823
-0.018165097 0.21122931 -0.14232756 -0.09187402 -0.11376308 0.13635197 -0.086770386 -0.0976634
-0.10409755 0.09284117 0.17139205 0.102856904 0.14274113 -0.13348754 0.17927392 0.082371816
-0.00097574305 0.09500259 -0.069106 -0.112546295 -0.011786947 -0.009289395 -0.14521311 0.11348702
0.053103838 -0.29432046 -0.12143707 -0.13486627 0.03882489 -0.15711053 -0.04412383 0.1838652
-0.045781065 -0.08822956 0.05550502 -0.11259197 0.07412603 -0.15659148 -0.23175903 -0.10036309
0.012109037 0.0073984573 0.0076832697 -0.13835832 -0.10793828 -0.116343714 -0.20329402 -0.12750742
0.046951286 0.108661525 -0.17359342 0.026011609 -0.0020879526 0.03664696 0.0022856907 -0.17347333
0.09936146 -0.033055834 0.17159683 0.058791794 -0.15160252 -0.056196813 0.19183648 0.04477514
0.1444804 0.07377116 0.14402676 -0.028495023 0.09604331 0.0076280357 0.005925321 0.12376794
0.12390208 -0.10602668 -0.123629466 -0.11501402 -0.1524984 -0.1052042 0.1362089 0.08809417
-0.19297177 0.18250953 0.08639817 -0.023632908 0.20243569 0.026847273 0.040829748 0.21096139
0.14809056 0.07175962 0.085148185 -0.020702234 -0.099550836 0.15804407 -0.028153919 0.10965616
-0.17160414 -0.13480735 -0.03192028 0.013503054 -0.00010968693 -0.0023047081 0.07072317 -0.13184594
-0.0032119139 -0.05072544 -0.20359701 -0.1719724 -0.2115147 0.105708495 -0.04611632 0.108694874
-0.102210835 -0.20074974 -0.10562593 0.046298582 0.00092513976 0.2006117 -0.14906071 0.19507757
-0.20124392 -0.022510529 -0.13151771 -0.18829705 -0.11029364 0.048494678 -0.12705556 0.19442728
00000000: c68f dabd e645 80be 5ff9 8e3d 4ebe f9bd
00000010: d00e e5bd a59e 0abd 8e18 0fbe 1ef6 76bd
00000020: b72e 983d 260b b93c 9c2e 97bb e1af 1dbd
00000030: 6686 a93d 8591 00be 1fe6 04be 80e7 6b3e
00000040: 4324 433e d978 ae3d 60ae 1ebe 0b00 78bd
00000050: 96d6 11be d20d ce3d 6844 573e 47cc 943d
00000060: 6adf 48be 434a 72bd 3b6b 353e 670c ea3d
00000070: 9eaf debd eef7 1b3e 66b0 923d 97f2 903c
00000080: 630e 59bc 5999 98bd f703 b5bd 5dd0 21be
00000090: 61d3 a0bb 8641 743d a18d 8dbb ef67 653d
000000a0: 107a c0bd e97f 04bd 69a5 e63d 634f 9bbd
000000b0: a092 f5bd c1e1 0b3e bf95 08be 6e10 13be
000000c0: 8c94 d83d 45c7 d7bd f043 0a3e 1a46 c7bd
000000d0: fa0e 41bc 84c3 e73c 3077 e13d c32a c9bd
000000e0: 09c2 123e 0877 9e3b 2044 33bc ef52 3b3e
000000f0: 217c 0e3d 6e7b 263e dfb3 00be e281 343e
00000100: ec32 4d3e c736 a2bd d519 93bd 27a4 4ebe
00000110: d846 9ebd f1a5 2cbe 9d2a debd d2f3 403d
00000120: b332 66bd 8cd8 25be 6a6f 243d e655 9dbb
00000130: 7bfa dcbc 4975 26be 84f9 393d 6ef6 0ebe
00000140: 9726 f9bd 0aeb a33c 2125 5abd 4144 c63d
00000150: 1a9a 2abe 0413 c93d 2047 9bbb ad86 4d3e
00000160: 6864 453d ef18 203e ccbe 693d da59 903c
00000170: e107 aa3d 3fbc 433e 19cd 063e 5118 e5bd
00000180: 4f0c 623d bc6f 373e cb70 b6bd 5b09 c33d
00000190: ac8c 01be 0724 38be 870b 29be 2796 41bd
000001a0: e329 eb3d ab41 023e 3e83 df3d a970 dbbc
000001b0: 0b2c 34be 802f 813d eb42 f2bd 1d7b 4c3c
000001c0: c5ca 09be 7388 1dbe 1c53 0bbe 66a6 f43d
000001d0: 9d21 37be 3258 c1bc b132 193e f56e c8bd
000001e0: e094 fd3d d22d 453e a980 003e b27a 0dbe
000001f0: 269c 34be edfc 23bc 1db3 fa3d 9d70 bebd
00000200: f8ce 94bc 7f4c 583e 51be 11be 7228 bcbd
00000210: 9efc e8bd da9f 0b3e acb4 b1bd c003 c8bd
00000220: 1931 d5bd 8323 be3d 6681 2f3e a4a6 d23d
00000230: bb2a 123e f5b0 08be 9593 373e 8eb2 a83d
00000240: 02c9 7fba b890 c23d 7287 8dbd ac7e e6bd
00000250: 0a1e 41bc 8c32 18bc bfb2 14be e26b e83d
00000260: 6983 593d 2cb1 96be 00b4 f8bd 621a 0abe
00000270: d906 1f3d 95e1 20be 30bb 34bd 2947 3c3e
00000280: ed84 3bbd b3b1 b4bd 3b59 633d 9e96 e6bd
00000290: 63cf 973d 8459 20be 3d52 6dbe 2a8b cdbd
000002a0: fb64 463c c26e f23b f0c3 fb3b cead 0dbe
000002b0: bf0e ddbd 9d45 eebd 4f2c 50be 4e91 02be
000002c0: fe4f 403d ef89 de3d 79c2 31be 4c16 d53c
000002d0: 08d6 08bb 1f1b 163d 87cb 153b fea2 31be
000002e0: 057e cb3d 8e65 07bd 14b7 2f3e aacf 703d
000002f0: b13d 1bbe a12e 66bd c870 443e 2366 373d
00000300: acf2 133e 5515 973d c07b 133e 656e e9bc
00000310: 5bb2 c43d 9af4 f93b 3229 c23b 0c7a fd3d
00000320: 60c0 fd3d 8424 d9bd 7231 fdbd 788c ebbd
00000330: 8a28 1cbe 4d75 d7bd 597a 0b3e b76a b43d
00000340: 649a 45be c7e3 3a3e 86f1 b03d cd99 c1bc
00000350: 4d4b 4f3e d0ee db3c 183d 273d 4306 583e
00000360: 0da5 173e b5f6 923d 2c62 ae3d bb97 a9bc
00000370: 4fe1 cbbd 4ed6 213e 0ca3 e6bc 6993 e03d
00000380: ffb8 2fbe f00a 0abe d7be 02bd ea3b 5d3c
00000390: b907 e6b8 960a 17bb 4fd7 903d 9f02 07be
000003a0: f97e 52bb 7bc5 4fbd bc7b 50be 8819 30be
000003b0: 4f97 58be b27d d83d 77e4 3cbd 6b9b de3d
000003c0: ea53 d1bd 5791 4dbe 6852 d8bd 95a3 3d3d
000003d0: 1485 723a 276d 4d3e 5fa3 18be 6ac2 473e
000003e0: e312 4ebe 0068 b8bc 94ac 06be f1d0 40be
000003f0: a2e1 e1bd 5ba2 463d da1a 02be f217 473e

FacTc f4 [32, 32, 32]
-0.0029325206 0.043392424 -0.0084659 -0.010278709 -0.038366955 0.05370368 -0.03948154 -0.04619692
-0.009429179 -0.023788996 0.014639654 0.0045128525 0.0025522988 0.041492905 -0.0581385 -0.032742284
0.008323462 0.036291905 0.0019226957 0.028809639 -0.014009132 0.0046333857 0.042814553 0.025393607
0.04229836 0.006059079 0.028352585 0.06405198 0.03703339 0.04780575 -0.034535896 0.038969003
0.060735937 -0.06601652 -0.015523006 -0.050951216 0.014111103 -0.03546356 -0.11104017 0.08026609
0.0542935 0.0023182868 -0.02441174 -0.055667978 -0.005957626 0.009777802 0.036674175 0.015174505
-0.018671613 -0.02422389 -0.0550518 -0.03874883 -0.027618155 -0.0630616 -0.026894087 -0.0008928143
-0.013311112 -0.04384028 0.050425634 0.02732437 -0.021084515 -0.014178205 0.008247672 0.021365568
0.020422302 -0.047218382 0.021941815 -0.060280107 -0.025175184 0.005488862 0.047136806 -0.05783093
0.078907214 0.044715494 0.014994634 -0.020276623 -0.02926432 -0.00840709 -0.049616195 0.018072598
-0.008306553 0.04279949 0.0129231075 0.025943223 -0.07569179 0.0039588786 0.008059591 -0.011739745
-0.0412483 0.0050053676 0.03719563 -0.05287506 -0.012893759 -0.09385955 0.007862849 0.0041579916
-0.057285935 -0.033251785 -0.01275971 0.051125485 -0.014307925 -0.030347422 0.03699721 0.023212982
0.010528974 -0.07906882 0.032309897 0.033069875 0.022342507 0.07654168 -0.011774911 -0.013776519
0.045615315 -0.010706994 0.016367378 -0.07337128 0.00733761 0.015550613 -0.024651919 -0.03157131
0.09979575 0.033160098 -0.023085404 0.065032065 0.055754893 0.0029988014 0.062385432 0.0043200953
0.039901104 0.0030903856 -0.0025337904 0.016777782 -0.0653494 -0.06720842 0.08566278 0.050245363
0.04166583 -0.055390205 -0.02853493 0.0037483594 0.02731285 -0.030179908 0.001709627 0.012973872
0.014561648 -0.0065638972 -0.034611598 -0.008963341 -0.061620817 0.0029809303 0.009357832 0.018208686
-0.0038399813 0.038819276 0.029263437 0.000110293586 -0.035968322 0.03218964 0.0058468324 0.011900867
0.050247747 -0.06895145 0.009459807 0.0241546 -0.031020131 -0.03896667 -0.011635 -0.040704146
0.0013769431 0.06980107 -0.00063120027 0.034001853 -0.005782203 -0.036109466 -0.03998761 -0.07335042
-0.047245078 0.022822568 -0.03539217 0.023320312 -0.07296045 -0.06992153 -0.027358344 -0.00080111827
0.026699211 -0.054134138 -0.032264046 -0.009473484 -0.028748957 -0.035987817 -0.022678189 0.0347543
0.0048042852 -0.02114611 -0.0070960703 0.072926246 0.0091592865 -0.0538616 -0.06262399 0.00855827
-0.00714054 0.017692761 0.009806396 -0.025614578 0.08651458 0.046437804 -0.06994933 -0.017844716
-0.009495684 0.031349003 -0.016311694 -0.04554703 0.072949596 -0.06225649 -0.05561025 0.051537264
-0.022152828 -0.052496005 -0.013227578 -0.024048043 -0.024016328 0.0046221246 -0.041107316 -0.014295055
-0.013267409 -8.741737e-05 -0.06177112 0.026076566 0.06100149 0.009437149 0.04348458 -0.03536642
-0.010646805 -0.0761371 -0.038522102 0.061396535 0.027716009 0.021806901 -0.034724206 -0.055317055
0.049657784 -0.009622747 0.039251808 -0.021752646 0.066895075 -0.040418323 -0.052811597 -0.04429693
0.023886465 -0.013299931 0.045054197 0.06486505 -0.075103976 -0.014072532 0.006517225 -0.0031003808
00000000: 882f 40bb 41bc 313d 8fb4 0abc 0868 28bc
00000010: ab26 1dbd 64f8 5b3d 65b7 21bd fb38 3dbd
00000020: d87c 1abc 24e1 c2bc 29db 6f3c 8de0 933b
00000030: 7844 273b 77f4 293d a322 6ebd c61c 06bd
00000040: 215f 083c d2a6 143d f602 fc3a 3102 ec3c
00000050: 8f86 65bc a8d3 973b 505e 2f3d 4106 d03c
00000060: 0c41 2d3d 3d8b c63b ae43 e83c af2d 833d
00000070: 53b0 173d f6cf 433d 8375 0dbd f69d 1f3d
00000080: 3fc6 783d ab33 87bd 3554 7ebc 39b2 50bd
00000090: 4132 673c 3d42 11bd 0769 e3bd 8c62 a43d
000000a0: dc62 5e3d 66ee 173b 21fb c7bc 1b04 64bd
000000b0: 3038 c3bb 1333 203c a937 163d 7d9e 783c
000000c0: 36f5 98bc 2e71 c6bc ff7d 61bd 18b7 1ebd
000000d0: 783f e2bc 7126 81bd fd50 dcbc c10b 6aba
000000e0: da16 5abc de91 33bd 1c8b 4e3d 5bd7 df3c
000000f0: 6fb9 acbc b44b 68bc 3e21 073c d806 af3c
00000100: ac4c a73c 1068 41bd 52bf b33c 46e8 76bd
00000110: 303c cebc e9db b33b 8612 413d 20e0 6cbd
00000120: 1b9a a13d 9827 373d 0eac 753c 291b a6bc
00000130: babb efbc e4bd 09bc 5a3a 4bbd fc0c 943c
00000140: 3518 08bc 854e 2f3d 71bb 533c e286 d43c
00000150: 4c04 9bbd 7bb9 813b 600c 043c 0f58 40bc
00000160: faf3 28bd 1104 a43b 725a 183d 8593 58bd
00000170: 5840 53bc 7039 c0bd 2ed3 003c c33f 883b
00000180: a8a4 6abd 0633 08bd 1a0e 51bc f568 513d
00000190: c96b 6abc 289b f8bc 638a 173d 2729 be3c
000001a0: b881 2c3c d5ee a1bd 6257 043d 4774 073d
000001b0: a207 b73c e2c1 9c3d 8eeb 40bc e9b6 61bc
000001c0: 20d7 3a3d 636c 2fbc e114 863c af43 96bd
000001d0: 5570 f03b 00c8 7e3c d2f2 c9bc eb50 01bd
000001e0: b761 cc3d e2d2 073d 9a1d bdbc 882f 853d
000001f0: 3e5f 643d 8a87 443b de87 7f3d 968f 8d3b
00000200: 576f 233d 1188 4a3b f30d 26bb 8f71 893c
00000210: e8d5 85bd 91a4 89bd f86f af3d 15ce 4d3d
00000220: caa9 2a3d d7e0 62bd 16c2 e9bc 09a7 753b
00000230: 33bf df3c db3b f7bc 9015 e03a 5d90 543c
00000240: fa93 6e3c f615 d7bb e4c4 0dbd fada 12bc
00000250: 1c66 7cbd b65b 433b 9851 193c 622a 953c
00000260: 32a8 7bbb f600 1f3d e0b9 ef3c 6b4d e738
00000270: 8553 13bd 49d9 033d c996 bf3b dbfb 423c
00000280: 95d0 4d3d 6b36 8dbd 4efd 1a3c dedf c53c
00000290: ee1d febc 849b 1fbd baa0 3ebc 64b9 26bd
000002a0: 8b7a b43a ddf3 8e3d 2277 25ba 8745 0b3d
000002b0: a278 bdbb 85e7 13bd 0cca 23bd bf38 96bd
000002c0: 0e84 41bd 65f6 ba3c 61f7 10bd 3d0a bf3c
000002d0: 4a6c 95bd 0533 8fbd 9b1e e0bc 2302 52ba
000002e0: 4eb8 da3c c2bb 5dbd 4e27 04bd ac36 1bbc
000002f0: ef82 ebbc f667 13bd 9cc7 b9bc 865a 0e3d
00000300: 446d 9d3b 9b3a adbc 2786 e8bb 5b5a 953d
00000310: d510 163c fb9d 5cbd 0241 80bd fc37 0c3c
00000320: 31fb e9bb 69f0 903c 02ab 203c aad5 d1bc
00000330: 8e2e b13d 9135 3e3d 9841 8fbd 152f 92bc
00000340: c993 1bbc d067 003d 1aa0 85bc 868f 3abd
00000350: 9966 953d a900 7fbd 93c7 63bd bd18 533d
00000360: d979 b5bc 0d06 57bd 7cb8 58bc 6700 c5bc
00000370: e4bd c4bc 3175 973b 2560 28bd ce35 6abc
00000380: 8c5f 59bc d853 b7b8 b703 7dbd 869e d53c
00000390: b3dc 793d 469e 1a3c e31c 323d 61dc 10bd
000003a0: f06f 2ebc c5ed 9bbd 5ac9 1dbd ef7a 7b3d
000003b0: af0c e33c 63a4 b23c f83a 0ebd 2394 62bd
000003c0: f665 4b3d baa8 1dbc 81c6 203d 9b32 b2bc
000003d0: 4900 893d af8d 25bd f950 58bd b370 35bd
000003e0: 8cad c33c f4e7 59bc c08a 383d f8d7 843d
000003f0: 1dd0 99bd 7a90 66bc 728e d53b c22f 4bbb

head.weight f4 [8, 768]
-0.081448026 -0.014203932 0.13319428 0.036309417 0.07090124 0.083753504 -0.103140175 -0.08189548
-0.104617245 -0.006299209 0.015989183 -0.07715929 0.018796245 -0.05424831 -0.008779044 0.1466071
0.08226687 -0.014800094 0.0034855842 -0.09014085 0.053189207 0.064194 -0.011126984 0.0053131264
-0.015925009 -0.021987475 0.024515303 0.05016526 -0.04747841 -0.08357266 -0.03374159 -0.11915717
-0.14611064 -0.010750274 0.006560552 0.048710234 -0.025197705 0.06182545 -0.05987455 -0.026484925
-0.00843293 -0.049854837 -0.07234782 -0.1373622 0.017597616 -0.009350927 -0.068128675 0.039929636
-0.013111468 -0.037641756 0.046640806 -0.10112227 0.054995127 -0.08535975 -0.11408818 0.037463024
0.06968621 -0.054423496 -0.02532793 0.06767644 0.09796605 -0.14747624 -0.05496463 0.17205943
0.03252974 -0.027962469 -0.00832344 0.051660433 0.013572451 0.098725915 -0.04221328 -0.11784153
-0.07449879 -0.055948753 -0.029906709 -0.15468054 -0.06441657 0.009897301 0.03841541 -0.007593144
-0.041070852 -0.047248088 -0.02722163 -0.09535798 0.06424239 -0.04731938 -0.03200705 0.08576985
0.04695223 0.078408994 -0.032819342 -0.13245639 0.024700982 -0.018419966 0.0044420315 0.063714296
-0.065838404 -0.06870358 -0.033262763 -0.04208919 -0.0550634 0.010092944 0.07291102 0.02708956
0.08444934 -0.072835214 -0.08380426 -0.068128236 0.0762341 0.07284516 0.076713726 -0.015241762
0.06256997 0.004011234 0.12823278 0.009728391 0.00406313 0.08421716 -0.0068926667 -0.085051134
0.048023082 0.064232945 -0.025502248 0.09002233 -0.0626621 -0.118573494 0.074136466 0.06343014
-0.055479195 0.01629235 0.08180579 0.006245514 -0.053771723 0.020763727 -0.0028209242 -0.05779905
0.038627375 -0.12406216 0.07496897 -0.10627471 0.026057051 -0.06771658 0.08222298 -0.05727961
-0.02168262 -0.004481239 0.009589358 0.07660368 0.04797575 -0.09822553 -0.047129564 -0.02728506
-0.023655314 -0.04229199 -0.048294656 -0.0921613 -0.020435374 0.111773685 0.03896394 -0.012677329
0.050845534 0.047635704 0.010492232 0.12574674 -0.13898224 -0.067024805 -0.060555927 0.17103548
0.023819579 -0.00057871814 -0.004008304 -0.037346035 -0.023058735 -0.0002855021 0.09271995 0.1215033
-0.03973426 0.11267502 0.010775179 -0.0005086326 0.09091369 0.119450726 -0.13342474 0.08114397
-0.020477112 -0.018019494 0.05610859 -0.067384824 -0.0577753 -0.05679231 0.028442882 0.022044847
-0.09087148 0.09777829 0.054001153 0.008823737 0.090347014 -0.033972114 -0.049020275 -0.07570305
0.00669721 -0.043807283 -0.07232594 -0.037268844 0.031998064 -0.08823393 0.09882445 0.019945752
0.005219027 -0.14336398 -0.032857463 -0.032777578 0.06528193 0.054604035 0.07907582 -0.123570606
-0.1568192 -0.11855146 0.1607691 0.15093327 0.08719932 -0.039422587 -0.09917387 -0.06382226
0.098399706 -0.13171898 0.07798859 -0.007830888 0.0034192135 -0.039642066 -0.008225387 0.00026691522
-0.06349839 -0.06104849 -0.059223022 0.005580429 -0.0001287433 -0.14182954 0.004430621 -0.041043967
-0.062348545 -0.10749289 0.04917096 -0.050757 -0.048096165 -0.0842702 -0.054438863 -0.040179852
0.040437367 0.05052974 -0.06305633 0.17810966 0.1020327 -0.052021865 -0.037222438 -0.07788381
00000000: 39ce a6bd 9cb7 68bc 1564 083e 2fb9 143d
00000010: ab34 913d f586 ab3d 283b d3bd d1b8 a7bd
00000020: 9141 d6bd 9869 cebb bffb 823c b105 9ebd
00000030: 95fa 993c 7a33 5ebd fbd5 0fbc 2c20 163e
00000040: 887b a83d 187c 72bc 666e 643b c49b b8bd
00000050: eddc 593d 2578 833d f44d 36bc bc19 ae3b
00000060: 2a75 82bc 141f b4bc 51d4 c83c 167a 4d3d
00000070: b978 42bd 2528 abbd 9f34 0abd ad08 f4bd
00000080: 079e 15be eb21 30bc e6f9 d63b 6284 473d
00000090: 6b6b cebc af3c 7d3d 043f 75bd eaf6 d8bc
000000a0: 462a 0abc 9634 4cbd 182b 94bd ada8 0cbe
000000b0: e028 903c a134 19bc 0c87 8bbd 428d 233d
000000c0: 7cd1 56bc 3e2e 1abd 6e0a 3f3d 3119 cfbd
000000d0: 9242 613d 18d1 aebd 10a7 e9bd d472 193d
000000e0: a5b7 8e3d 2ceb 5ebd 857c cfbc f299 8a3d
000000f0: 6da2 c83d 0304 17be 9822 61bd 5930 303e
00000100: e83d 053d 8c11 e5bc 0a5f 08bc e499 533d
00000110: fc5e 5e3c d030 ca3d d5e7 2cbd e656 f1bd
00000120: d292 98bd 852a 65bd eafe f4bc 9364 1ebe
00000130: d6ec 83bd 4a28 223c 7a59 1d3d e9cf f8bb
00000140: e939 28bd 3687 41bd e5ff debc 0b4b c3bd
00000150: 8491 833d f7d1 41bd d319 03bd 1aa8 af3d
00000160: fb50 403d e594 a03d 936d 06bd a6a2 07be
00000170: b759 ca3c 78e5 96bc 768e 913b a47c 823d
00000180: 49d6 86bd 76b4 8cbd 893e 08bd b765 2cbd
00000190: 298a 61bd e05c 253c 5f52 953d edea dd3c
000001a0: c7f3 ac3d a12a 95bd 91a1 abbd d186 8bbd
000001b0: a020 9c3d d82f 953d 161c 9d3d 95b8 79bc
000001c0: af24 803d ab70 833b 744f 033e d463 1f3c
000001d0: 0124 853b 0c7a ac3d e1db e1bb 4a2f aebd
000001e0: dab3 443d 908c 833d 17ea d0bc a15d b83d
000001f0: fd54 80bd a9d6 f2bd dcd4 973d a9e7 813d
00000200: 273e 63bd 8977 853c cb89 a73d 2ba7 cc3b
00000210: bd3f 5cbd b118 aa3c 41df 38bb b2be 6cbd
00000220: bd37 1e3d 4d14 febd 5589 993d 8ea6 d9bd
00000230: 9975 d53c feae 8abd 8664 a83d 069e 6abd
00000240: c09f b1bc 5bd7 92bb af1c 1d3c 64e2 9c3d
00000250: 3882 443d 772a c9bd ee0a 41bd eb84 dfbc
00000260: cac8 c1bc 5e3a 2dbd 9ed0 45bd 10bf bcbd
00000270: 1668 a7bc 9ae9 e43d a798 1f3d 92b4 4fbc
00000280: 6843 503d a81d 433d 9ce7 2b3c c1c3 003e
00000290: 5c51 0ebe 4d44 89bd 7e09 78bd ed23 2f3e
000002a0: 4721 c33c 1eb5 17ba 1758 83bb 28f8 18bd
000002b0: ace5 bcbc 71af 95b9 f5e3 bd3d b9d6 f83d
000002c0: 64c0 22bd 29c2 e63d 608a 303c c255 05ba
000002d0: f530 ba3d 95a2 f43d 7fa0 08be cf2e a63d
000002e0: 9ebf a7bc 9e9d 93bc 1fd2 653d 0e01 8abd
000002f0: cba5 6cbd 0e9f 68bd 0c01 e93c 6597 b43c
00000300: d41a babd fc3f c83d 5030 5d3d 6f91 103c
00000310: db07 b93d 5826 0bbd 7cc9 48bd 330a 9bbd
00000320: 4574 db3b 446f 33bd 9f1f 94bd 37a7 18bd
00000330: 6710 033d feb3 b4bd 7964 ca3d 4665 a33c
00000340: 5f04 ab3b 02ce 12be 8c95 06bd c841 06bd
00000350: 88b2 853d 7ba8 5f3d 81f2 a13d 9612 fdbd
00000360: 3695 20be 1ccb f2bd a8a0 243e 408e 1a3e
00000370: 8f95 b23d 9479 21bd ac1b cbbd 3fb5 82bd
00000380: c985 c93d 57e1 06be 7bb8 9f3d 204d 00bc
00000390: e214 603b b85f 22bd c6c3 06bc c1f0 8b39
000003a0: 720b 82bd fb0d 7abd d793 72bd 08dc b63b
000003b0: 44ff 06b9 c33b 11be be2e 913b b81d 28bd
000003c0: 3061 7fbd 3b25 dcbd 7d67 493d 92e6 4fbd
000003d0: 7c00 45bd db95 acbd 49fb 5ebd a193 24bd
000003e0: a7a1 253d 46f8 4e3d ad23 81bd 6162 363e
000003f0: 85f6 d03d e114 55bd 8e76 18bd 8c81 9fbd

head.bias f4 [8]
0.0039302283 -0.0034129415 -0.039708503 -0.03891381 0.022370134 0.009801936 -0.013110643 -0.004590529
00000000: 25c9 803b a8ab 5fbb 62a5 22bd 1664 1fbd
00000010: 9241 b73c 4d98 203c 06ce 56bc 266c 96bb

FacTu.weight f4 [32, 768]
-0.0028149013 0.0012387946 0.050679296 0.0148999365 0.0012848084 0.030701183 0.035987727 0.0057071247
0.054876894 -0.020632192 0.011699149 -0.042311173 0.031454958 -0.002350353 0.014819461 0.026209228
-0.054966487 0.06140415 0.0047969515 -0.008783116 0.04173496 0.0045427415 0.041197777 -0.0043105087
0.04482317 -0.022201067 -0.035317037 -0.018568367 0.01784832 0.03851528 0.037905887 -0.054669835
0.0019048374 0.009206776 0.015453219 0.01821908 0.024458386 0.022022052 -0.0004632926 0.0123411305
0.007034947 0.028391298 0.00105014 -0.042092316 0.019700408 0.0011103401 -0.008454704 0.04296124
0.033649933 0.0067471857 -0.0024427837 -0.017458506 -0.011940696 0.0050040833 0.005813339 0.046515062
0.008020122 -0.056782767 -0.0014623015 -0.027519152 -0.003829156 0.0002425361 0.036656868 0.007032277
-0.026020812 -0.01184988 0.027897937 -0.029393801 -0.03422662 0.01796241 0.0027683356 0.018026639
-0.036117323 -0.002802532 -0.020069987 0.0010097618 0.074819885 0.008433589 0.004991876 -0.00046173608
0.024355331 -0.010108594 0.024125112 -0.021715954 -0.06940252 0.011328395 -0.015484645 -0.028800018
-0.03990023 0.0150894355 -0.057725355 0.02841586 -0.035462342 -0.008835952 0.060108613 -0.0751299
0.042762443 -0.029102651 0.01250514 0.0105100805 0.012328617 -0.010232606 -0.022097507 -0.020785525
-0.03894078 -0.029637713 0.020340346 0.04687896 0.0543162 0.03554118 -0.029179694 -0.04293784
0.07801164 0.0457729 -0.035312634 -0.02877369 0.0020082546 0.01781453 -0.0096071325 -0.033385605
0.031579535 0.10750807 0.04814928 -0.0062245275 -0.026672238 0.027038645 0.007200862 0.021177914
-0.008233591 0.0061524543 0.021229547 0.008901095 -0.01946421 -0.048520397 0.0083286585 0.011146519
-0.060437683 0.050304282 -0.008360334 0.011515215 -0.032067176 -0.042467937 -0.013305317 -0.024871137
0.030108752 0.04506032 -0.014744709 -0.047457635 -0.03941569 -0.030485718 0.01045508 0.0020015966
0.010027479 -0.0021521861 0.032098636 0.017658208 0.012296703 -0.072335735 0.08207406 0.007029261
0.0041186633 0.027381282 -0.025809435 -0.037031043 -0.0157661 0.017004762 -0.016648857 0.026918592
0.03373614 -0.0010152314 -0.038491234 -0.044300016 0.035495616 0.032064185 0.028783781 0.0027185385
0.009494767 -0.03264118 -0.016957121 -0.0022380287 0.051721625 0.011945748 -0.028037922 -0.08335702
-0.01678587 -0.031705353 -0.048157122 0.07300167 -0.016435685 -0.0126926005 -0.029455205 -0.019022312
-0.010005886 0.02277552 -0.01035324 0.01845033 -0.006342377 -0.039602943 0.014107553 -0.021345396
-0.00394831 0.010762262 0.009036917 -0.033213448 0.030867698 -0.014772788 -0.017923709 -0.0042431937
0.0004022604 0.026243817 -0.004264262 -0.02669223 -0.01365602 0.024894755 -0.008883987 -0.0759818
0.037036728 -0.08056446 0.0108511485 -0.033937417 0.040461365 0.004846021 0.013928185 -0.015369839
-0.036753684 0.07035262 -0.011824345 0.01796259 -0.056545243 0.05034934 0.024339443 -0.035592295
-0.04932663 -0.033102255 0.018799823 0.05151814 0.03187087 -0.0060788617 0.031171989 0.044864915
-0.040858828 -0.06789266 0.008962582 0.003079037 -0.019846426 0.0005566004 0.012009198 0.014733113
0.0014711262 -0.033993833 -0.026637414 0.00041329686 -0.054197375 -0.050964754 0.031082928 -0.005972929
00000000: 357a 38bb 0d5f a23a 1895 4f3d dd1e 743c
00000010: 0467 a83a 0c81 fb3c de67 133d d502 bb3b
00000020: 98c6 603d d804 a9bc caad 3f3c 7b4e 2dbd
00000030: ead6 003d 6108 1abb 53cd 723c bcb4 d63c
00000040: 8a24 61bd eb82 7b3d bf2f 9d3b 0fe7 0fbc
00000050: 47f2 2a3d 47db 943b 00bf 283d 2b3f 8dbb
00000060: 8098 373d 03df b5bc 99a8 10bd b01c 98bc
00000070: a436 923c 33c2 1d3d 3443 1b3d 7aed 5fbd
00000080: bdab f93a 04d8 163c 802f 7d3c 2e40 953c
00000090: f45c c83c 9767 b43c 15e6 f2b9 7432 4a3c
000000a0: 6a85 e63b de94 e83c daa4 893a fe68 2cbd
000000b0: c062 a13c d588 913a 9985 0abc 20f8 2f3d
000000c0: 83d4 093d 7f17 dd3b 1c17 20bb 2405 8fbc
000000d0: e9a2 43bc 4bf9 a33b d27d be3b 9486 3e3d
000000e0: d466 033c 0c95 68bd b2aa bfba d86f e1bc
000000f0: 94f2 7abb 4a51 7e39 8325 163d 046f e63b
00000100: 9929 d5bc 0026 42bc 378a e43c 45cb f0bc
00000110: 3631 0cbd e725 933c f76c 353b 9aac 933c
00000120: c2ef 13bd afaa 37bb d069 a4bc fc59 843a
00000130: 2b3b 993d 092d 0a3c e492 a33b 2b15 f2b9
00000140: d584 c73c 849e 25bc 07a2 c53c a8e5 b1bc
00000150: e922 8ebd bc9a 393c 4fb3 7dbc 04ee ebbc
00000160: 6c6e 23bd ae39 773c 6c71 6cbd 61c8 e83c
00000170: f640 11bd abc4 10bc 7334 763d b4dd 99bd
00000180: ac27 2f3d af68 eebc 5ce2 4c3c 7932 2c3c
00000190: f8fd 493c a9a6 27bc d505 b5bc 6846 aabc
000001a0: 5e80 1fbd caca f2bc cca0 a63c 2704 403d
000001b0: aa7a 5e3d a193 113d 410a efbc 97df 2fbd
000001c0: 91c4 9f3d 5d7c 3b3d fba3 10bd cdb6 ebbc
000001d0: ec9c 033b c7ef 913c 3c67 1dbc 58bf 08bd
000001e0: 8b59 013d 312d dc3d 2e38 453d 1ff7 cbbb
000001f0: bd7f dabc 2680 dd3c 35f5 eb3b 4e7d ad3c
00000200: 2fe6 06bc 879a c93b 96e9 ad3c e6d5 113c
00000210: 6873 9fbc 53bd 46bd ed74 083c e49f 363c
00000220: 818d 77bd dd0b 4e3d c8f9 08bc 50aa 3c3c
00000230: df58 03bd dcf2 2dbd 8bfe 59bc 8ebe cbbc
00000240: a1a6 f63c 2c91 383d cb93 71bc f062 42bd
00000250: 5972 21bd 2fbd f9bc c94b 2b3c 382d 033b
00000260: 4c4a 243c b10b 0dbb dc79 033d f2a7 903c
00000270: 1c78 493c c224 94bd 7216 a83d b755 e63b
00000280: daf5 863b b64e e03c 4f6e d3bc ddad 17bd
00000290: e827 81bc 924d 8b3c 2f63 88bc 6184 dc3c
000002a0: e82e 0a3d 8311 85ba fca8 1dbd ef73 35bd
000002b0: da63 113d bc55 033d f7cb eb3c 8229 323b
000002c0: f08f 1b3c c2b2 05bd a9e9 8abc e4ab 12bb
000002d0: 0eda 533d 19b8 433c c9af e5bc 16b7 aabd
000002e0: 8582 89bc 79dd 01bd 6740 45bd e681 953d
000002f0: 21a4 86bc a0f4 4fbc 0b4c f1bc aed4 9bbc
00000300: baef 23bc ba93 ba3c a3a0 29bc 2525 973c
00000310: b7d3 cfbb b236 22bd 5e23 673c 8adc aebc
00000320: d360 81bb 3354 303c 940f 143c d30a 08bd
00000330: 41de fc3c 9009 72bc bed4 92bc 7d0a 8bbb
00000340: 7ae6 d239 46fd d63c 39bb 8bbb aaa9 dabc
00000350: 80bd 5fbc 16f0 cb3c 248e 11bc 599c 9bbd
00000360: d3b3 173d fbfe a4bd 04c9 313c f601 0bbd
00000370: d1ba 253d 5fcb 9e3b 0b33 643c c7d1 7bbc
00000380: 088b 16bd 0915 903d e6ba 41bc 4826 933c
00000390: fc9b 67bd 1c3b 4e3d 8363 c73c 3ac9 11bd
000003a0: b80a 4abd 3b96 07bd 1602 9a3c af04 533d
000003b0: 088b 023d 3031 c7bb 665c ff3c 46c4 373d
000003c0: 965b 27bd 4f0b 8bbd cbd7 123c abc9 493b
000003d0: f994 a2bc d2e8 113a 3ac2 443c 2863 713c
000003e0: ced2 c03a 1e3d 0bbd b536 dabc c4af d839
000003f0: 11fe 5dbd 6bc0 50bd a0a1 fe3c 8fb8 c3bb

FacTv.weight f4 [768, 32]
-0.00024087081 -0.010442884 -0.019129355 0.0051408596 -0.044166777 -0.021439824 -0.00067273166 0.010824146
0.0009854387 0.0025856805 -0.0038091454 0.01625781 -0.0057055526 -0.00026658043 0.012474969 -0.032006238
-0.000998214 0.046169076 -0.0074965917 -0.010975559 2.9881183e-05 0.001913003 0.00643799 0.016803747
-0.02282497 -0.003344461 -0.014844934 -0.00462745 -0.018515801 0.022648785 -0.01028791 0.0048761005
0.024050336 0.0044576 -0.002007837 0.033001356 0.02905585 -0.043352097 0.028550874 -0.0014023584
-0.010477059 0.0060565146 -0.067700334 0.012371787 -0.037351325 0.0063149286 0.005100195 0.0016248446
-0.004058541 -0.0051808995 -0.0057935133 -0.014451197 0.051476713 0.005883112 0.00072163244 -0.006255312
0.014531145 0.012669593 0.008819811 0.018808212 -0.018924832 -0.013203008 0.03152215 -0.0021335988
0.047176722 0.007780006 0.0119785825 0.02167153 0.006980504 0.011907435 -0.03329243 0.017244527
0.03540184 -0.023443514 -0.027882213 -0.01140716 -0.027542213 0.008503384 -0.010101409 -0.020750232
0.009920243 -0.0044353013 -0.000616505 -0.010342202 0.028600479 0.027853034 -0.020375034 -0.016326837
0.03631209 -0.009484047 0.013646413 0.00038191417 -0.0031983028 0.031796176 0.023955293 -0.004952488
0.016382415 -1.0495249e-05 -0.029079502 0.0375656 -0.0034033225 -0.031300526 0.036517568 0.022733644
0.009312131 0.011487199 -0.014777556 0.010113812 -0.0041099624 0.034268036 -0.023994643 0.02219953
-0.01628368 -0.03298526 0.014616697 -0.0004880762 0.004637178 0.038382564 -0.025640989 -0.008282869
0.012484701 0.0026210698 -0.00018307586 -0.012976168 0.03578263 0.03794079 -0.00783352 0.029265592
0.020396894 -0.007704777 0.023541415 -0.013342383 0.026751135 -0.024550432 -0.0015733734 -0.00086550607
-0.009692405 0.008661308 -0.009800687 -0.01160394 -0.0065560513 0.00035730324 -0.013908217 0.004733649
0.009902092 -0.0071397005 0.02925195 -0.020399349 0.0017307571 -0.01534322 -0.01605252 0.027844734
0.008257349 -0.022325728 -0.012181165 0.022297725 -0.019288413 -0.012340036 -0.005671143 -0.0040478683
0.01168085 0.004712041 0.0018159526 0.029940842 0.007840961 0.007163545 0.039734434 0.0051374524
0.032121375 0.0032319224 -0.01372393 -0.011336516 -0.026088174 -0.0034604925 -0.009728155 -0.016464816
0.026294407 -0.028658967 0.035637964 -0.03889372 -0.0059109917 0.03372756 -0.015233647 0.0029525524
0.00753075 -0.03295103 0.011249412 0.0040298877 -0.022682326 -0.0004899471 -0.028588418 -0.0002623192
0.014216814 -0.0038272012 -0.013296028 -0.026857482 0.010604541 -0.002618526 -0.011742552 -0.015933208
-0.009091238 0.00875889 -0.013169596 0.01252346 0.0012156215 0.00022827502 0.010847876 0.0026254961
-0.037206892 -0.0010344764 -0.021952637 0.01618087 0.011540364 -0.005683845 0.00559221 0.007010754
0.032279592 0.01577472 -0.006118002 0.010542216 -0.018544253 -0.0030740274 0.0077404324 -0.02840872
-0.04395211 0.0046241563 0.04369476 0.02459025 0.005762013 -0.005236634 -0.012517035 -0.03770072
0.035504628 -0.0260275 0.023700643 -0.020917527 0.009509368 0.016217655 -0.011588407 0.014490466
0.016743781 0.0021151805 -0.009877523 0.018511875 -0.055163197 -0.04527484 0.0066767386 0.010978138
-0.0033456292 0.005780644 -0.02061098 0.032866932 -0.04770152 -0.00241442 -0.028685967 0.04191465
00000000: 4492 7cb9 a118 2bbc 2ab5 9cbc a874 a83b
00000010: 39e8 34bd 92a2 afbc 425a 30ba c257 313c
00000020: d629 813a 8574 293b dba2 79bb 192f 853c
00000030: a5f5 babb d2c3 8bb9 d063 4c3c f918 03bd
00000040: 81d6 82ba c91b 3d3d f8a5 f5bb d5d2 33bc
00000050: 5aa9 fa37 bbbd fa3a c6f5 d23b 03a8 893c
00000060: 6efb babc bf2e 5bbb 2b38 73bc dda1 97bb
00000070: 73ae 97bc f289 b93c 9f8e 28bc b2c7 9f3b
00000080: 3605 c53c 0f11 923b ea95 03bb 6e2c 073d
00000090: 8906 ee3c f891 31bd 86e3 e93c 57cf b7ba
000000a0: f8a7 2bbc ba75 c63b 79a6 8abd 09b3 4a3c
000000b0: b4fd 18bd 76ed ce3b 891f a73b bdf8 d43a
000000c0: 82fd 84bb 89c4 a9bb 83d7 bdbb b7c4 6cbc
000000d0: 3fd9 523d 1fc7 c03b ef2b 3d3a 5cf9 ccbb
000000e0: 0a14 6e3c 2094 4f3c f880 103c ae13 9a3c
000000f0: 4008 9bbc 6e51 58bc 5f1d 013d d9d3 0bbb
00000100: 613c 413d 6cef fe3b d141 443c 7e88 b13c
00000110: b6bc e43b 6717 433c a55d 08bd 6544 8d3c
00000120: 8501 113d 9d0c c0bc 3d69 e4bc 19e5 3abc
00000130: 35a0 e1bc c751 0b3c 6180 25bc 64fc a9bc
00000140: 8488 223c 0156 91bb f39c 21ba 5772 29bc
00000150: 8d4b ea3c 0c2c e43c 8be9 a6bc dcbf 85bc
00000160: fcbb 143d fa62 1bbc 3495 5f3c a73b c839
00000170: 9e9a 51bb b53c 023d e43d c43c 7b48 a2bb
00000180: 6a34 863c c014 30b7 2338 eebc 63de 193d
00000190: 470a 5fbb fb34 00bd 7293 153d e83b ba3c
000001a0: e991 183c ce34 3c3c 901d 72bc 67b4 253c
000001b0: ddac 86bb a45c 0c3d 6a90 c4bc cadb b53c
000001c0: 5a65 85bc 8d1b 07bd df7a 6f3c 7be4 ffb9
000001d0: 78f3 973b 0937 1d3d 0d0d d2bc dfb4 07bc
000001e0: a28c 4c3c 41c6 2b3b 0df8 3fb9 fe99 54bc
000001f0: cf90 123d cd67 1b3d 2a58 00bc 65be ef3c
00000200: 6317 a73c 5b78 fcbb edd9 c03c 039a 5abc
00000210: 3225 db3c fd1d c9bc a739 ceba 21e3 62ba
00000220: e5cc 1ebc 29e8 0d3c 1093 20bc 741e 3ebc
00000230: 25d4 d6bb 6e54 bb39 4adf 63bc ba1c 9b3b
00000240: 623c 223c 26f4 e9bb c9a1 ef3c 891c a7bc
00000250: 92da e23a 2162 7bbc 9380 83bc a41a e43c
00000260: d549 073c 72e4 b6bc 8293 47bc b8a9 b63c
00000270: bc02 9ebc dd2d 4abc ffd4 b9bb fba3 84bb
00000280: 0961 3f3c 7767 9a3b 4205 ee3a 7f46 f53c
00000290: 6077 003c 2cbc ea3b 93c0 223d 1358 a83b
000002a0: b491 033d a9ce 533b 56da 60bc cbbc 39bc
000002b0: deb6 d5bc 6ec9 62bb d762 1fbc 39e1 86bc
000002c0: 5e67 d73c 36c6 eabc 1df9 113d 054f 1fbd
000002d0: feb0 c1bb e925 0a3d 8c96 79bc 9c7f 413b
000002e0: 82c4 f63b a9f7 06bd 744f 383c 260d 843b
000002f0: 49d0 b9bc cb6f 00ba 4232 eabc e387 89b9
00000300: a4ed 683c c8d1 7abb 95d7 59bc 3904 dcbc
00000310: abbe 2d3c 949b 2bbb d563 40bc 5c86 82bc
00000320: 6af3 14bc 7381 0f3c 4ac5 57bc 332f 4d3c
00000330: 7d55 9f3a 1c5d 6f39 4abb 313c 8410 2c3b
00000340: 4166 18bd 4597 87ba 04d6 b3bc be8d 843c
00000350: cb13 3d3c 8c3f babb dc3e b73b 78ba e53b
00000360: 9b37 043d fc39 813c 8579 c8bb 42b9 2c3c
00000370: 1eea 97bc 9f75 49bb 74a3 fd3b 67b9 e8bc
00000380: 2107 34bd 3c86 973b 47f9 323d 7e71 c93c
00000390: 45cf bc3b 1298 abbb 4014 4dbc 126c 1abd
000003a0: 4d6d 113d a037 d5bc da27 c23c 3c5b abbc
000003b0: 2ecd 1b3c e3da 843c 4ddd 3dbc 6b69 6d3c
000003c0: 412a 893c d79e 0a3b 56d5 21bc 37a6 973c
000003d0: cef2 61bd 1c72 39bd 8bc8 da3b a6dd 333c
000003e0: 5842 5bbb 8e6b bd3b 5cd8 a8bc 7a9f 063d
000003f0: ab62 43bd 3f3b 1ebb d5fe eabc b2ae 2b3d
