Final Project/FacT-TK/clevr_dist_best.pt (torch, 144151 bytes, 6 tensors)

FacTp f4 [16, 144]
0.09468813 -0.14483929 -0.0006708579 0.18663453 0.012376608 0.023172628 0.10581588 -0.02345253
-0.29243553 -0.15496126 -0.053777467 -0.1668048 -0.11526898 0.02166146 -0.23151517 -0.02790427
0.14254484 -0.14304654 -0.032453787 -0.026197305 -0.0023237315 0.07671439 0.030063 0.030585172
0.061413836 0.029769039 -0.10697613 0.13025884 0.10962058 0.22693552 -0.033497103 -0.21032073
0.18793005 -0.18048814 0.21728514 -0.13516252 0.034362696 -0.13581122 0.17190672 0.09131164
0.16934505 0.011035023 0.14307141 0.035418104 -0.038444694 0.20229599 0.22393996 -0.049650643
0.12621805 0.18196297 0.22509272 0.00075242604 -0.004934326 -0.06420099 -0.0073261643 0.12545297
0.14090091 -0.033647455 0.18092309 -0.10760117 0.15644939 -0.1882022 -0.19601487 -0.20284255
-0.19866817 -0.032610986 0.08722716 0.18589918 0.22580747 0.09135285 -0.11580754 -0.102809295
0.058989987 -0.11967944 0.10208482 -0.006394392 -0.17588405 0.06548567 -0.0022606242 0.11986829
0.008443729 -0.13278803 0.1058186 -0.11869954 0.16134594 -0.06463954 0.08539639 -0.04758357
0.17036863 -0.043128394 0.03365803 -0.083038256 -0.03852 0.21320085 -0.009920561 0.10448977
-0.101404436 0.15722747 0.060461648 0.026236216 0.086766586 -0.038813278 -0.18939026 0.14482312
-0.08067359 -0.20310599 -0.25420594 0.08239088 0.18035543 0.13438344 0.1444039 -0.1747632
0.040957414 -0.00039983637 -0.035851832 0.006725487 0.21999238 -0.13791107 0.053753488 -0.19710082
0.0082864845 -0.062469438 0.23086405 -0.23070301 -0.10077199 -0.19111541 0.18662208 0.1350321
-0.19355717 -0.056950614 0.12862244 -0.13914941 -0.18225287 -0.19953808 0.0961246 -0.15114717
-0.07335882 0.16082056 0.019090205 -0.2632222 -0.0062550236 -0.20276953 0.19625938 0.059738625
0.076932736 -0.056720417 0.2041521 -0.24104574 0.15680605 -0.12185904 0.13258749 0.016413603
0.1345118 -0.10861431 -0.20527396 0.1786841 0.15574704 0.087596595 -0.043483004 0.28642493
0.03743186 0.06870017 -0.17925176 -0.15478773 -0.23852006 -0.11872153 -0.18494968 0.16741171
-0.1259695 -0.099664025 -0.21934249 -0.09139928 0.07162241 -0.09056974 0.019724842 -0.19182754
0.14238365 -0.07112165 0.022025978 0.17045726 -0.18421096 0.06163023 -0.0015981282 -0.07400704
0.08117932 -0.04449945 -0.033426583 -0.16153874 -0.100326575 -0.12572014 0.11019244 0.21490273
0.030245868 -0.00837878 0.07148101 -0.09636499 0.16381048 0.014829049 -0.18122813 0.019420201
-0.04110442 -0.07287083 -0.14217943 0.048349377 0.1828169 -0.12341267 0.06496884 -0.05287173
-0.16258076 -0.062307075 -0.010173526 -0.16780902 -0.09377993 -0.13496166 0.014968618 -0.089239925
-0.025940638 -0.035631258 0.1561639 -0.122613356 0.06616635 0.0131991105 -0.07877548 -0.05481391
-0.07750429 0.0945619 0.15657349 0.12011202 -0.16288465 0.021182936 -0.11162762 0.011707025
0.098425955 -0.17025827 -0.029265216 0.21919003 -0.011124253 0.24008247 0.09995482 -0.013191346
-0.16349079 -0.1617517 0.13610323 0.09129913 -0.10790169 -0.092731625 -0.04392969 0.06522236
-0.082876764 -0.107358575 -0.06616177 0.18442766 -0.08142575 -0.031147374 -0.21525322 -0.2292606
00000000: daeb c13d c050 14be 83dc 2fba 1f1d 3f3e
00000010: 42c7 4a3c 86d4 bd3c ffb5 d83d 851f c0bc
00000020: 1cba 95be 2aae 1ebe c345 5cbd e1ce 2abe
00000030: 2512 ecbd 6073 b13c 5012 6dbe 7f97 e4bc
00000040: 46f7 113e cb7a 12be 43ee 04bd bb9b d6bc
00000050: bf49 18bb 6f1c 9d3d ae46 f63c c18d fa3c
00000060: 138d 7b3d 33de f33c 4d16 dbbd 9362 053e
00000070: c180 e03d c961 683e 4234 09bd 515e 57be
00000080: bc70 403e e2d1 38be ff7f 5e3e 0b68 0abe
00000090: e6bf 0c3d 1912 0bbe 5108 303e 9901 bb3d
000000a0: ca68 2d3e 3ecc 343c 5081 123e 9312 113d
000000b0: 2f78 1dbd ae26 4f3e 8450 653e 795e 4bbd
000000c0: 4e3f 013e 8054 3a3e b57e 663e 753e 453a
000000d0: 20b0 a1bb cf7b 83bd 5210 f0bb be76 003e
000000e0: 5448 103e ead1 09bd e743 393e 015e dcbd
000000f0: 4534 203e 14b8 40be 1fb8 48be f5b5 4fbe
00000100: ab6f 4bbe 1993 05bd 27a4 b23d 5b5c 3e3e
00000110: 133a 673e 3417 bb3d 812c edbd ae8d d2bd
00000120: 7c9f 713d 7f1a f5bd d911 d13d 0c88 d1bb
00000130: f31a 34be 5a1d 863d fb26 14bb 827d f53d
00000140: 9157 0a3c 96f9 07be 6cb7 d83d bf18 f3bd
00000150: df37 253e bc61 84bd 4de4 ae3d fde6 42bd
00000160: 1d75 2e3e 66a7 30bd 01dd 093d f60f aabd
00000170: 26c7 1dbd 5351 5a3e d989 22bc bcfe d53d
00000180: 21ad cfbd 3d00 213e a2a6 773d 55ed d63c
00000190: aeb2 b13d acfa 1ebd 85ef 41be 834c 143e
000001a0: 3238 a5bd 04fb 4fbe 4827 82be 8dbc a83d
000001b0: 18af 383e d09b 093e 9ede 133e 20f5 32be
000001c0: f6c2 273d 21a1 d1b9 5fd9 12bd 7961 dc3b
000001d0: af45 613e 8f38 0dbe 9e2c 5c3d ccd4 49be
000001e0: 09c4 073c f4df 7fbd a067 6c3e 693d 6cbe
000001f0: 8c61 cebd c2b3 43be dc19 3f3e db45 0a3e
00000200: da33 46be 0c45 69bd 9ab5 033e 2f7d 0ebe
00000210: 7fa0 3abe b653 4cbe f9dc c43d 53c6 1abe
00000220: 263d 96bd 25ae 243e 1063 9c3c 0fc5 86be
00000230: f1f6 ccbb d1a2 4fbe 38f8 483e 7db0 743d
00000240: e98e 9d3d ab53 68bd 400d 513e b2d4 76be
00000250: c491 203e 3b91 f9bd 04c5 073e d275 863c
00000260: 76bd 093e 2e71 debd 5633 52be f7f8 363e
00000270: 277c 1f3e d865 b33d 3c1b 32bd 4aa6 923e
00000280: 2652 193d adb2 8c3d c68d 37be ad80 1ebe
00000290: 9a3e 74be 4624 f3bd 7363 3dbe fa6d 2b3e
000002a0: 26fe 00be a71c ccbd 519b 60be 8c2f bbbd
000002b0: c5ae 923d a17c b9bd fe95 a13c 706e 44be
000002c0: 05cd 113e 3aa8 91bd d36f b43c 598c 2e3e
000002d0: cca1 3cbe fb6f 7c3d 4978 d1ba 0191 97bd
000002e0: 5841 a63d 0e45 36bd 50ea 08bd 696a 25be
000002f0: 0578 cdbd c8bc 00be 93ac e13d 760f 5c3e
00000300: 2fc6 f73c 2747 09bc a364 923d 025b c5bd
00000310: efbd 273e 8af5 723c de93 39be 1d17 9f3c
00000320: 1c5d 28bd 4d3d 95bd 7c97 11be ff09 463d
00000330: 5a34 3b3e c8bf fcbd 620e 853d 0790 58bd
00000340: 927b 26be b435 7fbd dcae 26bc 21d6 2bbe
00000350: b10f c0bd 6433 0abe ef3e 753c 6cc3 b6bd
00000360: 7681 d4bc 15f2 11bd 6ee9 1f3e b61c fbbd
00000370: 3982 873d 1541 583c 0a55 a1bd 8d84 60bd
00000380: 92ba 9ebd aba9 c13d cd54 203e 4afd f53d
00000390: 3ccb 26be d687 ad3c 069d e4bd d2ce 3f3c
000003a0: 8c93 c93d 2f58 2ebe 9bbd efbc 5a73 603e
000003b0: 8042 36bc 2ed8 753e 1db5 cc3d 8420 58bc
000003c0: 216a 27be 3da2 25be a55e 0b3e 0afb ba3d
000003d0: 90fb dcbd 14ea bdbd 9eef 33bd 4d93 853d
000003e0: 4bbb a9bd d0de dbbd d27f 87bd 9bda 3c3e
000003f0: 8bc2 a6bd c728 ffbc 576b 5cbe 4ac3 6abe

FacTc f4 [16, 16, 16]
0.023829993 -0.086845726 0.10839454 0.15621391 -0.010005432 0.14571129 -0.0038935516 0.06610231
0.062167734 0.11677536 -0.052936383 0.09004363 0.0144673865 0.08511042 -0.056137152 -0.056815956
-0.036768615 -0.0727941 0.08928067 0.072632894 0.11886316 0.1316541 0.061353944 0.046659432
0.0012270896 0.100714274 0.08036739 -0.022399878 -0.039018 -0.045000162 -0.05542297 -0.11895475
0.11042214 0.11830479 0.03257295 -0.0013520108 0.009717889 -0.17685276 0.078922585 -0.10421555
-0.045156006 0.009763861 -0.014812654 -0.009194563 -0.0017835823 0.058483128 0.0025769537 -0.036088377
0.15514897 0.13838527 -0.11007434 0.105070114 0.072734945 0.11515694 -0.057528373 -0.07602865
-0.07611455 -0.041983742 0.06896403 0.02846507 -0.11728148 -0.10365161 -0.08849732 -0.10499784
0.00044719264 -0.09732665 -0.05161078 -0.07908655 0.029754711 0.020173276 -0.00043728523 -0.1577351
-0.06802903 -0.15741788 0.15393269 0.091157764 0.14352454 0.035042826 -0.1505482 -0.03172849
0.018569276 0.051720086 -0.029763857 0.09077215 0.07939457 0.054593798 -0.051317953 0.042196218
0.066209845 0.031709466 -0.06788331 0.06481233 -0.034575205 0.022903876 -0.03186694 -0.010444408
-0.13367766 0.07453363 0.043858543 0.0021409667 0.008107296 0.036661692 -0.11970672 -0.08070067
0.056188747 0.047336545 -0.0034542 -0.11406889 0.041101538 0.1279498 -0.07684434 0.061383855
0.08256072 -0.0413102 0.10256351 -0.027397947 -0.020348271 0.124218546 0.14122513 0.16401047
-0.14016825 0.095365584 -0.039398007 0.1304991 0.018209402 -0.06372971 -0.03303375 -0.14915086
-0.11411919 0.078357585 -0.10642968 -0.085450746 -0.02692573 0.006702333 0.043573424 -0.09109895
0.14439893 0.1263811 -0.027423766 0.054260883 0.05174127 0.034511767 0.097729884 0.15859127
0.035393357 -0.026513254 0.02494241 -0.050395194 -0.022643458 0.102620065 0.057986356 -0.047763303
0.05579086 0.000436654 -0.091695316 0.12358847 -0.11004401 -0.11792036 0.13407741 0.052148506
0.08867728 -0.04035436 0.044687867 0.12943532 -0.004878356 -0.11467597 -0.023587376 -0.16479212
-0.041582447 0.060559064 0.028630385 0.010456412 -0.11260206 0.028252786 0.13922742 0.06893056
-0.0010735143 -0.06200688 0.166187 -0.021607585 0.031534538 -0.020605484 -0.081699386 0.0781761
0.048426334 0.06927532 0.10439672 0.004686893 -0.010241348 -0.12154 -0.035009842 0.0005003935
-0.008722188 0.058888882 0.015898995 -0.11585093 -0.04162799 -0.05966401 -0.029566875 -0.14712285
0.09719816 -0.13892701 -0.0038309842 -0.0151296295 0.020563578 0.023062766 -0.10026658 -0.046843424
0.022878788 -0.02672034 0.04086971 0.026475029 -0.103939556 0.11812364 -0.031431295 -0.13840662
-0.029179137 0.022975974 -0.004538666 -0.07415269 0.0049107564 0.0029313066 0.04478729 0.04653458
0.086671986 -0.05338865 -0.0747535 -0.058070526 -0.123762876 -0.10770706 -0.05829255 -0.124513716
-0.10164609 -0.14288908 -0.1514928 0.106477536 0.084603116 -0.06309549 -0.01439673 0.102312185
-0.0152852 0.02397153 0.00513463 0.08273287 0.005184047 -0.029022582 -0.09326632 0.07237041
0.012114414 0.067238115 -0.05680992 0.02817254 -0.031006472 -0.041146107 0.03774203 -0.006697149
00000000: 1e37 c33c 2cdc b1bd f5fd dd3d 8af6 1f3e
00000010: d3ed 23bc 5735 153e f52a 7fbb a660 873d
00000020: 98a3 7e3d ec27 ef3d d2d3 58bd cb68 b83d
00000030: 9e08 6d3c 5f4e ae3d 12f0 65bd d9b7 68bd
00000040: b09a 16bd 1315 95bd c9d8 b63d 8ec0 943d
00000050: 876e f33d 55d0 063e 464e 7b3d f61d 3f3d
00000060: 4bd6 a03a 4943 ce3d a897 a43d f37f b7bc
00000070: 57d1 1fbd 1752 38bd 3203 63bd 8c9e f3bd
00000080: 0125 e23d c849 f23d 376b 053d f435 b1ba
00000090: c837 1f3c e418 35be 2aa2 a13d f66e d5bd
000000a0: 81f5 38bd 9af8 1f3c c6b0 72bc cba4 16bc
000000b0: 17c7 e9ba 018c 6f3d 1ce2 283b 68d1 13bd
000000c0: 5fdf 1e3e deb4 0d3e a86e e1bd 002f d73d
000000d0: 0ff6 943d 67d7 eb3d dfa2 6bbd e9b4 9bbd
000000e0: f2e1 9bbd 25f7 2bbd 033d 8d3d 942f e93c
000000f0: 4631 f0bd 4c47 d4bd 153e b5bd 1c09 d7bd
00000100: 2e75 ea39 3253 c7bd d365 53bd 21f8 a1bd
00000110: 27c0 f33c 6d42 a53c 6e43 e5b9 4f85 21be
00000120: ce52 8bbd 2732 21be 88a0 1d3e ecb0 ba3d
00000130: 19f8 123e 1189 0f3d 4f29 1abe bcf5 01bd
00000140: 981e 983c 71d8 533d 55d3 f3bc c0e6 b93d
00000150: 9f99 a23d bf9d 5f3d c632 52bd f1d5 2c3d
00000160: 0799 873d c9e1 013d 6806 8bbd 54bc 843d
00000170: bb9e 0dbd e9a0 bb3c e986 02bd 061f 2bbc
00000180: cce2 08be 16a5 983d 04a5 333d 764f 0c3b
00000190: 77d4 043c 922a 163d cc28 f5bd 6546 a5bd
000001a0: 2c26 663d f7e3 413d dc5f 62bb f39c e9bd
000001b0: 165a 283d 4605 033e 9160 9dbd a36d 7b3d
000001c0: 9815 a93d e234 29bd d10c d23d a971 e0bc
000001d0: 6bb1 a6bc 4b66 fe3d 529d 103e 5cf2 273e
000001e0: 4488 0fbe 084f c33d ce5f 21bd 8ea1 053e
000001f0: e22b 953c b984 82bd 664e 07bd 01bb 18be
00000200: 52b7 e9bd f179 a03d cef7 d9bd cd00 afbd
00000210: 5993 dcbc 3f9f db3b 0c7a 323d 1692 babd
00000220: 50dd 133e 0c6a 013e cea7 e0bc a940 5e3d
00000230: a7ee 533d 365c 0d3d 9b26 c83d c065 223e
00000240: a0f8 103d 5332 d9bc 0654 cc3c 316b 4ebd
00000250: c67e b9bc 782a d23d 1a83 6d3d 74a3 43bd
00000260: f584 643d b5ee e439 c1ca bbbd f41b fd3d
00000270: c15e e1bd 3b80 f1bd 974b 093e ac99 553d
00000280: 6f9c b53d 9d4a 25bd a00a 373d b18a 043e
00000290: 9eda 9fbb 3cdb eabd 503a c1bc 44bf 28be
000002a0: 5b52 2abd c80c 783d 458a ea3c 5f51 2b3c
000002b0: e99b e6bd 6372 e73c a291 0e3e 772b 8d3d
000002c0: 2ab5 8cba edfa 7dbd ed2c 2a3e 6402 b1bc
000002d0: 5c2a 013d d5cc a8bc 0252 a7bd cb1a a03d
000002e0: b15a 463d 38e0 8d3d f3cd d53d 8294 993b
000002f0: 54cb 27bc f7e9 f8bd 7b66 0fbd d72c 033a
00000300: 82e7 0ebc 7835 713d 9c3e 823c 4143 edbd
00000310: 1c82 2abd 4062 74bd 3b36 f2bc 5fa7 16be
00000320: d40f c73d e242 0ebe 4011 7bbb 44e2 77bc
00000330: f374 a83c 20ee bc3c 9158 cdbd e4de 3fbd
00000340: 4c6c bb3c 9de4 dabc ff66 273d 29e2 d83c
00000350: 43de d4bd cfea f13d 1abe 00bd 77ba 0dbe
00000360: 1609 efbc 1c38 bc3c 17b9 94bb 5edd 97bd
00000370: 69ea a03b 2a1b 403b e172 373d 0b9b 3e3d
00000380: 1581 b13d 0fae 5abd 5d18 99bd 5cdb 6dbd
00000390: 6477 fdbd 8595 dcbd 2bc4 6ebd 0c01 ffbd
000003a0: d32b d0bd 8451 12be ee20 1bbe e510 da3d
000003b0: 6644 ad3d 3538 81bd 43e0 6bbc 0d89 d13d
000003c0: c76e 7abc f15f c43c 6640 a83b da6f a93d
000003d0: f0de a93b c4c0 edbc 6a02 bfbd f036 943d
000003e0: 897b 463c 23b4 893d 85b1 68bd 19ca e63c
000003f0: 4901 febc d288 28bd 6397 1a3d c273 dbbb

head.weight f4 [6, 768]
-0.113593 -0.015762681 -0.008342005 -0.046650343 0.020176709 0.11501538 -0.044705257 0.05183876
0.22599745 0.0429765 -0.12047661 0.033295415 -0.14364712 -0.10226551 -0.012379479 0.031785224
-0.14869122 0.022098526 0.002248598 -0.04491646 -0.053791665 -0.026290607 0.017757013 -0.03287887
0.06155799 -0.06937426 -0.027317377 0.11857015 -0.092642725 -0.09879958 -0.085476965 -0.17534907
0.038296416 0.017422045 0.14444155 0.05694545 -0.0021143623 -0.08054791 -0.07647405 0.060807828
0.037894867 -0.10511557 -0.027585506 -0.004882873 -0.18795185 -0.025200818 0.08658716 0.0938636
0.1084831 0.09679372 0.020798715 0.14327641 0.063325 3.7134014e-05 0.0019475727 0.04700441
-0.12924519 0.018433772 -0.1398533 -0.1015976 -0.042291738 0.106124915 0.114215516 -0.02101656
-0.15355177 -0.09216268 0.0040804297 -0.028296925 0.027296338 -0.022729835 -0.1488871 0.010335294
0.060197026 -0.00947362 0.12688251 0.09828408 0.025479479 0.07182753 -0.046209715 0.05343609
0.0361668 0.007405567 -0.09730175 -0.012266445 0.051655855 -0.16896826 -0.04424747 0.19802389
-0.082347155 -0.01111528 0.09449014 0.060944777 0.09440988 0.0013963963 0.106953986 0.10873807
-0.049069803 -0.0023403335 0.035189174 0.0076988223 -0.038650703 0.168537 0.07148869 -0.18660119
-0.0147256665 -0.1150548 0.014570957 -0.06870584 0.011683829 -0.0028123225 0.028578358 -0.05386796
0.055958156 -0.111621015 -0.017133135 -0.052664656 -0.01140202 -0.15844643 0.08603898 -0.20170926
-0.032589085 -0.065825775 0.08692459 0.14462215 -0.03971663 0.14110753 0.054850873 0.036828384
-0.01741811 0.014427616 -0.05884468 0.16322665 -0.05165068 -0.1651389 -0.00831996 0.062115025
0.049958196 0.10227029 0.023159664 0.021326715 -0.019789556 0.008339848 0.050801747 0.065634914
-0.0016275493 -0.027452722 -0.078284256 -0.026450362 0.10343883 -0.083972916 0.08467693 0.08909049
0.07785627 0.11323937 0.11360068 0.07166687 0.03974029 0.087871574 0.043233573 0.0068057254
-0.059342846 -0.03528438 0.10720722 0.041704584 0.012682879 0.04786728 -0.04881007 0.010173099
-0.15795164 -0.058549214 0.04070914 -0.101989254 -0.033627957 0.0026587583 -0.014392026 -0.03640096
0.10557447 -0.061626315 0.054668214 0.03232153 0.060863934 -0.15780115 0.05250752 -0.106828004
0.018017272 0.012032745 -0.12975466 -0.051911198 -0.11270694 0.1592614 -0.21941064 -0.13016853
0.0050544622 0.0705315 0.11231293 0.010920654 0.025853295 0.043761007 0.07396893 0.06066923
0.07964819 0.25429198 0.09346591 0.051233854 -0.049553316 -0.011626361 -0.02309927 0.084015526
-0.013614241 0.08922358 -0.017021596 -0.081399836 0.041894473 0.027582206 0.047655027 -0.04881332
0.182581 -0.03906307 -0.0064793304 -0.052209284 -0.07132952 -0.057216246 -0.057806086 -0.0983569
-0.057044078 0.08908796 0.00079719024 0.06711398 0.0029105118 0.10965446 -0.15155832 0.059371945
0.11280906 0.11494619 -0.0054550963 0.08954521 0.079494506 0.025844408 -0.10171104 0.06426998
-0.047845706 0.0023596121 0.040670943 0.094747774 -0.034134693 -0.17893726 -0.09882865 0.03706852
-0.018217184 0.08434085 0.03673664 0.012421155 -0.09631924 -0.14188713 -0.007426533 -0.121719845
00000000: 72a3 e8bd bd20 81bc e8ac 08bc 6e14 3fbd
00000010: a049 a53c 2f8d eb3d dc1c 37bd e154 543d
00000020: e06b 673e 2008 303d 71bc f6bd c660 083d
00000030: 3b18 13be 9470 d1bd 4cd3 4abc 3931 023d
00000040: 8342 18be f807 b53c 375d 133b 52fa 37bd
00000050: a654 5cbd 665f d7bc 2877 913c feab 06bd
00000060: 3b24 7c3d 1814 8ebd b1c8 dfbc e8d4 f23d
00000070: 78bb bdbd 6f57 cabd 8c0e afbd b58e 33be
00000080: b4dc 1c3d adb8 8e3c 7ce8 133e a23f 693d
00000090: 1d91 0abb 4df6 a4bd 6d9e 9cbd a111 793d
000000a0: a637 1b3d d546 d7bd 00fb e1bc 8200 a0bb
000000b0: 7376 40be f271 cebc 9c54 b13d 8f3b c03d
000000c0: 632c de3d c93b c63d 1162 aa3c 0db7 123e
000000d0: 8ab0 813d 58c0 1b38 b245 ff3a b287 403d
000000e0: da58 04be 6c02 973c b435 0fbe 6712 d0bd
000000f0: 1a3a 2dbd 0558 d93d d3e9 e93d ec2a acbc
00000100: ad3c 1dbe cabf bcbd 20b5 853b f4ce e7bc
00000110: 929c df3c eb33 babc dc75 18be 5d55 293c
00000120: 2891 763d 3e37 1bbc 7ded 013e 2a49 c93d
00000130: 57ba d03c 501a 933d 6646 3dbd cddf 5a3d
00000140: a323 143d 66aa f23b 2446 c7bd 33f9 48bc
00000150: 1795 533d 0406 2dbe d63c 35bd c6c6 4a3e
00000160: a0a5 a8bd dd1c 36bc 0c84 c13d 3ba1 793d
00000170: f859 c13d 4907 b73a b10a db3d 11b2 de3d
00000180: 6bfd 48bd 4860 19bb 8622 103d 6746 fc3b
00000190: 3350 1ebd f794 2c3e aa68 923d 6214 3fbe
000001a0: ec43 71bc daa1 ebbd 06bb 6e3c a6b5 8cbd
000001b0: 886d 3f3c f14e 38bb 291d ea3c a6a4 5cbd
000001c0: 6134 653d 8f99 e4bd ca5a 8cbc e5b6 57bd
000001d0: 8acf 3abc c83f 22be 3435 b03d df8c 4ebe
000001e0: 227c 05bd aacf 86bd 8505 b23d d417 143e
000001f0: e8ad 22bd 7e7e 103e 4fab 603d 5cd9 163d
00000200: 6db0 8ebc cf61 6c3c 1f07 71bd e324 273e
00000210: aa8f 53bd 2c1a 29be 7150 08bc 536c 7e3d
00000220: f7a0 4c3d 1673 d13d 56b9 bd3c 5db5 ae3c
00000230: b51d a2bc dca3 083c 7e15 503d 996b 863d
00000240: 7e53 d5ba 88e4 e0bc 7f53 a0bd 6eae d8bc
00000250: bdd7 d33d fef9 abbd 196b ad3d 1375 b63d
00000260: 1c73 9f3d 0bea e73d 79a7 e83d 14c6 923d
00000270: b7c6 223d 03f6 b33d b015 313d 9002 df3b
00000280: 7c11 73bd 5b86 10bd 758f db3d 6dd2 2a3d
00000290: dacb 4f3c 7b10 443d 11ed 47bd 12ad 263c
000002a0: 13be 21be 4dd1 6fbd a1be 263d bedf d0bd
000002b0: 78bd 09bd 903e 2e3b 88cc 6bbc 2c19 15bd
000002c0: 6d37 d83d e06b 7cbd c7eb 5f3d 9563 043d
000002d0: 764c 793d a096 21be 2012 573d a4c8 dabd
000002e0: f598 933c fe24 453c 68de 04be d6a0 54bd
000002f0: e5d2 e6bd 6c15 233e 2fad 60be e64a 05be
00000300: e79f a53b d272 903d 5204 e63d 8bec 323c
00000310: 4aca d33c be3e 333d 067d 973d 4c80 783d
00000320: 971e a33d 8f32 823e 0e6b bf3d 97da 513d
00000330: 6bf8 4abd 7e7c 3ebc ae3a bdbc 5510 ac3d
00000340: 440e 5fbc daba b63d e070 8bbc f5b4 a6bd
00000350: 8a99 2b3d 14f4 e13c eb31 433d 7af0 47bd
00000360: 83f6 3a3e 9900 20bd 9050 d4bb 67d9 55bd
00000370: 3615 92bd 955b 6abd 13c6 6cbd 586f c9bd
00000380: 0da7 69bd c073 b63d 88fa 503a 0e73 893d
00000390: 49be 3e3b 8492 e03d 1b32 1bbe ff2f 733d
000003a0: 7008 e73d e868 eb3d aac0 b2bb 7b63 b73d
000003b0: 04ce a23d a7b7 d33c e14d d0bd fb9f 833d
000003c0: dcf9 43bd b9a3 1a3b 9396 263d 1f0b c23d
000003d0: d2d0 0bbd 543b 37be ad66 cabd 29d5 173d
000003e0: 343c 95bc e5ba ac3d 2979 163d 1a82 4b3c
000003f0: 0643 c5bd dc4a 11be 465a f3bb 4148 f9bd

head.bias f4 [6]
-0.011464969 -0.014809391 0.029346181 0.004709867 0.022836166 -0.023180189
00000000: 91d7 3bbc 17a3 72bc 6767 f03c 3a55 9a3b
00000010: e912 bb3c 61e4 bdbc

FacTu.weight f4 [16, 768]
-0.04153515 0.022632018 0.11370326 0.067020796 -0.044211265 -0.047462914 -0.061253883 -0.01837713
-0.0005354378 -0.03579288 0.06688168 -0.03620058 -0.00050808286 0.056606673 -0.0009841187 -0.012670068
0.0065146307 0.0019967086 -0.01774531 -0.028618753 0.016161066 -0.0682443 0.023961881 -0.063836895
0.021552615 -0.04191826 0.03236003 0.035398077 -0.014172511 0.04741163 -0.006396278 -0.08726473
0.031720284 0.040105518 -0.032047886 -0.036544405 0.012821734 0.024798926 0.008123353 -0.0370808
0.04420493 -0.002099845 0.039864283 -0.017958501 -0.008785773 0.01776652 -0.06572 0.034267347
0.027871558 0.009754221 0.098794535 -0.039331466 -0.049357194 -0.005437567 -0.014436388 -0.030341418
0.0138741685 -0.003039616 -0.0075908913 -0.049188387 0.0159708 -0.0069224397 0.041585572 -0.010339324
-0.03915251 0.013556736 0.07363653 -0.01186241 -0.060884833 0.060345035 -0.014323307 -0.05822204
0.036061317 0.028251093 0.02163786 0.03053698 0.13138033 0.06655616 -0.005736222 -0.032330465
0.016435713 0.030434916 0.028622985 0.046833288 -0.061331093 -0.03055637 0.0026914263 0.013454612
-0.038765837 0.06620689 -0.053627927 -0.015723344 -0.058338985 0.032187026 0.013171752 -0.036336478
0.033360805 -0.01959587 0.0070831324 0.004332779 0.061405636 -0.039133154 0.027574548 0.038476545
-0.04025735 -0.04426037 0.050923653 0.028987363 0.06582913 -0.028837247 -0.046742696 -0.023478378
0.06804087 0.050147925 -0.03420169 -0.014005191 -0.064530574 0.042763192 -0.009221994 -0.055726644
0.10518257 0.08313127 0.024335494 -0.06398457 0.0049382006 0.018808568 0.0065275356 0.022398686
-0.099117585 -0.09236062 0.048586227 -0.033697277 0.006234288 -0.026596965 -0.015801923 -0.027909894
-0.06330714 0.0073824716 -0.041326154 0.015127948 0.013539796 -0.05724752 -0.012868042 0.04821371
-0.029270858 0.039382327 -0.007922624 0.06481019 -0.030701421 -0.05696334 0.040495593 -0.011757004
0.0008278353 0.034248605 -0.020050863 0.017828591 -0.0981677 -0.019536238 0.04454396 0.0012676629
0.012638403 0.016292177 0.094518065 0.013853609 -0.039153956 -0.017973267 0.017379096 -0.015654476
-0.078536555 -0.030786322 -0.07246327 -0.028028255 -0.00877664 0.06341331 0.05213992 -0.0046434193
0.011318471 0.01211564 0.007982623 -0.0056838775 0.01915384 -0.006899928 -0.042235278 -0.070278205
0.006487988 -0.0013627785 -0.035316344 0.04953858 -0.040507086 0.009295429 -0.023140885 -0.005373446
0.009173017 0.04863415 0.021590862 -0.0087186145 0.0052116183 -0.04783393 0.021420822 0.025048066
-0.02402546 0.05435588 0.018998241 -0.025976092 0.007147591 -0.049407627 0.011810055 0.03089539
0.03394918 -0.02874386 0.011858908 0.03061244 -0.047714453 -0.0031251407 0.030255927 -0.007472137
0.0058269105 0.007948597 -0.014806496 -0.052151844 -0.014619739 -0.07752433 0.045665253 0.05323273
0.0020468903 0.007632973 0.00028290696 0.03159639 -0.050476946 0.011078949 -0.017310418 -0.03167588
-0.068758614 -0.08139377 0.009729352 0.07644647 0.04102039 -0.019917598 0.015192513 -0.06906917
0.03785123 -0.017619053 0.052098304 -0.002676449 0.014514664 -0.002048136 0.06780852 0.052549284
0.0038356679 -0.0202207 0.026591688 0.13875113 0.030745044 -0.03181962 -0.009458556 0.052802432
00000000: c320 2abd c866 b93c 41dd e83d 3342 893d
00000010: df16 35bd 7968 42bd 5ae5 7abd a38b 96bc
00000020: 9f5c 0cba 8e9b 12bd 43f9 883d 0f47 14bd
00000030: dd30 05ba 66dc 673d 8bfd 80ba 1e96 4fbc
00000040: af78 d53b 36db 023b 9d5e 91bc e071 eabc
00000050: 3664 843c abc3 8bbd b54b c43c ebbc 82bd
00000060: 1c8f b03c 7bb2 2bbd f38b 043d 93fd 103d
00000070: d233 68bc b332 423d de97 d1bb dab7 b2bd
00000080: 21ed 013d af45 243d a544 03bd 96af 15bd
00000090: 4012 523c 1e27 cb3c d017 053c 09e2 17bd
000000a0: 3b10 353d 8e9d 09bb bb48 233d b51d 93bc
000000b0: 34f2 0fbc 188b 913c 3598 86bd eb5b 0c3d
000000c0: e552 e43c 2bd0 1f3c ca54 ca3d 081a 21bd
000000d0: c52a 4abd 9e2d b2bb 9a86 6cbc 918e f8bc
000000e0: 7b50 633c 4b34 47bb 03bd f8bb c379 49bd
000000f0: 32d5 823c a2d5 e2bb a255 2a3d 4566 29bc
00000100: 625e 20bd 121d 5e3c c0ce 963d 8e5a 42bc
00000110: 6062 79bd 5b2c 773d 4eac 6abc 3c7a 6ebd
00000120: 08b5 133d d66e e73c e241 b13c b028 fa3c
00000130: 9188 063e 994e 883d ebf6 bbbb f36c 04bd
00000140: 30a4 863c a552 f93c c07a ea3c 43d4 3f3d
00000150: 5036 7bbd 5a51 fabc a462 303b bc70 5c3c
00000160: edc8 1ebd 7a97 873d f5a8 5bbd 3ece 80bc
00000170: dcf4 6ebd 8bd6 033d 55ce 573c 8fd5 14bd
00000180: 57a5 083d 8587 a0bc 9f19 e83b fcf9 8d3b
00000190: 7a84 7b3d 164a 20bd 05e4 e13c 9599 1d3d
000001a0: e4e4 24bd 5d4a 35bd 5295 503d e876 ed3c
000001b0: 6cd1 863d 173c ecbc 4575 3fbd ba55 c0bc
000001c0: 0359 8b3d e967 4d3d 1217 0cbd 0776 65bc
000001d0: 9b28 84bd 7528 2f3d d917 17bc 9f41 64bd
000001e0: f669 d73d ba40 aa3d 3b5b c73c 580a 83bd
000001f0: a1d0 a13b 6d14 9a3c f0e4 d53b 737d b73c
00000200: 29fe cabd 9127 bdbd 5a02 473d 2806 0abd
00000210: 0049 cc3b e1e1 d9bc 0973 81bc 4aa3 e4bc
00000220: 2ca7 81bd a9e8 f13b 9d45 29bd 36db 773c
00000230: 05d6 5d3c 607c 6abd 7bd4 52bc bd7b 453d
00000240: 70c9 efbc 5d4f 213d e5cd 01bc 34bb 843d
00000250: 8c81 fbbc 6452 69bd b5de 253d 73a0 40bc
00000260: 1603 593a 4448 0c3d b541 a4bc 440d 923c
00000270: 260c c9bd 760a a0bc ba73 363d b527 a63a
00000280: 4e11 4f3c 2c77 853c b092 c13d 3ffa 623c
00000290: e65f 20bd ac3c 93bc 9b5e 8e3c d13d 80bc
000002a0: c6d7 a0bd 9933 fcbc 9f67 94bd 839b e5bc
000002b0: e5cb 0fbc d6de 813d ab90 553d d327 98bb
000002c0: 1c71 393c ad80 463c 8cc9 023c d23f babb
000002d0: 84e8 9c3c cb18 e2bb e6fe 2cbd 05ee 8fbd
000002e0: 3099 d43b 429f b2ba dfa7 10bd f7e8 4a3d
000002f0: c2ea 25bd db4b 183c f491 bdbc bb13 b0bb
00000300: 6c4a 163c 9a34 473d 52df b03c 85d8 0ebc
00000310: 39c6 aa3b 83ed 43bd b87a af3c 9a31 cd3c
00000320: 0bd1 c4bc 45a4 5e3d 33a2 9b3c d0cb d4bc
00000330: 5736 ea3b a75f 4abd f67e 413c 5418 fd3c
00000340: 4c0e 0b3d 3e78 ebbc de4b 423c f1c6 fa3c
00000350: 3b70 43bd 29cf 4cbb 47db f73c d4d8 f4bb
00000360: abef be3b d53a 023c f296 72bc 2c9d 55bd
00000370: a187 6fbc 13c5 9ebd 7d0b 3b3d 900a 5a3d
00000380: 1f25 063b 051e fa3b 2153 9439 376b 013d
00000390: eac0 4ebd 7b84 353c 94ce 8dbc 91be 01bd
000003a0: 51d1 8cbd c7b1 a6bd dc67 1f3c f88f 9c3d
000003b0: ff04 283d 3b2a a3bc 05ea 783c 2374 8dbd
000003c0: e409 1b3d d555 90bc 0865 553d 5d67 2fbb
000003d0: eace 6d3c 053a 06bb 31df 8a3d eb3d 573d
000003e0: d45f 7b3b e2a5 a5bc d0d6 d93c c714 0e3e
000003f0: 08dd fb3c 4a55 02bd 0ff8 1abc 5d47 583d

FacTv.weight f4 [768, 16]
-0.019348348 0.0010326576 -0.007986504 0.002828654 0.012311448 0.002523133 0.017529305 -0.015464047
-0.006586555 -0.014220855 -0.0013020067 0.00029963301 0.024810981 -0.01080972 0.006592824 -0.04572167
-0.027865734 -0.015744846 0.004841442 -0.008314164 0.005271431 -0.012752555 -0.002821176 -0.009684766
-0.016781468 0.019260215 -0.015763635 0.012635326 0.033802796 -0.012583279 -0.06694302 -0.018831862
-0.018010488 -0.0077705774 -0.0048150076 0.014314905 0.021595167 0.019310437 0.011685053 -0.032786902
-0.030994534 0.055023488 0.041347258 -0.035606764 0.0045790374 0.002042934 -0.046871517 0.00407081
-0.0005539816 -0.03179261 0.0059427693 -0.034903735 0.058043424 -0.017388996 -0.06741543 -0.028397124
0.02549059 -0.0112650255 0.035027098 0.0130766425 0.031148773 -0.021671264 0.0131496815 -0.015754368
0.02914464 0.007690471 0.014577841 0.032375555 0.00396073 0.013655715 0.055971716 -0.036986873
0.029873855 0.046712328 0.0072461944 0.0577129 -0.019503651 0.0014723175 -0.05323053 -0.008292756
0.031583313 0.038138654 -0.033606257 0.026639946 -0.05681591 0.052441742 0.08549961 0.01897037
0.012528442 0.053280994 0.06116902 -0.0029772576 -0.055048894 0.036120642 -0.036024693 0.04345123
-0.045591787 0.023243604 -0.0033165202 -0.011668868 -0.05473839 -0.019749237 -0.029646281 0.008180754
0.013082913 0.0081137195 -0.0012682109 -0.019457415 0.01129842 -0.019546999 0.013140097 -0.021250848
0.049291838 0.022856768 -0.034685474 -0.009678349 -0.015058387 -0.033115897 0.0016898871 0.03939504
0.030367963 -0.004278385 0.003596835 0.0034436823 -0.018904824 0.015182679 -0.06526446 -0.048108768
0.0201466 0.072160825 -0.07490248 0.017233577 -0.02967226 -0.008163285 0.054988094 0.013027148
-0.041450895 0.02883678 -0.033969782 -0.033239797 -0.03955086 0.0067496495 -0.045387864 0.023965389
0.044133436 0.0014440949 -0.006670206 0.0058203074 0.0014234855 -0.012891157 0.04877622 0.04089256
-0.016294282 -0.009040063 0.053440284 -0.0036726 0.014212422 0.02761078 -0.022856554 0.0022598163
-0.036750656 0.00011762747 -0.07193304 0.043217722 -0.0149729 -0.003081249 0.019177338 0.012055198
-0.028310454 -0.062187683 0.00279453 0.00048686817 -0.0071337 -0.018919779 -0.007948825 -0.015849955
-0.022619696 0.02673224 -0.0046045696 0.013625939 0.040276054 0.051598426 -0.0354865 0.0008842408
0.017866408 0.00053606933 -0.017564768 -0.04573671 -0.002723467 -0.03150527 0.036182135 0.0075806812
0.0073959827 0.0029459524 0.019833906 -0.0021935431 -0.025948165 0.016294945 0.015823059 0.0023165394
-0.0041916515 0.024522524 0.0055643995 0.010133596 -0.01705038 0.001849375 0.010475079 0.041553363
-0.07276967 -0.06825784 0.013356393 0.027087776 0.02993419 0.0022820674 -0.00516153 0.0018658548
-0.017393878 -0.058178175 -0.0044730674 0.008572146 0.017612346 -0.01157194 -0.0025958717 -0.031419154
0.009425291 -0.015953613 -0.029354258 0.011801803 0.007346758 -0.0033672513 0.026429322 0.0019877674
-0.015943365 0.007996465 -0.02490681 -0.0042109685 -0.04199049 0.013843777 -0.01049872 -0.011111008
0.018127298 -0.038468074 -0.011162275 0.005237172 -0.007911409 0.021454575 0.008821483 0.0014654339
-0.010759167 0.007156696 -0.010120092 0.0027012376 -0.0052396823 -0.017872725 0.03648188 0.019640742
00000000: 6d80 9ebc 3d5a 873a d3d9 02bc f060 393b
00000010: f5b5 493c 265b 253b 9e99 8f3c ea5c 7dbc
00000020: 07d4 d7bb 97fe 68bc 18a8 aaba 1018 9d39
00000030: 6640 cb3c 401b 31bc 9e08 d83b a546 3bbd
00000040: ae46 e4bc 56fb 80bc f6a4 9e3b 2238 08bc
00000050: f8bb ac3b 18f0 50bc 7be3 38bb daac 1ebc
00000060: 4a79 89bc 99c7 9d3c bd22 81bc 6604 4f3c
00000070: cd74 0a3d 192a 4ebc 6c19 89bd 4745 9abc
00000080: bb8a 93bc 54a0 febb 36c7 9dbb 1089 6a3c
00000090: 59e8 b03c ec30 9e3c aa72 3f3c 8f4b 06bd
000000a0: 40e8 fdbc 4f60 613d be5b 293d 66d8 11bd
000000b0: c00b 963b bfe2 053b 59fc 3fbd 6e64 853b
000000c0: 1339 11ba f838 02bd 90bb c23b 38f7 0ebd
000000d0: f1be 6d3d 5e73 8ebc 1a11 8abd 16a1 e8bc
000000e0: a4d1 d03c f190 38bc 9378 0f3d 6a3f 563c
000000f0: b62b ff3c ef87 b1bc c371 573c 4e0f 81bc
00000100: bdc0 ee3c 5900 fc3b e6d7 6e3c 3b9c 043d
00000110: 03c9 813b 38bc 5f3c 9942 653d 8c7f 17bd
00000120: 04ba f43c 6d55 3f3d 7c71 ed3b 5d64 6c3d
00000130: 1fc6 9fbc c7fa c03a 4208 5abd 57de 07bc
00000140: 815d 013d 4737 1c3d b7a6 09bd 043c da3c
00000150: cdb7 68bd 27cd 563d 6b1a af3d c067 9b3c
00000160: 1844 4d3c 2c3d 5a3d 5e8c 7a3d 181e 43bb
00000170: f37a 61bd 3df3 133d a18e 13bd ebf9 313d
00000180: 74be 3abd 5f69 be3c fa59 59bb c82e 3fbc
00000190: 5d35 60bd 27c9 a1bc c2dc f2bc 9208 063c
000001a0: b759 563c 68ef 043c 193a a6ba 2865 9fbc
000001b0: 021d 393c 0721 a0bc 9049 573c 4216 aebc
000001c0: 3de6 493d 1e3e bb3c 5b12 0ebd f091 1ebc
000001d0: 74b7 76bc 89a4 07bd 347f dd3a b25c 213d
000001e0: 3cc6 f83c b231 8cbb e1b8 6b3b 67af 613b
000001f0: 4ade 9abc c5c0 783c 60a9 85bd b30d 45bd
00000200: 7c0a a53c 0ec9 933d 7966 99bd 6e2d 8d3c
00000210: 3d13 f3bc 4dbf 05bc 323b 613d d26f 553c
00000220: 6ac8 29bd 1c3b ec3c e623 0bbd 7426 08bd
00000230: 1500 22bd 2a2c dd3b a0e8 39bd 1053 c43c
00000240: 43c5 343d c947 bd3a be91 dabb 47b8 be3b
00000250: 3f94 ba3a 6e35 53bc 93c9 473d f57e 273d
00000260: 967b 85bc c61c 14bc 33e4 5a3d 01b0 70bb
00000270: 38db 683c 0130 e23c ab3d bbbc 6d19 143b
00000280: db87 16bd c4ae f638 a151 93bd 1105 313d
00000290: e550 75bc c8ee 49bb cb19 9d3c 2a83 453c
000002a0: 53eb e7bc 83b8 7ebd 6f24 373b 5742 ff39
000002b0: d0c1 e9bb a7fd 9abc ca3b 02bc c4d7 81bc
000002c0: f14c b9bc 92fd da3c eee1 96bb 553f 5f3c
000002d0: 81f8 243d df58 533d 4b5a 11bd 65cc 673a
000002e0: 935c 923c 0187 0c3a fde3 8fbc 6b56 3bbd
000002f0: 327c 32bb ac0b 01bd b833 143d 5d67 f83b
00000300: 005a f23b e110 413b b77a a23c 8cc1 0fbb
00000310: 3f91 d4bc fa7c 853c 5c9f 813c 15d1 173b
00000320: 1f5a 89bb 76e3 c83c 9155 b63b 6207 263c
00000330: 3dad 8bbc ba66 f23a aa9f 2b3c dc33 2a3d
00000340: 4408 95bd c4ca 8bbd c6d4 5a3c 2fe7 dd3c
00000350: 8c38 f53c bd8e 153b 0d22 a9bb b38f f43a
00000360: 9b7d 8ebc 3d4c 6ebd cf92 92bb 3072 0c3c
00000370: c447 903c 3c98 3dbc 801f 2abb 5fb1 00bd
00000380: 896c 1a3c 27b1 82bc 5778 f0bc 595c 413c
00000390: 13bd f03b 1aad 5cbb 4e82 d83c 3445 023b
000003a0: a99b 82bc 9b03 033c 5e09 ccbc 2afc 89bb
000003b0: 38fe 2bbd 02d1 623c d302 2cbc f20a 36bc
000003c0: b37f 943c b390 1dbd fae1 36bc 959c ab3b
000003d0: db9e 01bc 81c1 af3c fb87 103c cd13 c03a
000003e0: 3847 30bc b882 ea3b bece 25bc 3f07 313b
000003f0: a4b1 abbb d269 92bc 066e 153d 9fe5 a03c
