Final Project/FacT-TK/dmlab_best.pt (torch, 366359 bytes, 6 tensors)

FacTp f4 [32, 144]
-0.17394799 -0.20769615 0.032304995 -0.11874745 -0.11793076 -0.070028864 -0.14945371 -0.09181487
0.10723487 0.02309974 0.05305265 -0.04423552 0.08679128 -0.11542665 -0.12437552 0.16645546
0.1543758 0.14006867 -0.19303674 -0.0476052 -0.14869861 0.069861494 0.17806213 0.10612063
-0.16999492 -0.049444515 0.1694611 0.073240496 -0.15210819 0.1746311 0.064931095 -0.0021350896
-0.03076125 -0.094451815 -0.13326207 -0.1904546 0.09196156 0.10669357 -0.04660473 0.089033686
-0.09017144 0.008996816 0.119010076 -0.087066114 -0.06629964 0.12471565 -0.09073682 -0.028119318
0.071420684 -0.13805753 0.12523638 -0.06563196 0.014440199 0.035202913 0.123510234 -0.13424215
0.12511706 0.0057499567 0.016090065 0.18820134 0.024212027 0.18122862 -0.116256975 0.16537297
0.17684874 -0.11551953 -0.0813088 -0.21571752 -0.04536852 -0.087558 -0.12818174 0.10110826
-0.01071712 -0.25204498 0.014021712 0.03608443 -0.06480884 -0.13349058 0.06341905 -0.16787896
-0.14553209 0.024444483 -0.013936979 0.092713796 -0.24623339 0.06662537 0.041752897 0.19077383
0.009337608 0.13909402 -0.0044582845 0.02860617 0.15265146 0.25644687 0.16786122 -0.14406723
0.10166537 0.21315472 -0.06835692 0.08707178 -0.13343203 -0.15867855 -0.17706671 -0.045864254
0.13848433 0.10127996 0.035528556 0.014877062 -0.21778569 0.09094979 -0.12129127 0.026049204
-0.16978034 -0.1260645 -0.1379646 0.19709137 -0.20707005 -0.00015750773 0.0669457 -0.033134606
0.09790285 0.22134021 0.11144254 -0.15975216 -0.13434322 -0.0400514 0.08999153 -0.082215644
-0.0019703764 0.23818083 -0.17119692 -0.08465362 -0.114183664 0.14275056 -0.08928189 -0.11376088
-0.041617826 0.15495487 0.13925244 0.06303325 0.08745086 -0.15263088 0.24217649 0.15574203
-0.03018882 0.11610016 -0.109456114 -0.08480028 -0.027689418 -0.017783592 -0.17231557 0.025206173
0.04158611 -0.22817163 -0.15478064 -0.1991614 0.03549862 -0.22519016 -0.19460951 0.19297996
-0.08162584 -0.1079302 0.11810356 -0.14742188 0.097145006 -0.19877204 -0.18113568 -0.12773558
0.054860786 0.0072322683 0.026171153 -0.14068256 -0.093567975 -0.18369481 -0.19938847 -0.17366403
0.08035193 0.13853733 -0.10799159 -0.027515147 0.005233228 -0.0021480247 0.04095918 -0.17042904
0.12240954 -0.025590857 0.15273453 0.050873127 -0.20761481 -0.07492103 0.09554382 0.031879567
0.13735507 0.06806967 0.13303341 -0.02852847 0.07842371 0.0112608345 0.015106555 0.12197338
0.06569349 -0.16900155 -0.10136104 -0.12068443 -0.16798991 -0.13019086 0.15132447 0.06687533
-0.20472184 0.1662018 0.06303455 -0.009804096 0.18821062 -0.011967226 0.017218051 0.16298097
0.1877338 0.049080513 0.09944776 -0.0005088456 -0.08989872 0.13806744 -0.024469186 0.08869106
-0.14366212 -0.105278224 -0.025815183 0.021345617 -0.0042252718 0.047557756 0.057419058 -0.13306473
-0.04413231 -0.05241441 -0.20899124 -0.16129535 -0.14371659 0.15320556 0.008999395 0.12410533
-0.16316162 -0.19008672 -0.10408745 0.047762685 0.013418286 0.13503994 -0.13066815 0.22355068
-0.17311889 -0.064291626 -0.1530376 -0.1856522 -0.07206106 0.10207492 -0.14486338 0.20213093
00000000: 6c1f 32be 4dae 54be 3e52 043d dd31 f3bd
00000010: af85 f1bd 4b6b 8fbd 650a 19be 6f09 bcbd
00000020: f59d db3d aa3b bd3c bc4d 593d 4e30 35bd
00000030: a0bf b13d cf64 ecbd 98b8 febd 4d73 2a3e
00000040: b114 1e3e 296e 0f3e 6cab 45be acfd 42bd
00000050: 7344 18be 8b13 8f3d eb55 363e c655 d93d
00000060: 2613 2ebe 5586 4abd 3687 2d3e 1dff 953d
00000070: 40c2 1bbe 7fd2 323e 98fa 843d dcec 0bbb
00000080: 04ff fbbc f46f c1bd da75 08be 8806 43be
00000090: 5856 bc3d 2982 da3d 9ae4 3ebd 4b57 b63d
000000a0: ceab b8bd 6267 133c 8ebb f33d b84f b2bd
000000b0: 1bc8 87bd eb6a ff3d 3ad4 b9bd 7c5a e6bc
000000c0: 0245 923d f45e 0dbe f73d 003e 0d6a 86bd
000000d0: 9696 6c3c ee30 103d eff2 fc3d c676 09be
000000e0: b01e 003e 226a bc3b 50cf 833c dab7 403e
000000f0: 4d58 c63c ff93 393e 2318 eebd 8857 293e
00000100: d617 353e 8195 ecbd 3a85 a6bd 0ee5 5cbe
00000110: 57d4 39bd 9c51 b3bd 1342 03be d911 cf3d
00000120: dc96 2fbc 0a0c 81be 53bb 653c 44cd 133d
00000130: 7fba 84bd c1b1 08be d9e1 813d 76e8 2bbe
00000140: 5d06 15be cc3f c83c ed57 64bc bbe0 bd3d
00000150: 9b24 7cbe e272 883d 1605 2b3d 375a 433e
00000160: c4fc 183c aa6e 0e3e cd16 92bb 7d57 ea3c
00000170: aa50 1c3e 014d 833e d0e3 2b3e 5c86 13be
00000180: ef35 d03d 3b45 5a3e b6fe 8bbd b052 b23d
00000190: 68a2 08be a17c 22be fa50 35be 28dc 3bbd
000001a0: d6ce 0d3e de6b cf3d 6486 113d ecbe 733c
000001b0: 3603 5fbe e243 ba3d 8f67 f8bd 2465 d53c
000001c0: e6da 2dbe 0d17 01be 9846 0dbe 52d2 493e
000001d0: 2c0a 54be a928 25b9 d41a 893d 27b8 07bd
000001e0: 4a81 c83d 02a7 623e fd3b e43d 1296 23be
000001f0: 4591 09be f00c 24bd 7b4d b83d ad60 a8bd
00000200: 6e21 01bb ade5 733e 3f4e 2fbe e15e adbd
00000210: 20d9 e9bd 342d 123e 6cd9 b6bd 77fb e8bd
00000220: 7477 2abd 7dac 1e3e 3198 0e3e 9417 813d
00000230: 7019 b33d 454b 1cbe 1dfd 773e d77a 1f3e
00000240: 8b4e f7bc ecc5 ed3d 872a e0bd c5ab adbd
00000250: ebd4 e2bc e5ae 91bc 7e73 30be 2d7d ce3c
00000260: 3256 2a3d d3a5 69be d17e 1ebe f7f0 4bbe
00000270: 0067 113d 4098 66be b747 47be 8a9c 453e
00000280: 732b a7bd 820a ddbd 47e0 f13d c3f5 16be
00000290: f6f3 c63d e68a 4bbe a27b 39be 1ecd 02be
000002a0: b4b5 603d aafc ec3b e364 d63c 170f 10be
000002b0: 91a0 bfbd 7e1a 3cbe 7e2c 4cbe fcd4 31be
000002c0: 8d8f a43d bbdc 0d3e b22a ddbd 7267 e1bc
000002d0: 807b ab3b e0c5 0cbb d0c4 273d f384 2ebe
000002e0: dab1 fa3d eba3 d1bc 7166 1c3e 5760 503d
000002f0: fa98 54be 3270 99bd 7aac c33d 2694 023d
00000300: cfa6 0c3e 1c68 8b3d e939 083e 8ab4 e9bc
00000310: 9c9c a03d 5d7f 383c 7c81 773c 2ecd f93d
00000320: 4f8a 863d be0e 2dbe 6096 cfbd 6629 f7bd
00000330: 8c05 2cbe c150 05be cdf4 1a3e eff5 883d
00000340: 9aa2 51be ce30 2a3e 4218 813d 5ca1 20bc
00000350: 49ba 403e 2f12 44bc df0c 8d3c 7ce4 263e
00000360: 4a3d 403e a608 493d 44ab cb3d 0d64 05ba
00000370: d21c b8bd 8d61 0d3e 9a73 c8bc a9a3 b53d
00000380: 2a1c 13be 1c9c d7bd 5d7a d3bc 01dd ae3c
00000390: 2674 8abb eccb 423d 3f30 6b3d 1f42 08be
000003a0: 15c4 34bd 7eb0 56bd cd01 56be 9c2a 25be
000003b0: 712a 13be ebe1 1c3e 3372 133c ef2a fe3d
000003c0: d713 27be 18a6 42be cd2b d5bd cea2 433d
000003d0: 5fd8 5b3c e947 0a3e dfcd 05be 78ea 643e
000003e0: 1446 31be 54ab 83bd e3b5 1cbe 9c1b 3ebe
000003f0: c094 93bd a80c d13d 1157 14be 69fb 4e3e

FacTc f4 [32, 32, 32]
-0.046288606 0.040026505 0.018386377 -0.06631875 0.026521843 0.12604743 -0.033866093 -0.031158645
0.0043944647 -0.029925626 -0.03295242 0.019409835 0.03368712 -0.00043656613 0.026274623 -0.053388815
-0.023073677 -0.029728066 0.003134438 0.033068895 0.00031558794 0.030042004 0.058733635 -0.04733797
-0.0038806235 -0.014918189 0.042358883 0.03423165 0.025616955 0.070775524 -0.010820665 0.052353177
0.07090849 -0.026253598 -0.005552177 -0.05568388 0.01553961 -0.0015337169 -0.084455706 0.07861761
0.06345383 0.007825303 -0.050707895 0.024845723 8.819328e-05 0.0072255344 0.03753111 0.03409167
-0.070430115 -0.059385378 -0.044933878 -0.061118264 -0.08177799 -0.018136224 -0.0031908867 -0.0093606645
0.045569208 -0.02477851 0.09252634 0.03243363 0.013861988 -0.052520532 -0.041609094 0.07792924
-0.0123756435 -0.07318102 0.018451294 0.05715411 0.0074147116 -0.00010601908 0.041338272 -0.055708166
0.08776279 0.043270987 0.053150743 -0.04590306 -0.05608859 -0.022967873 0.027327636 -0.053590942
0.037901733 0.044554953 0.0016288933 -0.0051139365 -0.06956022 0.020685572 0.026581807 -0.016471095
-0.08541783 -0.004730558 0.093157835 -0.06029526 0.072055414 -0.026406208 0.0013152738 0.050666306
-0.068164855 -0.0570241 -0.010114813 0.076633304 -0.073404305 -0.0020957345 0.051922303 0.04048511
0.0127059715 -0.06870935 0.08703611 -0.027440356 0.009305695 0.07576146 0.00036974566 -0.036667116
0.007707125 -0.03982329 0.0019914391 -0.07209768 -0.026963016 0.0002731562 -0.013901197 -0.024294466
0.017307067 0.052217256 0.0057158903 0.018278109 0.028415876 0.037296187 0.09966998 0.027128944
0.044481367 0.027704 -0.028837327 0.051710933 -0.09536649 -0.0598854 0.061139997 0.050300643
0.0772762 -0.027928494 -0.006724609 -0.0060244785 0.0019064691 -0.029823942 -0.027524194 0.036083367
0.046448465 0.028440805 -0.022720857 -0.005909621 -0.035144795 -0.03545718 -0.01674015 0.11098472
-0.03587276 0.071796976 0.05302419 -0.027884146 -0.016927728 0.012473788 0.021417389 -0.020745734
0.052767675 -0.05083471 0.036875244 0.08695819 -0.044237915 -0.054325648 -0.015580882 -0.028187556
-0.009781973 0.04953806 0.06682172 0.050023723 0.0069243643 0.015508813 -0.030135004 -0.0791426
-0.0012406519 0.06039658 -0.1115622 -0.022319729 -0.013703973 -0.07476346 0.0019024236 0.04537925
0.06757617 0.0033301765 -0.004294919 0.0026201531 -0.0073196166 -0.002797202 -0.00035407805 0.019976882
0.054679736 -0.11748826 -0.021931777 0.0446088 0.01903258 -0.012263924 -0.06423034 0.018553263
-0.0045186356 0.04483143 0.041746393 -0.068761304 0.01728253 0.034692787 -0.10975825 -0.028619654
0.003942785 0.030958982 -0.10107242 -0.041814577 0.070091754 0.020982567 0.038884733 0.00092815986
-0.036568187 -0.09057415 0.017350022 -0.021369828 -0.031911734 0.013963605 0.01969516 -0.035496376
-0.07767854 -0.043078452 -0.034823403 0.06684072 0.03477468 0.019344764 0.072634086 -0.021307692
-0.0040894644 -0.13541469 -0.021945843 0.053594045 -0.045235217 0.045460224 -0.018325381 -0.035073053
0.069501676 0.0015193167 0.011379283 -0.004296271 0.06398592 0.037253335 -0.034647577 -0.10341915
-0.018447744 -0.00540598 0.074419394 0.09632152 -0.07985652 -0.0114979 -0.007898078 0.074855424
00000000: 1f99 3dbd d5f2 233d 079f 963c 20d2 87bd
00000010: 5644 d93c 9412 013e 2cb7 0abd 6a40 ffbc
00000020: 71ff 8f3b 9626 f5bc 1ef9 06bd 6001 9f3c
00000030: 81fb 093d eae2 e4b9 e13d d73c 3bae 5abd
00000040: 0205 bdbc 4688 f3bc 256b 4d3b 4073 073d
00000050: 7f75 a539 a61a f63c ae92 703d 76e5 41bd
00000060: 0f52 7ebb 6b6b 74bc 8280 2d3d 7d36 0c3d
00000070: a6da d13c c2f2 903d 2949 31bc 4970 563d
00000080: 7838 913d c911 d7bc 09ef b5bb c814 64bd
00000090: d999 7e3c 0007 c9ba 1df7 acbd 4502 a13d
000000a0: 15f4 813d b335 003c 15b3 4fbd 4289 cb3c
000000b0: 68f4 b838 2dc4 ec3b 39ba 193d b5a3 0b3d
000000c0: aa3d 90bd 153e 73bd 960c 38bd 2557 7abd
000000d0: 387b a7bd 6b92 94bc 321e 51bb 795d 19bc
000000e0: c7a6 3a3d 4dfc cabc 737e bd3d 20d9 043d
000000f0: 641d 633c c51f 57bd 4c6e 2abd 5e99 9f3d
00000100: 36c3 4abc eedf 95bd 2b27 973c 6e1a 6a3d
00000110: 1cf7 f23b 8f56 deb8 5252 293d 3f2e 64bd
00000120: fabc b33d eb3c 313d 98b4 593d d904 3cbd
00000130: 26bd 65bd 1f27 bcbc 35de df3c 2d82 5bbd
00000140: d93e 1b3d 417f 363d 9780 d53a cf92 a7bb
00000150: 9775 8ebd ca74 a93c 17c2 d93c 64ee 86bc
00000160: 8bef aebd cc02 9bbb 89c9 be3d 2af8 76bd
00000170: ca91 933d d551 d8bc 4465 ac3a 7987 4f3d
00000180: 049a 8bbd 1a92 69bd 9ab8 25bc ecf1 9c3d
00000190: ff54 96bd 9758 09bb 7bac 543d b7d3 253d
000001a0: b52c 503c 7db7 8cbd fd3f b23d 99ca e0bc
000001b0: ea76 183c d328 9b3d 6cda c139 4230 16bd
000001c0: 0d8c fc3b bf1d 23bd ce82 023b f3a7 93bd
000001d0: 8be1 dcbc 6836 8f39 d9c1 63bc 3005 c7bc
000001e0: 8dc7 8d3c c3e1 553d 5d4c bb3b f9bb 953c
000001f0: 69c8 e83c e3c3 183d c61f cc3d 853d de3c
00000200: 1832 363d 80f3 e23c 423c ecbc d8ce 533d
00000210: 824f c3bd 654a 75bd ef6d 7a3d 0c08 4e3d
00000220: fc42 9e3d 4cca e4bc 1c5a dcbb fd68 c5bb
00000230: 7de2 f93a 5751 f4bc 6b7a e1bc 27cc 133d
00000240: bf40 3e3d b1fc e83c 1721 babc 7ea5 c1bb
00000250: fdf3 0fbd 8c3b 11bd a422 89bc f54b e33d
00000260: 51ef 12bd 4b0a 933d e52f 593d 4b6d e4bc
00000270: 05ac 8abc dc5e 4c3c 8573 af3c f5f2 a9bc
00000280: eb22 583d 0f38 50bd 7f0a 173d 2317 b23d
00000290: d132 35bd 9284 5ebd f546 7fbc 97e9 e6bc
000002a0: 9244 20bc 6ce8 4a3d d3d9 883d ade5 4c3d
000002b0: c7e5 e23b ad18 7e3c afdd f6bc 8415 a2bd
000002c0: 5f9d a2ba 6762 773d b97a e4bd ddd7 b6bc
000002d0: a186 60bc 961d 99bd be5a f93a 98df 393d
000002e0: 6065 8a3d 173f 5a3b 64bc 8cbb e0b6 2b3b
000002f0: 65d9 efbb 4351 37bb 8da3 b9b9 8fa6 a33c
00000300: dcf7 5f3d af9d f0bd 45aa b3bc b8b7 363d
00000310: 37ea 9b3c a0ee 48bc 328b 83bd 03fd 973c
00000320: 1011 94bb 29a1 373d 44fe 2a3d bad2 8cbd
00000330: 1894 8d3c 061a 0e3d efc8 e0bd c473 eabc
00000340: 7a32 813b b19d fd3c 0fff cebd c345 2bbd
00000350: 448c 8f3d a2e3 ab3c 9945 1f3d c14f 733a
00000360: 86c8 15bd f17e b9bd a221 8e3c c70f afbc
00000370: e1b5 02bd 9bc7 643c bf57 a13c a664 11bd
00000380: ed15 9fbd 0873 30bd fca2 0ebd cae3 883d
00000390: e56f 0e3d e978 9e3c 2ec1 943d 788d aebc
000003a0: ea00 86bb 26aa 0abe c5c7 b3bc 6e85 5b3d
000003b0: 9048 39bd 8034 3a3d 1c1f 96bc c3a8 0fbd
000003c0: e556 8e3d cf23 c73a 2c70 3a3c bcc7 8cbb
000003d0: 0d0b 833d f496 183d 9eea 0dbd 6bcd d3bd
000003e0: b91f 97bc a624 b1bb 3269 983d 3844 c53d
000003f0: d18b a3bd b061 3cbc f166 01bc cd4d 993d

head.weight f4 [6, 768]
0.03596389 -0.033981327 0.008319039 -0.01651059 0.06418917 0.08177694 -0.014488328 -0.017765706
0.012206919 0.0140317185 -0.07485466 -0.010236301 -0.01771811 0.008848832 -0.016462931 -0.018828444
0.10565377 0.013618296 -0.0045338967 -0.094610445 0.0005787045 0.073775314 -0.06893088 -0.036037777
-0.010323654 0.13193949 0.039317567 0.04104433 -0.11299751 -0.12920655 -0.039384414 -0.014650427
-0.036021132 -0.017315337 -0.029323855 -0.038269915 0.06663491 0.009697692 -0.08279926 -0.033633765
-0.003966873 -0.055485778 0.029500188 -0.0047570076 0.013458659 0.0836449 0.022932976 0.10789047
0.03616937 0.070597805 0.073709704 -0.055116124 0.0332209 0.12768953 0.008160178 0.012476694
-0.073256545 0.068084694 0.10178393 0.046748057 0.038876444 -0.08570319 -0.078675784 0.015373377
-0.10494954 -0.050304864 -0.059164323 -0.021131838 0.054763407 0.066897064 0.06180114 -0.1352916
0.010827241 -0.033755604 0.04149759 -0.05387497 -0.11882339 0.08692871 -0.06344655 0.026186476
-0.09753573 -0.13951537 -0.0012793912 0.03453291 0.035903417 -0.022613974 0.03100434 -0.015019605
-0.0066508534 0.10918845 0.040959522 -0.050303817 -0.026273489 0.0028774415 -0.080476314 -0.024718465
-0.0015981228 0.06147014 0.029432949 -0.08503904 -0.107189424 -0.032051906 -0.021516683 -0.1260145
0.021277074 0.014977576 -0.08590652 -0.013114632 -0.056132708 0.027293852 0.1083874 -0.05964457
0.022634707 0.0154018765 0.06527842 0.06565309 -0.008923873 0.058477882 -0.006185528 -0.039351832
0.089264646 0.05818469 -0.02140879 0.07850313 -0.021398198 -0.056348592 0.073273644 0.0848611
-0.023424633 -0.046494257 0.039886996 0.01799512 -0.001129917 -0.057015337 -0.055270128 -0.045442753
0.05964806 -0.042962804 -0.05090105 -0.14336435 0.09333934 0.061059594 0.039344337 -0.061268773
-0.04105891 -0.06217349 -0.002906356 0.044662695 -0.0474805 0.020743174 -0.06826149 0.0028805612
0.07257093 0.011967069 0.022809314 -0.10943336 -0.06017862 0.03061593 -0.0042150486 0.06479076
-0.054771278 -0.15482248 0.029121485 0.09455064 -0.12245184 0.040650886 -0.019601628 0.116200656
0.009629199 -0.030528761 -0.102307975 0.003554218 -0.002531133 0.08387604 0.060151804 0.023002915
-0.11039957 0.09442899 0.020323412 -0.05094817 -0.014053601 0.039030313 -0.000112525166 0.12572433
-0.032585368 -0.068752594 -0.033085458 0.0061193714 -0.07420254 -0.035777822 0.07412711 -0.07009082
-0.08159 0.03657031 0.039400324 0.16074406 0.05075563 0.008979156 -0.015349987 0.0070784115
0.0108201755 -0.08966886 0.07143354 0.03922356 -0.01325903 -0.022597948 -0.0006111205 0.032776754
0.10183542 -0.0042802016 0.0038023628 0.011897398 0.10357596 0.027969528 0.0726008 0.081856325
-0.078767255 -0.032398146 0.05453999 0.1312629 -0.09851184 -0.025265083 -0.04999236 -0.04703731
-0.035762217 -0.11378937 0.09104558 0.038177922 0.04361303 -0.010737784 0.0019919258 0.03664293
0.024371913 -0.0721589 -0.066323124 -0.03418791 0.05148017 0.040552646 -0.026475282 0.10711629
-0.062718496 -0.0752226 0.01386427 -0.0503325 0.068278834 0.034572486 -0.1194827 -0.018385546
-0.012470746 0.0025783111 -0.0946964 0.16727437 0.059648823 0.03537681 -0.08198863 -0.114790566
00000000: df4e 133d 0130 0bbd 944c 083c 3841 87bc
00000010: 9d75 833d ab7a a73d 7460 6dbc 6389 91bc
00000020: 87ff 473c 4be5 653c 664d 99bd 29b6 27bc
00000030: 9225 91bc b1fa 103c 45dd 86bc 1c3e 9abc
00000040: 0161 d83d 461f 5f3c 1591 94bb 1fc3 c1bd
00000050: 34b4 173a 8317 973d a22b 8dbd 599c 13bd
00000060: 8b24 29bc 251b 073e 750b 213d 191e 283d
00000070: 3d6b e7bd b94e 04be 8d51 21bd 5808 70bc
00000080: e58a 13bd e5d8 8dbc 9538 f0bc eac0 1cbd
00000090: e277 883d 11e3 1e3c a992 a9bd 8fc3 09bd
000000a0: 8bfc 81bb 0e45 63bd 61aa f13c ace0 9bbb
000000b0: b581 5c3c 044e ab3d f0dd bb3c aef5 dc3d
000000c0: 5526 143d 9595 903d 1df5 963d 72c1 61bd
000000d0: a312 083d 0bc1 023e 44b2 053c 0c6b 4c3c
000000e0: 8707 96bd fd6f 8b3d 1874 d03d e47a 3f3d
000000f0: e83c 1f3d 2785 afbd c520 a1bd 9ee0 7b3c
00000100: c9ef d6bd 790c 4ebd 4a56 72bd ad1c adbc
00000110: 984f 603d 5401 893d 3123 7d3d e289 0abe
00000120: be64 313c 5143 0abd 60f9 293d 00ac 5cbd
00000130: ad59 f3bd ae07 b23d 44f0 81bd 0585 d63c
00000140: d0c0 c7bd 1edd 0ebe 3fb1 a7ba 6172 0d3d
00000150: 760f 133d f140 b9bc d0fc fd3c ca14 76bc
00000160: 67ef d9bb 329e df3d 2cc5 273d 600b 4ebd
00000170: 803b d7bc 7593 3c3b c4d0 a4bd 617e cabc
00000180: 1a78 d1ba 1dc8 7b3d 5e1d f13c f328 aebd
00000190: 2186 dbbd dc48 03bd c143 b0bc f209 01be
000001a0: 424d ae3c 8264 753c c2ef afbd c1de 56bc
000001b0: 69eb 65bd 5b97 df3c 37fa dd3d dd4d 74bd
000001c0: 6c6c b93c 2758 7c3c b1b0 853d 2175 863d
000001d0: 7035 12bc 8186 6f3d f8af cabb 632f 21bd
000001e0: 62d0 b63d 1253 6e3d 7d61 afbc 40c6 a03d
000001f0: 464b afbc c8cd 66bd 7e10 963d a8cb ad3d
00000200: 04e5 bfbc c370 3ebd 8c60 233d 806a 933c
00000210: b919 94ba ea88 69bd ee62 62bd 2e22 3abd
00000220: 8651 743d c4f9 2fbd 9f7d 50bd 1bce 12be
00000230: b228 bf3d a019 7a3d 8727 213d f7f4 7abd
00000240: 632d 28bd a1a9 7ebd 9078 3ebb 3bf0 363d
00000250: ea7a 42bd 97ed a93c aecc 8bbd ccc7 3c3b
00000260: 11a0 943d 8611 443c 99da ba3c 991e e0bd
00000270: db7d 76bd 42ce fa3c 641e 8abb 05b1 843d
00000280: d957 60bd c989 1ebe 2e90 ee3c c4a3 c13d
00000290: 08c8 fabd 8b81 263d 9893 a0bc 9cfa ed3d
000002a0: cac3 1d3c 7417 fabc d886 d1bd e2ed 683b
000002b0: 5de1 25bb 34c7 ab3d bd61 763d 9c70 bc3c
000002c0: 2b19 e2bd fc63 c13d 497d a63c 07af 50bd
000002d0: 1341 66bc 40de 1f3d 7dfb ebb8 e1bd 003e
000002e0: 3c78 05bd 29ce 8cbd 9e84 07bd 0285 c83b
000002f0: 80f7 97bd c48b 12bd f4cf 973d c78b 8fbd
00000300: a818 a7bd c0ca 153d 3c62 213d 179a 243e
00000310: 23e5 4f3d 4f1d 133c 837e 7bbc 05f2 e73b
00000320: 1b47 313c 4fa4 b7bd bf4b 923d e2a8 203d
00000330: 673c 59bc 551f b9bc 9a33 20ba eb40 063d
00000340: 178f d03d ef40 8cbb 1031 793b 4eed 423c
00000350: a21f d43d 5a20 e53c baaf 943d 4aa4 a73d
00000360: ba50 a1bd ebb3 04bd 5365 5f3d c869 063e
00000370: 93c0 c9bd b8f8 cebc cac4 4cbd 32aa 40bd
00000380: 677b 12bd 670a e9bd 1b76 ba3d 7460 1c3d
00000390: 94a3 323d 88ed 2fbc f88a 023b e616 163d
000003a0: 9ba7 c73c 0cc8 93bd 6bd4 87bd 9f08 0cbd
000003b0: dfdc 523d 881a 263d b1e2 d8bc c95f db3d
000003c0: 8e72 80bd 4e0e 9abd f726 633c 7429 4ebd
000003d0: c6d5 8b3d e19b 0d3d 59b3 f4bd 499d 96bc
000003e0: 1a52 4cbc e2f8 283b 30f0 c1bd f949 2b3e
000003f0: 5352 743d 46e7 103d a8e9 a7bd 5117 ebbd

head.bias f4 [6]
0.0006672202 0.015851391 0.017894797 -0.029167471 0.0042675654 -0.0367814
00000000: 64e8 2e3a c7da 813c 1c98 923c 9ff0 eebc
00000010: efd6 8b3b 18a8 16bd

FacTu.weight f4 [32, 768]
-0.013918601 -0.0005818625 0.002094074 0.0520765 -0.015422659 -0.03771523 -0.015249293 -0.027827302
0.023096588 0.0010643014 0.07762311 0.015779078 0.00033564903 0.030701917 0.035532866 0.025751466
-0.038271632 0.054768547 -0.059963316 -0.014692926 0.013837318 -0.025802512 0.066080935 0.013807861
0.06003357 -0.05765029 -0.0057026083 -0.0009731606 0.014486756 0.03732034 -0.011090956 -0.015049943
-0.041008662 0.06824621 0.00769417 -0.023824142 0.0052772947 -0.012303672 0.030581547 -0.08288378
0.025249492 0.022339046 0.009942005 0.015754092 -0.002894362 0.032053914 -0.05402232 0.067289755
0.009545525 -0.014483549 0.0068616304 -0.04779515 -0.004937093 -0.003693427 0.014137119 -0.03860838
0.020524684 -0.001019996 0.010418403 -0.06549999 -0.00668451 0.020137064 0.020747019 -0.04381548
0.028207364 -0.058987852 0.026632808 -0.052990254 -0.06670509 -0.015281966 -0.0017919114 -0.016117342
0.069428794 0.022203103 0.0021612856 -0.020663802 0.08143423 0.028555095 -0.027240632 0.0014580666
0.023402808 -0.042830765 0.056891833 0.016670983 -0.049497817 0.07086948 0.025620567 -0.04788478
-0.031869438 -0.0027130614 -0.05156869 -0.027043227 -0.024773534 0.033112295 0.059241004 -0.05817901
0.048233304 0.0023849024 0.025061088 0.04887169 -0.011051126 0.043064047 -0.018753605 0.024029406
-0.020003228 -0.0062098703 -0.0009618776 0.04588084 0.037915815 0.031917047 -0.044408064 0.011798108
0.06761703 0.05259658 -0.043799836 -0.060467746 -0.020311441 0.023113418 -0.004217443 0.0062538194
0.09906002 -0.0021384126 0.05370077 -0.036054708 0.029490573 -0.013917479 0.018739732 0.0131054185
-0.092159 0.021883823 -0.008707316 -0.029772764 -0.017524673 -0.047974426 0.021317072 0.006601823
-0.062397372 -0.048938893 -0.03797758 -0.06476224 -0.043865778 -0.010234612 -0.006153683 0.009894356
0.0057027508 0.059665497 0.026844054 0.002503463 0.033727396 0.04110612 0.04914078 0.019247614
0.0042888233 0.0057507236 -0.038918994 -0.040663805 -0.026958589 0.03572681 0.05911909 -0.027439307
-0.01236378 -0.039154407 0.06767693 -0.043334994 -0.01322109 0.0016995372 0.009213545 -0.031680875
0.00652573 -9.578989e-05 -0.047229316 -0.02554225 -0.059579216 -0.027995607 0.030185545 -0.07391475
0.0025609 0.0037859157 0.0018301511 -0.0084287105 0.0034899837 0.06880451 0.056408085 -0.111499086
-0.001331102 -0.034754813 -0.05822843 0.0939834 -0.039601658 -0.0015118661 -0.015270314 0.021128958
0.058032505 -0.049890842 -0.014255065 0.03727762 -0.01943645 -0.051206738 0.0034246065 -0.018310629
-0.03683154 -0.012278108 -0.007833069 -0.015836189 -0.008205639 -0.0141868405 -0.012354737 0.048566304
0.028045367 0.028543448 0.020493284 0.028709391 0.006456495 0.03193039 0.0228384 0.021173097
0.031041013 0.0045646825 0.0028830841 0.021587405 0.030703088 -0.037620038 0.035035454 0.027044753
-0.05129858 0.01325665 0.0035598252 -0.002251545 -0.045316182 0.068149984 0.011523231 -0.012677426
0.008897151 -0.01385153 -0.017818363 0.03426215 0.034543756 -0.033945415 0.039007597 -0.024154492
-0.010684141 -0.08612088 -0.018475164 -0.01273651 0.03679289 -0.030572442 0.019772863 0.013266595
-0.052453425 0.01794241 -0.029913254 0.05397445 0.0054878276 -0.018822072 -0.020980354 -0.035714567
00000000: d80a 64bc 2288 18ba bb3c 093b 2b4e 553d
00000010: 52af 7cbc 497b 1abd 2cd8 79bc 15f6 e3bc
00000020: 0e35 bd3c 0780 8b3a ddf8 9e3d 2043 813c
00000030: 0dfa af39 9682 fb3c e98a 113d bdf4 d23c
00000040: b7c2 1cbd fc54 603d 189c 75bd 99ba 70bc
00000050: ebb5 623c ca5f d3bc 7155 873d 5e3a 623c
00000060: c3e5 753d b622 6cbd f2dc babb b41b 7fba
00000070: dc59 6d3c 36dd 183d d7b6 35bc 0994 76bc
00000080: b3f8 27bd abc4 8b3d 601f fc3b d92a c3bc
00000090: 28ed ac3b 5795 49bc 2786 fa3c f9be a9bd
000000a0: 06d8 ce3c 6000 b73c cbe3 223c ba0e 813c
000000b0: 56af 3dbb f74a 033d 8246 5dbd 36cf 893d
000000c0: d564 1c3c 684c 6dbc 87d7 e03b d9c4 43bd
000000d0: 56c7 a1bb 6c0d 72bb 609f 673c d223 1ebd
000000e0: 6223 a83c 63b1 85ba f3b1 2a3c dc24 86bd
000000f0: bc09 dbbb 7cf6 a43c a7f5 a93c dc77 33bd
00000100: 2113 e73c 3f9d 71bd 0c2d da3c 4f0c 59bd
00000110: ae9c 88bd 3661 7abc 92de eaba 8408 84bc
00000120: af30 8e3d 48e3 b53c 5ba4 0d3b 2247 a9bc
00000130: fdc6 a63d 60ec e93c bf27 dfbc 991c bf3a
00000140: 3fb7 bf3c 506f 2fbd 6907 693d 9691 883c
00000150: 39be 4abd 0524 913d 39e2 d13c d522 44bd
00000160: 8789 02bd 9ecd 31bb b139 53bd c289 ddbc
00000170: def1 cabc c2a0 073d b2a6 723d 1d4d 6ebd
00000180: 4990 453d 064c 1c3b e94c cd3c ae2d 483d
00000190: c80f 35bc ed63 303d 29a1 99bc 51d9 c43c
000001a0: cfdd a3bc 2b7c cbbb 8326 7cba 8ced 3b3d
000001b0: 9d4d 1b3d 73bb 023d 3be5 35bd da4c 413c
000001c0: cc7a 8a3d 836f 573d 7567 33bd 07ad 77bd
000001d0: 2e64 a6bc 5a58 bd3c 7a32 8abb d7ec cc3b
000001e0: fbdf ca3d 9c24 0cbb 57f5 5b3d 1aae 13bd
000001f0: 3796 f13c 2306 64bc 1184 993c 1cb8 563c
00000200: dcbd bcbd b445 b33c 21a9 0ebc 03e6 f3bc
00000210: e78f 8fbc d580 44bd 24a1 ae3c 1b54 d83b
00000220: 6394 7fbd 2674 48bd 618e 1bbd 11a2 84bd
00000230: 9aac 33bd 13af 27bc d6a4 c9bb f01b 223c
00000240: 24de ba3b cf63 743d 10e8 db3c 2411 243b
00000250: bd25 0a3d e45e 283d d847 493d 2cad 9d3c
00000260: 4289 8c3b 9170 bc3b 8669 1fbd 178f 26bd
00000270: 42d8 dcbc 4756 123d dc26 723d 66c8 e0bc
00000280: 7491 4abc 5f60 20bd 349a 8a3d 0980 31bd
00000290: 459d 58bc 01c3 de3a 69f4 163c cec3 01bd
000002a0: cad5 d53b cee2 c8b8 8773 41bd fb3d d1bc
000002b0: 5609 74bd 0b57 e5bc ad47 f73c 9e60 97bd
000002c0: c6d4 273b 201d 783b aee1 ef3a 9318 0abc
000002d0: 36b8 643b 61e9 8c3d 2a0c 673d a259 e4bd
000002e0: 5f78 aeba 105b 0ebd ef80 6ebd 5e7a c03d
000002f0: 5935 22bd cf29 c6ba 5730 7abc a316 ad3c
00000300: 7eb3 6d3d 575a 4cbd 138e 69bc 6bb0 183d
00000310: 3139 9fbc 28be 51bd 5d6f 603b 2c00 96bc
00000320: abdc 16bd 1e2a 49bc 4656 00bc e5ba 81bc
00000330: f270 06bc ec6f 68bc 866b 4abc 76ed 463d
00000340: 66bf e53c f3d3 e93c 88e1 a73c f52f eb3c
00000350: 0191 d33b 71c9 023d 9917 bb3c 3473 ad3c
00000360: b949 fe3c 5593 953b 20f2 3c3b 12d8 b03c
00000370: 0b85 fb3c 7817 1abd 5681 0f3d f58c dd3c
00000380: 761e 52bd 6c32 593c f54b 693b a88e 13bb
00000390: 769d 39bd 3892 8b3d efcb 3c3c fbb4 4fbc
000003a0: 5bc5 113c 87f1 62bc d1f7 91bc 7856 0c3d
000003b0: c17d 0d3d 590a 0bbd 6ec6 1f3d a4df c5bc
000003c0: 890c 2fbc 2560 b0bd 3a59 97bc cbac 50bc
000003d0: 24b4 163d 0f73 fabc b3fa a13c 225c 593c
000003e0: 67d9 56bd f6fb 923c a40c f5bc 5014 5d3d
000003f0: 3cd3 b33b bf30 9abc fede abbc 7049 12bd

FacTv.weight f4 [768, 32]
0.007787002 -0.03595745 0.026061123 0.0344397 -0.0071316715 0.002981344 0.02930062 0.03568957
-0.02933574 -8.6462656e-05 0.02810613 -0.037165046 0.0064576278 -0.0056747333 0.035019666 0.0014653936
-0.012707636 0.011799123 -0.006167279 -0.013777016 -0.001033208 -0.027925877 0.0028085706 -0.007875241
-0.018416652 0.017888436 -0.00047785675 -0.013871762 0.027395807 0.010320554 0.024050677 0.0080232425
0.039570343 0.057275135 -0.00044601568 0.00079726183 -0.006767193 0.008485644 -0.005651186 0.020002585
-0.005409868 0.031285778 0.024619423 -0.0016549651 0.008980894 0.02189638 0.011764909 0.0035753506
-0.005062382 0.009793317 -0.036951236 0.02577299 -0.0029768702 0.027223108 0.040093463 0.019180689
0.03926222 -0.026301464 -0.0095183775 -0.008201656 0.017998 -0.0007027904 0.015785275 0.028121611
-0.028279902 -0.016165929 -0.006829404 0.01972355 0.06821955 0.017680421 0.02530716 0.034617275
0.0008434726 -0.0031068914 0.010098184 0.03040258 0.040263172 0.023854192 0.019032605 -0.02194106
0.026439821 -0.0043489304 0.007374624 0.002295399 0.036572885 -0.018899838 0.048093613 -0.032817576
-0.034126773 -0.0067547886 -0.01532292 -0.05635324 -0.0011743387 0.004462953 -0.01634987 -0.012162085
0.033281196 0.00361218 0.013546178 -0.029108614 -0.010736884 -0.010337129 -0.008755721 -0.045271896
0.012822797 0.021377018 -0.0011538673 0.0008762856 0.03455177 0.022848412 0.024850389 -0.046122048
0.017285854 -0.029529031 -0.034498885 0.01771673 -0.0028567037 0.011574807 0.0030778812 -0.012129902
0.005482458 -0.027981715 -0.0071398043 -0.012171357 -0.039205436 0.0010025792 -0.005145622 0.0053861346
0.009759438 0.008786056 -0.0066926773 0.0053024553 0.019121941 0.024590706 -0.008460741 -0.069145516
0.028299723 0.024637107 -0.03425212 -0.013288654 -0.0012909287 -0.00048672743 -0.025531946 -0.02622949
0.015611761 -0.02015598 -0.05505914 0.020578738 0.0016456258 0.018954903 0.013570327 -0.011378852
0.03152209 0.003780305 -0.023114081 -0.04756893 -0.020132627 -0.021607086 -0.011935256 0.0010948966
-0.0013250897 0.0145447375 0.038311567 -0.010892723 -0.011335016 0.024357386 -0.0014645633 0.023249533
0.01436323 -0.011326129 -0.0019192343 -0.030126788 -0.0023499418 -0.016209723 -0.025495252 -0.008612191
0.01319949 -0.030426241 0.005439156 0.004030451 0.0041495003 0.008722687 0.02895265 -0.0016769109
0.013722791 0.051923927 -0.008519332 0.048336186 -0.004171422 0.0061733634 0.0057376064 0.03842883
0.01681197 0.030707542 -0.007939138 0.04878245 -0.003985619 0.022671577 0.016999874 -0.032866925
0.02951971 0.052068047 0.030405363 -0.042833388 -0.027118387 -0.0076971045 0.0012341175 0.007775857
-0.00066053367 -0.02680254 -0.014398431 0.03395839 -0.028183635 -0.027214993 -0.010300759 0.014300572
0.015800662 -0.029829556 -0.047219783 -0.029177364 -0.03994439 0.036922023 -0.020121505 -0.010358262
0.04232751 0.014161536 0.038714953 -0.010447363 0.013776871 -0.04539801 -0.011247292 0.009853227
0.012801853 0.020804662 0.012388174 0.014222095 0.0017057388 -0.015731145 -0.024925375 -0.015900899
-0.015916368 0.00025790103 0.0032087208 0.014582928 -0.02310103 -0.013643307 -0.030810973 -0.015077802
-0.019729255 -0.002729112 0.009587736 0.007296857 -0.0027133403 0.0016958149 0.0018303515 0.0438559
00000000: 1b2a ff3b 1e48 13bd 237e d53c a510 0d3d
00000010: ccb0 e9bb a762 433b db07 f03c 3a2f 123d
00000020: 8151 f0bc 4953 b5b8 d43e e63c 603a 18bd
00000030: 829a d33b 1df3 b9bb c870 0f3d 7312 c03a
00000040: b033 50bc 1c51 413c e316 cabb feb8 61bc
00000050: b56c 87ba cfc4 e4bc ff0f 383b 2807 01bc
00000060: 85de 96bc c58a 923c d988 fab9 6346 63bc
00000070: 2c6d e03c 8a17 293c ed05 c53c eb73 033c
00000080: 8314 223d 5599 6a3d 36d7 e9b9 56ff 503a
00000090: 54bf ddbb 5f07 0b3c 962d b9bb 76dc a33c
000000a0: 4345 b1bb 8425 003d acae c93c 6aeb d8ba
000000b0: 9a24 133c 0a60 b33c 9bc1 403c 6e50 6a3b
000000c0: 57e2 a5bb 2674 203c 2e5a 17bd e121 d33c
000000d0: 9817 43bb ff02 df3c 0b39 243d d220 9d3c
000000e0: 6cd1 203d 2b76 d7bc f8f2 1bbc 3d60 06bc
000000f0: 8b70 933c 773b 38ba 1f50 813c 4b5f e63c
00000100: 41ab e7bc 696e 84bc 31c9 dfbb 4893 a13c
00000110: b1b6 8b3d 88d6 903c f650 cf3c d8ca 0d3d
00000120: 7d1c 5d3a fd9c 4bbb db72 253c d50e f93c
00000130: ffea 243d de69 c33c 44ea 9b3c bdbd b3bc
00000140: 5398 d83c 7981 8ebb d4a6 f13b 686e 163b
00000150: 73cd 153d d5d3 9abc cffd 443d b96b 06bd
00000160: 84c8 0bbd 4657 ddbb fc0c 7bbc a8d2 66bd
00000170: 45ec 99ba f73d 923b 2af0 85bc 7b43 47bc
00000180: dd51 083d 53ba 6c3b caf0 5d3c 3075 eebc
00000190: c1e9 2fbc 105d 29bc 2874 0fbc 066f 39bd
000001a0: b516 523c db1e af3c 5d3d 97ba 88b6 653a
000001b0: 2886 0d3d 982c bb3c 0b93 cb3c 79ea 3cbd
000001c0: 109b 8d3c dee6 f1bc b44e 0dbd ad22 913c
000001d0: 8937 3bbb 42a4 3d3c 47b6 493b 7fbc 46bc
000001e0: 31a6 b33b e939 e5bc 05f5 e9bb 5f6a 47bc
000001f0: e195 20bd fa68 833a 9b9c a8bb 2c7e b03b
00000200: 0de6 1f3c 64f3 0f3c 3f4e dbbb 38c0 ad3b
00000210: 9ea5 9c3c 7372 c93c eb9e 0abc 2a9c 8dbd
00000220: d2d4 e73c c2d3 c93c f34b 0cbd a8b8 59bc
00000230: 6134 a9ba 732f ffb9 5f28 d1bc 3adf d6bc
00000240: 79c8 7f3c 271e a5bc b185 61bd be94 a83c
00000250: 0ab2 d73a 5047 9b3c 1456 5e3c 5d6e 3abc
00000260: 4f1d 013d febe 773b be59 bdbc a3d7 42bd
00000270: 2eed a4bc 5801 b1bc 188c 43bc a282 8f3a
00000280: a2ae adba 0d4d 6e3c 97ec 1c3d 6477 32bc
00000290: 81b6 39bc 2489 c73c 97f6 bfba ce75 be3c
000002a0: c153 6b3c 3a91 39bc d18e fbba 74cc f6bc
000002b0: 7b01 1abb 41ca 84bc 6bdb d0bc 261a 0dbc
000002c0: ac42 583c 7440 f9bc f33a b23b e011 843b
000002d0: 88f8 873b 9ae9 0e3c 1c2e ed3c cbcb dbba
000002e0: 8fd5 603c 2fae 543d ab94 0bbc 2afc 453d
000002f0: 6db0 88bb ed49 ca3b 8802 bc3b 8d67 1d3d
00000300: 42b9 893c 628e fb3c 2913 02bc 1bd0 473d
00000310: cc99 82bb beb9 b93c 5243 8b3c 789f 06bd
00000320: 52d3 f13c 4e45 553d ab14 f93c 1072 2fbd
00000330: 6127 debc fe37 fcbb 1dc2 a13a 9ecc fe3b
00000340: aa27 2dba 0091 dbbc 66e7 6bbc f417 0b3d
00000350: 5ee1 e6bc faf1 debc 84c4 28bc f24c 6a3c
00000360: 6470 813c 1d5d f4bc 8869 41bd 5e05 efbc
00000370: bb9c 23bd 8c3b 173d dbd5 a4bc b3b5 29bc
00000380: 9c5f 2d3d c905 683c 9293 1e3d 6b2b 2bbc
00000390: 63b8 613c 44f3 39bd 9046 38bc 6e6f 213c
000003a0: ddbe 513c 8a6e aa3c c5f7 4a3c ca03 693c
000003b0: 1993 df3a 9ade 80bc 4d30 ccbc 9a42 82bc
000003c0: 0b63 82bc e436 8739 6749 523b 3ced 6e3c
000003d0: 5f3e bdbc 2d88 5fbc 4b67 fcbc e308 77bc
000003e0: 3f9f a1bc e7da 32bb e115 1d3c 791a ef3b
000003f0: 4cd2 31bb 1b46 de3a 68e8 ef3a 3fa2 333d
