Final Project/FacT-TK/dsprites_ori_best.pt (torch, 397079 bytes, 6 tensors)

FacTp f4 [32, 144]
-0.3673449 -0.26447994 0.122719415 -0.16548045 -0.19559729 0.027342811 -0.28497007 -0.0554119
0.14494243 -0.15045662 -0.15108445 -0.19013576 0.112589486 -0.18720092 -0.20687072 0.25932133
0.33126098 0.08639044 -0.20029815 -0.12735806 -0.22678526 0.09867245 0.29058042 -0.0021672298
-0.1988154 -0.102833435 0.15489483 0.18375498 -0.10390772 0.17385463 0.13407747 0.00895574
-0.126702 -0.20962374 -0.20044598 -0.2742317 0.030236885 0.09086225 0.013493843 0.10116573
-0.1047289 0.028898396 0.13403738 -0.079221345 -0.12057588 0.022118716 -0.12039086 -0.22591281
-0.016955912 -0.13132563 0.124077454 -0.049434137 -0.029603926 -0.013161411 0.110169716 -0.08689136
0.17842591 -0.05252206 0.020644937 0.15199834 0.056764677 0.13015865 -0.10085957 0.19330248
0.20890658 -0.072382465 -0.08275423 -0.23948514 -0.117168665 -0.17409056 -0.030108867 0.032124255
-0.16451634 -0.2030814 0.026564023 -0.014812773 -0.08817138 -0.12687601 0.02138192 -0.16660479
-0.23434731 0.0781465 0.025424976 0.07309724 -0.2511019 0.16340148 0.018465238 0.2794874
-0.018121406 0.18817188 0.07893258 0.023305586 0.07280696 0.31325546 0.17709145 -0.21064562
0.21796276 0.16863278 -0.047973838 0.12265901 -0.19942616 -0.18810195 -0.17452843 -0.11253915
0.23163323 0.23308143 0.1355847 -0.03436411 -0.24923803 -0.025608815 -0.09536125 -0.08358531
-0.19133699 -0.1753277 -0.1543214 0.17775844 -0.28780168 0.0014820031 -0.018328438 -0.11123859
0.19584218 0.219879 0.11826963 -0.34408137 -0.17091687 -0.04508963 0.15279938 -0.04763492
-0.12247762 0.4151496 -0.39708716 -0.07201619 -0.16122553 0.09184038 -0.062598616 -0.12908463
-0.03667821 0.04145903 0.2600286 0.07060269 0.1360555 -0.18686645 0.32815915 0.19492647
0.21737105 0.11037152 -0.174725 -0.1564127 0.12304505 -0.1556717 -0.04392416 0.08154665
0.2115233 -0.3727833 -0.14926854 -0.35798812 0.10505869 -0.24076357 -0.053447053 0.2165706
-0.21446507 -0.06092562 0.059917975 -0.22828665 0.31361148 -0.24871768 -0.21231805 -0.056478124
0.11483937 0.14795509 0.03074604 -0.21456276 -0.15632805 -0.096921265 -0.24672829 -0.10180783
0.1347521 0.21306044 -0.19341284 0.17800315 0.03180372 -0.014762613 0.0639276 -0.18883212
0.14781733 0.012039349 0.14903158 0.090398036 -0.23444654 -0.07394653 0.103231706 0.05065405
0.1941183 0.07468437 0.12714094 -0.19355857 0.0512808 0.030671358 0.077768445 0.14675784
0.17480509 -0.12752287 -0.07256398 -0.11713509 -0.1493879 -0.16027832 0.109529465 0.050189387
-0.23855442 0.15332904 0.07005129 -0.017722411 0.2540536 -0.068326816 0.05110698 0.1868569
0.23995611 0.10243741 0.11043469 0.004602991 -0.12369165 0.17040578 -0.029896619 0.103772216
-0.3342973 -0.26156422 -0.09422407 -0.052502956 0.14665467 0.03195753 0.041279886 -0.1666031
0.038353175 -0.05364284 -0.25177452 -0.19676235 -0.24428183 0.16452977 0.06280052 0.10458279
-0.29453066 -0.19814321 -0.11577838 0.09238646 0.059723545 0.19529538 -0.17297038 0.26338282
-0.3988824 -0.22240405 -0.20073862 -0.21991023 -0.11633807 -0.031323735 -0.09727396 0.27678668
00000000: a114 bcbe ea69 87be 5154 fb3d b573 29be
00000010: a84a 48be 08fe df3c 99e7 91be 97f7 62bd
00000020: ca6b 143e 4d11 1abe e2b5 1abe f3b2 42be
00000030: 5195 e63d 99b1 3fbe ebd5 53be c4c5 843e
00000040: 0a9b a93e 79ed b03d f51a 4dbe 276a 02be
00000050: 653a 68be c814 ca3d f5c6 943e 1508 0ebb
00000060: 4496 4bbe 569a d2bd c09c 1e3e 442a 3c3e
00000070: 92cd d4bd f306 323e 9b4b 093e 19bb 123c
00000080: 2bbe 01be 9ba7 56be b641 4dbe 1968 8cbe
00000090: 58b3 f73c fd15 ba3d 4815 5d3c fa2f cf3d
000000a0: 1b7c d6bd 54bc ec3c 1841 093e cd3e a2bd
000000b0: 7df0 f6bd 4f32 b53c 7c8f f6bd b055 67be
000000c0: 20e7 8abc 3a7a 06be 521c fe3d 737b 4abd
000000d0: ef83 f2bc f5a2 57bc a9a0 e13d 19f4 b1bd
000000e0: 48b5 363e 5f21 57bd 921f a93c 74a5 1b3e
000000f0: 1482 683d 4f48 053e 768f cebd 16f1 453e
00000100: 9beb 553e 423d 94bd 0d7b a9bd 983b 75be
00000110: 20f6 efbd cc44 32be dfa6 f6bc b994 033d
00000120: f976 28be 92f4 4fbe cb9c d93c 46b1 72bc
00000130: 3293 b4bd c9eb 01be 2329 af3c 729a 2abe
00000140: bef8 6fbe 460b a03d 0a48 d03c 01b4 953d
00000150: 6e90 80be b852 273e 6944 973c f918 8f3e
00000160: 5873 94bc 21b0 403e 68a7 a13d 5beb be3c
00000170: d11b 953d 0563 a03e 7657 353e 7cb3 57be
00000180: a131 5f3e 12ae 2c3e 3780 44bd a634 fb3d
00000190: 5f36 4cbe cc9d 40be 95b7 32be ed7a e6bd
000001a0: 4331 6d3e e6ac 6e3e b7d6 0a3e 62c1 0cbd
000001b0: 4138 7fbe 94c9 d1bc c24c c3bd c62e abbd
000001c0: d8ed 43be 1b89 33be 6e06 1ebe 4f06 363e
000001d0: be5a 93be c63f c23a 8525 96bc 0fd1 e3bd
000001e0: da8a 483e f627 613e 5937 f23d 6f2b b0be
000001f0: d504 2fbe e7af 38bd 7177 1c3e d51c 43bd
00000200: 8cd5 fabd 7d8e d43e 024f cbbe 397d 93bd
00000210: 4e18 25be cf16 bc3d b433 80bd c32e 04be
00000220: e43b 16bd f2d0 293d 7822 853e 2598 903d
00000230: 2252 0b3e eb59 3fbe 7a04 a83e ce9a 473e
00000240: 8496 5e3e 770a e23d 1ceb 32be a72a 20be
00000250: 0bff fb3d 6768 1fbe d2e9 33bd ee01 a73d
00000260: 9099 583e 74dd bebe dad9 18be 384a b7be
00000270: 0329 d73d ba8a 76be 4ceb 5abd afc4 5d3e
00000280: bb9c 5bbe 258d 79bd 8d6c 753d fac3 69be
00000290: af91 a03e d9af 7ebe e769 59be 9b55 67bd
000002a0: e730 eb3d 8a81 173e 1fdf fb3c 57b6 5bbe
000002b0: 7614 20be a87e c6bd 57a6 7cbe a080 d0bd
000002c0: 74fc 093e 842c 5a3e 040e 46be 7546 363e
000002d0: 9e44 023d e3de 71bc 79ec 823d 355d 41be
000002e0: 6d5d 173e b140 453c bc9b 183e 9b22 b93d
000002f0: c112 70be 4771 97bd 256b d33d 9f7a 4f3d
00000300: f3c6 463e 1ef4 983d 3c31 023e 3834 46be
00000310: d10b 523d 8042 fb3c 1045 9f3d b047 163e
00000320: 1b00 333e 5b95 02be 6d9c 94bd 86e4 efbd
00000330: 24f9 18be 0020 24be fc50 e03d 6393 4d3d
00000340: 9c47 74be 4a02 1d3e 0d77 8f3d 972e 91bc
00000350: 5013 823e eeee 8bbd 8d55 513d 6a57 3f3e
00000360: 0eb7 753e b4ca d13d 952b e23d b0d4 963b
00000370: 0c52 fdbd da7e 2e3e c1e9 f4bc 8786 d43d
00000380: 0429 abbe bfeb 85be 8df8 c0bd 570d 57bd
00000390: a42c 163e e6e5 023d 1915 293d 019a 2abe
000003a0: 3818 1d3d 98b8 5bbd 97e8 80be 127c 49be
000003b0: 0425 7abe 7e7a 283e 8f9d 803d 802f d63d
000003c0: b9cc 96be 0ee6 4abe 371d edbd 1d35 bd3d
000003d0: ada0 743d 83fb 473e 261f 31be 1dda 863e
000003e0: 503a ccbe e3bd 63be 6d8e 4dbe 2630 61be
000003f0: a742 eebd 514d 00bd 9237 c7bd fcb6 8d3e

FacTc f4 [32, 32, 32]
-0.0070046606 -0.012748414 -0.00025134566 -0.0043894206 -0.023656838 0.030636702 -0.09655065 -0.10119333
0.10284362 -0.004421646 0.12470505 -0.030723965 -0.014781366 0.023985919 0.040533505 -0.08826219
0.03517295 -0.03684983 0.020089094 -0.013877665 -0.041434325 0.06866445 0.07638968 0.018670555
-0.029637167 -0.03739731 -0.024248669 0.11272475 0.07067608 0.07468087 -0.01417677 0.025450783
0.048882462 -0.119830914 -0.044757113 0.004994388 -0.04537879 -0.016711134 -0.05782192 0.030222403
0.030288208 0.084918685 0.022878492 0.054629352 -0.038069177 -0.028877767 -0.0013530197 0.042426534
-0.038538814 -0.015749311 -0.010345706 -0.10673122 -0.016664898 -0.026240332 -0.0408482 0.012225249
-0.0008440062 -0.010610188 0.060141314 -0.016400492 -0.073115155 -0.0015258004 -0.0076336954 0.007887844
0.016630871 -0.032277547 -0.10084842 -0.04368146 -0.059847433 -0.009207241 0.02984631 -0.043846093
0.0024173227 0.0791069 -0.016264781 0.024765382 -0.0012019327 0.011705361 -0.024482109 0.048580352
0.027908804 0.11043702 0.021621188 0.008791339 -0.038453966 0.022261536 0.007120887 0.013729287
-0.09461326 -0.085919775 0.049918298 -0.10100753 0.03907139 -0.032724775 -0.007957955 0.013680819
-0.018434064 -0.0063264985 -0.010767777 0.022679256 -0.08661755 -0.044213828 0.08579539 -0.0064701755
-0.01961966 -0.16704358 0.04980401 -0.019358873 0.026505059 0.18064809 0.014794376 0.011009653
0.012448136 0.020061344 -0.016202582 -0.10636877 0.024920188 -0.0067799967 -0.096030876 -0.053978223
-0.0023316166 0.1138361 -0.013345059 -0.004884395 0.093655065 -0.02658279 0.041564 0.056686036
0.038838997 0.09347441 0.045420635 0.05633234 -0.038955685 -0.011769092 0.09319153 0.05478074
-0.0061055915 -0.13252275 0.041548703 0.08047399 0.043629542 -0.088704504 -0.0071052 0.04888056
-0.056960844 -0.04478219 0.0435506 -0.0043401965 -0.020066366 0.0029803447 -0.08478644 0.0015609948
-0.013318241 0.12519526 0.07305057 0.009499219 -0.08650129 -0.020749344 0.030951433 0.020746574
0.041885145 -0.13458829 0.01922947 0.085290775 -0.038845826 -0.124402076 0.035656758 -0.055071387
-0.004097591 0.11199488 0.017149135 0.023575991 -0.079408094 0.004895265 0.010231586 -0.05746363
-0.02754111 0.080561854 -0.097165495 -0.041533865 -0.0978489 -0.07070013 -0.013534161 -0.02151767
-0.00018716212 -0.030117407 -0.040870015 0.0036359995 -0.024964694 -0.012683098 -0.049175728 0.0155230295
-0.07598089 -0.03771283 0.049320344 0.111313574 0.07423953 0.007684653 0.020982297 0.0075931367
-0.119242 -0.030408492 0.060514227 -0.0691401 0.055701226 0.04015979 -0.066512056 -0.0049695144
-0.058917444 -0.034666635 -0.067228146 0.046407342 0.15265088 -0.113764144 -0.087935425 0.010700387
0.032856964 0.042227373 0.031697337 -0.048268203 -0.025405008 0.01661839 0.018010693 -0.03449414
-0.110819496 0.075771846 -0.1327551 0.12630627 0.078940324 0.039318565 0.059212275 9.75342e-05
-0.0496778 -0.07534064 -0.121333666 0.093042485 0.02956368 -0.048168983 -0.11158535 -0.024940629
0.038257204 -0.021250943 0.10373121 -0.062085792 0.08378088 -0.025243731 -0.12441711 0.028909324
0.020584207 0.007713218 0.021783171 0.018917987 -0.019407975 0.033692725 0.051007096 0.014552947
00000000: 5a87 e5bb b9de 50bc 0bc7 83b9 21d5 8fbb
00000010: fccb c1bc d2f9 fa3c 59bc c5bd 733e cfbd
00000020: ad9f d23d 74e3 90bb 5c65 ff3d d3b0 fbbc
00000030: 8b2d 72bc 1e7e c43c 7606 263d cfc2 b4bd
00000040: 8311 103d d9ef 16bd e291 a43c 255f 63bc
00000050: 0ab7 29bd f29f 8c3d 3172 9c3d fef2 983c
00000060: a5c9 f2bc ec2d 19bd 25a5 c6bc 3cdc e63d
00000070: 9fbe 903d 49f2 983d af45 68bc 297e d03c
00000080: fa38 483d e969 f5bd 3c53 37bd f7a7 a33b
00000090: 1cdf 39bd cae5 88bc add6 6cbd f994 f73c
000000a0: fa1e f83c d9e9 ad3d ad6b bb3c 07c3 5f3d
000000b0: 6dee 1bbd 1191 ecbc cf57 b1ba 72c7 2d3d
000000c0: e0da 1dbd b304 81bc 0981 29bc e695 dabd
000000d0: d384 88bc f7f5 d6bc 7150 27bd 694c 483c
000000e0: 4c40 5dba 5bd6 2dbc bd56 763d 535a 86bc
000000f0: 66bd 95bd 5efd c7ba 1424 fabb 043c 013c
00000100: 773d 883c 7635 04bd 9e89 cebd 55eb 32bd
00000110: 9522 75bd f8d9 16bc 4080 f43c f697 33bd
00000120: f26b 1e3b cc02 a23d b83d 85bc c5e0 ca3c
00000130: 2b8a 9dba d8c7 3f3c b48e c8bc 31fc 463d
00000140: 01a1 e43c ce2c e23d eb1e b13c 8c09 103c
00000150: e881 1dbd d35d b63c 5456 e93b cef0 603c
00000160: 99c4 c1bd b5f6 afbd 2177 4c3d 09dd cebd
00000170: 5209 203d 6a0a 06bd 1562 02bc 8425 603c
00000180: 0903 97bc 844e cfbb 556b 30bc d9c9 b93c
00000190: 8b64 b1bd 8f19 35bd 7eb5 af3d c403 d4bb
000001a0: 69b9 a0bc 790d 2bbe 4aff 4b3d 8096 9ebc
000001b0: 2321 d93c d0fb 383e 1c64 723c d561 343c
000001c0: 44f3 4b3c b057 a43c 47bb 84bc dfd7 d9bd
000001d0: 6c25 cc3c bc2a debb d6ab c4bd 4518 5dbd
000001e0: 09ce 18bb e722 e93d 3ca5 5abc 460d a0bb
000001f0: 3ace bf3d 27c4 d9bc 033f 2a3d 9e2f 683d
00000200: a415 1f3d 836f bf3d fd0a 3a3d bdbc 663d
00000210: ff8f 1fbd 26d3 40bc 33db be3d c561 603d
00000220: 6a11 c8bb 0bb4 07be f92e 2a3d 8ccf a43d
00000230: e4b4 323d b5aa b5bd bdd2 e8bb fb36 483d
00000240: c64f 69bd 886d 37bd 1d62 323d 3538 8ebb
00000250: 3862 a4bc e351 433b 83a4 adbd 4b9a cc3a
00000260: c034 5abc 3033 003e 8a9b 953d 9da2 1b3c
00000270: 9727 b1bd 87fa a9bc dc8d fd3c b8f4 a93c
00000280: c28f 2b3d 83d1 09be 1f87 9d3c eeac ae3d
00000290: cd1c 1fbd 84c6 febd d20c 123d 8992 61bd
000002a0: 1645 86bb 925d e53d 587c 8c3c 7022 c13c
000002b0: b6a0 a2bd 7668 a03b 62a2 273c fc5e 6bbd
000002c0: e59d e1bc 9dfd a43d b4fe c6bd 6a1f 2abd
000002d0: 0165 c8bd 3bcb 90bd 63be 5dbc d345 b0bc
000002e0: f340 44b9 c8b8 f6bc 5167 27bd f349 6e3b
000002f0: c282 ccbc c5cc 4fbc 7d6c 49bd 4e54 7e3c
00000300: de9b 9bbd c578 1abd 2104 4a3d 5ff8 e33d
00000310: e50a 983d 8bcf fb3b 11e3 ab3c d9cf f83b
00000320: 2635 f4bd 3b1b f9bc c4dd 773d 5399 8dbd
00000330: f826 643d 987e 243d 7937 88bd 4fd7 a2bb
00000340: 6b53 71bd 9afe 0dbd e9ae 89bd a015 3e3d
00000350: 8350 1c3e 2dfd e8bd 7d17 b4bd ad50 2f3c
00000360: 0695 063d 9cf6 2c3d 11d5 013d e1b4 45bd
00000370: 2a1e d0bc 4a23 883c 298b 933c ba49 0dbd
00000380: 55f5 e2bd 452e 9b3d f4f0 07be 6e56 013e
00000390: 77ab a13d 810c 213d 9288 723d 468b cc38
000003a0: f37a 4bbd 324c 9abd c97d f8bd 0f8d be3d
000003b0: 882f f23c d74c 45bd dc86 e4bd 4a50 ccbc
000003c0: 96b3 1c3d 7516 aebc 0771 d43d ac4d 7ebd
000003d0: 4f95 ab3d f1cb cebc 66ce febd 3fd3 ec3c
000003e0: 36a0 a83c 2abf fc3b 9f72 b23c e5f9 9a3c
000003f0: 79fd 9ebc 6201 0a3d d1ec 503d 7c6f 6e3c

head.weight f4 [16, 768]
-0.10704062 -0.09879026 0.11003064 0.08072451 0.038474288 0.03588082 -0.041968305 0.009998716
-0.121710666 -0.057201598 0.02194328 -0.071620226 -0.17654008 0.07308473 -0.00029143505 -0.017741915
0.18785462 -0.15315194 0.022811374 -0.17773688 -0.033829276 -0.0398601 0.14377798 0.06724175
-0.06342752 -0.0058802995 -0.001177868 0.07185363 0.06313297 -0.11809107 0.07274819 -0.07846891
-0.02695183 -0.12809771 -0.01979376 0.10858151 0.10241951 0.05839131 -0.07114633 0.012278723
-0.007770858 -0.0675848 -0.024391664 0.04935822 -0.10796641 0.07488926 -0.13626197 -0.023149323
0.010110429 0.046563614 0.003389799 -0.10874706 0.0790288 0.090353206 -0.17809464 0.12716945
0.104447454 -0.021512136 -0.031038173 0.0389195 0.004132576 0.05166401 -0.12477687 0.1031087
-0.076202795 -0.10996855 0.10977259 -0.023788888 0.09325223 0.2527242 -0.008987378 0.096974224
0.14489028 -0.13949588 0.09377518 -0.20985717 -0.0326482 0.071473 -0.09432067 -0.082066804
-0.014880734 -0.11224594 -0.054678597 -0.02700033 -0.063382715 -0.048927974 0.057259165 -0.05200424
0.0064838827 0.0025171023 0.02305912 0.056299053 0.033420034 0.004814539 -0.09537753 -0.122198865
0.016319185 0.02345813 -0.06452286 0.0910241 0.07082945 -0.09746574 0.027919564 0.024537716
0.058449354 0.1165816 -0.03761209 -0.059950963 0.15198222 -0.06416058 0.028718252 -0.021713095
-0.06945514 0.015627217 -0.015152605 0.138883 0.031098051 0.044483032 -0.036941014 -0.09882795
0.08471499 0.006172293 -0.049849886 0.09199323 -0.019859966 -0.05439893 0.039402064 -0.00021522352
0.07554764 0.118862845 -0.058043685 0.0294171 -0.17462498 0.0787246 0.03455635 0.026044447
-0.033694286 -0.077182844 0.13588099 -0.09107301 -0.053458933 0.1397198 0.06880147 -0.07859136
0.037697032 -0.10752493 0.06639231 -0.051095776 0.0077820634 -0.14936283 -0.028807642 0.007751475
0.05585523 0.111100756 -0.07642051 -0.03464599 0.01739839 0.06527124 0.16505426 0.10585242
0.16032788 0.15391381 -0.023492968 -0.0491937 -0.13302603 0.032972585 -0.041444965 0.042340234
0.14690177 0.088984035 0.053519264 -0.019918052 0.045059524 0.08657639 0.11592706 0.15588398
-0.12950344 0.00819905 0.012692055 -0.06919949 0.25705612 0.10142271 -0.077686 -0.075996004
-0.06866489 0.039336134 0.0016075574 0.036954444 -0.14347483 -0.066840105 -0.012733485 -0.031217327
-0.24695529 -0.04708671 -0.0076461956 0.11268116 -0.03590232 -0.1615848 -0.07738004 -0.1798022
-0.07964792 -0.16750878 0.13457704 -0.0393453 0.08705458 -0.1727171 0.017469194 0.021578366
-0.17844702 -0.001788742 -0.058796197 -0.03219052 0.16887133 0.063007064 0.1118691 -0.0001218849
0.00024948208 0.07191574 0.1823085 -0.1288406 -0.05598644 -0.055095103 -0.09617761 0.05224607
0.038757 -0.07281694 0.17727445 -0.010403895 -0.009241799 -0.052357487 0.030534143 0.20269318
-0.053567138 -0.06816344 0.0022196195 -0.074171774 -0.08778123 0.09049427 -0.0030846824 -0.008791785
0.028855348 0.013001188 -0.12833014 -0.047208853 0.027532155 -0.07872914 -0.16804622 0.04475569
-0.05392546 0.16895284 -0.05583574 -0.13745542 -0.16019486 0.050006993 -0.19105867 0.005386917
00000000: 1d38 dbbd 8c52 cabd bf57 e13d e452 a53d
00000010: 3797 1d3d c4f7 123d f5e6 2bbd a8d1 233c
00000020: 7143 f9bd 394c 6abd 65c2 b33c a0ad 92bd
00000030: ecc6 34be 72ad 953d c0cb 98b9 7e57 91bc
00000040: f65c 403e ddd3 1cbe ebde ba3c a800 36be
00000050: 9190 0abd 5844 23bd 893a 133e 0bb6 893d
00000060: 4ae6 81bd 87af c0bb b162 9aba ff27 933d
00000070: dc4b 813d bbd9 f1bd 01fd 943d 4fb4 a0bd
00000080: 16ca dcbc 0c2c 03be 8626 a2bc fc5f de3d
00000090: 52c1 d13d ba2b 6f3d 2bb5 91bd b22c 493c
000000a0: aea2 febb e669 8abd 07d1 c7bc d82b 4a3d
000000b0: 7e1d ddbd 8a5f 993d 4288 0bbe a6a3 bdbc
000000c0: 36a6 253c 7db9 3e3d 6427 5e3b c7b6 debd
000000d0: dad9 a13d 1a0b b93d 715e 36be b538 023e
000000e0: 8ce8 d53d 383a b0bc c443 febc 0e6a 1f3d
000000f0: 8f6a 873b a49d 533d 048b ffbd a72a d33d
00000100: 3610 9cbd 3137 e1bd 74d0 e03d eae0 c2bc
00000110: 06fb be3d 1165 813e cc3f 13bc 6c9a c63d
00000120: 1e5e 143e 02d8 0ebe 340d c03d cce4 56be
00000130: 1eba 05bd 7060 923d 322b c1bd a412 a8bd
00000140: 52ce 73bc 33e1 e5bd aaf6 5fbd cc2f ddbc
00000150: ccce 81bd b368 48bd 9688 6a3d 6602 55bd
00000160: c076 d43b f8f5 243b 7be6 bc3c d699 663d
00000170: 72e3 083d 48c3 9d3b 4b55 c3bd 6643 fabd
00000180: d0af 853c 442b c03c 9024 84bd d86a ba3d
00000190: 080f 913d 1e9c c7bd 92b7 e43c 5203 c93c
000001a0: 9768 6f3d 55c2 ee3d 230f 1abd 248f 75bd
000001b0: 3aa1 1b3e 9f66 83bd 8a42 eb3c a9df b1bc
000001c0: 7f3e 8ebd a604 803c a242 78bc 5837 0e3e
000001d0: 57c1 fe3c d733 363d 764f 17bd 4f66 cabd
000001e0: 0d7f ad3d f240 ca3b 652f 4cbd f266 bc3d
000001f0: 5eb1 a2bc 6ad1 5ebd 0f64 213d a0ad 61b9
00000200: b9b8 9a3d 5d6e f33d 37bf 6dbd 21fc f03c
00000210: e4d0 32be 5d3a a13d f68a 0d3d 2a5b d53c
00000220: 0503 0abd 0a12 9ebd 6324 0b3e 7c84 babd
00000230: c1f7 5abd b512 0f3e c9e7 8c3d 82f4 a0bd
00000240: 3468 1a3d 0836 dcbd b1f8 873d ce49 51bd
00000250: ae00 ff3b 92f2 18be 01fe ebbc 1600 fe3b
00000260: 74c8 643d cb88 e33d 5b82 9cbd f4e8 0dbd
00000270: 1287 8e3c eeac 853d fc03 293e 27c9 d83d
00000280: fe2c 243e 959b 1d3e 5374 c0bc 557f 49bd
00000290: fa37 08be 430e 073d 32c2 29bd f46c 2d3d
000002a0: 6b6d 163e 433d b63d 0437 5b3d 2f2b a3bc
000002b0: 5690 383d f64e b13d 2b6b ed3d 0da0 1f3e
000002c0: 8d9c 04be 4f55 063c 56f2 4f3c 76b8 8dbd
000002d0: dc9c 833e b6b6 cf3d d619 9fbd cba3 9bbd
000002e0: 2ea0 8cbd ed1e 213d adb4 d23a 8b5d 173d
000002f0: 11eb 12be 77e3 88bd 1ba0 50bc 7bbb ffbc
00000300: d9e1 7cbe fedd 40bd f08c fabb 61c5 e63d
00000310: 500e 13bd 7c76 25be 6d79 9ebd 111e 38be
00000320: 731e a3bd 6c87 2bbe 90ce 093e 8a28 21bd
00000330: ac49 b23d c0dc 30be 8e1b 8f3c 1dc5 b03c
00000340: d1ba 36be 3974 eaba 48d4 70bd 35da 03bd
00000350: 9bec 2c3e d909 813d a01b e53d 759c ffb8
00000360: ebcc 8239 8f48 933d 14af 3a3e caee 03be
00000370: 0a52 65bd 67ab 61bd c4f8 c4bd faff 553d
00000380: a9bf 1e3d 0c21 95bd 6f87 353e 1975 2abc
00000390: ea6a 17bc ce74 56bd bd22 fa3c cd8e 4f3e
000003a0: 3769 5bbd 4699 8bbd 0977 113b 5fe7 97bd
000003b0: a5c6 b3bd 0f55 b93d 6228 4abb 6b0b 10bc
000003c0: 0d62 ec3c ef02 553c fa68 03be 125e 41bd
000003d0: 1d8b e13c be3c a1bd 4f14 2cbe be51 373d
000003e0: f1e0 5cbd f901 2d3e 04b4 64bd 1dc1 0cbe
000003f0: 1f0a 24be 22d4 4c3d e2a4 43be bc84 b03b

head.bias f4 [16]
0.034953386 0.02615854 0.02377836 0.023537965 -0.01692477 -0.008734898 -0.041132256 -0.010836426
-0.021971798 0.014323999 -0.020113766 -0.0333447 0.02465283 -0.022873947 0.021625625 -0.031843416
00000000: 482b 0f3d 6f4a d63c d6ca c23c b1d2 c03c
00000010: d1a5 8abc d11c 0fbc 4c7a 28bd 448b 31bc
00000020: 33fe b3bc 35af 6a3c a0c5 a4bc 7494 08bd
00000030: bbf4 c93c 2562 bbbc 3928 b13c 3e6e 02bd

FacTu.weight f4 [32, 768]
0.072683714 0.030383814 0.08819879 -0.045958146 -0.047238022 -0.06847364 0.066291004 -0.028238516
-0.020636342 -0.0017303146 0.062421266 -0.20910683 0.08172542 -0.006398843 -0.024374053 0.022638822
0.06661287 0.09337222 0.02566893 -0.03348748 0.013342856 0.1003668 -0.11774138 0.025443586
-0.12137802 0.020632949 -0.017747905 -0.026072882 0.07335472 0.057913184 0.09823033 -0.12055061
-0.080261014 -0.023429947 0.028371995 0.017681826 0.04730567 0.05864718 -0.044428736 -0.055978354
-0.11334682 0.02352083 -0.0036956673 -0.046098154 0.040882282 -0.021803372 -0.16762061 0.0012269381
0.06480426 -0.0063339206 0.027742753 0.011969749 -0.045283094 0.09932893 0.05203539 -0.07201546
-0.004098243 0.011359162 -0.03275867 0.023617614 -0.0014353094 -0.054717522 0.08761322 0.017008876
0.06251556 -0.07845649 0.023854038 0.07019018 -0.09850319 0.04290789 -0.05617157 0.17926076
-0.054412045 0.10572904 -0.03352291 -0.08733629 0.031931423 -0.09732556 -0.0768126 -0.18494788
-0.027581342 -0.03466868 0.12640865 -0.011167851 -0.05552556 0.039560176 -0.00867716 -0.016449783
0.015446448 0.1138891 0.0016600245 -0.06530778 -0.048588324 0.07537858 0.022613851 -0.014621648
-0.08134819 -0.020197349 0.013601358 0.007566589 -0.10932276 -0.039888486 -0.08200954 -0.15256146
-0.04631131 0.033776816 -0.11653509 0.047135506 -0.0054755835 0.00016517371 0.014834111 -0.12641686
-0.15809715 0.17653795 0.0040472033 -0.04112518 -0.12780373 0.116296135 0.021914588 0.099732354
0.062279698 -0.04228356 0.09952956 -0.07897819 -0.012993849 -0.12872188 -0.05934412 0.08489648
-0.06552104 0.07212234 0.004101925 -0.013263659 0.0504322 0.055344317 -0.01696378 0.06981614
-0.16669524 -0.012393383 0.09324399 0.07329964 0.04779564 -0.03789781 -0.054570053 -0.078254655
0.04546228 0.08472483 0.00805412 -0.05628966 0.06698728 0.026609672 -0.012292475 0.03729967
-0.0046700495 0.026047103 -0.0075566317 0.0054933545 0.022761362 0.046581946 -0.043633003 0.017794147
0.032420963 0.08005586 0.0100212805 -0.026864603 0.02377402 0.04731459 -0.09711964 -0.0099736955
0.042441484 0.017872518 -0.009314076 -0.09159544 0.01718075 -0.046060286 0.050929204 0.029316919
-0.0148250675 -0.009133278 -0.018025918 -0.03697542 -0.060091462 -0.06721599 -0.059876304 -0.046282746
-0.122908466 0.032993957 -0.002774715 0.04969588 -0.0763226 -0.029458016 -0.056598797 0.09824856
0.051990695 -0.05029958 0.04195266 0.008057237 0.080345504 -0.026851865 0.035731535 0.0499168
0.038865667 0.030095901 -0.073309086 -0.08517021 0.045031283 0.06098731 -0.030874494 0.06457431
-0.12115478 -0.02231372 0.04802854 0.015210708 -0.10297749 -0.009944932 0.060879946 -0.116952114
-0.09745133 -0.026738055 -0.16858435 -0.032337666 -0.10451679 0.03002419 0.06479017 0.018382175
-0.06627853 0.04877632 -0.022754628 0.046930928 -0.10781425 0.06152755 0.009172955 -0.1464445
0.037430566 -0.16000935 -0.059653416 0.05052206 0.2154133 -0.018028481 -0.016928622 -0.060020056
0.21651097 -0.028690977 -0.06811016 0.031981476 0.046928685 -0.09450502 0.006679508 -0.026981404
0.020088574 0.029898763 -0.08973989 0.014505859 0.065796 -0.013265663 -0.043352094 -0.017300187
00000000: 33db 943d 7ae7 f83c 91a1 b43d 9c3e 3cbd
00000010: a87c 41bd e83b 8cbd 94c3 873d 7654 e7bc
00000020: 8c0d a9bc b9cb e2ba 71ad 7f3d 1a20 56be
00000030: a85f a73d 63ad d1bb 18ac c7bc 0d75 b93c
00000040: 546c 883d ef39 bf3d a647 d23c 2b2a 09bd
00000050: ff9b 5a3c 1c8d cd3d 6522 f1bd 116f d03c
00000060: 0a95 f8bd 6e06 a93c 0e64 91bc cc96 d5bc
00000070: 003b 963d 6036 6d3d fc2c c93d 3de3 f6bd
00000080: e35f a4bd 29f0 bfbc 636c e83c 7ad9 903c
00000090: 97c3 413d 0738 703d e8fa 35bd 8f49 65bd
000000a0: 6122 e8bd c1ae c03c 0233 72bb 6bd1 3cbd
000000b0: 2e74 273d fc9c b2bc bda4 2bbe 36d1 a03a
000000c0: 19b8 843d c78c cfbb c544 e33c c41c 443c
000000d0: c47a 39bd f76c cb3d 1023 553d d77c 93bd
000000e0: 8e4a 86bb c71b 3a3c f52d 06bd ba79 c13c
000000f0: fe20 bcba 7b1f 60bd 8f6e b33d 3356 8b3c
00000100: 2808 803d ccad a0bd 8b69 c33c debf 8f3d
00000110: 0abc c9bd 2fc0 2f3d 2914 66bd 2290 373e
00000120: 2adf 5ebd 7888 d83d 524f 09bd 5edd b2bd
00000130: 86ca 023d a052 c7bd ed4f 9dbd fa62 3dbe
00000140: 44f2 e1bc bf00 0ebd 4571 013e 5df9 36bc
00000150: c56e 63bd da09 223d a62a 0ebc b2c1 86bc
00000160: 1913 7d3c b03e e93d 2e95 d93a 16c0 85bd
00000170: 8d04 47bd 1660 9a3d af40 b93c a38f 6fbc
00000180: e199 a6bd e974 a5bc 3bd8 5e3c 26f1 f73b
00000190: 9ce4 dfbd 1c62 23bd 9ef4 a7bd 1239 1cbe
000001a0: eeb0 3dbd 8f59 0a3d f3a9 eebd 2911 413d
000001b0: 866c b3bb 7b32 2d39 c50a 733c 6c73 01be
000001c0: 38e4 21be 5dc6 343e 679e 843b e072 28bd
000001d0: fbde 02be ab2c ee3d 3986 b33c 7a40 cc3d
000001e0: ff18 7f3d 8731 2dbd 27d6 cb3d 51bf a1bd
000001f0: 27e4 54bc abcf 03be d212 73bd 35de ad3d
00000200: e52f 86bd e1b4 933d 7169 863b d14f 59bc
00000210: ff91 4e3d b9b0 623d a0f7 8abc c4fb 8e3d
00000220: 28b2 2abe 9e0d 4bbc b4f6 be3d 1f1e 963d
00000230: 5cc5 433d bc3a 1bbd d984 5fbd fa43 a0bd
00000240: a836 3a3d 3684 ad3d 6df5 033c fd8f 66bd
00000250: a130 893d 87fc d93c 6166 49bc 8ac7 183d
00000260: 3707 99bb bc60 d53c 9f9d f7bb 9901 b43b
00000270: 0976 ba3c b6cc 3e3d 85b8 32bd 08c5 913c
00000280: d8cb 043d 54f4 a33d 4c30 243c 2813 dcbc
00000290: bcc1 c23c f2cc 413d a9e6 c6bd b668 23bc
000002a0: 1fd7 2d3d 6369 923c 119a 18bc 6496 bbbd
000002b0: a5be 8c3c b6a9 3cbd 249b 503d 092a f03c
000002c0: d7e4 72bc bfa3 15bc 17ab 93bc 8a73 17bd
000002d0: 7722 76bd 89a8 89bd db40 75bd fa92 3dbd
000002e0: 6fb7 fbbd ac24 073d fed7 35bb e88d 4b3d
000002f0: 064f 9cbd f051 f1bc 24d4 67bd 8b36 c93d
00000300: 32f4 543d ef06 4ebd 8dd6 2b3d 8002 043c
00000310: 2f8c a43d 71f8 dbbc 3b5b 123d 8f75 4c3d
00000320: 9b31 1f3d ae8b f63c 1323 96bd b86d aebd
00000330: b972 383d d4cd 793d 82ec fcbc 893f 843d
00000340: ff1f f8bd 43cb b6bc 93b9 443d 5536 793c
00000350: dde5 d2bd 11f0 22bc 405d 793d 9784 efbd
00000360: 9094 c7bd c409 dbbc 60a1 2cbe 8074 04bd
00000370: e60c d6bd 4af5 f53c b5b0 843d 3796 963c
00000380: 0abd 87bd aec9 473d ea67 babc a53a 403d
00000390: b8cd dcbd 5004 7c3d 294a 163c 8cf5 15be
000003a0: cb50 193d 7ed9 23be 2457 74bd 38f0 4e3d
000003b0: 4e95 5c3e 77b0 93bc e5ad 8abc 97d7 75bd
000003c0: 0db5 5d3e 5709 ebbc 577d 8bbd 02ff 023d
000003d0: 4b38 403d d98b c1bd c6df da3b 1b08 ddbc
000003e0: cb90 a43c 40ee f43c 8cc9 b7bd fca9 6d3c
000003f0: 0ec0 863d 3958 59bc f791 31bd 1fb9 8dbc

FacTv.weight f4 [768, 32]
-0.019198125 0.06332437 0.04134098 0.055111166 -0.0032002097 0.021380568 0.03829964 0.007724218
0.043351606 0.008540533 0.07550317 0.03715605 0.043455373 -0.122633226 -0.05638908 -0.05929461
0.01820334 -0.011854134 -0.082327016 -0.068610914 -0.026962789 -0.01331511 0.027583864 -0.052009992
0.01184977 -0.048118133 -0.030277736 0.016936924 0.057087872 0.032093707 -0.02336253 -0.062592074
-0.053824194 0.017588459 0.06281728 0.041019738 -0.022524517 0.022720065 -0.017673219 -0.013423819
-0.04281459 -0.0503978 0.031948633 0.018101731 0.032785624 0.045337383 -0.018346092 -0.028706145
-0.02712993 0.0315675 0.0010057287 -0.0277911 0.0043833205 0.02978696 0.026107937 -0.019074153
-0.014951278 -0.019122815 0.0142340455 0.04121741 -0.0022981751 0.03648147 -0.011719576 0.025956498
0.040954307 -0.0562938 -0.055122957 0.049602415 0.025332075 -0.032321565 0.018730642 -0.0012841811
0.0116614355 -0.009109238 0.033485167 0.015989263 0.05119673 -0.022255465 0.023972979 0.042574506
-0.014774852 -0.0066439607 0.043893848 -0.0011694917 -0.05335453 -0.08572422 0.006868024 -0.03042984
-0.06745942 0.035249125 -0.020997446 -0.02993366 -0.019182175 0.0528433 0.045548435 -0.023965564
-0.004442673 -0.0042749355 0.015047097 -0.02229322 -0.007545811 0.022451947 0.012823021 -0.037193745
0.027324902 0.025156848 0.0075145233 0.012382466 -0.019183062 -0.0022795645 0.058218755 0.0089117205
0.0019349133 -0.0036080047 0.0075771846 -0.014904897 -0.010851546 -0.049946807 0.048363496 -0.0052382816
-0.014533613 -0.06057395 0.0029937953 -0.086625114 -0.0047161933 -0.0026057533 0.027650975 0.04004441
0.083698876 -0.031941835 -0.012352136 0.05016122 0.008624723 -0.022689741 -0.04205789 -0.03129172
0.045535922 0.021742443 -0.02570308 -0.01598818 0.019118486 0.04895053 0.0038279193 0.006673978
0.012592915 -0.019697294 0.06330701 0.028803084 0.0054944386 0.08336364 -0.017502137 0.0039188685
-0.045816388 -0.040562797 -0.0012452923 -0.008409135 0.0137017 0.018315211 0.02358458 -0.006205002
-0.04447935 -0.011606584 -0.036694802 -0.0077449325 -0.024511669 0.01023793 -0.010547214 0.030778179
0.014878879 -0.022596393 -0.04823775 0.040500976 -0.035855003 -0.027822297 0.016123386 0.010652846
-0.0015221396 0.020283883 0.00079788937 0.04751183 -0.04563317 0.0117107555 -0.010478714 0.009341265
0.031675287 -0.044817246 -0.088104784 -0.008276574 -0.021745337 -0.023142474 0.030623496 0.0073087662
0.007849838 0.037145164 -0.015938453 0.029002683 0.021947373 -0.0014194312 -0.010434322 -0.057692345
-0.011137097 0.009760054 0.016949244 0.00848484 -0.00085483235 0.064864285 0.03125145 -0.012680509
-0.043993328 -0.010147728 -0.0075516715 -0.035370763 0.0038125985 0.036229283 0.00087182067 0.02012868
-0.027684074 0.011773268 -0.006669052 0.026213067 -0.0011067115 0.009033081 0.009106446 -0.019268416
0.022889782 0.027238348 -0.011042948 0.0480543 -0.0055530784 -0.005305179 0.01466471 -0.06259083
-0.026955495 0.013146022 0.019730797 0.004428007 -0.023262756 -0.024136107 -0.022084141 -0.01717917
-0.021037264 -0.007059796 -0.017705254 -0.05832841 0.0001108022 -0.029787993 0.014938979 0.005900846
-0.058518514 -0.043147128 -0.015872061 0.03336185 -0.067314245 0.009599025 -0.011759294 -0.012233005
00000000: 6345 9dbc 35b0 813d 2955 293d 3fbc 613d
00000010: 9cba 51bb 4d26 af3c 15e0 1c3d 701b fd3b
00000020: 7491 313d 97ed 0b3c 68a1 9a3d f130 183d
00000030: 43fe 313d 2127 fbbd 3cf8 66bd e8de 72bd
00000040: 2c1f 953c d737 42bc 119b a8bd e183 8cbd
00000050: 11e1 dcbc 9e27 5abc 8ef7 e13c 6e08 55bd
00000060: 8a25 423c 8517 45bd 0409 f8bc 4ebf 8a3c
00000070: f9d4 693d b174 033d c762 bfbc 4630 80bd
00000080: c276 5cbd ac15 903c 59a6 803d 5004 283d
00000090: 5685 b8bc 6e1f ba3c 6dc7 90bc 94ef 5bbc
000000a0: 5a5e 2fbd ec6d 4ebd 92dc 023d 154a 943c
000000b0: 384a 063d b1b3 393d 8b4a 96bc 2629 ebbc
000000c0: 963f debc ec4c 013d a8d2 833a 29aa e3bc
000000d0: f5a1 8f3b c803 f43c 50e0 d53c 6641 9cbc
000000e0: 35f6 74bc 73a7 9cbc ea35 693c 96d3 283d
000000f0: fb9c 16bb 986d 153d 7703 40bc b9a2 d43c
00000100: b4bf 273d 5494 66bd 9cc8 61bd e72b 4b3d
00000110: 3685 cf3c 9e63 04bd 0171 993c f851 a8ba
00000120: 9b0f 3f3c ea3e 15bc be27 093d eafb 823c
00000130: aab3 513d 1851 b6bc fb62 c43c 9b62 2e3d
00000140: 3912 72bc 95b5 d9bb 09ca 333d a149 99ba
00000150: 488a 5abd 2e90 afbd 290d e13b 0048 f9bc
00000160: 2a28 8abd 6361 103d d602 acbc 6f37 f5bc
00000170: f023 9dbc 3772 583d ff90 3a3d 6e53 c4bc
00000180: d893 91bb c214 8cbb 1988 763c 45a0 b6bc
00000190: da42 f7bb 25ed b73c a617 523c 7858 18bd
000001a0: 79d8 df3c bc15 ce3c 643c f63b d4df 4a3c
000001b0: cc25 9dbc bf64 15bb ca76 6e3d 7702 123c
000001c0: eb9c fd3a 4674 6cbb 084a f83b ab33 74bc
000001d0: afca 31bc 0695 4cbd cd18 463d e4a5 abbb
000001e0: 641e 6ebc 641c 78bd 8d33 443b 8268 b1bd
000001f0: 4c8a 9abb 49c5 2abb 4c84 e23c 9b05 243d
00000200: 516a ab3d 71d5 02bd 9d60 4abc da75 4d3d
00000210: b64e 0d3c d6df b9bc e544 2cbd bf2b 00bd
00000220: e083 3a3d 351d b23c 448f d2bc a5f9 82bc
00000230: 5f9e 9c3c 5a80 483d d4dd 7a3b 63b1 da3b
00000240: 8452 4e3c 385c a1bc 1ba7 813d 72f4 eb3c
00000250: b10a b43b 8eba aa3d a460 8fbc da69 803b
00000260: f7a9 3bbd 2d25 26bd 1339 a3ba 78c6 09bc
00000270: 187d 603c c809 963c 7334 c13c 5453 cbbb
00000280: fb2f 36bd 8b29 3ebc 4a4d 16bd 34c9 fdbb
00000290: b2cc c8bc febc 273c 39ce 2cbc 8522 fc3c
000002a0: 8bc6 733c 121c b9bc f294 45bd 5ae4 253d
000002b0: b2dc 12bd 96eb e3bc 3115 843c 4689 2e3c
000002c0: 8882 c7ba 632a a63c 7329 513a c49b 423d
000002d0: d9e9 3abd 78de 3f3c e9ae 2bbc 1b0c 193c
000002e0: f2bd 013d 4a92 37bd 4870 b4bd 789a 07bc
000002f0: 4723 b2bc 4995 bdbc 20de fa3c 607e ef3b
00000300: 9b9c 003c 8725 183d 5c91 82bc 0997 ed3c
00000310: faca b33c 350c baba b8f4 2abc cf4e 6cbd
00000320: 5f78 36bc a2e8 1f3c 24d9 8a3c 0004 0b3c
00000330: d416 60ba 91d7 843d 8501 003d e9c1 4fbc
00000340: 5932 34bd a842 26bc 0374 f7bb efe0 10bd
00000350: cadc 793b 2865 143d e58a 643a e7e4 a43c
00000360: b6c9 e2bc aae4 403c 1088 dabb c9bc d63c
00000370: 130f 91ba 7dff 133c 3433 153c ccd8 9dbc
00000380: 5a83 bb3c f522 df3c 7bed 34bc 96d4 443d
00000390: 99f6 b5bb 11d7 adbb 4044 703c 9f2f 80bd
000003a0: c5d1 dcbc 6a62 573c 7ba2 a13c d118 913b
000003b0: 8991 bebc 16b9 c5bc cde9 b4bc 55bb 8cbc
000003c0: 5756 acbc dc55 e7bb 9c0a 91bc c5e9 6ebd
000003d0: 7a5e e838 f305 f4bc 9fc2 743c e25b c13b
000003e0: 1cb1 6fbd 0bbb 30bd 2006 82bc 6fa6 083d
000003f0: 0ddc 89bd 3b45 1d3c 0eaa 40bc f16c 48bc
