Final Project/FacT-TK/dsprites_loc_best.pt (torch, 397079 bytes, 6 tensors)

FacTp f4 [32, 144]
00000000: cf1b 47be 8b3d 5cbe d39b 183d 726d 55bd
00000010: 8aa7 c1bd 83d8 30bd faf4 0bbe e58f 0fbd
00000020: 4f7b c63d 131c d63b f850 62bd 504c 31bd
00000030: 8829 c83d ed4e 11be 17c7 fcbd 114b 1f3e
00000040: 5906 1a3e 0d12 b83d d211 34be 9d71 0fbd
00000050: 57c4 09be b008 123d 76c6 233e dafd 0e3d
00000060: f28b 0cbe c920 64bd fd7e 2b3e 600c aa3d
00000070: 6952 d4bd 64e5 293e 7cb2 683d b12c 203d
00000080: b3d6 fdbc afa7 d2bd b329 96bd 4775 d0bd
00000090: 9f1c 113d 6267 203d 200a 28ba 037b 153d
000000a0: d88c 92bd 44b7 be3b 3ef4 f13d 0818 c9bd
000000b0: 2bb9 a9bd 451a d33d 7b20 b7bd 0ce0 d1bd
000000c0: 2118 333d a357 a1bd 7681 ee3d 58c3 6bbd
000000d0: 9d46 583b 11bd 073d b63b aa3d 429e 83bd
000000e0: 2c6b d23d 49dc 933c 96e3 57bd f161 1a3e
000000f0: 21ce 403d 15f6 4d3e fcae cdbd 48ee 193e
00000100: d3d4 373e dcde b4bd b37d e8bc ca2e 3abe
00000110: 1af0 68bd 0dcf dbbd 5a81 d2bd 287d 153d
00000120: e84a 23bd f0b9 26be 2406 233d 369f 67bb
00000130: de4e 41bd b3ad 09be 3054 8a3d e090 15be
00000140: 5f64 a8bd 500e c23d 8cc8 3dbd d850 9b3d
00000150: fe55 13be cc57 df3d c49e a13b d252 393e
00000160: e14d ca3d 06c1 223e 18b4 9d3d 6ff6 f73c
00000170: d0d6 383d 2f77 683e aef6 f03d 098b 2cbd
00000180: b979 123d df88 153e 3374 b5bd 22eb a83d
00000190: b4ca 03be 75e5 12be e2a6 34be efbb 573b
000001a0: 87f2 ad3d 4e00 1a3e 9be0 743d 4f2c 0fbd
000001b0: dda5 0dbe 1f28 6d3d 5b98 a3bd ce1e 3a3c
000001c0: e605 29be 0c45 29be 5c78 ecbd 5412 1b3e
000001d0: 9ddf 1ebe 0d05 d6bc 956a 103e ceb7 f7bd
000001e0: 5c84 cf3d e252 313e b2b9 f63d f14a 04be
000001f0: 5cbe 3abe 580f d2bd d16b 163e 2ba2 81bd
00000200: e3b5 503d 0281 7a3e c622 6abe 8d00 bdbd
00000210: 3ab1 e9bd dd6a 063e ebab 67bd 49db a9bd
00000220: 1167 4fbd dfa8 283e d1ac 173e c3b3 923c
00000230: b2b7 193e a7c3 02be 07f9 433e 4662 2b3e
00000240: b8ef 6f3e 1a83 803d e6fa f0bd f2b9 47bd
00000250: 64b5 df3b 4c7a 8dbb 5b9e 11be 45f6 233d
00000260: 23e6 273d d289 f7bd 0774 62bd 528a f0bd
00000270: e5ac bc3d dad6 51be 4497 99bd 4fbd 153e
00000280: c62b c9bd f6b1 a0bd dafa 013d 7e67 e1bd
00000290: 7449 f53c 7fb7 f0bd af33 0abe 0d17 acbd
000002a0: f374 063d e7de f83b f8c5 f33c c7f3 efbd
000002b0: f9f4 bebd 2e0c 0dbe 8c6f 23be a42f 0fbe
000002c0: 8acb b53d 7fe5 f13d 1cbf 1bbe 8a77 a73c
000002d0: 4931 a13c 4170 913c 7859 1b3c 1c8f 17be
000002e0: dc70 843d 4b1c 8ebc 9f66 2f3e eec9 193d
000002f0: dfbf 10be 6b25 83bd 37e0 0a3e e8a7 593c
00000300: e8de f13d c317 6d3d adf6 db3d 6f0f 43bd
00000310: 4a47 913d 77ed e43b 4f5f ab3c c49e 023e
00000320: 34fd a33d d763 dfbd f5a8 b3bd 4213 ccbd
00000330: 829b dcbd 74e2 82bd 36a3 253e e537 803d
00000340: 7485 2cbe dea6 143e d6b3 723d a281 0cbd
00000350: 724e 0b3e 0977 3c3d 6e45 4f3c da52 2b3e
00000360: 2590 f33d be05 a53c cbf0 dd3d abab 383c
00000370: 3281 81bd 2402 313e 991c 36bd 03ff 743d
00000380: a3bd 17be 0e40 b7bd ca9a 3cbc 354c 373d
00000390: fc58 b83c d71c c43c a1da 903d 3e70 c9bd
000003a0: 1520 29bc 4672 3ebd 11df 4ebe 1024 2bbe
000003b0: 4ebc 0fbe eb2e 1e3e bad3 d43b f3f8 d43d
000003c0: 0c29 6cbd a5df 38be 5a22 a7bd cba1 123d
000003d0: 7c24 ecbc 4aff 3b3e 451c 1abe 7a77 383e
000003e0: 3acf 25be 73bc fbbc 0483 15be 0faa 14be
000003f0: 68f0 d3bd b77a cb3d 9305 d9bd 0620 3a3e
-0.19444202 -0.21507852 0.03725798 -0.05210633 -0.09455784 -0.04317523 -0.1366767 -0.035049338
0.09691488 0.0065341084 -0.055253 -0.043285668 0.097735465 -0.14190264 -0.12342661 0.1555598
0.15041484 0.08987818 -0.17584923 -0.03502046 -0.13453804 0.035652816 0.15993676 0.03491006
-0.1372526 -0.05569533 0.16747661 0.083031416 -0.10367281 0.16591412 0.05681084 0.03910512
-0.030986166 -0.10285889 -0.07332172 -0.10178619 0.035427686 0.039161094 -0.00064102 0.036494266
-0.0715577 0.005820187 0.118141636 -0.09819037 -0.08287271 0.10307745 -0.08941742 -0.10247812
0.043724183 -0.078780435 0.116457865 -0.05755934 0.0033001073 0.033139292 0.0831217 -0.0642667
0.10274348 0.018049376 -0.052707277 0.15076424 0.04707158 0.20113404 -0.10043141 0.15032303
0.1795228 -0.088315696 -0.02838025 -0.18181911 -0.056869604 -0.10732851 -0.10278578 0.03649631
-0.039866358 -0.16281867 0.039800778 -0.00353427 -0.047194354 -0.13445167 0.06754339 -0.14606047
-0.08222269 0.09475386 -0.046333835 0.07583779 -0.14388272 0.10905418 0.0049322564 0.18098
0.098781355 0.15893945 0.07700366 0.030268876 0.045126736 0.22701715 0.117658004 -0.04212478
0.035760615 0.14602993 -0.08860054 0.08247973 -0.12870294 -0.14345343 -0.17641786 0.0032918414
0.08493524 0.15039179 0.059784513 -0.034954365 -0.13832803 0.05789959 -0.07988044 0.0113598835
-0.16506156 -0.16530246 -0.11546394 0.1514371 -0.15514989 -0.026125455 0.14103158 -0.12095605
0.101326674 0.17316774 0.12047137 -0.12919213 -0.18236679 -0.10256833 0.14689566 -0.06329759
0.05095471 0.24463275 -0.22864828 -0.09228621 -0.114107564 0.13126703 -0.056560438 -0.082937784
-0.0506354 0.16470669 0.14812018 0.017907983 0.1501148 -0.12769948 0.19137965 0.16736707
0.23431289 0.06275006 -0.11766605 -0.048761316 0.0068270434 -0.0043175574 -0.14220564 0.040029783
0.04099096 -0.12086834 -0.055286434 -0.117451325 0.092126645 -0.20492116 -0.07499555 0.14622997
-0.09822802 -0.07846443 0.03173337 -0.11006068 0.029942252 -0.11753749 -0.13496278 -0.08402834
0.032826375 0.0075949314 0.029757485 -0.11716419 -0.093240686 -0.13774177 -0.1596052 -0.13983017
0.088767126 0.11811351 -0.15209621 0.020442743 0.019676821 0.017753722 0.00948178 -0.14800686
0.06466839 -0.017347476 0.1712899 0.03754609 -0.14135693 -0.06403621 0.13562094 0.013284661
0.11810094 0.05788399 0.10740409 -0.04762214 0.070936754 0.006986316 0.02091947 0.12755877
0.08007279 -0.10907715 -0.0877246 -0.09964611 -0.10771848 -0.06390849 0.16175541 0.06260661
-0.16847783 0.1451678 0.059253536 -0.034303315 0.13604143 0.04601196 0.012650831 0.16730824
0.11892728 0.02014434 0.10836943 0.011271398 -0.0632347 0.17285973 -0.044460867 0.05981351
-0.14818434 -0.08947764 -0.011511514 0.04475041 0.022503369 0.023939533 0.0707295 -0.098358616
-0.01032259 -0.0464957 -0.2020228 -0.16712976 -0.14036676 0.15447585 0.0064949663 0.10399046
-0.057656333 -0.18054064 -0.08160849 0.03579883 -0.02882599 0.18359104 -0.15049846 0.18014327
-0.16192332 -0.030729508 -0.1460076 -0.14517997 -0.10348588 0.099355154 -0.10596766 0.18176278

FacTc f4 [32, 32, 32]
00000000: 6d80 81bc 0daf 5a3d b44c 5fbc 6c07 f4bc
00000010: 898a d4bc 9f2f 3b3d 78e6 00bd ea6f 01bd
00000020: a07c ee3c 22b8 2abb bc1a 9a3c 15eb b3bc
00000030: 5818 ab3c ac39 2f3d 85b6 a5bc ef12 26bd
00000040: c3d8 7d3b 1ca2 ec3c 971d 4bbc aecb 2d3d
00000050: 6cc8 9bbc be6f 9c3c b240 293d 4a63 0cbc
00000060: a67a df3c 72d8 78bb c4f9 533c 9c2d 8e3c
00000070: f156 343d 0818 353d 9ce5 c9bc 8948 9a3c
00000080: 1d8b 1d3c 02a2 3dbd 9be3 eebb 31d4 14bd
00000090: 1e21 663c f6de 2fbd 1ad6 17bd 9232 cc3b
000000a0: ab23 553d fbb7 b4bb 11c9 2dbd f458 363a
000000b0: fe20 5f3c cc0a a83c 9330 603d 0b6e 1a3d
000000c0: 28fd edbc cfb4 99bb 0f94 e3bc d605 01bd
000000d0: 91a9 8dbc 5734 1abd 1f2b 01bd f0f5 f539
000000e0: cd85 f83c 89d7 2cbd 7a03 b63c 8b93 fd3c
000000f0: ee04 3dbd 274c d4bc 183b a5bc 372f 3c3d
00000100: 78fc 1f3d e622 fbbc ff44 bcbb 07cf 78bd
00000110: d4b2 08bd 1980 b1bc 7f4a a63b b5e1 2ebd
00000120: 53b5 bb3d 1876 623c d7b6 123d 352c b9bc
00000130: 3a96 63bc 29f2 c1ba 9dd3 66bb ed84 46bc
00000140: c5fa b8bb cc2a 693d ead0 0c3d 3b80 0f3d
00000150: 40cc 73bd 2ca9 1bbb c3e3 13bb 273d 613c
00000160: 6134 c4bc b81f fc3c dd6d 0dbb f1fe 3abd
00000170: 92ac 203d cd0e 4ebd 2b25 223d 4d48 913c
00000180: 8bc9 b2bc 52e1 f1bc 8823 573c f8db 603d
00000190: 5005 acbc 6d94 a63b bec5 593d 2027 ed3c
000001a0: a55e 4dbc c643 3fbd 3674 f53c 97ac f43b
000001b0: a523 52bc c74b 923c be78 7eba 985a 54bd
000001c0: d1c1 fdba 1789 63bc 27d8 2c3a 5f37 6dbd
000001d0: 0977 e0bc ddd3 e53c 3858 14bc aa90 acbc
000001e0: a336 8e3b f561 013d 8bbe 0bbc 58c3 103d
000001f0: 7bac 823d 62e1 91bb 3b91 6d3d 9f19 323d
00000200: ac6e 273c 23c9 aabb b443 1c3d 9b78 d43c
00000210: 06b4 a2bd 3e3e 64bd 480c 283d d2b8 5b3d
00000220: 66e2 873d 3278 4ebd e27d f3bb 0817 813c
00000230: ded2 b6bb 4e6e f9bc cbe9 833c 2bff 16bc
00000240: 4134 593d caa1 23bc 91fa 3ebd cfe2 12bc
00000250: 61cd 47bd ab73 a1bc 705b ac3b 7f98 763b
00000260: 222c b8bb d7bb 613c 1d04 7d3d bb08 8a3c
00000270: e92f 7abd 7481 c23c e965 9dbb 8882 d1bc
00000280: 78cc 843d 9c5a 99bd 6d3f 643b 143e 2c3d
00000290: a3fb dfbb 3744 4dbb 45b3 633c ff58 31bd
000002a0: 220d 593b e720 373d 5bd8 bb3c a37e b93c
000002b0: 08a6 203b b057 f1bb 88ef f63b b63c 8bbd
000002c0: 0afe f4bc 05a8 843c 2a42 b2bc bdbd f6bc
000002d0: 7b86 66bd 2886 31bc a8ad 95bc 82a6 5a39
000002e0: 653e 4b3c 7e46 a5bc 613c 00bd 5b4d 9e3b
000002f0: 0eb8 c1bc aa61 693c ddcf 49bd 8959 353d
00000300: cf1a 2bbb fdcc 3ebd d38b dc3c 8fe9 053d
00000310: b4ba 813d bad9 6ebd 6970 abbc 375c d93c
00000320: 59a4 49bb f7ae 37bc 0aff d33c cb54 9fbc
00000330: bdf7 0b3d 1252 e13c 66b0 28bd e6b2 d0bb
00000340: 5090 0fbd 702a 06bd 73d9 ecbc 4d66 18bd
00000350: a333 353d e2bf 20bd ceea 2abd 0e45 273b
00000360: 4c25 46bd aa5d 21bd b3d9 4fbd ac8e a1bc
00000370: b1ac 46bc c3b7 7abb 3456 8dbb 9107 823c
00000380: 3d83 5fbd 5543 103d be40 35bd 7eef b73c
00000390: d76f 583c 66bc 92bb b72e 6f3d 7d8f ffbc
000003a0: 9b72 f53c e3f4 98bd 36a8 43bd 4d79 4c3d
000003b0: 15b7 daba 6ab2 fb3c cde4 01bd c711 89bd
000003c0: 2d68 243d 413a 01bd 4533 403d ae14 263d
000003d0: 7fd5 3b3d 013d 45bd d044 71bd ee21 bcbc
000003e0: d17e 9c3d 6134 323c 343e d83c 764d 623b
000003f0: b9d1 1bbd ccae a0bc a0f1 4f3d e584 9cbb
-0.015808308 0.053389598 -0.013629127 -0.029788695 -0.025944965 0.045699712 -0.031469792 -0.03160087
0.02911216 -0.0026049693 0.018811576 -0.021962682 0.020885631 0.04277961 -0.020228634 -0.0405454
0.0038733936 0.028885894 -0.0123971915 0.042430572 -0.019016467 0.019096252 0.041321464 -0.008568594
0.027280163 -0.0037970808 0.012937967 0.017355733 0.044028226 0.04421237 -0.02464562 0.018833416
0.009615687 -0.04629708 -0.0072903163 -0.036335174 0.014045982 -0.04293724 -0.037069418 0.0062316144
0.05203597 -0.0055150962 -0.04242808 0.0006956004 0.013618706 0.02051296 0.054733824 0.0377026
-0.029051378 -0.0046907435 -0.02778056 -0.031499706 -0.01729277 -0.03764757 -0.031535264 0.0004691328
0.030337239 -0.042197738 0.022218455 0.030954143 -0.04614728 -0.025915219 -0.02016978 0.045943465
0.039059132 -0.03065629 -0.0057455297 -0.06074431 -0.03337367 -0.021667527 0.0050747986 -0.04269572
0.09165444 0.013822101 0.0358189 -0.022604087 -0.013890797 -0.0014796901 -0.0035221346 -0.012116653
-0.0056451284 0.05692558 0.034378923 0.0350344 -0.05952096 -0.0023751957 -0.0022566176 0.01374749
-0.023950757 0.030776843 -0.0021580376 -0.045653287 0.039227076 -0.050307084 0.039586227 0.017734671
-0.021824619 -0.029526386 0.01313103 0.05489728 -0.020998627 0.0050836117 0.053167097 0.02894932
-0.012534772 -0.046695493 0.02996264 0.0074668634 -0.012825881 0.0178584 -0.0009707323 -0.05184421
-0.001936013 -0.013887665 0.00065934885 -0.057914134 -0.02740051 0.028055126 -0.009054236 -0.021065075
0.0043400093 0.03158756 -0.008529316 0.035342544 0.06380554 -0.0044519166 0.05799983 0.043481465
0.010219257 -0.0052119656 0.038150504 0.025936415 -0.07944493 -0.05572342 0.041027337 0.053643055
0.06634979 -0.050407596 -0.007430778 0.015758052 -0.0055793365 -0.030448105 0.016102692 -0.00921611
0.05302835 -0.009987304 -0.046625677 -0.008965208 -0.04877985 -0.019708475 0.0052599236 0.0037627516
-0.0056204954 0.013777695 0.0617715 0.016849866 -0.061080847 0.023743369 -0.0048034084 -0.025574937
0.06484312 -0.074879855 0.0034827844 0.04205139 -0.0068354174 -0.0031321177 0.013897722 -0.043297764
0.00331194 0.044709112 0.022930315 0.022643393 0.0024513025 -0.0073651895 0.0075358786 -0.06798689
-0.029906292 0.0161934 -0.021760065 -0.030119771 -0.056280594 -0.010835208 -0.018271282 0.00020852129
0.012405013 -0.020175215 -0.03130758 0.004830999 -0.023647334 0.014244476 -0.0492705 0.04427484
-0.0026108508 -0.04658221 0.026922142 0.032693442 0.06334439 -0.05831311 -0.020927625 0.02653323
-0.0030768125 -0.011211148 0.025878448 -0.019449612 0.03417181 0.027504954 -0.04118385 -0.0063689826
-0.035049736 -0.032755315 -0.028912282 -0.037206937 0.044238698 -0.039245494 -0.041727833 0.0025523338
-0.048375413 -0.039395966 -0.050744724 -0.019721352 -0.012126134 -0.0038256503 -0.0043132547 0.015872749
-0.054568518 0.035220463 -0.044251196 0.022453066 0.013210258 -0.0044780253 0.05839416 -0.03119635
0.029961875 -0.074685834 -0.04776784 0.04992037 -0.0016686643 0.030724723 -0.031712342 -0.06692844
0.040138412 -0.031549696 0.046923894 0.040547065 0.045857903 -0.04815388 -0.058903515 -0.022965398
0.07641376 0.010876746 0.026396848 0.0034531034 -0.038041804 -0.0196146 0.05076754 -0.0047765845

head.weight f4 [16, 768]
00000000: fbe8 64bc 192c 3dbc f1aa e83d 2f11 4cba
00000010: b802 dbbc 37e7 f33c a361 d4bd 06ae 33bd
00000020: 0e52 243d 5e36 f23b a3c5 103d adb1 0abd
00000030: 42a8 8cbd 9111 89bc 9ac6 a1bc 2603 c5bd
00000040: cf69 553d cffa 40bd c98e ddbd 5f13 04bd
00000050: 0156 a0bd dd7e bcbd eb67 813d 9e2b aabd
00000060: 4507 7c3d 0c12 8f3b 9a5b 043e 641d 263d
00000070: 8363 9cbc 5f7e 4d3c 0663 14bc 3e8e 9cbd
00000080: 3f67 7b3d 5dba bdbd 609c cdbc a0c4 143d
00000090: 9720 d43d 1abc 24bd 4eb8 fb3d da32 ef3b
000000a0: 02c9 32bd 5f8b a2bc 149d 8fbd 916e a938
000000b0: 7fee 403d 9122 053e e2e2 303d 5e22 75bd
000000c0: 3ad6 863d 8225 f23d 789b 693d 8475 7dbd
000000d0: 0daa 213d ead6 603d 43ed 513d 12a9 be3d
000000e0: 469c 0abe c426 913d f7d3 403c c38a 8e3c
000000f0: 547a 0c3e 6d5e e6bd 0ce6 1cbe bd09 f53d
00000100: 436a 9abd 5abc 293c 56cf 4d3d ed88 a2bc
00000110: 58a9 66bc 3769 0e3e ec42 fcbd 2b53 d3bd
00000120: 7caf 303d 0f09 87ba 5798 f6bd ff64 dfbd
00000130: c1ad bebd b42f deba 48ea 81bd 6c52 67bd
00000140: 4b00 09bd 459f d5bc 7f28 cebd 3262 90bd
00000150: 6a50 c53d f901 d4bd c0fb 0d3b 1013 aa3d
00000160: f43b 443c 38aa db3d 777e e93d b34e f0bd
00000170: a3eb 313c fb8a 36bc 2407 f23d 059e 443d
00000180: 1a4a a33c edd1 aabc 4365 bcbc 927b 21bc
00000190: 9d10 92bb b9b7 ac3c 4d9e b0bd dc11 c9bd
000001a0: fcf3 743d 549b 113d 065b e6bd e508 a2bd
000001b0: 56f2 643d 8ff5 ccbd 9762 15bd 96d0 d2bc
000001c0: de27 983d efd7 8dbd 631c d73c 7d9d 843d
000001d0: e711 003d d5a0 773d fbff e5bd 24a8 22bd
000001e0: 7c13 823c b80c 473d a5ff 4ebe 8a50 d9bd
000001f0: f6d6 16bd 5a5a 24be b83c 893d 747c 613d
00000200: 1dbf 90bd dbde b33b ae9e 073d 9ea8 383d
00000210: 6f98 09bd 74b1 7bbc 5615 a93c bcb9 c73b
00000220: fec7 88bd 7f9d 293c 5208 fb3c db92 24be
00000230: 30cf 6c3d 269a 653d 0d64 143e 0fe2 3cbd
00000240: 2a90 b1bd 7456 a7bd 4e44 afbc aa66 de3c
00000250: e247 8cbb e108 033d d34e 203d 6a61 abbd
00000260: 987c 8c3d 683f c0bd 8f15 97bd 4409 e6bc
00000270: 277a 493d 0bef 7a3d b6c7 0f3d 3a64 d43c
00000280: f4ed 2e3c 0f32 a3bc fc08 e3bc 76b2 273d
00000290: 9775 533c 561b c93c da52 6abc 7d85 ec3d
000002a0: 762a 623d 5994 b63d f2e8 423d 6959 c9bc
000002b0: 0706 00bd f941 38bd a0dd 403e 9645 40bb
000002c0: ec5f a0bd 0086 593d 30ae 4ebc 2ea5 84bd
000002d0: 0836 7e3d 2706 c03d 9f32 6bbd 25d8 603c
000002e0: 8e0e 6abc 1184 633d 4ee7 363c dfb1 3dbc
000002f0: a5c8 d2bc 4d71 3abd cbf8 b63d 41b7 353c
00000300: 5062 10be ef77 833d e0fd 7e3d d03a 023e
00000310: 308e c1bd 179a 3abc 9d15 9c3d 86c3 71bd
00000320: 98be fcbd e621 e0bd d6a8 b3bc 6016 113d
00000330: ced6 25bc 8b4b 57bd 15ba bd3d 25ba b9bd
00000340: 8cdd e2bd 2918 80bd f7bc e9bc 5713 933b
00000350: 043f f93c a8ee 4b3d 7b63 033d 111d f23c
00000360: d907 5fbd 2b7f afbd 5e44 73bc c322 6f3d
00000370: d5a5 40bc ebcb fcba f39c 22bd b5b0 87bd
00000380: 92ee 89bd 6319 273d 07ff 953d 2476 fd3b
00000390: 1bfb c1bc c07d 96bd f62c de3c 149e 243c
000003a0: 9b0a 49bc 37e2 75bd 6687 f3bb 70a9 79bd
000003b0: 1318 2c3d 7e81 b0bb f9df febd e715 df3c
000003c0: 42c1 b8ba 859a e3bd c025 67bd 1177 a0bd
000003d0: 754e 813d 0a36 f9bd 36e5 79bd 491e 823c
000003e0: 32ae 7f3d de56 6a3d 8826 993d 4713 873d
000003f0: 18ff a13d 4d57 47bd 9901 42be bee7 b2bd
-0.0139715625 -0.011546158 0.113607295 -0.0007784543 -0.026734695 0.029773338 -0.10370185 -0.043867134
0.040117316 0.007391735 0.03534473 -0.03386085 -0.0686803 -0.01673201 -0.01974802 -0.09619741
0.05210286 -0.04711419 -0.1081825 -0.032245036 -0.07828904 -0.09203885 0.06318649 -0.083091006
0.06153037 0.004366165 0.12925568 0.040555373 -0.01909042 0.012542336 -0.009056812 -0.07644318
0.06137776 -0.092640616 -0.02509898 0.03632033 0.103577785 -0.04021845 0.12291013 0.007299763
-0.043648727 -0.019841848 -0.07012382 8.0791426e-05 0.047102448 0.13001467 0.043185122 -0.05984723
0.06583829 0.1182356 0.057033032 -0.06187965 0.039468814 0.054892458 0.05125166 0.09309591
-0.13536176 0.07087472 0.011769286 0.017400151 0.1371854 -0.11248479 -0.15322131 0.11964748
-0.07539799 0.010359848 0.05024656 -0.019840682 -0.014078461 0.13907324 -0.12317452 -0.103185974
0.043136105 -0.0010302382 -0.12040775 -0.10907935 -0.09310485 -0.0016951472 -0.06343514 -0.056475088
-0.033447545 -0.026076922 -0.10066318 -0.07049979 0.096344784 -0.10351939 0.0021664947 0.08304417
0.011977185 0.10725826 0.114010744 -0.11733761 0.010859403 -0.011141534 0.11817768 0.04800226
0.019932795 -0.020852054 -0.022997504 -0.009856122 -0.004457547 0.0210837 -0.086239435 -0.098178595
0.059802994 0.035548523 -0.1124783 -0.07911853 0.055895172 -0.10007774 -0.036470976 -0.025734227
0.07429479 -0.06925952 0.026258653 0.06475351 0.031267073 0.060456116 -0.11230465 -0.039711133
0.015878431 0.048596114 -0.20214708 -0.10611065 -0.036826096 -0.16050091 0.06701034 0.05505033
-0.07067702 0.005489213 0.033110313 0.04508268 -0.033592638 -0.015362132 0.020640057 0.0060951393
-0.066787705 0.010352491 0.030643616 -0.16071646 0.057814777 0.05605521 0.14491291 -0.046114024
-0.08670075 -0.081707865 -0.021394875 0.027148563 -0.00428103 0.03199089 0.039137673 -0.0836819
0.06859702 -0.09387094 -0.07377159 -0.02808059 0.04918876 0.061263125 0.03510257 0.025926698
0.01067685 -0.01992133 -0.027714245 0.040941678 0.012906454 0.024549168 -0.01430198 0.11548898
0.055216275 0.08915014 0.047585435 -0.024578767 -0.031255748 -0.04498479 0.18834543 -0.0029338351
-0.07830796 0.053106308 -0.012614772 -0.06476818 0.062063247 0.093761735 -0.057421323 0.013723408
-0.014285697 0.05554587 0.011163546 -0.011578052 -0.02573044 -0.04551821 0.08934172 0.011091054
-0.14100003 0.0641936 0.062253833 0.12717748 -0.09450948 -0.011389277 0.0762131 -0.059024356
-0.123410404 -0.109439656 -0.021931093 0.03542173 -0.010122014 -0.052562278 0.09264008 -0.090687074
-0.11077413 -0.06254608 -0.028532488 0.0044883895 0.030425556 0.049788147 0.032077294 0.029554876
-0.054450843 -0.08569177 -0.014847843 0.05838276 -0.011758287 -0.0019286847 -0.03970046 -0.06625501
-0.06734957 0.040795695 0.07324033 0.0077350307 -0.023679307 -0.07348204 0.027121048 0.010047454
-0.012270595 -0.06003019 -0.0074319122 -0.060952604 0.042015146 -0.0053865304 -0.12445063 0.027232124
-0.0014095681 -0.11113457 -0.056432486 -0.0783521 0.063137926 -0.1216851 -0.06100961 0.015883582
0.062421985 0.05721175 0.074780524 0.06595474 0.079099834 -0.04866724 -0.18945922 -0.087356076

head.bias f4 [16]
00000000: 7e92 133d ad33 a63c 8c8b 33bc a8b7 bc3c
00000010: a351 d5bc d038 94b9 2fb9 ffbc 1a48 a13b
00000020: fdbd d1bc af4a 0c3d 491d f9bc 1243 e2bc
00000030: c8f7 ba3c d0bb 96bb 44d7 a83c e116 03bd
0.036028378 0.020288313 -0.010958564 0.023036793 -0.026039904 -0.00028271088 -0.031216232 0.0049219253
-0.025603289 0.03425091 -0.030409472 -0.027619872 0.02282323 -0.0046000257 0.02061046 -0.03200424

FacTu.weight f4 [32, 768]
00000000: 539e 38bc ea46 6abb 0ba0 3f3d 4157 2a3d
00000010: c2cc 33bd eec4 75bc 0f51 813a adcb ddbc
00000020: ede0 dc3c 4894 86ba f9cd 2a3d 709b a0bc
00000030: 8afb c53b 4dfa f83c 79f9 d53c 830c 7e3c
00000040: ecc0 02bd 5531 c43b e0b6 87bc ed20 bfbc
00000050: c5da 163d 4dc8 1ebd a60f d03a 3b81 083d
00000060: fdfd d63c 036a 05bc 52e1 703c 12d6 90bd
00000070: 740c 18bc 860d d33c b064 4c3c 8c8a 83bc
00000080: 6a94 9bbc 2c17 a23c e697 013b 248b 4abb
00000090: 855c 1c3d ec27 2a3d 84a2 e23b 7104 b5bc
000000a0: fe5b 573d 3499 383d 64e6 05bd ac10 90bb
000000b0: c0eb 123c b331 50bc 9fb1 6cbc 95ff e93c
000000c0: 380c 55bb 4f79 873b 5d5e 1fbd ffc9 42ba
000000d0: 4022 86bc b874 e93c a617 563d fb84 653b
000000e0: 0a78 ab3c 5332 40bc 9c06 24bd 4888 15bd
000000f0: 67b9 48bc c8bb ea3b 2201 793d a959 1a3b
00000100: 0b01 86bc 81e7 903c b873 953c f353 acbc
00000110: 0e7e 4ebd cf0a ff3c e1c1 8c3c 736c 8ebc
00000120: 1f13 97bc 0182 f83c dea5 26bb c634 c83b
00000130: c2a6 423d 2f77 903b 36e4 773c 30b3 bdbb
00000140: 01ee b83c e147 0fbd fbab 573c 0ef2 163d
00000150: c19c 6cbd 500f 07bc e4a2 d23b 2207 a1bc
00000160: 342a 69bc 322c f73b a4dc d4bc e34f 87bb
00000170: ce62 bcbc b0d6 273d a3bf d63c 1ba8 1bbd
00000180: d099 ce3c 3a04 10bc bd2c 423d fa5c 233d
00000190: ab7e cf3c e84b 8dbc 8536 aebc 6386 56bc
000001a0: 78d1 bebc 30b3 f7bc dc01 61bd bb2d ff3c
000001b0: 0afc ec3c e28e 193d 0da6 cdbc b699 42bb
000001c0: aead 7b3c aaab 173d 69e8 6ebd fb42 08bd
000001d0: 485f 39bc e409 01bc 5f66 b4bc c426 e5ba
000001e0: a23c f33c 9062 133c 100f 2f3c 5869 5d3c
000001f0: 7c7b b9bc 2765 173b 3fab 2f3b 739b fc3a
00000200: ae03 82bc 80f1 4ebc 5204 9f3c 3409 37bd
00000210: 1487 1dbc b3c7 f5bb fd68 153c b026 023c
00000220: 29db 62bd 5ade 863c e1c9 fdbc e461 29bd
00000230: f1ff 7cbb bc53 37bd 8217 143c dd7c c23a
00000240: 6d03 793c b262 213d 51da b93c 5dd9 babb
00000250: db8a 08bc f356 9cbc 3ecf 233d 401f 2bbd
00000260: de1b 323c 109b 063b f9b5 3ebc a9c4 9a3c
00000270: e4a1 273c 2b90 51bc 56bd 9e3c 4306 f1bc
00000280: 1a47 b73c ab38 0fbc 1e07 0c3d cbee 4abd
00000290: 20ea 313b 02bf 1f3c 658d 0dba 1db3 993c
000002a0: 8ac2 b03c 94cc 123b e352 1ebd 6a50 57bb
000002b0: c692 fbbb fe51 a33b 5c27 0d3d 7afa 70bd
000002c0: cc09 3e3c de0d 5c3b 0cbe b9bc 3472 3bbc
000002d0: 5291 da3c 4fba 693c 7627 21bd 0fbf 02bd
000002e0: 2b72 643a 9b1c b7bc e3d5 cbbc dc0e 113d
000002f0: 1fab dbbc 9447 803c 69c6 dfbc 10af 7d3c
00000300: 0daa 88bb c0f9 e83c 3866 1abc 96c3 de3c
00000310: 771d 85bc 4115 45bd 9475 1abc db90 ab3c
00000320: ecaf 2abc 6da6 7b3c dc69 56bc 8944 493b
00000330: fa10 1abd 2f8b 2ebd b113 34bc 020b ba3c
00000340: fd1b b7bc 8be0 2dbb 77f0 03bb 50c6 f43c
00000350: 6cee 4ebc 6350 0c3d ef6e 0bbd e703 5bbc
00000360: 9cd4 5a3d b6be 58bd fd53 b53b 773c 63bd
00000370: df6e 0c3d a332 413c c215 ac3c fb8c 4c3c
00000380: 5297 2cbd 6aed 3d3d f544 62bd 86e4 1c3c
00000390: 0785 8b3c 285a 153d ab2d 933b bc1c 07bd
000003a0: 5dec 31bc 3c14 87ba f75f a63c 0926 693c
000003b0: 4406 b83c aa24 2abd f39d e43b 9c57 cbbc
000003c0: ec07 523c 9b53 e3bc 10b1 1f3c 138b 00bc
000003d0: 0da1 673c 253a c2bc 1649 703d 1894 513c
000003e0: 9ba2 183c 0a99 fe3b bb32 34bd b92d b63c
000003f0: b331 d4bc 6fae 5fbc 6a7d adbc e473 92bc
-0.011268216 -0.0035747834 0.04678349 0.041587118 -0.043896444 -0.015000565 0.0009866076 -0.02707466
0.026962722 -0.001026758 0.041700337 -0.019605368 0.0060419487 0.03039279 0.026119934 0.015505913
-0.031922266 0.005987326 -0.016566694 -0.02333113 0.03682973 -0.03876524 0.0015873804 0.03332637
0.026244158 -0.008142951 0.014702158 -0.07072081 -0.009280313 0.025763284 0.012475178 -0.016057275
-0.018991668 0.01978644 0.0019774376 -0.0030905688 0.03817417 0.04154198 0.006916346 -0.022096844
0.052577965 0.04506798 -0.03269042 -0.0043965187 0.00896734 -0.012707162 -0.014446645 0.028564254
-0.0032508504 0.004134334 -0.03890835 -0.00074306125 -0.016373754 0.028498039 0.052268647 0.003502189
0.020931263 -0.011730748 -0.040045366 -0.03650692 -0.012251235 0.0071634986 0.060792096 0.0023551977
-0.01635792 0.017688515 0.018243656 -0.021036124 -0.050413184 0.031133084 0.017182292 -0.017385697
-0.018441735 0.030335428 -0.0025428454 0.0061098067 0.047522314 0.004408739 0.015130093 -0.005789183
0.022574427 -0.03498066 0.013163562 0.036851935 -0.05776668 -0.008243397 0.0064281095 -0.019656722
-0.014231253 0.0075431103 -0.025984116 -0.0041293963 -0.022996332 0.040976226 0.026214426 -0.038002115
0.025219828 -0.00879007 0.047405947 0.03988359 0.025328955 -0.017248109 -0.021266231 -0.013093564
-0.023293242 -0.03023681 -0.054933414 0.031149736 0.028928775 0.03748978 -0.025103593 -0.002969367
0.015361233 0.037028946 -0.058327112 -0.033267003 -0.011314221 -0.007875893 -0.02202147 -0.0017482867
0.029691998 0.008995667 0.0106847435 0.013513885 -0.02264189 0.0023101063 0.0026804951 0.0019272402
-0.015870895 -0.01263082 0.01941124 -0.04468651 -0.009614725 -0.0075006126 0.009119269 0.007943794
-0.05538479 0.016463447 -0.030980052 -0.04135312 -0.0038604701 -0.04475759 0.009038808 0.0014838238
0.015198571 0.039400764 0.02268711 -0.0057021813 -0.008333887 -0.01908443 0.039992563 -0.04177785
0.010870902 0.0020539202 -0.011640065 0.018892603 0.010231469 -0.01279072 0.019377392 -0.029421931
0.022372771 -0.008741538 0.034186475 -0.049544137 0.0027147606 0.00975013 -0.00053997926 0.018762166
0.021577138 0.002239977 -0.038653266 -0.0032854327 -0.007677409 0.0049841395 0.034461364 -0.058832623
0.011599015 0.0033577601 -0.02267363 -0.011440802 0.026680622 0.014265611 -0.039344274 -0.03192049
0.0008714522 -0.022352507 -0.024882263 0.03541456 -0.026814995 0.015659131 -0.027316289 0.015483633
-0.0041706623 0.028439403 -0.009423785 0.027192872 -0.016249401 -0.048115972 -0.009427447 0.020943096
-0.01041792 0.015359503 -0.013086762 0.0030711016 -0.037613846 -0.042613205 -0.010991023 0.022710327
-0.022352213 -0.0026531543 -0.0020132342 0.029879719 -0.012630086 0.03425635 -0.03404134 -0.01336763
0.053425416 -0.05291625 0.005533694 -0.055477586 0.034285422 0.011791858 0.021006469 0.012484784
-0.042136498 0.046368994 -0.055241544 0.009575969 0.017031206 0.036462933 0.004491528 -0.032986388
-0.010859576 -0.0010305713 0.020309431 0.01423026 0.022463925 -0.04153887 0.006976837 -0.024822049
0.012819272 -0.027749827 0.009746805 -0.007845658 0.014137519 -0.023709366 0.05866345 0.012791656
0.009316112 0.0077697085 -0.043993693 0.0222386 -0.025902605 -0.013652428 -0.021177966 -0.017877527

FacTv.weight f4 [768, 32]
00000000: 93f3 aebc c9da df3a b799 41bc e9da d73a
00000010: e93e 063c df80 a63c de00 163b 9172 96bb
00000020: 5e55 2dbc 2c35 d83b 74c4 cdbb dbeb 6dbc
00000030: 3ed9 cb3c b3e4 0cbc 81a9 e3bb 6521 a63c
00000040: 30fc e6bb 7122 6bba 1a4e 0bbd 0c50 5a3c
00000050: 8d27 05bc 8928 433c e938 a73a 7d5c 253d
00000060: 5f3a 25bd 5474 51bc eb86 8c3c 7da3 97bb
00000070: 7c9d ebbb a923 88bc 48f9 b53b b939 3e3a
00000080: 7651 603b 2aca 313c 869f 55bc af48 adbb
00000090: ea21 2cbc 526d 4c3c 1cd6 9cbb fe3a 5fbc
000000a0: 1381 5fbc 7a0f 48bb 2a72 beba 0e24 9d3c
000000b0: 1f21 83bc 1865 9f3b 9b51 ad3b a79c 0a3d
000000c0: 1afc 87bc 65a7 383c 73f3 363b 300e 0c3b
000000d0: 82e2 85bc bb20 abba 7d62 5c3c 975c aabc
000000e0: c86a 1cbc 4fd1 e9bb b311 a63b aaf4 b93c
000000f0: 9d6a 17bb 83f7 073c e15c 5b3c cab1 04ba
00000100: 854f 143c 63e2 423b d29d 9aba 282f 9ebb
00000110: 7ee5 273a 1a3f f0ba 7eba fa3b 38d3 d6bb
00000120: 30db 72ba 28f1 ebba 393e 57bb b4f1 c53c
00000130: 72ad 6fbc 8b8b 373c bab7 a3bb 3d2d 5e3b
00000140: 0b68 1c3c cb4f 37ba 6de6 a2bb 9f02 553c
00000150: 403b 67bb 93c1 13bd 651f 573c c48e 2bbc
00000160: e5f2 533c ab38 783b 3f35 ed3b ae86 aabc
00000170: 52e1 893c fb7c 6abc 0cc9 11bc 37b4 2ebc
00000180: 07d2 0e3c 0043 133d e417 c3bc 0b93 cf3c
00000190: e9d9 e23c 45ee 073c 958a 49bc 8de5 a33b
000001a0: f1e8 2abb 3417 8cbc 4716 a3bb 7994 273c
000001b0: 9cb3 e9ba e343 443c 0e6e 92bb 4fd8 c7bc
000001c0: d1ce 5bbc 430e 2dbc dad6 033c 1f98 823c
000001d0: ec93 823b 76d4 cc3c 93ee 243c 5439 56bc
000001e0: 8ee8 613c eec7 67bc b378 02bb b4eb 43ba
000001f0: 5f45 81ba 9cd9 24bc 3f55 3fbc aa2d 20bc
00000200: e667 f0ba 133f babc 294d 86bb 7302 123c
00000210: b234 503c 123a 57bb 71b5 f13b 2852 1c3c
00000220: d3d9 213c 1527 a23c 21e0 46bc 3278 89bb
00000230: 1d31 17bb 4b62 5cba 7e93 433c 5a8b d93c
00000240: 115d 8c3c 8f73 903b b410 2239 aa3e 8ebb
00000250: 7e7c 6b3c 379c 103b d3c1 7aba cddc 07bb
00000260: 80e1 1f3c 554a a3b9 fa19 88bc 05a4 1fbc
00000270: 7556 0cbc 523c c6bb e370 e3ba 0d72 5dba
00000280: d51b fd3b 0064 59bb d13a adbc 8610 773c
00000290: 4f38 78bc 9429 433b b03b 9c3c a620 3dbc
000002a0: 446e b1bc aeb3 413b 33c6 6f3c 4bc5 9cbc
000002b0: fa09 0bbc 7ea9 143b 71c0 cd3b aba6 edbb
000002c0: eb04 463c 877f 3dbc 66ab a53b b956 90bc
000002d0: 6b6f 70bc 691a 88b7 87d7 a23b 2e36 38bb
000002e0: 2709 193c eb1c 50bb e336 1c3a 04c3 583b
000002f0: e269 923c 1846 86bc 35ec 0b3c 52c2 d0bb
00000300: 1d29 b0bc 7764 02bc 9256 023c 73d6 fe3b
00000310: a483 a03a d5a4 603c 31b4 50bc dc2d 2e3c
00000320: 5ca8 2e3c eeab 37bc 6760 58bc 6ef2 193c
00000330: 6173 313c 3350 ffba f118 17bc ef20 9dbc
00000340: 7f33 c4bb bc34 45bb 203a 07bb d2ac a83c
00000350: ba6c d93c cac9 123c 6f52 313c 41ed 2b3c
00000360: 9804 483b b622 9d3b 3b7d 1e3c 7dbe fb3b
00000370: f5f9 ec3b 5477 0e3c b8bd 8dbc c625 063b
00000380: 694e 813b 2fc2 e83c 23b1 74bc e1d9 16bb
00000390: a9a4 203d cc37 31bb 5be6 f1bc d06b e1bb
000003a0: 7662 5dbb 8252 30bc 7f91 b43c 1403 f3bc
000003b0: a325 13bb cf8f e4bb 4cf0 27bc 4a5e de3b
000003c0: 5778 a7b9 1a07 843c de92 d23b 585e 0d3b
000003d0: b059 b23b c8f9 593c 1a0a a33b bd59 5cbb
000003e0: 1423 ff3c 341e d33b 8876 793c 5345 d03b
000003f0: f4aa 953b c081 1c3c d969 fe3b e7b9 34bc
-0.02135638 0.0017078753 -0.011816434 0.0016468439 0.00819371 0.020325122 0.00228887 -0.004591294
-0.010579435 0.0065981355 -0.0062795226 -0.014521564 0.024883863 -0.008599448 -0.0069476967 0.020279596
-0.007049106 -0.0008969671 -0.03401003 0.013324749 -0.008127105 0.01191152 0.0012758049 0.040371407
-0.04033887 -0.012784082 0.017154178 -0.0046276436 -0.0071904045 -0.016618567 0.0055533983 0.0007256526
0.0034228242 0.010851422 -0.013038522 -0.0052882056 -0.010506133 0.012477236 -0.004786266 -0.013624905
-0.013641614 -0.0030526803 -0.0014529873 0.019182231 -0.016007004 0.0048643462 0.005289269 0.0338408
-0.016599704 0.011270379 0.0027916103 0.002137076 -0.016343359 -0.0013056019 0.013451216 -0.020796103
-0.009546943 -0.007135547 0.005068028 0.022699673 -0.0023104318 0.0082987575 0.013388843 -0.0005061893
0.009052162 0.0029736988 -0.0011796302 -0.004827399 0.00064047414 -0.0018329353 0.007651626 -0.006555941
-0.0009264229 -0.0018000947 -0.0032843484 0.024163105 -0.014628755 0.011202703 -0.004996267 0.0033901476
0.00954629 -0.0006992786 -0.0049713165 0.013001113 -0.0035283118 -0.03607328 0.013130044 -0.01047105
0.012936329 0.0037875574 0.0072390134 -0.020816173 0.016831074 -0.014312024 -0.008898031 -0.010663084
0.008717067 0.035952568 -0.023815103 0.02533867 0.027691798 0.008296554 -0.012301107 0.00500173
-0.0026078785 -0.017100908 -0.004977021 0.01022827 -0.0017830017 0.011979076 -0.004468686 -0.024395136
-0.013416008 -0.010562482 0.00804683 0.015941678 0.003984919 0.025003653 0.010066646 -0.0130751915
0.0137883555 -0.014146788 -0.0019908368 -0.0007473782 -0.0009862593 -0.010061648 -0.011678039 -0.009776512
-0.0018341511 -0.022735154 -0.0040985537 0.008911717 0.012707876 -0.003284101 0.007376366 0.009541072
0.0098785935 0.019794026 -0.012138397 -0.0041952366 -0.0023070045 -0.0008406981 0.01193702 0.026555706
0.017134221 0.004408307 0.00015455746 -0.004340966 0.014372943 0.0022065768 -0.0009565625 -0.0020730973
0.009758353 -0.00031145164 -0.01661395 -0.009743695 -0.008565535 -0.006049671 -0.0017352368 -0.0008447476
0.007724265 -0.0033171177 -0.02114621 0.015079623 -0.015150144 0.0029779421 0.01907143 -0.0115434285
-0.021659024 0.002955656 0.014634657 -0.019137045 -0.008486265 0.0022684033 0.0062790443 -0.0072525344
0.0120861335 -0.011566049 0.0050558327 -0.017619478 -0.014675002 -1.6224762e-05 0.0049695405 -0.0028108465
0.009340561 -0.0031755518 0.00059591065 0.0033075223 0.017872754 -0.016390845 0.008540203 -0.006370821
-0.02150398 -0.007958523 0.00795521 0.007777029 0.0012246263 0.013711174 -0.0127382735 0.010631051
0.010660257 -0.011210425 -0.013206578 0.009396179 0.010830731 -0.0019478857 -0.009222255 -0.019180743
-0.005987584 -0.0030091247 -0.002063401 0.02059022 0.026541103 0.008959243 0.010822876 0.010493577
0.0030520316 0.0047953976 0.009673412 0.00768262 0.0072319456 0.008695442 -0.017302379 0.0020469292
0.003946115 0.028412906 -0.014934811 -0.002301805 0.039219532 -0.0027041314 -0.029528787 -0.0068793073
-0.003378061 -0.010761859 0.022042034 -0.029664554 -0.0022452853 -0.006975151 -0.010250162 0.0067861425
-0.00031942382 0.016116668 0.0064261993 0.0021571126 0.0054428205 0.013304181 0.0049755694 -0.0033622824
0.031144656 0.0064428095 0.015226014 0.0063559203 0.0045674983 0.009552419 0.007764083 -0.011030651
