Final Project/FacT-TK/eurosat_best.pt (torch, 378647 bytes, 6 tensors)

FacTp f4 [32, 144]
000000 41 d0 35 be fb 1e df bd 14 64 00 3d fd 7c 42 bd
       -0.17755224 -0.10894581 0.031345442 -0.04748248
000010 7e cd 9d bd 8b 4b 05 bb b7 88 29 be 5e e8 09 bd
       -0.0770521 -0.0020339217 -0.16556059 -0.03366887
000020 b4 64 7f 3d b8 eb bc bc a9 67 41 bd a1 f1 c1 bc
       0.062351897 -0.023061618 -0.047218 -0.023674788
000030 a9 06 82 3d 6a 2e 02 be 2e c8 96 bd 0f 08 ee 3d
       0.063489266 -0.12713018 -0.073624 0.11622631
000040 0e d6 10 3e 09 12 58 3d 65 7b 07 be 00 6b 84 bb
       0.14144155 0.052751575 -0.13230665 -0.0040410757
000050 a1 c3 db bd a8 87 0a 3d 74 57 18 3e c4 67 42 3c
       -0.10730673 0.033820778 0.1487711 0.01186556
000060 c4 b0 25 be 63 0e 5e bd 95 4c b7 3d fa cb 32 3d
       -0.16180712 -0.05421294 0.08950154 0.04365156
000070 2a ac ec bd d9 0b 07 3e dc 89 5f 3d 81 ba 11 3d
       -0.11556275 0.13188113 0.054574832 0.035578255
000080 d8 dc 91 bc d2 d6 86 bd c0 ef 18 bd 24 c8 18 bd
       -0.017805502 -0.065839425 -0.03733802 -0.037300244
000090 55 19 bc 3c 73 81 27 3d c6 3e 45 bb 8f 25 24 3d
       0.022961298 0.040894937 -0.003009723 0.04007488
0000a0 4b 2b 97 bd 5d 89 1e bc 7c 31 b5 3d ff 60 77 bd
       -0.07381304 -0.009676305 0.08847329 -0.060395237
0000b0 02 f9 ba bd 92 2e 06 3e 10 b2 b4 bd 46 ac 67 bd
       -0.09129526 0.13103703 -0.08823025 -0.056560777
0000c0 32 23 ee 3d 1d 40 a9 bd 5f 04 92 3d bb 25 8b bd
       0.11627807 -0.08264182 0.0712974 -0.06794306
0000d0 35 5b 32 bc 66 41 a1 3c cf 6f 04 3e b7 ce 80 bd
       -0.010886003 0.019684505 0.12933277 -0.06289428
0000e0 f7 ec 13 3e 8c 09 7f bb 8a 17 c2 bc cd 4b 15 3e
       0.14445864 -0.0038915602 -0.023692865 0.14579697
0000f0 d4 99 40 bb 99 c9 56 3e 75 a7 91 bd 4d 16 07 3e
       -0.0029388564 0.20975341 -0.07112018 0.13192101
000100 26 8b 14 3e 12 71 69 bd ee 5e 27 bd 91 ca 01 be
       0.14506206 -0.056992598 -0.040862016 -0.12674929
000110 14 91 9d bd 51 89 11 be 90 17 d9 bd da c3 7c bb
       -0.07693687 -0.14212538 -0.10600197 -0.0038568885
000120 c7 71 4e bd 5d 51 40 be 9d 79 39 3d 18 5f be 3b
       -0.050401475 -0.18781038 0.045281995 0.005809676
000130 b9 b5 09 bd d1 d2 16 be df c7 34 3d 77 01 37 be
       -0.03362057 -0.14728858 0.044135924 -0.17871653
000140 b0 ff ce bd 89 fc bb 3c 62 4f a5 bd 49 7a e4 3d
       -0.10107362 0.022947567 -0.08071782 0.111561365
000150 d1 77 40 be c4 84 09 3e 76 20 d7 3b 00 4b 1f 3e
       -0.18795706 0.13429552 0.006565149 0.15555954
000160 4f ad 21 3d ae cd 06 3e 6f 27 9a 3d 76 cc 91 3c
       0.03947192 0.13164398 0.075270526 0.01779769
000170 74 af a0 3d d9 6f 31 3e 75 37 16 3e 1d 03 b9 bd
       0.07845965 0.17327823 0.14669593 -0.09033797
000180 00 e3 52 3c 66 8e 24 3e a7 bf b3 bd ac 4e d6 3d
       0.012871504 0.16069946 -0.08776789 0.10464224
000190 6a c4 d8 bd 08 b4 1b be f6 ff 0f be 64 13 42 bc
       -0.10584338 -0.15205395 -0.14062485 -0.011845443
0001a0 ee 3b 06 3e 35 fb d4 3d c6 12 ed 3d d2 08 8e bd
       0.13108799 0.103994764 0.115758464 -0.06935276
0001b0 88 44 27 be d6 9d 53 3d 51 f7 c4 bd 25 41 01 bd
       -0.16334736 0.051664196 -0.09617484 -0.031556267
0001c0 7a f7 2e be 90 51 b9 bd 73 c7 12 be d7 35 12 3e
       -0.17086592 -0.0904876 -0.14333896 0.14278351
0001d0 00 3c 30 be 8f 01 6a 3c 3f 2c 3b 3e 0b c7 e3 bd
       -0.17210388 0.014282598 0.18278597 -0.11121949
0001e0 02 1e ee 3d 8a fe 4d 3e 95 7e df 3d c6 e7 15 be
       0.11626817 0.2011663 0.109128155 -0.14639196
0001f0 cd a6 1a be 46 28 84 bd 8c 3f f4 3d 9e 45 31 bd
       -0.15102692 -0.06452994 0.11926183 -0.043279283
000200 65 75 c8 bc 73 4a 30 3e 70 b1 80 be 0e e3 72 bd
       -0.02447004 0.172159 -0.25135374 -0.059298567
000210 da c8 ac bd 4f 8e d3 3d e6 2f 07 bd f0 65 05 be
       -0.08436747 0.103298776 -0.033004664 -0.13027167
000220 89 e3 4f bd 85 66 45 3d 05 71 09 3e 84 0e e7 3c
       -0.050754104 0.048193473 0.1342202 0.028205164
000230 f2 da d5 3d 8a 1c 26 be 8d 3c 46 3e 5b 13 94 3d
       0.10442151 -0.16221824 0.19359036 0.07230254
000240 4f 17 bb 3d 00 c8 97 3d 53 a2 a4 bd 53 98 b9 bc
       0.09135305 0.07411194 -0.080387734 -0.022655642
000250 3e 9c eb bb 71 16 84 3c c4 b6 89 bd 99 1b 16 3d
       -0.0071902564 0.016123982 -0.06724313 0.036647413
000260 eb 8b 36 3d 38 e8 fb bd 22 b2 5f bd 53 51 c9 bd
       0.04456703 -0.123001516 -0.05461324 -0.098299645
000270 0d eb 4e 3d ae 89 1b be f9 8a 91 bd 73 6d db 3d
       0.05051713 -0.1518924 -0.07106585 0.10714235
000280 93 13 81 bd 8e a7 60 bd 27 31 01 3c 94 86 d1 bd
       -0.063025616 -0.054847293 0.007885254 -0.10230747
000290 ae eb 82 3d de 2a bc bd 5f 21 06 be e3 f1 9e bd
       0.063926086 -0.09187864 -0.13098668 -0.0776098
0002a0 00 9c 13 3c 3f 22 ba 3c 86 c2 0e 3d b7 2e a3 bd
       0.009009361 0.022721408 0.03485348 -0.079678945
0002b0 51 a6 4c bd 93 83 aa bd 98 89 12 be 76 3e d7 bd
       -0.0499633 -0.08325877 -0.143103 -0.1050996
0002c0 59 c2 b6 3d 8c be 00 3e 1d f1 29 be 5f f7 a7 3c
       0.089237876 0.12572688 -0.16595884 0.020503698
0002d0 34 fc 1a 3d d6 cd 02 3d 5f 08 63 3b 63 3d a7 bd
       0.037838176 0.03193458 0.003464244 -0.081660055
0002e0 29 00 77 3d a4 96 6b bc 88 ef 0a 3e bb 37 25 3c
       0.060302887 -0.014379177 0.13567936 0.010084088
0002f0 b2 67 01 be 26 aa 2c bd 7a 36 15 3e a0 3f 98 3c
       -0.12637213 -0.042154454 0.14571562 0.018585026
000300 e8 f0 2c 3e da 93 9c 3d e8 96 94 3d 89 f1 61 bd
       0.16888773 0.07645388 0.072553456 -0.055161987
000310 e9 ce 7e 3d 44 60 42 bc e8 81 40 3b 40 6d ff 3d
       0.062209044 -0.011863772 0.0029374305 0.1247201
000320 83 73 f8 3d 9a be db bd 49 71 7d bd ec 84 92 bd
       0.12131407 -0.10729714 -0.061875615 -0.07154259
000330 38 44 02 be 22 90 58 bd cb 63 c8 3d 95 4f 18 3d
       -0.12721336 -0.05287183 0.09784659 0.03718527
000340 04 82 23 be 93 11 0c 3e c3 ea 9e 3d d2 97 32 bc
       -0.15967566 0.13678579 0.07759621 -0.010900455
000350 15 8b 2d 3e ad 32 57 3d c3 e9 2d bc 9c 2a 4b 3e
       0.16947587 0.052538563 -0.010614815 0.19840473
000360 90 a4 24 3e ca 17 24 3d 9b df 85 3d 12 24 06 bd
       0.160784 0.04006175 0.0653679 -0.032749243
000370 d4 be 6b bd b7 f0 0a 3e 4f 5f 08 bd 53 56 96 3d
       -0.057555035 0.13568388 -0.03329402 0.07340684
000380 7c 7f 14 be d1 33 f8 bd 81 74 6d bd 0c ba 23 bb
       -0.14501756 -0.12119258 -0.057972435 -0.0024982719
000390 19 72 f1 3c 09 2b 02 3d d4 99 5c 3d 3a eb f3 bd
       0.029473351 0.031779323 0.05385764 -0.119101
0003a0 35 cb 07 bd 0a b5 03 bd 26 52 4b be 97 0e 2c be
       -0.033152778 -0.032155074 -0.19855556 -0.1680244
0003b0 9c 34 66 be 58 83 34 3e 80 1b 8c bb b0 58 e3 3d
       -0.22481006 0.17628229 -0.004275739 0.111009
0003c0 d1 76 db bd e7 ef 4a be da e0 e1 bd c0 ac 45 3d
       -0.10716022 -0.19818078 -0.11029215 0.04826045
0003d0 f6 f2 c8 bc 5f 55 16 3e 07 c0 11 be 3b 6f 31 3e
       -0.024529915 0.14681004 -0.14233409 0.17327587
0003e0 40 e1 4e be a6 d2 02 bd 20 c4 10 be 4c 08 60 be
       -0.20203114 -0.03193917 -0.14137316 -0.21878165
0003f0 cb d2 b6 bd ea 91 05 3d f6 36 ef bd f5 8c 51 3e
       -0.08926924 0.032609858 -0.11680405 0.20463927

FacTc f4 [32, 32, 32]
000000 7d ab b6 bc ff 35 0e 3d 69 00 e9 bb 5d 2a 6f bd
       -0.022298569 0.034719463 -0.0071106446 -0.05839001
000010 1f d9 8d bc 2b 4b 45 3d 61 72 ff bc 82 1f 07 bd
       -0.017315445 0.04816739 -0.03118247 -0.032989033
000020 aa 69 2c 3c 39 85 1e bc ee 7f 3f 3c 64 da 14 bc
       0.010523239 -0.009675317 0.011688216 -0.0090852715
000030 8f a5 cc 3c bb d7 99 bb e3 7f 76 bb bc bd ae bc
       0.024981288 -0.0046949065 -0.0037612848 -0.021330707
000040 69 a8 ce 36 c4 71 1c 3d 9b 04 95 3a d0 c6 bb 3c
       6.158884e-06 0.038194433 0.001136917 0.02292195
000050 b2 39 38 bd 5d 26 0e 3d bc 66 81 3d 43 f0 7f bc
       -0.044976898 0.034704555 0.06318423 -0.015621248
000060 33 71 9f ba 2d 63 1d 3c 33 c0 13 3d 07 e3 95 3d
       -0.0012164473 0.009606165 0.036071967 0.07318693
000070 f3 99 4f 3d 72 64 46 3d c5 9a b6 bc bb 0b c4 3c
       0.050683927 0.048435636 -0.022290597 0.023931375
000080 27 34 47 3d 21 b1 5e bd e2 2b 58 3c 00 b9 1f bd
       0.04863372 -0.054368142 0.013194056 -0.03899479
000090 a7 7e 60 bc f3 bb ff bc ea 9f 4d bd 8b ca 39 3d
       -0.013702071 -0.03121755 -0.050201334 0.045359176
0000a0 45 9f 95 3c 7c 24 d8 3c 60 41 66 bc e0 75 cd 3b
       0.018264422 0.026384585 -0.014053673 0.0062701553
0000b0 72 83 36 3d 9a 79 e5 3c af 90 38 3d f5 81 1b bb
       0.04455895 0.028012086 0.045059856 -0.0023728583
0000c0 41 56 ef bc 0f 6d 90 bc b1 7e 4c bd 52 a9 0b bd
       -0.029215934 -0.017630128 -0.04992551 -0.034097023
0000d0 ac 40 53 bd 48 38 17 bd 62 27 90 bc 91 a7 ab bc
       -0.051575348 -0.03691891 -0.017596904 -0.020953925
0000e0 b5 4c a3 3c 7f df 4a bd 44 47 db 3c 2d 0d a6 3c
       0.019934038 -0.04952955 0.02676738 0.020269955
0000f0 e7 1c b5 bb ab d9 ae bc 0e 92 2a bd f8 3a bc 3c
       -0.005527127 -0.021344027 -0.041643195 0.022977337
000100 d7 97 20 bc a5 c4 7c bc 1e 00 d9 bc 30 cf 23 bd
       -0.009801826 -0.015427743 -0.026489314 -0.03999251
000110 7a 73 1b bd df 70 1b bc fd 97 19 3d 1f 7a 3e bd
       -0.037951924 -0.00948736 0.037498463 -0.046503183
000120 96 f8 6f bb 93 fc 7e 3c 8f f5 97 3c bb ce 9f bd
       -0.0036616675 0.015563148 0.018549709 -0.078031026
000130 75 fd 2d 3c 04 64 5f 3d c6 eb 61 3b d5 68 12 3d
       0.010619511 0.05453874 0.0034472807 0.035744507
000140 75 ac 75 3c db ad 48 3d 08 05 6d 3b 94 bd 26 3d
       0.01499473 0.048993926 0.003616633 0.04070814
000150 99 c6 5c bd d6 22 19 bc 42 43 91 3a 9f 52 e1 3c
       -0.053900335 -0.009346684 0.0011082666 0.027505217
000160 27 a1 16 bc 22 66 5f 3a fc 8e 88 3b d8 8a 5f bd
       -0.009193695 0.0008521994 0.0041674357 -0.05457577
000170 10 2d 32 3d 88 51 36 bd e7 28 20 3c 5c 6b 5f 3c
       0.043500006 -0.044511348 0.009775377 0.013636436
000180 fe 2b 1e bd a7 54 1b bd fd 36 dd 3b 5e eb bf 3c
       -0.038616173 -0.037922528 0.00675094 0.023427662
000190 ea 55 d6 bc 94 fa 4b bd 57 90 09 3d 7e fb 35 bb
       -0.026164014 -0.049799517 0.03358492 -0.002776831
0001a0 21 db b5 39 6f 16 75 bd 06 b8 56 3d 40 c4 54 3b
       0.00034686274 -0.059835847 0.052421592 0.0032465607
0001b0 b8 6d 14 3d 64 a3 55 3d 89 d8 a9 bc 59 37 81 bc
       0.03623745 0.052157775 -0.020733135 -0.015773462
0001c0 f3 e0 3b 3c c4 43 9e 3c e4 7a 88 bc ca fd 92 bd
       0.011467206 0.019319423 -0.016660161 -0.07177313
0001d0 b7 80 f9 3a 1a bf b1 3c 44 aa a1 bc 83 82 30 bc
       0.0019035552 0.02169757 -0.01973451 -0.010773304
0001e0 c5 96 88 3c ff b5 3d 3d 2e 5b cd bc 47 1a 64 3d
       0.016673455 0.046316143 -0.025067892 0.055689123
0001f0 32 3d 74 3d 08 6c c0 bc 5b 85 2d 3d c1 9b 24 3c
       0.059628673 -0.023489013 0.042363506 0.0100469
000200 fb ab d8 b8 e3 65 1e bc 32 19 95 bc 96 2c dc 3c
       -0.000103317165 -0.009667846 -0.01820049 0.026876729
000210 23 7b 25 bd f5 63 90 bc 44 a6 4c 3d 37 59 92 3b
       -0.040400635 -0.017625788 0.04996325 0.0044662016
000220 2c d8 8f 3d 3e 51 23 bc d3 8d 74 bc 02 49 01 3c
       0.070236534 -0.0099681 -0.014926392 0.007890942
000230 00 23 58 3d fd 71 4b bd 79 61 d2 ba 69 39 9c bb
       0.052767754 -0.049669255 -0.0016050778 -0.004767586
000240 01 6c b0 3c 32 ce 9b bb 8b b6 05 bd 8d 9c 14 bc
       0.021535875 -0.004754805 -0.03264479 -0.009070528
000250 23 d3 33 bd 34 d7 b6 bc dd ce c6 3c 67 44 60 39
       -0.043902528 -0.022319414 0.024268562 0.00021387787
000260 30 43 7b bc 5c 20 fc 3c 4e 9a 85 3d 94 16 85 bc
       -0.015335843 0.030777149 0.06523572 -0.016246118
000270 2f cb 9c bc ac e3 46 bb 89 61 dd 3c 37 fe 90 bc
       -0.019139854 -0.0030348105 0.027024047 -0.017699344
000280 01 ee b1 3c 4d d8 71 bd a8 ef 5f bb fd 84 73 3d
       0.021719934 -0.05904417 -0.0034169946 0.059453
000290 41 5a 9f bb 49 75 14 bd 4e 31 55 3d 9a f5 3e 3a
       -0.004863054 -0.036244664 0.052048974 0.0007284522
0002a0 80 95 3e bb 78 fe 51 3d 5f b6 52 bc 36 9c 3e 3b
       -0.0029080808 0.05126807 -0.0128608635 0.0029084808
0002b0 8f b8 94 bc 23 9a 0d bc ee 58 22 bc 83 7f 7d bd
       -0.01815441 -0.008642706 -0.009908898 -0.061889183
0002c0 f5 44 e4 bc 40 c2 12 3c db ee 77 bd 5d c7 09 3c
       -0.027864913 0.008957446 -0.060530525 0.008409348
0002d0 3d 8e 8a bd 3a b0 a9 bc 41 06 29 bd 71 47 bb 3c
       -0.06765411 -0.020713914 -0.04126573 0.022861214
0002e0 32 14 e7 3c ea b5 5b 3b 13 4d d1 bc e9 2c 0f 3d
       0.028207872 0.0033525177 -0.025549447 0.03495494
0002f0 87 e9 c7 3a 70 73 3b 3a 7c e0 1e bd f6 ec 79 3d
       0.0015252092 0.00071506854 -0.038788304 0.061017
000300 b8 01 de 3a a1 0e 64 bd ee 25 21 3d 61 7b 29 3d
       0.0016937768 -0.055678014 0.039342813 0.04137743
000310 db 48 37 3d 9a 05 e2 bc 73 a3 17 bd 05 83 c3 3c
       0.044747215 -0.027590562 -0.03702111 0.023866186
000320 03 5d c4 bb fb e5 2b 3c 2a e7 54 b9 18 95 d4 b9
       -0.005992533 0.010491843 -0.00020304011 -0.00040546875
000330 60 88 09 3d cc fe f7 b9 c9 42 e3 bc dd df 12 bd
       0.033577323 -0.0004730135 -0.027741807 -0.035858024
000340 76 b6 9c bb 71 3b e7 bb f5 e7 cc bc 93 0b 8d ba
       -0.004782493 -0.0070566465 -0.02501295 -0.0010760896
000350 67 bd 1a 3d 42 96 8f bc c7 5b ec bc 15 9b ce 3c
       0.037778284 -0.017527703 -0.028852357 0.025220433
000360 a9 98 82 bd 7a a4 72 bd 99 f9 8b bc f8 53 8b bc
       -0.06376774 -0.05923889 -0.01708679 -0.017007813
000370 45 41 9e 3a b2 fc a9 3c 8d fd d6 3b b1 25 42 3b
       0.0012073895 0.020750377 0.0065609873 0.0029624517
000380 3a 81 53 bc 4d 45 04 3c 4d 0e c4 bc 74 fb 56 3d
       -0.012909228 0.008073163 -0.0239326 0.052485898
000390 38 5b 03 3b e1 a4 96 3c 5b 08 ca 3b d1 88 38 bd
       0.0020043384 0.018389167 0.006165547 -0.045052353
0003a0 09 a7 77 bc a3 b2 7b bd b2 06 c5 bc 70 27 34 3d
       -0.015115508 -0.061449658 -0.024051044 0.043982923
0003b0 86 88 26 3c 28 dd 64 3b ab cc 65 bb 2c 27 2a bd
       0.010164386 0.0034921858 -0.0035064619 -0.041541263
0003c0 23 79 61 3d 87 60 c3 bc b6 7a 24 3d 29 35 45 bc
       0.055047166 -0.023849739 0.04015609 -0.0120366
0003d0 cc 80 88 3d e2 44 02 bd f2 89 e2 bc 99 32 d6 bc
       0.06665191 -0.031803973 -0.027653668 -0.026147174
0003e0 2c 17 30 3c 76 38 66 bc 26 16 50 3d bc e8 2e 3d
       0.010747712 -0.014051547 0.050802372 0.04270242
0003f0 61 36 83 bd b7 d4 06 bd e7 cf 3b 3d 61 45 8e bc
       -0.06406856 -0.032917704 0.045852568 -0.017367067

head.weight f4 [10, 768]
000000 1c 4f 8c bd 24 2b c7 bc 83 6d f7 3d a3 9e 6e bc
       -0.068510264 -0.024312563 0.120814346 -0.014564189
000010 3b b8 c8 3d 1c 35 ed 3d ea b3 60 3c 23 5a b1 bd
       0.09800764 0.115823954 0.01371477 -0.0865977
000020 35 aa d0 bc 03 b3 c4 3a 67 07 d2 bc f4 f5 06 bd
       -0.025471786 0.0015006963 -0.025638295 -0.032949403
000030 1b 4f b0 bd e8 4c 8f bd ce 34 b5 bb 25 32 1f 3c
       -0.08608838 -0.069970906 -0.0055299764 0.009716545
000040 63 84 cf 3d 1b 08 d0 bd dc 8c aa bc ce c2 27 bd
       0.10132673 -0.10157796 -0.02081912 -0.040957265
000050 83 a4 a9 bb 2a b5 05 3d 86 3a 13 bd 60 db 5a bd
       -0.005177082 0.032643475 -0.035944484 -0.05343187
000060 8e 56 08 bd da b2 0c 3d 54 c9 c6 3d 5d 46 49 3c
       -0.03328567 0.034350254 0.09706369 0.012284842
000070 74 cf d0 bb ae c9 88 bd f7 98 66 bd 48 39 b5 bd
       -0.0063723866 -0.06679092 -0.056298222 -0.08848816
000080 50 e2 e5 bd 99 bd 7e 3d 7f 49 87 3d 96 b4 3e bc
       -0.11224806 0.062192533 0.06605815 -0.011639735
000090 22 41 23 bd b7 b3 05 3c 7d b0 da bd c2 12 f6 3c
       -0.039857037 0.008160523 -0.10678194 0.030038241
0000a0 14 3f 2d 3c cf b2 bc bd 9d 1c 81 bd cc ec bd bd
       0.010574121 -0.092137925 -0.06304286 -0.09273681
0000b0 da 64 7c 3d 58 74 40 3c 7d 49 ae 3d 6a 73 0c bd
       0.061619617 0.0117464885 0.085101105 -0.034289755
0000c0 c4 54 b0 3d 6b 13 bc 3d 2a f3 69 3d 9d bd bf 3c
       0.08609918 0.09183391 0.057116665 0.023405844
0000d0 8d 0e 83 3d 12 a2 70 3d d7 f2 0c be c6 93 54 3d
       0.0639926 0.058748312 -0.13764511 0.05189874
0000e0 d9 70 b9 bc 6f 15 22 3d b8 9d 86 3d bc d2 cb 3b
       -0.022636818 0.039571222 0.06573051 0.00622019
0000f0 48 cc 6d 3d 30 41 94 bd 42 47 7e bd c0 df 54 3d
       0.058056146 -0.07238996 -0.062079675 0.051971197
000100 51 aa cb 3c ff ff 07 bc 0c 97 55 bd 96 cc 8c bc
       0.024861487 -0.00830078 -0.052146003 -0.017187398
000110 e2 9a eb 3d 96 fa ce 3d 2c 41 cf 3c 2e 46 cd bd
       0.11504151 0.10106389 0.025299631 -0.10023151
000120 6b ad 19 bd 05 24 35 bd 95 23 e2 3b 56 64 b8 bd
       -0.0375189 -0.044223804 0.0069012144 -0.090035126
000130 35 b0 a0 bd 81 8e b7 3d d1 ae ce bd ca 76 fe 3a
       -0.07846109 0.08962727 -0.10091937 0.0019414064
000140 e4 22 8e bd 8a 11 b7 bd 92 e7 a7 bd d9 e6 41 bd
       -0.069402486 -0.08938892 -0.081984654 -0.047339294
000150 ea e9 c1 3d 18 b2 b6 bd f6 f0 7d 3b 79 fd 99 3d
       0.09468444 -0.089206874 0.003874836 0.07519049
000160 6a ea ee 3c 46 16 92 3d e9 7f e3 3c 1c 90 f9 bd
       0.029164512 0.071331546 0.027770953 -0.1218569
000170 78 a1 5f bc 1e 7d 64 bd 15 2b 27 3d 40 c2 7d 3d
       -0.013649337 -0.055783384 0.04081257 0.06195283
000180 3e 29 99 3d d9 31 92 bd 25 91 8f bd 0b 1b c5 bd
       0.074785694 -0.07138414 -0.07010106 -0.09624299
000190 10 67 35 bc 50 69 c5 3d e1 ad 80 bd 1e 0b b0 bd
       -0.011071935 0.096392274 -0.06283165 -0.085958704
0001a0 93 a7 57 3d 50 b2 e2 bc a3 30 fe bd 2f 76 c6 bd
       0.052650046 -0.027672917 -0.124116205 -0.096905105
0001b0 d9 8e ad bc 3f d7 34 bd f3 2a 85 3d 7e ab b8 bd
       -0.02118628 -0.044150587 0.065023325 -0.090170845
0001c0 1a ce 38 3d 3a d8 6c 3b 6f 2b c1 3c 74 f5 87 3c
       0.04511843 0.0036139623 0.023580281 0.016596533
0001d0 d2 f5 15 bd 1e 53 0b 3e 49 e3 a9 3c b7 e8 54 bd
       -0.036611386 0.13605925 0.02073826 -0.051979747
0001e0 09 28 42 3d 80 ce 0f 3d 64 4c a8 3b e8 fc d7 3d
       0.04740146 0.035109043 0.0051360596 0.10546285
0001f0 b9 ef 9b bd a3 f1 b7 bd 19 76 87 3d ef 33 d0 3d
       -0.07614083 -0.089816354 0.06614322 0.101661555
000200 e7 ec cd ba 32 de 15 bc f0 83 42 bd 9f dc 82 3d
       -0.0015710861 -0.009147214 -0.047489107 0.063897364
000210 4a 44 80 bd 2f fe cf bb ef 16 4b 3d 6f 7a 48 3d
       -0.06263025 -0.0063474397 0.049582418 0.048944887
000220 4b 96 37 3d f1 92 42 bd c3 5c 52 3d d6 4f f8 bd
       0.044821065 -0.047503415 0.051357996 -0.121246025
000230 86 8b cf 3d 1f 81 b6 bc 1d e2 57 3d fe 40 d1 bd
       0.10134034 -0.022278367 0.052705873 -0.102174744
000240 57 ab c5 bd 20 7a cf bd 23 fa b6 bd df 77 c9 3d
       -0.09651821 -0.10130715 -0.089344285 0.09837317
000250 db 55 8d 3c 66 81 ae bd 51 7d 05 3c d1 c6 1d 3d
       0.017252853 -0.085207745 0.008147554 0.038519684
000260 71 ab ed 3c 1b 29 b2 bb 98 19 e7 3a 4f ae a4 bd
       0.029012414 -0.005437029 0.0017631529 -0.08041059
000270 0c e4 d0 bd d2 cb db 3c a0 d0 a8 3c 2a 63 cb bb
       -0.101997465 0.026830588 0.020607293 -0.0062068896
000280 3f c0 86 bd 8c b7 a0 bc 48 ea 22 bd 36 ec e1 3d
       -0.06579637 -0.019618772 -0.03977421 0.11031382
000290 92 13 2b 3c e1 f7 f5 3c 0b 01 a1 bd 20 8a 6e 3d
       0.010441678 0.030025424 -0.07861527 0.058237195
0002a0 11 07 37 3d 0d f1 f8 3d e5 bb 0f bd 4c 8d de 3c
       0.044684473 0.12155352 -0.0350913 0.027166985
0002b0 7c 09 c8 3b dd 5f 0f bd d3 df 64 3d 2d fe c6 3b
       0.0061046463 -0.03500353 0.055877518 0.0060727806
0002c0 7e fa aa bd bd 5d 5e 3d c1 80 68 bd d0 12 4b bd
       -0.08348559 0.054288615 -0.056763414 -0.049578488
0002d0 4a e5 08 3d bf d5 9e 3d 33 34 4d bd 7c 8f a5 bc
       0.033421792 0.077556126 -0.05009861 -0.02021002
0002e0 7c 5b 27 bd 5c 38 38 3b 69 6d 0c 3d a4 d4 0c bc
       -0.04085873 0.0028109765 0.03428403 -0.008595619
0002f0 5c 1f c8 bc d1 02 47 bd 24 a8 7e 3d 90 3e 4d 3d
       -0.024429016 -0.04858667 0.06217207 0.050108492
000300 45 5b ab bd 13 02 b3 3d 50 f5 58 bd 82 52 85 3d
       -0.08367018 0.0874063 -0.052968323 0.06509878
000310 66 b3 2d 3c e8 bb c5 bb 8f d2 86 bd fa 32 3b bd
       0.010601854 -0.006034363 -0.065831296 -0.045702912
000320 4e 1c 45 bd 02 f0 4a bd 11 55 b3 bd f4 04 13 bd
       -0.048122697 -0.049545296 -0.087564595 -0.035893396
000330 13 bc 72 3d da 0f a2 bd cd 2e df bb fa 69 d7 3c
       0.059261393 -0.0791318 -0.006810999 0.02629565
000340 3c 6a ee 3c 54 37 01 bd ff a3 9d bd 86 9a 5d 3d
       0.02910339 -0.031546906 -0.076972954 0.054102443
000350 1a 7a eb 3c 0d 05 37 3c 8b cb 7c 3d 97 aa 92 3c
       0.028744746 0.011170638 0.06171755 0.01790361
000360 ec c2 bd bd 1e 90 a5 3c 92 b4 ea 3d 54 69 9a 3d
       -0.09265694 0.020210322 0.11460222 0.07539621
000370 cf d8 9f bc a8 a3 56 3d 8d 66 c3 bd 2b c8 e1 bd
       -0.019512562 0.05240217 -0.095410444 -0.11024507
000380 ac 53 86 3c 57 ce b5 bd 34 b5 87 3d 89 75 4d 3c
       0.01639732 -0.08877247 0.06626359 0.01254023
000390 4c a0 bc 3c ba 16 71 bc 84 e5 5b bd 7a c3 c8 3d
       0.023025654 -0.014714891 -0.05368568 0.09802909
0003a0 a9 ea 4e bd d8 d3 ff bc 2f d3 c8 bd 72 52 67 bd
       -0.050516758 -0.031228945 -0.09805905 -0.05647511
0003b0 2c be 57 bc 7c 39 dc 3c 5e 05 ab bd 13 52 60 3d
       -0.013167899 0.02688288 -0.08350633 0.054765772
0003c0 bf c2 75 bc 94 ea 9c bd 9a a4 88 3b 93 65 85 bd
       -0.015000044 -0.0766193 0.0041700127 -0.06513514
0003d0 5c b9 dd bb a4 09 92 3d 36 4c 8d bd 02 bb 51 3d
       -0.0067664813 0.07130745 -0.06899302 0.051203735
0003e0 2c 30 87 3d 34 ca 71 bc 6a 23 95 bd 85 c5 c6 3d
       0.06600985 -0.014757682 -0.07282145 0.097056426
0003f0 65 b6 5f 3d 52 de 2b bc 37 33 b6 bd 63 4b a8 bd
       0.054617304 -0.010490017 -0.08896487 -0.08217504

head.bias f4 [10]
000000 9a ae 82 bc 32 d5 f0 bc 28 03 42 bc 33 b1 be 3c
       -0.015952397 -0.029398534 -0.011841573 0.023277855
000010 4a b7 c9 bc 23 2d bf 3b 42 75 cc bb 1b b0 34 3c
       -0.024623532 0.005834238 -0.006239564 0.011028315
000020 92 b2 88 bc a0 96 af 3b
       -0.016686711 0.005358532

FacTu.weight f4 [32, 768]
000000 58 62 c9 bc e3 d4 e1 bb 6d 1c 0a 3a ea 07 73 3b
       -0.024583027 -0.006891833 0.0005268518 0.0037083575
000010 af ec 34 bd 75 c9 c2 3c 88 b6 6a bb 3c 6f 28 bd
       -0.04417103 0.023777703 -0.0035814364 -0.041121706
000020 38 d7 a5 3c 1a 75 ce 3a 82 1c 4d 3d cb 0d 8a bc
       0.020244226 0.0015751452 0.050076015 -0.01685228
000030 c5 10 5a 3d ac 28 80 3d d6 f7 ce 3c dc 24 b9 3c
       0.05323865 0.062577575 0.025264662 0.022600584
000040 ed 81 b9 bc a3 26 9c 3c 78 b7 6c bc 0b 46 97 bc
       -0.022644961 0.019061392 -0.014448039 -0.018466016
000050 41 d9 ee 3b 08 91 20 bd 78 4c 49 bb d3 53 09 3c
       0.0072890823 -0.039200813 -0.0030715745 0.008381802
000060 d6 64 a2 3c 25 8d 31 bc 48 de b6 bc b7 60 dc bc
       0.019823473 -0.010836874 -0.022322789 -0.026901586
000070 82 a8 9b 3c 27 e9 0f 3d 4b d3 c0 3c 55 77 20 bd
       0.01900125 0.03513446 0.023538252 -0.039176304
000080 77 22 9a bc 02 e1 04 3d 62 6d 01 3c ec d8 04 b7
       -0.018815262 0.032441147 0.007899614 -7.918319e-06
000090 4a e7 58 3d 4b 9f 1d 3d c1 f0 bc bc 21 96 30 3d
       0.05295495 0.03848199 -0.02306402 0.043111924
0000a0 71 39 8d ba d9 da 2c 3c f3 10 b7 3a 13 5b 12 bc
       -0.0010774565 0.010550224 0.0013966843 -0.008932847
0000b0 13 0c ee 3c 41 16 ea bb 76 d8 91 bc 6d dc 84 3d
       0.029058492 -0.007143766 -0.017803412 0.064873554
0000c0 7e fd 37 3d a8 15 d7 bc 6d 20 86 3c f7 a1 88 bc
       0.044919483 -0.026255444 0.016372884 -0.016678793
0000d0 9f 6e 8d bd 32 34 a4 bc 5b 5e c9 3c 1f 69 15 bd
       -0.06905865 -0.02004442 0.024581125 -0.036477204
0000e0 6c bb b6 3c e8 46 cd bc 02 e7 ce bb 39 16 b6 bc
       0.022306167 -0.025058225 -0.0063141594 -0.022227393
0000f0 76 a5 22 bc ef 3d 54 bb a0 ce 22 3d 00 b5 1d 3d
       -0.009927144 -0.0032385548 0.039747834 0.038502693
000100 b9 96 61 bb 63 e5 1e bc 52 1a 5c 3d 02 64 d6 3c
       -0.0034422113 -0.009698245 0.05373604 0.026170734
000110 bb cf b6 bb fc b8 15 3c 2a a5 67 3c ca e3 9d 3c
       -0.0055789626 0.009138342 0.014138499 0.019273657
000120 c7 44 e6 ba c2 10 8c 3c e9 23 01 bc 77 06 6b 3c
       -0.0017568105 0.017097834 -0.007882097 0.014344803
000130 79 cc ff 3c 18 60 67 3c c8 4f 19 3d df 10 13 bc
       0.03122543 0.014122032 0.0374296 -0.00897619
000140 7f 5a ea 3c 07 8a 66 bd ea 9f 89 3c 47 5c 1d 3d
       0.028607605 -0.056283977 0.016799886 0.03841808
000150 ee e5 57 bd 02 bf a2 bc bc 76 42 3c 7f 7a 76 bc
       -0.052709512 -0.01986647 0.011869129 -0.015043854
000160 96 83 e9 ba 22 b2 e0 bc 3f 9a 27 bd e7 e1 7c 3b
       -0.0017815705 -0.02742869 -0.040918585 0.0038586797
000170 8e 7a 55 bd 93 60 1d 3d c1 9c 24 3c 0f 3f d4 bc
       -0.05211883 0.03842218 0.010047139 -0.025908975
000180 f6 74 8b 3b 2b 41 26 bc 7d a2 05 3a 81 5f 13 3d
       0.004255886 -0.010147373 0.000509776 0.03597975
000190 68 e7 d0 3c 06 b6 18 bc 25 41 e2 3a 74 f3 d6 bc
       0.025500968 -0.0093207415 0.0017261846 -0.026239134
0001a0 42 3d db bc b1 85 0f bd d4 82 12 bd 12 41 18 3d
       -0.026762608 -0.035039607 -0.0357693 0.03717143
0001b0 ac 3a 68 3d d4 b0 5c 3d ca 8e 4a 3c 3b d1 ee bc
       0.05669658 0.053879574 0.012363145 -0.029152503
0001c0 e7 90 02 3d 75 dc 06 3c 9e e0 29 bd 81 40 b8 bc
       0.03187647 0.008231272 -0.041473977 -0.022491695
0001d0 bd 6c 2a bc d4 c5 9f ba 2f ec ab bb 4b 2d 1c bd
       -0.010401902 -0.0012189695 -0.005246661 -0.038129132
0001e0 1f b1 36 3c 54 42 0a 3c 07 f5 f6 3c 67 da 9b 3b
       0.011150627 0.008438665 0.030146135 0.00475626
0001f0 01 22 87 bc a6 92 e2 3c e6 5f 01 bd 9f 28 83 3b
       -0.016495707 0.027657818 -0.031585597 0.004002645
000200 4c 21 04 bd 26 52 19 bc b4 a2 0f 3c 6c ea 80 bc
       -0.032258317 -0.009357965 0.008766819 -0.015736781
000210 ab 0e bd 3c e3 af ae bc 10 e7 22 bc 48 82 7d 3d
       0.023078283 -0.021324104 -0.009942785 0.061891824
000220 b6 a2 8a bd c2 9c 88 3c ae 4e 43 bd 5e 57 1d bd
       -0.06769316 0.01667631 -0.047682457 -0.038413398
000230 9f 34 c3 3b 79 64 9b bc 94 b9 85 3c cb 75 14 3c
       0.0059572007 -0.018968808 0.016323842 0.009061287
000240 57 83 39 bb e9 05 e2 3c d4 85 0b bd 09 60 3e bc
       -0.0028307044 0.027590709 -0.034063175 -0.011619576
000250 e0 a4 6f 3c 9f 70 3b 3c 69 dc 95 3c 10 a7 ce bb
       0.014626712 0.011440425 0.018293576 -0.0063065365
000260 57 d4 bd bc 81 36 12 3c ce fa ae bb 4e fb c3 bc
       -0.02317254 0.008924128 -0.005339957 -0.023923542
000270 3e 0f 8e bc 72 60 a3 3c 0e 3b 1e 3d 83 84 7f bc
       -0.017341252 0.01994345 0.038630538 -0.015595558
000280 69 c1 88 bc 09 59 93 bc 17 be 17 3c d8 25 91 bc
       -0.016693788 -0.017986791 0.00926163 -0.01771824
000290 38 9e eb 3c 7f f4 5d 3c d7 9c 0e 3b bd bd 8e 3c
       0.028761968 0.013547062 0.0021760964 0.017424459
0002a0 ef 7b 9f 3b 13 22 cc bb 5f 3d 5b bc a8 fe 81 bc
       0.004867069 -0.006229648 -0.013381331 -0.0158685
0002b0 19 e2 61 3c f0 67 07 3c ec d3 41 3c bc da 02 bd
       0.013786816 0.008264527 0.011830311 -0.031946883
0002c0 94 1c 2b bb ae be 0b bc 08 cb 14 3b 76 ec be bc
       -0.0026109563 -0.008529348 0.0022704024 -0.023306113
0002d0 b2 6b a6 3c bc 56 be 3c 0e ca e2 bc 53 e6 48 bd
       0.020315025 0.023234718 -0.027684238 -0.04904778
0002e0 ce 1b 5b bc bf 4b 8d bc 25 c2 55 bc 98 8e 2a 3d
       -0.013373328 -0.017248033 -0.013046776 0.041639894
0002f0 6b 87 08 bd e9 9c 42 3d 8a 3e 7b bd a9 50 41 bc
       -0.03333227 0.047512922 -0.06133894 -0.011799016
000300 97 f0 47 bc 32 3a c7 3c a8 3b 68 bb d1 9d 52 3b
       -0.012203357 0.024319742 -0.0035435949 0.0032137523
000310 ac 56 18 bb d0 60 a7 bc e4 f6 7c 3c f6 a5 62 3c
       -0.002324502 -0.020431906 0.015439723 0.0138335135
000320 e2 36 94 bc df b4 55 3c bc a2 37 bc 5e 0b 9d bc
       -0.018092576 0.013043611 -0.0112082325 -0.01917046
000330 f4 af 14 bd ee ce 0d bc 81 8a 0f bd 45 64 23 3c
       -0.036300614 -0.008655293 -0.035044197 0.009972637
000340 f3 60 1f bd 39 81 b9 3c c1 7e 71 3b aa 2b 34 3d
       -0.038910817 0.022644626 0.0036849233 0.043986954
000350 99 9b 28 bd c3 98 15 3d b0 d4 e7 bc ea f6 23 bd
       -0.041164014 0.036522638 -0.02829966 -0.040030397
000360 4a 06 1d bb d0 8c c4 bc 11 2c 38 3d 41 e1 ca bc
       -0.0023960047 -0.023992926 0.0449639 -0.024765613
000370 ba a4 c8 3c ce fb e4 bc 6f 0d 4b 3d 9b 4e 00 3c
       0.02449261 -0.027952101 0.04957336 0.007831241
000380 6c 99 d2 bb bb 9d 84 3c 5e 21 10 bd 8c f2 7b bc
       -0.0064269807 0.016188493 -0.03518807 -0.015377652
000390 21 84 44 bc 4b 6d 16 3d eb 6d 96 bc 33 f2 bf bc
       -0.011994393 0.036725324 -0.01836296 -0.02343092
0003a0 50 09 a6 bc 66 f4 77 bc 7f 4c 87 b8 b5 76 25 3d
       -0.020268112 -0.015133953 -6.45155e-05 0.04039641
0003b0 dc 3d 94 3c 06 72 96 bc d2 29 47 bb 9e 3a 78 bd
       0.018095903 -0.018364917 -0.0030389917 -0.060602777
0003c0 c7 68 43 bc 49 03 8e bc 2e 0a a9 3b 9c 5d c7 3c
       -0.011926836 -0.01733555 0.005158684 0.024336629
0003d0 1c a3 e5 3c f8 55 aa bc 82 1d e2 bc f7 83 84 bc
       0.028031878 -0.020792946 -0.027601961 -0.016176207
0003e0 9a ef aa bc 3f 0f cd 3b 36 a3 f0 3c 12 17 2e 3d
       -0.020866204 0.006257921 0.0293747 0.04250247
0003f0 38 16 e1 bc c5 cd be bc 0b c7 97 bc 07 94 5c bd
       -0.027476415 -0.023291478 -0.018527528 -0.053852107

FacTv.weight f4 [768, 32]
000000 57 85 92 bb 2d 75 01 3d ba 67 f1 39 7c 07 89 bb
       -0.0044714618 0.03160589 0.00046044384 -0.0041818004
000010 ca 33 b2 3b 5e db 06 3c 1e ef c6 bc ea bd 60 bc
       0.0054383026 0.008231012 -0.024283942 -0.013717154
000020 cc 28 4f bc f0 e6 17 3c 5c 9e 91 39 f4 7f a6 ba
       -0.012644004 0.009271368 0.00027774542 -0.0012702928
000030 c9 c4 89 bc 18 d3 03 bc fa bd 8d bc 6a d5 8b 3c
       -0.016817467 -0.008045934 -0.017302502 0.017069537
000040 33 65 fd 3b 4c f9 ab bb 4b b9 9f bb df f1 df ba
       0.007733011 -0.0052482244 -0.0048743836 -0.0017085633
000050 96 10 b0 bb 14 17 dc bb 4a ae 97 bc 14 d5 d7 bc
       -0.005373071 -0.0067166183 -0.018515725 -0.02634672
000060 b0 e2 9d 3c 7d d3 0d bb 9b 96 85 bc a7 46 66 bc
       0.019273132 -0.002164095 -0.016307166 -0.014054931
000070 9a 4b 23 bc 40 e8 1b bc e9 c3 b5 3c 70 45 0b 3c
       -0.009966755 -0.009515822 0.022188144 0.008500442
000080 9f ce 05 3d 57 f2 1f bc e3 dd 0e bc 14 9b 18 3c
       0.032667752 -0.009762368 -0.008719894 0.009314317
000090 9e 8b c6 bb a1 d9 af bb 4f 9d f1 3b 7a 0a eb bc
       -0.006059124 -0.0053665196 0.007373489 -0.028691519
0000a0 96 79 83 bc 8e 42 f0 3a 62 ff 1e ba 5a 19 38 3c
       -0.016049188 0.0018330382 -0.00060652767 0.011236513
0000b0 68 04 8a 3c b1 12 fa bc 52 c9 9e 3c ea 5b eb bb
       0.016847804 -0.03052649 0.019383106 -0.007182588
0000c0 a7 7b d6 bb 30 25 34 bc 5d 25 1f bb 51 b9 9e bc
       -0.006545502 -0.010995194 -0.0024283745 -0.019375475
0000d0 7c cc ee bc 2a 3d 28 3b 42 c7 89 3b 46 35 f4 bb
       -0.02915024 0.0025671222 0.0042046616 -0.0074526398
0000e0 12 fa 7b bc ed 52 21 bb dc 7e 59 bb 44 01 e3 3b
       -0.015379446 -0.0024616078 -0.0033187186 0.006927641
0000f0 46 f5 0c bc 31 1c 45 3b ed 08 68 3c 72 bf 96 bc
       -0.0086034 0.0030076618 0.014162284 -0.018401835
000100 14 4f 4a bb 6e 41 84 bc 95 b3 83 3c c0 07 f8 bc
       -0.0030869888 -0.01614448 0.016076842 -0.030277133
000110 6e 72 b8 3b 9f b8 64 bc 4e 1c 45 3c fe b2 14 3d
       0.0056288755 -0.013960033 0.012030674 0.036303513
000120 ea 64 05 bd 0d 5d 9a 3c d0 4c af 3c 10 e7 7e bc
       -0.032566942 0.018843198 0.021398932 -0.015558019
000130 8d 11 1e bc 5d 6d 55 3c dc 15 96 3c 9b 71 0a 3d
       -0.009647739 0.0130265625 0.01832097 0.03379975
000140 d1 d8 88 ba 66 83 0c bc b5 74 bc b9 fd 3f 09 3c
       -0.0010440593 -0.00857625 -0.00035945108 0.008377072
000150 4c 92 c0 bc 92 b3 9c 3c 61 28 2c bc eb 97 03 3c
       -0.02350726 0.019128595 -0.010507674 0.008031826
000160 15 38 1b bc 0c 0a 12 bd 96 e2 74 3c 3d a7 99 bc
       -0.00947382 -0.035654113 0.0149466 -0.018756503
000170 b9 f5 7a 3c 9a 7f fe 3c fa 47 31 bb bc a9 20 bb
       0.015317374 0.031066705 -0.0027050958 -0.0024515232
000180 0e 1c ac 3c d6 da 26 bb 58 27 c3 bb aa bb af 3c
       0.021009471 -0.0025460026 -0.005955618 0.02145179
000190 84 e4 6b bb 50 db ac 3c 30 75 16 bc ba dd ba bc
       -0.003599436 0.02110067 -0.009183213 -0.022810806
0001a0 75 ff 12 3b b7 09 36 3b 8f 34 de 3b 3b 75 02 bc
       0.0022430096 0.0027776787 0.006781168 -0.00796252
0001b0 5b 60 6a bc 38 6b db bc fd 16 2a 3c ee 27 2c b9
       -0.0143051995 -0.026784524 0.010381457 -0.00016418073
0001c0 53 4f d2 bb b6 d8 2c bc ab c5 9c 3b d9 15 8d b9
       -0.0064181476 -0.010549715 0.004784306 -0.00026909893
0001d0 31 3a e8 3b d8 c5 97 ba b7 80 82 3d 9a d4 51 3c
       0.007087015 -0.0011579348 0.06372207 0.012807036
0001e0 9c 4f 09 3c 82 23 47 bb 12 1a 6a 3c b0 f0 b0 bb
       0.008380797 -0.0030386155 0.014288442 -0.005399786
0001f0 45 9a c6 3b 99 c5 13 3c 92 1b 34 3c 70 fe f8 ba
       0.006060871 0.009019279 0.010992901 -0.0018996727
000200 25 70 03 bc c8 d2 f6 3c ae 57 d2 3b 40 b1 2f bc
       -0.008022343 0.030129805 0.0064191436 -0.010723412
000210 3d 15 da bb 13 92 a3 bc 18 99 f5 3b 59 4c c9 39
       -0.006655364 -0.019967115 0.007495057 0.0003839459
000220 de e1 63 bc bd ad fe 3c b1 32 79 ba 46 85 2b 3a
       -0.013908831 0.031088704 -0.000950615 0.00065429916
000230 5e fb d2 bc be 23 49 bb da cf a0 3a 45 55 0d 3d
       -0.025754627 -0.003069147 0.0012268976 0.034505147
000240 d2 7c 90 bb f7 8f 74 3c 49 cf 9f 3a 3e 35 0e 3b
       -0.004409411 0.014926902 0.0012192513 0.0021699215
000250 13 a8 64 3c ad d3 d1 39 f8 05 11 bc 2c 6d 39 3b
       0.013956088 0.00040021297 -0.008851521 0.0028293831
000260 80 cf 86 3b e3 d2 85 bc 44 53 d5 3b 46 55 a3 bc
       0.0041140914 -0.01633591 0.00651017 -0.019938122
000270 45 3e 8c bb a7 93 2e 3c 4e a1 9c bc 0b 2a 91 3c
       -0.004279884 0.01065532 -0.019119885 0.017720243
000280 e2 3a 70 bc 11 0f 70 3c 89 74 c6 bb 4d 44 58 3c
       -0.014662476 0.01465203 -0.0060563725 0.013199878
000290 0c 4d 08 bb 0f eb f3 3c e1 96 0d bb 4b e7 20 3c
       -0.0020797877 0.02977517 -0.0021604823 0.00982077
0002a0 c4 10 b4 3b f4 c7 ea 3c 5d e6 71 3b b8 c5 18 bb
       0.0054951627 0.028659798 0.003691099 -0.002331121
0002b0 47 38 a9 3b ee c7 85 bc a6 ea 4c 3c 59 78 46 3c
       0.0051641795 -0.016330685 0.012507116 0.012113654
0002c0 85 f8 c0 bc 37 90 b1 bc e1 29 ae bc d4 4f c2 b9
       -0.023556003 -0.021675212 -0.021260204 -0.0003706204
0002d0 41 d8 f8 ba 79 48 bd 3c cd 83 9a 3b 29 e4 91 bc
       -0.0018985347 0.023105847 0.004715419 -0.01780899
0002e0 c8 b2 34 bc a4 3f 4f ba 82 1f 98 3c 58 a4 81 bb
       -0.011028953 -0.00079059065 0.018569712 -0.003956359
0002f0 9c af e8 3b ca f1 ca 3c 0e cd 1d 3c 60 54 e2 39
       0.0071010124 0.024773497 0.009631408 0.00043168943
000300 21 5a e2 3b f9 ba 85 bc 6c a4 65 bc 49 3f d3 bc
       0.006907717 -0.016324507 -0.014016252 -0.025787013
000310 cc bc 23 bc 6a ea c1 bb b8 7f 7b bc 92 f0 a5 3c
       -0.009993743 -0.005917837 -0.015350275 0.020256314
000320 f2 02 d9 3b 94 22 d6 3c 2e 91 da 3c 63 a7 69 bc
       0.0066226656 0.026139535 0.026680555 -0.0142610995
000330 7b 2e 57 3c e8 08 0e 3a d7 ec 90 3c f1 b8 3d bc
       0.01313364 0.0005418197 0.017691059 -0.011579738
000340 7b 60 17 3a bb a4 ce 3c cb 92 90 bc ca 1d 3d bc
       0.00057745696 0.025225034 -0.017648121 -0.011542747
000350 68 36 88 39 8c 0f 8e 3b d0 1d 19 bc ca 78 cf 3a
       0.00025980477 0.0043353494 -0.009345487 0.0015828845
000360 4c 93 dd 3c 18 0e 77 bc 5b 75 73 3a a1 c6 27 3c
       0.027047776 -0.015079044 0.00092872017 0.010240228
000370 52 bb e3 3b de 4e 3d 3c b3 b8 70 bc 8e e5 af 3b
       0.0069498206 0.011554448 -0.014692473 0.005367941
000380 0d b2 64 3c 73 85 23 bb db d5 e6 bb 1f e7 c8 3a
       0.013958466 -0.0024951368 -0.0070445365 0.0015327669
000390 dc 7f a9 3c 95 5a b7 3b ea 22 22 bd da cf 13 3c
       0.02069085 0.005595515 -0.039584078 0.009021724
0003a0 7b 08 45 bb 0d a3 ff 3c 52 1f ef 3b 84 b2 8c 3a
       -0.003006487 0.031205678 0.007297435 0.0010734354
0003b0 cd be d0 3b 44 d2 be 3c 75 e3 de bc 39 70 33 bc
       0.0063704015 0.023293622 -0.02720807 -0.010952049
0003c0 e0 44 71 bc 13 56 04 3a 91 61 ea 3b 61 ed 0f bc
       -0.014725894 0.00050482264 0.007152744 -0.008784623
0003d0 a0 a3 7b 3c 76 02 58 3a a9 44 99 bc 90 84 37 bc
       0.015358835 0.0008240113 -0.018709498 -0.011201039
0003e0 e2 7e 3a bc 9a da cb 3c ea 52 a8 bc 95 c4 27 3c
       -0.01138279 0.02488451 -0.020547349 0.01023974
0003f0 b8 04 6d bc 88 3b 6f bb 64 a3 53 3b 58 d6 26 3c
       -0.014466457 -0.003650399 0.0032293433 0.0101829395
