Final Project/FacT-TK/kitti_best.pt (torch, 360215 bytes, 6 tensors)

FacTp f4 [32, 144]
000000 fd 91 f2 bd 0c 2e 7a be 94 e4 70 3b 85 13 04 be
       -0.11844251 -0.24431628 0.0036757337 -0.12898071
000010 8b 7f 23 be 02 ae 8f bd 96 56 fc bd 07 f2 36 bd
       -0.15966623 -0.07015611 -0.123212025 -0.04466441
000020 56 e2 1e 3e 3a 59 c2 bd a0 89 99 bd 56 2d 0f bd
       0.15516028 -0.09489675 -0.07496953 -0.034955345
000030 50 ec 02 3e 0b f8 16 be 92 7b b0 bd a0 ef 37 3e
       0.12785459 -0.14743058 -0.08617319 0.17962503
000040 26 2d ff 3d 75 12 d1 3d 32 27 62 be 89 cc 92 bb
       0.12459783 0.102085985 -0.22085264 -0.004479949
000050 a1 7d 08 be 38 73 88 3d f3 c4 74 3e 1d 15 08 3d
       -0.13329174 0.06662601 0.23903255 0.03322326
000060 b0 87 34 be 94 4e cd bc 2e fc 24 3e ef 02 03 3e
       -0.17629886 -0.025061883 0.16111824 0.12794088
000070 1d 1a 16 be bd 2b 3c 3e 31 be b6 3d 58 f3 67 3c
       -0.14658399 0.1837606 0.08922995 0.014157139
000080 ad db 10 3c 16 10 e8 bd b4 66 df bd 9a 79 04 be
       0.008841437 -0.11331193 -0.10908261 -0.12937012
000090 ef 19 4f 3d 35 b9 11 3d 24 cc aa bb d3 36 23 3d
       0.05056184 0.035577018 -0.0052123237 0.039847206
0000a0 23 c8 2d be 33 71 a4 bc dc 96 e9 3d 04 5c 9a bd
       -0.16970877 -0.020073509 0.11405727 -0.07537082
0000b0 80 b2 a4 bd 09 23 be 3d 52 49 dc bd f4 4c 09 be
       -0.08041859 0.09284026 -0.10756172 -0.13408262
0000c0 89 1c b5 3d 86 a5 7b 3c 77 2e cb 3d 81 70 63 bd
       0.08843333 0.015359288 0.09920972 -0.055527214
0000d0 1a 67 f4 bc 03 12 7b 3d 1c f8 1f 3e 17 4e b8 bd
       -0.029834319 0.061296474 0.1562199 -0.089992695
0000e0 94 d7 14 3e fa f8 8e 3c 17 7b e6 bc 71 b8 6d 3e
       0.14535362 0.017452706 -0.028134866 0.2321489
0000f0 94 e8 1f 3d a0 1f 1c 3e ee a6 a6 bd 9f a9 0f 3e
       0.039040163 0.15246439 -0.08137308 0.14029549
000100 1a 77 36 3e f0 56 89 bd d0 a4 89 bd b7 ff 23 be
       0.17818871 -0.06706035 -0.067208886 -0.16015516
000110 fa e5 b2 bc 0d 49 0c be ed 10 b6 bd d9 26 e9 3c
       -0.021838177 -0.13699742 -0.08889947 0.028460907
000120 14 da b1 bd 85 54 80 be cd b8 16 3d 24 9f 81 b9
       -0.08684173 -0.25064483 0.036797334 -0.00024723366
000130 ba 3a 54 ba a7 92 ef bd 88 49 79 3d cc c9 1e be
       -0.0008095909 -0.116978936 0.06086114 -0.15506667
000140 2f a5 22 be 1d c3 3d bc 0a 3e 5c bd 7f 57 a8 3d
       -0.15883325 -0.011582163 -0.053770103 0.082198136
000150 94 99 5b be 25 99 79 3d d7 fe de 3c 65 43 55 3e
       -0.21445304 0.060937066 0.027221126 0.2082649
000160 79 46 c1 3d 8c 61 57 3e 04 c7 ce 3d 95 b6 22 39
       0.0943727 0.21033305 0.10096553 0.00015517541
000170 e6 a9 c0 3d 42 7b 4d 3e 2e 99 23 3e 6c 03 bc bd
       0.094074056 0.2006655 0.15976402 -0.0918034
000180 b5 ac f0 3d 68 a7 59 3e 0a 9a 81 bd fa 47 d5 3d
       0.11751691 0.21255267 -0.06328209 0.10414119
000190 8e e7 43 be 25 f3 33 be f1 9d 5f be b6 91 21 bd
       -0.191313 -0.17573221 -0.21837594 -0.0394456
0001a0 a9 46 03 3e 0f 88 1f 3e 0b 4d be 3d 69 67 4d bc
       0.12819923 0.15579246 0.092920385 -0.012536862
0001b0 83 89 76 be 27 76 31 bc 00 72 e9 bd 8d 64 9f b8
       -0.24075894 -0.010831392 -0.11398697 -7.60044e-05
0001c0 cd 6d 3f be 75 2c fe bd b9 b9 ef bd de c9 18 3e
       -0.1869423 -0.12410823 -0.11705346 0.14920756
0001d0 95 4d 37 be fc d1 25 3d 75 2b 08 3e 0e ee e6 bd
       -0.17900689 0.04048346 0.13297828 -0.11275874
0001e0 c5 58 05 3e 00 3d 68 3e 1d 58 f3 3d 13 2d 23 be
       0.13022144 0.2267952 0.11882041 -0.15935163
0001f0 f5 de d1 bd 3f b0 02 bd 0c 65 d5 3d 58 05 46 bd
       -0.10247604 -0.031906363 0.10419664 -0.04834494
000200 b9 a5 00 3d b6 df 5d 3e 54 67 7e be da 39 cc bd
       0.031408045 0.2166737 -0.24844104 -0.09971972
000210 de 50 92 bd 78 60 06 3e 19 28 b5 bd 4d d6 08 be
       -0.071443304 0.13122737 -0.08845539 -0.13363
000220 af 32 ff bd f5 83 1f 3d 38 3f 4e 3e 82 1f e2 3d
       -0.12460839 0.038944203 0.20141304 0.11041166
000230 ff 6a fc 3d e0 88 03 be c7 ef 35 3e 3e 68 1c 3e
       0.123250954 -0.12845182 0.17767249 0.1527414
000240 f5 e6 25 3c 00 9f d5 3d 11 31 d8 bd 68 d9 92 bd
       0.010125865 0.104307175 -0.10556234 -0.07170373
000250 fb c2 26 3d 41 3f b6 3c d4 8b 09 be 6f 5a ac 3d
       0.04071329 0.022246959 -0.13432246 0.08415686
000260 d5 ae b8 3b 9d 93 88 be e3 8f 54 bd ed 11 46 be
       0.005636076 -0.2667512 -0.051895034 -0.19342776
000270 1b 17 44 3c 1d fc 64 be be 91 6d bd e7 5c 2e 3e
       0.011968399 -0.22361799 -0.05800032 0.17027627
000280 42 4c cb bd 02 84 a6 bd f1 5e ca 3d 28 8f e6 bd
       -0.099266544 -0.08130647 0.0988139 -0.11257774
000290 bb d9 96 bc 7c f5 42 be 3d a0 47 be 40 49 12 be
       -0.018414369 -0.19038957 -0.1949472 -0.14285755
0002a0 ac 2a a5 bd 1c 04 72 3d 21 a1 9d 3c d5 bc 15 be
       -0.0806478 0.05908595 0.019241871 -0.14622815
0002b0 7a cb 21 be 41 26 1d be e2 fa 3f be 32 06 15 be
       -0.15800276 -0.15346624 -0.18748048 -0.14553145
0002c0 3e 39 b7 3d ca 21 13 3e 85 bc 2f be 33 79 26 3d
       0.08946465 0.14368358 -0.17161758 0.04064293
0002d0 09 aa 6b 3d 17 ec 1d bc 63 c2 51 3d 5e 24 33 be
       0.057535205 -0.009638808 0.051210772 -0.17494342
0002e0 b3 18 2c 3d 08 95 21 bd 5b 1c 27 3e 7d db 87 3d
       0.042015743 -0.039448768 0.1631941 0.06633661
0002f0 6d c8 0e be e3 dd 8e bd 3c 8a 4d 3e 22 99 38 3d
       -0.13943644 -0.06975915 0.20072263 0.045067914
000300 0e 95 00 3e d8 9a 6f 3c d1 fd f2 3d be fa 42 bd
       0.1255686 0.01462432 0.11864818 -0.047602408
000310 33 8e 87 3d 56 97 6d bc e8 f1 83 bc 7a 7c 26 3e
       0.06618919 -0.014501413 -0.01610656 0.16258422
000320 7f 77 1d 3e 53 0d a4 bd f2 23 80 bc 85 d3 02 be
       0.15377615 -0.08010354 -0.01564214 -0.12776001
000330 75 6a 5e be 29 15 43 bd 8e 21 0a 3e 1c a2 b1 3d
       -0.21720298 -0.0476276 0.13489363 0.08673498
000340 95 7d 40 be af d4 fa 3d 5b a6 85 3d f8 e5 48 3d
       -0.18797906 0.122475974 0.065258704 0.04904744
000350 f0 f2 2c 3e ee cc aa 3c 11 3a a9 3c a9 91 4d 3e
       0.16889548 0.020849671 0.020657571 0.20075096
000360 35 fe 20 3e 77 76 a1 3d 6e 1b b6 3d 4e 04 9a bb
       0.15721972 0.078839235 0.088919505 -0.00470022
000370 6d 67 e3 bd 57 7e 29 3e 83 ea b1 ba 6d cb 07 3d
       -0.11103711 0.16552101 -0.0013573918 0.033152986
000380 5d d5 2f be 47 e4 16 be a5 b0 59 bd f1 aa 84 3c
       -0.17171235 -0.14735518 -0.053146977 0.016194792
000390 e9 aa 55 3c cc ae d7 3c f1 42 16 3d d5 e2 e3 bd
       0.013041236 0.026328467 0.036684934 -0.11127249
0003a0 f0 f1 de 3c 1b c3 26 bd c1 04 78 be ef 23 76 be
       0.027214974 -0.04071341 -0.24220563 -0.24037145
0003b0 8f 9b 67 be 58 4f 25 3e 99 09 b5 bc a3 4b 1b 3e
       -0.22617935 0.16143548 -0.022099303 0.15165572
0003c0 73 c2 56 be 67 bb 3f be bd 1d fe bd ab 65 73 3d
       -0.20972614 -0.18723832 -0.12408016 0.05942313
0003d0 8d ea b4 3c 9d 6f 1b 3e 73 10 1f be a5 cf 4d 3e
       0.022084499 0.15179296 -0.15533619 0.20098741
0003e0 ca e0 26 be 2c 7b e9 bc 35 22 15 be ea 94 6b be
       -0.16296688 -0.028501116 -0.1456383 -0.23006025
0003f0 f1 af ec bd f2 2b c4 3d fa 05 01 be 76 f2 6c 3e
       -0.11556996 0.095786944 -0.12599936 0.23139367

FacTc f4 [32, 32, 32]
000000 58 d6 fd bc 40 18 37 3d 25 52 38 3c 79 6c 58 bb
       -0.030985996 0.04470086 0.0112500535 -0.003302364
000010 87 08 8b bd 48 09 7c 3d 2c 6a 5d 3c 1b cf 1a 3c
       -0.06788736 0.06153229 0.013514083 0.009448792
000020 06 fd 37 bc 7b 60 a3 bd 44 9a bf 3b 44 66 56 3c
       -0.011229759 -0.079773866 0.0058472473 0.013085905
000030 0a 82 4b 3c 75 71 34 3d 57 b3 b8 bc 52 87 32 bd
       0.01242114 0.044053514 -0.022546453 -0.043586083
000040 ad 18 d4 bc 5a 4a 6e bb 25 ce bb bc e5 4e 93 3b
       -0.025890673 -0.0036360235 -0.022925446 0.004495489
000050 82 9c 07 bd 54 3b da bc 2d 7e 12 3d 83 6d 6e bc
       -0.03310824 -0.026639618 0.03576486 -0.014552477
000060 df ed be 3b bf 38 e1 3b a7 e9 d1 3c bf 58 95 3d
       0.0058266963 0.0068732197 0.02562411 0.072923176
000070 51 bf 48 3d e0 d1 ae 3d 2f fb 09 bd 9a d3 7f 3d
       0.04901058 0.08536124 -0.033686813 0.06245766
000080 ea 68 98 3d 38 f6 7e bd 05 c4 c4 3c c1 e0 26 bd
       0.07441886 -0.06224653 0.02401925 -0.040741686
000090 b1 80 8b bc 99 03 18 bd 30 9d 24 bd a8 8b b8 3d
       -0.017029138 -0.037112806 -0.04018897 0.09011012
0000a0 f9 88 b9 3b 4d 68 9c bc e3 87 84 bc e3 13 11 3b
       0.0056620804 -0.019092703 -0.016178077 0.0022137098
0000b0 b5 c7 30 3d 20 6c 9b 3c bb 74 c0 3c 23 1a 64 3d
       0.043159205 0.018972456 0.023493161 0.05568899
0000c0 32 d8 3b bd e1 5d 8d bd 80 d8 19 bc ca 1c 32 bd
       -0.045860477 -0.069026716 -0.0093899965 -0.043484487
0000d0 08 10 7b bd b3 0b b5 bd 62 a3 53 bd 0b f6 83 3d
       -0.061294585 -0.08840122 -0.051669486 0.06443413
0000e0 fe 3b 69 3d 9d ec 9d bc 56 9f 47 3d c7 bc 2e 3d
       0.05694198 -0.019277865 0.04873594 0.0426605
0000f0 6c af f5 bc fd 0d 7e bd 61 82 98 bc b0 d3 a8 3c
       -0.029990874 -0.06202506 -0.018616857 0.020608753
000100 96 53 8c 3c 2e 84 8d bd e0 f2 3f bd b8 31 0c bd
       0.0171297 -0.06909977 -0.046862483 -0.034227103
000110 ab 56 2c bd 40 cc db 3b 8b 0e 9c 3c d5 7c 93 bd
       -0.04207484 0.006707698 0.019049903 -0.07201544
000120 31 6d 9c 3d 75 f4 e0 3c 43 71 63 3c e5 f2 c7 bd
       0.07638014 0.027460316 0.013881984 -0.09763125
000130 95 4d b3 3b 80 72 45 3d de 01 46 bc eb d7 84 3a
       0.005471895 0.0482049 -0.012085406 0.0010135149
000140 ce 8a d9 3c 76 e6 7c 3d e3 5f 2a bb a1 04 15 3d
       0.026555445 0.061743222 -0.0025997094 0.036381368
000150 25 0d 42 bd 9e 58 14 bc c6 48 58 bb f2 b6 1d bc
       -0.047375817 -0.009054331 -0.003300236 -0.009626137
000160 b7 c4 53 bd 73 fc a9 3c c9 ee e5 3c 36 a0 6d bd
       -0.051701274 0.02075026 0.028067963 -0.058014117
000170 7f 96 29 3d 0d 2a a5 bc 5c f1 ec 3c 99 1b a1 bc
       0.04140329 -0.020161653 0.028923683 -0.01966648
000180 12 23 05 bd 29 0b 7a bc ba 3f 39 3c c8 c5 9d 3d
       -0.03250415 -0.01526145 0.0113066975 0.077037394
000190 ed bb 3a bd 30 9d 93 bc c4 d7 80 3d c3 21 16 3d
       -0.045589376 -0.018019289 0.06291154 0.03665329
0001a0 ed d7 61 bb 10 5e 9e bd 94 28 96 3d a8 1a 9a 3c
       -0.0034460977 -0.07732785 0.073319584 0.018811539
0001b0 8f f0 3e bc dc f1 b9 3d 03 03 19 3d 45 43 62 3a
       -0.011654033 0.09079334 0.037356388 0.000863124
0001c0 c8 c3 47 3d ad fc 75 bc 51 9b e7 bc 5b 7b 53 bd
       0.048770696 -0.015013856 -0.028272303 -0.051631313
0001d0 e8 6b 08 bc 5a 1a 0b 3c 53 18 11 bd f4 69 35 bd
       -0.008326508 0.008490169 -0.035423588 -0.044290498
0001e0 9e e3 55 bc f3 f7 0c 3c b9 1d c7 3b 22 56 68 3d
       -0.013054756 0.008604038 0.0060765413 0.056722768
0001f0 20 c4 35 3d 00 7d 2b 3d 3d 43 11 3d 85 6d 40 3c
       0.044376493 0.041867256 0.035464514 0.0117448615
000200 1b b5 1a bc b8 b9 fa bc 1b 43 47 3d 88 16 ba 3d
       -0.009442593 -0.030606136 0.04864798 0.09086329
000210 3e b7 bf bd c6 b8 ea b9 9b ee 5a 3d 35 b8 0a 3d
       -0.093611225 -0.00044769625 0.05345021 0.03386708
000220 9c 10 65 bb 65 28 6c 3c 64 b9 bd bd 74 08 8e 3d
       -0.0034952527 0.014413928 -0.09263876 0.06935206
000230 13 66 23 3d de 6d 89 bd e1 24 bd 3c 12 29 89 3c
       0.039892267 -0.06710409 0.023088874 0.016743217
000240 1f e5 b2 3c f5 3e 20 bc cd 00 01 bb cc 97 82 bc
       0.02183777 -0.009780635 -0.0019684315 -0.015941523
000250 bc cd 26 bd 11 91 22 3d 59 65 61 3d 05 09 ba 3c
       -0.040723547 0.039689127 0.055028293 0.022709379
000260 5e f6 0e bd 98 c4 8c 3c 8d 87 a8 3d 6f f1 f9 bb
       -0.034902923 0.017183587 0.08228979 -0.007627658
000270 4b ac 9c bd 63 12 45 3d 4d 09 b8 3c ec 6c b8 3c
       -0.0765005 0.048113238 0.022465372 0.022512875
000280 4d ed 6f 3c 83 2c 86 bd 71 18 85 3c bb b1 c6 3d
       0.014643979 -0.06551459 0.016247006 0.09701868
000290 5f 58 67 3c 80 8d 1c bd b5 ff 00 3d 9b cb 4a 3c
       0.01412019 -0.038220882 0.03149386 0.012377645
0002a0 5c 6d 71 bd 87 c1 13 3d 1f 18 72 3d 84 01 e3 3c
       -0.058942184 0.036073234 0.059105035 0.027710684
0002b0 76 66 1a 3d 7d 0d 01 bb 88 3b e7 3c 22 f4 5a bd
       0.03769537 -0.0019691878 0.028226629 -0.05345548
0002c0 fa 78 d5 3c 99 4b a6 3c ad b6 c1 bd 0f 9a 21 3d
       0.026058663 0.02029972 -0.09458671 0.039453562
0002d0 37 16 45 bd 7d 44 64 bc bc 77 bf bb f1 d7 a0 bc
       -0.04811689 -0.0139323445 -0.005843131 -0.019634219
0002e0 84 62 11 3d 6d a8 ba bd eb a5 74 3c 02 a6 68 3d
       0.035494342 -0.09114156 0.014932136 0.056798942
0002f0 38 e9 12 bd 93 36 c6 bc 96 7d 1b bd f5 be 85 3d
       -0.035866946 -0.024195945 -0.037961565 0.06530563
000300 5a eb 1a 3b c0 c7 5a bd d4 ba e0 3c 08 36 b1 3d
       0.0023638816 -0.053413153 0.027432837 0.08652884
000310 9c 28 ef 3c 2d b4 a3 bd fa 24 ce 3c 1e e7 91 3d
       0.029194169 -0.0799335 0.025164116 0.0712416
000320 7a 0e c9 bd fa 1c 39 bc c2 06 87 3d c3 36 24 3b
       -0.09817214 -0.011298412 0.06593086 0.0025057055
000330 22 83 55 3c 74 21 4d 3d 56 de 91 bc 50 ec d3 bd
       0.013031753 0.05008073 -0.017806213 -0.103478074
000340 52 fd 1e 3c c5 f8 b1 bb d1 98 09 be ef 94 13 bb
       0.009703951 -0.005431267 -0.13437201 -0.0022519191
000350 87 e2 dd 3d 0b b3 64 bd 02 7c f6 bc 8b f9 cd bc
       0.10834222 -0.05583481 -0.030088428 -0.025143405
000360 bb 33 26 3d 3e 73 82 bd aa c1 d6 3c 29 af 49 bd
       0.040576678 -0.06369637 0.026215393 -0.04923931
000370 09 e0 25 bc 89 46 a3 3d 3d 0a ba 3c d8 51 06 3d
       -0.010124215 0.07972438 0.02270996 0.032792896
000380 1b d4 d4 bc 28 7e 14 3c 2c 72 b5 bd 80 63 06 3d
       -0.025980046 0.009063281 -0.08859667 0.032809734
000390 7e dc 37 3c 72 4d ac 3b be 22 40 bc e6 4b 6c bd
       0.011222003 0.0052582556 -0.011727033 -0.05768957
0003a0 aa bb 06 bd 4b 02 e6 bc 41 00 3f bd 37 db c9 3c
       -0.032893814 -0.028077265 -0.0466311 0.024640663
0003b0 b8 a4 78 3d c6 c6 e5 3c 36 39 f8 bc c8 d5 f4 bc
       0.060703963 0.028048884 -0.030300718 -0.029887095
0003c0 fd ba 7e 3d 4f 56 f3 3b e3 6c 8f 3c 04 0c 5f 3c
       0.062190045 0.0074260603 0.017507976 0.013613705
0003d0 4f 3a 94 3d 27 12 48 bd 18 98 8b bd 15 be ac bc
       0.07237684 -0.048845436 -0.06816119 -0.021086732
0003e0 69 24 83 3d 05 ae 1c bc cc 4b 00 3d 33 24 97 3d
       0.06403429 -0.009562974 0.031322286 0.07379951
0003f0 0f 4d 35 bd 92 18 24 bd 08 67 43 3d 19 19 61 bc
       -0.044262942 -0.040062495 0.04770568 -0.013738894

head.weight f4 [4, 768]
000000 a3 dd 83 bc 90 d0 dc bc 0d 43 38 3d 82 b1 94 bc
       -0.016096896 -0.02695492 0.04498582 -0.018151049
000010 9e 8a 47 3d fc 28 56 3d dd 51 32 3c 99 6e 55 bd
       0.04871618 0.05228518 0.010883776 -0.052107427
000020 00 a6 e7 bc 3c bb 03 bd b6 fe 83 bd c7 f7 2c bd
       -0.028277397 -0.032160982 -0.06445067 -0.042228486
000030 5e 81 95 bd 7f 75 9d bc 56 af dc 3b e0 61 22 3d
       -0.073000655 -0.019221066 0.006734769 0.039644122
000040 e0 82 b3 3d 5f 1f bc bd 9f 70 4f bc 82 1d 11 bc
       0.08765197 -0.09185671 -0.012661128 -0.008857133
000050 13 1a 5c bd 80 10 0f 3d 5f c1 56 3c cc a5 5f bd
       -0.053735804 0.034927845 0.013107627 -0.054601476
000060 bf 7a f4 3a 66 b5 bd 3d eb 1c 6b 3d 54 8c 16 3c
       0.0018652304 0.09263115 0.057400625 0.00918873
000070 c4 a2 a1 bd 9b 1d bc bd b9 1c b3 bd 4a 4b 75 bd
       -0.07892373 -0.09185334 -0.08745713 -0.059886254
000080 e6 9c 8c bd 04 35 57 3d 9a 22 3e 3d a5 9a 89 bd
       -0.068658635 0.052540794 0.046419717 -0.06718949
000090 6e 05 c2 ba a7 c6 12 3d 85 d6 cd bd 74 cc 24 3d
       -0.0014802644 0.03583398 -0.10050682 0.040234044
0000a0 c3 6a 83 3d 9f 70 a8 bc 76 54 67 bd de 81 08 3d
       0.064168476 -0.020561514 -0.056477033 0.033326976
0000b0 25 23 34 3d b0 e6 c2 3d c1 65 e0 3c 17 c3 46 bd
       0.04397883 0.095166564 0.02739227 -0.048525896
0000c0 a9 31 91 3c db 6c 88 3d 4b 0b 0b 3d fc ce 12 bd
       0.017723875 0.066613875 0.033946317 -0.035841927
0000d0 a5 f0 af bc 72 e1 70 3c ca e7 5a bc f6 42 8b 3d
       -0.021477053 0.014702188 -0.013360927 0.06799881
0000e0 55 81 4c bd 23 9c b1 3c 25 c1 86 3d fb 6d b3 3d
       -0.049928028 0.021680897 0.06579808 0.087612115
0000f0 b9 c8 b0 3d 85 23 03 be 45 d3 2f bd a3 ca ed 3b
       0.08632035 -0.12806518 -0.04292609 0.007256822
000100 2e e2 b6 bd 97 9b b2 bc 27 31 42 3d 6b a8 2b bc
       -0.08929859 -0.021802707 0.047410157 -0.010477166
000110 05 0b f5 3d ad b4 c8 39 ae b0 eb bc 05 c1 e0 bd
       0.119649924 0.00038281587 -0.02877077 -0.109743156
000120 dc 49 e5 bc d4 44 f8 3b 22 db 95 3b 7c 41 05 be
       -0.02798932 0.0075765643 0.004573242 -0.13013262
000130 53 17 23 3b ec 1a d9 3c 3a 2e e8 3c 9d b3 f2 3b
       0.0024885728 0.026502095 0.028342355 0.0074066655
000140 ad a3 08 bd 94 0e 5e bd f2 57 86 bd 1c 1d 85 bd
       -0.03335922 -0.05421312 -0.06559743 -0.06499693
000150 e5 9a 05 3c 7e 1d 43 bd 40 ef 2d 3c f7 2c 21 bd
       0.0081546055 -0.047635548 0.010616124 -0.039349522
000160 f3 03 00 3d 3a 28 77 3d 0e 3a cf 3c d4 90 55 bd
       0.031253766 0.060341097 0.025296237 -0.052140072
000170 5c 93 0a 3c b4 de ce 3c 72 26 89 bd 86 a2 8f 3d
       0.008457985 0.025252678 -0.06696786 0.07013421
000180 e3 bb 05 3d c0 8b 09 39 7a f3 fe 3b ea 20 e1 bd
       0.032649886 0.00013117399 0.0077804895 -0.10992606
000190 a2 ef ee bd 49 82 99 ba c0 b7 b5 bd 77 2f 69 3c
       -0.116668 -0.0011711802 -0.08872938 0.014232508
0001a0 f5 fc 35 3d a5 26 58 bd 28 58 9c bd f8 45 04 3c
       0.04443069 -0.05277123 -0.07634002 0.0080733225
0001b0 d2 dc 5a 3d 14 c1 3a bb 28 fc 13 3d 69 69 b3 bd
       0.053433247 -0.0028496431 0.036129147 -0.0876034
0001c0 0c 1f 55 3d 67 e6 9b 3b d6 dc 7c 3d 08 06 ee 3c
       0.05203156 0.0047576907 0.061734043 0.02905561
0001d0 9f a8 07 bd 4d cc cf 3d 5f 7c 34 3b 90 9a 6d bc
       -0.033119794 0.10146389 0.0027539951 -0.014502183
0001e0 72 61 12 3c 13 06 5f 3d 26 83 15 bd cd a1 2e 3d
       0.008934366 0.054449152 -0.036502026 0.042634774
0001f0 83 19 67 bd e7 48 ad bd 00 c7 ca 3c c6 fd 86 3d
       -0.056420814 -0.08461171 0.024753094 0.06591372
000200 37 46 b9 bd f5 44 a0 bd 74 cf db 3d da 4f 5a 3d
       -0.090465955 -0.078256525 0.10732928 0.05329881
000210 b6 fe a6 bd b3 6a aa 3d 29 31 8b 3c a1 4a 53 bd
       -0.08154051 0.083211325 0.016991215 -0.051584844
000220 1d 8a 51 3c 1d eb 4c 3c bf 23 44 3d 2d 74 43 bd
       0.012789276 0.012507227 0.047885653 -0.047718216
000230 c4 14 6b 3d 1e d0 19 3d 42 73 5e 3d 4e 94 ce bc
       0.05739285 0.03755199 0.054309137 -0.025217202
000240 93 1b 28 bd 22 59 6b bd c4 fb 0b bd cc 37 6f 3c
       -0.04104192 -0.05745805 -0.03417565 0.014600705
000250 80 29 a0 bc 8c c6 23 bd 9c ed 5c 3d 5a 9e 00 bb
       -0.019551039 -0.03998427 0.05393754 -0.0019625635
000260 00 3b 45 3d 24 8f ca bc d5 51 1d bd ca 18 fb bd
       0.04815197 -0.024726458 -0.03840812 -0.122605875
000270 34 1c c5 bc 5e b6 fd 3d 67 d0 3a 3d a8 e9 92 3d
       -0.0240613 0.123882994 0.045608904 0.07173473
000280 59 ac 3e 3d a3 ce 82 bd 03 a8 93 bc e1 74 94 3d
       0.046551082 -0.06387069 -0.01802445 0.072488554
000290 0e 76 09 3d e5 8e e6 3a e4 81 6c bd 8d 1e 6d 3d
       0.03355985 0.0017590193 -0.05774106 0.057890464
0002a0 f9 00 2c 3d 95 89 af 3d a1 2d 7f bd 35 23 f0 bb
       0.041993115 0.085711636 -0.062299374 -0.0073284158
0002b0 b3 4a 6a bb 2d 6c f1 bc f5 9c fe 3c 38 9d ae 3d
       -0.003575009 -0.029470528 0.031080702 0.08526081
0002c0 fe 53 a4 bc 4d 5b 61 3d 68 43 61 bd 2c 41 85 bd
       -0.020059582 0.05501871 -0.054995924 -0.06506571
0002d0 f0 6a 10 3d 2a 09 d0 3d f1 bc 7c bd ba e8 0a bd
       0.035258234 0.10157998 -0.061703626 -0.03391335
0002e0 d1 c3 46 3d 81 e0 4f bb 34 10 e5 3c 7c 69 dd bc
       0.04852659 -0.0031719508 0.027961828 -0.027027838
0002f0 a0 84 9f ba a1 76 a5 bb 1a c8 75 3d b0 86 4a 3c
       -0.0012170263 -0.005049542 0.060005285 0.012361214
000300 35 5b 79 bd 0b 64 cd bc e7 dd b3 3b a2 8a be 3d
       -0.060877997 -0.025072118 0.0054890993 0.09303786
000310 c5 6a 1a 3d 02 6a 88 bb 9f 3a ee bc 00 6d 8f bd
       0.03769948 -0.0041630277 -0.029080687 -0.07003212
000320 b8 d9 be 3c 32 dc 02 bd a9 c5 09 bd d7 af 36 bc
       0.023297176 -0.031948276 -0.03363577 -0.011150322
000330 fa 86 a8 3c d9 08 db bc 5d b1 00 bd 1e 7b 54 bd
       0.020572174 -0.026737617 -0.031419147 -0.051875226
000340 b5 b5 94 3c 29 a3 7f 3d 78 2c 1c bd 12 11 bf 3c
       0.01815305 0.06241146 -0.038128346 0.02332357
000350 02 9e 19 bc 50 a9 07 bd ae e3 f8 3c 26 16 2b bd
       -0.009376051 -0.033120453 0.030382004 -0.04176917
000360 5b 9b aa bd 1b 0b 78 bd 4a a8 c9 3d cc b9 63 3c
       -0.08330413 -0.060557466 0.09846552 0.013899278
000370 e5 54 09 bd 7b cb 56 3d 32 ef ae bc 65 24 d4 bd
       -0.033528227 0.052440148 -0.021354292 -0.10358504
000380 0d d9 1c 3c 6c 5d a7 bd 1b c8 9f 3c 1b 90 f1 bc
       0.009573233 -0.08172116 0.019504597 -0.02948766
000390 b7 75 77 3d 05 d1 46 bd 95 2b 0e bd ff 49 6d 3d
       0.060414996 -0.04853918 -0.03470953 0.057931896
0003a0 b8 03 31 bc 83 34 e7 bb a0 41 d1 bd 1e 84 ba bb
       -0.010804109 -0.0070558204 -0.10217595 -0.005692019
0003b0 76 1f 3f 3d 4e 27 ec 3c 6c 90 a0 3c 5f 7a 44 3d
       0.046660863 0.028827336 0.019600116 0.047968265
0003c0 de 30 a5 bd b9 44 35 3c 7a 23 3b 3d aa 16 91 bd
       -0.08065961 0.011063748 0.04568813 -0.07084401
0003d0 83 6d cc bc ca 37 af 3a 5b c9 82 bd 51 fd 95 3d
       -0.024954563 0.0013368067 -0.06386062 0.07323707
0003e0 56 8e 9c bc 41 ff b3 bc 07 49 94 bc 6d e9 81 3d
       -0.01911084 -0.0219723 -0.018101228 0.063433506
0003f0 38 49 b4 3b 98 f4 49 3d 04 b3 a0 bd 93 59 9e bd
       0.0055018924 0.04930553 -0.078466445 -0.07731929

head.bias f4 [4]
000000 32 e9 0b bb 3b 25 0e 3d 88 0e c6 bc 01 23 2e bd
       -0.0021348712 0.034703474 -0.02417685 -0.04251385

FacTu.weight f4 [32, 768]
000000 9f b0 2d 3c 21 00 54 bc 78 d8 af 3c 9b e5 50 3c
       0.010601192 -0.012939484 0.021465525 0.012750055
000010 f5 ec 91 bc 3d 08 8c 3c 93 ef a0 3c 14 67 f9 bb
       -0.017813185 0.017093772 0.019645488 -0.007611165
000020 bd 67 ac 3d cb 08 a1 3c bb 04 fc 3c 23 b6 65 bc
       0.08418224 0.019657513 0.030763974 -0.014020476
000030 0e 91 1c 3d ae 4c 69 3d 70 7e 9b 3c 12 9d 85 3b
       0.038224272 0.056957893 0.018981189 0.004077562
000040 ec d1 10 bd 0c 76 ad 3d 56 c5 1a bd 19 f5 fb bc
       -0.035356447 0.08469781 -0.03778585 -0.03075652
000050 a1 42 57 bc df 07 39 bd 61 4d 80 3d 84 03 53 ba
       -0.013138444 -0.045173522 0.06264759 -0.0008049535
000060 3f 69 48 3d a1 c3 c7 bc aa f0 97 bc 0f 24 41 bd
       0.048928495 -0.024385275 -0.018547375 -0.04715353
000070 1a 0e 5f 3c 06 20 53 3d f6 86 a0 bb 67 5c 20 bd
       0.013614202 0.05154421 -0.004898901 -0.03915062
000080 59 b3 b4 3c 03 8b 4e 3d c6 88 06 3d 82 67 c1 3c
       0.022058176 0.05042554 0.03284528 0.023608927
000090 d3 4d 65 3d 56 80 b8 3c a4 53 5e 3b 36 e2 23 bd
       0.055982422 0.022522133 0.0033924365 -0.040010653
0000a0 ad 27 05 3d b2 53 2b 3d 24 ad d6 3c a9 62 b0 bc
       0.03250854 0.041827865 0.026205607 -0.02153142
0000b0 9f aa e3 bc b2 73 8c bd d4 df 10 bd f1 7a ad 3d
       -0.02779132 -0.06858005 -0.03536971 0.08470715
0000c0 6a 21 2e 3d 4e 5f 7f 3c d5 4d f2 3c 6e 90 88 bd
       0.042512335 0.015586687 0.029578129 -0.06668173
0000d0 e3 6a cb bc 63 fa 00 bc 78 50 18 3c a6 3f 8a bc
       -0.024831241 -0.007872197 0.009296529 -0.016876053
0000e0 be fe 82 3c 8d 87 50 bb c3 8c 80 b9 f1 05 8f bd
       0.015990611 -0.0031819076 -0.00024518938 -0.06983555
0000f0 c3 66 40 bd 28 36 93 bc 8e 7b ae 3c fe 18 e2 3b
       -0.046973 -0.01797016 0.02129915 0.006899952
000100 42 a7 47 bc 42 60 af bb 81 53 a8 3c e5 42 2f bd
       -0.012185873 -0.005352051 0.02054763 -0.042788405
000110 03 20 30 bd 01 bc 41 3d 28 a6 b9 3c b2 be c0 bc
       -0.04299928 0.047298435 0.022662237 -0.02352843
000120 be 56 1a bd 24 b1 1d bd 97 16 c3 bc 10 b8 bd bc
       -0.03768038 -0.038499013 -0.023814483 -0.023159057
000130 d5 4a fc 3c 62 1f 27 3d 96 78 0d b9 11 79 47 bd
       0.030797401 0.040801413 -0.0001349173 -0.048699442
000140 0e 0b 10 3c 19 4d 25 bd cd 3a ef 3c 92 17 e8 3d
       0.008791698 -0.04035673 0.029202843 0.11332621
000150 1c c1 eb bc 40 62 59 3c 5a 2a 98 3c 1a d8 04 bd
       -0.028778605 0.0132680535 0.018574882 -0.032432653
000160 e2 1d 2d bd 09 b0 9f bc ef 8f 1b bd fa 5f ca 3c
       -0.042264827 -0.01949312 -0.037979063 0.024703968
000170 52 9b 67 bd 63 9f 3b 3d 48 55 9a 3c 90 94 1d bd
       -0.05654461 0.0458063 0.018839493 -0.03847176
000180 2b 7d 2c 3c a7 eb 04 3c fd 1c e7 3c 0c 6b 70 3d
       0.010527889 0.0081128245 0.028212065 0.058695838
000190 8e b2 3f 3d ff d9 d2 bc 68 bb ce bc 75 ac ee bc
       0.046801142 -0.025738714 -0.025235847 -0.029134968
0001a0 24 ed 5d bd 60 fd 30 bd fd 4e 12 bd 81 81 6f 3c
       -0.054181233 -0.043210387 -0.03571986 0.0146182785
0001b0 8e 55 75 3c ac 94 f4 3c 20 5c fc bc d3 11 24 3d
       0.014974011 0.029856049 -0.030805647 0.04005606
0001c0 a5 32 85 3d 28 97 48 3d 1b 35 b5 bc 47 4d 37 bc
       0.065038 0.04897228 -0.02212005 -0.011187858
0001d0 0c 2c f1 3c 04 2b 3a 3d aa 09 54 bc f2 06 a0 bc
       0.029439948 0.04545118 -0.012941757 -0.019534562
0001e0 60 43 a8 3d 30 f3 e6 3b 3d 0f b2 3c b6 50 38 3d
       0.08215976 0.007048033 0.021735782 0.044998847
0001f0 12 ea 1a bc e9 c1 6e 3c 83 34 5e bd c8 76 ea 3c
       -0.009455221 0.014572599 -0.054249298 0.028621092
000200 89 03 8c bd 28 54 6d bc 9d e5 d4 3c b9 43 99 b9
       -0.06836612 -0.014485396 0.025988394 -0.0002923289
000210 a3 b0 93 3c 97 da 7e bd 5f 91 53 bc 89 aa 40 3c
       0.018028563 -0.062220182 -0.012913077 0.011759409
000220 cc f6 4a bd 52 61 92 3c 98 28 45 bc e7 fa 5c bd
       -0.04955177 0.017868672 -0.012033604 -0.053950217
000230 d1 49 24 bd 5d af d8 bb e1 18 7e bc ec c4 c5 3c
       -0.04010946 -0.006612702 -0.015508861 0.024141751
000240 e5 f6 cd 3c 25 a5 91 3c 5f 2b 04 bc 2f e1 11 bd
       0.025142143 0.017778942 -0.008066981 -0.035615142
000250 a0 58 a3 3b 59 7d e2 3b 34 12 d3 3c d9 7c e9 bc
       0.00498493 0.0069119153 0.025765516 -0.028501915
000260 ba 38 81 bd 1e 49 22 3d 14 4d 91 3d ac 73 25 bd
       -0.06309648 0.03962051 0.070947796 -0.040393516
000270 b2 25 81 bd df 68 d9 3c 26 ff c9 3c 2e fe a9 bc
       -0.06306018 0.026539264 0.024657797 -0.020751085
000280 ed 4b bd bb b6 ca 5d bc f1 f9 5f 3c 22 fe c0 bd
       -0.0057768733 -0.0135371 0.0136704305 -0.09423472
000290 92 a8 6c bc 17 42 61 3c f4 a1 a5 3d c7 a3 78 3c
       -0.014444487 0.013748667 0.08087531 0.015175766
0002a0 82 d0 27 bc f2 09 e1 bc 9c 0e 6d bd 8b 97 5d bd
       -0.010242583 -0.027470563 -0.05787526 -0.0540996
0002b0 3f f0 10 bd 8b 24 76 3c e7 99 7a 3c 3a 52 21 bd
       -0.035385367 0.015023361 0.015295482 -0.039385058
0002c0 83 6b 52 bc 6f 60 1a bd 82 cc e5 bc 9b 6b 7b 3c
       -0.012843016 -0.037689622 -0.028051618 0.015345479
0002d0 38 da 6a 3c de 03 6d 3d 58 c5 86 3a 53 8b 1f bd
       0.014334254 0.057865016 0.0010282202 -0.03895123
0002e0 5f 92 bc 3c 8e cd a3 bd 46 ea ce bc e2 d5 7f 3d
       0.023019014 -0.07998191 -0.025258195 0.062459834
0002f0 ce 5a 36 3c 93 b1 d6 bc 84 3e e9 bc 71 e4 88 3d
       0.011130048 -0.02620772 -0.028472193 0.06684197
000300 cc 94 4f 3d c9 79 88 bb 6d 88 62 bd a9 b8 fb 3a
       0.050679013 -0.0041649085 -0.055305887 0.0019204813
000310 70 08 1b bd fe 5d a6 bd 57 9f 65 bc a6 13 c4 3b
       -0.037849844 -0.08123396 -0.01401504 0.0059837876
000320 c5 44 85 3c 6c ad a5 3c e5 49 ec 3c ac a5 ca 3b
       0.016268143 0.020224296 0.02884383 0.0061843004
000330 b7 30 9a bd 3a 5a 5c bd cf 94 c7 3b cf 7f 7f 3d
       -0.07528823 -0.053796984 0.0060907374 0.062377747
000340 d4 ac 47 3c 76 02 68 bd 8f 62 24 bc 3d ed 22 3d
       0.0121872015 -0.056642972 -0.010033264 0.03977703
000350 9d 5e 46 bd 0b 37 9f 3d af c8 60 bd 56 ad da bc
       -0.048430074 0.077741705 -0.054878887 -0.026693981
000360 67 27 8b 3b d1 37 b0 3c 3f d4 8a 3c e6 fb d8 bb
       0.0042466405 0.02151099 0.01694691 -0.0066218255
000370 91 37 ac 3d 11 77 8f 3c 45 82 0a bc c6 88 75 3d
       0.08409036 0.01751283 -0.00845391 0.05994489
000380 9b 5e 0d bd c0 55 e0 bc 15 ab a0 bc 4d 57 d3 ba
       -0.03451405 -0.027384639 -0.019612828 -0.001612404
000390 a5 ef 28 3c 46 91 34 3d 25 5a 3c 3d ec 4b 3e bd
       0.010311042 0.044083856 0.045984406 -0.046459123
0003a0 97 ed 07 bd 2d 28 aa 3b 22 80 51 bc 13 31 29 3d
       -0.033185568 0.0051927776 -0.012786897 0.041306566
0003b0 c1 02 3b 3d 30 6e 6f bd 04 29 1d bc fa 80 e7 3a
       0.045656923 -0.058454692 -0.009592298 0.0017662339
0003c0 37 a2 0a bd 08 6f a2 bc 33 c4 56 bc 92 f3 b5 3c
       -0.033846106 -0.019828334 -0.013108301 0.02221087
0003d0 34 af 4d 3c 0e b7 e5 3c bc ca 00 3c 9c d7 37 3d
       0.012553979 0.028041389 0.007860836 0.044883355
0003e0 56 29 bb bc 98 8f 6b bc 0a 8a 98 bc 56 66 b1 bc
       -0.022846859 -0.014377497 -0.01862051 -0.021655243
0003f0 ec fb 2f bd a7 b1 57 3d a0 77 4a 3b d1 2a 75 bc
       -0.04296486 0.052659657 0.0030894056 -0.0149638215

FacTv.weight f4 [768, 32]
000000 7c 25 ec bc 92 47 4b bd f5 6d 12 3b b9 bd 58 3d
       -0.028826468 -0.0496288 0.0022343372 0.05291531
000010 c2 a4 9f bc 9c d0 09 bd 91 80 5c 3b 33 17 a9 3c
       -0.019487742 -0.03364621 0.0033645967 0.020640945
000020 87 b8 71 3b 86 b4 a8 bc 5b b1 0d 3d a1 85 2a 3b
       0.0036883669 -0.020593893 0.034592967 0.002601959
000030 2e ce 45 bc 4f 8c 3a ba d7 e9 ba bc 59 02 2d 3c
       -0.012073083 -0.00071162445 -0.022816582 0.010559642
000040 71 40 24 bd 1f ae 90 bc 66 f0 63 ba 6a cb b1 3c
       -0.04010052 -0.017661152 -0.0008695185 0.02170344
000050 46 be 84 3d 05 42 8b 3c 2b 7b 9b 3c e2 a2 44 bc
       0.06481604 0.016999254 0.01897963 -0.012001725
000060 2f 41 1e 3d dd 3f 0d 3d 71 ef 14 bd 99 66 08 bc
       0.038636383 0.034484733 -0.03636116 -0.008325242
000070 ef a1 bf 3c a4 d7 55 bc 84 ed b3 bc 9c 58 45 bd
       0.023392646 -0.013051901 -0.021963842 -0.048180208
000080 50 58 fa 3b 1b b8 d0 b8 e1 f2 e1 3b bb cd ef bc
       0.007639922 -9.952505e-05 0.0068954085 -0.029272905
000090 28 34 0f bc 74 2b 8e 3c bf 21 6a bc 5f ec b2 3b
       -0.008740462 0.017354704 -0.014290272 0.0054603065
0000a0 d7 d7 0e bc 81 c3 41 3b 9d 5f 11 bb b7 72 d1 bc
       -0.008718452 0.0029565992 -0.0022182234 -0.025567396
0000b0 b6 ed b1 bb bd fc c8 bc 12 3b 4c bc 4d 13 18 bc
       -0.0054299487 -0.024534578 -0.012465255 -0.009281945
0000c0 00 39 7f 3c ee 82 f7 bb f1 77 d8 3c 88 52 97 3c
       0.015577555 -0.00755345 0.02642438 0.018471971
0000d0 67 e1 41 3b 8e 3e 04 bc ac c7 74 bc 72 44 b7 3b
       0.0029583813 -0.008071555 -0.014940184 0.005592876
0000e0 12 b0 07 3c 5a 11 d4 3c 11 e2 4a bc c0 00 8c 3b
       0.0082817245 0.02588718 -0.012383 0.0042725503
0000f0 f0 36 20 3b 68 71 c6 ba 2e 42 3a 3d e1 c6 da bc
       0.0024446808 -0.0015139999 0.04547327 -0.026706161
000100 17 8c 3f 3d e9 fb 8e 3c ce d0 ab bc 6b b2 d5 3c
       0.04676446 0.017454104 -0.02097359 0.026086053
000110 d5 f4 ff bc 52 6b 74 bb bc 06 f7 bc 48 7b ec bc
       -0.031244675 -0.0037295413 -0.030154578 -0.028867379
000120 20 af 28 3c 0e de b0 bc 03 28 16 3d 5b e8 40 3c
       0.010295659 -0.021590259 0.036659252 0.011774148
000130 e6 07 83 bb 2c f2 b4 3c 0c 64 20 3d 82 94 62 3c
       -0.0039987443 0.022088133 0.039157912 0.013829352
000140 28 87 12 3c e0 22 53 3c f6 98 7f 3c 87 20 1f bd
       0.008943357 0.012886733 0.015600434 -0.03884938
000150 cf 34 1c bc 9d 34 a8 bc 1e d8 4b 3c 62 df 67 bc
       -0.009534075 -0.0205329 0.012441663 -0.01415238
000160 41 b3 01 3d 97 c5 19 3c 45 29 e2 bb 5b 4f cd 3c
       0.03166509 0.009385488 -0.0069018924 0.025062254
000170 e8 d9 3b bd a5 c1 2d 3c d6 d9 d5 3c 65 a4 5b 3c
       -0.04586211 0.0106052505 0.026104849 0.013405894
000180 9b 85 85 bc 3a 7b e9 bb b6 40 80 bc d1 de 3d 3d
       -0.01629906 -0.0071252855 -0.015655857 0.046355072
000190 58 63 6e 3c e0 fd 8e bc d2 12 41 bc 62 fb 19 3c
       0.014550053 -0.017455041 -0.011784272 0.009398313
0001a0 f0 51 9b 3a 7a e4 ac bb 31 d0 db 3c 1f eb 17 3c
       0.0011849981 -0.00527626 0.026832672 0.009272366
0001b0 3c 2b 44 3d 9f 81 0e 3c 29 c8 d4 3c db e1 08 3d
       0.047892794 0.008697896 0.02597435 0.033418518
0001c0 d7 ee f3 bb c5 09 c7 bb 21 08 8c bc 0f 6c cb bc
       -0.0074442434 -0.0060741627 -0.01709372 -0.0248318
0001d0 4f e2 42 bc 98 eb dc bc eb 0c 0d bd 10 db 40 bd
       -0.0118947765 -0.026967809 -0.034436148 -0.047083914
0001e0 d7 95 4a bc 3e f1 12 3d 31 21 8b bc 9f 5f bb bc
       -0.012364826 0.035874598 -0.0169836 -0.022872744
0001f0 c4 5e 09 3b 12 36 42 3c d3 6d 57 3c 42 3f 96 3c
       0.0020961026 0.011853712 0.013148743 0.01834071
000200 3d 5c ab bc 7d c0 29 bc 05 64 c8 bb 14 19 dc 3c
       -0.020918006 -0.010360834 -0.006115439 0.026867427
000210 16 f5 4d bc 80 60 d4 b9 72 82 35 3c 91 9c 8a 3c
       -0.01257064 -0.0004050769 0.011078464 0.01692036
000220 d1 27 1a 3c 19 9e b5 bc 15 fe e9 bc f3 95 80 3c
       0.009408907 -0.022170113 -0.028563539 0.015696501
000230 4d 89 b8 3c 1d 2d 84 ba 48 38 db 3c c1 38 3b bc
       0.022526408 -0.0010084246 0.026760235 -0.011427105
000240 99 00 08 3c 8e dc ed bb 6a ed 6d bc ed 55 7c 3c
       0.008300924 -0.007258958 -0.014521936 0.015401346
000250 14 75 3c 3d 20 4e 92 3c 0e 5e c2 3b 1c 4b 34 3d
       0.046010092 0.017859519 0.0059316223 0.044016942
000260 8c 06 03 bd fa ba f7 bc 50 83 9b 3c a1 01 d2 3b
       -0.031988665 -0.030240525 0.018983513 0.0064088856
000270 6c 45 60 bc d8 3d 8d bd a3 fd 5f bd 79 13 e5 3c
       -0.013688426 -0.068965614 -0.054685246 0.027963387
000280 b6 3a 00 bc 91 60 b4 bc 1c 8a 02 3d 38 8d 4e bc
       -0.007826498 -0.022018703 0.031869993 -0.012606911
000290 c7 46 b2 bc 5f 47 14 bd 29 74 fa b9 1f 85 36 3d
       -0.021762265 -0.036200877 -0.00047770262 0.044560548
0002a0 97 56 f5 3c 07 d3 8a 3c d8 4c 64 bc 09 57 c5 bc
       0.029948516 0.016946329 -0.013934337 -0.024089353
0002b0 3a 0c b0 bc 48 9a a7 ba 55 3a f6 bb 17 59 cb bc
       -0.021490205 -0.0012787068 -0.007514278 -0.024822755
0002c0 d9 e8 ae bc d4 3f 4b bc c1 d2 40 ba 82 e7 8a 3a
       -0.021351265 -0.0124053545 -0.00073556235 0.0010597559
0002d0 66 86 ed 3b e5 fd 62 3c 82 a2 a0 3a 3f 4a 60 bc
       0.0072486876 0.0138544785 0.0012255462 -0.013689577
0002e0 22 4c 7c 3b 54 e9 8b 3c 8f 3b 02 bd 4c cc 06 bc
       0.0038497527 0.017079033 -0.03179508 -0.008227419
0002f0 bd 2e 4c 3b 40 75 71 bc ba 0b b9 bc ca 40 d6 3b
       0.0031155788 -0.014737427 -0.0225886 0.006538485
000300 8a d1 ad bb 11 f7 51 b9 96 7c 82 bc 01 2a 09 3d
       -0.00530452 -0.00020023833 -0.015928548 0.033487324
000310 cc b9 11 bc f7 f3 80 bc 2e cc f6 3b 94 09 c7 3c
       -0.008894395 -0.015741332 0.0075316643 0.02429656
000320 1e 5a 22 bd 81 cc 83 3c 7a de 8b bc 6a dc da bb
       -0.039636724 0.016088726 -0.017073859 -0.0066791074
000330 b8 e6 10 bc db bd 31 3c 64 07 4f 3c f2 6c 0b 3c
       -0.00884407 0.010848488 0.012636039 0.008509861
000340 03 d1 51 3d 76 81 ca 3c 8d e2 95 ba c5 9d 88 3c
       0.05122472 0.024719935 -0.0011435315 0.016676793
000350 de 57 b2 3c 0c 22 27 bd 59 89 fc bb 42 90 11 bd
       0.021770414 -0.040803954 -0.007706803 -0.035537966
000360 ea d8 9c bc 0a 95 8a 3c 07 dd 28 3c 1a a6 07 3d
       -0.019146401 0.01691677 0.010306603 0.03311739
000370 b7 16 32 3c 67 37 a8 bb c3 0f d8 3c e5 5b 97 3a
       0.010869673 -0.0051335576 0.026374703 0.0011547772
000380 42 ec ac bc 73 44 d0 bb c5 cc b1 bb 70 8e ad bc
       -0.02110875 -0.006355816 -0.0054260218 -0.021186084
000390 c4 6f 3b 3c c4 4f 24 bd b9 e8 b9 bc 4d 6f cb bb
       0.011440221 -0.040115133 -0.022693979 -0.0062083364
0003a0 72 da 90 bc 47 a4 e2 ba 57 0d c7 3c 5b db cd bb
       -0.017682288 -0.001729139 0.024298353 -0.0062822527
0003b0 39 45 8d b9 2f 7b 08 3d ff 1b 4b bd d7 b7 5f bc
       -0.0002694519 0.033320602 -0.049587246 -0.013654671
0003c0 7a 85 a8 3c 96 68 cf 3a 1d fd 92 bc 24 be 1c 3c
       0.02057146 0.0015824016 -0.01794296 0.009566817
0003d0 54 d4 15 bd 53 0f c6 bc 31 86 8c b8 05 38 8c 3b
       -0.036579445 -0.024177229 -6.700715e-05 0.004279139
0003e0 c5 70 f0 bc a6 14 b3 bc bc 6b fa bc a9 09 b1 3c
       -0.029350648 -0.021860432 -0.03056895 0.021611052
0003f0 a4 18 3e bb 6c af 9d 3c f9 37 2d b8 b5 fa 4b 3b
       -0.0029006386 0.019248687 -4.1298543e-05 0.0031124775
