Final Project/FacT-TK/oxford_flowers102_best.pt (torch, 661655 bytes, 6 tensors)

FacTp f4 [32, 144]
000000 1f bd cb bd 5c 60 95 be 8c af 0a 3e a9 f0 34 be
       -0.09948181 -0.2917508 0.13543528 -0.1766993
000010 94 32 ee bd 00 18 2d bd f4 e1 ca bd e5 9c 1d bc
       -0.11630741 -0.042259216 -0.099063784 -0.009619926
000020 cc 57 2e 3e cb 14 95 3c c5 59 bb bd 58 2a 07 be
       0.1702568 0.018198391 -0.091479816 -0.13199747
000030 29 4d 98 3d 97 ee 63 be 6b 02 e1 bd a0 51 8d 3e
       0.07436592 -0.22258984 -0.10986789 0.27601337
000040 fb d5 78 3e 7c 65 c5 3c ab 90 2a be 4f 8f bf bd
       0.24300377 0.024096243 -0.16656749 -0.09353506
000050 1c 07 2d be d1 54 1e 3e a8 d5 76 3e 9e 03 15 3e
       -0.16897243 0.15462042 0.24104941 0.14552161
000060 03 fd 9d be 7f 8c fe bc 25 fc 4f 3e e3 70 25 3e
       -0.30857095 -0.031072853 0.2031103 0.16156344
000070 1d 54 20 be 20 53 4e 3e 9f b1 9f 3d d8 ec b4 bc
       -0.15657087 0.20148897 0.077975504 -0.022085592
000080 df 93 d5 bc 9e 65 af bd 38 42 df bd 31 e9 0f be
       -0.026071487 -0.08564304 -0.10901302 -0.14053799
000090 82 fb 1a bb cf 33 0f 3d 60 be ad 3c 35 1f 28 3e
       -0.0023648445 0.034961518 0.021208942 0.16418155
0000a0 f0 be a9 bd bd fd 71 bd cf 53 86 3d 76 6b 00 be
       -0.082883716 -0.059079874 0.06558954 -0.12540993
0000b0 b5 6a ae bd e4 fc f2 3d c0 55 1f be c1 c8 2e be
       -0.085164465 0.11864641 -0.15560055 -0.17068769
0000c0 8a 00 2e 3d 42 ce 09 be 86 3b 17 3e 1b 44 a8 bd
       0.042480983 -0.13457587 0.147688 -0.08216115
0000d0 d4 03 8a bc 75 a9 7d 3c b0 3a 4a 3e c5 7d 9e bd
       -0.016847529 0.015482296 0.1974895 -0.077388324
0000e0 13 56 7a 3e f2 2c a1 ba 8d 03 89 3b fd cf 7f 3e
       0.24446897 -0.001229672 0.0041813315 0.24981685
0000f0 ef fa 9f 3d 06 50 25 3e 0a ec c6 bd a3 e0 8e 3e
       0.07811534 0.16143808 -0.0971299 0.2790576
000100 9e 67 4b 3e 3c 2b e9 bc e4 f6 a2 bc b2 26 4b be
       0.19863746 -0.028462999 -0.019893117 -0.1983898
000110 c2 15 04 be a7 ce 23 be ef 44 ec bd 23 9b bf 3d
       -0.12898925 -0.159968 -0.115365855 0.09355762
000120 27 93 04 be 18 fa 67 be 40 38 95 3d 89 68 7b 3d
       -0.12946759 -0.22653997 0.072861195 0.06137899
000130 90 6c d9 bc b3 18 c9 bd 47 8c 19 3c 73 70 2a be
       -0.026541024 -0.09819164 0.009371824 -0.16644458
000140 ba 68 47 be 8a da ef bb 74 d3 a2 bd 5e c5 10 3e
       -0.19473544 -0.007319753 -0.07950488 0.1413779
000150 27 e3 93 be ab 14 8a 3d 04 8d ac 3c 39 50 b3 3e
       -0.2888424 0.06742223 0.021063335 0.35022143
000160 af 34 5c 3d b0 14 66 3e 61 67 dd 3d 06 d8 03 3d
       0.05376118 0.22468829 0.108107336 0.032188438
000170 2a e9 1b 3e 4a 3f 79 3e c3 fa d9 3d 24 c1 d2 bd
       0.15225664 0.24340549 0.10643532 -0.10290745
000180 be cf 25 3d a7 23 8d 3e e4 b3 11 be db 38 33 3e
       0.04048132 0.27566263 -0.14228779 0.17502157
000190 0a f3 1d be 37 cd 0a be fc dc 2b be b7 53 2d bd
       -0.15424743 -0.13554846 -0.16783518 -0.042316165
0001a0 f0 d0 9b 3e 73 50 63 3e 2d 83 0e 3e 47 00 8f 3c
       0.30432844 0.22198658 0.13917227 0.017456187
0001b0 e7 20 37 be 03 fd 06 bc 92 dc 07 be 33 3b be bd
       -0.17883645 -0.008239034 -0.13267735 -0.09288635
0001c0 1d 65 37 be 83 2f ee bd bd d3 03 be b7 e2 2b 3e
       -0.17909665 -0.11630156 -0.1287374 0.16785704
0001d0 44 db b4 be 54 fd e7 3d a4 65 99 3e 09 9b ab 3c
       -0.35323536 0.113276154 0.29960358 0.02094795
0001e0 88 f4 1b 3e 03 ac 8e 3e 89 06 13 3e e4 4a ad be
       0.1523 0.2786561 0.14357962 -0.338462
0001f0 f3 13 15 be b5 d1 24 bd d3 4a 28 3e 46 c2 de bd
       -0.14558391 -0.040239055 0.16434793 -0.108768985
000200 be f5 3d 3d 0c f9 b4 3e 63 49 bc be 62 c7 6d be
       0.046376936 0.35346258 -0.3677474 -0.2322059
000210 11 66 3e be 3f b2 4b 3e 42 32 3f bc ce 9b 8e be
       -0.18593623 0.19892214 -0.011669697 -0.27853245
000220 de 25 a6 bd 81 45 24 3e 16 0a 6b 3e 0d 71 94 3d
       -0.08112691 0.16042139 0.22953066 0.07248125
000230 eb f2 ec 3d d4 a1 cd bd 06 af c1 3e 9f 26 45 3e
       0.115697704 -0.10040632 0.37828845 0.19253014
000240 b6 d9 cd bc 98 f5 90 3e 4e 8c 6b be 2f 60 16 be
       -0.025128227 0.28312373 -0.2300274 -0.14685129
000250 b0 1b 83 3c f6 29 39 3c 3a 6a 95 bd 32 19 07 3e
       0.016004413 0.011301508 -0.07295652 0.13193205
000260 2d 3b 18 bc c6 9c 55 be 61 88 3e be 90 f0 31 be
       -0.009291452 -0.20860586 -0.18606712 -0.17376924
000270 8e 5f 04 3e 11 87 e9 bb a8 a2 64 bd 74 40 5d 3e
       0.12927076 -0.007126697 -0.055819184 0.21606618
000280 50 91 f5 bd 70 dc f4 bd f6 59 4c 3c c6 04 66 be
       -0.11990607 -0.119561076 0.01247262 -0.22462758
000290 fa 90 16 3d a2 fa 2b be f4 28 38 be d0 2f 25 be
       0.036759354 -0.16794828 -0.17984372 -0.1613152
0002a0 b5 93 ce 3b 92 9c e2 3c 4a 5d 9f bc c5 b3 44 be
       0.006304229 0.02766255 -0.019453663 -0.19209202
0002b0 45 05 0f be ad 27 02 be f7 ef 86 be 07 ce b2 bd
       -0.13966854 -0.12710448 -0.26354954 -0.08730703
0002c0 e4 02 17 3e a0 f7 07 3e 59 1c 13 be 0b 57 11 3d
       0.14747196 0.13278055 -0.14366283 0.0354834
0002d0 ba e6 ea 3c 70 3d d2 3c 91 b0 43 3c 4b 9a 83 be
       0.028674472 0.025664061 0.011943952 -0.25703654
0002e0 6a e5 a9 3d d4 48 ec 3b 15 ab 4a 3e 84 94 ad 3d
       0.082957104 0.00721083 0.19791825 0.08475593
0002f0 95 ba 2b be 93 cf f6 bc 1f f9 42 3e 85 b3 80 3d
       -0.16770394 -0.030128276 0.19040345 0.06284241
000300 74 9c 57 3e 60 a7 a6 3d 58 10 fa 3d 31 0f 12 bd
       0.21055776 0.08137393 0.122101486 -0.03565902
000310 d6 ff 00 3e 48 1d a6 3c 1c 6a 29 bd f7 71 29 3e
       0.12597594 0.020277634 -0.04136096 0.1654738
000320 35 15 09 3e 86 4c ef bd 43 36 2a bd cb 3f 21 be
       0.13386996 -0.116845176 -0.041555654 -0.15746991
000330 88 c3 83 be 81 ff 5a bd 2e 1a 39 3e 0d a0 60 bd
       -0.25735116 -0.053466324 0.18076393 -0.054840136
000340 dc 4b 82 be a1 0d 1a 3e 8f 23 9b 3d 49 24 ef bc
       -0.254485 0.15044262 0.07575142 -0.029192107
000350 80 57 44 3e 3f 30 96 3b 38 30 18 3c ef af 8e 3e
       0.19174004 0.004583388 0.00928884 0.27868602
000360 74 bb 6e 3d c4 e7 82 3c 7d cc 8d 3d ca 8d 82 bd
       0.058284238 0.015979655 0.06923769 -0.063747
000370 4f 9a cd bd 3b 2a 28 3e 8a 28 bd bc e0 70 11 3e
       -0.10039198 0.1642236 -0.02309062 0.14203215
000380 c8 ba 4b be 3e e7 91 bd a3 f6 f6 bc e8 34 d3 3c
       -0.1989547 -0.07124184 -0.030146902 0.025782064
000390 ac da 22 3d f5 84 f0 bc eb 85 93 3d a7 61 7c be
       0.039759323 -0.029360274 0.07203277 -0.24646626
0003a0 59 73 8d bd 3f cf db bc 06 f7 4d be 74 0e 05 be
       -0.069067664 -0.026832221 -0.20113763 -0.12993795
0003b0 37 bb 82 be e2 c8 1d 3e 5a b8 4a bd 15 fb 11 3e
       -0.2553346 0.15408662 -0.049492218 0.14255936
0003c0 da e1 22 be 76 89 77 be 0d 03 33 be 47 6e 8f 3d
       -0.15906468 -0.24173531 -0.17481633 0.070034556
0003d0 e0 09 7d bd 13 41 3f 3e 71 28 27 be 42 89 41 3e
       -0.061776996 0.18677168 -0.16324021 0.18900016
0003e0 84 0b a2 be d0 21 63 bd ac 1e 31 be a8 7e 9b be
       -0.3164941 -0.055452168 -0.17296857 -0.3037007
0003f0 b0 cf ef bd ed 30 72 3d 57 88 32 be 9d d5 c3 3e
       -0.11709535 0.05912869 -0.17434822 0.38248911

FacTc f4 [32, 32, 32]
000000 65 c8 09 bd 70 1e 97 3d 98 96 5b 3c cf 9c 7e bc
       -0.033638377 0.07378852 0.013402604 -0.015540316
000010 ae 7f 95 bc 7b 94 2c 3d 48 63 47 bd 13 05 09 3c
       -0.018249359 0.04213379 -0.048678666 0.008363026
000020 0f 28 0e ba 05 f7 04 be ea 49 87 bd c8 df 2a bc
       -0.00054228393 -0.12984855 -0.06605895 -0.01042933
000030 c6 e5 3b 3c 1d bb b3 3c 5a 72 47 bd f1 25 b1 bd
       0.0114683565 0.021939809 -0.04869304 -0.08649815
000040 6c 05 f1 3a 55 c7 34 3d f4 19 97 bd cf b4 5d bb
       0.0018388457 0.04413541 -0.07377997 -0.0033829694
000050 37 1b 4a 3d 6d c5 a9 bb 4b 53 b7 3d f8 7f 89 bd
       0.04934236 -0.0051810057 0.08951434 -0.06713861
000060 3e fd 5a 3d b0 7e 3a bc 3f cb 82 bd 33 ab ac 3d
       0.053464167 -0.011382744 -0.06386422 0.08431091
000070 7e 17 25 3d 4e 87 b6 3c 8c c5 b8 bd e1 ca 2b 3d
       0.040305607 0.022281315 -0.09022054 0.041941527
000080 c9 78 0d 3e 67 5e a6 bd 06 30 b9 bd a5 4e bf bd
       0.13815607 -0.081234746 -0.09042363 -0.09341172
000090 77 7c a5 3d 88 68 c9 b9 e7 d4 e4 bd 5a 88 7c 3d
       0.080803804 -0.0003841559 -0.111734204 0.061653472
0000a0 fa 48 2b bc 94 aa 0c 3d 7b bc 17 bd 94 c0 38 bd
       -0.010454411 0.034342363 -0.037044983 -0.04510553
0000b0 ca 33 99 3d 9a f6 f2 bb 26 b1 25 3c 8f b5 97 3d
       0.07480581 -0.007414651 0.010113036 0.074076764
0000c0 03 d5 2c bc 9c 7f 8b bc ce 97 5c bd 66 ac 8e bd
       -0.010548833 -0.017028622 -0.05385571 -0.06966476
0000d0 65 70 b2 bc 0e 96 ff bd 02 b0 78 3b b6 c2 16 bd
       -0.02178211 -0.124797925 0.0037946706 -0.036806785
0000e0 8c c6 05 3d 48 c3 d5 bd b9 9d 4c bc dd 2c 9a 3d
       0.032660052 -0.104376376 -0.012488776 0.07528088
0000f0 e2 66 ea bc 6a 83 c3 bc 11 86 93 bd 71 1b be 3d
       -0.028613511 -0.023866374 -0.072033055 0.09282578
000100 f0 7a 08 3d 87 b9 b1 bd 8f 9e 08 bd 42 a3 85 bd
       0.033320367 -0.08677965 -0.03335434 -0.065252796
000110 b0 55 0c 3c 32 c2 33 bc 58 08 a7 3d e4 36 dd bd
       0.008565351 -0.010971593 0.08155888 -0.10801485
000120 89 68 82 3c 7b 3c 81 bb 7e 85 9a 3c 87 fd aa bd
       0.015918987 -0.0039439774 0.018862482 -0.08349138
000130 8b 85 37 bd 5f f7 ba 3c a4 3b 9d bc 5a cf 90 bc
       -0.04480509 0.022823034 -0.019193478 -0.017676998
000140 67 60 70 bd 9a 3e ba 3d 7f ff 47 bd 53 bb 08 bd
       -0.058685686 0.090939716 -0.048827644 -0.03338177
000150 0e f0 81 bd a7 03 cd 3d 82 80 28 bd 58 15 1f 3d
       -0.06344615 0.10010462 -0.04113818 0.038838714
000160 8d fa d2 bc 9f d7 9b 3d 5d 91 2b 3d 21 4f 99 3c
       -0.025754238 0.07609486 0.041886676 0.01871449
000170 e9 08 82 3b fa 73 80 bd 0b 8f 89 3d a3 c8 22 bd
       0.0039683473 -0.06272121 0.067167364 -0.039742123
000180 3a 7e 9b bd b9 eb 7f bd 57 22 70 bd bf 13 df 3d
       -0.07592435 -0.062480662 -0.0586265 0.10892438
000190 3c cf db 3c 58 ec b4 3c 22 af 48 3d 8d 11 88 bc
       0.026832215 0.022085354 0.048995145 -0.016609931
0001a0 1f 8c 6a 3d 41 16 e1 bd eb d0 8d 3b 3d 2b a1 bc
       0.057262536 -0.10990573 0.0043278835 -0.019673938
0001b0 75 b2 f2 3c ef f1 2f 3d 68 54 97 bd 39 d4 8a 3d
       0.02962611 0.042955335 -0.07389146 0.067787595
0001c0 56 5d 3d 3d 8c 26 b2 bc 5f 83 87 3d 8d e2 7c bd
       0.04623159 -0.021746896 0.06616854 -0.061739493
0001d0 03 cf 8a bd 16 2b 19 bd e8 d4 82 bd d9 8d ba bc
       -0.067777656 -0.037394606 -0.06388265 -0.022772716
0001e0 6d 1c 32 bd 24 43 b4 bc ba 15 03 bd 38 d0 37 3d
       -0.04348414 -0.022004671 -0.032003142 0.044876307
0001f0 da 43 9d 3d f1 a3 3e 3c 09 13 ea 3d a6 d4 91 3d
       0.07678957 0.011635766 0.11429412 0.071206376
000200 9d 60 0e bc fe 98 33 bd df f9 a9 bc e2 a6 c2 3b
       -0.008690027 -0.043847077 -0.02074903 0.005940304
000210 ff 53 b5 bd d7 91 2a bd 0a 5f 49 3c e5 13 42 3d
       -0.088539116 -0.04164299 0.0122907255 0.047382254
000220 8e 18 44 3d c6 32 8a 3c 78 fb 6a bd 66 6c 49 3c
       0.04787498 0.016869914 -0.057368726 0.012293911
000230 ad 52 45 3b b9 b5 91 bd 76 c7 38 bc dc 02 bd 3c
       0.0030109093 -0.07114739 -0.011278024 0.023072653
000240 cd 44 76 3d c7 2e 18 bd 42 b4 9d bc 17 a6 93 bd
       0.060124207 -0.037153985 -0.019250993 -0.072094135
000250 f2 c4 0e bd e1 5d 0f 3c 5f 3a 06 bb 2d f5 d5 3c
       -0.03485579 0.00875041 -0.002048157 0.026117885
000260 2c 12 ae bc 04 23 18 3d 48 be 9f 3d 42 66 31 bc
       -0.0212489 0.03714277 0.07799965 -0.010827603
000270 99 99 9f bd 31 a3 0a 3d e8 74 0b bd b2 90 32 3d
       -0.07792968 0.033847038 -0.034047037 0.043595023
000280 b9 86 b7 3c 30 ff 85 bd d3 6d 84 3d 74 a3 a6 3d
       0.022403108 -0.06542814 0.0646626 0.08136645
000290 d6 db 41 bc ec 92 a2 bd 26 8c 85 3c 91 b8 e1 bc
       -0.011832198 -0.079381794 0.01630218 -0.027553828
0002a0 c9 29 86 3c 92 ce 5d 3c 12 a3 b6 3b 08 35 be 3c
       0.016377347 0.01353802 0.0055736387 0.023218647
0002b0 c4 59 e8 bc 78 f5 8b bd 5e d2 55 3c a8 1e c8 bd
       -0.028363116 -0.06833929 0.013050644 -0.09771472
0002c0 55 ef fe 3c e3 a7 0b 3e 95 a6 c5 bd 4e 3f 78 3c
       0.031119982 0.13638262 -0.096509136 0.015151812
0002d0 51 92 c7 bd 2e e2 c8 bd 3f 3a 2a bb ef be 92 3c
       -0.097447045 -0.09808765 -0.0025974659 0.01791331
0002e0 78 fa 79 3d 73 d2 14 bd 16 a9 39 bc 18 67 59 3d
       0.06102988 -0.036333513 -0.011331817 0.053076833
0002f0 86 b3 63 3c 85 05 82 bc 0c cd 6a bd 6b 5d 80 3d
       0.013897782 -0.015871773 -0.057324454 0.06267818
000300 f2 6a 59 3c dc 0e 33 bd 30 c9 0b 3d 4d ff 70 3d
       0.013270127 -0.043715343 0.034127414 0.058837224
000310 59 a6 8d 3d ed 78 e7 bd 1a 65 14 bd 85 e4 a7 3d
       0.06916494 -0.11302362 -0.03622923 0.081978835
000320 49 b5 0c bc 0b 7f c5 3d d6 a2 38 bc c9 3b e8 3c
       -0.008588144 0.09643372 -0.011269292 0.02834882
000330 72 cd ea 3c cf 02 8a bb fc 4a 54 bd ac 82 aa bd
       0.028662417 -0.0042117606 -0.051829323 -0.08325705
000340 95 74 f6 bd ed 09 62 3c b9 d9 ac bd 28 2c 93 bc
       -0.12033955 0.013796312 -0.08439965 -0.017965391
000350 e6 52 da 3c bb 3a 89 bd 3d ca b3 bc e5 42 14 bd
       0.026650857 -0.06700655 -0.02194702 -0.036196608
000360 b6 ca a5 bd 35 32 59 bd e2 11 bb bd 53 6d bb bd
       -0.08095305 -0.053026397 -0.0913427 -0.09151711
000370 53 7c 9e 3c 2e 37 db 3c 49 c9 0a bc 49 bd 8d 3d
       0.019346392 0.02675971 -0.008470842 0.06920869
000380 ed 92 25 3d 7e 4c da 3b c3 af 69 bd 89 01 84 3d
       0.040423322 0.0066619506 -0.057052385 0.06445605
000390 75 f1 0b 3d f8 c9 77 3d 5c 21 44 3d 8c db ee bd
       0.03416582 0.060495347 0.047883376 -0.11662969
0003a0 63 c2 73 3d c2 82 45 bd 95 ff 5a bd 9f 24 05 bd
       0.059511553 -0.048220403 -0.0534664 -0.032505628
0003b0 8d 92 df ba a6 9b ab bd bc bc eb 3c f6 f1 28 bc
       -0.0017057225 -0.08379297 0.028776519 -0.010311594
0003c0 93 27 c2 3d 5f fc 88 bd 3f 35 42 3d 07 31 7e bc
       0.094802044 -0.06688761 0.04741406 -0.015514619
0003d0 94 1e d8 3d 09 73 9f 3c 1f ee c5 bd 50 46 85 bd
       0.10552707 0.019464033 -0.096645586 -0.06507552
0003e0 10 d5 73 3d 2e b3 c4 3c b0 6d a0 3d d9 af 22 3b
       0.059529364 0.02401122 0.07833421 0.0024824052
0003f0 0a 0f 94 bc 20 69 fd bd cb ce 82 3d 1d 1e b8 bc
       -0.018073577 -0.12373567 0.06387099 -0.022475297

head.weight f4 [102, 768]
000000 af 90 69 3c cc cc 05 3d 9c ca ea bb 43 4a b7 bc
       0.014255687 0.032666013 -0.007165266 -0.022374278
000010 b4 c5 6a bd 20 66 4a 3a ee cc d8 3d 7c 3c 3c 3c
       -0.05731745 0.0007720906 0.10585962 0.01148903
000020 b7 32 86 bd e0 14 bb 3d 63 01 51 bd 09 2c dd bc
       -0.06552642 0.09134841 -0.051026713 -0.026998537
000030 84 d2 00 be ad b6 c4 3d 9c c8 a0 3c 83 b9 c8 3d
       -0.12580305 0.09605155 0.019626908 0.098010086
000040 f7 7e ea 3d b0 dc a1 bd cc 6c 04 be cf 86 a4 bd
       0.11449998 -0.07903421 -0.12932128 -0.08033525
000050 1f c7 85 3d 81 57 5d bd 52 78 a1 bd 3c 9a b3 bd
       0.0653212 -0.05403853 -0.078842774 -0.08769652
000060 09 66 ac bd 00 d7 f6 3d b8 81 91 3d 1d 2c ce bd
       -0.08417899 0.12052727 0.0710482 -0.10067008
000070 a1 7a 8f 3d 71 57 e1 bd 47 ca c5 bd c2 b8 e2 3c
       0.070058115 -0.11003006 -0.09657722 0.02767599
000080 5b 2f 22 3d e8 42 72 bd 3c 22 94 3c 30 e5 1b bd
       0.039595943 -0.059145838 0.01808273 -0.038060367
000090 ce 4b aa 3d c9 93 51 bd af d9 02 be d2 16 f9 bc
       0.0831524 -0.05116633 -0.12778352 -0.03040639
0000a0 29 cc b5 3d 6e 90 c6 bd d3 ad b7 bd b5 58 b3 bd
       0.08876831 -0.096955165 -0.08968701 -0.08757154
0000b0 17 32 0b bd 71 09 dc 3d 78 cc 19 3e 6b 71 df 3d
       -0.033983316 0.10743988 0.15019405 0.10910305
0000c0 c1 f3 ad bc 8c 36 c3 bc 97 b2 09 3d 23 a0 21 3d
       -0.021234395 -0.02382972 0.033617582 0.03945936
0000d0 b3 ee 73 bd 8d 6f ba bd 46 d9 bc bd 77 b3 cd 3d
       -0.059553813 -0.09103308 -0.09221129 0.10043996
0000e0 6f 95 b7 bd 5d 9d 53 bd a8 a0 de 3d cb 70 c2 3b
       -0.08964049 -0.051663745 0.108704865 0.005933856
0000f0 b4 fb 07 3e 31 4e 54 bd e5 17 0c be c7 12 22 bd
       0.13279611 -0.05183238 -0.1368099 -0.03956869
000100 6c 02 96 3d be dc bf 3d af f2 bd 3d 98 82 77 bc
       0.07324681 0.09368275 0.09274804 -0.01510682
000110 4f db 8d bd 91 59 49 3d aa f1 e3 3d 27 40 87 bd
       -0.069265954 0.049157683 0.11130078 -0.06604033
000120 0a 74 15 3b 9f 5e 83 3d 2f b3 83 3d 44 38 22 be
       0.002280476 0.06414532 0.06430661 -0.15841776
000130 e8 2b 0a be d9 3d 7e bd 71 ce e3 bd 83 e9 7d bd
       -0.13493311 -0.0620707 -0.1112336 -0.061990272
000140 63 72 88 bd 7f d1 fa bd b0 08 9f bd 0b 88 cb 3c
       -0.066624425 -0.122469895 -0.07765329 0.024845144
000150 c4 86 88 3c 49 4e df bd 6c 27 47 3d 45 83 d2 bc
       0.016665824 -0.109036036 0.04862158 -0.02569736
000160 8b 5a 9f 3d b1 6c bd bd 5c c8 87 bd a5 88 0a 3d
       0.077809416 -0.09249247 -0.066300124 0.03382172
000170 64 c3 d3 3d 18 31 8e bd fc d4 97 bd ab 71 ae 3d
       0.10340002 -0.06942958 -0.074136704 0.08517774
000180 49 78 74 bd a0 a7 d9 bd 77 8d 9e bd 5e 4f f1 bd
       -0.059685025 -0.10627675 -0.07741826 -0.11782716
000190 4a c4 5d 3d b8 16 91 bd d4 96 0a be b0 f6 8f bd
       0.054142274 -0.070844114 -0.13534099 -0.07029474
0001a0 9e 1b 00 3e fe 14 e2 3c 1e 4b 70 3c 87 44 b6 bd
       0.12510535 0.0275979 0.014666347 -0.08899789
0001b0 47 d3 8d bd 3f 00 13 3d 18 42 1f 3e 5c b4 8a 3d
       -0.069250636 0.035888907 0.15552557 0.06772682
0001c0 ac 14 6d bd 60 dc 5b bd b2 60 9e bc 5b 81 e9 3d
       -0.057881042 -0.053676963 -0.019333217 0.11401626
0001d0 ef d6 1a bd b2 70 af 3d 64 89 96 3d e0 53 aa bd
       -0.037802633 0.08566417 0.07350424 -0.08316779
0001e0 11 4f 64 bd db 5d ed 3d 18 2e b6 bd 1a d0 fd bb
       -0.055739466 0.11590167 -0.088955104 -0.007745755
0001f0 95 23 c6 3d b0 ca 37 3d d7 5a a1 bd de d0 93 bd
       0.096747555 0.044871032 -0.078786545 -0.07217573
000200 56 24 75 3d 9d 65 bd bd 49 e1 3c 3d ad 13 43 3d
       0.059849106 -0.09247897 0.046113286 0.047626186
000210 f7 f4 88 bd f4 07 6f bd 0c a8 d3 3d b0 e3 1e 3d
       -0.06687348 -0.058357194 0.10334787 0.03879136
000220 a0 5d a0 bd 54 60 d7 bd cf 1d a5 bd e8 80 0a be
       -0.078303576 -0.1051642 -0.08062326 -0.13525736
000230 d6 57 a0 bd e0 7a c6 bd fd 14 62 3d 27 76 04 be
       -0.078292534 -0.09691405 0.055195797 -0.12935697
000240 4e 69 42 bd bd 99 cc bd f7 b9 cb bd 01 85 bb 3d
       -0.047463708 -0.09990261 -0.09947579 0.09156228
000250 4b 23 6e 3d af c7 5b bd 6b 6f 44 3d a3 1d 07 bc
       0.058139127 -0.05365723 0.04795782 -0.008246812
000260 99 e2 91 3d db 98 a7 bd 8c 09 56 3d 42 da 7d 3d
       0.07123298 -0.08183452 0.0522552 0.061975725
000270 95 de 13 3d ec 33 07 3e 3a 26 e6 3d bb bb be 3d
       0.036100943 0.132034 0.1123776 0.093131505
000280 0d c0 1c bd 48 96 cc bd 13 50 4c bc bb d4 86 bd
       -0.03826909 -0.099896014 -0.012470263 -0.06583544
000290 9b b1 a5 3c 1f 6d bb 3d 09 b4 e8 bd 32 07 fe 3d
       0.02022629 0.091516726 -0.11362464 0.12403716
0002a0 61 bc 83 bd e9 37 e9 3c a4 da a9 bd 52 de 31 bd
       -0.06432415 0.028469043 -0.082936555 -0.04342491
0002b0 08 ef ea bd a2 2a 82 3c 7f df f2 3d 80 54 d5 3d
       -0.11471373 0.01588947 0.11859035 0.10416508
0002c0 77 f6 23 bd 91 c6 9a 3c d8 78 93 bd 3b 39 eb 3d
       -0.04002997 0.018893512 -0.072007835 0.11485525
0002d0 59 20 73 bd 34 1e 97 3c 55 35 ca 3c 89 c0 68 3c
       -0.05935702 0.01844702 0.024683634 0.01420606
0002e0 43 9d 8d bd 01 4c 45 bd 38 4a 28 bd 69 e0 30 3c
       -0.06914761 -0.048168186 -0.041086406 0.010795691
0002f0 35 4b b5 bd b1 90 b9 bd 77 7e ef 3d 8c d6 d7 3d
       -0.08852235 -0.09060801 0.11694043 0.105389684
000300 46 0d f9 3c dd 95 ef 3d 29 55 31 bd 67 40 ce 3d
       0.030401837 0.11698506 -0.043294106 0.100708775
000310 2c 5a b3 3d f7 4a a5 3d 4a 59 18 3d 03 a1 ec bd
       0.08757433 0.08070939 0.037194528 -0.11554148
000320 9f 13 d8 bd 12 ca 14 bd 05 02 aa bc d1 53 9f 3d
       -0.105506174 -0.03632552 -0.020752916 0.077796586
000330 61 5b b1 bc e7 c6 8f 3d 58 9e dc bc ac 94 b1 bd
       -0.021650018 0.070203595 -0.026930973 -0.08670935
000340 0e 53 e8 bc db 6b 4b bd 84 cf 1b 3d 7e 85 01 3d
       -0.028359916 -0.049663406 0.0380397 0.03162145
000350 71 c7 e8 3d 22 be db 3c bb 9b 12 3d 45 43 54 3d
       0.113661654 0.02682406 0.035793047 0.051821966
000360 12 7d df bd 0c d8 96 bc e5 ff 41 3b 88 ad 87 3d
       -0.10912527 -0.018413566 0.0029601988 0.06624895
000370 e5 e1 22 3b 30 89 cc 3d ed 58 c1 3c 54 6e 58 3d
       0.0024853882 0.09987104 0.023601973 0.052839592
000380 02 4b a7 3d 8c 0e b7 bd 83 32 d2 bd 3c 74 23 bd
       0.081686035 -0.089383215 -0.102635406 -0.03990577
000390 c4 0e ea 3d 3e 92 92 bc c7 53 21 bd 3e ad 04 3e
       0.114285976 -0.017892 -0.039386537 0.12956712
0003a0 67 61 0c be 38 56 9e 3d 85 ed eb bd a4 95 70 bd
       -0.13709031 0.07731289 -0.11519913 -0.05873646
0003b0 57 b2 2c 3d ee d4 ca bd c3 2a b8 bd 89 ac 6c 3d
       0.042162266 -0.09903894 -0.08992531 0.05778173
0003c0 ec 55 bf bd bd 9a 0d 3d e2 03 c3 bd ea e5 6e 3d
       -0.0934256 0.034571398 -0.09522225 0.058324732
0003d0 9b 8c 2c bc a0 e1 30 3d 03 60 4b bd 3f 87 c8 3d
       -0.01053157 0.043183923 -0.04965211 0.09791421
0003e0 05 f0 c3 3d 7d 49 68 bd fc ae 7d 3c fb 5d fa bc
       0.095672645 -0.05671071 0.015483614 -0.030562392
0003f0 55 ed a1 3d 60 d3 cb bc 82 7e 72 3d 02 a6 bb bd
       0.079065956 -0.024881065 0.05920268 -0.09162523

head.bias f4 [102]
000000 73 d3 2a 3d f3 1c 24 bc 9f 9f cc bb a0 49 6c 3c
       0.04170556 -0.010016668 -0.0062446143 0.01442185
000010 37 ba 09 bc ff 92 db 3b 26 8b 1b 3d d2 96 dd 3c
       -0.0084062135 0.006700873 0.0379745 0.027049456
000020 44 df 14 3c f8 eb 86 3c 2e f3 06 bd 15 d9 cd bb
       0.009086434 0.01646994 -0.032946758 -0.0062819817
000030 5e 9f 14 3c 72 b4 a6 3c 66 71 ec bc a4 74 a6 bc
       0.009071199 0.020349715 -0.028862666 -0.02031929
000040 eb 47 38 bd ef ac a3 38 64 fd 84 bb 10 d1 c8 3c
       -0.04499046 7.804657e-05 -0.004058527 0.024513751
000050 74 09 d8 3c 17 a4 cd bb 3e fa cb 3b 05 58 15 3d
       0.026371695 -0.0062756645 0.0062248996 0.036460895
000060 9c 6d 57 bb b1 81 b8 3c ab aa 0a bd 1f 31 04 3d
       -0.0032871729 0.02252278 -0.033854168 0.032273408
000070 bf de 24 3c 2c db 7e 3c b8 f8 82 3c 52 a5 9f 3a
       0.010062872 0.015555184 0.015987739 0.0012180007
000080 32 23 52 bb 09 3c 96 3c 2d c8 d1 ba 10 d6 84 bc
       -0.0032064435 0.018339174 -0.0016005092 -0.016215354
000090 d6 41 98 3b c5 1b d2 3c a1 27 41 3c ae c8 d3 bc
       0.00464652 0.025648007 0.011789233 -0.025852527
0000a0 04 28 97 3c d3 55 0a 3c 38 d4 a0 3c ac d8 f6 38
       0.018451698 0.008443314 0.019632444 0.000117705524
0000b0 7f 51 66 38 c8 d1 93 bc 2e 5a 00 bd a7 3e 63 bb
       5.4912172e-05 -0.018044367 -0.031336002 -0.0034674795
0000c0 0d b4 94 bc 2c 9c d7 3c b4 a4 24 bc 84 6f e7 bc
       -0.018152261 0.026319586 -0.010049034 -0.028251417
0000d0 fc e6 8b bb a6 1a 1a bd a4 35 92 bc 17 58 12 bd
       -0.004269479 -0.03762307 -0.017847843 -0.03572854
0000e0 89 25 8f 3c 31 6b 6f 3b fd f5 72 ba f3 c6 04 bc
       0.017473953 0.0036532397 -0.00092682225 -0.008104074
0000f0 6b 0d 29 bc 7b df e2 3c db cb 73 bd 7c 92 71 bc
       -0.0103181405 0.027694454 -0.059520584 -0.014744397
000100 d0 86 8a bc d8 d4 3e 3c f2 2e db bc 74 0a f3 bb
       -0.016909987 0.011647426 -0.026755784 -0.0074170176
000110 10 44 aa 3c a9 9f 8b bc fd c9 07 bd 98 6b f6 bb
       0.020784408 -0.017043905 -0.033151615 -0.0075201504
000120 59 7f bf ba dc 23 f1 bb ba 07 46 bc 93 2f ef bb
       -0.0014610096 -0.007359011 -0.012086803 -0.0072993725
000130 30 76 35 b8 2f a2 2c bc 5d 6e 0a 3c 6e a3 b7 bc
       -4.3263834e-05 -0.010536714 0.008449164 -0.022416797
000140 5a 2f 0b bb 32 dd 92 bc 8e c1 05 bd cc ff 2e 3d
       -0.002123794 -0.01792774 -0.03265529 0.042724416
000150 d3 94 61 3c 2f ab 7a bc 18 7a a2 3c 3a 55 64 3c
       0.013768393 -0.015299602 0.01983361 0.013936335
000160 a8 d7 10 3d 54 28 3e 3c ff 10 78 3c 82 b3 9d bc
       0.035361916 0.011606295 0.015140771 -0.019250635
000170 0d fd 0a bb 8d 60 7e bc 07 e9 69 3c e9 e5 55 bc
       -0.002120796 -0.015525949 0.014276749 -0.013055303
000180 4e b2 00 bb 73 f6 79 ba a3 c8 e0 bc 83 4f a8 3c
       -0.0019637528 -0.000953532 -0.027439421 0.020545727
000190 a0 d2 a3 3c 2d 9c 4e 3c
       0.019997895 0.012610477

FacTu.weight f4 [32, 768]
000000 82 95 3c bd e8 39 b1 bd 61 c8 cc 3d c6 2d c3 3d
       -0.04604102 -0.08653623 0.09999157 0.09530215
000010 26 05 07 bd 9d ba f5 3b 5b b7 a0 bb 96 cd bb bd
       -0.032963894 0.0074990527 -0.00490467 -0.09170072
000020 a9 1b 8d bc d8 76 1d 3d 46 f9 c8 bc 9e 22 09 bc
       -0.017225103 0.038443416 -0.024532925 -0.00837007
000030 65 ba 2f 3c fe 4c 15 3e d6 bf 9c bd 0d eb e6 bc
       0.010725592 0.14580151 -0.07653777 -0.028188253
000040 52 3f 75 3d 3b f0 b1 ba 89 6e 7b bd 4a f4 d1 bd
       0.05987484 -0.0013575623 -0.06138471 -0.102516726
000050 73 8f df 3b 96 17 83 bd 69 f0 d8 bc a3 e8 b9 3c
       0.0068225204 -0.06400983 -0.026481824 0.022693938
000060 97 ef 9a 3d 22 00 77 bd cc a6 b2 bd 38 07 29 bd
       0.075652294 -0.06030286 -0.0872322 -0.04126665
000070 1e 77 66 bd 61 43 34 3d a3 f0 a3 3d f6 50 cf 3d
       -0.056265943 0.04400957 0.08004882 0.10122864
000080 c9 1b a3 bc 80 05 c0 3d 09 8a d9 3c a3 89 0d 3d
       -0.01991071 0.09376049 0.026555078 0.03455509
000090 42 27 dd 3c 51 e4 97 3b 50 13 f1 3d 11 3d ab bd
       0.026996259 0.0046353717 0.11771262 -0.08361257
0000a0 fd 0e 9b 3c 42 6e 98 bd ce c8 d9 3c 16 c9 72 bd
       0.018928045 -0.07442905 0.026585009 -0.0592738
0000b0 16 84 0b 3c 67 c6 48 3c 6d 73 17 3d 74 09 24 3d
       0.008515378 0.012254334 0.036975313 0.040048078
0000c0 9f be f8 3c c0 46 b1 3c 0a c3 d3 3b 7f 1e 4c bd
       0.030364333 0.021640182 0.0064624595 -0.04983377
0000d0 cf 05 8d 3c 11 56 ad bd 5e 44 3c bd 1e ea b6 bd
       0.017214684 -0.084636815 -0.045963638 -0.08931373
0000e0 ef a7 ef bc 09 a8 77 bd cc 8c 3c 3d 84 29 05 bc
       -0.029254882 -0.060462985 0.046032712 -0.008127574
0000f0 81 52 64 bd fc ad 05 bd a9 05 80 3c a4 5c 00 3d
       -0.055742744 -0.032636628 0.015627699 0.03133835
000100 ab c4 77 3c 88 74 8c 3c f0 34 ad 3c 86 44 ff 3c
       0.015122573 0.01714541 0.021143407 0.031160604
000110 0a 7d 03 bc 01 46 0e 3a 05 b0 e1 bc 94 df e2 bd
       -0.008025417 0.00054273015 -0.027549753 -0.110778004
000120 1c 4c f3 bc 4e 43 7c bb 9c b0 a9 bd 05 c3 cd bc
       -0.029699378 -0.0038492265 -0.08285639 -0.025117407
000130 82 51 78 3d 4a 4d 11 3d ad 9a 4b 3d c6 57 af bd
       0.060624607 0.0354741 0.049708057 -0.08561663
000140 a4 fb f6 bb 39 a2 c1 bd 01 c3 80 3b b7 de 68 bd
       -0.007537322 -0.0945477 0.0039294963 -0.056853022
000150 69 5a f8 bc f4 6d 25 3b 6e 4f 23 3e 33 98 56 bd
       -0.030316548 0.002524254 0.15948269 -0.052391242
000160 e3 b7 a7 bd a9 a4 11 bd 55 a9 06 3d ba 32 8a 3c
       -0.081893705 -0.035557423 0.03287633 0.016869891
000170 00 90 d1 bc 68 48 d7 bc 7c a6 9c 3d 09 26 61 bd
       -0.02558136 -0.026279643 0.07648942 -0.054967914
000180 c5 a3 d9 3c d1 a7 9b bc 57 2d 9e 3d dd 8d d0 3d
       0.02656735 -0.01900092 0.07723492 0.10183308
000190 6e e0 13 bd 75 b5 ce bd 24 26 3d bd b1 51 a0 3c
       -0.036102705 -0.10093204 -0.04617895 0.019570203
0001a0 2f 96 5c bd 53 02 8f bd 0b 96 dd 3d 3d 0f 62 3d
       -0.053854164 -0.06982865 0.10819634 0.055190314
0001b0 b3 02 31 bc 91 8b 00 3d 54 b9 5c 3b e9 e1 77 3d
       -0.010803866 0.0313831 0.00336798 0.06051818
0001c0 18 e7 7b 3d ae a7 ae 3d 42 64 9d bd 2a 27 17 bd
       0.061499685 0.08528076 -0.07685138 -0.036902584
0001d0 79 78 e4 3c 60 fb 1c 3d fb 53 2c bd ef fd a2 bd
       0.027889477 0.038325667 -0.042072278 -0.0795859
0001e0 40 02 94 3d 00 08 69 3c 67 ff 3e 3c 9d fa 39 bd
       0.07226992 0.014223099 0.011657572 -0.04540502
0001f0 8a d6 8a 3c 63 24 ec 3d 91 2b 1b 3c f5 72 99 bd
       0.016948003 0.11530378 0.009470836 -0.074926294
000200 66 ef 19 be e9 f0 78 3c 61 39 f8 bc 39 92 e8 bb
       -0.1503273 0.015194156 -0.030300798 -0.007097509
000210 2f f1 24 bd 5a 03 f7 bd 0e 97 e3 bc 74 38 61 3d
       -0.040269073 -0.12061186 -0.02778199 0.05498548
000220 08 21 d6 bd f4 35 2a bd 01 68 de bd f0 6c 06 bd
       -0.10455519 -0.04155536 -0.10859681 -0.032818735
000230 6e 43 37 bc 73 81 15 be d3 6c c6 bd 2d 1a 22 3c
       -0.01118551 -0.14600162 -0.09688725 0.009893936
000240 e9 55 c0 3d 8f e6 2c 3d 69 e1 b6 bc 62 4f d8 3c
       0.09391386 0.042212065 -0.02232428 0.02640504
000250 ea 2b d0 bd 0b 36 2b 3d bf db 7d 3d 54 9f 2d bd
       -0.10164626 0.041799586 0.061977144 -0.042388275
000260 1b c0 47 bd cb 74 77 bd a2 2b 8e 3c 9d 39 fb 3c
       -0.04876719 -0.060414117 0.01735479 0.03066712
000270 a4 14 86 bd 6a 8d 08 bd a9 25 1b bd 1d dd 08 3d
       -0.06546906 -0.033337988 -0.037877712 0.033413995
000280 08 b7 d7 3d 79 33 31 bd 3e a7 10 3d fb 7a c9 3c
       0.10532957 -0.04326198 0.035315745 0.024594774
000290 b0 cc ba 3c 0d 65 2b bd b2 bb 72 3d 62 45 0d 3d
       0.02280268 -0.041844416 0.05926103 0.034489997
0002a0 62 85 0e 3d 62 c7 1d 3d ef 70 36 3c fe 4b c7 3d
       0.034795173 0.038520224 0.011135324 0.09731291
0002b0 65 65 f6 3a 3a 8c e9 3c 44 1f 60 3d 3b 1c e6 bc
       0.0018798528 0.028509248 0.054717317 -0.028089633
0002c0 ab 82 90 bc 75 9a 75 bd fd e4 57 bd 22 bd 75 3c
       -0.017640432 -0.059961755 -0.052708615 0.014998706
0002d0 2a c4 af 3d 5d fd e3 bb c2 b3 81 3c b9 34 a3 bd
       0.08582337 -0.0069576935 0.015832786 -0.079690404
0002e0 29 93 f6 3b 6f 2c 4f be 24 96 c2 bd fc 9b 18 3e
       0.007524867 -0.20231794 -0.09501293 0.14903253
0002f0 c1 6d d9 bd ad f2 a1 3d 66 ee 68 3c c0 d5 35 3d
       -0.10616637 0.07907615 0.014216995 0.0443933
000300 2a 83 4a bc 35 36 c2 bc de 11 e1 bb 95 ff 96 bc
       -0.0123603735 -0.023707489 -0.006868585 -0.018432418
000310 0d b7 b1 bd a8 cd fe bd 71 f9 17 bd c9 9c 43 bc
       -0.08677492 -0.124415696 -0.03710312 -0.011939236
000320 13 f9 18 bd 40 14 94 3d a5 94 70 3d e5 c9 ec 3c
       -0.03734691 0.07230425 0.05873551 0.028904865
000330 5b 0e 0e be 56 ca ea b8 ec da 82 3c 00 5b 87 3c
       -0.13872664 -0.000111956775 0.01597353 0.016522884
000340 6d d9 f7 3c cc d5 0e 3d 31 15 95 bd 99 48 0b 3e
       0.030255044 0.03487186 -0.072794326 0.13601913
000350 0e ce 80 bd 56 55 d3 bc 5d 60 87 3d d1 ad 4a bd
       -0.06289302 -0.025797527 0.06610177 -0.04948217
000360 ce 97 f6 3b 0f 0c 21 3d 83 dc 7d 3d cc b0 51 3c
       0.0075254207 0.03931814 0.061977874 0.012798499
000370 93 7f 24 bd 95 bc b3 bc 5f eb 00 3e 65 e4 c2 3d
       -0.040160727 -0.021940509 0.12589787 0.09516219
000380 de 7f f5 bd dd 19 e0 3c 1e 63 1b bd 40 c8 52 bd
       -0.11987279 0.027356083 -0.037936322 -0.051460505
000390 77 1e da bc b1 10 c8 bc 23 4a 3c 3c 4d ac 98 3c
       -0.026625855 -0.024422022 0.011492285 0.018636847
0003a0 ca 40 67 bd 30 d0 d6 bd 1e 99 f0 3c ef 27 e5 3d
       -0.056458272 -0.10488927 0.029369887 0.11189257
0003b0 db 2b eb 3d 0f 80 a8 bd 42 62 ef 3d 84 11 b8 3d
       0.11482974 -0.0822755 0.11688663 0.08987716
0003c0 95 9d ea bd f2 26 27 bd 8a 25 2f 3d fe ed c3 3d
       -0.11455838 -0.040808626 0.04276041 0.09566878
0003d0 92 e8 19 3d 28 34 80 3d 38 5d 52 bc f6 4d 43 3b
       0.037575312 0.06259948 -0.012839608 0.0029801107
0003e0 60 62 c5 bd 54 16 53 3d c3 0d 97 bd 5b cb c9 3d
       -0.09637904 0.051534966 -0.07375672 0.0985324
0003f0 7e 5b fa b7 6f ab ce bd f9 0b cc bd 03 75 21 bd
       -2.9844927e-05 -0.10091292 -0.09963221 -0.03941823

FacTv.weight f4 [768, 32]
000000 4c 32 4b 3c fc 08 aa bc 85 c6 d0 3c 38 c7 81 3b
       0.012402128 -0.020756237 0.025485286 0.0039605163
000010 67 dd aa 3c 14 31 24 3d 76 b4 b7 bb 1f 0c f9 3c
       0.020857526 0.040085867 -0.0056062294 0.030401288
000020 fa 96 f1 bc c4 92 b3 3c d8 d0 9f 3c 19 b2 c8 bc
       -0.029490937 0.02192057 0.019508764 -0.024498986
000030 0b 88 83 3b d5 46 74 bd 0f 85 a3 bc f7 d5 c3 39
       0.0040140203 -0.059637863 -0.019960908 0.00037352715
000040 aa eb 81 3b a3 38 ce ba 71 ac 16 bc 61 d5 dc 3b
       0.003964861 -0.0015733432 -0.009196387 0.006739304
000050 00 04 ac 3c 74 60 f5 3a ae 0e 17 bd ea 07 1b bc
       0.020998001 0.0018720762 -0.036879234 -0.009462336
000060 c8 7e ef 3c eb 66 83 bd b4 ae 6f bc 26 fb b2 bc
       0.029235259 -0.064161144 -0.014629055 -0.021848273
000070 2d cf 6e 3d 7a ea cb bc 70 ff ba 3c fd 84 56 bc
       0.058303047 -0.02489208 0.02282688 -0.01309323
000080 6d 3d 91 bc 27 7b 90 3c 06 b7 57 3b 67 0c 9b bc
       -0.017729485 0.017636849 0.0032915487 -0.018926812
000090 c3 5c c8 3c c0 12 2f bd 2c 8f 24 bc e6 c9 70 3d
       0.024458295 -0.04274249 -0.0100439 0.058786295
0000a0 00 b8 35 3c bd 44 52 3c fe 12 6c 3c 5f ab 22 bd
       0.011091232 0.012833771 0.014408825 -0.039714213
0000b0 a0 fc 1b 38 59 42 d0 bb de 84 cd bc ce 38 43 bc
       3.7190155e-05 -0.0063555655 -0.02508777 -0.011915399
0000c0 f2 74 fb 3c 54 40 f3 bc 96 cc 0e bd 53 5b 2f bc
       0.030695412 -0.02969376 -0.034863077 -0.010702926
0000d0 72 21 a0 ba 56 00 03 3d c6 eb d0 3c c5 60 02 bd
       -0.0012216999 0.031982742 0.02550305 -0.031830568
0000e0 43 ff 06 bd 56 74 7d bc 20 d5 89 3c f4 18 60 bc
       -0.03295828 -0.015469631 0.016825259 -0.013677824
0000f0 9d 60 7b 3c 51 78 50 3b 52 47 51 bd f9 83 2a 3d
       0.015342859 0.0031809995 -0.051093407 0.041629765
000100 18 2b 3d 3b eb 15 95 bb 2f ab f8 3b 04 85 87 3b
       0.0028864797 -0.004549732 0.007588766 0.0041357297
000110 5d 0c 9b 3b bc 72 3d 3d 0d fa 42 bd c0 5f f4 3c
       0.0047316984 0.046251997 -0.04760175 0.029830813
000120 92 ed f7 3b b0 77 a8 bc 7f 7f bb 3c 4c 63 0d 3a
       0.0075661624 -0.020564884 0.022887943 0.00053935195
000130 1c 93 c7 3c 0d 22 e1 3b 34 dd 9c 3c cf 99 13 bc
       0.02436214 0.0068705142 0.019148447 -0.009008839
000140 b1 5e 5d 3d 77 b8 4a 3d 04 0d 30 3d 22 76 89 bc
       0.054045383 0.049492326 0.042981163 -0.016779963
000150 38 7a c5 3c 39 57 96 bc 02 d5 0d 3d 2d 04 2b bc
       0.02410613 -0.018352138 0.03462697 -0.010438007
000160 0c a0 1e ba da 92 7a 3c 71 1b 4b bd 8a e8 d3 3c
       -0.00060510705 0.015293801 -0.049586717 0.02586772
000170 7e 30 4a bb a2 b9 04 bd ed 64 93 bc ba 21 27 3c
       -0.0030851658 -0.032403596 -0.017992461 0.010200912
000180 37 9d 67 3b 86 2f 8d bc 24 61 d8 bc 0d 9b 8c bc
       0.003534151 -0.017234575 -0.026413508 -0.017163778
000190 69 af 3b 3c 88 55 19 ba 18 9c fd bc ff 13 87 3b
       0.011455395 -0.0005849232 -0.03095822 0.0041222568
0001a0 ec 85 51 bc 37 21 80 3a b4 e5 7a 3c ea e8 94 bc
       -0.012788277 0.0009775524 0.015313555 -0.018177468
0001b0 95 2c 90 bb 29 ee e7 3c 84 1f 04 bd 30 c3 8b ba
       -0.004399846 0.028311806 -0.03225662 -0.0010663029
0001c0 d4 22 58 3c 6d dc 37 bb 05 a9 02 3d ce 09 db bc
       0.013191897 -0.0028054968 0.03189947 -0.026738074
0001d0 61 d8 13 bd a4 77 ee bc f9 41 36 3d 47 60 37 3d
       -0.036095027 -0.029109783 0.04449651 0.04476955
0001e0 67 05 e8 bc 53 97 94 3c 6f 44 bd bc ac b9 5c bc
       -0.028322889 0.018138563 -0.02310392 -0.013472002
0001f0 bf 72 74 3d 78 69 18 3c 2a 3f c6 3a 36 7d 05 3d
       0.059679743 0.009302489 0.0015125026 0.032590114
000200 11 7e 68 bc f4 20 0b bc f6 75 08 bd 50 74 99 3c
       -0.014190213 -0.008491743 -0.03331562 0.01873222
000210 d1 5a 5a 3c c6 43 20 3c fe 70 46 3c 26 e1 2c 3d
       0.013327316 0.009781783 0.0121119 0.042206906
000220 83 3d 07 bd c3 9b 27 bc 69 16 8c 3c f1 9d f8 bb
       -0.033017647 -0.010230008 0.01710053 -0.0075871875
000230 a6 93 04 3c 20 46 ee bc 0c 46 de bc df 55 b1 3c
       0.008091843 -0.029086173 -0.02713301 0.021647392
000240 e1 0b f2 3c 55 0c 83 3c ad 1d c4 bb 12 dc 3c bd
       0.02954668 0.015997091 -0.005984983 -0.046108313
000250 3f 1c 08 3c 5c f6 44 3c 29 86 1a bd f4 29 e3 bc
       0.008307516 0.012021627 -0.0377256 -0.027729966
000260 59 9e 74 3d 89 86 04 bd 51 b7 7e 3c b3 72 0e 3c
       0.059721325 -0.032354865 0.015546636 0.008694339
000270 3d 28 88 3b c4 aa 5d 3c da 78 4a bc e0 bf 68 3d
       0.0041551874 0.013529483 -0.012357915 0.05682361
000280 09 7d 93 bc 30 5c 7a bc 91 8f 4b bd 71 19 06 bd
       -0.018003957 -0.015280768 -0.049697462 -0.032739107
000290 eb 54 0c bc fc 28 d0 3c 7e 37 21 bb 8b c1 c1 bc
       -0.008565168 0.025410168 -0.0024599726 -0.023651859
0002a0 37 bd b0 3b 5d 65 bf 3c 37 5f 78 3d 3d e8 05 bc
       0.00539365 0.023363763 0.06063768 -0.008173046
0002b0 88 42 20 3c ac e3 f9 bc 81 4b b4 bc 8a 97 e2 bc
       0.009781487 -0.03050407 -0.02200866 -0.02766015
0002c0 30 8c d6 3c a4 df 93 bd 1d 06 a2 bc a8 0f 22 3c
       0.026189893 -0.072203904 -0.019778306 0.009891428
0002d0 5a e5 31 bd 59 b9 74 3c 93 a6 3f 3d 1e 86 ab 3c
       -0.043431617 0.014936768 0.046789717 0.020937975
0002e0 13 98 f3 3b c7 72 26 bd 63 50 37 3d d6 77 33 3d
       0.0074339 -0.040636804 0.044754397 0.043815456
0002f0 08 6e 7e 3c 27 4d 59 bb 60 a9 8d 3a 6f 46 d7 3c
       0.015529163 -0.0033157559 0.0010807924 0.026278703
000300 09 d2 7e 3b ad a2 14 bd f7 b9 2d bd 6f 81 c6 bc
       0.0038882515 -0.036287952 -0.042413678 -0.02423164
000310 da d0 31 bc 4c 62 39 bc f4 a4 af bb 8e af 00 bd
       -0.010853017 -0.01131494 -0.00536024 -0.031417422
000320 93 37 c6 3c a5 4c f3 3c 03 de 02 3c 67 14 17 bc
       0.024196422 0.029699633 0.007987502 -0.009221173
000330 fe be f8 3c 46 62 b1 bc ce 82 1d bd a6 6d 2b 3c
       0.03036451 -0.021653306 -0.038454823 0.010463154
000340 98 fa 07 3d b9 00 a0 bc ad 8a 50 3c 88 71 af bc
       0.03319797 -0.019531595 0.012728375 -0.02141644
000350 11 28 7b 3d 9e 7e 4a bc 65 a3 d5 ba 58 66 5e bd
       0.061317507 -0.012359289 -0.0016299306 -0.05429682
000360 bc d9 22 3d 9e 6c 8b bb c5 de a3 3c 6f a1 b8 39
       0.03975843 -0.0042548915 0.020003686 0.00035215492
000370 d3 cc 79 3c d9 21 20 bc 79 3f 05 bc aa 8e e2 3c
       0.015246588 -0.009773695 -0.008132809 0.027655918
000380 f5 9d 30 bc ee 27 c5 3b 38 f1 8a bb 6a 5f f1 bc
       -0.010779847 0.006016723 -0.0042401813 -0.029464442
000390 1e a3 58 3a ab b1 48 3c de bf 6c 3c 27 6d 6d 3d
       0.00082640524 0.012249391 0.014450042 0.057965424
0003a0 54 1b b0 bb 3b 58 95 3d eb f4 8f 3b 6e b1 90 bc
       -0.0053743515 0.07292219 0.00439321 -0.01766273
0003b0 65 7a 4c bc 66 7d ce 3b 83 8c 32 3c a2 33 be bc
       -0.012480353 0.0063015698 0.010897758 -0.02321798
0003c0 73 5f 3b 3d c0 8a 86 bc fb 9c e0 bc 5d 2b 5a 3c
       0.045745324 -0.016423583 -0.027418604 0.013316003
0003d0 52 54 36 bd d5 67 59 3c ba 89 0c bd 3b 22 d8 3c
       -0.044514008 0.013269384 -0.034311034 0.02638351
0003e0 6b 32 bc bc 1f 19 d4 3b 3a 9b 99 3c 79 6e 16 bc
       -0.02297326 0.006472721 0.018750776 -0.009181612
0003f0 dd 87 43 3a 42 9f 34 bd 3a ec 03 bd f3 9d 29 bd
       0.0007458905 -0.044097193 -0.032207705 -0.041410398
