Final Project/FacT-TK/oxford_iiit_pet_best.pt (torch, 239511 bytes, 6 tensors)

FacTp f4 [16, 144]
000000 40 4e 3f 3e 57 6d 08 be 9d 68 05 3d ea 2d 4f 3e
       0.18682194 -0.1332296 0.03257047 0.20232359
000010 ed d7 af bd c1 86 83 3d 58 4c 03 3e d5 bb 6f bd
       -0.085861064 0.06422187 0.12822092 -0.05852874
000020 87 c7 46 be 6e aa c0 bd 33 0e 11 be 45 ef 07 be
       -0.19412051 -0.09407507 -0.14165573 -0.13274868
000030 1d 1d 64 bc 66 92 86 3d 5e 84 16 be b5 2c a1 3d
       -0.013922957 0.06570892 -0.14698932 0.07869855
000040 b2 9f c9 3d af fe 20 be de af 0c bd 32 12 bf 3c
       0.098449126 -0.15722154 -0.034347408 0.023324106
000050 a5 1e da 3d 07 79 03 3e f2 50 d2 3c aa 89 92 3c
       0.10650376 0.12839137 0.025673363 0.017887909
000060 58 38 1c bd 38 46 b6 bc 80 cf 0e be b8 98 2c 3e
       -0.03813967 -0.02225028 -0.13946342 0.16855133
000070 82 85 d5 3d 2c a0 02 3e d1 07 e4 bc 41 f5 2e be
       0.10425855 0.12756413 -0.027835758 -0.17085744
000080 65 5e 7b 3e fd e8 dc bd f2 69 35 3e cf fd 3a be
       0.24547727 -0.107866265 0.17716196 -0.18260883
000090 7b 09 56 bd 68 e6 b4 bd fe 84 40 3e a0 cc 5f 3d
       -0.052255135 -0.08833009 0.18800732 0.054638505
0000a0 be 69 fd 3d 76 b6 85 bc 8b e2 26 3d bd a6 89 3d
       0.12373684 -0.016322356 0.040743392 0.06721256
0000b0 3d a5 d5 3b f5 cc 52 3e 2d 44 35 3e c5 c4 01 bc
       0.006519942 0.20585997 0.17701788 -0.007920449
0000c0 05 95 0b 3e e4 86 13 3e a9 2c 5e 3e 3b 6c 49 3d
       0.13631065 0.14406925 0.21696724 0.049175482
0000d0 ce 6c 04 bd fc 6e 54 bd 2b 00 bf 3d 15 21 ed 3d
       -0.032330327 -0.051863655 0.09326204 0.115785755
0000e0 c2 23 2a 3e 35 5f 89 bd e0 57 0c 3e 3d 93 f2 bd
       0.16615203 -0.067076124 0.13705397 -0.1184449
0000f0 1c 57 fe 3d d0 bf dd bd 70 95 13 be 1c 2b b5 bd
       0.124189585 -0.10827601 -0.14412475 -0.08846113
000100 11 85 73 be 19 79 96 bd 66 da 13 3e 96 c2 03 3e
       -0.2378123 -0.07347316 0.14438781 0.12867197
000110 db 36 50 3e 3c 73 64 3d 90 a2 59 be 37 47 f9 bd
       0.20333426 0.05577396 -0.21253419 -0.12171786
000120 ef e9 b2 3c 44 a6 16 be e3 a2 13 3e 28 a6 dd 3c
       0.021840064 -0.14711863 0.14417605 0.027056769
000130 83 f6 38 be 1e 9a a3 3d 43 0d 11 3c e4 0d ae 3d
       -0.18062787 0.0798838 0.0088532595 0.08498743
000140 b6 83 59 3c 2d 63 62 be 98 95 86 3d ca 7c 31 be
       0.013276031 -0.22108145 0.065715015 -0.1733276
000150 b1 82 6d 3e 4e 63 8f 3b 8d 69 1e 3e 18 22 9a bd
       0.23194386 0.0043758517 0.15469952 -0.07526034
000160 4f 2f 1a 3e db c5 2c 3d 4a d9 5f 3d bc 60 a1 bd
       0.1505711 0.042180877 0.054650582 -0.07879779
000170 ae 8b 14 3d d4 01 64 3e dd 60 bf 3c 26 8d 9e 3d
       0.03626602 0.22266322 0.023361618 0.07741766
000180 4d ba 16 3c be 60 ea 3d 6d 4d ff 3d 36 02 89 3d
       0.009199691 0.11444233 0.1246594 0.06689875
000190 c3 ea 66 3d f9 68 39 3d e4 0d 1f be b5 13 1c 3e
       0.05637623 0.045266125 -0.15532643 0.15241893
0001a0 70 2d 4c bd ba a0 5f be db a0 5c be 54 7f 72 3e
       -0.04984802 -0.21838656 -0.21545736 0.23681384
0001b0 8c ff 57 3e c8 3d 19 3e 68 df 01 3e 6d 58 32 be
       0.21093577 0.14964974 0.12682879 -0.17416544
0001c0 71 58 24 3c 2a 91 f9 bc a3 48 37 bd b7 85 a0 3d
       0.010030852 -0.030464727 -0.044747006 0.07838004
0001d0 95 04 a3 3e 76 1f e3 bd b6 83 d4 3d 6a 8b 9a be
       0.31839433 -0.11089985 0.10376684 -0.3018449
0001e0 4a c4 5b bd 0a c9 8e bd d1 64 8c 3e a6 0e 17 be
       -0.053653993 -0.06971939 0.27420667 -0.14751682
0001f0 01 53 22 be eb f8 b2 bd d1 55 35 3e ba f1 3d 3e
       -0.15851976 -0.087388836 0.17708518 0.18549243
000200 1f d1 a2 be b6 ee 27 bc c0 05 67 3e 6a 7c 39 be
       -0.31800172 -0.010249784 0.22560787 -0.18113866
000210 b8 0c 6f be 18 f6 36 be 52 ed 9e 3d fa 37 3f be
       -0.23344696 -0.17867315 0.07760109 -0.18673697
000220 64 e3 81 3d f8 30 6a 3e 6e 65 12 bd b0 88 75 be
       0.063421994 0.22870243 -0.035741262 -0.23977923
000230 39 05 3c be 2d 07 34 be 1a 5a 82 3e a0 24 77 3e
       -0.18361367 -0.17580862 0.25459367 0.24135065
000240 91 c1 03 bc 5c 97 8f 3d ac 67 0a 3e d0 64 38 be
       -0.008041755 0.070112914 0.1351611 -0.18007207
000250 07 bf 34 3e f8 c8 8b be c4 95 10 3e 27 e3 f7 3c
       0.17650996 -0.27301764 0.14119631 0.030259682
000260 cd d3 a1 3c e1 da 12 be e8 ab 31 be 28 2d 1a 3e
       0.019754315 -0.14341308 -0.17350733 0.15056288
000270 58 f7 a4 3d c1 0b d7 3d fb b1 24 bd 90 e6 57 3e
       0.080549896 0.10500289 -0.040208798 0.21084046
000280 9d f7 99 3c 42 2d bd bc 43 fc ee bd 5c 6b 1f be
       0.018794829 -0.02309287 -0.11669209 -0.15568298
000290 e7 a0 32 be 5d 3f 1c be 1b 38 c2 bd 3d b0 fa 3d
       -0.17444192 -0.15258546 -0.094833575 0.12240646
0002a0 9d f9 0f bd c6 11 66 bd 6c dd 4c be f8 0f f9 bd
       -0.03515016 -0.056169294 -0.2000634 -0.12161249
0002b0 ab 1c ed 3d e2 3e 21 bd 3b 39 41 3c 1f f0 1d be
       0.115777336 -0.03936661 0.01179343 -0.1542363
0002c0 7e f7 4d 3e 29 4e ad bd 15 c8 26 bd 8b b4 02 3e
       0.20113942 -0.084621735 -0.040718157 0.12764184
0002d0 a0 65 02 be bf e2 3e 3d bf 4b 18 bc 39 49 01 bc
       -0.1273408 0.04660296 -0.009295403 -0.007890993
0002e0 42 65 c8 3d 47 a4 93 bd f1 98 8a 3d b7 d2 08 be
       0.097849384 -0.07209068 0.067674525 -0.13361631
0002f0 9a 49 d4 bd 09 0c 1e be c4 d5 de 3d 56 46 59 3e
       -0.10365601 -0.15434279 0.10880616 0.21218237
000300 c0 a3 85 3c 74 4b b9 3c 6b ab a6 3d 0f 78 22 be
       0.016313434 0.022618987 0.08138164 -0.15866111
000310 9a 74 f1 3d ca 0f dd 3c ba 22 36 be ce e2 fe 3c
       0.11789818 0.026985068 -0.17786685 0.031114008
000320 c8 0c 41 3d 7f bf 2e bd 61 09 2e be 1f 90 69 3d
       0.04713133 -0.042663094 -0.16995765 0.05702221
000330 1c 46 17 3e f6 b5 1f be c9 06 cc 3d 52 5c 03 be
       0.14772838 -0.15596756 0.09962232 -0.12828186
000340 29 8f 0a be 44 0f 58 bd af e2 f9 3c 84 d6 f2 bd
       -0.13531174 -0.052748933 0.030503599 -0.11857322
000350 70 fd 4a 3b cb 8e 0e be d9 7a f8 3d 89 30 71 bd
       0.0030973814 -0.13921659 0.12132806 -0.058884177
000360 9f f6 86 bc b4 35 0f be 91 9f f5 3d 38 b5 c6 bd
       -0.01647502 -0.1398533 0.119933255 -0.097025335
000370 95 bb 13 3d 57 d2 11 3d ba 19 c7 bd 61 2e 2c bd
       0.036067564 0.035600986 -0.09721704 -0.042036418
000380 39 a4 0f bd bd d0 93 3d 71 0e 76 3e b1 8e 03 3e
       -0.035068724 0.07217548 0.24028946 0.12847401
000390 fe b5 64 be 53 21 9e bd 13 dc e5 bd 48 35 a0 3d
       -0.2233505 -0.077212 -0.112236165 0.078226626
0003a0 76 4c c7 3d 03 96 1c be 91 d4 0a bd 62 c5 3f 3e
       0.09731381 -0.152916 -0.033894125 0.1872764
0003b0 27 42 00 3e ca e0 40 3e ab da e0 3d 2f c2 72 bd
       0.12525235 0.1883575 0.109792076 -0.05926722
0003c0 4b 31 3b be 77 dd 4e be 54 a4 24 3e 21 ef fe 3d
       -0.18280523 -0.2020167 0.16078311 0.12447954
0003d0 3b 74 10 be 0b 98 dc bd ae 87 1a bd 19 9f 54 3d
       -0.14106838 -0.107711874 -0.03772705 0.05190954
0003e0 e0 cb a2 bc 55 8f 26 be a8 14 7c bd ff 2e 1c 3e
       -0.019872606 -0.16265614 -0.061543137 0.15252303
0003f0 84 6b 1d bd 72 11 c8 3c f1 cc 6c be ed 3a 9d be
       -0.038432613 0.024422381 -0.23125054 -0.3070902

FacTc f4 [16, 16, 16]
000000 77 be 1c 3d bb d0 e4 bd 30 48 9b 3d 99 58 1b 3e
       0.03826758 -0.11172625 0.07582128 0.15170516
000010 d9 7d 08 bd cb 1f fb 3d 7d ba 21 bd 7b 26 05 3e
       -0.033323143 0.122619234 -0.03948449 0.1300296
000020 4f 0b 2f 3c 97 b2 3e 3b 4c 4e 15 bd 9a 10 2c 3e
       0.0106838485 0.0029098147 -0.036451623 0.16803208
000030 32 c3 a7 39 73 e1 8d 3d d6 b2 0b be 1f b1 49 bd
       0.00031998154 0.06927767 -0.13642439 -0.04924118
000040 f7 b4 dc 3b 53 09 25 be 1e bc 2c 3b 90 20 e6 3d
       0.00673544 -0.16116838 0.0026357244 0.112366796
000050 46 02 fe ba 41 f7 95 3d a6 7e 66 3d 58 bc 80 3c
       -0.001937934 0.073225506 0.056273125 0.01571481
000060 82 e0 28 bb e3 92 72 3d 86 7b a8 3d 82 e0 65 bc
       -0.0025768583 0.059222113 0.08226685 -0.014030578
000070 f2 53 15 bc cd d7 a7 bd 97 f7 09 be e1 6d d4 bd
       -0.009114252 -0.081954576 -0.13473354 -0.1037252
000080 d8 5f b6 3d 78 5b ca 3d b7 50 de 39 a4 e6 30 bd
       0.089049995 0.098807275 0.00042403277 -0.043188706
000090 78 51 a3 3d 65 b9 fc bd 72 ed 72 3d 7b 19 c0 bd
       0.07974523 -0.12340049 0.059308477 -0.0937986
0000a0 d9 e1 cd bd 60 e4 a9 3d 46 b9 9c bd 1d 1c d5 bd
       -0.10052843 0.08295512 -0.076525256 -0.10405753
0000b0 0d 90 67 bd 7a 69 d5 3d 06 0f e8 3c 35 79 28 3c
       -0.056533862 0.10420509 0.028327476 0.010282804
0000c0 ea fd 02 3e 7d 55 27 3e 32 da 87 bd 9b 26 a9 3d
       0.12792173 0.16341205 -0.06633414 0.082593165
0000d0 e6 eb e8 3c 80 c4 f6 38 91 81 64 bd 18 ba 89 bd
       0.028432798 0.00011766795 -0.055787627 -0.06724948
0000e0 6c a1 f1 bd ad d8 d5 bd 3d 07 3f 3d bd f0 2d bd
       -0.11798367 -0.10441718 0.046637762 -0.042465914
0000f0 25 ce e7 bd 9f 3b 2d be 4e ea fa bd d4 c1 0a be
       -0.11318616 -0.16917275 -0.12251721 -0.13550502
000100 ac 08 66 3d fd 36 bf bd 3e ac 52 bd ef 10 b0 bd
       0.056160614 -0.0933666 -0.051433794 -0.0859698
000110 33 52 b5 3d 6e 70 3b 3c b0 03 6b 3c fd 5a 22 be
       0.08853569 0.01144038 0.014344141 -0.15855022
000120 1d b4 9f bd e8 e0 1e be 55 9d 04 3e fa 68 d5 3d
       -0.07798026 -0.15515482 0.12950642 0.10420413
000130 b0 41 27 3e 18 09 b8 3d c1 f1 a2 bd 4e c6 92 bd
       0.16333652 0.089861095 -0.07956267 -0.0716673
000140 13 da 4a 3d da 5b 48 bc 2e f8 d5 bd 9f 46 8a 3c
       0.049524378 -0.01222893 -0.10447727 0.016879378
000150 ed d1 ba 3d 99 40 61 3d d4 38 ca bc 40 86 94 3d
       0.091220714 0.054993246 -0.0246853 0.07252169
000160 47 65 3e 3d b0 52 f8 bc cd d1 68 bb 59 9f cc 3d
       0.046483304 -0.030312866 -0.0035525442 0.09991331
000170 3a f2 1b 3d c0 f6 4d 3c 46 7d 38 bd 74 4b 46 bc
       0.038072802 0.012571037 -0.045041345 -0.01210295
000180 01 57 e2 bd 1a 8a ca 3d 5f 1d 15 bd 6a 9e 96 3c
       -0.11051751 0.09889622 -0.036404964 0.018386085
000190 ca 79 24 bd d2 d6 00 3d d8 bf 14 be 7f bd e6 bd
       -0.04015521 0.03145487 -0.14526308 -0.11266612
0001a0 0f 64 49 3d 56 3a c2 3d e2 5f 09 bc 4c a0 19 be
       0.04916769 0.09483783 -0.008384677 -0.15002555
0001b0 90 24 99 3d 11 c1 16 3e c1 76 7d bd 4e 41 93 3d
       0.07477677 0.14722086 -0.06188083 0.0719019
0001c0 64 c1 a1 3d 96 8b b3 bd 7c 7d c7 3d cc 1c e3 bc
       0.078982145 -0.08766858 0.09740731 -0.027723692
0001d0 df 82 cb bd d6 b1 f7 3d 8e f4 04 3e 36 de 17 3e
       -0.09937071 0.120944664 0.12983915 0.1483086
0001e0 e3 e9 d8 bd 80 e3 7d 3d e2 f2 27 bd ea 6b 14 3e
       -0.10591485 0.06198454 -0.041003115 0.14494291
0001f0 f6 51 26 3d cd 03 7f bd 77 6c da bd cb f9 b5 bd
       0.040605508 -0.062259484 -0.10665219 -0.08885535
000200 26 23 1d bd 95 f9 b2 3c 8c 9b ef bd 97 4b 11 be
       -0.0383636 0.021847526 -0.1169959 -0.14188991
000210 61 62 5e bc 32 bc 37 bc 73 03 d6 bc 4c 10 b7 bd
       -0.01357326 -0.011214303 -0.026124692 -0.08938655
000220 8d 62 b4 3d d5 20 0b 3e ff 08 1b bd f9 b7 4f 3d
       0.088078596 0.13586743 -0.037850376 0.05071256
000230 5a 0b 67 3d 22 7e 56 bd 80 73 16 3e d5 70 a8 3d
       0.05640731 -0.052366383 0.14692497 0.08224646
000240 b4 60 b0 3d 43 84 65 bd 9b c1 8e bd d7 c8 8b 3b
       0.08612195 -0.056034338 -0.06970521 0.0042658853
000250 cd 5e a2 bd dd d9 17 3c 30 ea d4 3d 68 79 d4 bd
       -0.07928238 0.009268251 0.1039623 -0.10374719
000260 f4 ac 26 bb fe ab 6a bd 75 57 fb bc 93 14 ea 3d
       -0.0025432678 -0.05729293 -0.030681351 0.114297055
000270 68 be 9b bd ce c3 02 be 45 1f 02 3e 07 1d 8a 3c
       -0.076046765 -0.12770006 0.12707241 0.016859544
000280 87 91 d6 3d a8 5b f7 bc 16 0d 5f 3d 7a 34 bb 3d
       0.10476976 -0.030195072 0.05445584 0.091408685
000290 f5 7c 38 3c 63 a1 f4 bd dc 7d 33 3d 3b 5f 31 be
       0.011260261 -0.119448446 0.0438212 -0.17321484
0002a0 03 b0 ba bd 76 55 9b 3d 65 3b 94 3d 63 6f 8f 3d
       -0.09115603 0.0758466 0.07237891 0.07003667
0002b0 14 05 f1 bd 02 c0 83 bc 46 9d 23 3e b6 7a 95 3d
       -0.11768547 -0.016082767 0.15977964 0.07298796
0002c0 e1 88 c5 bc d5 5c 9c 3c 14 b0 27 3e 3a 85 c6 bd
       -0.02411312 0.019087235 0.16375762 -0.0969338
0002d0 0f 9e 6d bb 65 53 24 3a 0c 99 73 bd 4d 86 9f 3d
       -0.003625754 0.000626853 -0.05947213 0.07789288
0002e0 9c 86 39 3c c1 82 2c bc e8 3c c0 3d cb 06 f8 3d
       0.011323597 -0.010529221 0.09386617 0.12110671
0002f0 af 98 1f bd a3 25 54 bd f1 ed 97 bd 8e 1d a0 bc
       -0.03896397 -0.051793706 -0.074184306 -0.019545343
000300 1b 9b cd bd 72 6c c2 3c e1 c9 f9 3c 70 19 a4 bd
       -0.1003935 0.023733351 0.030491771 -0.08012664
000310 a4 a1 6f 3d b4 bd 97 3c 3d b1 17 3d eb c1 54 bd
       0.058503762 0.018523075 0.037034262 -0.051942747
000320 4e ed 06 3e fe c1 0e be ed 62 b1 bd 3c 17 50 bc
       0.13176462 -0.1394119 -0.08661447 -0.012700852
000330 ef f9 38 bd 9e 62 16 3d ee 2f 78 bc 36 6d 64 bd
       -0.04516023 0.036715142 -0.015148146 -0.055768214
000340 9e 94 69 bc 37 0c 54 bd fe 0f 31 3d 98 ed 0e 3d
       -0.0142566245 -0.05176946 0.043228142 0.034894556
000350 38 01 f6 bd 3a 87 49 3b 82 08 c6 3c 67 9a 2d be
       -0.12011951 0.0030750767 0.024173979 -0.16953431
000360 e8 86 b3 bd 1a 8d d8 bd cc 80 d1 3d 4d 32 8d bd
       -0.08765966 -0.10573788 0.10229644 -0.0689436
000370 d4 ce 51 bc 96 3d e8 3d a5 7c 97 bc da 41 90 3d
       -0.012805659 0.113398716 -0.018492052 0.0704381
000380 27 09 fb 3d 43 ff db bb c6 7b e2 bd 74 e5 93 bc
       0.12257605 -0.006713779 -0.11058764 -0.018053748
000390 50 57 8e bd 98 b8 bf bd 9b 97 7e bc 93 db 20 be
       -0.06950247 -0.0936138 -0.015539075 -0.15708761
0003a0 f0 ea 81 bd c1 dd ba bd ed ef 19 be 60 0d 05 3e
       -0.06343639 -0.091243275 -0.1503293 0.12993383
0003b0 e8 6c 8d 3d b9 49 81 bd d1 5a 80 bc 37 32 f6 3d
       0.06905538 -0.063128896 -0.015668305 0.120212965
0003c0 38 80 17 3d f2 bf a6 3a 1d ce da 3c d4 d2 08 3e
       0.036987513 0.0012721999 0.02670961 0.13361675
0003d0 c8 9d 5d bd 86 0e 95 bc 81 ce 51 bd 2c 97 86 3d
       -0.05410555 -0.018195402 -0.051222328 0.065718025
0003e0 52 2e 1c bd 83 fc ee 3c 48 05 06 be ce 1c 2a 3d
       -0.038130112 0.029173141 -0.13087952 0.041531377
0003f0 a7 06 53 bd c3 94 b3 bd cb 6c f7 3c c3 12 1b bc
       -0.051520016 -0.087686084 0.030203244 -0.009464922

head.weight f4 [37, 768]
000000 c6 79 a8 3c 49 07 85 bd 83 7e e4 3c cd d1 ee bd
       0.020565879 -0.0649553 0.027892357 -0.1166111
000010 ee 10 e0 bd 63 4a 41 3b c4 ff 7a 3d 05 f8 e2 3d
       -0.10940729 0.00294938 0.061279073 0.11082462
000020 4f 8b 94 3d c0 a1 78 bd c1 12 a5 3d 89 dd d3 bd
       0.072531335 -0.06070113 0.08060218 -0.10344989
000030 74 93 22 3d c9 f8 a2 bd b2 46 de 3d 14 bc 58 3c
       0.039691404 -0.07957608 0.10853328 0.013228435
000040 81 91 9d bd 3f b2 92 3d 18 8d e3 3c 22 74 86 ba
       -0.07693768 0.07162904 0.02777724 -0.0010257999
000050 58 ca 85 3d 6c b6 8c bd 96 48 e2 bd 5f d8 30 3d
       0.06532735 -0.06870732 -0.11049001 0.043175098
000060 b4 09 94 3c bd ba 20 3d 4d f0 fc bd 7e 4a cf 3d
       0.018071033 0.039240588 -0.12350521 0.1012163
000070 a5 db 97 bd 1a 28 d8 bd b4 e4 cb 3d 90 af 53 3d
       -0.07414941 -0.10554524 0.09955731 0.0516811
000080 1b 2f 1d bc 14 47 10 3e 9a 48 93 3d 15 1e 66 3d
       -0.00959375 0.14089614 0.07191582 0.056181032
000090 2d 30 45 3c 7f 27 cf 3d e0 15 a4 bd 79 7b 90 3d
       0.012035412 0.10114955 -0.08011985 0.070548005
0000a0 60 2a d7 3d b8 e7 cc bd 74 b7 c4 3d ad 1a e1 bd
       0.10506129 -0.10005134 0.096053034 -0.10991416
0000b0 b3 c2 e4 bb 6a 4c d4 3d 53 1e 84 bd 7f f0 c3 bc
       -0.006981218 0.10366137 -0.064510964 -0.023918388
0000c0 1c d3 7f bd bb c3 af bd 3e 80 78 3d d9 8f 22 3c
       -0.06245719 -0.085822545 0.060669176 0.009921991
0000d0 97 85 c1 3c 2c 27 02 3e a2 17 be bd f8 47 d3 b9
       0.02362327 0.12710255 -0.09281851 -0.00040298677
0000e0 ea 7b 0b 3c cf 54 0f 3e 09 ef 7f 3b 7c ea 87 3d
       0.00851343 0.13997196 0.0039052388 0.06636521
0000f0 4f 33 c4 bd 3f bd cc 3c e3 8c fd bc 18 15 fd 3c
       -0.09580099 0.024992583 -0.03095097 0.030893847
000100 11 d7 46 bd fd 9d 8f bd 55 4c 9d 3d c2 5a 81 bd
       -0.048544947 -0.07012556 0.07680575 -0.06316139
000110 3b 53 94 3d d6 71 4d bd 84 b8 8a 3c 51 9b b1 3c
       0.072424375 -0.05015739 0.016933687 0.021680506
000120 51 90 1f 3d d9 8f bb bd 98 b3 ae bd 7f 0c f5 3d
       0.03895599 -0.09158296 -0.085303485 0.11965274
000130 73 75 8b bd 37 b0 30 bd 34 d6 e6 bd ab 1e 24 bc
       -0.06809511 -0.0431368 -0.11271325 -0.010017077
000140 d6 8e 9b 3d a0 dc 0f 3d 47 09 9b bd 09 30 55 3c
       0.07595603 0.035122514 -0.07570129 0.013011941
000150 e0 95 c0 3d 9f d3 60 3d ff df 95 bd 50 a3 13 bd
       0.094035864 0.054889318 -0.073181145 -0.03604442
000160 6c 7f 9b 3b c3 51 8d bd fc 94 9e 3d 5d 72 12 bd
       0.0047454145 -0.069003604 0.0774326 -0.035753597
000170 92 98 c8 3d af f9 ce 3d 4a 69 78 3d 4c 5b 6f bd
       0.097947255 0.10106217 0.060647286 -0.058436677
000180 bf 39 72 3d f0 d8 26 bc 40 96 a1 3d 2e 3a c0 3d
       0.059137102 -0.010183558 0.07889986 0.09386097
000190 59 83 06 3e 61 5f 6e 3d e6 5b 28 bc 9b 92 d1 bd
       0.13136043 0.05819643 -0.010275817 -0.10233041
0001a0 86 04 b3 bd 1e b7 d0 3d 13 ab 7f bd 4a 6d 80 bd
       -0.08741097 0.10191177 -0.06241901 -0.06270845
0001b0 e1 d0 e8 3d a0 87 cf bd 2c 89 61 3c 98 16 c9 3d
       0.113679655 -0.1013329 0.0137656145 0.098187625
0001c0 50 b4 d5 3c a6 05 67 3d d9 8f b4 bd 43 c8 e0 3b
       0.026086956 0.05640187 -0.08816499 0.0068598106
0001d0 85 5a 18 bd 81 82 3f bd 6f c0 dc bc 82 34 ac 3c
       -0.0371957 -0.046755318 -0.026947228 0.021021131
0001e0 05 66 6e 3d 32 4e 1d bd 37 56 63 bd c7 3b 70 bd
       0.058202762 -0.03840465 -0.055502143 -0.058650758
0001f0 fd 76 a2 bd 54 f3 7a 3c 9f ad b9 3d 4f b5 7b bd
       -0.079328515 0.015316803 0.09066319 -0.061452206
000200 04 7b 17 3c f0 d8 cd bd 1a be 9e 3c e7 52 9c bb
       0.009245638 -0.10051143 0.019377757 -0.004770625
000210 3f c3 86 3d f8 c0 5d 3c 26 35 61 bd 4f 93 96 3d
       0.06580209 0.013534777 -0.054982327 0.07352316
000220 91 fc 7d 3d ec e2 88 3d 2a f6 81 bc 1c 79 a5 3c
       0.062008444 0.06683907 -0.01586445 0.020199351
000230 17 37 c3 bc b1 fc de 3d 93 12 21 bd 07 7c b5 3d
       -0.02382998 0.10888041 -0.039324354 0.08861547
000240 79 5f 92 bd 3d 5d 08 3e 00 0f 48 3d 0b fb 25 bd
       -0.07147116 0.13316818 0.04884243 -0.040522616
000250 cc d1 89 3a 78 43 c6 bd f5 2a 81 3d 3d ff 76 bd
       0.0010514795 -0.096808374 0.063070215 -0.060302008
000260 38 ea d7 3d 44 9f e8 3d e8 cf ae 3d a8 78 84 bd
       0.105427206 0.113585025 0.08535749 -0.06468326
000270 ef 83 c6 3b 94 ca ff 3b 9c b0 d1 bd 1d 92 d8 bc
       0.006058208 0.0078061316 -0.10238764 -0.02643686
000280 90 d8 68 3d 53 5e c7 bd 32 28 be 3d 22 d6 81 3d
       0.056847155 -0.09734788 0.092850104 0.06339671
000290 70 e2 d3 bc 9f f1 a2 3b bf dd c2 3d ea 5f 0d 3d
       -0.02586481 0.004972651 0.09514951 0.0345153
0002a0 07 72 35 3d 39 53 89 3c 2e a2 07 bd 7a 29 bc 3d
       0.044298198 0.016763316 -0.03311365 0.091875985
0002b0 b1 44 f6 bd 56 a6 a9 bd 27 ce b3 3d 6f 1a 6f 3d
       -0.120248206 -0.08283679 0.08779555 0.05837482
0002c0 37 2a 84 bd fa 58 89 bd dc 7d b2 3c bf fa 6b 3d
       -0.06453364 -0.06706424 0.02178853 0.057612177
0002d0 5e bf af bb 57 d1 95 ba fe c4 17 bd 7d 7c ee ba
       -0.005363389 -0.0011430186 -0.0370531 -0.0018195059
0002e0 d5 7c b4 3d d1 18 f9 bd 86 7e ba b9 ca c4 4e bd
       0.08812872 -0.121629365 -0.00035570952 -0.05048064
0002f0 f0 d2 f6 bd d9 ea 3f 3d 88 2f a0 bc ef 52 bb bd
       -0.12051952 0.046854828 -0.019553915 -0.09146678
000300 01 b9 55 bd a4 a2 c6 3d 17 07 1a bd 12 4a 3d 3d
       -0.052178387 0.0969899 -0.037604418 0.046213217
000310 55 4c a6 3d 77 83 09 bc ec 6a 1a bc 91 56 b5 3c
       0.08120028 -0.00839316 -0.009424906 0.022136005
000320 7d 37 66 bc 5b e1 f6 3d 3e ff 8f 3d e9 a2 68 bd
       -0.014051315 0.12054702 0.070311055 -0.05679599
000330 58 7c 54 bd 77 1a ce bd c7 29 83 bd 77 eb 79 bd
       -0.051876396 -0.100636415 -0.06404453 -0.061015572
000340 11 40 57 ba d6 4c 20 b9 58 78 5d 3c de f4 1d bd
       -0.0008211146 -0.00015287413 0.013517462 -0.0385636
000350 f4 f9 5f bd 80 9d 0d 3d 20 1b c2 bd 69 22 88 3d
       -0.054681733 0.03457403 -0.0947783 0.06647188
000360 94 7e e6 bc 90 a4 d8 bd db 7e 56 bd 18 86 00 bd
       -0.028136529 -0.10578263 -0.052367073 -0.03137788
000370 68 4f 4d bd 09 8c ae bd 67 88 c5 3d e8 53 aa bd
       -0.050124556 -0.08522803 0.09645157 -0.08316785
000380 a0 b0 bd 3d 12 36 17 bd fc b9 5a bd af 4f 00 bd
       0.09262204 -0.0369168 -0.053400025 -0.031325992
000390 25 78 d8 3d 36 69 7e 3d 33 83 52 3d 59 36 8b 3d
       0.10569791 0.062112056 0.051394653 0.06797475
0003a0 88 8a e8 3b 1b be 4a 3d be 8c 70 3d f6 ed ea 3d
       0.0070965923 0.049497705 0.058727972 0.11471169
0003b0 92 1e 64 3d 1e 7d 18 bc 84 19 00 3d 8b 53 1b bd
       0.055693217 -0.009307174 0.031274334 -0.03792147
0003c0 d6 0f 96 bc 74 39 bc bd 7e 00 f0 bc 1a 82 6a bd
       -0.018318098 -0.09190646 -0.02929711 -0.05725298
0003d0 cd f0 0f 3b 7c f0 88 3c ad d5 b9 bc b0 93 4b 3c
       0.0021963597 0.016716234 -0.022684896 0.012425348
0003e0 e9 8f b3 3d 84 f9 53 bc 21 e8 84 bd e6 62 a6 bd
       0.08767683 -0.012937907 -0.064895876 -0.08124332
0003f0 3d 47 57 bd 7c 75 95 3d b2 db 21 be c8 a2 86 3d
       -0.052558172 0.07297799 -0.15806463 0.06574017

head.bias f4 [37]
000000 d6 90 fd 3a 39 54 ce bc c5 ee 54 3c e3 3f 23 3d
       0.0019345533 -0.025186645 0.01299638 0.03985585
000010 17 11 9d 3c 31 b6 01 bc 9d c0 0b bd ee d5 a6 3c
       0.019173188 -0.007916973 -0.034119237 0.020365681
000020 0d 4a 29 3d a0 8c 6f 3c a7 0e f5 bb 24 e4 51 bb
       0.041330386 0.01462093 -0.0074785533 -0.0032026852
000030 b5 af 7a bc 98 b9 23 3c f7 f1 55 3c f4 8b 91 3c
       -0.015300681 0.0099929795 0.013058177 0.01776693
000040 74 97 bb bc 06 aa ba 3c 31 d0 25 3b 16 a2 85 3c
       -0.022899367 0.022786152 0.0025301094 0.01631264
000050 fd 65 96 bc 7b 63 ba 3c fe 89 20 3d 62 ee 78 3c
       -0.018359179 0.022752514 0.0391941 0.015193554
000060 dc 13 4f 3c be 66 fa 3c e5 77 48 bc 42 4c 0a bb
       0.012639012 0.03056657 -0.012235616 -0.0021102582
000070 26 8b 0c 3c 4e 7f 8d bc ca dd 80 3c ec 47 d9 3c
       0.008578097 -0.017272618 0.015730757 0.026523553
000080 de ad c7 bc 5c 29 b8 bc a7 29 0f 3c 54 20 06 bd
       -0.024374899 -0.02248066 0.008737958 -0.032745674
000090 ac 99 66 3b
       0.003518681

FacTu.weight f4 [16, 768]
000000 2c dc bd bd 0b a8 9e bd a7 83 9b 3d 97 fc 0f bd
       -0.0927051 -0.077468954 0.0759347 -0.035152998
000010 a6 d6 d6 bd 18 0c 1e 3d 7f 93 78 3d aa 4b f0 3b
       -0.1049016 0.038585752 0.06068754 0.0073332386
000020 67 51 a1 3d 03 f2 8c bc 0e 10 d4 3c 27 d9 93 bd
       0.078768544 -0.017205244 0.025886562 -0.07219153
000030 cd ac cb 3c ea a5 92 3d d8 91 64 3d 1c 5c a4 bd
       0.024862671 0.07160552 0.05580315 -0.08025381
000040 9c 1f 15 bd 51 2c b2 3d 65 1b ef 3c f9 b0 8d bc
       -0.0364071 0.08699859 0.029187867 -0.017296301
000050 f9 c1 af 3c d3 44 05 bd 3d 56 aa bd a7 cd 31 bd
       0.021454798 -0.03253634 -0.0831723 -0.043409016
000060 87 ea 08 bc e0 ae 00 bd 72 11 89 bc 3f be b2 bd
       -0.008356697 -0.031416774 -0.016731951 -0.08727693
000070 a4 e4 2e bc 18 e9 fc 3d a6 2e 91 3c 1e 24 77 3a
       -0.010674629 0.123491466 0.017722439 0.0009427684
000080 3e 8e d2 bc ed 94 ad 3d 8c 5c 8a bd 9f 3d 66 3d
       -0.025702592 0.08475671 -0.06755933 0.05621111
000090 6e 0c 90 3d c1 6a 48 3d 0e f5 89 3d 18 86 0e bc
       0.07033621 0.048929933 0.067361936 -0.008698963
0000a0 9b 98 1a 3c 59 ce 96 3d ff 4d 65 bc b4 4a 30 bd
       0.009435798 0.073635764 -0.0139956465 -0.043039992
0000b0 82 78 78 3c 9e 18 51 bd 37 43 45 bd 4e e7 5a 3d
       0.01516545 -0.051048867 -0.048159804 0.053443246
0000c0 34 2d 2e 3d 15 f4 44 bd 0b 33 f5 3c 4d 59 71 bd
       0.042523578 -0.048084337 0.029931566 -0.058923054
0000d0 c4 91 c1 3c 7d 36 61 3c 95 bf bc 3c 76 90 04 bd
       0.023629077 0.013745901 0.023040572 -0.03236433
0000e0 45 77 0b 3e ea ef 02 3d 8a b6 6e 3c f4 b3 0e bd
       0.13619716 0.03196708 0.014569888 -0.034839585
0000f0 e4 2c f0 bc ee f4 35 bb 7e 10 ce bb 5c 5e 45 bd
       -0.02931828 -0.0027764398 -0.006288587 -0.04818569
000100 60 78 3b bd ee 58 90 bd 25 ce c8 3d f4 4d 8e 3d
       -0.045769095 -0.07048212 0.09804944 0.06948462
000110 9f 35 f6 bc f0 28 a5 3c cb 79 1d bc 5a 5d e3 3c
       -0.030054865 0.020161122 -0.009611557 0.027754474
000120 d8 f9 f2 bc d3 ac 9f 39 23 59 b0 bc 55 59 26 3d
       -0.02966015 0.00030455607 -0.021526879 0.040612537
000130 6b 23 54 3d d9 08 a3 3d 3a 44 e7 3c 8c 6f 31 bd
       0.05179159 0.07960672 0.028230775 -0.04331927
000140 63 bb 9f 3c 4c cb 06 bd be 90 ad 3d 34 c7 dd b9
       0.019498533 -0.032908723 0.08474873 -0.00042300823
000150 6e e5 c0 3b 95 6a 24 3c 7b d6 11 3d 5b d5 50 bd
       0.005886725 0.010035177 0.035604935 -0.05098472
000160 ef 23 01 bb ce 84 f9 bc c9 34 07 bd dd 16 93 bd
       -0.0019705256 -0.030458834 -0.033009324 -0.07182095
000170 00 f5 1b be 08 63 a6 3d 0d d2 69 3c a4 ea 9e 3b
       -0.15230179 0.081243575 0.014271271 0.0048497487
000180 ff 18 5a 3c 5b f4 10 3d 36 90 9d 3d 63 65 da 3d
       0.013311624 0.035389286 0.07693522 0.10663869
000190 0f 5a 55 3d df 00 06 bd f1 6f c1 bd 5d cc de bb
       0.05208784 -0.032715674 -0.09445179 -0.0067992643
0001a0 fc 91 77 bd 11 ac 8c bd 4c c8 95 bc c0 5a 79 3d
       -0.060441956 -0.068687566 -0.018283986 0.06087756
0001b0 96 9c 66 3d 5f 15 c0 3c c9 9c 67 bd 73 f8 d1 bb
       0.056301676 0.02344769 -0.056546006 -0.0064077913
0001c0 17 ad 81 bc 4b d9 45 3d 0c 9e c0 3c 65 2d 0e bd
       -0.015829606 0.04830293 0.023512863 -0.03471126
0001d0 7a 10 32 3c d6 63 4d bc 49 0f ab bd 92 b5 5b bd
       0.010868186 -0.01253601 -0.08352525 -0.053639956
0001e0 90 5c 02 3e 8d 75 b9 3d ce 63 e1 3c 2a 38 09 bd
       0.12730622 0.09055624 0.02751341 -0.033500828
0001f0 30 e7 ba bc 79 00 f9 3c d4 f3 82 bd 2c 78 ec bd
       -0.022815317 0.030395733 -0.06394163 -0.115463585
000200 be 3f 27 3c bb 59 fb bc 49 35 b0 bc ff f7 65 3d
       0.010208068 -0.030682435 -0.021509783 0.05614471
000210 77 03 22 bd f2 b6 06 bd 3f b9 4f bd 66 fc 93 3d
       -0.039554086 -0.032889314 -0.050713774 0.072258756
000220 cc e8 df 39 76 52 82 bd c7 55 10 bd 46 99 b1 bd
       0.00042707322 -0.063633844 -0.035238054 -0.08671813
000230 bb 56 79 bd 0b 30 b0 bd ed 41 14 ba 43 76 7d bd
       -0.06087373 -0.086029135 -0.00056555757 -0.06188036
000240 01 81 a8 3d 45 33 72 3d 78 a7 5a bd d4 d6 c2 bc
       0.082277305 0.059130926 -0.053382367 -0.023784079
000250 26 fe 71 bd b4 be 8f bb 24 0c be 3d 31 2b 3d 3d
       -0.059080265 -0.0043867473 0.092796594 0.04618377
000260 d6 25 34 bd 9d 5c ad bc e6 e7 01 bd 89 30 2e bd
       -0.043981396 -0.021162326 -0.031715296 -0.042526755
000270 fa 3e 08 bd d8 22 6d bd 19 45 33 bd 85 b0 c8 bd
       -0.033263184 -0.057894558 -0.04376707 -0.097992934
000280 2a 6b 0a 3d 54 69 ba 3c 91 5f 10 3b 12 2b b2 3c
       0.033793606 0.022755302 0.0022029618 0.021749053
000290 53 67 b5 3d 46 e6 1e bc c7 98 0e bc bd fa 5f 3c
       0.08857598 -0.009698456 -0.008703417 0.0136706205
0002a0 89 b9 48 ba a4 5f 28 bc b0 a4 85 bc e2 93 e1 bc
       -0.00076570414 -0.010276709 -0.01631388 -0.027536336
0002b0 9a da 92 3b 6f b4 a8 3c b7 70 6e 3d 8f 41 0d bb
       0.0044816257 0.02059385 0.058212962 -0.0021553969
0002c0 8a 57 10 3d ff db 37 bc 56 8c a9 3b 58 b4 1d 3d
       0.035239734 -0.011221885 0.0051742 0.038502067
0002d0 02 67 8f 3d d6 dc 00 3d 9a bf 82 bc 28 0a 85 bd
       0.07002069 0.031460606 -0.015960503 -0.06496078
0002e0 c9 ed ab bd c5 af a9 bd 3d e7 de 3c 5e 20 cb 3d
       -0.08394963 -0.082854785 0.027209872 0.09918283
0002f0 d4 5c b0 bd d8 25 fb 3c 6e 98 22 bd 51 dc b5 3c
       -0.086114556 0.030657694 -0.03969615 0.022199782
000300 69 a3 99 3d 9d fa de bc 7f 5e 54 bd a8 39 9a bd
       0.07501871 -0.027219111 -0.05184793 -0.07530528
000310 20 cf d4 bb 8c 97 04 bc b6 f9 ce 3c 05 c0 06 bd
       -0.006494418 -0.008092772 0.025265556 -0.032897968
000320 ce 24 36 3c 79 ad 4e 3c 79 a8 19 bd 57 a7 42 bc
       0.011117173 0.012614601 -0.037514184 -0.011880717
000330 4f 16 b3 bd cf 19 98 bd 18 b2 46 3c b5 79 6f bd
       -0.087444894 -0.074267976 0.012127422 -0.05846568
000340 88 9c 8e 3d b3 05 fb bb 94 2d b3 bd c3 f3 75 3d
       0.0696345 -0.0076605915 -0.08748928 0.060046922
000350 6b 2e 7a 3d 5b b4 17 3d 94 a9 d8 bd bc 79 fd bd
       0.061079424 0.037037235 -0.105792195 -0.123767346
000360 a4 3d 19 3d b1 eb 06 bd 1c d2 35 3d 47 91 1f 3d
       0.0374123 -0.032939617 0.04438983 0.038956907
000370 f3 95 7b 3c 06 e9 a5 bd 74 fc c1 3c e3 71 99 b9
       0.015355575 -0.08101086 0.02367995 -0.00029267286
000380 76 5f 59 bd 78 72 b1 3c 22 ed 1d be 6b 43 34 bd
       -0.053069554 0.021661028 -0.1542249 -0.044009607
000390 99 9f 4b bc f2 a6 81 bb f5 a6 2d 3d 4c cc 4a 3c
       -0.012428188 -0.003956669 0.04239555 0.01237781
0003a0 76 13 93 bd ff 92 e4 3c 7a ea 91 bc b6 0c 25 3d
       -0.07181446 0.027902124 -0.017812002 0.040295325
0003b0 af 31 98 3c 9f 32 71 bd 88 b5 b8 3d 56 05 c8 bd
       0.018578378 -0.058886167 0.09018999 -0.09766643
0003c0 48 4f 62 bc 79 e1 a0 bd f8 37 98 3c 11 17 5c 3d
       -0.013812847 -0.078555055 0.018581375 0.053732935
0003d0 5a 12 d1 3d 4f 61 2c 3c 38 c7 26 3d d6 90 27 bd
       0.102085784 0.010521247 0.040717334 -0.04090961
0003e0 65 9f 19 bd ad 58 42 ba 0b e4 80 bd 1c 95 34 3d
       -0.037505526 -0.00074137264 -0.06293496 0.044087514
0003f0 39 7d 09 3d 46 f2 06 bd 71 ee 57 bd 93 cf 5e 3c
       0.033566687 -0.032945894 -0.05271763 0.013599294

FacTv.weight f4 [768, 16]
000000 96 eb 63 bc 37 00 32 bd 5a 9d 8c 3c cd f2 3f bc
       -0.0139111485 -0.043457236 0.017164875 -0.011715603
000010 6b cf 77 3b b0 7b ec bc 5e 0e 55 3a b7 3b 79 bc
       0.003781284 -0.028867573 0.0008127446 -0.015211991
000020 22 76 9c bb 61 1c 50 3b b8 20 b0 bc ca 5e d7 3b
       -0.0047748247 0.0031755196 -0.021499977 0.006572579
000030 f1 d6 dd 3a 0e a7 ba bc bc 99 97 bc aa 20 5d bc
       0.001692502 -0.022784736 -0.018505923 -0.013496557
000040 0d 8d 0c 3d bd ae 03 bd e8 98 49 3c a6 90 b0 3c
       0.034314204 -0.032149065 0.012304522 0.021553349
000050 3e 32 db 3c 07 5e 48 bc 90 62 f5 3c 9a bf de 3b
       0.026757356 -0.012229449 0.029954225 0.006797743
000060 cd b2 27 bc fc f3 22 3c 8b e5 5f 3b 04 f7 56 bd
       -0.0102355005 0.009945866 0.0034163918 -0.052481666
000070 a7 5b 98 3c 4c 6a 1f 3c 29 58 72 bb 96 da 9d 3b
       0.01859839 0.009729933 -0.0036978817 0.0048173172
000080 52 f3 35 bc b0 5a 8b 3c 76 0e 9a 3c 5a fa d4 bc
       -0.011105375 0.017011017 0.018805724 -0.025998283
000090 b6 04 86 3b c2 38 d8 bc 77 77 f5 3b a0 4d 78 bc
       0.004089917 -0.026394252 0.007491048 -0.015155226
0000a0 f3 ca 00 bd c9 e5 8b 3c 30 22 59 3d 85 5e ac bc
       -0.031443547 0.017077344 0.05301112 -0.021041164
0000b0 aa 0a 51 3c 06 b5 69 bc 3b 24 4f bc df d5 aa bb
       0.01275889 -0.014264351 -0.012642915 -0.0052134837
0000c0 8e 1c bd 3c dc 24 dd b9 30 07 30 bb 03 32 1f bd
       0.023084905 -0.00042179867 -0.0026859753 -0.038866054
0000d0 d1 d6 19 bd e1 27 01 bd af 97 17 bd be 1b c1 bb
       -0.03755838 -0.031532172 -0.03700989 -0.0058931997
0000e0 eb 70 ab 3c 38 a6 75 bc 65 a5 55 3d b9 02 80 3c
       0.020927867 -0.014993243 0.052159686 0.015626298
0000f0 d5 63 88 3a 24 4d 18 bc 41 69 07 3d b3 db c9 bc
       0.0010405729 -0.0092957355 0.033059362 -0.024640894
000100 fe 06 4d 3c 96 b9 5a 3b 15 3d 02 3d ca 86 15 3d
       0.012513874 0.0033374778 0.031796534 0.036505498
000110 8e d9 8d bc d0 64 2d 3c 3d 78 e2 bc 82 28 71 3c
       -0.017315652 0.010583118 -0.027645225 0.0147191305
000120 a5 98 46 bb ee 5f 2f bc 11 42 3d 39 4a 03 78 3b
       -0.0030303386 -0.010704024 0.00018049056 0.0037843757
000130 92 bf 9f 3c 20 4a 83 3c 75 ad 06 bd b8 d7 c8 3b
       0.019500528 0.016026556 -0.032880265 0.0061292313
000140 aa 86 aa bc 09 37 b6 3c 44 8e a2 bb da b0 a4 bb
       -0.020816166 0.02224304 -0.004960807 -0.005025965
000150 25 9b 04 bd 5f 65 c3 bc 85 0e 36 bc 2a 1f 40 3d
       -0.03237452 -0.023852048 -0.01111186 0.04690472
000160 2a 61 5d 3c 86 24 2b bc 67 c5 18 bb a3 06 1e bd
       0.013511935 -0.01044572 -0.002331102 -0.038580548
000170 5a 74 04 bc 26 a4 a9 bc f0 5c e1 bb 40 5b 79 bc
       -0.008084381 -0.020708155 -0.006877534 -0.01521951
000180 04 4c 1a 3d 51 58 e5 bb 03 55 16 bd c9 c4 4d 3b
       0.03767015 -0.0069990535 -0.036702167 0.003139781
000190 1d d6 e5 bc 49 72 0f bd ac 41 1c bc 65 05 75 bc
       -0.028056199 -0.0350211 -0.009537142 -0.014954899
0001a0 3b 41 ce 3c 23 c1 84 3c f4 ae c6 bc 0a 31 8f 3d
       0.025177589 0.016205376 -0.024253346 0.06991775
0001b0 d6 38 b7 bc 81 ac fa bc 16 0a 72 3d 53 1d c5 3b
       -0.022365969 -0.030599834 0.05909165 0.0060154586
0001c0 fd 8a 96 bb be 55 9b 3a 9a 37 86 3c f2 62 b7 3a
       -0.0045942054 0.0011851115 0.016383935 0.001399128
0001d0 20 57 fb bc 7c 4f 5e bc 62 8c 7e ba 56 f6 37 3c
       -0.030681193 -0.013568755 -0.000971025 0.011228165
0001e0 a2 cc 54 3c 35 b4 70 bc 77 f0 e2 bc d6 96 9f 3b
       0.012988241 -0.014691402 -0.027702553 0.004870276
0001f0 82 72 19 3c 63 88 5b bc 48 a6 fe 3b ce 68 8a 3c
       0.00936568 -0.013399216 0.007771287 0.016895678
000200 99 79 00 3c 03 e0 5e bd 9a e6 ec bb 6e 2b 8c bc
       0.007841491 -0.054412853 -0.0072296383 -0.017110553
000210 07 58 10 bd 1a 55 0c 3d d9 16 00 3d 54 07 c1 bc
       -0.0352402 0.034260847 0.03127179 -0.023563065
000220 f4 6e 0f 3c f3 97 08 bc 96 8f b0 3c 49 f9 c7 bc
       0.008754481 -0.008337009 0.021552842 -0.02441086
000230 b0 96 ea 3c 43 9c 28 3c d5 3f d6 3c 58 83 a3 3c
       0.028636307 0.010291162 0.026153484 0.01996009
000240 2c f1 17 3d 83 ab 18 3d d6 9d e4 bc 9e b1 6e bb
       0.037095234 0.03727294 -0.027907293 -0.0036421786
000250 6e 7a bf 3b 40 98 16 3c 97 22 70 bb 92 b6 9e b9
       0.005843452 0.009191573 -0.003664171 -0.00030272134
000260 06 38 ec 3c 83 b6 7a bc 03 58 38 bc b2 34 03 bd
       0.028835308 -0.015302303 -0.011251452 -0.032032676
000270 21 71 b0 bc 49 0d 6f bd cc 88 3d 3d 1b 28 4a 3d
       -0.021538319 -0.05836228 0.046273038 0.049354654
000280 b1 13 d5 bc bd 76 d9 3b 9a 9b 93 3c d0 7e bd 3c
       -0.026010366 0.006636469 0.018018533 0.023131758
000290 2f 50 b1 3c 48 7d e7 bb ee 24 44 3c 4e 14 88 bc
       0.02164468 -0.0070644952 0.011971695 -0.016611245
0002a0 62 1d 4f bc b1 62 13 3d 26 c9 39 3d ff 48 04 bb
       -0.012641283 0.03598279 0.045357846 -0.002018511
0002b0 46 97 9d 3b 21 e8 e3 3c cb 79 55 3c 2d 16 89 3c
       0.004809293 0.027820649 0.013029526 0.016734207
0002c0 a1 cb 4e bc cb a2 5b 3b 73 dd 89 bc b8 4c fb 3c
       -0.012621791 0.003351378 -0.016829228 0.03067623
0002d0 50 c8 b8 3b 14 f3 de bc 98 ef de 3c e5 99 b3 bc
       0.0056391135 -0.027215518 0.027213857 -0.021923969
0002e0 55 6f df bc 17 f9 64 3c bc 24 a4 3c e0 ae 28 bc
       -0.027274767 0.013975403 0.020037048 -0.0102956
0002f0 15 b9 dd bb d4 b7 2e 3c 2a 5d 2f bc 6b 56 b0 3a
       -0.0067664483 0.010663945 -0.010703364 0.0013453489
000300 8a 4c d8 bc bc f8 3f bc a9 1f ac bc 62 90 d2 3c
       -0.026403684 -0.011717018 -0.02101119 0.025703613
000310 24 f9 8c bc 87 9b c8 bc 56 06 89 bc 95 c6 bd 3b
       -0.017208643 -0.024488224 -0.016726654 0.005791495
000320 68 fd 60 3b 90 4b dc 3b 80 4a 45 bc a9 5c 0e bd
       0.003433073 0.006722875 -0.012041688 -0.034756336
000330 de a2 89 bb 18 19 cd bb 8f eb e0 bc 2b 49 ea 3c
       -0.0042003235 -0.006259095 -0.027456073 0.028599342
000340 33 72 34 ba 2d 55 bf 3c 02 bd a9 3b 29 97 37 bd
       -0.0006883472 0.023356045 0.005180002 -0.044821892
000350 4a a3 f5 3b ab 44 fb bc e9 b0 8e 39 a4 4e 2c bd
       0.007496272 -0.030672392 0.0002721616 -0.042067185
000360 37 75 92 3c 9d c1 32 3c f2 5a 71 3c 63 ad 01 3d
       0.017878158 0.010910419 0.014731156 0.031659495
000370 9e de a1 bc 49 5b 6c bc dc 7c d0 bc 27 b4 e2 bc
       -0.019759472 -0.014426061 -0.025450163 -0.027673794
000380 13 4c 23 3d 59 3c 10 bd 60 e4 29 3c 26 4d 40 3c
       0.039867472 -0.035213802 0.01036939 0.011737144
000390 4e 15 7a ba bd e5 ea 3c d7 6d 68 bc 76 8f 89 3c
       -0.0009539918 0.028674 -0.014186344 0.01679204
0003a0 d0 fe a4 3c 96 0f 58 3b bf b8 8b 3b 97 f9 0d b9
       0.020141035 0.0032968274 0.004263967 -0.00013539787
0003b0 8e 2f ed 3c b1 19 84 3c 4d b0 68 bb f1 e7 f7 3a
       0.02895334 0.016125532 -0.0035505474 0.0018913728
0003c0 2b 94 d5 bc e6 da 1f bc e6 e9 66 3b 5e 18 0f bc
       -0.026071629 -0.009756779 0.003523463 -0.008733837
0003d0 47 b8 9e 3c d2 4e 81 bd 2b 2c 22 bd 2d ea 06 3d
       0.01937498 -0.06313862 -0.039592903 0.03293817
0003e0 27 68 3d 3d 66 39 94 3c 1a fc 80 bd 4e fe 83 bc
       0.046241906 0.018093776 -0.062980846 -0.016112473
0003f0 f9 c0 11 39 c3 64 e9 3b 0a 9f 81 bc 2a be 16 bd
       0.00013900166 0.0071226074 -0.015822906 -0.03680245
