Final Project/FacT-TK/patch_camelyon_best.pt (torch, 354071 bytes, 6 tensors)

FacTp f4 [32, 144]
0	0xbe7fa1e3	-0.24964099
1	0xbe394e40	-0.18096256
2	0x3d86fb0b	0.065908514
3	0xbddb9651	-0.1072203
4	0xbe55aa51	-0.20865752
5	0xbc146d02	-0.009059193
6	0xbdfd9466	-0.123818204
7	0xbd87e5d9	-0.06635637
8	0x3da9b26a	0.08285983
9	0xbd24808d	-0.040161658
10	0xbdbec3f7	-0.09314721
11	0xbdbf8d57	-0.0935313
12	0x3dbd771f	0.09251236
13	0xbe15e4f9	-0.14638127
14	0xbddafbf8	-0.106925905
15	0x3e3b5276	0.18293175
16	0x3e3ac4f0	0.18239188
17	0x3d992bcd	0.074790575
18	0xbe1d6ac4	-0.15372759
19	0xbd8c5781	-0.068526275
20	0xbe074ef9	-0.1321372
21	0x3d984549	0.0743509
22	0x3e418302	0.18897632
23	0x3c290699	0.010316514
24	0xbdf097d8	-0.11747712
25	0xbbbd01ad	-0.005768022
26	0x3e41f9b8	0.18942916
27	0x3d9722fc	0.073797196
28	0xbe057557	-0.13033043
29	0x3e8106cc	0.25200498
30	0x3d9627dd	0.07331822
31	0xbccd844a	-0.025087494
32	0xbd03f314	-0.03221424
33	0xbdd5187c	-0.10405061
34	0xbddb330c	-0.10703096
35	0xbde38f0e	-0.1111127
36	0xbc07a05a	-0.008277977
37	0x3c9351f7	0.01798342
38	0x3cd8ea88	0.02647902
39	0x3d8b5e0e	0.06805049
40	0xbdb6bcdc	-0.08922741
41	0xbc021687	-0.007939941
42	0x3dcae72e	0.09907375
43	0xbd862e2f	-0.065517776
44	0xbe035ec6	-0.12829122
45	0x3e193510	0.14961648
46	0xbda9fb16	-0.08299844
47	0xbdd256c1	-0.10270453
48	0x3d1944c9	0.037419114
49	0xbdde0cdb	-0.10842296
50	0x3e147acb	0.14499967
51	0xbd7f99d8	-0.062402576
52	0xbcc3a3b1	-0.023881765
53	0x3c4a96bb	0.0123650385
54	0x3e0e83b0	0.13917422
55	0xbdb5bfd6	-0.088744804
56	0x3e084929	0.13309158
57	0x3d045afc	0.032313332
58	0xbcf5b534	-0.029993631
59	0x3e3be371	0.18348481
60	0x3dbc3e00	0.09191513
61	0x3e27ef5f	0.16399907
62	0xbda5984a	-0.080856875
63	0x3e1dd9a8	0.1541506
64	0x3e2f6afd	0.17130657
65	0xbd6fa68d	-0.058508445
66	0xbd8226be	-0.06355046
67	0xbe2d0282	-0.16895488
68	0xbd96e5c2	-0.073680416
69	0xbe081a41	-0.13291265
70	0xbdc14444	-0.09436849
71	0x3d3ac457	0.0455974
72	0xbd9e2cf4	-0.07723418
73	0xbe218f10	-0.1577723
74	0x3cc14f15	0.02359728
75	0xbc1115b8	-0.008855276
76	0xbca20380	-0.01977706
77	0xbe0cd4f1	-0.13753106
78	0x3d60125b	0.054705005
79	0xbe198769	-0.14993061
80	0xbdd84928	-0.105608284
81	0x3da9c94d	0.08290348
82	0xbd555f89	-0.052093063
83	0x3dc3b53f	0.09556054
84	0xbe46256e	-0.19350216
85	0x3d9f4bc6	0.077781245
86	0x3c4703b8	0.012146883
87	0x3e5bb89a	0.21457139
88	0x3d11353e	0.035451166
89	0x3e3738bc	0.17892736
90	0x3d5cf294	0.053942278
91	0x3d44aec0	0.048018217
92	0x3dc9e0ba	0.09857316
93	0x3e4584ce	0.19288942
94	0x3e115afc	0.14194864
95	0xbe264ce3	-0.16240267
96	0x3d564080	0.052307606
97	0x3e38018f	0.17969345
98	0xbdeede93	-0.116635464
99	0x3da7cbc0	0.08193159
100	0xbdb01c73	-0.08599176
101	0xbde74ace	-0.11293565
102	0xbe48ede5	-0.19622
103	0xbd40b467	-0.047047045
104	0x3e09a7ba	0.13442889
105	0x3e2d36b0	0.16915393
106	0x3db24634	0.087047964
107	0xbd38d5b0	-0.045125663
108	0xbe3aade5	-0.18230398
109	0x3d9dac97	0.076989345
110	0xbe035a3a	-0.12827387
111	0xbc8e76f8	-0.017390713
112	0xbe32e743	-0.17471032
113	0xbe0fb2b1	-0.14033009
114	0xbe0bc597	-0.13649593
115	0x3e25ef47	0.16204558
116	0xbe52d4ba	-0.20588961
117	0x3c95d886	0.018291723
118	0x3de35a39	0.11101193
119	0xbe0c4d89	-0.13701452
120	0x3e28e74e	0.16494486
121	0x3e703835	0.23458941
122	0x3e08d700	0.13363266
123	0xbe23ede5	-0.16008718
124	0xbe367533	-0.17818145
125	0xbd629f98	-0.05532798
126	0x3e0eb89a	0.13937607
127	0xbd1b4e1c	-0.037916288
128	0xbc1b77ae	-0.009488983
129	0x3e47213f	0.19446276
130	0xbe5c2f9f	-0.21502541
131	0xbda6bea4	-0.081418306
132	0xbe05dcc5	-0.13072498
133	0x3e60fd9b	0.21971743
134	0xbd7e31c0	-0.062059164
135	0xbe04ec20	-0.129807
136	0xbd92db7b	-0.07170769
137	0x3e069af4	0.13145047
138	0x3e405b15	0.18784745
139	0x3d1b7fba	0.037963606
140	0x3dabf846	0.08396964
141	0xbde6c2ec	-0.11267647
142	0x3e3cbb5c	0.18430847
143	0x3e0036b8	0.12520874
144	0x3ddba309	0.10724456
145	0xbc0b93ec	-0.008519154
146	0xbe32368c	-0.1740362
147	0xbdd38597	-0.103282146
148	0x3daeb784	0.085310966
149	0xbcf0793f	-0.02935469
150	0xbd9028f6	-0.07039063
151	0x3d60bde5	0.054868598
152	0x3ddd99ce	0.108203515
153	0xbe4daa81	-0.20084573
154	0xbd2b0d1e	-0.041760556
155	0xbe4124cd	-0.18861695
156	0x3d925da1	0.071467645
157	0xbe7002ea	-0.23438612
158	0xbe1e12d8	-0.15436876
159	0x3e18f188	0.14935887
160	0xbd7d4e59	-0.061842296
161	0xbd8d6ff7	-0.06906121
162	0x3d1a09db	0.037607055
163	0xbdfa813b	-0.1223168
164	0x3d3fc2b4	0.046816543
165	0xbe3ffe95	-0.18749459
166	0xbe3fa3be	-0.18714806
167	0xbdf73b60	-0.12071872
168	0x3d1e8202	0.038698204
169	0x3d882ca5	0.0664914
170	0xbba1db02	-0.004939438
171	0xbdd50cbc	-0.104028195
172	0xbe10c6dc	-0.14138359
173	0xbe0d6814	-0.13809234
174	0xbe383556	-0.17989096
175	0xbe2656e0	-0.16244078
176	0x3db44836	0.08802836
177	0x3e18f573	0.14937381
178	0xbe404288	-0.1877538
179	0x3cc81302	0.024423126
180	0x3c7e8c9b	0.015536453
181	0xbd8fd652	-0.070233
182	0x3cada689	0.021197574
183	0xbe014fb9	-0.12628068
184	0x3ded4701	0.115858085
185	0xbc287f68	-0.010284282
186	0x3e1f1a29	0.15537323
187	0xbb976dc0	-0.0046212375
188	0xbe30036c	-0.17188805
189	0xbc6398c2	-0.013891401
190	0x3e0b97f1	0.1363218
191	0x3cc4d246	0.024026047
192	0x3e126c14	0.14299041
193	0x3da1291e	0.078691706
194	0x3de986ed	0.11402688
195	0xbd63db0c	-0.05562882
196	0x3d3591c8	0.04432848
197	0x3984a5a0	0.00025300402
198	0x3d42bd8a	0.04754404
199	0x3dd7dc41	0.10540057
200	0x3df674a3	0.120339654
201	0xbe062758	-0.13100946
202	0xbda12e3a	-0.07870145
203	0xbdc636ed	-0.09678445
204	0xbe3e45a4	-0.18581253
205	0xbde5b3e2	-0.112159505
206	0x3de6d269	0.11270601
207	0x3d105e49	0.035246167
208	0xbe663be2	-0.22483781
209	0x3e16d514	0.1472972
210	0x3dace2ae	0.08441673
211	0xbd0a73f8	-0.033802003
212	0x3e689595	0.22713311
213	0x3d0094a2	0.031391747
214	0xbcc1fc6f	-0.02367994
215	0x3e3fbb2b	0.18723743
216	0x3e3440f7	0.17602907
217	0x3df1b67d	0.11802385
218	0x3d9bb4f4	0.076028734
219	0xbc60e382	-0.013726117
220	0xbd98d08e	-0.07461654
221	0x3e20f1b5	0.15717204
222	0xbd2df48d	-0.04246955
223	0x3daf2355	0.08551661
224	0xbe469486	-0.19392595
225	0xbe0e7609	-0.13912214
226	0xbceff0e1	-0.029289665
227	0xbc1c1ae6	-0.009527897
228	0xbc96a7f2	-0.01839063
229	0x3d82fbfe	0.0639572
230	0x3d8e7dbb	0.06957575
231	0xbe174303	-0.14771657
232	0x3c7784e9	0.015107372
233	0xbda4f423	-0.08054378
234	0xbe4ec00d	-0.20190449
235	0xbe267eaf	-0.16259263
236	0xbe800330	-0.25002432
237	0x3e3b1a6c	0.18271798
238	0xbd458670	-0.048223913
239	0x3e413630	0.18868327
240	0xbe0537c6	-0.13009557
241	0xbe76a0b9	-0.24084748
242	0xbd9af2f8	-0.07565874
243	0x3d5d3a57	0.054010715
244	0xbca90ce2	-0.020636026
245	0x3e4f076f	0.2021768
246	0xbe37dfba	-0.17956439
247	0x3e5338c3	0.20627122
248	0xbe4fcc5d	-0.20292802
249	0xbd023130	-0.03178519
250	0xbe2e2f60	-0.1701026
251	0xbe5feb12	-0.21867016
252	0xbdc3db14	-0.0956327
253	0x3d794aae	0.060862236
254	0xbdf2af65	-0.1184986
255	0x3e51e882	0.20498851

FacTc f4 [32, 32, 32]
0	0xbc1c0c33	-0.009524393
1	0xbc117074	-0.008876909
2	0xbd59792d	-0.053094078
3	0xbdd59b67	-0.10430031
4	0xbd501661	-0.050802592
5	0x3d1ea674	0.03873296
6	0xbd311219	-0.04323015
7	0xbd2debda	-0.042461254
8	0x3ca7e706	0.020495903
9	0x3c6e4bab	0.014544408
10	0x3c1702c3	0.009216967
11	0x3aee6185	0.0018187022
12	0xbd54f9c2	-0.051996
13	0x3d5f2b19	0.05448446
14	0xbd00b75c	-0.031424865
15	0xbd5899fd	-0.05288123
16	0x3c27f99b	0.010252382
17	0xbd2123df	-0.03934085
18	0xbc4f68b3	-0.01265924
19	0x3ce5c04e	0.0280458
20	0xbcaaebaf	-0.020864336
21	0x3c151d98	0.009101294
22	0x3c5fd8fd	0.013662574
23	0x3c8117da	0.015758444
24	0x3c7867d0	0.01516147
25	0xbb5a295a	-0.0033288808
26	0x3cbae9e9	0.022816615
27	0x3d6fd5c9	0.05855349
28	0x3dded209	0.10879905
29	0x3d92de97	0.07171362
30	0xbd19eafe	-0.03757762
31	0x3c074d89	0.008258232
32	0x3d21c509	0.039494548
33	0xbdb74191	-0.08948053
34	0xbc6351bf	-0.01387447
35	0xbd4a9af4	-0.04946418
36	0x3cc28406	0.023744594
37	0xbd5a341a	-0.053272344
38	0xbcffdda3	-0.031233614
39	0x3c33b171	0.010967598
40	0x3d8ae940	0.0678277
41	0x3ccab27e	0.024743315
42	0xbd933ff7	-0.07189935
43	0xbc18ef1a	-0.00933435
44	0xbd5663e6	-0.052341364
45	0xbcd0c1bf	-0.02548301
46	0xbcb30c33	-0.021856403
47	0x3d14b12a	0.03630177
48	0xbd3b35b3	-0.04570551
49	0x3c0a6e09	0.008449086
50	0xbcb0a31c	-0.021562152
51	0xbd7db71c	-0.061942205
52	0xbbb1879c	-0.005417777
53	0xbd947456	-0.07248752
54	0xbd28fb2a	-0.041255154
55	0x3d8d978e	0.069136724
56	0x3cb2716a	0.021782596
57	0xbcbaa017	-0.022781415
58	0x3c5dcd46	0.0135377105
59	0xbd02d821	-0.031944398
60	0xbc41b9f7	-0.011824123
61	0xbd117efb	-0.03552149
62	0x3bb0560f	0.0053813527
63	0x3c87bdea	0.01657005
64	0x3b4fc583	0.003170342
65	0xbd88bc8f	-0.0667659
66	0x3b9afac6	0.0047296016
67	0xbc805241	-0.015664222
68	0xbd5d8c82	-0.054089077
69	0xbd08396b	-0.033257883
70	0x3c5cdc59	0.013480269
71	0xbdf960a1	-0.121766336
72	0x3d2d5851	0.042320553
73	0x3d9bac92	0.076012745
74	0xbc941ff5	-0.018081645
75	0xbe036a11	-0.1283343
76	0x3c022e69	0.007945635
77	0x3bbd1567	0.0057703736
78	0x3ce1b010	0.027549773
79	0xbce280d2	-0.027649317
80	0x3d083c71	0.033260766
81	0x3da10530	0.078623176
82	0x3c1fc4fe	0.009751556
83	0x3d8ed61b	0.06974431
84	0xbd73f904	-0.05956365
85	0xbc2e3a4e	-0.010634018
86	0x3c8709b3	0.016484117
87	0x3b5ffe88	0.0034178812
88	0xbd6665ea	-0.056249537
89	0x3ce1d2e3	0.027566379
90	0x3d38ce73	0.04511876
91	0xbda74e74	-0.081692606
92	0x3d6f9616	0.058492742
93	0xbbf63f02	-0.0075148353
94	0x3a763a1b	0.00093928137
95	0xbceaf713	-0.028682267
96	0xbcdc271f	-0.026874123
97	0xbca338b7	-0.019924505
98	0x3babed0f	0.0052467654
99	0x3d278166	0.04089489
100	0xbcc084a7	-0.023500754
101	0xbd6416c4	-0.055685773
102	0x3dd980b8	0.10620254
103	0x3d40faa7	0.04711404
104	0xbc849c2e	-0.016187754
105	0xbdeec544	-0.11658719
106	0x3c99b1ec	0.018761598
107	0x3cf23439	0.029565917
108	0x3c54494b	0.0129569275
109	0x3c34933b	0.011021431
110	0xbc23aa01	-0.009989263
111	0xbca72ddb	-0.020407608
112	0xbd36b1ae	-0.044603042
113	0xbc9da2e7	-0.019242717
114	0xbc1902d0	-0.009339049
115	0xbdea3f18	-0.114378154
116	0x3b308c6c	0.0026939167
117	0x3d2dac96	0.04240092
118	0xbcc769c3	-0.024342423
119	0xbd1f037d	-0.038821686
120	0xbbb0f0e1	-0.0053998088
121	0x3cc01e73	0.02345202
122	0xbcd88bbf	-0.026433824
123	0x3cfb12a8	0.030648544
124	0x3d494682	0.049139507
125	0xbcf7ccc7	-0.030249013
126	0x3d65d7c2	0.056113966
127	0x3cdb7709	0.026790159
128	0x3b59bb77	0.003322331
129	0x3d0ddb45	0.03463294
130	0xbbd09062	-0.006364868
131	0x3d8ac7e2	0.06776406
132	0xbd20defc	-0.039275154
133	0xbce3d885	-0.027813205
134	0x3da48630	0.08033407
135	0xbb18d3ec	-0.0023319675
136	0x3cd975d6	0.026545446
137	0x3bb2d0cc	0.0054570194
138	0xbd8daaab	-0.06917318
139	0xbba0dd10	-0.004909165
140	0x3dc442b3	0.09583034
141	0xbd9bd77f	-0.07609462
142	0xbcb24589	-0.021761673
143	0x3d12665b	0.035742145
144	0xbc070619	-0.0082412
145	0x3d14bc33	0.036312293
146	0xbd47807a	-0.04870651
147	0x3b2b3588	0.0026124436
148	0xbcb68898	-0.02228193
149	0x3d9054e0	0.070474386
150	0x3dacfad9	0.08446283
151	0xbc091498	-0.008366726
152	0xbc5c38e0	-0.013441294
153	0x3d838085	0.064209975
154	0x3d55e03b	0.052215796
155	0xbced8954	-0.028996147
156	0xbdcb2ed6	-0.099210426
157	0xbc9d03ba	-0.019166816
158	0x3b3f94ad	0.0029232905
159	0x3bb3fe02	0.0054929266
160	0x3c78105a	0.015140617
161	0xbdbc4e8a	-0.09194668
162	0x3d27063a	0.040777422
163	0x3d77ade4	0.06046857
164	0xbca85582	-0.020548586
165	0xbdbaad69	-0.091151066
166	0x3d96743a	0.07346387
167	0xbd65ae53	-0.05607445
168	0xbcf48f17	-0.029853387
169	0x3dd54e2f	0.10415303
170	0x3bb4709f	0.0055065895
171	0x3c65b4df	0.014020174
172	0xbce15abc	-0.027509086
173	0xbd95e325	-0.07318715
174	0x3ce1df16	0.027572196
175	0xbd988abe	-0.07448338
176	0xbd07138f	-0.032977637
177	0x3db43936	0.087999746
178	0xbd53fdd0	-0.051755726
179	0x3d3a1bd5	0.0454367
180	0xbdbcea79	-0.092244096
181	0xbceb26fe	-0.028705116
182	0x3c15314c	0.009105992
183	0x3ccc0e82	0.024909262
184	0xbbb8aeee	-0.0056360876
185	0xbd7c40e8	-0.061585337
186	0xbc30e106	-0.010795837
187	0xbb7bbd7c	-0.0038412502
188	0xbccb8811	-0.024845155
189	0x3c5d1417	0.013493559
190	0xbd45d099	-0.048294637
191	0x3d8257ff	0.0636444
192	0xbd366c1b	-0.04453669
193	0xbdae7dce	-0.08520089
194	0x3cf84020	0.030304015
195	0x3c44e17f	0.012016653
196	0x3da4c9ad	0.08046279
197	0x3d13aca4	0.036053315
198	0xbdca08a0	-0.09864926
199	0x3cf4691f	0.029835282
200	0xbd3b47ef	-0.045722898
201	0x3d73a087	0.059479263
202	0xba4f1d45	-0.0007900785
203	0xbd07ab18	-0.033122152
204	0x3d1e2fe5	0.038619895
205	0x3d5cd384	0.053912655
206	0xbd5d05ca	-0.0539606
207	0xbc7f85fc	-0.015595909
208	0xbd206ee7	-0.039168265
209	0xbd13f73d	-0.036124457
210	0xbd28c789	-0.041205917
211	0x3b6ee5c9	0.003645288
212	0x3d43d293	0.04780824
213	0xbcab0a4d	-0.020878935
214	0xbc928189	-0.017884033
215	0xbb7aa6c0	-0.0038246363
216	0xbd067a53	-0.0328315
217	0xbd180a43	-0.03711916
218	0xbc89c566	-0.01681776
219	0xbd4ed2a1	-0.05049384
220	0xbcf086b2	-0.029361103
221	0x3c67deaa	0.014152208
222	0xbc43dc65	-0.011954402
223	0x3d08be0b	0.033384364
224	0xbcc934e7	-0.024561359
225	0x3d475415	0.04866417
226	0xbd4166b4	-0.047217086
227	0x3cc13600	0.02358532
228	0x3d143f93	0.03619344
229	0xbcebbfa4	-0.028777905
230	0x3d6c717e	0.057725422
231	0xbcafed67	-0.021475507
232	0x3b247122	0.0025091846
233	0xbd57ebfb	-0.052715283
234	0xbda66a79	-0.08125777
235	0x3d1402b4	0.03613539
236	0xbcff963d	-0.031199569
237	0xbccee68d	-0.02525642
238	0x3a133010	0.0005614767
239	0xbd6ab3e4	-0.057300463
240	0x3cdf734e	0.027276661
241	0x3bbea90c	0.005818492
242	0x3d72031e	0.059085004
243	0x3cf049e6	0.029332113
244	0x3cddd36e	0.027078357
245	0xbcccad0b	-0.024984857
246	0xbd54f61a	-0.051992513
247	0xbd30055e	-0.04297387
248	0x3c2fdf7e	0.010734437
249	0xbd095000	-0.03352356
250	0x3d426f5f	0.047469493
251	0xbc420279	-0.01184141
252	0xbd935057	-0.07193058
253	0x3d089dec	0.03335373
254	0x3d17efd8	0.037093967
255	0x3c24aeb8	0.010051422

head.weight f4 [2, 768]
0	0xb8006872	-3.061485e-05
1	0xbd120450	-0.035648644
2	0x3d803e65	0.06261901
3	0xbc2ceb29	-0.010554113
4	0x3d1a3646	0.037649415
5	0x3cae310f	0.021263627
6	0xbcee563b	-0.029093852
7	0xbd6a2d8a	-0.057172336
8	0xbc1e507b	-0.009662743
9	0x3cf81fc3	0.030288583
10	0x3c7db7e4	0.0154857375
11	0xbc62d988	-0.013845809
12	0xbd7b0929	-0.061288033
13	0xbcb93684	-0.022609003
14	0xbc6ebb0b	-0.014570962
15	0x3c3e98f2	0.011633145
16	0x3dc16eb4	0.09444943
17	0xbd9f77c4	-0.07786515
18	0xbd925957	-0.071459465
19	0xbd4944c8	-0.04913786
20	0xbcc70d06	-0.024298202
21	0xbc3465c7	-0.011010594
22	0xbd619eeb	-0.055083197
23	0x3c8ce6d1	0.017199906
24	0x3c4980b7	0.012298754
25	0x3d8336d1	0.0640694
26	0x3d312c38	0.04325506
27	0xbca8a254	-0.020585217
28	0xbae8b64d	-0.0017754525
29	0xba062d43	-0.0005118439
30	0xbd5b3bc9	-0.053523812
31	0xbd9bba5a	-0.07603903
32	0xbd44dbe0	-0.04806125
33	0x3c73faf7	0.014891378
34	0x3d2b2cb9	0.041790698
35	0x3c177778	0.009244792
36	0xbbb00b76	-0.00537246
37	0x3d34cd74	0.044141248
38	0xbd992a45	-0.074787654
39	0xbcb967f0	-0.02263257
40	0xbd115a3d	-0.03548645
41	0xbd3e1cbf	-0.046414133
42	0xbd0a3216	-0.033739172
43	0xbd334f5b	-0.04377685
44	0xbb04e314	-0.002027695
45	0x3d2b147b	0.04176758
46	0x3cf70456	0.030153435
47	0x3bda8d97	0.006669711
48	0x3bb3ae07	0.005483392
49	0x3d4337d6	0.04766067
50	0x3d3de2b3	0.046358775
51	0xbd37cd6c	-0.04487364
52	0xbaa64925	-0.0012686594
53	0x3d00979f	0.031394597
54	0xbd98e127	-0.074648194
55	0x3d86461e	0.065563425
56	0xbd694bee	-0.056957178
57	0x3b80d6e9	0.0039318693
58	0x3b29b00c	0.0025892286
59	0x3cb4c193	0.02206496
60	0x3d3c4bda	0.045970775
61	0xbd847d81	-0.064692505
62	0xbd87e990	-0.066363454
63	0x3dac5e82	0.084164634
64	0x3d25da41	0.040491346
65	0x3a077ae4	0.00051681534
66	0xbaa5f7e5	-0.0012662379
67	0x3c497d4e	0.012297941
68	0x3d6215f7	0.05519673
69	0x3d54eb03	0.051981937
70	0x3d02d617	0.031942453
71	0xbd142d1f	-0.036175843
72	0xbbdc2f9f	-0.006719544
73	0x3be655fe	0.007029294
74	0xbc8b35be	-0.0169934
75	0xbd9da59f	-0.07697605
76	0xbcaaef8d	-0.02086618
77	0x3cf96482	0.030443434
78	0x3c07cb25	0.0082881795
79	0x3d0107a0	0.031501412
80	0xbd04c97d	-0.032418717
81	0xbd30c7ed	-0.043159414
82	0x3cde0050	0.027099758
83	0xbd9e97c8	-0.07743794
84	0x3d2baff6	0.041915856
85	0xbcfb4af2	-0.030675385
86	0x3c8236c0	0.015895247
87	0x3d0580f7	0.032593694
88	0xbc1d522f	-0.009602114
89	0x3d36e863	0.044655215
90	0x3d7979fc	0.06090735
91	0xbd222112	-0.03958232
92	0xbce015b7	-0.027354104
93	0x3c5c7f8f	0.013458147
94	0x3af197ac	0.0018432043
95	0x3d0fa3d0	0.035068333
96	0x3d2ede56	0.042692505
97	0x3a5c98cb	0.0008415102
98	0xbd386bf6	-0.045024835
99	0xbbf83202	-0.007574321
100	0xbd77760b	-0.06041531
101	0xbb914b47	-0.0044340226
102	0xbd634cfe	-0.055493347
103	0x3b37f1ba	0.0028067664
104	0x3a644a36	0.0008708568
105	0x3c8442d1	0.016145142
106	0xbdb1b34f	-0.086767785
107	0xbce864fd	-0.028368467
108	0x3d93d581	0.07218457
109	0x3892cb98	6.999745e-05
110	0x3dad2d8a	0.084559515
111	0xbd822adf	-0.06355833
112	0x3cb374e1	0.021906318
113	0x3a947585	0.0011326527
114	0x3d6fa0ea	0.05850307
115	0x3d2c58e1	0.04207695
116	0xbcca2778	-0.024677023
117	0x3d93808c	0.07202253
118	0xbc68a522	-0.014199527
119	0xbbb62191	-0.0055582006
120	0x3b1e16a7	0.0024122389
121	0xbb2e3407	-0.0026581304
122	0xbc9fbfb7	-0.019500596
123	0x3d5b8b1f	0.053599473
124	0xbd445c6e	-0.04793971
125	0xbd47031c	-0.04858695
126	0x3d66a765	0.056311984
127	0x3d618e4b	0.05506734
128	0xbd3f0327	-0.046633866
129	0xbcd85d95	-0.02641181
130	0x3c84dd02	0.016218666
131	0x3d00b9b1	0.03142709
132	0xbd9626e7	-0.07331639
133	0x3c935a6f	0.017987458
134	0x3ad63761	0.0016343408
135	0x3cdf1407	0.02723123
136	0x3b2cbd32	0.0026357886
137	0xbd007344	-0.031359926
138	0x3d0a2b5a	0.03373275
139	0x3b613c40	0.0034368187
140	0x3c019dea	0.007911185
141	0x3b835bcf	0.004008747
142	0x3c2032b1	0.009777711
143	0xbd1a5f80	-0.037688732
144	0xbd368d0d	-0.04456811
145	0xbd935bb9	-0.07195229
146	0xbd9c974a	-0.076460436
147	0x3d4e85cd	0.05042057
148	0x3ce40a36	0.0278369
149	0xbd10823c	-0.03528045
150	0x3cac50cf	0.021034626
151	0x3d24f144	0.04026915
152	0x3d376b9f	0.04478037
153	0x3bb120a5	0.005405503
154	0xbcd62733	-0.026141739
155	0xbdd7a981	-0.10530377
156	0xbcf5dbac	-0.030011974
157	0x3d6abbb7	0.057307925
158	0x3d2de7e6	0.042457484
159	0x3c49ce2e	0.0123172235
160	0xbd5d5744	-0.0540383
161	0x3d044564	0.03229274
162	0xbcf85537	-0.030314071
163	0x3d36f4d5	0.044667084
164	0xbd329635	-0.04360028
165	0xbd6ccd3e	-0.05781292
166	0xbd7ba863	-0.061439883
167	0x3d4ea810	0.050453246
168	0x3d299f7f	0.041411873
169	0x3d5ae159	0.053437565
170	0x3c1abc2a	0.009444276
171	0xbcbc6e57	-0.023001833
172	0xbc8f9e27	-0.017531468
173	0x3c5aa46c	0.013344865
174	0x3d32b568	0.043630034
175	0x3d0b358f	0.033986624
176	0xbc63b621	-0.013898403
177	0x3d99d73f	0.07511758
178	0x3c20c873	0.009813416
179	0xbcc09d97	-0.023512645
180	0xbcc51904	-0.02405978
181	0x3d78d9f4	0.06075473
182	0xbd41a4a0	-0.04727614
183	0x3d1ce5df	0.03830516
184	0xbc58e9ec	-0.013239365
185	0xbcc651d1	-0.024208935
186	0x3d02a6dc	0.03189741
187	0xbc6b74da	-0.014371121
188	0x3c3da5a6	0.011575138
189	0xbc47c050	-0.012191847
190	0x3dd7c5b4	0.10535756
191	0x3d9bc725	0.07606343
192	0xbd30dcb1	-0.043179218
193	0x3c722195	0.014778514
194	0x3c8e9731	0.017406078
195	0x3bf3e5d7	0.0074431705
196	0xbca534c6	-0.020166766
197	0xbcb8f388	-0.022577062
198	0xbc903f2a	-0.017608244
199	0xbcc1cbd9	-0.023656772
200	0xbcead516	-0.02866606
201	0xbd064051	-0.03277618
202	0xbd695f60	-0.056975722
203	0xbcd8f5ec	-0.026484452
204	0x3d30c548	0.043156892
205	0xbcea3419	-0.028589295
206	0x3c152a11	0.009104268
207	0xbd4c55f8	-0.049886674
208	0xbc46ac38	-0.012126021
209	0xbca89e7d	-0.020583386
210	0xbc821e9c	-0.015883736
211	0xbc6e640c	-0.01455022
212	0x3d32798d	0.04357295
213	0x3da8c568	0.08240777
214	0x3d87f17a	0.06637855
215	0xbd31b3c3	-0.043384325
216	0xbd978332	-0.073980704
217	0xbc8b2fe0	-0.016990602
218	0x3c519842	0.012792649
219	0x3c781131	0.0151408175
220	0x3c32c5d1	0.010911421
221	0x3cc524f3	0.02406547
222	0xbd3beb3b	-0.04587863
223	0xbd1dcbf8	-0.038524598
224	0xbcf46734	-0.029834367
225	0xbd8a493f	-0.06752252
226	0x3d2c84e4	0.042118922
227	0x3d28d9a3	0.04122318
228	0x3d06125f	0.032732364
229	0xbca441a0	-0.020050824
230	0xbce7a9eb	-0.028279265
231	0x3ced961d	0.029002244
232	0x3b9091e0	0.004411921
233	0xbd611fee	-0.05496209
234	0xbd101dc9	-0.035184655
235	0xba300478	-0.0006714533
236	0x3c860791	0.01636103
237	0x3c6d068c	0.014466893
238	0xbd4603c6	-0.048343442
239	0x3d840bac	0.06447539
240	0xbc931d4d	-0.017958308
241	0xbcc19c7f	-0.023634193
242	0x3d4459c2	0.047937162
243	0xbc429eda	-0.0118786935
244	0xbca8096f	-0.02051231
245	0x3d86f1f9	0.06589121
246	0xbd35b6f0	-0.044363916
247	0x3c88c7d5	0.01669685
248	0x3cade8a1	0.02122909
249	0x3c0ef37b	0.008725042
250	0xbd446ae1	-0.04795349
251	0x3d558113	0.052125048
252	0x3d858d3b	0.06521078
253	0x3caca184	0.02107311
254	0xbdb35b90	-0.087576985
255	0xbd39802b	-0.045288246

head.bias f4 [2]
0	0x3d04abfb	0.032390576
1	0x3c80ab09	0.015706556

FacTu.weight f4 [32, 768]
0	0xbc37bc95	-0.011214395
1	0x3ce904e0	0.028444707
2	0x3d5bf1b9	0.05369732
3	0x3c893518	0.01674895
4	0x3c537927	0.012907303
5	0xbd274e84	-0.040846363
6	0xbd90a802	-0.07063295
7	0x3ca246a7	0.01980908
8	0x3d45d802	0.048301704
9	0xbcc8b1d9	-0.024498867
10	0x3d61ba2d	0.05510919
11	0xbabf61b1	-0.0014601258
12	0x3c0e82fc	0.008698221
13	0x3d08528d	0.03328185
14	0x3cd3319a	0.025780488
15	0xbbeda6f6	-0.0072525693
16	0xbcee3696	-0.029078763
17	0x3d082a9f	0.03324377
18	0xbd640ab7	-0.05567428
19	0xbdb7fdd0	-0.08983958
20	0x3cefeaca	0.02928676
21	0xbcc33e43	-0.0238334
22	0x3c50ffe2	0.01275632
23	0xbcc473cd	-0.023981
24	0x3d544f0b	0.051833194
25	0xbc94c746	-0.018161427
26	0xbbb72824	-0.005589502
27	0x3c458889	0.012056478
28	0x3c87a290	0.016557008
29	0x3c962210	0.01832679
30	0x3d238836	0.039924823
31	0xbd07e8c7	-0.03318098
32	0xbd3f80ed	-0.046753813
33	0x3cb8a2cb	0.022538563
34	0x3cec293f	0.028828261
35	0xbd5f7ffb	-0.05456541
36	0x3d1b4e79	0.037916634
37	0x3ca33658	0.019923374
38	0xbcd27047	-0.025688304
39	0xbcbe32e9	-0.023217635
40	0xbbb76274	-0.0055964533
41	0xbc9a28b8	-0.018818244
42	0x3cd62250	0.026139408
43	0xbcc72e2f	-0.024314014
44	0x3caec600	0.021334648
45	0xbb480e99	-0.003052628
46	0xbd372001	-0.044708256
47	0x3d87929b	0.0661976
48	0xbacc33a0	-0.001557935
49	0x3c3a8cbf	0.011386096
50	0x3d45dabb	0.0483043
51	0xbcdd56ef	-0.027018992
52	0x3bd5318f	0.006506152
53	0xbb6faa0f	-0.0036569869
54	0x3ca6a67f	0.020343063
55	0xbd22eb2e	-0.039775066
56	0xbc11e758	-0.008905254
57	0xbdc16866	-0.094437405
58	0xbd05f265	-0.03270187
59	0xbdaa4212	-0.08313383
60	0xbc505e33	-0.012717771
61	0x3cd63b56	0.02615134
62	0x3c57902b	0.013156931
63	0x3b8803e9	0.0041508568
64	0x3ac8fc85	0.0015334046
65	0x3ccec693	0.025241172
66	0x3d3a76bf	0.0455234
67	0x3c658a92	0.0140100885
68	0x3ca19e3b	0.01972877
69	0x3c1ff255	0.009762366
70	0xbc6706c3	-0.014100733
71	0xbc11b048	-0.008892126
72	0xbd119ef9	-0.035552
73	0x3c98d7de	0.018657621
74	0xbc879c8f	-0.016554145
75	0x3b3d214a	0.0028858953
76	0x3cb6dd3e	0.022322293
77	0x3d9958a7	0.07487612
78	0xbb3dd748	-0.002896743
79	0x3d06afc0	0.032882452
80	0xbcf774fc	-0.03020715
81	0xbd5b2692	-0.05350358
82	0x3da993e5	0.08280162
83	0x3d16f05d	0.036850322
84	0x3c788f81	0.015170933
85	0xbc3f3fe7	-0.01167295
86	0xbc1e6ced	-0.009669525
87	0xbcf43edb	-0.029815128
88	0xbde64d07	-0.112451605
89	0xbc0d89de	-0.008638827
90	0xbd0be8f9	-0.034157727
91	0x3ca998eb	0.0207028
92	0xbcf6f031	-0.030143829
93	0x3d7b09b4	0.06128855
94	0x3cc2900d	0.02375033
95	0xbd2e46aa	-0.04254786
96	0x3c36a581	0.011147858
97	0x3d1492a7	0.03627267
98	0x3dd7bf81	0.10534573
99	0x3d0187df	0.031623717
100	0x3c8ef325	0.017449925
101	0xbce3d692	-0.027812276
102	0x3cf688ea	0.030094583
103	0xbb8d2231	-0.0043070544
104	0xbcf4e521	-0.029894413
105	0xbb94793d	-0.0045310543
106	0x3aa423b4	0.0012522847
107	0x3c713001	0.014720918
108	0x3d6b0c44	0.057384744
109	0xbc0a8d9f	-0.008456617
110	0xbd012b4b	-0.031535428
111	0x3d43f2d4	0.047839
112	0x3c9dd0e9	0.019264655
113	0x3d308469	0.043095026
114	0x3be7adf1	0.007070296
115	0x3d13d41c	0.036090955
116	0xbccfe9ee	-0.025380101
117	0x3c764cf1	0.015032993
118	0xbd2641c6	-0.04059007
119	0xbccfec96	-0.025381368
120	0x3cc4d36b	0.024026593
121	0x3b7add55	0.0038278897
122	0x3c20c7ca	0.009813258
123	0x3caaada5	0.020834753
124	0xbb2db89d	-0.0026507743
125	0xbd16950f	-0.036763247
126	0x3c746b57	0.01491817
127	0xbc9d80bc	-0.019226424
128	0xbd0fb72e	-0.035086803
129	0xbd21b029	-0.03947464
130	0xbc055620	-0.00813821
131	0xbc8c30b7	-0.017113073
132	0xbc4c27d0	-0.012460664
133	0xbd923a91	-0.07140077
134	0xbc08b055	-0.008342822
135	0x3c91c98b	0.017796298
136	0x3cb6584a	0.022258896
137	0xbc20dd90	-0.00981845
138	0xbd376799	-0.044776533
139	0xbb84acf6	-0.004048939
140	0xbd252c7c	-0.040325627
141	0x3cc90144	0.024536736
142	0xbca8307b	-0.02053093
143	0xbc4671a6	-0.012112057
144	0xbb0c52e9	-0.0021411723
145	0x3cbd1640	0.023081899
146	0xbb1086d1	-0.0022053013
147	0xbc231f12	-0.009956138
148	0xbc804ad6	-0.015660685
149	0xbd0ad08f	-0.033890303
150	0x3d27b73b	0.040946227
151	0xbca29a5e	-0.019848999
152	0xbcb198e8	-0.021679357
153	0x3b2b80d8	0.0026169326
154	0x3d2b0915	0.04175671
155	0xbc07499f	-0.008257299
156	0xbd3366a3	-0.043799054
157	0x3a8d234e	0.0010767968
158	0x3d4d9c97	0.050198164
159	0x3980b0bf	0.0002454575
160	0x3cdc9e90	0.026931077
161	0xbc8f2ad7	-0.017476482
162	0xbbd6d1be	-0.006555765
163	0xbd03806c	-0.032104895
164	0x3cf56df0	0.029959649
165	0xb9b316b0	-0.00034158444
166	0xbca48b9e	-0.020086106
167	0x3b8e9360	0.0043510646
168	0x3b3926a4	0.0028251791
169	0xbd228097	-0.039673414
170	0xbcd8d1a9	-0.026467161
171	0xbc71d2c1	-0.01475972
172	0xbb56dce0	-0.003278546
173	0x3d0cb276	0.03434988
174	0x3b19c13c	0.0023461124
175	0xbcf9fe44	-0.030516751
176	0xbbeb8466	-0.007187414
177	0x3cc9c635	0.024630645
178	0xbcb54434	-0.022127248
179	0xbb5b826a	-0.003349448
180	0xbc168d2d	-0.009188932
181	0x3d055c5d	0.032558788
182	0xbd1703ca	-0.036868848
183	0xbcc9b16d	-0.024620736
184	0xba127026	-0.00055861694
185	0xbd2bddc9	-0.041959558
186	0xbd789986	-0.060693286
187	0x3d355848	0.044273645
188	0xbd1d42fb	-0.038393956
189	0x3d605124	0.05476488
190	0x3d2ce9fa	0.042215325
191	0x3cecefd4	0.028922953
192	0x3d0b0864	0.03394355
193	0xbc9d0da8	-0.01917155
194	0xbc710bec	-0.014712315
195	0x3d3d8d4a	0.046277322
196	0xbc5c138e	-0.013432397
197	0xbdb7e94a	-0.08980043
198	0x3c637b92	0.013884442
199	0x3d3e12b8	0.04640457
200	0xbcc7de43	-0.024397975
201	0x3d82affe	0.06381224
202	0x3d042920	0.032265782
203	0x3b34a95f	0.0027566773
204	0xbd979fe0	-0.074035406
205	0xbc95880a	-0.018253345
206	0x3be6d781	0.007044733
207	0x3c7abe2b	0.015304129
208	0xbab0720e	-0.0013461725
209	0x3c459d06	0.012061363
210	0xbc781e0d	-0.015143883
211	0x3da09ddf	0.078426115
212	0xbcf1cc75	-0.029516438
213	0x3cf1ed70	0.029532164
214	0xbd7fc8d6	-0.06244739
215	0xbd08eab6	-0.033426963
216	0x3cba8167	0.022766782
217	0xbc687197	-0.014187238
218	0xbca9c616	-0.020724338
219	0xbd8414b8	-0.06449264
220	0x3ca0c673	0.019625878
221	0x3c2b3d51	0.010451631
222	0x3d62bdb9	0.055356715
223	0xbcbdc91f	-0.023167191
224	0x3c3a059a	0.011353875
225	0x3c731b26	0.014838016
226	0x3c98d80a	0.018657703
227	0x3aa0e308	0.0012274692
228	0x3a6c7021	0.0009019394
229	0x3d8a4be2	0.06752755
230	0x3d02dc10	0.03194815
231	0xbc1098f7	-0.008825532
232	0x3ca997d2	0.020702276
233	0xbd650a36	-0.05591794
234	0xbccad33c	-0.024758928
235	0x3cd37dd1	0.02581683
236	0x3ce3ed03	0.027822977
237	0xbcd2e4de	-0.025743898
238	0x39994f69	0.000292416
239	0x3d1ed999	0.038781736
240	0x3c41f14d	0.011837316
241	0xbcf1203f	-0.029434321
242	0x3d364b16	0.0445052
243	0xbc0976b2	-0.008390116
244	0xbbf1269a	-0.007359338
245	0x3ca42eaf	0.020041792
246	0x3d48730b	0.04893784
247	0x3d5692c2	0.052386053
248	0xb9c9064f	-0.00038342408
249	0x3ca669e7	0.02031417
250	0xbba40ef6	-0.0050066663
251	0xbcb725ce	-0.022356894
252	0x3c0d6569	0.008630135
253	0xbc5b24a9	-0.01337544
254	0x3ba76866	0.005108881
255	0xbca79d83	-0.02046085

FacTv.weight f4 [768, 32]
0	0xbad0eda7	-0.0015939967
1	0x3cb60e15	0.022223512
2	0xbd54a4a8	-0.05191484
3	0x3c688896	0.014192721
4	0xbc9c2020	-0.019058287
5	0xbc50054a	-0.0126965735
6	0xbcd0c164	-0.02548284
7	0x3cd1709d	0.025566394
8	0x3cc836cd	0.024440194
9	0x3bb32609	0.0054671806
10	0xbc55425e	-0.013016311
11	0x3b0d3346	0.0021545454
12	0x3cd7ab72	0.026326869
13	0xbc7fe646	-0.015618866
14	0x3cb08f29	0.02155264
15	0xbc1bcdc5	-0.0095095085
16	0x3d02e78f	0.031959113
17	0xbcdf1602	-0.027232174
18	0xbc9bfd0e	-0.019041564
19	0x3c8e9186	0.017403375
20	0xbc2b6ed4	-0.010463435
21	0xbb76d1e4	-0.0037661726
22	0xbbf85969	-0.007579018
23	0x3c96584a	0.018352646
24	0x3cc2b83a	0.023769487
25	0xbc7c9b85	-0.015417938
26	0xba88803d	-0.0010414195
27	0xbc0fb162	-0.008770319
28	0x3b17709d	0.0023107894
29	0xbca43c67	-0.020048333
30	0x3b920041	0.0044555967
31	0x3cad51a1	0.021157088
32	0xbc839f7c	-0.016067259
33	0x3bdea028	0.0067939945
34	0xbca29693	-0.01984719
35	0x3c40bded	0.011764032
36	0x3bdbd8fd	0.0067092166
37	0xbc10bbf1	-0.008833871
38	0xbcb6071d	-0.022220189
39	0xbca07569	-0.019587236
40	0xbc0e6cf0	-0.008692965
41	0x3d1f67f1	0.038917486
42	0xbb5bb9dc	-0.003352753
43	0x3b8f30ac	0.004369816
44	0xbc3fe330	-0.011711881
45	0xbbd23f56	-0.0064162416
46	0xbc1f5d83	-0.009726885
47	0x3d092963	0.033486735
48	0x3c476c4b	0.012171815
49	0x3bdb678f	0.0066956948
50	0x3c676426	0.014122998
51	0xbccf3ce7	-0.025297595
52	0x3d19fb2c	0.03759305
53	0xbc818081	-0.015808346
54	0xbd2c98a5	-0.04213776
55	0x3b996ed6	0.004682402
56	0xbca616b0	-0.02027449
57	0xbb4e2d02	-0.0031459932
58	0xbcbf2c76	-0.02333663
59	0xbc11efa4	-0.008907232
60	0x3b76a514	0.0037635015
61	0x3c58d6f2	0.013234841
62	0x3c3f0a40	0.011660159
63	0xbca73cfd	-0.020414824
64	0x3d05b83e	0.03264641
65	0xbcd79223	-0.0263148
66	0x3d0780b8	0.03308174
67	0xbbe250c6	-0.0069066016
68	0x3d20715b	0.039170604
69	0xbc5b99e0	-0.013403386
70	0x3d4f1043	0.050552618
71	0x3b980912	0.004639753
72	0x3c12e4a5	0.008965646
73	0xbc3f57f5	-0.011678685
74	0x3ceabc76	0.028654318
75	0xbb7ad1f6	-0.003827212
76	0x3bc780db	0.006088359
77	0x3c6bba0a	0.014387617
78	0x3c428ee9	0.011874893
79	0xbd0486b5	-0.03235503
80	0x3c22da2d	0.0099397125
81	0xbc0541fd	-0.008133409
82	0x3c7f1f69	0.015571454
83	0x3ca3f4f5	0.020014266
84	0xbb9679a4	-0.0045921374
85	0xbcaa53c7	-0.020791901
86	0x3d28047b	0.041019898
87	0x39b127cf	0.0003378973
88	0x399add77	0.00029538173
89	0xbbe455ae	-0.0069682216
90	0x3c1563d2	0.009118037
91	0x3ca128f5	0.01967285
92	0x3c94a503	0.01814509
93	0x3d05d2f3	0.03267188
94	0xbcabb9a0	-0.020962536
95	0xbcc0773b	-0.023494354
96	0x3cf9d111	0.030495198
97	0x39c5d739	0.0003773512
98	0xbcbada4f	-0.022809176
99	0xbc035b68	-0.008017398
100	0xba76eedc	-0.0009419748
101	0xbc9d6c6b	-0.019216737
102	0x3cdf75c2	0.027277831
103	0x3c13ac29	0.009013214
104	0x3d0e2abd	0.034708727
105	0x3c8bf53a	0.017084707
106	0x3d0e8da8	0.034803063
107	0xbd18c29b	-0.037294965
108	0x3c8900e9	0.016724067
109	0x3abe5d7a	0.0014523708
110	0x3b75db48	0.0037514735
111	0x3c430e7e	0.011905311
112	0x3ceab335	0.028649906
113	0xbd0e7ec0	-0.034788847
114	0xbce6c469	-0.028169828
115	0x3d35f632	0.044424243
116	0xbca95cbb	-0.0206741
117	0x3b925650	0.0044658557
118	0x3c98a4c5	0.018633256
119	0x3cbe76df	0.023250042
120	0x3cf505c6	0.02990998
121	0x3db25c7a	0.08709045
122	0x3cdfdf88	0.027328268
123	0x3c801b32	0.015637968
124	0x3cdfecb7	0.027334554
125	0x3c67ba19	0.01414349
126	0xbd6aeb99	-0.05735359
127	0x3d0c62df	0.03427398
128	0xbd352285	-0.044222374
129	0xbbe53aec	-0.0069955494
130	0xbc85cd8f	-0.01633337
131	0xbc039db3	-0.008033204
132	0x3c0d5104	0.008625273
133	0x3cb6c64d	0.022311354
134	0xbc55c50b	-0.013047467
135	0x3c436966	0.011926984
136	0x3bea874c	0.007157242
137	0xbb0f6dd8	-0.002188554
138	0x3c72aaa3	0.014811191
139	0x3cee5549	0.029093402
140	0x3c88039e	0.016603287
141	0xbc5d4e98	-0.013507508
142	0x3ba9c7dc	0.005181296
143	0xbca8c991	-0.020603927
144	0xbc69b68a	-0.014264712
145	0xb9d3311e	-0.0004028165
146	0x3c8c096f	0.017094342
147	0x3b29dbb6	0.0025918311
148	0xbc6e0c31	-0.014529274
149	0x3cc9e351	0.024644526
150	0x3c62dfa1	0.013847263
151	0x3cb2e47d	0.021837467
152	0x3c416036	0.011802724
153	0x3b7a0118	0.0038147625
154	0xbb6fd5d6	-0.0036595962
155	0x3cc94917	0.024570985
156	0x3b5e7d3f	0.0033949164
157	0xbb8bc74d	-0.004265702
158	0xbcd905b3	-0.026491975
159	0xbbf22a89	-0.0073903245
160	0x3cd9fae4	0.026608892
161	0xbc2ad6d9	-0.0104272
162	0xbcc18df6	-0.023627263
163	0x3cb4a31c	0.022050433
164	0x3b9113f0	0.0044274256
165	0xbcc5e010	-0.024154693
166	0xbaa3bb5e	-0.0012491753
167	0xbbd56953	-0.0065127998
168	0x3bf1ebf7	0.0073828655
169	0xbc89f158	-0.016838714
170	0xbc33e728	-0.010980405
171	0x3ac811da	0.0015264109
172	0xbbfce7cd	-0.0077180625
173	0xbbadc5c5	-0.005303117
174	0x3cae02bb	0.021241536
175	0xbd281f40	-0.041045427
176	0x3c909e67	0.017653657
177	0xbb133ea0	-0.0022467747
178	0xbd735ee2	-0.05941666
179	0x3b99879d	0.004685356
180	0xbb824954	-0.0039760265
181	0xbd41533d	-0.047198523
182	0xbb8d5c32	-0.004313969
183	0x3c7dcf41	0.015491308
184	0x3ad0f6d3	0.00159427
185	0x3cdecb2a	0.027196486
186	0xbc8c210d	-0.017105604
187	0xbc7d4500	-0.015458345
188	0xbc8fa324	-0.017533846
189	0xbd00867b	-0.03137825
190	0x3c314f3d	0.010822115
191	0x39f07c2e	0.00045868888
192	0xbc5e84c1	-0.013581456
193	0xbc4aa595	-0.012368579
194	0x3b492d0d	0.0030697018
195	0xbb95746c	-0.0045609977
196	0x3c0fa671	0.00876771
197	0xbcbecdc7	-0.023291482
198	0x3be752cd	0.007059431
199	0xbcc22daa	-0.023703415
200	0x3ce4ecf9	0.027945029
201	0x3da7d765	0.0819538
202	0x3c0d1773	0.008611548
203	0xbc3d45c7	-0.011552281
204	0x3d3f0f11	0.046645228
205	0xbd005577	-0.031331506
206	0x3be7efb5	0.007078136
207	0x3cd0bd1c	0.0254808
208	0xbd3a2435	-0.045444686
209	0x3bde4e69	0.0067842496
210	0xbbabe34e	-0.0052456027
211	0xbc004a7f	-0.007830261
212	0xbbc33a99	-0.005957913
213	0xbc1a7021	-0.009426148
214	0xbc86d7b6	-0.01646028
215	0x3b5a7764	0.0033335323
216	0xbc840e97	-0.016120238
217	0xbb9695f4	-0.0045955125
218	0x3a229aa3	0.0006202852
219	0x3ac1c58b	0.0014783604
220	0xba325bc4	-0.0006803835
221	0x3b895132	0.0041905874
222	0x3a7e5c6a	0.0009703102
223	0x3b053d08	0.0020330567
224	0x3ca2c648	0.019869938
225	0x3a3ea2bf	0.0007272176
226	0x3bdd99d1	0.006762721
227	0xbc19fe49	-0.009399005
228	0x3bc4e65a	0.0060089054
229	0xbd31c9f5	-0.04340549
230	0x3c11777a	0.008878583
231	0x3c82d663	0.015971368
232	0x3c7670c7	0.015041537
233	0x3af437b1	0.001863232
234	0xb9761ac7	-0.00023470364
235	0xbb154386	-0.0022775843
236	0xbafdff7e	-0.0019378511
237	0x3cf8211a	0.030289222
238	0x3cbd95b7	0.023142679
239	0xbcf2b153	-0.02962557
240	0x3bc74f0c	0.006082421
241	0xbc78c44b	-0.015183519
242	0xbc1ef220	-0.009701282
243	0x3c3dad4e	0.011576964
244	0xbc8285b4	-0.015932895
245	0xbd1e45c3	-0.03864075
246	0xbd052048	-0.03250149
247	0xbca851b1	-0.020546766
248	0x3caad274	0.020852305
249	0x3ce82879	0.028339611
250	0x3cbd2a3f	0.023091434
251	0xbc1353a9	-0.008992114
252	0x3c361795	0.011114021
253	0xbc9d8104	-0.019226559
254	0xbd10d13c	-0.03535579
255	0x3ce4ff90	0.027953893
