Final Project/FacT-TK/resisc45_best.pt (torch, 486295 bytes, 6 tensors)

FacTp f4 [32, 144]
000000 77 ec 15 be fa 54 6d be 48 99 cf 3c 5f df 42 bd
       -0.14640985 -0.23176947 0.025341645 -0.047576305
000010 c6 4b 9c bd 71 ed 10 bd c8 95 43 be cd 8c 2d bc
       -0.0763164 -0.03538269 -0.19100106 -0.010592652
000020 8e 44 98 3d 13 2d 76 bd 82 cc 8b 3c e7 1f 55 bd
       0.07434951 -0.06010158 0.01706529 -0.052032378
000030 e4 9d bd 3d 78 b4 14 be e6 fa b6 bd 87 e3 49 3e
       0.09258631 -0.14521968 -0.08934574 0.19715701
000040 b0 83 2b 3e f0 da d2 3d b5 3a 4f be 65 39 3f bd
       0.16749454 0.10295665 -0.20237239 -0.046685595
000050 a6 64 c9 bd 68 a5 57 3d 0e 0a 99 3e ec ec 82 3d
       -0.0983365 0.052647978 0.29890484 0.063928455
000060 3b 6c 57 be 7b e8 96 bd 39 ec 46 3e ef 27 2c 3e
       -0.2103738 -0.07368561 0.1942605 0.16812108
000070 e7 23 18 be 33 d8 15 3e 07 3e a2 3d 8c 3b 06 bc
       -0.14857446 0.14633255 0.07921987 -0.008192908
000080 5e cf 21 bd 34 2b cc bd 07 2a 06 bd 69 d9 bc bd
       -0.0395044 -0.09969178 -0.032754924 -0.09221155
000090 e2 73 9d bc 6e f8 5b bc af 82 05 3c c3 58 82 3d
       -0.019220296 -0.0134259295 0.008148833 0.06364586
0000a0 60 6f f2 bd be 39 d0 bc 6f 7d 22 3e 60 cc d1 bd
       -0.11837649 -0.025418159 0.15868162 -0.102440596
0000b0 1b 03 8f bd 42 1e be 3d f0 b6 e6 bd 1d 01 f1 bd
       -0.06983014 0.09283115 -0.11265361 -0.117677905
0000c0 7f 8f b7 3d ae 8d de bd 27 30 da 3d e0 58 60 bd
       0.089629166 -0.10866867 0.106537156 -0.054772258
0000d0 4b 5e 7e 3c ea 23 80 3d f7 0d 31 3e d7 9e 92 bd
       0.015525411 0.0625685 0.17290483 -0.071592025
0000e0 e1 ab fc 3d 37 04 5a 3d 13 f6 92 bc 3f 39 89 3e
       0.12337471 0.053226676 -0.017939603 0.26801488
0000f0 0f 3c 0b 3e 7b 9a 84 3e f5 cf f4 bd fc 94 81 3e
       0.1359713 0.2589911 -0.11953727 0.2530898
000100 77 16 2f 3e 7e 79 a7 bd 4b 1a 09 bd f8 dd 51 be
       0.17098413 -0.0817747 -0.03347234 -0.2049483
000110 a0 2e 07 bd c1 29 33 be b5 a0 21 be 31 84 46 3b
       -0.03300345 -0.17496397 -0.15783961 0.0030291195
000120 08 16 c4 bd d9 3a 2a be 0a d1 0a 3d b9 b7 cc bc
       -0.095745146 -0.16624011 0.03389076 -0.02498995
000130 37 d9 9f bd c6 27 30 be c9 38 f8 3c ec 93 20 be
       -0.07805102 -0.17202672 0.030300515 -0.15681428
000140 73 d4 47 be 23 d7 75 bd e5 bb 9f bd 30 8a e3 3d
       -0.19514637 -0.060019623 -0.0779951 0.111103415
000150 27 82 71 be 37 57 73 3d 20 91 51 3d 1f 50 9f 3e
       -0.23584805 0.059409346 0.051163793 0.31115815
000160 14 6e 34 3d 6e 7d 43 3e 12 cd b1 3d b8 fd 19 3c
       0.04405029 0.19090816 0.08681692 0.00939887
000170 02 95 3b 3e 2b a5 61 3e 2b 7a 2c 3e 7f ff 28 be
       0.1831856 0.22035663 0.16843478 -0.16503714
000180 f5 72 96 3d 6b e2 5e 3e c9 0c b6 bd aa 1e fe 3d
       0.07346145 0.21766059 -0.08889157 0.124081925
000190 81 7c c5 bd 66 9d 2f be 58 50 15 be 3f b4 31 bd
       -0.09642888 -0.17149886 -0.1458143 -0.043384787
0001a0 48 b1 0b 3e 4c 87 67 3e c9 87 e3 3d 4a f5 b5 bc
       0.13641846 0.22610205 0.11109883 -0.02221169
0001b0 56 fd 2a be b9 aa 99 3d eb 18 d9 bd 15 22 bf 3d
       -0.16698202 0.07503266 -0.10600456 0.093326725
0001c0 e4 5b 0a be b7 c3 04 be 2a ec 0c be cb c7 3e 3e
       -0.13511616 -0.12965284 -0.13761964 0.18630902
0001d0 ee d7 92 be 72 d4 7c 3d 69 4a 39 3e 78 27 3a be
       -0.28680366 0.06172604 0.18094791 -0.18179119
0001e0 ec 79 21 3e 74 f2 67 3e 41 8b f8 3d 86 1c 71 be
       0.15769166 0.22651082 0.121359356 -0.23546037
0001f0 4e 26 09 be c9 26 bf bc db 15 3c 3e 07 78 ce bd
       -0.13393518 -0.023333924 0.18367712 -0.10081487
000200 42 48 1c be a3 49 ab 3e ca 9e 80 be de be 11 bd
       -0.15261939 0.33454618 -0.25121146 -0.035582416
000210 99 2d e4 bd 84 52 07 3e 4c 42 81 bd 1d 79 1b be
       -0.111415096 0.13215071 -0.06311473 -0.1518292
000220 e4 a0 a8 bd 58 2f b8 3d 7f 1d 2d 3e 91 e4 ad 3d
       -0.082338125 0.08993405 0.16905783 0.08490861
000230 6f 7d fa 3d 51 8c 1a be a5 39 94 3e db 96 7b 3d
       0.12230956 -0.15092589 0.2895023 0.061423164
000240 da 01 a9 3d 0a 96 c8 3d 6c 1b f7 bd 96 4c f6 bd
       0.08252306 0.09794243 -0.12065777 -0.12026326
000250 0f 0c 30 3d 6f ae 0b bd 52 0e a6 bd 57 4e 7f 3d
       0.04298025 -0.0341019 -0.081082 0.06233057
000260 71 f8 db 3d 29 2e 69 be 1e c6 e1 bd 84 90 74 be
       0.10740746 -0.22771515 -0.11024116 -0.23883253
000270 e0 c7 75 bc 95 f7 15 be a7 ec 00 be fd aa 42 3e
       -0.015001267 -0.14645226 -0.12590276 0.1901054
000280 13 d4 84 bd 66 5f e8 bc dd 2c 6c 3c f9 db 07 be
       -0.064857624 -0.028365802 0.014414993 -0.13267507
000290 76 f1 02 3d 1e c2 1f be e6 72 3b be b6 86 0f be
       0.031968556 -0.15601394 -0.18305549 -0.14016232
0002a0 10 4f 58 bd ae 31 83 bb b1 d4 21 3b 11 81 1e be
       -0.052809775 -0.004003725 0.0024693424 -0.15478922
0002b0 8d 7a 0c be a3 36 cb bd 0b 5e 30 be 5f 9b 21 be
       -0.13718624 -0.099225305 -0.17223375 -0.15781926
0002c0 95 a0 eb 3d ac 88 e6 3d 1d 39 63 be 33 48 22 3d
       0.11505238 0.11256537 -0.22189756 0.039619636
0002d0 b2 69 8f 3d 26 59 65 3d 1c 6a cf 3c b6 76 73 be
       0.07002582 0.05599322 0.025319152 -0.23775753
0002e0 aa be b3 3d c9 da 83 bb 5d 00 38 3e 0b 08 eb 3c
       0.08776601 -0.004023884 0.17968889 0.028690359
0002f0 dd 96 24 be c8 a3 2e bd 09 52 56 3e d9 90 0c 3d
       -0.16073175 -0.042636663 0.20929731 0.034317825
000300 42 d5 0c 3e 89 99 9f 3d 1e 7d ea 3d 0e 3a 9d bd
       0.13753226 0.077929564 0.114496455 -0.07677089
000310 8f 4e b7 3d d3 9f 15 3c 68 5f 11 3d a0 68 fe 3d
       0.08950531 0.009132343 0.035491377 0.124222994
000320 f7 89 20 3e 84 34 2e be 35 31 d2 bd 03 7a d1 bd
       0.1567763 -0.1701222 -0.10263292 -0.1022835
000330 89 71 60 be 9d 3c 1a be a8 3c 23 3e a1 36 ee 3d
       -0.2191831 -0.15062185 0.15941107 0.116315134
000340 8b a8 37 be 3f 91 2c 3e 1d 06 9a 3d eb 7f d7 bc
       -0.17935388 0.16852282 0.07520697 -0.026306113
000350 fc e0 3c 3e 4a 81 6d bd 58 40 b9 3c 7a d7 9c 3e
       0.184452 -0.057984628 0.02261369 0.30633146
000360 89 c5 3d 3e 74 2b ec 3d 0e 69 f4 3d ab 6c 8d bd
       0.18532385 0.115317255 0.119341 -0.069054924
000370 c2 35 69 bd 0c 6f 19 3e 3d 9e ac bd bd 36 01 3e
       -0.056936033 0.14983767 -0.08428619 0.12618537
000380 5b db 43 be 8f 5b 0f be 5c 09 fa bc 30 82 07 3d
       -0.19126646 -0.1399977 -0.030522041 0.03308314
000390 25 67 d0 bc 19 25 dc b9 06 8b 9e 3d 2f 4f 4e be
       -0.025439808 -0.0004198931 0.0774136 -0.20147394
0003a0 85 d3 7f ba b6 6b af bd 08 4d 3d be 60 5e 52 be
       -0.0009758997 -0.08565466 -0.18486416 -0.20543814
0003b0 8e 1d 81 be fb db 40 3e b1 1d 9f bc 08 66 df 3d
       -0.2521786 0.18833916 -0.019423338 0.10908133
0003c0 39 bd 05 be a6 43 59 be 91 d7 e0 bd 89 3a 19 3d
       -0.13060464 -0.21217212 -0.10978616 0.03740934
0003d0 7c 0c 03 3c 82 0d 57 3e 7c 7e 41 be 6d ab 6d 3e
       0.007998582 0.21001247 -0.18895906 0.23209925
0003e0 6f a5 5c be b8 6d 3d bd a9 15 81 be b3 f5 2c be
       -0.21547483 -0.046247214 -0.25211838 -0.16890602
0003f0 cc da 6b bd 49 57 e5 3d e8 59 f1 bd 35 5a 92 3e
       -0.057581708 0.11198289 -0.117847264 0.28584448

FacTc f4 [32, 32, 32]
000000 bf 04 36 bd 50 c0 9b 3d f4 2d a0 3c ea ff 93 bd
       -0.04443812 0.0760504 0.019553162 -0.07226546
000010 c0 96 05 bd 3a e4 4e 3d 21 12 2d bd 6e f3 db 3c
       -0.03261447 0.050510623 -0.042253617 0.026849475
000020 a0 71 14 3d d6 68 89 bd be 8e 22 bd 8c 17 2d bd
       0.036241174 -0.06709449 -0.03968691 -0.042258784
000030 02 a6 3a 3c 7c 24 d3 3c 56 a3 00 bd 41 c2 2e bd
       0.011392118 0.025774233 -0.03140577 -0.042665724
000040 f8 4d 5e 3d 58 aa c9 3b 24 23 d8 bc 94 ae 87 3d
       0.054273576 0.0061543398 -0.026383944 0.06625095
000050 cc eb 7c bb 37 be 2f bd f3 55 6f 3d 5b db 07 bc
       -0.0038592694 -0.042906012 0.058431577 -0.0082920445
000060 bf 5e 99 3d f3 56 c8 3b 2a 95 ac 3c 6d c9 48 3d
       0.074887745 0.006113881 0.02106722 0.04902022
000070 10 5c 89 3d 57 3b 0b 3d 49 44 96 bc 9a a4 11 3d
       0.06707013 0.033992138 -0.018343108 0.035557367
000080 cc 7c c1 3d 57 69 01 bd 80 91 32 bd 84 13 36 bd
       0.09447631 -0.0315946 -0.04359579 -0.044452205
000090 de 51 ac 3c bd 0c 19 bd ac 63 a5 bd 15 cd a6 3d
       0.021035131 -0.037365664 -0.080756515 0.08144585
0000a0 38 9c 6d bc 60 d1 f5 bb 79 57 10 3d 6e 42 48 bc
       -0.0145025775 -0.007501766 0.03523967 -0.012222869
0000b0 ae bb 14 3d 75 6e d6 3c 80 e1 3c 3d 7d 4d 8d 3d
       0.036311798 0.026175717 0.04611349 0.06899545
0000c0 51 ac a5 bd 5b 3b 90 3b 45 65 0a 3c c7 18 29 bd
       -0.08089507 0.004401607 0.008446996 -0.041283395
0000d0 61 d3 a4 bb 7e 57 93 bd 75 1e 3f bd 24 16 88 3b
       -0.005030081 -0.07194422 -0.046659905 0.00415303
0000e0 e4 5f b1 3d 22 af 05 3d 60 92 32 3d 02 33 82 3d
       0.08660868 0.032637723 0.043596625 0.06357385
0000f0 94 9c 96 bd b8 0e 94 bd ed 02 96 bd 67 0a ba 3d
       -0.07354084 -0.0722937 -0.07324777 0.09084015
000100 3c 7c c9 3c a0 8e af bd cc bb ff bc d0 5a cb bc
       0.024595372 -0.085721254 -0.031217478 -0.024823576
000110 8d 2f 04 bd 0a 4a 11 3d 9f 83 97 3d 93 0c c4 bd
       -0.03227191 0.035471 0.073981516 -0.09572711
000120 d2 2c c0 3d c3 bc 80 3d d4 c6 97 3d 6a 29 88 bd
       0.09383549 0.062860034 0.0741097 -0.06648524
000130 e8 6c fd 3b 1f 72 89 3d 1c 99 f4 bc c9 12 cb 3c
       0.00773393 0.0671122 -0.029858164 0.02478923
000140 a1 0c 6f 3d e0 61 b7 3d e6 1b 98 3c 31 41 f2 3c
       0.058361653 0.08954215 0.01856799 0.029572101
000150 72 28 70 bd 04 ca 09 3d e1 9c c8 3b d2 19 57 3d
       -0.05863232 0.033639923 0.006122217 0.05251486
000160 d4 26 fa bc dd 3d 50 3c 22 09 f9 3c fd a2 27 bd
       -0.030536093 0.012710062 0.030399863 -0.040926922
000170 90 cb 23 3d fd 26 06 bd c0 6e ae 3d f9 cc 0a bd
       0.039989054 -0.032752026 0.08517218 -0.033886883
000180 7c 8d 6b bd 01 d6 9c bc 8d a7 94 bb 4e b8 8a 3d
       -0.057507977 -0.019145014 -0.004536575 0.067734346
000190 3e 76 40 bd dd 15 cd bc 89 03 ae 3d e8 01 09 3c
       -0.046987765 -0.02503484 0.08496768 0.008362271
0001a0 c5 e3 f1 3b b1 67 49 bd d3 98 88 3d e5 7e c9 3c
       0.0073818886 -0.049171153 0.06669774 0.02459664
0001b0 b0 7d 67 3d 6d 07 d7 3c f8 50 0d 3c f1 66 28 bc
       0.05651635 0.026248658 0.0086252615 -0.010278449
0001c0 46 60 d9 3b f0 bd c1 bc 57 0d 78 bc 90 13 d8 bd
       0.006633791 -0.02365014 -0.015139899 -0.10550606
0001d0 17 80 bc ba f1 2e 78 3c f9 33 b5 3c 6d 72 97 3b
       -0.0014381435 0.01514791 0.022119509 0.004621795
0001e0 10 e9 b7 3c 85 3e 85 3d c5 6e 5e bb ee 5b 59 3d
       0.02245 0.06506065 -0.0033940536 0.053066187
0001f0 55 5b 9e 3b 0f 10 ac 3c bd dd 19 3d c6 6c 62 3c
       0.004832665 0.021003751 0.03756498 0.013819879
000200 39 40 a7 bc 1e a7 34 3d 2c 15 40 bd 56 5d 49 3d
       -0.020416366 0.044104688 -0.04689519 0.049161278
000210 8e fd 9e bd 8c 22 23 bd cf 45 88 3d 6e 32 6d 3d
       -0.077632055 -0.03982787 0.0665394 0.05790942
000220 83 c0 5e 3d 9f 46 1c bd ad 35 90 bd c8 93 4a 3d
       0.054382812 -0.038153287 -0.07041488 0.04945734
000230 8e 4a ed 3d 0d 04 d2 bd 4e db 5f 3d a6 86 a6 3d
       0.11586486 -0.10254679 0.054652505 0.08131151
000240 0b 10 98 3d f5 f1 86 bd 48 e9 04 3c 1d d9 81 bc
       0.07424935 -0.065891184 0.008112259 -0.015850598
000250 f0 99 69 bd 9c 5f 6d bc 8a 97 6c 3d 2b 13 92 3c
       -0.057031572 -0.014488127 0.057761706 0.017831406
000260 2b c5 57 bd 7d 52 7a bc 39 97 64 3d 42 68 39 bd
       -0.05267827 -0.015278456 0.05580828 -0.045265444
000270 9d 15 ce bd 4b 28 58 3c 2a 45 7d 3c d9 e8 06 bd
       -0.10062716 0.0131932 0.0154583845 -0.032936905
000280 b3 ec 89 3d 4a de 54 bd 1c 6a 4a 3d 38 1b 96 3d
       0.067346 -0.051969804 0.0494176 0.0732941
000290 2e 39 b4 bc 2d d9 5d bd 3f c8 10 3d ba 1e a8 bc
       -0.021999922 -0.054162193 0.03534722 -0.020522464
0002a0 f9 9e 41 bc 5c fd a7 3c 5d 20 76 3d f8 df 90 3c
       -0.011817687 0.020506553 0.060089458 0.017684922
0002b0 1e 99 14 3c be 87 2c bc 18 82 80 3c 38 19 c4 bd
       0.009069709 -0.01053041 0.015687034 -0.095751226
0002c0 0b 53 b3 bc 63 94 74 bc d6 d1 7e bd 92 a3 3e 3d
       -0.021890184 -0.014927956 -0.062211834 0.04654271
0002d0 91 bd a4 bd f6 58 17 bd df c2 5d bc 1f 23 68 bc
       -0.080439694 -0.036950074 -0.01353523 -0.01416853
0002e0 62 d2 bf 3d 19 45 4a bd 75 df eb bc fa 0e f7 3c
       0.09366299 -0.049382303 -0.028793076 0.030158509
0002f0 83 69 43 bd ec d6 1e bc 9b 91 69 bd f7 96 05 3d
       -0.047708046 -0.009694796 -0.057023626 0.032614674
000300 a2 66 f5 bc f8 4e 8a bd c7 ce 52 3c 04 f1 46 3d
       -0.029956166 -0.06753343 0.012866682 0.048569694
000310 18 f2 1f 3d df 9e 6f bd 59 04 2c bd ca 86 0f 3d
       0.039049238 -0.05850112 -0.041996334 0.035040654
000320 94 2a 4b 3c 6e 85 63 3b 26 96 bd 3c b3 ce 82 bc
       0.012400288 0.0034716981 0.023142885 -0.015967702
000330 f1 bb 85 3c af 26 3e 3d b7 25 51 bd 8f dd ee 3b
       0.016324969 0.04642361 -0.05106136 0.0072895954
000340 74 c4 52 bc f8 4b 35 bd 78 15 6e bd e7 bd 54 bd
       -0.012864221 -0.044261903 -0.058125943 -0.051938917
000350 bb ba e1 3c a4 49 d7 bc 22 3b 8b bc ea 7f 71 bb
       0.02755486 -0.026280232 -0.01699597 -0.0036849924
000360 0b a2 8e bd 78 df ce bd 2d 99 cd bc 2a c8 b7 bc
       -0.06964501 -0.10101217 -0.025097454 -0.022434313
000370 54 ff 2b bc eb 9c 5c 3d bb 09 68 bc a4 00 33 bc
       -0.010497887 0.053860586 -0.014162476 -0.010925446
000380 a1 05 8b bd 1b a9 ed 3c b5 09 19 bd 50 27 5e 3c
       -0.06788183 0.0290113 -0.037362773 0.0135591775
000390 38 46 9e 3d bc c4 57 3b 46 7e 5c 3d b3 d5 e2 bd
       0.07728237 0.003292366 0.05383136 -0.11075916
0003a0 5b eb 00 3d ea f5 dc bd 31 64 93 bd 05 d0 5d 3d
       0.031474452 -0.10789092 -0.07196844 0.05415346
0003b0 e3 0c 00 3d c4 46 99 bc 86 f0 b8 bd 04 ba 3e bd
       0.03126229 -0.018710501 -0.09030251 -0.046564117
0003c0 f0 51 0e 3c 54 28 0c bd 54 87 5a 3d 84 c0 d9 bc
       0.008686528 -0.034218147 0.053351715 -0.026581056
0003d0 88 61 0e 3d 79 88 1c bd ac fe 8c bd 35 e5 20 bd
       0.03476098 -0.038216088 -0.06884512 -0.03928109
0003e0 7a be 5e 3d 24 86 29 3b ae 42 ba 3a d3 94 e5 3c
       0.05438087 0.0025867308 0.0014210546 0.028025066
0003f0 69 dd 5b bd 75 09 0e bd 3d d2 7f 3c 89 a3 80 bd
       -0.05367795 -0.034676988 0.01561409 -0.06281192

head.weight f4 [45, 768]
000000 73 ff f9 3c 48 a2 1e 3d e3 e2 84 bc 90 13 cf 3d
       0.030517315 0.038728982 -0.01622147 0.10111153
000010 5f 2f 39 bd 60 41 88 bd ba 9f e7 bb 50 d4 0d be
       -0.045211192 -0.06653094 -0.0070686014 -0.13850522
000020 a6 1c 4b bd ed 08 95 3d 44 34 c1 3d 34 ce b5 3c
       -0.04958787 0.07277093 0.09433797 0.022193052
000030 18 33 1e bd 9f 7b a3 3c 1d 37 df 3d cb 50 bc bb
       -0.038622946 0.019956408 0.10899184 -0.005746936
000040 0a 70 81 3d 9d a7 90 bd 4d 7c df bd 63 37 06 be
       0.06320198 -0.0706322 -0.1091238 -0.13107066
000050 94 85 ad bd c5 d9 14 3e ab 1f 81 bc ce 44 b7 3d
       -0.08472744 0.14536197 -0.01576217 0.0894867
000060 62 7a af 3d 4b 5a c2 b9 6b 02 dd 3d d6 9f 31 bd
       0.085682645 -0.00037069837 0.10791477 -0.043365322
000070 2a d1 bf bd c5 31 13 3d c4 c0 04 bd f2 1e f8 bd
       -0.09366067 0.035936136 -0.032410398 -0.12115277
000080 71 d5 f0 bd ec 53 c1 3d cd 43 29 bd a9 75 ef 3c
       -0.11759461 0.09439835 -0.041324425 0.02923091
000090 bd ea 57 3d e7 e8 a2 3d 90 55 f8 3c 7d 64 01 bd
       0.0527141 0.07954579 0.030314237 -0.031589974
0000a0 5b dd 01 3d fc 63 bc bc c8 9d ea bd bb c4 a5 bd
       0.03170524 -0.022996895 -0.11455876 -0.08094164
0000b0 83 74 c1 3d 4a c6 24 bd e2 3d 66 3d f7 66 81 bd
       0.09446051 -0.040228166 0.05621136 -0.06318467
0000c0 cf 3f 22 3d 0d 23 1c 3d 5e 16 53 3d bc 90 84 3d
       0.039611634 0.038119365 0.051535003 0.064729184
0000d0 c3 ad 47 bd 24 6e d2 3d 77 12 84 bc 8f d5 cf 3d
       -0.048749696 0.10274914 -0.016122086 0.10148155
0000e0 9f c5 08 3d 50 ac 87 bd 93 74 a1 3d 6b 63 1a bd
       0.03339159 -0.06624663 0.07883563 -0.03769247
0000f0 63 7e ae 3c a8 fc bb ba ec 32 05 be 29 ef 68 bd
       0.0213005 -0.0014342265 -0.13007706 -0.056868706
000100 ec a5 80 bd 64 30 b3 3d 92 74 8b 3d ab ce 96 3d
       -0.06281647 0.08749464 0.068093434 0.073636375
000110 39 39 cf 3d 43 31 eb bc 64 84 68 3d 66 a8 b3 bd
       0.10118336 -0.028710013 0.056766883 -0.08772354
000120 d5 90 2f bb b6 fc 95 bd e7 ff 16 3d ad 6a e2 bc
       -0.0026789207 -0.073235914 0.03686514 -0.027638758
000130 c4 a3 a2 bd 85 6b 41 bd ac ac c9 bd 12 1f b4 bd
       -0.07941392 -0.04722168 -0.09847388 -0.08794989
000140 00 92 b0 3b f4 ff 5c 3d 67 22 26 be 98 f4 04 bd
       0.0053884983 0.053955033 -0.16224061 -0.032459825
000150 5a cf 75 3c 69 55 91 3c a4 1a aa 3b 25 96 2f 3e
       0.01500305 0.017740922 0.005191164 0.1714712
000160 f4 27 8f bc 7b c2 e7 3d 3b 95 cd 3d 63 86 48 bd
       -0.017475106 0.11316391 0.10038229 -0.048956286
000170 f8 b2 c6 bc 1c e2 99 bd 3e d9 9b 3d 4d 74 df 3c
       -0.02425526 -0.0751383 0.07609795 0.027277136
000180 d0 0d 6f bd a8 7d d6 bd 67 0a 21 bd e1 3b 1a bd
       -0.058362782 -0.10473186 -0.03931656 -0.03765476
000190 3f fb b7 3d 00 85 cc bc b8 d4 96 3d 29 e7 ba bd
       0.08983468 -0.024965763 0.07364792 -0.091261216
0001a0 d5 e9 22 3d fc b9 a2 3d ec ac af 3d af 42 f8 bd
       0.03977378 0.0794563 0.08577904 -0.12122094
0001b0 9f ea ee bd 94 0c 67 3d 7f 38 35 3e de c7 73 3d
       -0.11665844 0.05640848 0.17697333 0.05951678
0001c0 4c 28 26 3c 1f c4 2d bc b1 41 54 bc 71 6b d7 3d
       0.010141443 -0.010605841 -0.012955115 0.1051854
0001d0 54 11 b2 bd 5e c0 c8 3b f6 7d 18 bd 8b 56 7a 3b
       -0.08694711 0.0061264476 -0.0372295 0.0038198556
0001e0 72 b7 12 3e 86 d2 3f 3d 37 03 03 be d5 ac a3 bc
       0.14327791 0.04683163 -0.12794195 -0.019979874
0001f0 df fe 82 3d 81 12 e3 bd 49 02 7f bd 6d bd f3 3d
       0.06396269 -0.11087514 -0.06225804 0.119013645
000200 f6 9a f2 bd 12 e6 89 3d 7a 23 29 3d 0d 5e 8d bd
       -0.11845963 0.067333356 0.0412936 -0.069027044
000210 1f 6d c6 bd 59 c7 22 3d fe 0f 97 3d d6 21 9b bd
       -0.09688782 0.039740894 0.07376097 -0.07574813
000220 42 dd 16 3d 1c f8 05 3c 4f 40 e3 3d 2b 7f 1d bd
       0.0368321 0.00817683 0.1109625 -0.038451355
000230 38 03 91 bd a4 a5 25 3d 9c 7f 88 3d 2c 42 1b be
       -0.07080692 0.04044117 0.066649646 -0.15161961
000240 37 ae d6 bd a0 62 8f 3d 63 07 b7 bd 68 3a 0a 3e
       -0.104824476 0.07001233 -0.08936956 0.13498843
000250 5e 4a 21 bd c5 8e 54 3d f6 a5 0d 3e 3b 92 9f 3d
       -0.039377563 0.051893968 0.1383284 0.07791563
000260 26 02 ef 3d f0 69 b2 bb 37 77 18 3d cd ac 1a bc
       0.11670332 -0.0054447576 0.037223067 -0.009440613
000270 01 d1 77 3d 6a 25 96 3d 75 84 8b 3d 96 c5 a7 bd
       0.060502056 0.07331355 0.068123735 -0.081919834
000280 79 43 91 3d fc 5c be 3d b8 04 21 bd 5d e4 d8 3c
       0.070929475 0.09295079 -0.03931114 0.02647608
000290 59 3d 4f 3d cc cb 05 3d 01 8b 8f 3c 6c bf 63 bb
       0.050595615 0.03266506 0.017522337 -0.0034751548
0002a0 4a be dc bd 5b 43 34 3e 10 d5 0f be 92 a4 c9 3d
       -0.10778482 0.17603819 -0.1404612 0.098458424
0002b0 94 3b ce bd e3 5f 9e 3d 8b 9a 1a 3e e1 ef 56 bd
       -0.100699574 0.07733133 0.15098016 -0.05247486
0002c0 4b f9 f7 bd 13 92 5d 3d 8e a0 f3 3d 97 55 33 ba
       -0.12108096 0.054094385 0.11895858 -0.0006841062
0002d0 b5 2d dc 3d ff f2 d9 3d f2 b4 0d be 16 b9 d5 bd
       0.107509054 0.10642051 -0.13838556 -0.10435693
0002e0 a0 da b4 bd 07 02 b1 bd c4 04 2d bb e8 02 df 3a
       -0.08830762 -0.08642965 -0.0026400546 0.0017014416
0002f0 f6 be 0d be 3d 4f b4 bd 48 76 a1 3d 76 ef e2 3d
       -0.13842377 -0.08804176 0.078838885 0.1108083
000300 bd 63 e6 bc e1 0b 9d 3c b3 ad e3 3d 64 50 ef 3d
       -0.02812373 0.019170703 0.11117115 0.11685255
000310 80 ea 9d 3d 9e 4f 83 bd cb 55 e4 3d a3 31 e8 bd
       0.07710743 -0.0641167 0.11149176 -0.113375925
000320 5f 78 05 3d b5 33 0c be e2 ab 85 bd 46 15 0c be
       0.032585498 -0.136916 -0.06526925 -0.1367999
000330 13 d9 f2 3c 03 ae ec bd 09 55 ea 3b 5f b6 b2 3c
       0.029644525 -0.115566276 0.0071512503 0.021815477
000340 e8 d9 64 bd 16 22 38 3d 61 13 09 be 8c 68 12 3d
       -0.055871874 0.044954382 -0.13386299 0.035744235
000350 a9 fa 3e bd ae 17 ab bd fc d7 08 3e 31 8d 86 bd
       -0.046625767 -0.08354126 0.13363642 -0.06569899
000360 6a 35 0a be df 4a fe bd aa 1f af 3c 84 80 0a 3d
       -0.13496938 -0.12416624 0.021377403 0.03381397
000370 17 af a0 bd 97 78 28 3d 75 36 19 be d4 4b 07 be
       -0.07845896 0.04113063 -0.1496218 -0.1321252
000380 c0 7d e3 bc 36 fa e0 bc 9b 98 80 3d 27 06 b3 bc
       -0.027769923 -0.02746306 0.06279107 -0.02185352
000390 39 b3 f4 3b f5 1c 23 3c c1 a9 b2 3d 6e 44 ea 3c
       0.007467654 0.009955634 0.08723784 0.028597083
0003a0 de ea 16 be 68 f7 3d 3d 07 6c 03 bc c0 04 4a bd
       -0.14738032 0.046378523 -0.008021361 -0.049320936
0003b0 9c a5 9d 3d d3 6e 87 bd 01 36 97 3d 55 39 20 3c
       0.07697603 -0.06612935 0.07383347 0.009779294
0003c0 78 37 d6 3d a1 b6 01 be d2 68 14 3c 6e 48 c6 bd
       0.104597986 -0.12667324 0.009058194 -0.096817836
0003d0 e4 37 25 bc b3 e2 e8 3d 76 04 e4 bd e2 87 3e 3d
       -0.010084126 0.113713644 -0.11133663 0.046516307
0003e0 c5 b6 34 3d 67 43 a9 3c 2d e0 1e 3d 35 10 7a 3d
       0.044119615 0.020662023 0.03878801 0.061050612
0003f0 f0 60 f3 bb 96 84 93 3b d6 3f b1 bd 17 68 15 be
       -0.0074273273 0.0045018895 -0.08654754 -0.14590488

head.bias f4 [45]
000000 9b ca 6b bc b0 2b 6e 3a 93 c5 7b bc 08 ee 13 3b
       -0.014391567 0.00090854894 -0.01536693 0.0022572298
000010 b5 62 a2 3c 4c 77 88 3c 35 c6 ca bc 9c 0c 7a bc
       0.019822458 0.016658448 -0.024752716 -0.015261795
000020 02 0c c8 3c fb 67 75 3b d9 95 75 3c 05 95 09 3d
       0.024419788 0.003744601 0.01498934 0.03358938
000030 98 94 f0 bb 03 a6 4d 3a ea 4b a5 bc 77 1e 87 bb
       -0.0073419325 0.0007844867 -0.0201778 -0.0041235047
000040 6b 61 ac 3c b2 da a1 3c d8 e8 19 3d 7c b7 d1 3c
       0.021042546 0.019757602 0.037575573 0.025600187
000050 aa 3e e3 bc 16 a9 15 bd 23 b8 da 3b 17 bd 86 3c
       -0.027739841 -0.036538206 0.006674783 0.016447587
000060 50 e1 39 3c 8f 32 39 bc f5 b6 aa 3c 8a 83 56 bc
       0.011345223 -0.011303558 0.020839194 -0.013092885
000070 46 71 0c bd e1 79 1a bc 7f c6 92 3c 5b a9 12 3d
       -0.034287713 -0.009428472 0.017916916 0.03580604
000080 ec 08 25 bd 9f 79 c7 3c 92 06 f6 bc a9 a9 55 bc
       -0.04029171 0.024349986 -0.03003243 -0.013040938
000090 08 ae a6 ba ff 40 13 bd 6c eb 2b 3c ed ca e8 3c
       -0.001271666 -0.035950657 0.010493141 0.028417075
0000a0 d9 cf bf bc 39 8e cc bc 5b 48 a4 bc b6 8c b5 3c
       -0.02341454 -0.02497016 -0.020054033 0.022161823
0000b0 20 b7 ed 3c
       0.029017985

FacTu.weight f4 [32, 768]
000000 2d 37 09 bd 50 32 b8 bd 7a 06 9d 3d cd 4c 46 bd
       -0.033499885 -0.08993971 0.07667251 -0.048413087
000010 91 00 d7 bd e1 fa 35 3b fb df f5 bc 46 49 43 bd
       -0.10498155 0.0027767944 -0.030014029 -0.0476773
000020 de ce ce 3b 3d 01 d4 bb ee d9 20 3d 89 12 5e bd
       0.0063112816 -0.006469874 0.039270334 -0.054216895
000030 86 b3 93 3d d4 96 b8 3c b5 89 06 3d a8 c4 8d 3d
       0.07211976 0.022532858 0.03284617 0.06922275
000040 1a 90 0b bd ea ab 5a 3c c0 d0 28 ba c2 9e 52 bd
       -0.034072973 0.013346652 -0.00064397976 -0.051420934
000050 8c c6 b2 3d 51 ef 42 bc 59 de d9 3c a5 b1 a7 3c
       0.08729276 -0.011897878 0.026595281 0.02047045
000060 4b 7a a1 3d a6 0f f2 bc 58 e5 fe 3c 32 7a 57 bd
       0.07884654 -0.029548477 0.031115219 -0.05260677
000070 45 97 5d bd 7a 7a 53 3d 5d 77 08 bb 2c 22 b6 bd
       -0.05409934 0.051630475 -0.00208231 -0.088932365
000080 c9 74 54 bc fe f3 ed 3a fa fd 86 3c d7 ed 3a bc
       -0.012967297 0.001815438 0.016478527 -0.0114092445
000090 7e ae 48 3d 3e 57 12 3d e2 c9 9d bd c2 7b cc 3d
       0.048994534 0.035727732 -0.07704522 0.099845424
0000a0 7a 30 09 3d cd 5a 73 3c 3a 2d 5e 3c 09 a2 c5 3b
       0.033493496 0.014853192 0.013560588 0.006031279
0000b0 80 c1 d6 3b 32 3f b9 3c 0b 1d 81 bd 75 2a 46 3c
       0.0065538287 0.022613142 -0.06304368 0.0120950835
0000c0 9a 5a 53 3b f5 10 92 bd e5 94 07 bd e2 7f 1a bd
       0.0032250048 -0.071321405 -0.03310098 -0.037719615
0000d0 22 ea 3d bd a6 3a d9 bc af 29 8d bc 74 5c 4b ba
       -0.046365865 -0.026517224 -0.01723179 -0.0007757612
0000e0 64 81 fc bb 90 a8 4c 3d 8b de d3 3a 1a 3a c6 bc
       -0.0077058543 0.04996544 0.0016164345 -0.024197627
0000f0 c8 9a a4 bd 01 3b 43 3d d5 86 d7 3c 1d 04 f7 3c
       -0.08037335 0.047663692 0.02630941 0.030153329
000100 c2 28 23 3d de 35 39 3c 75 8c c0 bb b2 45 17 3d
       0.03983379 0.011304347 -0.005876119 0.0369317
000110 c8 7e 8c bd e5 d5 37 bd 64 29 8e 3c 9b 4e ac 3c
       -0.06860119 -0.04488172 0.017353721 0.021033576
000120 53 ac c8 bb 75 f9 13 bc 1b 51 39 bd 02 35 29 bd
       -0.0061240583 -0.009031643 -0.045243364 -0.041310318
000130 94 ac 90 3d b0 24 25 bb 20 2f ab 3c 89 fd 2e 3b
       0.07064167 -0.002519887 0.020896494 0.0026701412
000140 6a 3b f5 3b 74 d5 47 bd 23 2d 09 bc 71 88 64 3d
       0.0074838893 -0.04878755 -0.008372578 0.055794183
000150 da 33 c7 3c fc fe 90 bc 3a bb 70 3c 58 d6 82 bd
       0.024316717 -0.017699711 0.014693076 -0.06388539
000160 c6 65 9e bc e6 28 a2 3c 86 ea e4 bc a4 ba 13 bd
       -0.019335639 0.019794893 -0.02794386 -0.036066666
000170 eb 07 b2 bc 51 fe 70 3d ca 69 be bc 5b 70 67 bd
       -0.021732291 0.058836285 -0.023243804 -0.056503635
000180 5c e8 06 3d 0a 21 1b bc 43 95 58 3d 61 1d 24 3d
       0.03293644 -0.009468326 0.052876722 0.04006708
000190 26 0a ca bc 56 5a 01 3d 8d 32 82 bd 60 d3 82 3c
       -0.024663042 0.03158029 -0.06357298 0.015969932
0001a0 44 dd e3 bd 5d 79 1a 3d fb 48 84 bc 82 c7 a1 3c
       -0.111261874 0.037713397 -0.016148081 0.019748453
0001b0 5d d9 6d 3d 67 a3 27 bd 38 43 de bc dc 46 0c 3d
       0.058068622 -0.040927317 -0.027131662 0.034247264
0001c0 2a ba ee 3c 30 a8 bf 3d 8c 78 7a 3c b5 94 30 bd
       0.029141504 0.09358251 0.01528753 -0.043110568
0001d0 51 5a 11 bd 53 53 46 3b 5a 09 ce bc d4 84 32 bb
       -0.035486523 0.0030262067 -0.025150944 -0.0027239816
0001e0 a9 86 9b 3c ec 19 90 3d 3d 9b 0a 3b ed dc 33 3c
       0.01898511 0.07036194 0.0021149658 0.010977966
0001f0 d7 12 8f 3a 2a dd bf 3c b0 c3 3a bb 93 ac 17 3d
       0.0010915649 0.023420889 -0.0028497986 0.037029814
000200 65 21 d4 3c e3 9d 50 bb 89 5d 8b 3d f0 ab 8e bd
       0.02589483 -0.003183239 0.0680495 -0.06966388
000210 54 5c bf 3d b2 97 54 bd b6 1d e0 3c 9f 7f 9b bc
       0.09343782 -0.05190248 0.027357917 -0.018981753
000220 e2 7e ad bd 0d 18 94 bb 68 fc 99 bd f1 22 fa bc
       -0.084714666 -0.0045194686 -0.07518846 -0.03053424
000230 ea e0 8b bd 30 84 d1 bc 13 2d 3b bd 9d 36 e8 bc
       -0.06830008 -0.025575727 -0.045697283 -0.028346354
000240 c4 e6 31 3d ad 81 e4 3d 15 40 63 bd be 2a 39 3d
       0.043432966 0.11157546 -0.055481035 0.045206778
000250 18 dc b0 bc 00 5b dd 3c 3f 13 33 3c e8 62 13 3d
       -0.021589324 0.027020931 0.010929882 0.035982996
000260 00 31 41 bd 06 1e 4c 3c 02 03 79 bc 01 f9 13 3c
       -0.04716587 0.01245833 -0.015198471 0.009031535
000270 b7 47 bb bb 29 b1 c5 bb 6c 58 71 3d b0 12 fd 3c
       -0.005715336 -0.006033082 0.058922216 0.0308927
000280 c3 3b ce bb 6e 9e 5e 3d 46 b7 45 3c ef 69 a0 bc
       -0.0062937452 0.05435031 0.012067622 -0.019581763
000290 80 ff eb bc 0e 51 d9 bc de 87 88 3d b4 39 7c bb
       -0.028808355 -0.026527908 0.066665396 -0.0038486542
0002a0 80 b8 4d bd 95 e6 52 bc 46 91 c6 bc 7e 79 3f 3c
       -0.05022478 -0.012872358 -0.024239194 0.011686681
0002b0 e2 26 73 3b 6f 6b d2 3b 87 c5 8e 3d 2c 42 3b bd
       0.0037102033 0.0064214985 0.06971269 -0.045717403
0002c0 55 8f 02 bd 01 ed 26 3c df f3 b6 bd 19 4c fa bb
       -0.031874973 0.010188342 -0.089332335 -0.007638466
0002d0 c7 73 ab 3d 7e db b8 3d 93 d6 86 bc 4f 1d 23 be
       0.08371692 0.0902624 -0.016459739 -0.15929149
0002e0 39 1f 1b 3d d8 55 8f bd 2f d3 b2 bd 08 5b 0f 3e
       0.037871573 -0.06998795 -0.08731686 0.1399957
0002f0 11 b1 0e 3c f1 e2 8d 3c 2c 94 40 bd cb 48 49 bb
       0.008709208 0.017320128 -0.047016308 -0.0030713554
000300 60 23 a8 3d 68 0e dd bc ee 82 9b bc 8d 70 69 bc
       0.08209872 -0.026984408 -0.01898333 -0.014248026
000310 94 9b 18 3d ae f4 1e 3c bf be 35 bd 05 c2 d3 bc
       0.037257746 0.009701891 -0.044371363 -0.025849352
000320 92 71 88 bd b8 05 00 bd f9 40 56 3c f0 52 05 3d
       -0.06662287 -0.031255454 0.013077014 0.0325498
000330 cb 08 09 bd 2c 80 a3 bd 98 2f d0 bd 06 4f 84 3d
       -0.03345565 -0.07983431 -0.10165328 0.06460385
000340 c8 12 0b bd e3 b9 c1 bc d9 14 02 3d 5c c3 e4 3c
       -0.033953458 -0.023648208 0.031758163 0.027925186
000350 ca 76 1c b9 d0 52 42 3d af 1f c9 bd 58 bc 7e bd
       -0.00014921572 0.047442257 -0.09820496 -0.062191337
000360 5c a1 0a 3d 8d 7d db bd f8 f5 49 3d 31 05 2a bc
       0.03384529 -0.10717306 0.04930684 -0.010377214
000370 36 94 08 3d dd 2f aa 3c b2 4f 5f bd 07 05 3d 3d
       0.03334447 0.020774776 -0.054519363 0.046147373
000380 c9 f0 30 bd f6 fb 7c 3d 36 d5 3b bc f1 8b ae 3b
       -0.04319838 0.061763726 -0.011464408 0.005326741
000390 2b df 8a 3d 97 78 81 3c 53 18 4d 3d 9f 19 42 bd
       0.06780847 0.015804572 0.050072026 -0.047387715
0003a0 fb 2c 38 3c 93 02 30 bc 80 4a 5a bd 12 a1 5a 3b
       0.011241193 -0.010742801 -0.053293705 0.0033360166
0003b0 37 ad 8c 3d 5e 91 4f bc 89 ef a1 3d e6 aa 74 bd
       0.068689756 -0.012668936 0.07907016 -0.059733294
0003c0 27 c4 2a bc 9b 1e 8c bc 22 c3 0b bd aa 38 44 3c
       -0.010422743 -0.017104438 -0.03412164 0.0119764
0003d0 08 d9 94 3b e5 d2 6e bd 8b c2 c1 3c 28 ea 65 3d
       0.0045424737 -0.058306593 0.023652336 0.056131512
0003e0 86 65 7d 3c df 87 cb bd 05 07 9e bd cb ca ab 3c
       0.0154661 -0.09938025 -0.077161826 0.020970723
0003f0 bd 3b 5e 3d f1 7e 99 bd 4a 3e 2c 3c a3 29 bf bd
       0.05425619 -0.07494915 0.010512898 -0.093341134

FacTv.weight f4 [768, 32]
000000 55 ca fa 3c 9a 1c 98 3b 4e 29 85 bb 98 fa 07 3d
       0.030614058 0.0046420814 -0.004063762 0.03319797
000010 83 b1 86 3c 14 9c b4 3c c1 24 21 bc 05 ea 6a bc
       0.016442066 0.02204708 -0.009835423 -0.014338021
000020 65 2f 89 3b 79 f3 a2 39 bf f4 99 bc eb c5 b9 3c
       0.004186558 0.0003108045 -0.018793462 0.022677382
000030 51 88 b9 3c e5 bc ae 3b 57 f9 a8 3c a0 40 58 bd
       0.022648009 0.0053325766 0.020626707 -0.052796006
000040 84 5e 6c 3c 62 ce 96 bc d2 43 96 bc 31 47 23 ba
       0.014426831 -0.018408958 -0.018342886 -0.0006228565
000050 26 4c b6 3c 14 1b dd bb 3e 79 4b bc 32 f0 98 bc
       0.022253107 -0.0067476127 -0.012419043 -0.018669222
000060 22 fe 3a 3d 59 b8 13 bc 52 28 da 3b 9b 78 81 3c
       0.045652516 -0.00901612 0.0066576386 0.01580458
000070 68 05 94 bc 1b ee 00 3d 36 a1 0a 3b 85 0e 08 3c
       -0.018068984 0.031477075 0.0021153218 0.008304243
000080 92 2b 8d 3b ce 0d 3a 3c 15 2f 49 3d 2d 51 27 3c
       0.0043081725 0.01135583 0.049117167 0.010212225
000090 48 1f bb 3c 35 42 a8 3c fb ef 2f bd 6b 8a 61 bc
       0.022842064 0.020539382 -0.042953473 -0.013765912
0000a0 75 fb 50 3d a3 da 36 3b ef fd 94 bc 65 25 e1 3c
       0.051021058 0.0027901314 -0.018187491 0.027483651
0000b0 fd cb 17 bd 41 0b b5 bc 71 68 da 3b 2f 73 82 3c
       -0.037059773 -0.022100093 0.0066652824 0.015924064
0000c0 95 1f db bc b5 5b 0c bb f8 13 1a 3d 67 2c 9c bc
       -0.026748458 -0.0021416966 0.0376167 -0.019064141
0000d0 ae 64 2e 3b 77 e0 8e 3a 44 8b 5e bc 46 14 31 ba
       0.0026610303 0.0010900636 -0.013583008 -0.0006755035
0000e0 28 a1 6b 3c 20 5b eb bb 3b d3 9d 3c 93 e8 ab bc
       0.014381684 -0.007182494 0.019265762 -0.020984923
0000f0 9c 9e 16 ba 86 24 82 3b ef 52 4c 3c 88 19 12 3d
       -0.00057456805 0.003971639 0.012470945 0.03566888
000100 dd 69 35 bc 20 1d 92 bc 08 12 9e 3c 26 40 86 bd
       -0.011072603 -0.017836154 0.019295707 -0.06555204
000110 45 9c be bc fc 52 35 bc 7f 54 ff bc aa 77 32 bc
       -0.023267874 -0.011067148 -0.03116822 -0.010892788
000120 b5 6f 3f 3c ad bb 9f bb 72 54 05 3c ab d5 7e bd
       0.011684348 -0.0048746676 0.008137809 -0.06221549
000130 69 ca bd bc e1 e4 26 3b 35 c6 40 bc b9 72 c7 bb
       -0.023167806 0.0025466012 -0.011766006 -0.006086674
000140 72 82 05 3c 91 72 86 3c bc da c1 bb a4 d3 2c 3c
       0.008148776 0.016412051 -0.0059159677 0.010548506
000150 db f8 27 3d 81 92 36 bd 31 41 03 bd 70 87 51 3d
       0.04100881 -0.04457331 -0.032044593 0.051154554
000160 b3 6c c5 3b a3 02 eb 3c 63 00 90 3c b4 d9 5e 3a
       0.006024921 0.02868778 0.01757831 0.0008501068
000170 6c 04 15 3d 0a 70 45 ba 98 33 b9 ba 26 0a ed 3b
       0.03638117 -0.0007531649 -0.0014129756 0.007233876
000180 9f 1f 5e bc 6a 7f ce ba a9 5b e7 bb bf cd 11 bd
       -0.013557344 -0.0015754525 -0.0070604873 -0.035596605
000190 d1 d1 5f bc 00 6e 0b 3c cf e7 f8 bb 78 1d a9 3c
       -0.013660864 0.008510113 -0.007595993 0.020643935
0001a0 88 cc ad 3c 09 d5 7a bb ef 78 ac bc a6 89 3a 3d
       0.021215692 -0.0038273952 -0.02105376 0.045541428
0001b0 6d 4b 98 bc 2a 93 ce 3c 4a 5d 7a 3c 7a db 08 3d
       -0.018590653 0.025216658 0.015281031 0.033412434
0001c0 e7 90 b3 ba d5 35 79 ba ab e8 0a 3d 28 dc 9e bc
       -0.00136998 -0.0009506618 0.033913296 -0.019392088
0001d0 d7 2a ea 3c 22 0c 80 bc 12 56 ee bc b8 d0 fc 3b
       0.02858488 -0.015630785 -0.029093776 0.007715311
0001e0 31 1f 04 bd 21 4f a2 3b 6c 77 3a 3d 07 bc aa 3c
       -0.03225631 0.0049532806 0.045524046 0.020841612
0001f0 9a 24 15 3c ed c0 76 3b 0b 68 a8 3c e3 bb 15 3d
       0.009102965 0.0037651614 0.020557424 0.036556136
000200 eb 11 27 bc 21 bb af bc fb 3e 8c 3c b4 39 13 bc
       -0.010197143 -0.021451535 0.017119875 -0.0089859255
000210 95 01 26 bb 0c c8 49 3c 81 f9 7d bc 31 35 a8 3c
       -0.0025330533 0.012315761 -0.015501381 0.020533176
000220 8f 56 06 3b 33 09 a3 bb ad 0d a7 bc f6 27 03 3b
       0.002049837 -0.004975462 -0.020392263 0.0020012832
000230 27 7a cb bc 8f a0 3c bc 0f 62 b0 bc 22 e4 cd 3c
       -0.02483852 -0.0115128895 -0.021531133 0.025133196
000240 04 86 98 bc 02 9e 21 bb 3d d7 8f 3b e6 13 d1 3c
       -0.018618591 -0.002466083 0.004389672 0.025522184
000250 e1 14 96 bb 8f 88 9f 3c 3b 7b 7b bc 2a 8e 8f 3c
       -0.0045801257 0.019474296 -0.015349205 0.017523844
000260 a5 8f 84 3c aa ee f1 b9 a4 32 68 bd c8 70 32 3d
       0.016181776 -0.0004614492 -0.05668892 0.043564588
000270 e6 e9 1e 3c c8 5c 7c bc 74 f6 8e 3c 4c d9 37 3c
       0.00969932 -0.01540298 0.017451502 0.011221241
000280 99 6a 26 3c fd 33 e6 3b b0 46 d8 bc 9f a0 c0 bc
       0.010157251 0.0070252405 -0.026400894 -0.02351409
000290 43 e6 88 bc 52 7b 7f 3c 05 16 63 3d c0 f8 48 bc
       -0.01671136 0.015593367 0.05544092 -0.012266338
0002a0 a7 7f ad bc ea fb 66 39 c5 6c f1 bb 52 c6 64 bc
       -0.021179033 0.00022028355 -0.0073677027 -0.013963299
0002b0 33 92 64 3c df d3 7f 3a fa 81 32 3c 91 57 1d 3c
       0.013950872 0.0009759049 0.010895247 0.009603397
0002c0 45 b3 1d 3d 15 1d 1c bd 6a 72 f0 bc 57 1e 35 3c
       0.038501043 -0.038113672 -0.029351432 0.011054597
0002d0 c1 36 8b bb 46 5d 20 bd 41 d4 42 bd 7e 85 88 3c
       -0.0042484705 -0.039151452 -0.047565702 0.016665217
0002e0 45 f6 8a bc a5 82 00 bd ab f9 05 bc c3 a1 b2 3c
       -0.016963134 -0.031374592 -0.008177201 0.02180565
0002f0 f5 95 47 3d 6a 6d 99 3a 9b 3c a2 3c d0 53 db bc
       0.048726995 0.0011705582 0.01980429 -0.026773363
000300 1f 55 d6 bc 1b 6c b3 3c 4e 68 be bc a5 da 0d 3c
       -0.026163636 0.021902135 -0.023243096 0.008658086
000310 48 a8 63 bd 63 1c 17 3c 0d 72 4c 3d 70 5e c5 bc
       -0.055580407 0.0092230765 0.049913455 -0.024092883
000320 cf 2f 42 bc 9e 29 f1 3c ab 83 8d 3c 81 0a be bc
       -0.011852219 0.02943879 0.017274698 -0.023198368
000330 e3 8f d0 bc 7c 95 05 ba 88 4c 2e bd cb 69 a7 bc
       -0.025459236 -0.0005095822 -0.042553455 -0.020436188
000340 92 e5 9a 3c ba 9b 7f 3c 67 32 48 bd 8e 00 b8 bc
       0.018908296 0.015601093 -0.048876192 -0.022461202
000350 56 73 5c bd 7a d8 6a 3c 5c 7c a1 3c 78 b4 0b bc
       -0.05382093 0.014333839 0.01971262 -0.008526914
000360 9d 9e 3b ba 54 3f 49 bd c4 c6 15 bd b4 2c eb bc
       -0.0007157119 -0.04913266 -0.03656651 -0.02870784
000370 02 a4 b3 bc 30 91 a1 38 39 c3 86 3b 35 71 03 3d
       -0.021928791 7.7041215e-05 0.004112628 0.032090385
000380 5f e0 90 bc 72 79 bf 3a ee e8 81 3c 8c f0 24 bd
       -0.017685113 0.0014608337 0.01585814 -0.040268466
000390 89 cc b2 bb 62 1f d5 bc 3e 10 5b 3d e4 30 b8 3c
       -0.0054565114 -0.026015941 0.053482287 0.02248425
0003a0 07 60 ee 3c d8 d8 ee bb 7d ba 06 3d 3c 2d 64 bc
       0.029098524 -0.0072890334 0.032892693 -0.0139268
0003b0 2f 17 03 bd 46 fd 12 3c c5 3c 9a bc 2e 30 ae bb
       -0.03200453 0.008971518 -0.018827805 -0.005315802
0003c0 a3 9e c7 3c 96 dc d9 bc 04 34 03 bd 7c fa ad 3b
       0.024367636 -0.026594441 -0.032032028 0.005309401
0003d0 46 d5 38 bc 9a 8d 6f 3c 8d f6 c3 3c f0 fe 28 bd
       -0.011281317 0.014621163 0.023921276 -0.041258752
0003e0 59 9b a9 bb 60 88 21 3c bf 3d 16 bd 12 7f b6 3c
       -0.0051759896 0.0098591745 -0.03667998 0.022277389
0003f0 7f 68 c8 3c fe 7c ac bc 6b 0f 12 bc e8 27 50 bc
       0.02446389 -0.021055695 -0.008914809 -0.012704827
