Final Project/FacT-TK/smallnorb_ele_best.pt (torch, 153367 bytes, 6 tensors)

FacTp f4 [16, 144]
0.15708095 -0.24184197 -0.041657694 0.13556108 0.02529588 0.05243366 0.1145586 0.020224273
-0.138391 -0.11604325 -0.039276417 -0.06244007 -0.19645311 0.07737161 -0.22268102 -0.0067444216
0.15983883 -0.15123603 0.00062245486 -0.017961906 0.044305187 0.17654738 0.15019655 -0.02063696
0.045589257 0.054556675 -0.17664045 0.16934358 0.086111195 0.21822093 -0.010591022 -0.17582405
0.23330404 -0.1991932 0.25608793 -0.17314011 -0.026686175 -0.06509907 0.1931212 0.10851286
0.1430784 0.017659001 0.18044733 0.07434867 0.06380556 0.22012058 0.24000931 -0.014480791
0.13245013 0.2646949 0.18536505 0.04535141 -0.018264469 -0.0040109237 0.07898431 0.10829423
0.236193 0.0035373652 0.1772228 -0.024904875 0.1248523 -0.15869756 -0.13902381 -0.1901111
-0.19861564 -0.08964205 0.10167859 0.16636436 0.2894553 0.10598829 -0.18077585 -0.12739098
0.04461918 -0.1635202 -0.0007013151 -0.012833095 -0.17591879 0.023930376 0.0018058314 0.13504677
-0.036574367 -0.20846494 0.09560248 -0.15645143 0.09569241 -0.0070027285 0.10540094 -0.029063411
0.13626096 -0.021794029 0.034258172 -0.083523005 -0.13885054 0.14219643 -0.035410587 0.0849624
0.01327185 0.11597991 0.096726246 0.022080388 0.036530353 0.043378584 -0.19978373 0.16201398
-0.12086859 -0.24822588 -0.16118908 0.20797722 0.19084279 0.17476903 0.078216314 -0.19595776
0.014135645 0.035996467 -0.062342435 0.061052967 0.1833323 -0.14535934 0.10572041 -0.19816329
-0.046121255 -0.067612536 0.24455252 -0.11639899 -0.09999919 -0.20531574 0.20878884 0.1700073
-0.21377267 -0.109918304 0.16168715 -0.11680265 -0.23705967 -0.22438353 0.033843514 -0.20408109
0.002090924 0.20879743 0.07473813 -0.19361065 -0.07765517 -0.15486163 0.18548839 0.10838051
0.05105976 -0.07045707 0.14831358 -0.13161923 0.19547167 -0.2848127 0.11257761 -0.023246212
-0.0029347735 -0.18190874 -0.2957427 0.22723499 0.19186084 0.12183151 -0.115277745 0.21571513
0.024834301 0.067863315 -0.09816652 -0.18311886 -0.23466507 -0.123590074 -0.19245799 0.14534153
-0.17420265 -0.034707345 -0.15700431 -0.13715094 0.09144961 -0.1313171 0.015702687 -0.1503783
0.19402973 -0.058219638 0.045350324 0.14030795 -0.19078715 0.056916956 -0.00639322 -0.04378185
0.15392125 -0.012156523 0.015099025 -0.1484988 -0.017322656 -0.14863834 0.030243691 0.15397047
-0.038596828 -0.033447787 0.05804846 -0.17159122 0.16689526 -0.006709014 -0.21102366 0.036461536
-0.036566358 -0.120792784 -0.11279752 0.06550729 0.25039867 -0.13304727 0.06464711 -0.112438
-0.12503558 -0.005336471 -0.021102581 -0.14426239 -0.10109273 -0.12902202 0.10660094 -0.07751023
0.029761612 -0.036168613 0.17716902 -0.08208904 0.011819153 0.0118191615 -0.07707831 -0.044561334
-0.07535563 0.10672181 0.17185989 0.1332761 -0.26679537 -0.065694354 -0.16166164 -0.040096115
0.11912053 -0.15760894 -0.057488024 0.16110282 0.0051870504 0.24377659 0.12813197 -0.05833861
-0.22421958 -0.1663294 0.12661284 0.119796656 -0.070595205 -0.01356649 -0.029127557 0.07860284
-0.07097864 -0.11413395 -0.087551124 0.15902898 -0.062352676 0.0050179814 -0.24230093 -0.25949517
00000000: d4d9 203e 6ca5 77be 42a1 2abd 86d0 0a3e
00000010: 4e39 cf3c adc4 563d b39d ea3d 60ad a53c
00000020: 5fb6 0dbe 15a8 edbd 4fe0 20bd 29c1 7fbd
00000030: 012b 49be 0275 9e3d 7e06 64be 4f00 ddbb
00000040: caac 233e 9edd 1abe 3d2c 233a d924 93bc
00000050: 5b79 353d d6c8 343e 20cd 193e d80e a9bc
00000060: cdbb 3a3d d276 5f3d 3ce1 34be 6768 2d3e
00000070: 115b b03d 4f75 5f3e f785 2dbc 380b 34be
00000080: 41e7 6e3e 4df9 4bbe f51d 833e a44b 31be
00000090: f79c dabc a952 85bd 90c1 453e fe3b de3d
000000a0: 2583 123e 9ca9 903c 2fc7 383e 1e44 983d
000000b0: 7dac 823d 4a67 613e 00c5 753e d740 6dbc
000000c0: 02a1 073e 1786 873e 56d0 3d3e 66c2 393d
000000d0: 5e9f 95bc 116e 83bb 87c2 a13d 5ec9 dd3d
000000e0: 94dc 713e 24d3 673b e579 353e 4f05 ccbc
000000f0: 90b2 ff3d 9d81 22be 425c 0ebe 7cac 42be
00000100: e661 4bbe 4096 b7bd dd3c d03d 6b5b 2a3e
00000110: 7c33 943e 6310 d93d 4e1d 39be c872 02be
00000120: 9ac2 363d d771 27be 76d8 37ba e741 52bc
00000130: 0e24 34be a309 c43c a6b1 ec3a b349 0a3e
00000140: 01cf 15bd d577 55be 3ccb c33d ce34 20be
00000150: 62fa c33d 2577 e5bb 73dc d73d 6416 eebc
00000160: fe87 0b3e 6489 b2bc 4c52 0c3d 1c0e abbd
00000170: d62e 0ebe f19b 113e b10a 11bd c400 ae3d
00000180: 2c72 593c e086 ed3d 6918 c63d eee1 b43c
00000190: daa0 153d bead 313d 1b94 4cbe fee6 253e
000001a0: f489 f7bd ed2e 7ebe c00e 25be fbf7 543e
000001b0: 4b6c 433e a7f6 323e e02f a03d 27a9 48be
000001c0: 3199 673c 0871 133d c85a 7fbd ad12 7a3d
000001d0: 76bb 3b3e 14d9 14be f183 d83d 51eb 4abe
000001e0: a4e9 3cbd 7178 8abd fa6b 7a3e 9862 eebd
000001f0: 60cc ccbd 4a3e 52be becc 553e 6516 2e3e
00000200: 39e7 5abe d91c e1bd 5191 253e 3a36 efbd
00000210: c5bf 72be ccc4 65be 7f9f 0a3d a2fa 50be
00000220: e207 093b fece 553e 4e10 993d df41 46be
00000230: ac09 9fbd 0c94 1ebe abf0 3d3e 9af6 dd3d
00000240: 0a24 513d cc4b 90bd 84df 173e 31c7 06be
00000250: ba29 483e f8d2 91be 178f e63d d76e bebc
00000260: 5455 40bb 4946 3abe 966b 97be 4ab0 683e
00000270: 2b77 443e cc82 f93d bd16 ecbd 6de4 5c3e
00000280: 4e71 cb3c ecfb 8a3d 870b c9bd 8383 3bbe
00000290: 0a4c 70be cb1c fdbd b513 45be 69d4 143e
000002a0: 2e62 32be 4a29 0ebd bdc5 20be 4c71 0cbe
000002b0: ef49 bb3d fd77 06be eca2 803c c5fc 19be
000002c0: bbaf 463e b777 6ebd 43c1 393d e3ac 0f3e
000002d0: b55d 43be c121 693d 377e d1bb 9954 33bd
000002e0: 889d 1d3e 272c 47bc e761 773c 1210 18be
000002f0: 3ee8 8dbc a634 18be 9ec1 f73c 6faa 1d3e
00000300: b517 1ebd 8c00 09bd 39c4 6d3d 9cb5 2fbe
00000310: 97e6 2a3e 4ad7 dbbb 9616 58be b158 153d
00000320: 9bc6 15bd 3562 f7bd 6302 e7bd b028 863d
00000330: 4134 803e 8b3d 08be b465 843d e545 e6bd
00000340: 5409 00be 90dd aebb 52df acbc 85b9 13be
00000350: b509 cfbd 591e 04be 9851 da3d afbd 9ebd
00000360: a0ce f33c 8a25 14bd cc6b 353e 4c1e a8bd
00000370: 1fa5 413c 28a5 413c 3cdb 9dbd f285 36bd
00000380: 0d54 9abd f790 da3d 0afc 2f3e 8879 083e
00000390: 6799 88be c38a 86bd a18a 25be d33b 24bd
000003a0: 77f5 f33d 3d64 21be 9078 6bbd 23f8 243e
000003b0: 22f8 a93b 92a0 793e 0735 033e 77f4 6ebd
000003c0: d199 65be 4152 2abe cca6 013e f357 f53d
000003d0: 3894 90bd fc45 5ebc ea9c eebc 87fa a03d
000003e0: 405d 91bd 0fbf e9bd 014e b3bd 7ed8 223e
000003f0: 8565 7fbd e16d a43b bc1d 78be 8ddc 84be

FacTc f4 [16, 16, 16]
0.012993659 -0.08506529 0.13423993 0.100789115 -0.096612476 0.06547653 -0.04930791 0.03958309
0.020334655 0.011177074 -0.0069403904 0.14499433 -0.023703486 0.10577818 -0.11263989 -0.008463169
-0.018166339 -0.1385852 0.07841482 0.04770122 0.102122836 0.051641203 0.09365368 0.060098063
0.011030026 0.03199778 0.04773135 0.018079456 -0.026989985 -0.02310929 -0.08722586 -0.1338437
0.120291054 0.09994468 0.102466226 -0.034962796 -0.0038162773 -0.14112166 0.12659217 -0.10235966
-0.0789347 -0.049212698 0.01650385 -0.05859501 0.034164436 0.087496676 -0.030022813 -0.021158217
0.070772216 0.15954092 -0.09818967 0.16562757 0.10971411 0.0841468 -0.095523976 -0.010248767
-0.0697853 -0.081231005 0.058623068 -0.0103004575 -0.100149184 -0.15294628 -0.15027864 -0.11863305
0.035661455 -0.059299815 0.014563699 -0.11928756 0.026164921 0.059074312 0.0031553868 -0.14225695
-0.040386543 -0.1802106 0.18939263 0.12704349 0.13509272 0.029155515 -0.07060624 -0.09331686
0.013244914 -0.04808692 -0.06161864 0.028505832 0.17011392 0.06609657 -0.09069489 0.080659136
0.039097972 0.041667674 0.015767606 0.14005579 -0.012844075 -0.0052650506 -0.02708919 -0.022193575
-0.069198295 0.06456275 0.05816405 0.03070716 -0.006510664 -0.038829647 -0.0627387 -0.14991303
0.045247253 0.008649496 -0.022753226 -0.08247485 0.1278278 0.09333969 -0.07607294 0.09765817
0.0709846 -0.08635056 0.033626992 0.0022099174 -0.037024546 0.094071425 0.08236308 0.13232134
-0.046638362 0.09254251 -0.039276958 0.103817195 0.035886757 -0.09741907 -0.038828757 -0.11808426
-0.11871906 0.03830554 -0.14773813 -0.082193896 -0.06589734 -0.08524873 -0.05626091 -0.1505848
0.095340244 0.091425285 0.015015276 0.024666699 0.085718304 -0.04351035 0.116087146 0.16462624
0.012875449 -0.03271442 0.023628764 -0.045137957 -0.05139427 0.030628093 0.12025634 -0.10781706
0.005279035 -0.052077767 -0.030304564 0.13275884 -0.0769848 -0.08679317 0.0804949 0.047478057
0.14450446 -0.025022436 0.08393351 0.056284852 -0.01985931 -0.047470693 0.03743223 -0.1359861
-0.044704694 0.0551813 0.051748402 0.047052316 -0.0591644 0.026614634 0.15359823 0.064854436
-0.06481247 -0.04677504 0.063470595 -0.06279492 0.03952623 0.027970897 -0.024427122 0.11836764
-0.017055342 0.027014075 0.0826249 0.0507386 -0.041556105 -0.15685575 -0.078663655 -0.018876959
-0.06709981 0.06019651 0.0029953825 -0.06910709 -0.07147173 0.018357981 -0.05308244 -0.10448193
0.118914925 -0.029432457 -0.018203001 0.03893822 -0.018368993 -0.048222836 -0.047356244 -0.07828549
0.03941873 -0.111294284 0.04093015 0.01574465 -0.15952465 0.013559171 0.0062961136 -0.11476542
-0.09691062 -0.00428952 0.070618026 -0.05569824 0.0995513 0.051065817 0.016538445 0.045686297
0.08382344 0.026022019 -0.053543534 -0.06305785 -0.08915437 -0.07588041 -0.04487655 -0.054318346
-0.09359914 -0.08511105 -0.11841763 0.098172866 0.063031696 -0.048477504 -0.03269938 -0.03901346
0.023246335 -0.022992143 0.002363006 0.105200626 -0.013145458 -0.013877395 -0.15441658 0.0906354
0.054039277 0.04398554 -0.03451736 0.06590306 4.1177842e-05 0.0058029178 0.0635184 -0.09106668
00000000: 5be3 543c b636 aebd 3176 093e 866a ce3d
00000010: c3dc c5bd 8f18 863d 17f7 49bd e121 223d
00000020: dd94 a63c 0c20 373c 376c e3bb 6579 143e
00000030: d02d c2bc 3ba2 d83d beaf e6bd 1ba9 0abc
00000040: 93d1 94bc 47e9 0dbe f397 a03d 5b62 433d
00000050: c725 d13d ba85 533d 80cd bf3d 6329 763d
00000060: 48b7 343c 1b10 033d f381 433d 5e1b 943c
00000070: 1a1a ddbc b24f bdbc 79a3 b2bd 530e 09be
00000080: 285b f63d ccaf cc3d d0d9 d13d 2635 0fbd
00000090: 821a 7abb 3282 10be 61a1 013e f1a1 d1bd
000000a0: 84a8 a1bd 4193 49bd 1533 873c 5201 70bd
000000b0: 02f0 0b3d 7531 b33d 67f2 f5bc ff53 adbc
000000c0: 06f1 903d b25e 233e aa17 c9bd 469a 293e
000000d0: cbb1 e03d 2855 ac3d 13a2 c3bd 72ea 27bc
000000e0: 98eb 8ebd 715c a6bd be1e 703d 40c3 28bc
000000f0: 041b cdbd f39d 1cbe a5e2 19be e2f5 f2bd
00000100: bf11 123d 5de4 72bd 959c 6e3c 094d f4bd
00000110: d157 d63c e8f7 713d 9bca 4e3b ceab 11be
00000120: 5c6c 25bd 2189 38be 24f0 413e b017 023e
00000130: bf55 0a3e 8cd7 ee3c 019a 90bd e91c bfbd
00000140: 3201 593c caf6 44bd d463 7cbd 1085 e93c
00000150: 5832 2e3e a35d 873d 3ebe b9bd 9e30 a53d
00000160: 3225 203d b9ab 2a3d 112b 813c c96a 0f3e
00000170: f56f 52bc 7286 acbb 26ea ddbc 4dcf b5bc
00000180: d6b7 8dbd 7a39 843d 6d3d 6e3d 958d fb3c
00000190: 6857 d5bb d60b 1fbd 267d 80bd cd82 19be
000001a0: 2f55 393d 9eb6 0d3c f964 babc 93e8 a8bd
000001b0: 4ae5 023e e128 bf3d 21cc 9bbd 0201 c83d
000001c0: 6060 913d 90d8 b0bd 75bc 093d 43d4 103b
000001d0: 0da7 17bd 85a8 c03d f9ad a83d 3f7f 073e
000001e0: de07 3fbd ed86 bd3d e0e0 20bd 1c9e d43d
000001f0: fefd 123d a683 c7bd e70a 1fbd 29d6 f1bd
00000200: fb22 f3bd 45e6 1c3d aa48 17be 4655 a8bd
00000210: 2ff5 86bd e396 aebd d771 66bd e732 1abe
00000220: bf41 c33d 2e3d bb3d a202 763c d111 ca3c
00000230: 148d af3d e937 32bd 19bf ed3d c893 283e
00000240: 8cf3 523c 8eff 05bd 1c91 c13c 94e2 38bd
00000250: cc82 52bd c4e7 fa3c f548 f63d 31cf dcbd
00000260: c1fb ac3b 7f4f 55bd 4741 f8bc eff1 073e
00000270: 35aa 9dbd 9ec0 b1bd 83da a43d 5a78 423d
00000280: faf8 133e dafb ccbc 55e5 ab3d f28a 663d
00000290: feaf a2bc a170 42bd 8a52 193d f13f 0bbe
000002a0: 451c 37bd c905 623d 22f6 533d eeb9 403d
000002b0: 5f56 72bd ef06 da3c db48 1d3e 67d2 843d
000002c0: 66bc 84bd 2f97 3fbd dffc 813d 9f9a 80bd
000002d0: 42e6 213d 3923 e53c 631b c8bc bc6a f23d
000002e0: a5b7 8bbc 9f4c dd3c 3e37 a93d 47d3 4f3d
000002f0: bc36 2abd cb9e 20be 691a a1bd daa3 9abc
00000300: a06b 89bd 9e90 763d 2e4e 443b 0588 8dbd
00000310: c55f 92bd 7a63 963c f96c 59bd 9ffa d5bd
00000320: ab89 f33d 561c f1bc 761e 95bc af7d 1f3d
00000330: 927a 96bc 4f85 45bd 9ff8 41bd 2554 a0bd
00000340: 8975 213d 42ee e3bd 5fa6 273d edfa 803c
00000350: 6e5a 23be 4927 5e3c a14f ce3b 220a ebbd
00000360: 1379 c6bd 1a8f 8cbb 2fa0 903d d623 64bd
00000370: 8de1 cb3d 642a 513d a27b 873c 8e21 3b3d
00000380: a0ab ab3d 212c d53c 7750 5bbd 7924 81bd
00000390: 9196 b6bd 3067 9bbd 79d0 37bd ea7c 5ebd
000003a0: e8b0 bfbd b44e aebd f184 f2bd db0e c93d
000003b0: c316 813d 5990 46bd c9ef 05bd 94cc 1fbd
000003c0: 196f be3c 055a bcbc a9dc 1a3b 6d73 d73d
000003d0: 0c60 57bc 035e 63bc 611f 1ebe 0d9f b93d
000003e0: 4a58 5d3d 2e2a 343d 1362 0dbd 2ff8 863d
000003f0: 5fb6 2c38 6726 be3b ef15 823d 2b81 babd

head.weight f4 [9, 768]
-0.16321838 0.17808715 0.17696984 -0.15135501 0.03955516 0.08714543 -0.09737899 -0.029704273
-0.07769086 0.07767145 0.22623995 0.045677524 0.038489733 -0.1814893 -0.05929488 0.00015914919
-0.13260129 -0.063921876 0.069603465 -0.1650425 -0.113496006 -0.08798195 0.093623005 0.007649228
0.07934996 -0.090224095 0.051321648 0.22850564 0.05427242 0.084669195 -0.011126204 0.037665665
0.050907128 0.028334493 0.089211226 -0.069440514 0.14998268 -0.20838894 -0.16886188 0.1714148
-0.043009084 -0.007288443 -0.032860648 -0.023271626 -0.14086603 -0.038428355 -0.11319414 -0.09517315
0.008698066 0.035073876 -0.066589415 -0.06348954 -0.05414251 0.0784132 0.12794095 0.055049624
-0.21033023 0.10917766 -0.015324275 -0.16070087 -0.055839144 0.007258126 -0.12919433 -0.0013480184
-0.075286716 -0.14982632 0.13059941 -0.17259037 -0.028831152 -0.1546668 -0.051212374 0.10227855
0.060193785 -0.06476828 0.04133579 -0.05422102 0.12804335 -0.05499681 -0.19549668 0.1654839
0.111025244 0.16185622 0.019191917 -0.12705995 0.059426423 -0.009668961 -0.102732174 0.028976517
-0.09878014 -0.11800437 -0.060517 0.14586565 -0.0587849 -0.001899731 -0.0852928 -0.06681439
-0.0650792 0.05959324 0.114939384 -0.08668013 0.018183613 0.009212831 0.13534196 -0.119505025
-0.027318174 -0.05528403 -0.11256815 0.03791306 -0.11839189 0.019837854 -0.0216354 -0.0021490282
0.018265545 -0.2060838 0.054328773 0.019698152 -0.022916721 -0.121041045 0.043840133 -0.16982499
-0.044253405 -0.07161044 0.06308141 0.2380326 -0.017825756 -0.16683416 0.0038579104 0.11373578
0.000465092 0.03869459 -0.13684331 0.18916409 -0.052453723 -0.010863852 -0.08750796 0.18433347
-0.1324898 0.067405365 0.06542961 0.031839002 0.15476723 0.061455708 -0.092266366 0.046264075
0.07031024 -0.048423924 -0.08656963 -0.13143618 0.08555917 -0.03578535 0.0985156 -0.0026455228
0.2473854 0.07481239 0.031124638 -0.031567797 0.12307219 -0.21322931 0.013873171 -0.09779804
-0.0714559 -0.10632932 -0.096998975 -0.0040815137 0.108302906 -0.12338764 0.03822912 0.010082658
-0.08391845 0.04720855 -0.09563368 -0.028839808 -0.10386323 -0.05375505 0.09991551 0.09204958
-0.018781684 0.03019254 0.008952481 0.08550432 0.0068930173 0.057174094 0.1332526 0.16423498
-0.0033917553 -0.05487473 0.063482 -0.09135417 0.059838455 -0.08865393 0.04182143 -0.134238
0.059960183 -0.049958434 0.24606614 0.21541426 -0.0078860745 0.08629301 0.10134739 0.05335647
0.060448162 0.15786795 0.011657574 -0.19511773 0.07743335 -0.013940283 0.06979077 0.06789763
0.06903359 0.13829514 0.11227334 0.0027599747 0.02095473 -0.09516573 -0.042546745 -0.13576886
0.14020167 -0.058629435 0.12325968 0.015467293 -0.0722812 -0.0888353 0.022283968 -0.08846647
0.13873512 -0.14650708 0.14331248 0.058705978 0.16784005 0.15255949 -0.168409 0.041707486
0.05295113 0.027769152 -0.049075708 0.118763074 -0.03706086 0.07779226 -0.15086253 0.017027125
0.038345203 0.13712995 -0.021994866 -0.024410913 0.09458418 -0.10867035 -0.22977346 0.13412935
0.023836782 0.018330997 0.06785052 0.006583317 -0.09114188 0.050944503 -0.11852703 -0.12227313
00000000: b822 27be 7a5c 363e 9537 353e cffc 1abe
00000010: 9704 223d 4e79 b23d a36e c7bd 6056 f3bc
00000020: 631c 9fbd 3612 9f3d 72ab 673e 5b18 3b3d
00000030: 69a7 1d3d 55d8 39be 30df 72bd 49e1 2639
00000040: a2c8 07be 79e9 82bd 438c 8e3d e700 29be
00000050: 9870 e8bd e12f b4bd 6bbd bf3d 60a6 fa3b
00000060: 3b82 a23d 69c7 b8bd a636 523d 62fd 693e
00000070: c24c 5e3d 0b67 ad3d af4a 36bc 5047 1a3d
00000080: fe83 503d bd1d e83c 60b4 b63d d436 8ebd
00000090: 0f95 193e e963 55be 21ea 2cbe 5d87 2f3e
000000a0: 4b2a 30bd e4d3 eebb e398 06bd 23a4 bebc
000000b0: 2f3f 10be 0d67 1dbd 54d2 e7bd 24ea c2bd
000000c0: 5582 0e3c a0a9 0f3d 0860 88bd ce06 82bd
000000d0: 89c4 5dbd 1a97 a03d f402 033e b77b 613d
000000e0: cf60 57be 8998 df3d ab12 7bbc c58e 24be
000000f0: 96b7 64bd 93d5 ed3b 854b 04be feaf b0ba
00000100: ec2f 9abd 126c 19be dabb 053e 88bb 30be
00000110: 4f2f ecbc f960 1ebe 11c4 51bd 6b77 d13d
00000120: c28d 763d 3ba5 84bd b84f 293d dc16 5ebd
00000130: cc1d 033e 5644 61bd 4830 48be 9d74 293e
00000140: 3461 e33d a3bd 253e 5e38 9d3c 011c 02be
00000150: 1f69 733d 906a 1ebc 3f65 d2bd 2960 ed3c
00000160: 3e4d cabd 46ac f1bd ace0 77bd ce5d 153e
00000170: 6fc8 70bd 6500 f9ba fead aebd fcd5 88bd
00000180: 3e48 85bd 0b18 743d 5765 eb3d 5a85 b1bd
00000190: cdf5 943c 6af1 163c 1597 0a3e 0dbf f4bd
000001a0: 5dca dfbc 8271 62bd 218a e6bd ba4a 1b3d
000001b0: 7277 f2bd ff82 a23c b93c b1bc b6d6 0cbb
000001c0: a0a1 953c a207 53be d987 5e3d 055e a13c
000001d0: d9bb bbbc 5ee4 f7bd b691 333d 9ae6 2dbe
000001e0: 0f43 35bd 7fa8 92bd d430 813d d1be 733e
000001f0: 5207 92bc 93d6 2abe ffd4 7c3b 4eee e83d
00000200: 97d7 f339 387e 1e3d a720 0cbe 3bb4 413e
00000210: b7d9 56bd 4cfe 31bc 6037 b3bd eac1 3c3e
00000220: 68ab 07be d30b 8a3d f6ff 853d 9d69 023d
00000230: 4d7b 1e3e fbb8 7b3d 26f6 bcbd 667f 3d3d
00000240: d1fe 8f3d 2a58 46bd 6b4b b1bd 3597 06be
00000250: a539 af3d a993 12bd 8cc2 c93d 8260 2dbb
00000260: 9952 7d3e 3d37 993d 19f9 fe3c 3c4d 01bd
00000270: 460d fc3d c958 5abe 4c4c 633c 574a c8bd
00000280: 7957 92bd 30c3 d9bd 66a7 c6bd 38be 85bb
00000290: eacd dd3d a9b2 fcbd 2396 1c3d bc31 253c
000002a0: 70dd abbd c15d 413d 97db c3bd 7641 ecbc
000002b0: 3fb6 d4bd 412e 5cbd 81a0 cc3d 7d84 bc3d
000002c0: 0cdc 99bc 5856 f73c 6dad 123c e41c af3d
000002d0: d2de e13b 622f 6a3d 5f73 083e 372d 283e
000002e0: 3648 5ebb 53c4 60bd da02 823d e517 bbbd
000002f0: 2b19 753d 3190 b5bd f34c 2b3d b075 09be
00000300: cf98 753d 37a1 4cbd c3f8 7b3e 8e95 5c3e
00000310: 9834 01bc 64ba b03d 388f cf3d 508c 5a3d
00000320: 7e98 773d 23a8 213e 69ff 3e3c f1cc 47be
00000330: 6095 9e3d c965 64bc 77ee 8e3d ea0d 8b3d
00000340: 7c61 8d3d 3e9d 0d3e 91ef e53d b1e0 343b
00000350: 41a9 ab3c 40e6 c2bd 7f45 2ebd fe06 0bbe
00000360: 0791 0f3e 6b25 70bd 926f fc3d 876a 7d3c
00000370: 2a08 94bd 48ef b5bd de8c b63c e92d b5bd
00000380: 9410 0e3e f405 16be 82c0 123e ae75 703d
00000390: 43de 2b3e 8e38 1c3e 6973 2cbe 78d5 2a3d
000003a0: 49e3 583d 227c e33c 9c03 49bd 0e3a f33d
000003b0: 21cd 17bd 8c51 9f3d b57b 1abe 787c 8b3c
000003c0: dc0f 1d3d cb6b 0c3e 942e b4bc 65f9 c7bc
000003d0: 5ab5 c13d 8f8e debd bc49 6bbe 3459 093e
000003e0: 5b45 c33c e32a 963c 37f5 8a3d deb8 d73b
000003f0: 98a8 babd 2fab 503d 4dbe f2bd 566a fabd

head.bias f4 [9]
-0.005830712 -0.012254079 0.019830298 -0.012644217 0.012929391 -0.034058444 -0.023925507 0.03043171
0.039503943
00000000: 8f0f bfbb 55c5 48bc 2673 a23c b129 4fbc
00000010: ccd5 533c de80 0bbd 6dff c3bc ec4b f93c
00000020: e3ce 213d

FacTu.weight f4 [16, 768]
0.026016502 0.013102228 0.029198367 0.09534671 -0.017945604 -0.0619221 0.056247212 -0.040946644
0.095499896 0.032636944 -0.00798216 0.034643177 0.039676275 0.031525407 0.0015587346 0.068860024
0.021325437 0.07169736 -0.010043394 -0.009314961 0.011411836 -0.06753127 -0.034950934 0.018481992
0.04736861 -0.054474283 -0.05903537 -0.034080524 0.049226686 0.021679725 0.03162406 -0.022775842
0.0005751909 -0.012113967 0.036120955 0.0016678331 0.014516355 0.0066973045 0.046932966 -0.021263147
-0.0025056517 -0.04262421 0.024059048 -4.7102854e-05 0.08851967 -0.011603945 -0.050639383 0.048083987
0.0019909511 -0.027211342 0.089788444 -0.017251218 -0.058533084 0.0006692878 0.038429942 0.02220584
0.017901087 -0.019798348 -0.005803874 -0.025662027 -0.05103594 0.021536382 0.010830039 0.0602318
-0.041143663 -0.0468047 0.013126862 -0.023306724 0.0017912687 0.019917648 -0.008275725 0.016892504
-0.020277891 0.030624699 -0.011620872 -0.041724667 0.03506382 0.0798626 0.0035546797 -0.10665696
-0.0009933892 -0.034511063 0.04884127 -0.020116374 -0.03262763 -0.046744533 0.025273805 -0.014216677
-0.009173443 0.052906357 0.03364246 -0.078085154 -0.047376618 0.012317283 0.012355478 -0.0038247793
0.034333207 -0.025782645 0.08678007 0.0030071589 -0.00846712 -0.030505273 0.034603752 -0.072413735
-0.0846986 -0.034628905 -0.12887229 -6.652318e-05 0.049506243 0.021364398 -0.021039668 -0.027475517
-0.012227622 0.044643726 0.018451039 -0.063982986 -0.018902365 -0.0141335875 -0.026289549 0.054130483
0.03260147 0.05926341 0.050957005 -0.03545002 0.022305153 0.0011929368 -0.047686245 0.03302439
0.001955643 0.033842582 0.01914456 0.015113475 0.016618347 0.01240879 0.058630276 0.017139213
-0.032338295 0.0071172933 -0.032725796 -0.048055973 -0.050260372 0.0313649 -0.008920871 0.018238932
0.008098177 0.005647173 0.03420441 -0.016705137 0.051607493 0.034754593 0.023011602 0.01639931
-0.075527504 -0.05087344 0.00020260735 -0.0105856955 -0.081806466 0.026508402 0.034086827 -0.0007185172
-0.028554339 0.0097716 0.08787264 -0.019939225 0.03124404 0.03739379 0.06294358 0.024945745
-0.029095307 0.076506026 -0.09297556 -0.036817875 0.0057190335 -0.028946549 0.026844017 -0.0631559
-0.013208251 0.024976503 -0.01734457 -0.05648552 -0.00865526 0.036853533 0.023634907 -0.03616442
-0.083189316 -0.04741139 0.030070372 0.046737976 -0.066137336 0.032690976 -0.046746276 0.037692767
-0.01060041 0.01212345 -0.015473852 0.03663217 0.0059667695 -0.05330083 0.03445084 0.004781104
-0.04786839 0.023195796 -0.011023045 0.002291464 -0.08957115 -0.017002592 -0.03513241 0.007978704
-0.06778366 -0.04025287 -0.054610543 -0.014578156 0.002682126 0.016263807 -0.04275142 -0.04913431
0.036225837 0.059735786 -0.07630498 -0.04991286 0.060767755 -0.00917389 0.0019156572 0.007927299
-0.1041219 0.05137437 -0.05064887 0.048992615 0.035863288 -0.038377196 0.026478872 -0.06945143
0.014204025 -0.016498126 -0.007987677 -0.017762274 0.04908237 -6.7234454e-05 -0.04222021 0.011526001
-0.03768025 -0.077557676 0.060817868 0.0027930045 -0.03142222 -0.04613399 0.04406131 -0.043115575
-0.018194761 -0.011980376 -0.03707953 0.03315527 -0.017054908 -0.0005783135 0.04280691 -0.05382918
00000000: 8f20 d53c baaa 563c 6a31 ef3c 2345 c33d
00000010: a902 93bc 07a2 7dbd 7a63 663d abb7 27bd
00000020: 7395 c33d 51ae 053d 9bc7 02bc 01e6 0d3d
00000030: 9783 223d c920 013d 744e cc3a 7c06 8d3d
00000040: afb2 ae3c 11d6 923d 0c8d 24bc c79d 18bc
00000050: b6f8 3a3c d64d 8abd b628 0fbd 8c67 973c
00000060: 9605 423d 6d20 5fbd 12cf 71bd 0598 0bbd
00000070: eca1 493d ae99 b13c 3b88 013d 6794 babc
00000080: 68c8 163a a979 46bc 91f3 133d 319b da3a
00000090: 01d6 6d3c 1075 db3b c83c 403d 0d30 aebc
000000a0: dc35 24bb b996 2ebd 7b17 c53c 4e90 45b8
000000b0: cd49 b53d 791e 3ebc 3e6b 4fbd b7f3 443d
000000c0: 9e7a 023b 52ea debc 01e3 b73d 6d52 8dbc
000000d0: 63c0 6fbd 2573 2f3a b768 1d3d 06e9 b53c
000000e0: 4da5 923c 2530 a2bc 6d2e bebb 2c39 d2bc
000000f0: 100b 51bd 116d b03c 7a70 313c 9fb5 763d
00000100: 4286 28bd 49b6 3fbd 0d12 573c beed bebc
00000110: 01c9 ea3a 562a a33c e896 07bc 2662 8a3c
00000120: d21d a6bc a6e0 fa3c 7865 3ebc 7ce7 2abd
00000130: 159f 0f3d 018f a33d a1f5 683b f76e dabd
00000140: 9c34 82ba 795b 0dbd c90d 483d 18cb a4bc
00000150: 8da4 05bd 3277 3fbd 030b cf3c 11ed 68bc
00000160: 354c 16bc 56b4 583d adcc 093d 1ceb 9fbd
00000170: fc0d 42bd 6ece 493c a16e 4a3c 26a9 7abb
00000180: faa0 0c3d 2036 d3bc c0b9 b13d c113 453b
00000190: adb9 0abc 32e6 f9bc aabc 0d3d a74d 94bd
000001a0: 7676 adbd 0ad7 0dbd 19f7 03be 5c82 8bb8
000001b0: 0fc7 4a3d 6404 af3c 625b acbc 5614 e1bc
000001c0: 5d56 48bc 57dc 363d a226 973c 8309 83bd
000001d0: 22d9 9abc 9090 67bc 2e5d d7bc edb7 5d3d
000001e0: 1e89 053d 30be 723d 4bb8 503d 0a34 11bd
000001f0: 4cb9 b63c 515c 9c3a a752 43bd 9544 073d
00000200: 3f2a 003b 859e 0a3d 0dd5 9c3c 829e 773c
00000210: 3323 883c 3d4e 4b3c 4d26 703d 8967 8c3c
00000220: 2975 04bd 2f38 e93b 7c0b 06bd 57d6 44bd
00000230: d2dd 4dbd 7b78 003d d828 12bc d069 953c
00000240: 37ae 043c ec0b b93b ec19 0c3d 36d9 88bc
00000250: 6162 533d d55a 0e3d d482 bc3c d957 863c
00000260: 2aae 9abd ab60 50bd ff72 5439 a06f 2dbc
00000270: 268a a7bd 2628 d93c a19e 0b3d e05a 3cba
00000280: caea e9bc 1019 203c 92f6 b33d 9657 a3bc
00000290: 80f3 ff3c 3b2a 193d 90e8 803d 055b cc3c
000002a0: 4859 eebc 31af 9c3d f869 bebd 57ce 16bd
000002b0: bb66 bb3b 5021 edbc fce7 db3c e157 81bd
000002c0: 6c67 58bc 869b cc3c 3316 8ebc 5c5d 67bd
000002d0: cbce 0dbc bbf3 163d fe9d c13c 2521 14bd
000002e0: 295f aabd 7232 42bd 2456 f63c 5270 3f3d
000002f0: 0373 87bd f9e6 053d 0679 3fbd bb63 1a3d
00000300: 58ad 2dbc 6fa1 463c 0a86 7dbc 9d0b 163d
00000310: e484 c33b f951 5abd 531c 0d3d cfaa 9c3b
00000320: a511 44bd 1c05 be3c 009a 34bc 632c 163b
00000330: 1471 b7bd 0549 8bbc 00e7 0fbd 1cb9 023c
00000340: 29d2 8abd 32e0 24bd 4eaf 5fbd 38d9 6ebc
00000350: 9bc6 2f3b ad3b 853c 1d1c 2fbd 0f41 49bd
00000360: 8b61 143d 83ad 743d c945 9cbd 6d71 4cbd
00000370: 9ce7 783d 154e 16bc ca16 fb3a 80e1 013c
00000380: dd3d d5bd ee6d 523d 3175 4fbd 7bac 483d
00000390: 62e5 123d 6831 1dbd 38ea d83c 8d3c 8ebd
000003a0: 00b8 683c 1427 87bc bfde 02bc 3082 91bc
000003b0: 980a 493d 3900 8db8 19ef 2cbd 8dd7 3c3c
000003c0: 9b56 1abd 8fd6 9ebd 281c 793d d70a 373b
000003d0: 96b4 00bd fff6 3cbd a279 343d f599 30bd
000003e0: 2e0d 95bc 5749 44bc b5e0 17bd d2cd 073d
000003f0: bcb6 8bbc f699 17ba 4c56 2f3d fc7b 5cbd

FacTv.weight f4 [768, 16]
0.047923744 0.015354104 0.007386263 -0.027204704 -0.03313109 -0.0117312 -0.0070698312 -0.025198305
-0.011735396 0.016524449 0.0007004336 -0.0056849164 -0.016228924 0.046667192 0.03683351 0.010296431
-0.03819722 0.0063133063 0.011506271 -0.010961058 -0.023863414 -0.0066054733 0.008192867 0.0011853804
0.03411119 -0.00926011 -0.02937035 0.005572039 0.022069156 -0.012539875 -0.015310039 -0.037833422
-0.0059386394 0.048477974 -0.006269817 0.018146932 0.010448392 0.066733964 -0.06184619 -0.009092723
0.034409128 -0.020525176 -0.046341293 0.022966776 -0.021255871 -0.03575774 0.037847817 0.04980916
0.04562137 0.01148288 0.019126153 -0.04882171 -0.01641799 -0.04111175 -0.01147935 0.011919525
-0.016224176 0.048155047 0.08066619 -0.034188632 0.04608659 0.07496654 -0.0073987637 -0.028884154
-0.043347396 -0.011158697 -0.04167083 0.016861143 -0.010680936 -0.038042735 -0.0482433 0.029800804
0.0011415789 -0.039155036 -0.025197068 -0.005337523 0.0073977862 0.0075034965 0.040679827 -0.009057205
-0.027007395 0.011346528 -0.045368955 0.0042680916 0.012624106 0.018191015 -0.029998444 -0.055827685
0.024260065 -0.028494272 -0.021731151 0.025582518 0.019992609 -0.017630493 -0.05016645 0.0074673695
0.023421884 0.051179484 -0.0036404813 -0.04648383 0.00271731 -0.006024232 -0.009064966 -0.014099129
0.007884846 0.03221913 0.042649604 -0.028492369 0.028215487 0.006372877 -0.00913298 -0.019260101
0.03486054 -0.04845402 0.032237954 0.06600118 0.041803505 -0.05666595 -0.010255305 0.0063005225
0.046799507 -0.07231249 -0.03601521 0.008213984 0.014420912 -0.021921953 -0.04008688 -0.06333845
0.015590368 0.027824601 0.041777927 0.012010842 -0.06554698 -0.058915008 -0.009048423 0.0055856174
0.0017128235 0.035004023 -0.031219576 -0.04674292 0.013120212 0.0076982835 0.013416152 -0.03603823
-0.017344313 -0.015308134 0.027474336 0.0047591403 0.011131781 0.05551177 0.025673702 0.01728597
-0.038260102 0.005664603 -0.032737352 0.0015563255 -0.06848473 0.021159168 0.05083313 -0.01558714
-0.007966571 -0.018416189 0.01805365 0.020160556 0.009192341 -0.017629249 -0.04370119 0.023576539
0.015759634 0.008464844 -0.025789846 0.012785326 0.021428771 0.0066076047 0.008518883 -0.03542252
0.0129756015 0.028434902 -0.027360605 0.00630732 -0.004523609 0.018600693 0.002509769 0.009474756
-0.02222359 0.0028990402 0.015757075 -0.032271694 -0.018239195 -0.00667926 0.016647203 0.007966443
0.03627117 0.010438418 0.0062 -0.018185936 -0.0006532438 0.023041768 0.03377858 0.01774347
0.006414854 -0.014642552 0.07207465 0.05794097 -0.014072428 -0.025994936 -0.04684099 0.013649643
-0.009371443 -0.01602582 0.020910457 -0.019759243 0.0034866605 -0.022554921 -0.047495168 -0.001529822
-0.0040855412 0.057188995 -0.006243558 0.018775241 -0.03358862 0.033621646 -0.073649645 0.016546091
-0.002014603 0.004426313 -0.018080099 -0.044612274 0.0051442515 0.03606283 -0.035680786 -0.02257912
0.028922286 -0.013070504 -0.016060248 0.016596148 -0.012211842 -0.0026313877 0.01864819 -0.00045918752
0.0123224445 -0.0010515464 -0.03480118 -0.040255606 -0.06333483 -0.063685164 0.0016346342 -0.01531863
-0.0282345 0.028828815 -0.0663312 0.076094605 0.010801124 -0.039370913 0.011772768 0.013395692
00000000: b04b 443d c88f 7b3c 7708 f23b 66dc debc
00000010: 77b4 07bd 3834 40bc 0baa e7bb ad6c cebc
00000020: d245 40bc 485e 873c 4e9d 373a 8948 babb
00000030: 85f2 84bc 1926 3f3d bcde 163d 5db2 283c
00000040: b074 1cbd dadf ce3b cc84 3c3c 0296 33bc
00000050: 357d c3bc ba72 d8bb 603b 063c c45e 9b3a
00000060: 2db8 0b3d b7b7 17bc 179a f0bc a795 b63b
00000070: 60ca b43c 0c74 4dbc f5d6 7abc 38f7 1abd
00000080: eb98 c2bb d790 463d 0973 cdbb e0a8 943c
00000090: bb2f 2b3c d1ab 883d 6e52 7dbd a5f9 14bc
000000a0: 96f0 0c3d 6a24 a8bc 5ed0 3dbd d224 bc3c
000000b0: cb20 aebc b576 12bd 5006 1b3d b104 4c3d
000000c0: 79dd 3a3d b122 3c3c 73ae 9c3c 46f9 47bd
000000d0: 057f 86bc cb64 28bd e213 3cbc 1d4a 433c
000000e0: 90e8 84bc 3a3e 453d 5134 a53d 6109 0cbd
000000f0: 4bc5 3c3d 0f88 993d 5471 f2bb 769e ecbc
00000100: 0a8d 31bd f8d2 36bc 08af 2abd 6120 8a3c
00000110: 18ff 2ebc b3d2 1bbd c49a 45bd d120 f43c
00000120: 08a1 953a 0861 20bd 156a cebc 63e6 aebb
00000130: 2169 f23b e4df f53b e49f 263d ac64 14bc
00000140: 9d3e ddbc cae6 393c ccd4 39bd 59db 8b3b
00000150: 57d5 4e3c 5305 953c 4cbf f5bc 92ab 64bd
00000160: 0bbd c63c d26c e9bc 8705 b2bc 6e92 d13c
00000170: 8ac7 a33c d36d 90bc 567b 4dbd d6b0 f43b
00000180: 40df bf3c 94a1 513d 2495 6ebb d465 3ebd
00000190: e614 323b ec66 c5bb 3985 14bc 0800 67bc
000001a0: 712f 013c 35f8 033d 5ab1 2e3d d468 e9bc
000001b0: 2a24 e73c 91d3 d03b 7fa2 15bc 5cc7 9dbc
000001c0: edc9 0e3d b977 46bd f20b 043d a02b 873d
000001d0: 273a 2b3d 8e1a 68bd de05 28bc 9d74 ce3b
000001e0: d7b0 3f3d 9218 94bd af84 13bd f293 063c
000001f0: b045 6c3c ab95 b3bc 2432 24bd 97b7 81bd
00000200: be6e 7f3c 6bf0 e33c 551f 2b3d 1fc9 443c
00000210: 7f3d 86bd dd50 71bd d63f 14bc 8e07 b73b
00000220: d280 e03a 6160 0f3d 32c0 ffbc 8175 3fbd
00000230: 28f6 563c e241 fc3b 6ccf 5b3c d39c 13bd
00000240: a915 8ebc f8ce 7abc dc11 e13c 90f2 9b3b
00000250: 1362 363c 4f60 633d a851 d23c 4e9b 8d3c
00000260: a0b6 1cbd 229e b93b 9a17 06bd 9efd cb3a
00000270: b941 8cbd fe55 ad3c 6636 503d 3461 7fbc
00000280: 3886 02bc 8cdd 96bc 40e5 933c c027 a53c
00000290: 799b 163c 376b 90bc 0500 33bd 9623 c13c
000002a0: 591a 813c 21b0 0a3c 3a45 d3bc 8b79 513c
000002b0: 648b af3c 9b84 d83b c992 0b3c 3417 11bd
000002c0: 9e97 543c 50f0 e83c 5923 e0bc a3ad ce3b
000002d0: c83a 94bb 7b60 983c f07a 243b 023c 1b3c
000002e0: 3f0e b6bc d3fd 3d3b fb14 813c 532f 04bd
000002f0: 5d6a 95bc b2dd dabb b75f 883c af85 023c
00000300: 1491 143d e605 2b3c 5f29 cb3b acfa 94bc
00000310: 733e 2bba 17c2 bc3c 695b 0a3d c15a 913c
00000320: b233 d23b 50e7 6fbc e09b 933d 8353 6d3d
00000330: 0b90 66bc 55f3 d4bc 57dc 3fbd c1a2 5f3c
00000340: ae8a 19bc 9548 83bc 684c ab3c 23de a1bc
00000350: 7580 643b 19c5 b8bc 4b8a 42bd 4f84 c8ba
00000360: 01e0 85bb 023f 6a3d c396 ccbb 89ce 993c
00000370: 3994 09bd dab6 093d a0d5 96bd ab8b 873c
00000380: 6e07 04bb 9b0a 913b b71c 94bc 5cbb 36bd
00000390: 1c91 a83b 9eb6 133d 0426 12bd d9f7 b8bc
000003a0: 6eee ec3c ab25 56bc c890 83bc a5f4 873c
000003b0: 2e14 48bc 5c73 2cbb 17c4 983c 1bbf f0b9
000003c0: 14e4 493c 0bd4 89ba af8b 0ebd 10e3 24bd
000003d0: b1b5 81bd 5e6d 82bd 3941 d63a fefa 7abc
000003e0: 0a4c e7bc 682a ec3c a7d8 87bd 7dd7 9b3d
000003f0: 33f7 303c 6543 21bd 91e2 403c 9b79 5b3c
