Final Project/FacT-TK/smallnorb_azi_best.pt (torch, 403287 bytes, 6 tensors)

FacTp f4 [32, 144]
00000000: 65aa 17be 614d 34be b3b8 bb3c d866 7bbd
00000010: 80f0 9fbd 0e7f d9bc 7cc2 f6bd e5d0 f7bc
00000020: c7f1 b33d 5418 34bc e78b 883c 9d12 5fbd
00000030: 68c2 dd3d 80df 5abd 0727 82bd 0734 083e
00000040: ea18 263e 8c68 aa3d 8176 1dbe 9051 cbbc
00000050: 96ce 92bd 19f4 173d d7ed 073e 23ad d63c
00000060: da9f 62bd aeb1 96bd ab9d be3d 87de 063d
00000070: b934 9abd bc72 173e 25b3 a43d 65c3 9f3c
00000080: 72ae 203b fb80 61bd a6b2 12bd cbaf b0bd
00000090: 32a8 0b3c d849 ad3d a36d 5dbb 1cf6 183c
000000a0: a748 aabd a1aa 82ba e8ea b03d 6c1f 06bd
000000b0: eef5 e0bd 68ea 543d 3e4c e6bd ec0d 9dbd
000000c0: 582f 7e3d 5a37 dabd 9ec8 cc3d fa37 8bbd
000000d0: 885d c2bc 56c3 a63b e78c cb3d 1355 bebd
000000e0: dac1 093e abd1 1c3d 3200 e0bc dbda 123e
000000f0: c8ce e43b 3b86 3a3e 15cc 36bd 9a80 ee3d
00000100: 7de9 0c3e 5f9b 3bbd e131 06bd 43f6 0cbe
00000110: 6cd9 57bd 674e e0bd 0093 9dbd f057 853d
00000120: b3ed 90bb 26ae abbd aa70 0e3d b2a3 40ba
00000130: 0846 32bd 4c93 0cbe 2820 093d dec5 15be
00000140: 8b39 a5bd 3648 9d3c 019e 94bc 68d5 b93c
00000150: 6bc5 07be cd6d bc3d ffb2 5a3c 1988 143e
00000160: 1575 a03d 69b3 0c3e 1e05 29bb 4ac6 0c3d
00000170: 4b1a c93d 4bb3 373e 7b3f c23d b0fb 0cbe
00000180: 57be 24bc 263f e13d b8fe 0ebd b3c5 f33d
00000190: dc39 afbd 02f3 dfbd d5f4 05be 2e0c fabc
000001a0: e286 b13d 64cd b63d 0fba a43d e409 913b
000001b0: a8d5 65be 390c 923d dc25 63bd e879 583c
000001c0: d8ce ebbd 8e9f c9bd 6798 e2bd d217 a53d
000001d0: 2868 19be 46ef 443c 7998 ce3d ba36 ecbd
000001e0: 2655 d73d fc2e 333e 8017 083e 1ce2 0dbe
000001f0: 2d30 07be f2cd 49bd 4d55 893d 00f0 72bd
00000200: ffbb ac3d 8e16 393e 5535 2ebe 3503 04bd
00000210: 2558 e5bc 9301 dc3d 238f 32bd c552 cebd
00000220: 9c59 a8bd 1eb6 353d ab91 cc3d e954 e63c
00000230: ff17 e83d 9738 00be 1d2a 363e 3d99 483e
00000240: fa1c 283e 41b9 2a3e c0cc dfbd 41ea 0cbd
00000250: b346 a1bc 60df b4bc a688 78bd 84a2 24bb
00000260: 05ca ae3d 53d0 c3bd eb60 37bc 2c65 febd
00000270: 587c 8e3d 7dce 31be 2c96 f6bc 0fc5 f03d
00000280: 9b41 d6bd 7c0e 7dbc 62fe eeba 9f9e 89bd
00000290: 3d07 6d3d 7c86 8dbd 60f6 85bd 1797 0ebd
000002a0: 2f77 ccbc 9d0f 95bc 6326 623d b82f 4ebd
000002b0: 0923 93bd cbcc b6bd 3fcf 45be f787 f5bd
000002c0: 605d 9b3b 314d 703d d141 03be 6e31 b83c
000002d0: 4741 51bc f8fd 803c 9c41 5b3c 9121 a9bd
000002e0: 9a66 d93c d99c 743b 1e84 ef3d 2fe6 063d
000002f0: 896e 26be 7ecb 6dbd 2180 e23d 61e2 07bd
00000300: 924d d83d b17f 823d f3e1 a83d 7e1e aabc
00000310: 2f34 c03d 5b06 8bba 5a0f da3c cfeb d93d
00000320: 5e0c 863d 23ee d5bd a50f 3dbd 28a2 f7bd
00000330: 64f4 bdbd 81cf 9bbd bc71 973d 1ee3 bc3c
00000340: 8f1c fbbd 1efa d23d 813d 813d e2a0 fbbc
00000350: 18a6 343e c44b 0b3d 64c1 8bbb c433 123e
00000360: 6b4b 3a3e a1a9 943d 18b5 903d 39ae 7fbb
00000370: c130 b8bd 91fc 0b3e 0576 72bc 728a 703d
00000380: f7b2 03be 40a7 e8bd 5257 ff3b 4dd5 3abc
00000390: 09a2 213d fe0e 8cbc 3ba0 ba3c 9313 8dbd
000003a0: 0b59 233b 3e31 1ebd 3010 08be 2101 18be
000003b0: 8644 1abe 8b7f fc3d 1d26 033d 6533 013e
000003c0: 4f4a 11be 33aa 1ebe 3c05 9bbd da64 613d
000003d0: 7d73 263c d968 0e3e 4492 f0bd cd07 223e
000003e0: a098 54be 04e3 f83b 63be 01be e979 63be
000003f0: 4ffc 603c 421c 0a3d edcd b6bd 842a 3c3e
-0.14811094 -0.17607643 0.02291522 -0.061377376 -0.078095436 -0.026549842 -0.12048814 -0.030250976
0.0878635 -0.010992128 0.016668273 -0.05446111 0.10828096 -0.053435802 -0.063551 0.13301097
0.16220441 0.08320722 -0.15377237 -0.024819165 -0.071683094 0.037098024 0.13274322 0.026205605
-0.055328228 -0.073581085 0.093074165 0.032927062 -0.07529587 0.14789861 0.080419816 0.019502351
0.002451804 -0.055054646 -0.035814904 -0.0862728 0.008523988 0.0846135 -0.0033787272 0.009336021
-0.083146386 -0.0009969064 0.08638555 -0.03274481 -0.10984407 0.05198136 -0.11245011 -0.07668671
0.06205687 -0.10655089 0.09999202 -0.06797786 -0.02372624 0.005089204 0.09938984 -0.0929357
0.13452855 0.038285892 -0.027343843 0.14341299 0.006982658 0.18215267 -0.04462822 0.116456226
0.13760944 -0.04580247 -0.032762412 -0.13765816 -0.052697584 -0.10952454 -0.07694054 0.06510913
-0.004422867 -0.083828256 0.034775414 -0.0007348611 -0.04352382 -0.13728064 0.033477932 -0.14626262
-0.08067616 0.019199472 -0.018141748 0.022684768 -0.13258903 0.0920063 0.01334834 0.14505042
0.078348316 0.13740315 -0.0025790404 0.03436879 0.09819468 0.17939489 0.09484764 -0.13767886
-0.010055146 0.10998373 -0.034910887 0.119029425 -0.08555958 -0.10935022 -0.13081677 -0.030523386
0.08668305 0.08925894 0.080433 0.004426228 -0.22444785 0.071312375 -0.055456027 0.013212658
-0.11514062 -0.09844886 -0.11064225 0.08061184 -0.14981139 0.012019938 0.100876756 -0.11533876
0.10514288 0.17498392 0.13290215 -0.13855785 -0.13201971 -0.04926867 0.06705723 -0.059310913
0.08434295 0.1807501 -0.17012532 -0.03222962 -0.027996132 0.10742488 -0.043593537 -0.10074381
-0.08220217 0.044363134 0.099887215 0.02811666 0.11332702 -0.12521587 0.17789502 0.19589706
0.16417304 0.16672231 -0.10927725 -0.03440309 -0.019687032 -0.02207917 -0.060677193 -0.002512128
0.08534626 -0.09561219 -0.011192541 -0.12421641 0.069573104 -0.17363925 -0.030100904 0.11756336
-0.10461732 -0.015445348 -0.0018233771 -0.06719708 0.05786823 -0.069104165 -0.06541133 -0.03481206
-0.024959175 -0.018195922 0.05521239 -0.050338477 -0.07184417 -0.0892578 -0.1931734 -0.11988824
0.004741356 0.058667365 -0.12818076 0.022484507 -0.012771911 0.015746102 0.013382342 -0.082583554
0.026538182 0.0037324934 0.11695121 0.032934364 -0.16253103 -0.058055393 0.11059595 -0.033174876
0.1056167 0.063720115 0.082462214 -0.020766493 0.09384953 -0.0010606752 0.026618648 0.1064068
0.065453276 -0.104458116 -0.046157498 -0.12091476 -0.092751294 -0.076079376 0.0739474 0.023057517
-0.122613065 0.10301612 0.06310559 -0.030716363 0.17641485 0.034007803 -0.0042649973 0.1427756
0.18192832 0.07258917 0.07065791 -0.0039013757 -0.08993674 0.13670565 -0.014798646 0.05872578
-0.12861238 -0.113600254 0.007792392 -0.011403394 0.03946117 -0.017096993 0.022781482 -0.06888499
0.00249249 -0.03862118 -0.13287425 -0.1484418 -0.15065202 0.123290144 0.03201877 0.12617262
-0.14188503 -0.15494613 -0.07569358 0.05502782 0.0101593705 0.13907184 -0.11746648 0.15823288
-0.20761347 0.0075954217 -0.12670283 -0.22214474 0.01373203 0.033718355 -0.08925996 0.18375593

FacTc f4 [32, 32, 32]
00000000: 8af9 4cbc 5769 d83c 6d57 f53b c5f4 af37
00000010: 7c5c a3bd 01e1 45bb bbfe 7fbd 669c c8bc
00000020: 5bbc 6f3c 6559 b3bd c3e1 9b3c a9e8 35bd
00000030: 8ca2 b43b 0d0d 33bc cf23 1b3b e5d1 9ebd
00000040: 0232 0bbd b9d4 45bc c9ca 18bd ac42 3dbd
00000050: 6862 f13b eea1 0a3d c831 983c 991f a63c
00000060: e07d 9bbc b278 5b39 8a5e 66bd 4252 713d
00000070: 424d 153d 0004 373d bcee 20bd ba7c 763d
00000080: 8a56 283c b489 32bc 0212 febc 6bc1 d3bd
00000090: c799 0f3c 4de9 7ab9 c80d febc a07b 9c3d
000000a0: bf14 263c 3a5b f9bb 22e7 57bd 4a6b bf3c
000000b0: 9267 803d a3f4 d03c 9d1a 99bb 195c ef3c
000000c0: 74e3 19bd 773b a1bb ddd8 58bc 5331 4f3c
000000d0: 2baf f43b 0809 80bd 4622 13bd 9e03 b0bb
000000e0: 1207 213d 6496 b2bc cd41 3b3d e7b8 ebbb
000000f0: be0f 0fbd 3e28 09bd 1efc 883c 6c70 c63c
00000100: 722e 37bd 1ea2 bfbd b6ce d93a 191e aebc
00000110: b4f5 aabc 1c4f 2d3c 4791 843b 1b60 5abd
00000120: d765 3b3d b754 12bc 197d 663d 6f50 c3bd
00000130: 06da 293d 0d93 973d e374 5bbc 4991 1a3b
00000140: 4671 c33c e911 223d d984 90bc 6e63 2d3d
00000150: 309a 18bd 1b15 a1bc bcce d73c f78a 47bc
00000160: f52e 1fbd ea85 213c dc2c f53c 7d92 47bc
00000170: ee21 013d 02e3 4fbd d49d 0a3d 3764 013d
00000180: daef a0bc 8980 95ba ff8e 513d 19d3 133d
00000190: d74f 85bc 6eea 6cbd fb1d f9bb d18d fe3c
000001a0: a9e8 c039 d82b 64bd 8a59 fe3c ae5a d53c
000001b0: 9a6f 853c a8e0 aa3b 19af 0a3d e2ad 19bd
000001c0: d5c0 f1bc 1bbb 9fbc b631 bb3b df46 f5bc
000001d0: 0081 e2bb 8fbc c03c 7013 2ebd e878 76bd
000001e0: 2398 95bc 1140 433d 3e38 54bd 9dd5 223d
000001f0: 3ac9 953b b459 98bc 6a67 133d 91d3 8f3c
00000200: 7e13 8dbc a17c 433d 6e1b 973c cd66 ea3c
00000210: 6cf6 d4bb f4f2 283b d313 2b3d c456 a0bc
00000220: f187 0b3d c234 ef3a 016f 213b 670b 7ebb
00000230: 7265 c23c b6f1 5dbd 2606 7a3c 4630 d53c
00000240: e542 1f3d dbdb 09bd 2d30 4e3b b8be 9d3a
00000250: e85b e3bb b535 1cbc 4746 fdbb ac13 d1bc
00000260: 0efb 45bd 1d27 1d3d 9947 fc3c e86c fa3b
00000270: 7634 babc 05a4 b7bc 9860 103d baaa c43c
00000280: 475d a33d 6fa4 afbd 5285 023d 6c8a 6f3d
00000290: b1ca f7bc 5b77 e9bc 191c de3c 71a7 62bb
000002a0: efb2 5bbd 0dee 83bb 3cf0 893d 1f4d bd3b
000002b0: f039 7ebc ff82 8d3a f946 923b 2bdb a3bc
000002c0: a3a9 5abd 7e73 9e3c f6dd 95bc b22e d2bc
000002d0: 9258 55bd 37a4 a33b 9558 a8bb d9c9 cc3b
000002e0: 0423 263d 5a2f 0abc 9017 4dbd cce4 073d
000002f0: 8eff c5bc bc8f a83c 912e 03bd 41bd 853c
00000300: 80eb f5bc 5d96 6fbd 8a13 a03d 18eb 723d
00000310: 851b fabc 050d 01bd b446 b5bd 687a e63c
00000320: 6858 8abc 7a8c 0e3c 00e9 eb3c 90da aebc
00000330: 5c0f f43c fc68 20bc 5e1e 23bd b2b3 15bd
00000340: 0a13 c8bc 8dba c2bc 2d2f 82bc 2fb4 62bd
00000350: 9064 3f3d 7571 82bd 0133 23bd e8dc e13c
00000360: aea2 ffbc 66c3 0abd d3c5 2c3d efa0 47bc
00000370: 8ef3 cbbc 482f 213d 4423 eabc 1ca2 27bc
00000380: 2183 07bd 8b30 8c3b d202 16bd 0dd9 013d
00000390: b63b 353d 5338 9c3c eb4a ac3b dfc7 06bd
000003a0: db99 0dbc 05e1 afbd 3fc7 66bd 1598 133d
000003b0: 5cc1 2ebd fef8 0a3d bc30 b13b 787f 50bd
000003c0: 0ac4 cb3b f443 4ebd 78c5 2c3d 8240 533c
000003d0: 9a37 be3c 92ee 79bc bd0c 8bbd 4599 37bd
000003e0: 42dd 9c3c ea3a a73c c061 8e3c 73af 853c
000003f0: be01 36bd e5cd b9bc 0671 973c 9e17 983b
-0.012510667 0.026417417 0.0074872286 2.0975605e-05 -0.07976624 -0.0030193927 -0.06249879 -0.02448864
0.01463231 -0.08757285 0.01902855 -0.044411335 0.005512541 -0.0109284045 0.0023672467 -0.07754878
-0.033983238 -0.012074643 -0.037302766 -0.04620616 0.0073664673 0.033845834 0.018578425 0.020278739
-0.01898092 0.0002093043 -0.056242503 0.058916338 0.036450632 0.04468155 -0.039290175 0.060177542
0.010274539 -0.010897089 -0.031014446 -0.10339626 0.008764691 -0.00023928769 -0.03101243 0.07640767
0.010136782 -0.007609752 -0.05271066 0.02336659 0.062697545 0.025507277 -0.004672362 0.02921872
-0.03757043 -0.004920419 -0.013235298 0.012646037 0.0074671707 -0.062517226 -0.035921358 -0.005371525
0.039313383 -0.021800227 0.04571705 -0.007193673 -0.034927122 -0.033485644 0.016721781 0.024223529
-0.044722028 -0.09357093 0.0016617391 -0.021254586 -0.020869114 0.010577943 0.0040456387 -0.05331431
0.04575142 -0.00893133 0.056271646 -0.09536826 0.04146769 0.074010946 -0.013394567 0.0023585132
0.023857724 0.03956786 -0.017641472 0.04233115 -0.03725642 -0.019663384 0.026343696 -0.012179128
-0.03886314 0.009858588 0.029928617 -0.012180922 0.0315265 -0.0507536 0.033841923 0.031589713
-0.01964562 -0.0011406104 0.051161762 0.03608999 -0.016273422 -0.057840757 -0.007602451 0.031073483
0.0003679444 -0.055705875 0.031048555 0.026044216 0.016288567 0.0052147694 0.033858392 -0.037519343
-0.029510895 -0.019498399 0.005712713 -0.02994102 -0.0069123507 0.023527412 -0.042499006 -0.0601739
-0.018261021 0.04766852 -0.05181145 0.0397545 0.004571107 -0.018597461 0.035987295 0.017556937
-0.017221209 0.047726277 0.018445697 0.028613472 -0.0064991023 0.0025779577 0.041766953 -0.019572623
0.03406519 0.0018249976 0.0024632814 -0.003876412 0.023730014 -0.05418559 0.015260255 0.026023995
0.038882155 -0.033656936 0.003146182 0.0012034988 -0.0069384463 -0.009534289 -0.007729325 -0.025522076
-0.048335128 0.03836738 0.03079586 0.007642377 -0.022730093 -0.022417078 0.03524837 0.02400719
0.079767756 -0.08576285 0.031865425 0.05848162 -0.030248018 -0.028499296 0.027113007 -0.0034584666
-0.05363744 -0.0040261806 0.06735274 0.005777016 -0.015516743 0.0010796486 0.004464027 -0.020001968
-0.053384434 0.01934218 -0.018294316 -0.025657032 -0.05208642 0.004993941 -0.005137513 0.006249648
0.040560737 -0.008434141 -0.0500713 0.033177182 -0.02416971 0.02057635 -0.03202683 0.016325595
-0.030019522 -0.058493007 0.07816227 0.059306234 -0.0305307 -0.031506557 -0.08851376 0.02813454
-0.016887859 0.008700484 0.028797626 -0.021344453 0.02979248 -0.009790655 -0.039823882 -0.036548324
-0.024423141 -0.023770595 -0.015891636 -0.055347618 0.046726763 -0.063692965 -0.039843563 0.027571157
-0.031205501 -0.033877753 0.042180847 -0.012184366 -0.02489641 0.03935173 -0.02858127 -0.010231521
-0.03308404 0.0042782477 -0.036623783 0.031701136 0.044246398 0.019069826 0.0052579544 -0.032905456
-0.008642639 -0.08587841 -0.05634236 0.03603371 -0.04266487 0.033928864 0.005407421 -0.050902814
0.006218438 -0.050357774 0.04218051 0.012893798 0.023219872 -0.0152546335 -0.06789539 -0.044823904
0.019148473 0.020413835 0.017380595 0.016319012 -0.044435255 -0.022681186 0.018486511 0.0046414873

head.weight f4 [18, 768]
00000000: 4b90 12bd fbe2 bebd ddb6 c03d adf1 dabc
00000010: ec53 8e3c 7f75 bf3d 1285 36bd 12eb c0bd
00000020: 5257 a7bd c546 093e fd79 233d 954b 6cbd
00000030: 5fa0 c13a 4295 67bd fb37 38bd 561d 04ba
00000040: 4b66 283e e689 6abc 9f52 f9bd 619a 89b9
00000050: 5a62 06be 4862 68bb f2ed 3a3d 11dd 07bc
00000060: ec2b ecbb b759 863c 9754 d1bc f1e2 aa3d
00000070: 9169 9c3b a095 65bd 55dd 0ebe 2381 27be
00000080: b5f7 a43d 9a22 a23d b0b2 8dbd f2b5 043d
00000090: 1b9a 34bd 0d62 2b3c fa33 56bd d50c 883d
000000a0: 5b93 e1bd bbaa c3bd a7f4 b0bc ff9a ecbd
000000b0: 6d81 373d 939f a8bc 9f71 acbc 5506 83bd
000000c0: 9a26 88bd 1c00 1b3e 9c81 b63d bd7a 953c
000000d0: 317b 9b3d 4dbb eabc c95f ff3b 6e35 ae3d
000000e0: 2723 edbb ba95 11bc cdde 253e 5d32 e73d
000000f0: 9db3 ecbc a701 d3bd 8347 d7bd e921 ddbd
00000100: df3f c23d 0505 cf3c 99ca b23d a0ad bcbc
00000110: 5f69 1e3e a10a 703d 2ff4 92bc 5cab 82bc
00000120: a41f 83bc 0c8b 243d a0fa 133d e5b6 3abc
00000130: 5de1 05bd d88b 153d a038 42bd 8ed6 78bd
00000140: 8537 a1bd 6a60 cebd 6c4e d6bd 27cc 54bd
00000150: 976d 873c 084f b6bb 6516 783c abc9 443d
00000160: 7517 023d f003 483d 98d0 3e3e 7604 b4bd
00000170: 6935 783d e31a db3d 720a 9d3d 6c02 8a3d
00000180: c99e e13d 0fe5 dabc 0543 a63c 1cd7 23be
00000190: bd4b 47bd d379 7bbd 4ef1 d1bb 4d62 a63b
000001a0: 0781 22bc 54ae 85bd d75d edbd f3aa 96bd
000001b0: 4da3 ee3c 2fca 94bd d060 ff3c d543 94bd
000001c0: 3519 313d 1c24 68bd 1e92 dd3d 0321 c9bd
000001d0: 9557 2d3c a3ed 253e da4f dfbb 62f1 98bd
000001e0: ff19 d83d 506d 753d baa6 81bd 95b3 9f3d
000001f0: a96c ecbd 48ff 28bd 67a2 06bd f682 563d
00000200: 3b4f 4bbb 3679 c0bc ac8c 1e3d 2c00 e83c
00000210: 17be f9bd 5e10 943d 2a21 a23d 9501 733d
00000220: f7b2 dcbc 1beb 7bbd 562a b43d 4de5 4dbe
00000230: 004c e03a 3363 8b3d 37f1 8b3c 81ad 39bd
00000240: 0e42 f6bd 34c9 bfbd 4660 f5bd 02da 2e3d
00000250: a7c9 cabc 0047 f8bc 4f73 92bd 43e5 a7bc
00000260: b39e 093e 2fa5 7d3d 4a45 fcbd bbc6 f8bc
00000270: a1ff 1cbd 9700 f13c 904d 483d 856d 19bc
00000280: 69d5 c83d 32db bfbb 3c8b 623d 2c38 a53d
00000290: 9529 8fbc abe2 8dbd f924 a4bd ad2a 3e3e
000002a0: cfad 6b3d c965 d63d fa3a 9dbd 672a b73d
000002b0: 7717 25bd c6fa 12bd 8637 7d3d a626 b73d
000002c0: a165 3bbc 65ce db3d 37ee cd3c 3b38 123d
000002d0: cb5e d13c 11b8 5a3d b291 dbbd b433 6cbd
000002e0: cd75 263d b186 15be 1a1f 893d 2383 e8bb
000002f0: 9ced c3bd b855 b1bc 862f 7b3d c2f5 0c3e
00000300: a990 58bd c97c ea3d 9696 41bd f7e3 053d
00000310: f22f 48bb ad96 34bd 3c56 06be 9d25 87bc
00000320: f3dc 01bc 9009 cdbd e75a 92bd c8e1 acbd
00000330: 5858 ae3d e4b6 eabd 3815 4b3d de54 3b3c
00000340: 65d5 90bd 406b 243d 3c14 03be a1f0 e9bc
00000350: b382 bd3c 8e0a 213e 2100 3e3e 02ed e43d
00000360: ceb1 77bd 4ad8 89bd 320d 6e3d 0c61 af3d
00000370: 9136 94bc 523d 613d 10a0 0fbe 31d4 e9bd
00000380: 96c4 e9bc 534e dfbd a79d 7dbd 1d0a bebb
00000390: 859c 503d 26a1 88bd cc31 983c 053f 023e
000003a0: e350 dfbd a2a8 43bd 2840 1ebc b4a8 a8bd
000003b0: b517 17bd 4c9d f4bc d522 c5bd 271a 1d3e
000003c0: 10d5 933c cd82 85bd 0345 ed39 83be 09bc
000003d0: ff5c fa3d 0090 263d bf6f a1bd 00d8 c5bc
000003e0: 87c4 84bd 0281 4b3c 06b0 b9bd 0fd9 0d3d
000003f0: 7b96 fb3c f3f6 223d 8499 bbbd 78ee 06be
-0.03578214 -0.09320637 0.094098784 -0.026726568 0.017374001 0.093485825 -0.0445605 -0.09419836
-0.08170952 0.13405903 0.03991126 -0.05768927 0.0014772526 -0.056538828 -0.044975262 -0.0005039772
0.16445272 -0.014315104 -0.12173962 -0.00026245698 -0.13123456 -0.003545897 0.04563708 -0.008292452
-0.0072073843 0.016400201 -0.02555303 0.08344067 0.0047733267 -0.056050897 -0.13951619 -0.16357855
0.08055059 0.07916756 -0.069188476 0.03240008 -0.04409228 0.010460389 -0.052295662 0.066430725
-0.11014434 -0.09554049 -0.021601034 -0.11553001 0.044801164 -0.020583903 -0.021050273 -0.06397692
-0.06647988 0.1513676 0.0891144 0.018247003 0.07591856 -0.028653765 0.007793401 0.08506285
-0.0072368565 -0.008885795 0.16198273 0.11288903 -0.02889424 -0.103030495 -0.10511687 -0.107974835
0.09484839 0.025270948 0.08730049 -0.02303201 0.15469883 0.058603887 -0.017938701 -0.015950851
-0.016006298 0.040171668 0.036127687 -0.0113961445 -0.032685626 0.03651032 -0.047417283 -0.06075149
-0.07871918 -0.10076983 -0.104641765 -0.051952507 0.016531749 -0.0055636205 0.015142058 0.048043888
0.03176065 0.04883188 0.1863426 -0.08789913 0.06059781 0.106984876 0.07668008 0.06738743
0.11016614 -0.026720552 0.02029563 -0.16000026 -0.048656214 -0.061395478 -0.0064069396 0.0050776363
-0.009918458 -0.06527391 -0.11590164 -0.07356825 0.029130602 -0.07265126 0.031174093 -0.072395004
0.04323693 -0.05667506 0.10818885 -0.098207496 0.010579963 0.16203932 -0.006814939 -0.07467915
0.10551833 0.0599187 -0.06330629 0.077979244 -0.11544163 -0.04125908 -0.032869723 0.052370988
-0.0031022567 -0.023495298 0.038708374 0.028320394 -0.1219446 0.07229684 0.07916482 0.05932768
-0.026940806 -0.06150351 0.087971374 -0.20107003 0.0017112494 0.0680603 0.017082794 -0.04533148
-0.12024318 -0.09364548 -0.11981253 0.042688377 -0.024754358 -0.030307293 -0.071508996 -0.020495063
0.13439445 0.06192511 -0.12317903 -0.0303682 -0.038329724 0.029419227 0.048902094 -0.00936449
0.0980633 -0.0058549875 0.055308565 0.080673546 -0.017475883 -0.06927999 -0.080148645 0.18570967
0.057538804 0.10468633 -0.076772645 0.089436345 -0.04030558 -0.035883687 0.06182053 0.089429185
-0.011437804 0.10732726 0.025138004 0.035698157 0.025557896 0.053398196 -0.107211486 -0.057666495
0.040639687 -0.14602162 0.06695385 -0.007095711 -0.09566805 -0.02164732 0.06132462 0.13765624
-0.052872334 0.11449582 -0.04726275 0.032688107 -0.0030546156 -0.044089008 -0.13118833 -0.016497428
-0.007926214 -0.100115895 -0.071462445 -0.08441502 0.08512944 -0.11460665 0.049580783 0.011433808
-0.07071952 0.040141344 -0.12800688 -0.028557124 0.023133611 0.15726683 0.18554737 0.11178018
-0.060472302 -0.06730707 0.058118053 0.08563432 -0.018092426 0.05499012 -0.14025903 -0.114174254
-0.028536122 -0.10903611 -0.061917927 -0.0057995454 0.05093052 -0.066713616 0.018578433 0.12719353
-0.109041 -0.047768243 -0.009658851 -0.082353026 -0.036887843 -0.029860161 -0.09625784 0.15342008
0.018045932 -0.06519089 0.0004525558 -0.008407238 0.12224769 0.040664673 -0.07882642 -0.024150848
-0.06482797 0.012420895 -0.09066777 0.03463083 0.030711403 0.03978629 -0.0916014 -0.13176906

head.bias f4 [18]
00000000: 59a6 d2bc 35d2 ebbc 7d30 963c c07a dbb9
00000010: 187e 6aba d0f1 c23c 00b9 daba 5c09 2e3c
00000020: 3ad3 07bc 2686 563c 7c7b 1a3b b42e d0bb
00000030: 05b0 9bbc e103 013c 9f3e 33bc 6c22 07bd
00000040: 3e67 bcbb a2bd 563c
-0.025714086 -0.028786758 0.018333668 -0.0004186239 -0.0008945181 0.023796946 -0.0016687214 0.010622349
-0.008290106 0.013093507 0.0023572138 -0.0063532237 -0.019004831 0.00787446 -0.010940223 -0.03299181
-0.005749612 0.013106735

FacTu.weight f4 [32, 768]
00000000: cd44 eabb 94cf 0fbc 7a6d 573d 854c 95bc
00000010: 8aa4 83bd c9a6 003c 7afd 2d3b 6994 3a3c
00000020: c29e 153d 4e70 01ba 5cbe cd3c c431 4ebd
00000030: 2b4d d8bb 7128 533d ca02 323d 1df8 f83b
00000040: 64d2 41bc d915 b93b 494c fc3c af92 99bc
00000050: 53c6 a3bc 189f 1dbd f7cb 6c3c d93a 193d
00000060: a33a 5e3c a6d0 41bc 7916 053c f49e dfbc
00000070: 6b81 813c ef66 573d bc5f b03b 0969 91bc
00000080: 2a67 913c ece2 473c cfce 383c bef3 f23a
00000090: 8e26 193d 3442 7a3d 68b0 633d 45e8 babc
000000a0: 64f9 803d 9712 233d ea8a 803b 4b18 e3bc
000000b0: 934e d23c bc3b 7a3c e99a 54bd e229 2a3d
000000c0: ec5d 383d 0479 303c c499 eebc 4e4b 2fbd
000000d0: b566 9dbd 1385 f1bc 00ab 223d 372b 87bc
000000e0: e3ea 4e3d 27c5 5cbd 4957 11bd f6f5 2bbd
000000f0: 8f12 67bc cbf6 b53d 4555 523d a7df 67bc
00000100: 8dd7 583c 3a0f 973b ef02 4f3d 5525 1dbd
00000110: de26 efbc 7d1b 4e3c 9133 bc39 e482 04bd
00000120: 9d7f 0b3c 17d4 4f3d 3e35 31bd 183b 20bd
00000130: ad46 7d3b e109 fc3c 1770 7bbc ad44 aabc
00000140: d9b3 0d3d 4166 7ebd c45b 32bc f0e1 d13a
00000150: 80f5 6abd 658c 253d 7d1a 003d 23e5 b3bd
00000160: db24 05bd 96ec 763c fe97 43bd d38a e13c
00000170: ff88 29bd 35ce 233d 2ec5 9d3c abca eabc
00000180: 621c 3f3d 3bb1 87bc 09ae 8ebc e0e1 643d
00000190: 5b56 88bc 70ec b9bb 7af7 70bc 3c06 7dbd
000001a0: fbf5 bbbc 13a2 23bd e5de 213c 3cf6 123d
000001b0: 13b9 2b3b 54c9 ab3c 4768 0abd b4a7 0ebc
000001c0: 3f10 91bc 4bf4 b83c 7e04 0abd 0300 d83c
000001d0: b4c7 b43b 8206 983d f164 85bc f5ee aabd
000001e0: e29f 643d 8e02 ce3a 9c1d 433d 98d6 efbc
000001f0: abcb 7abc a32e 823d 35c4 cf3c 8972 e03c
00000200: aee3 57bd b2f2 07bd 73c4 b93c 23b2 13bd
00000210: 8599 043d d718 193c e6ea 05bb ad19 a43d
00000220: 82fc 6b3b 4b1b ea3b b6e2 4dbd 4f04 90bc
00000230: 267f 5fbc e3b1 85bc 785a 2e3c 3b69 c73c
00000240: aae4 b03b 2ce8 fe3c 1bf9 b0bb bee1 1abd
00000250: 638d 2c3d eece 83bc bc89 0e3d 27c2 76bd
00000260: 3607 4abd ae01 3b3d dd20 86bc 564a 9639
00000270: f030 92bc 558a 283d 861c 043d 4ff3 453d
00000280: 60e6 13bb 3492 04bc e6bd 2e3b 115c 2fbb
00000290: 8244 b0bb fae7 673b 1477 b33b c103 5a3d
000002a0: 0ac6 24bc c158 5ebc 6618 55bc 34af d5bc
000002b0: 9d4f 863b 80f4 003d 3c37 0f3d fd9e cb3b
000002c0: b53b 0cbd 0dd4 cc3c 6ee1 ad3b e254 da3b
000002d0: 6fe4 053d 2239 3d3d 68f3 07bd 57c4 35bd
000002e0: 733b dfbc c6af 8abc 9dfc 3b3d 8f3e 393c
000002f0: 15de a3bc ef46 d5bb ff78 91bb c59e dbbb
00000300: 1610 233b e21f da3c 6d1c e53c 5142 7a3c
00000310: 7d4d 263b 5ad9 83bc 35cf a23a b1b2 1aba
00000320: 1383 ffbb 3ef3 dfbc 868a 823c b57b 64bb
00000330: 78b3 d3bb 1d95 c23a f8cb efbc df0d 29bc
00000340: dfc2 293b c677 943c de71 93bc 218f 233d
00000350: 9b26 77bd 2ab5 183d 46ed 90bd fdd6 11bd
00000360: 9c3a bf3c cb7c a1bc 3779 d43c 191f c1bc
00000370: bd94 3a3d 1500 9d3c 05cb 8d3c 379c 883c
00000380: 9e2c 95bd 7a7e 033d e3a8 90b9 efa5 883c
00000390: bf8e c63c c48d 483c 433e 253b 1eab 74bd
000003a0: f98e 7bbd a3d5 0d3c 465b 4dbd 3a66 b43c
000003b0: afe6 ac3c 4838 f4bc f426 8bbb e7db ec39
000003c0: 0b6d 8c39 801e e5bc c09f 1b3a ea87 e23c
000003d0: a082 3a3d 6c3b 033c efb1 dc3c f59a e93c
000003e0: 7983 d73b 9a1d ddbb 26c9 4ebc ccc7 98bc
000003f0: 33e4 2039 1828 61bd 1e56 73bc c79f 403c
-0.007149315 -0.008777518 0.05259464 -0.018224964 -0.06427868 0.007852265 0.002654879 0.011387923
0.036528356 -0.0004937694 0.025115184 -0.05034043 -0.006600996 0.05155224 0.04345969 0.007597937
-0.011829946 0.0056483564 0.030798094 -0.018746702 -0.01999203 -0.0384818 0.014452926 0.037409637
0.013563785 -0.011829531 0.008123034 -0.027297474 0.015808782 0.0525884 0.005382506 -0.01775028
0.017749388 0.0122000985 0.011279776 0.0018535776 0.037390284 0.061098292 0.055588156 -0.022815833
0.062975675 0.03981265 0.00392281 -0.027721545 0.025672233 0.015273031 -0.051905546 0.04154385
0.045011446 0.01077104 -0.029126056 -0.042796426 -0.076856054 -0.0294824 0.03971386 -0.016500099
0.050516974 -0.053898957 -0.035483632 -0.041982614 -0.014103546 0.08884963 0.05135085 -0.014152444
0.013234985 0.0046099694 0.050539907 -0.03836568 -0.029193338 0.012579796 0.00035896574 -0.03235139
0.008514312 0.050739374 -0.043263666 -0.039118856 0.0038646862 0.03076643 -0.0153465485 -0.0207847
0.034595344 -0.062109236 -0.010886136 0.0016012769 -0.057363033 0.040417094 0.03127526 -0.08783939
-0.03250585 0.015071055 -0.047752373 0.027532017 -0.041390415 0.039991576 0.019259062 -0.028661093
0.046657927 -0.016564002 -0.01741697 0.055879474 -0.01664274 -0.0056739375 -0.0147074405 -0.061773524
-0.022944441 -0.039949488 0.009879802 0.03587936 0.0026202842 0.020970024 -0.033790853 -0.008706976
-0.017707942 0.022577425 -0.03369569 0.026367193 0.0055169705 0.07423116 -0.016283484 -0.08346359
0.05581654 0.0015717314 0.04763566 -0.029277131 -0.015307347 0.063565515 0.025362113 0.027398365
-0.052707367 -0.033190437 0.022676682 -0.036058556 0.03237297 0.009344301 -0.00204342 0.0801271
0.003600866 0.007144367 -0.050265037 -0.01758018 -0.013641154 -0.016320175 0.010641687 0.02434217
0.0053983526 0.031116568 -0.0054007894 -0.03781294 0.042127024 -0.016089883 0.034799322 -0.06024375
-0.049323283 0.0456559 -0.016373092 0.00028665614 -0.0178456 0.04114755 0.032253765 0.04832774
-0.0022567734 -0.008091498 0.0026663481 -0.0026757757 -0.0053792605 0.0035386072 0.0054768417 0.053226236
-0.010056982 -0.013570965 -0.013006305 -0.02608452 0.004098846 0.031483173 0.034964785 0.0062140212
-0.03423663 0.025003457 0.0053064143 0.006662951 0.032688554 0.046197064 -0.033191115 -0.044376697
-0.027250027 -0.016929518 0.045895208 0.011306419 -0.020003358 -0.0065087 -0.0044394727 -0.0067022764
0.0024881414 0.026626531 0.027967656 0.0152746 0.0025375776 -0.016094852 0.0012421372 -0.0005901261
-0.0077976077 -0.027337667 0.015935194 -0.0034863774 -0.0064606033 0.0014845465 -0.029272065 -0.0103182485
0.0025903506 0.018123519 -0.017998632 0.03993142 -0.06033955 0.037282147 -0.07076506 -0.03560542
0.023343377 -0.019712826 0.025936706 -0.023574399 0.045552004 0.019165078 0.017308721 0.016676052
-0.07283901 0.03210304 -0.0002759165 0.016680686 0.024237989 0.012240831 0.0025214113 -0.059733503
-0.061415646 0.008656892 -0.050135873 0.022021402 0.021106092 -0.029811993 -0.004246587 0.00045177268
0.00026784124 -0.027968645 0.00059365854 0.0276527 0.04553473 0.008009773 0.026940314 0.028516272
0.006576952 -0.0067479135 -0.0126212 -0.018649958 0.000153438 -0.054969877 -0.014852075 0.011756844

FacTv.weight f4 [768, 32]
00000000: 5506 9038 f27d 70bc ab66 a93b 34af 0c3c
00000010: ffe0 31bc 6197 0dbc 1764 203d 12ac 953c
00000020: 8312 c23b dec7 34bc f42c a2bc 5696 4abc
00000030: 052e 5f3c 04c8 883c 04bb c03b 3680 0bbc
00000040: fccb d03b 90ac c63b 2af2 cf3c e8ba 073d
00000050: 3394 003d 0976 643c f671 2abb 1d78 cdbb
00000060: 681f 55ba 3a06 b1bc 897d 97bc 740b 19bd
00000070: 715c 8ebc 5099 903c c72a 5d3d 3745 a6bc
00000080: 5666 a33c b310 393b cf9c 7a3c 5134 e238
00000090: 1b8c c53b 08d3 11bc 1fda 49bc ce6b 0ebd
000000a0: f417 98bc 9c31 bc3c b021 633b 296a 863a
000000b0: 320d 3f3d ce09 8c3c f453 5dbb dd8d 073d
000000c0: f7e9 7c3c b913 dc3b 6f1c a7bb fd4b 7cbc
000000d0: 7bf1 eabb ba71 ed3c 248f dbbb 2845 b1bc
000000e0: 7176 fabc 2084 d4bb 93de 43bc 1ef5 d8bc
000000f0: 7312 d33b aece e63b 29d7 3a3c a409 aa3c
00000100: 90a9 91bc 0940 a6bc ed99 9dbb 020b a0bb
00000110: 4ed8 2f3c a781 89bc f47f b13c 3664 e13b
00000120: 5be6 b1bb 2d3e b7bc c5c1 26bc 8da3 e13c
00000130: 5343 ccbb e423 b5bc 80ff 583c d05a a43b
00000140: 5608 9dbc 199e afbc 5645 92bc 6ab2 e53c
00000150: ee1b 053b 8fcd 54bc 0039 803c d457 29bc
00000160: 80df e1bc 8fd2 ae3c 3c60 a63c b4dd c6bb
00000170: 5c49 0a3c 2953 49bd f86d a9bc b06b 703b
00000180: 3086 873c 0f7b b33c ac66 1b3b 6b24 d63c
00000190: 5c35 29bb c34d 7bbc 8923 10bc fafd 613c
000001a0: b7a1 30bc 3d4d 183c e2e8 e23b 3b73 b73b
000001b0: 13cf f83c 3950 d7bb c9a8 bc3b f534 f63c
000001c0: e5a5 16bb ffec df3c 157c b83b f6c4 073d
000001d0: a870 e63b 5336 253c 7a58 53bc 8444 1bbb
000001e0: 0443 b93c 2093 0e3b 3fa9 7e3c c05d 963c
000001f0: fa50 bcbb 1c73 5d3c 48aa d8bc 07dd bc3c
00000200: 8ad1 c0bc 681b f03b 7360 893d a737 82bb
00000210: 8d15 d4bb 026a b4bb 67d1 3fbc 925a ee3a
00000220: 3bf8 5d3c 4158 3e3c b68c 8c3b e025 6fbc
00000230: fd57 7e3c 5227 2dbc 7397 21bd 8d84 243c
00000240: 95e1 473c 7836 0cbd 6a89 b2bc 70a8 483d
00000250: aefd 00bd 9d14 f93c 14a2 1d3d 6633 183c
00000260: d9f7 28bc 416f 29bc 4482 1c3a 7284 d9bb
00000270: c524 04bd 4721 32ba defb a6bc 2f49 1b3c
00000280: 2393 b2bc 7e88 7a3c e637 02bd df7f 093c
00000290: 0c40 cf3b 34b0 8fba a9db 92ba 9288 cebc
000002a0: caed 443c e5ee 843c aa4d 3fba bc8c ae3c
000002b0: b41e 2d39 e7fd 12bc 69de 0dbd 8210 ba3b
000002c0: b840 6fbc 64e9 9e3a 31b8 b2bc 62d2 b0bc
000002d0: 6b28 ed3b 46e2 523c 006d 97bc 9dc2 423b
000002e0: b46c 03bb efc1 4bbc dc1b adbc 57d4 d6bc
000002f0: 37ee 453b 2426 e4bc 2602 f2bb a74d 663c
00000300: 4309 063b b461 813c 3d13 863c e347 223c
00000310: e5df 393c 3336 213d 40a2 113d 75f4 81bc
00000320: 589d 623b d35c 7dbc 06bd 263c 362e d63a
00000330: 5c43 86bc c963 d7bc 54da c53c 22db 003d
00000340: 60fc 1f3b 0ec0 243b 6262 65bc eaf8 64bc
00000350: 3aee 2b3d e0dc 433c 599f 753b 5678 d2ba
00000360: a739 14bb 2286 e1bb acb1 9c3c 92ae 0bbb
00000370: 175d 4ebc 7278 f03a 9802 87ba 1659 3e3c
00000380: 557f 70bb 6ae7 523c aaa4 a63c 18c9 043c
00000390: 69c0 183c 1e26 f2bb 8948 0cbd 7f46 05bd
000003a0: 561a f4bb 2be2 933c f966 6d3a 41b1 abb9
000003b0: 1961 37bc 8843 8f3c cad9 113c 66d4 0b3c
000003c0: 5da4 a03c 322f 873c 8430 7dbc 3ca9 313c
000003d0: 7fb6 0abd 9c05 5d3b 79f9 98bb bf30 eebc
000003e0: fe0e adbc c4c5 d43b 913b 6fbc ebed 7b3c
000003f0: ec9b a8bc f9d6 d23c 11ed 40bc a33b c83c
6.8676345e-05 -0.014678465 0.0051697097 0.008586694 -0.010856866 -0.008642049 0.039157953 0.018270526
0.005922617 -0.01103398 -0.019796826 -0.012364944 0.013621812 0.016696937 0.005881669 -0.008514455
0.006371973 0.0060630515 0.025384028 0.033137232 0.031391334 0.013944157 -0.0026007867 -0.006270422
-0.0008129985 -0.021609414 -0.018492477 -0.03736444 -0.017378064 0.01765123 0.053995874 -0.020296676
0.019946259 0.0028238713 0.015296175 0.000107862645 0.0060286648 -0.008900411 -0.0123200705 -0.03477078
-0.01856611 0.022972874 0.003465753 0.0010255027 0.046643443 0.017094519 -0.0033771964 0.033094276
0.015436641 0.0067162183 -0.005099825 -0.015398976 -0.0071699 0.028984893 -0.0067004133 -0.021639422
-0.030574055 -0.006485477 -0.011954921 -0.026484068 0.0064414083 0.007043681 0.011403837 0.02075655
-0.017781049 -0.020294206 -0.004809609 -0.0048841247 0.010732723 -0.016785456 0.021667458 0.006878401
-0.005429072 -0.022368515 -0.010178034 0.027543807 -0.0062336116 -0.02211184 0.01324451 0.0050157085
-0.019169014 -0.021437692 -0.017855328 0.028039176 0.0020310837 -0.012988462 0.01565218 -0.010335881
-0.027572393 0.021340637 0.02030956 -0.0060689095 0.008440342 -0.049151573 -0.02068232 0.003668528
0.016543478 0.021909265 0.002371232 0.026140412 -0.0025819158 -0.015338364 -0.008797535 0.013793463
-0.010780743 0.009295759 0.0069247345 0.0055984533 0.030372178 -0.0065708426 0.0057574254 0.030054549
-0.0022987064 0.027334688 0.005630026 0.03314682 0.0070324726 0.010083753 -0.012899512 -0.0023691962
0.022614963 0.0021755174 0.015543281 0.01835525 -0.005746958 0.013516214 -0.026448384 0.023054613
-0.023537416 0.007327486 0.06707849 -0.0039739194 -0.0064722956 -0.005505801 -0.01170764 0.0018184951
0.013547952 0.011617721 0.004289235 -0.014596432 0.015523908 -0.010568457 -0.039451074 0.010041368
0.012199779 -0.034231633 -0.02179404 0.04898876 -0.031491928 0.030405337 0.038484648 0.009289598
-0.010312998 -0.010341466 0.0005970339 -0.006638103 -0.03226163 -0.000679512 -0.020383772 0.009477898
-0.021798676 0.015291331 -0.03179159 0.008392303 0.0063247737 -0.0010962547 -0.001120438 -0.025211606
0.012019584 0.016227195 -0.00072976446 0.021307342 0.00016510003 -0.008971668 -0.034635935 0.0056782374
-0.0146028325 0.0012123999 -0.021816345 -0.021584693 0.007237484 0.012871331 -0.018484592 0.002971805
-0.0020053806 -0.012436374 -0.021131448 -0.026224298 0.0030201802 -0.027850218 -0.00738551 0.0140566
0.0020452298 0.015793659 0.016366595 0.009904834 0.0113448845 0.03935833 0.035555124 -0.015863637
0.0034578647 -0.015464026 0.010176903 0.0016340676 -0.016389541 -0.026292698 0.024151959 0.03145898
0.0024411902 0.0025138888 -0.014000507 -0.013975361 0.041975237 0.011954516 0.0037479012 -0.0016057591
-0.0022617371 -0.006882445 0.01912769 -0.0021313769 -0.012595437 0.0018346442 -0.0010300456 0.011617919
-0.003669699 0.012872556 0.02034219 0.008104585 0.009323218 -0.007389798 -0.034248862 -0.032537933
-0.0074494286 0.018052181 0.00090561766 -0.00032747726 -0.0111925835 0.017488256 0.008902023 0.008534526
0.019609625 0.016501997 -0.015453462 0.010843571 -0.033865448 0.0033725267 -0.0046684113 -0.029075978
-0.021125313 0.006493302 -0.014601604 0.015376548 -0.020582162 0.025737273 -0.011775271 0.0244425
