Final Project/FacT-TK/svhn_best.pt (torch, 378647 bytes, 6 tensors)

FacTp f4 [32, 144]
00000000: b8df 1bbe 54fc 00be 7307 263d 1edc 62bd
00000010: d80e aabd 64dd 043d ecba 26be b670 14bd
00000020: d4c3 373d 4f90 bf3b d7fe 23bd 68d1 31bd
00000030: 46aa 1c3e abc7 d2bd 0002 e3bd f98d c63d
00000040: 13d1 003e d40f 2f3d e5e8 0bbe bf73 06bd
00000050: 8340 f2bd 3885 0a3d e0fd 1f3e 0a21 603c
00000060: bb8a 1ebe c89e 52bd 30bf ec3d 6bb9 253d
00000070: 12d9 c5bd 8b30 073e ecf8 343d b803 dd3c
00000080: 3b3a 233d d4fc dfbd 2851 64bd e773 cfbd
00000090: 7ea7 8f3c b5af 423d ab72 013b 6193 353d
000000a0: 6e45 91bd e56e b53c cbf6 dd3d a216 d5bc
000000b0: c1ae 87bd 506d e23d 4918 d8bd 36d8 b9bd
000000c0: f761 8a3d d3a2 b5bd 36ec a73d 42db 2cbd
000000d0: 66ac 63bc 79e2 993c 65b3 983d 3ba8 89bd
000000e0: bcf3 ed3d 3b8f 173d c917 59bb f220 0f3e
000000f0: 025f 303b 206b 2b3e 9409 a4bd 7e59 b93d
00000100: eb30 213e 563c 0ebd b2e6 d9bc 9dd4 25be
00000110: a922 e5bc be92 f8bd b300 adbd 725e f43c
00000120: 3a5e 9fbd 479a 45be c043 ce3c cd07 34bd
00000130: 3dbe c8bc 659a 04be da13 173d 2baf 03be
00000140: ce86 a2bd 76a7 973b 1081 76bd b109 9e3d
00000150: 90c6 36be d7f2 903d e300 403c cd97 363e
00000160: 75bd b33c f2ad 453e e229 833d 4e2b a33b
00000170: 7cf9 733d 0195 3e3e e483 3e3e fc35 13be
00000180: b39b b53d 3a77 193e 7b8e 89bd cb01 a93d
00000190: 06a6 11be 0476 d6bd 7fd7 36be 8dfa debb
000001a0: 912d bb3d ba09 c03d 8790 0a3d 8e95 b8bc
000001b0: e818 4dbe 7933 f23d 3f96 d1bd c0aa 96bc
000001c0: 4290 2abe 8913 97bd fcd1 18be 999f ab3d
000001d0: 04bc 2ebe 9b65 43ba 9aa5 1c3e 0d76 fdbd
000001e0: 42f8 333e 9fca 403e 870d be3d 9bda c2bd
000001f0: 548f e9bd 80b6 82bd c621 9d3d 21dc 8bbd
00000200: cfb9 bebc 3691 283e fc2c 58be 888c a4bd
00000210: 0943 b7bd 8ac5 9b3d 60ad 6cbd 78d3 bfbd
00000220: 374e 90bd c69a 653d 8a81 2e3e aff4 c5bb
00000230: af0a cd3d 8caa f2bd 92a4 353e 5ce0 dd3d
00000240: 1176 693d a764 0e3d eedc 82bd 8861 b2bc
00000250: c1fa 67bb 4aae 8fbd a7d0 e5bd dd90 493d
00000260: f2b3 d73d 3e40 b3bd a9d4 78bd 0e63 0dbe
00000270: c418 683d 4f04 6fbe 4678 7dbd 7ef2 a93d
00000280: b6d3 17bd d59e 08bd 3dbb 023d 3b7d babd
00000290: 73eb 1a3d 01e2 c2bd 7949 acbd b445 a5bd
000002a0: 3bd0 703c 6c20 09bd 90ae be3c c952 2cbd
000002b0: 2f0b 8fbd 2e2f cebd a72b 37be d2b9 d9bd
000002c0: 1331 663d 9e7b 813d c40c fabd d764 063d
000002d0: c3c1 6c3d f5a8 ac38 27e6 013c b464 b4bd
000002e0: 27c0 c23d c80d d93a 6263 e83d 619d 863c
000002f0: 0db5 10be dd8d 1abd 9c2a cf3d 852e 843c
00000300: 1c6f 153e f916 6b3d 5c5b a33d f8a9 92bd
00000310: ffa0 4c3d 014a 5fbc 1df0 c5b9 b0a7 093e
00000320: 2355 d73d 2ce2 11be 3666 7cbd e002 c9bd
00000330: 9169 17be 0c4b b7bd 3531 ec3d d0a8 693d
00000340: b8a8 54be 8c3b 293e 429e a23d 1e08 83bc
00000350: fe61 183e 9535 463d af5d 63bc 1ed8 263e
00000360: 9be5 103e e56c bc3d 8b75 a03d c12a a53a
00000370: 221a 63bd 2947 1c3e 9742 43bd 0576 9d3d
00000380: ddc3 d1bd ec18 f6bd 21bc 8ebd c704 603d
00000390: be48 eb3c b37f 703c de24 533d 00a9 c7bd
000003a0: 2fae e9bb f275 3fbd 056a 1bbe 8e05 0dbe
000003b0: b8bf 36be fc3d eb3d 7800 5fbd a78b 083e
000003c0: 7aba dcbd 7c37 35be 4383 b3bd 0461 ca3c
000003d0: eb8c 28bd c467 1a3e f75c 0abe 1ad8 323e
000003e0: d669 47be 0e4b db3b 0567 15be f344 48be
000003f0: 72b5 d7bd c512 583d be26 c5bd bb8b 333e
-0.1522206 -0.12596256 0.040534448 -0.0553857 -0.083036125 0.032437697 -0.16282243 -0.036240302
0.04486449 0.0058460603 -0.040037956 -0.043412596 0.15299329 -0.1029199 -0.11084366 0.09695048
0.12579755 0.042739704 -0.13663061 -0.032825228 -0.11828711 0.033818454 0.1562419 0.013679752
-0.15482609 -0.051420957 0.115599036 0.04046003 -0.096605435 0.13202111 0.044182703 0.026979312
0.039850455 -0.10936895 -0.05574146 -0.101295285 0.017535921 0.04753085 0.0019752185 0.044330005
-0.07093321 0.022147605 0.10838088 -0.026011769 -0.066251285 0.11056006 -0.10551507 -0.09074442
0.067569666 -0.08868947 0.081993505 -0.042201288 -0.013896083 0.018784748 0.07456092 -0.067215405
0.11618754 0.03700183 -0.003312575 0.13977411 0.0026912098 0.16740084 -0.080096394 0.090502724
0.15741317 -0.03472551 -0.026599262 -0.16194387 -0.027970629 -0.12137364 -0.08447399 0.029830191
-0.07781644 -0.19297133 0.02517879 -0.043952752 -0.024504775 -0.12949522 0.036884166 -0.1285979
-0.07935868 0.004628117 -0.060181677 0.07716692 -0.17849183 0.07077568 0.011718961 0.17831345
0.021940926 0.19304636 0.06404473 0.0049795276 0.0595641 0.18611528 0.18605 -0.14376062
0.08867588 0.14986888 -0.06716629 0.08252295 -0.14223489 -0.104717284 -0.17855643 -0.0068047703
0.091395505 0.09376855 0.03382924 -0.02253225 -0.20029032 0.11826224 -0.10233735 -0.018391967
-0.16656592 -0.07376773 -0.14923853 0.0838005 -0.1706391 -0.00074538 0.15297547 -0.12376032
0.17575172 0.18827294 0.09279924 -0.09514352 -0.11404291 -0.06382465 0.076724574 -0.06829096
-0.02328196 0.16461644 -0.2111091 -0.08034617 -0.08948333 0.07606037 -0.05778253 -0.09366506
-0.07046168 0.056055807 0.17041603 -0.0060411314 0.10011803 -0.118489355 0.1773856 0.10833809
0.056997363 0.03476396 -0.06389795 -0.021775022 -0.0035397264 -0.07015665 -0.11221438 0.049210418
0.10532369 -0.087524876 -0.060749684 -0.13807318 0.056664243 -0.23341487 -0.06188228 0.08298205
-0.037067138 -0.0333546 0.031916846 -0.09105917 0.037822198 -0.09515763 -0.08412451 -0.080699354
0.0146980835 -0.033478186 0.023276597 -0.042071138 -0.06984555 -0.100675926 -0.17887746 -0.106311455
0.056199145 0.06322406 -0.12209466 0.032811012 0.057801973 8.23307e-05 0.007928408 -0.0880827
0.095093064 0.0016559893 0.11347081 0.016432466 -0.14131565 -0.037732948 0.10115549 0.016135463
0.14593166 0.057394955 0.0797641 -0.07161325 0.049958225 -0.013628484 -0.00037753666 0.13442874
0.105142854 -0.14246434 -0.061620913 -0.098150015 -0.14786364 -0.08949861 0.11532823 0.057045758
-0.20767486 0.16526622 0.079403415 -0.015995082 0.14881131 0.048390944 -0.013877316 0.1629338
0.14150088 0.092004575 0.078349195 0.0012601243 -0.055444844 0.1526152 -0.047670927 0.07688526
-0.10242436 -0.12016472 -0.069694765 0.054692056 0.02872121 0.014678883 0.05154883 -0.09749031
-0.00713136 -0.04674334 -0.15177162 -0.1377165 -0.17846572 0.11486432 -0.054443806 0.13334523
-0.10777755 -0.17696947 -0.087652706 0.024704464 -0.041150015 0.15078646 -0.13512026 0.17465249
-0.19473967 0.006692297 -0.1459008 -0.19557552 -0.10532655 0.052752275 -0.0962653 0.17533772

FacTc f4 [32, 32, 32]
00000000: 3501 0b3b df1f ef3c 5a9c 39bc 34d1 20bd
00000010: ae19 36bd e2e8 0d3d f314 67bd e861 433a
00000020: 8e69 dfbb 3d8e 26bd c8a6 9a3c 1ab6 363d
00000030: 4009 1bbb eb79 1dbc 28d9 fcbc 0a35 1fbd
00000040: e7dd 5c3c 17ca 8a3c 7c1f adbb 080e 493b
00000050: 4df5 d1bc 920a f33c 1982 663c 95d6 37bc
00000060: a3f0 1c3d 4776 bdbc fe8a e83c 00c9 da3c
00000070: 60a4 3a3d 0eb1 0b3d 39af 493b 8039 6d3d
00000080: 9088 4f3d 122d 39bc 82b2 0fbc af85 f1bc
00000090: c194 763b ce40 78bc 4a79 4cbd 7f2a 5a3d
000000a0: f775 a03d b259 a2bc c974 25bd 0acd 7139
000000b0: 399c 183d 3c15 74bc ef9d 003d b9be 253d
000000c0: cd08 04bd 3abc 36bc 2bc9 6cbc 7cc4 233c
000000d0: 12da 5dba dc83 92bc 4ed9 01bd ef77 5a3c
000000e0: 529a c43c ad8f 3ebd 2bb1 b03c 37cd 153d
000000f0: 9fcb 05bd d5cd 15bd 6a55 4ebc ac41 77bc
00000100: 1892 dc3c ccc2 7ebd d059 51ba 9e31 d33b
00000110: cf5b 9cbd d518 37bc 510e b73c 38c4 40bd
00000120: ac55 523b 247f 843c 1ab8 6fbc 36c5 9bbc
00000130: b7c8 8abc c250 2a3d faeb 24bd d704 b4bc
00000140: a26c 09bd d3cf 713d 0da2 4dbc b969 203b
00000150: c3be 56bd deac 1d3c 4ea6 97bc 84e1 4f3c
00000160: 1147 f93b 245e c2bc f3e8 343b 4f04 48bd
00000170: 51d2 393d 132d cebc 9c7e 443d d79a 743c
00000180: 4b9d 5abc 4778 24bd 66e8 fc3a 0315 213c
00000190: fd83 3bbd e61e 233c 9672 783c 997d 5cbd
000001a0: 87a0 ff3b 4822 23bd afbe 0a3d 4e5a a8bc
000001b0: 40d0 b83c aeb7 883c a079 0dbc e7e1 54bc
000001c0: 52e8 0ab9 1c6e a8bc 3108 0d3d 1cba aebd
000001d0: a80f 08bc 8c79 3a3d 960a a3bc 5154 79bd
000001e0: 2e44 313d 714c 213d e533 2fbd 2640 4abc
000001f0: b892 2e3d 6498 99bc 328e 323d a515 e7bc
00000200: 50d0 e5bb 7c39 623c bd28 873b b939 213d
00000210: 6550 55bd e8ed 20bd 695e ee3c 833d 023d
00000220: 8f90 f13c 5f53 5bbd f7fe 9abd e546 ad3c
00000230: 1606 063c d849 12bc 6ba4 0b3c cdf2 043d
00000240: f400 e43c dd83 893a 8705 84bc 5a43 4dbc
00000250: c759 8cbd df6c 613c e832 08bd b483 3abc
00000260: 01e2 bebc 7351 fe3b f2e1 b23c ad0e 73bc
00000270: fd7c 22bc 4372 bf3c 44b3 b43c 2a06 4aba
00000280: 8258 eb3c 048d 64bc 3271 8f39 4a0c 463d
00000290: 5c90 043c cf96 7fbd 6061 663d be48 5e3c
000002a0: d6b2 fabc 0e4d 023d 220f 7d3b 3627 803d
000002b0: f783 d6bc 19f0 8a3c 6d87 dfba 7623 b4bc
000002c0: 6488 01bd 0add 2b3d 46f0 95bd c635 123d
000002d0: b7b5 2fbd e821 11bd 8ef2 92bb 88d0 3f3b
000002e0: df2c 2f3d e9d6 2bbc e759 e8bb c8fa 6f3d
000002f0: d289 30bd 0aef 3d3d 00a7 68bc 7630 3d3d
00000300: cee0 8d3a da34 2d3a a50f 303d 454b 8c3d
00000310: 5b38 6f3d 7876 0dbd a63b 04bd 39a2 b83c
00000320: ee47 10bc c350 ea3b d7ea d6bc 7aa2 923c
00000330: 737e 893c f377 e03b a99a 81bd f91b 12bc
00000340: bbf6 0ebc 0eed c9bc fe5f db3b ad8d c5bc
00000350: 1acd 743d 869f c1bb 565c 90b9 6e87 d63c
00000360: 7886 93bd a63e 38bd 103d d7bc ee9f 05bd
00000370: b1c5 3abd 5da0 a53c 2456 c13c b543 e3bb
00000380: 6a81 d1bc bb77 a23c c599 63bd 9bb4 0bbb
00000390: c89f ca3c 7e91 283c eba2 303d ba4b 92bd
000003a0: 7d32 4cbb 3d23 38bd ad1c 4dbd 71e4 773d
000003b0: ab6b a23b f510 073d 584e dfbc 51b1 3ebd
000003c0: a754 773d 2dd9 e8bc f6dc 4b3d f6db 6fbd
000003d0: 4309 4b3d a3ac 2cbd ffcd 10bd 248f a9bb
000003e0: 38a1 713c 9dab 0abd e57f 45bc a8da 3eba
000003f0: 65c7 47bd 9858 0ebc d09f 0f3d 6474 2cbd
0.0021210436 0.029190002 -0.011328781 -0.03926201 -0.044458084 0.034645922 -0.056416463 0.0007453249
-0.006818003 -0.040662993 0.018878356 0.04460726 -0.0023656636 -0.009611587 -0.030865267 -0.03886894
0.01348064 0.016942067 -0.0052832942 0.003067853 -0.025629664 0.029668126 0.014069104 -0.011220594
0.038315427 -0.023127688 0.02838659 0.026707172 0.045566916 0.0341044 0.0030774607 0.057916164
0.050667346 -0.0113022495 -0.008770587 -0.02948269 0.0037625285 -0.015152169 -0.049920358 0.053263184
0.07835 -0.01981816 -0.040394578 0.00023059934 0.03725836 -0.014897641 0.031400617 0.04046509
-0.032234956 -0.011153275 -0.014452259 0.009995576 -0.0008462976 -0.017885141 -0.03170138 0.013334258
0.023999367 -0.04652374 0.021568855 0.03657266 -0.03266489 -0.03657325 -0.0125936065 -0.015091341
0.026925132 -0.06219749 -0.00079861004 0.006445124 -0.076346986 -0.011175354 0.022345694 -0.04706213
0.0032094521 0.016173907 -0.014631296 -0.019014936 -0.016941411 0.041580923 -0.040264107 -0.021974964
-0.033550866 0.059036087 -0.012550843 0.0024477078 -0.05242802 0.009623734 -0.018511917 0.012688044
0.0076073487 -0.02372653 0.002760467 -0.048832234 0.04536659 -0.025167977 0.047972307 0.014929495
-0.013343166 -0.040153768 0.0019295334 0.00983167 -0.04578017 0.009956097 0.015164038 -0.053830717
0.007801119 -0.039827615 0.033873256 -0.020550873 0.022560239 0.016689148 -0.008634955 -0.012993312
-0.00013247252 -0.020560317 0.03443164 -0.08531591 -0.008304514 0.045526072 -0.019902509 -0.060871426
0.04327791 0.03937954 -0.0427741 -0.012344396 0.04262039 -0.018749423 0.04359264 -0.028208563
-0.007013358 0.013807651 0.0041247294 0.03936169 -0.052078623 -0.039289385 0.029097753 0.031796943
0.029487876 -0.053546306 -0.07568162 0.02115197 0.008180162 -0.008928739 0.008523087 0.032458115
0.027832486 0.0010491569 -0.016115917 -0.012528265 -0.06853061 0.013758867 -0.033251673 -0.01138394
-0.023301126 0.0077611743 0.021836255 -0.014835042 -0.009917495 0.023369914 0.022058137 -0.0007706607
0.028728727 -0.013949636 0.00027359423 0.048351564 0.008091059 -0.06239968 0.056245208 0.013567148
-0.030602854 0.031811766 0.0038613756 0.06257479 -0.026185973 0.01696019 -0.001705391 -0.021989565
-0.031624213 0.041958846 -0.07321219 0.035695814 -0.042897906 -0.035432726 -0.004484481 0.0029268581
0.0427674 -0.01048825 -0.0070907953 0.058588773 -0.043100186 0.046370544 -0.014199972 0.046188794
0.0010824443 0.0006607302 0.04298367 0.06850294 0.058403354 -0.03453681 -0.032283448 0.022538291
-0.008806212 0.007150741 -0.026235027 0.01789974 0.016783928 0.0068502366 -0.06328327 -0.008917802
-0.008725817 -0.02464917 0.006694793 -0.024115408 0.059765913 -0.0059089093 -0.00027534616 0.026187625
-0.07203382 -0.04498162 -0.026274234 -0.032623224 -0.04559869 0.020218069 0.023600645 -0.0069355615
-0.025574405 0.019832483 -0.055566568 -0.0021317366 0.024734393 0.010288594 0.04312412 -0.0714335
-0.0031158023 -0.04495548 -0.050076175 0.060520593 0.0049566827 0.032975156 -0.027259037 -0.04655582
0.060383465 -0.02842387 0.04977127 -0.05855938 0.04956938 -0.042156827 -0.035352703 -0.0051745344
0.01474791 -0.03385507 -0.012054418 -0.0007280507 -0.04877414 -0.008688115 0.03506452 -0.042103186

head.weight f4 [10, 768]
00000000: 25f8 7a3d 4ca4 a53d 2c77 203c fdaa bb3d
00000010: e8d6 9b3d 7874 073e 29d1 03bd 26b2 d3bd
00000020: c488 4e3b 0a31 893c 0b6a bf3c ac0c 8fbc
00000030: 4087 97bd 061b ffbd 1d23 00bd 8c1e dcbc
00000040: bdad 483d a92d 003d acac be3b 8e14 68bc
00000050: 2417 bcbd 2084 e33d aa13 d9bb 732c 47bd
00000060: 15ef 603a 77f5 0f3d d397 62bb 4202 b63c
00000070: 1027 29bd c5d0 76bd f673 e3bc 7ea8 81bd
00000080: 9037 f5bd 654d 44bc d176 e93d e68a 95bc
00000090: d992 b2bc ec08 983c a749 d9bd 2de2 ca3d
000000a0: faf6 a33d 9ea1 90bd 53fb afbd 55be 45bd
000000b0: 7c3a eabb c4f9 5bbd cdfe 8a3d 9e34 7f3c
000000c0: b850 c03d b85a b23d 050f b53c bc22 03bd
000000d0: b429 a43d c39d 3e3c 703f 06be 4de4 bc3d
000000e0: f370 b1bc a7c0 043d 9a12 2f3d 6560 053e
000000f0: 0585 c23d 3a61 f4bc 8b7d d5bd f4d0 0a3e
00000100: 56d0 10bd f867 0c3d 75f2 253d 339d 5d3d
00000110: 89f8 0b3e fd73 903d 6506 b4bb 867b bdbd
00000120: 8abd 19bd 9837 673c dbf6 023d 20bd 3fbd
00000130: c8ec 4ebc 9c37 bd3d 24db 80bd 1988 633d
00000140: 37c1 dbbd 4e01 dcbd 1579 4cbd 3462 edbc
00000150: a317 55bb c73c 12bd 4c82 1f3c d42d f33c
00000160: 2510 d3bc c934 e93c dbfc ff3d 35a2 b5bd
00000170: 1ba2 043c cba5 163d cfb3 273d d7aa b93d
00000180: f5a0 2fbd c6d4 24bc c485 bdbd 7208 ebbd
00000190: 3cb9 59bd 42ae 933d 654e 8b3d 5724 85bd
000001a0: 6021 f43c 0947 87bd 51c3 60bd 51dc 7b3c
000001b0: f20b 443d a0c5 f0bc 03f0 5ebd 967e 0cbd
000001c0: 76c6 423d 44fc 333d 4f46 163d bb19 b03b
000001d0: 2bc2 273d 87de ea3d 2a95 043c fed8 1abe
000001e0: 840d 863d 850d ccbd 6736 5fbd ba04 083e
000001f0: 4401 a5bd cafe 16bd 244c 2cbd ca83 d53d
00000200: 65cf 88bd 4708 11be bf42 d9bd e13c 3e3d
00000210: 8447 bcbd bf9d 633d 2f58 bbbc 70d4 9ebc
00000220: 66d8 503d 996f 973d 0a7d 7f3c 064a b1bd
00000230: 3a99 8cbc cedd 963c e3ac 013e e5dd 7fbd
00000240: f368 9ebd b9bf e6bc 31ac bcbd 12c2 3ebd
00000250: 6b14 8d3c e0b9 d2bd 059c 913c 9400 0d3d
00000260: 1987 e73d f4f1 ad3d f6f1 d1bc 9aaf c8bd
00000270: 9d30 8ebd 8950 ee3d 302c 103d a102 d73b
00000280: 54ef 213d 8415 3a3d 95a6 c23d 73ff c83d
00000290: 5009 b3bc 67ee 32bd b82b dc3c ae56 203d
000002a0: b057 b4bc f0fa de3d 6e23 97bd bdda ecbd
000002b0: 5348 d9bd 30f0 ca3b 812a f63d 1e87 d33d
000002c0: 4411 b5bd 674a fc3c 44de 46bd e26c 91bd
000002d0: ca51 28bc 54ac b33d f3f4 cdbd 22f0 2abd
000002e0: 448b c1bc 3c65 c1bd d88e ba3d 6bdc 1fbd
000002f0: 2ddb 61bb 8a05 1ebd 8b09 833d fd4d 833d
00000300: 60d4 febd a818 e63d b47c 5e3d 18d7 bb3c
00000310: e75d 7c3d 4092 d7bd 5f4c 37bd 82cc 1fbd
00000320: f0b8 9f3d f36d d0bc 5647 1a3d 549b ddbc
00000330: 727a 993d ba34 bfbd b100 a23d 1261 8c3d
00000340: a6dc ab3c ba74 223d ae9f a6bd 667c 63bd
00000350: 3bb7 843d b50f d63c 13d0 18bc f917 db3b
00000360: afda a4bd 0f69 82bd 1373 863d b49b 853d
00000370: db12 d5ba 5083 8d3d 767c 30bd 85e9 0ebe
00000380: 765d a2bd e20a eebd 49f3 cd3d 954a 5bbd
00000390: 6ece a83d 8f84 303c c5f6 b23b 7877 d73c
000003a0: 5ea9 88bd e324 7dbc 785e 76bd fb67 4bbd
000003b0: 26eb d4bc e4ba b3bc 4d0d 00bd d8f1 1ebd
000003c0: b212 a8bd bb17 88bd 54ae c2bd 931d a1bb
000003d0: bd3d f23c 87df e4bc b82b 1b3d 7840 f7bc
000003e0: 5968 4abd b006 7fbc a944 82bd 3f89 213d
000003f0: 0f8b 633d ab30 093d 6f01 0cbe 533b 0dbe
0.061271805 0.08087978 0.009794038 0.09163473 0.076093495 0.13228023 -0.032181893 -0.103367135
0.0031514624 0.016747016 0.023365995 -0.017462097 -0.07398844 -0.12456326 -0.031283487 -0.026870035
0.048993815 0.031293545 0.005818924 -0.014165057 -0.09184101 0.11109185 -0.0066246586 -0.048626374
0.0008580548 0.035146203 -0.0034575358 0.022217873 -0.04129702 -0.060257692 -0.027765255 -0.063309655
-0.11973488 -0.011981343 0.113996156 -0.018254708 -0.021798538 0.018558942 -0.10609751 0.09906421
0.080060914 -0.07062076 -0.08592858 -0.048277218 -0.007148085 -0.053704992 0.06786881 0.01557651
0.09390396 0.087087095 0.022101888 -0.032015547 0.08015767 0.011634293 -0.13110137 0.092232324
-0.021660304 0.03241029 0.04274235 0.13025053 0.09498028 -0.029831517 -0.10424336 0.13556272
-0.035354935 0.03427884 0.04051443 0.054104995 0.13669027 0.07053373 -0.0054939264 -0.09252076
-0.037534274 0.014112376 0.0319737 -0.046811223 -0.012629695 0.09239122 -0.06291798 0.055549715
-0.10730212 -0.10742436 -0.04992016 -0.028977491 -0.003251531 -0.035702493 0.009735655 0.029684938
-0.025764534 0.028467553 0.124994 -0.08868829 0.00809529 0.036779206 0.040942963 0.09065788
-0.04287811 -0.010060495 -0.092540294 -0.1147622 -0.05315517 0.072109714 0.06802062 -0.06501072
0.02980107 -0.06605346 -0.05487377 0.015372352 0.047862954 -0.02939111 -0.05442811 -0.03430041
0.04755255 0.04394175 0.036688145 0.005374161 0.040956657 0.11468225 0.008092204 -0.15121838
0.06545547 -0.09963516 -0.05449524 0.13283053 -0.08056882 -0.03686408 -0.0420648 0.104255274
-0.06680182 -0.14163314 -0.10608434 0.046444777 -0.09193328 0.05557036 -0.022869198 -0.019388407
0.050987624 0.073943324 0.0155937765 -0.08656697 -0.017162908 0.018416312 0.12663607 -0.062467474
-0.07734861 -0.028167592 -0.092125304 -0.0465718 0.01722165 -0.10289359 0.017774591 0.03442438
0.11305065 0.084934145 -0.025628071 -0.09799118 -0.06942866 0.116364546 0.03519839 0.0065615927
0.03953488 0.045430675 0.09504429 0.09814348 -0.021855026 -0.04368439 0.026876315 0.039145164
-0.022014469 0.10887706 -0.073798046 -0.115651585 -0.10609498 0.0061931834 0.12019826 0.10328506
-0.08841184 0.030797197 -0.048551813 -0.07100846 -0.010273406 0.08773103 -0.10056486 -0.041732915
-0.023625977 -0.09443137 0.091092765 -0.039028566 -0.0034462914 -0.0385795 0.063983046 0.064113595
-0.12442851 0.112351716 0.054318145 0.022929713 0.06161299 -0.10525942 -0.044750568 -0.039013393
0.07798946 -0.025443053 0.037665688 -0.027051605 0.07494058 -0.09336229 0.07910288 0.06854452
0.020979237 0.0396621 -0.08135925 -0.055538557 0.06480261 0.026130537 -0.0093269525 0.0066862074
-0.08049523 -0.063676946 0.065649174 0.06523839 -0.001625623 0.069098115 -0.043087445 -0.13956268
-0.079279825 -0.116231695 0.100561686 -0.053537924 0.08242498 0.010773792 0.005461546 0.026302084
-0.06672929 -0.015450689 -0.060148686 -0.04965971 -0.025991034 -0.021939702 -0.031262685 -0.03880486
-0.08206691 -0.06645151 -0.09505907 -0.0049168556 0.029570455 -0.027938617 0.03788349 -0.030182108
-0.04941592 -0.015565559 -0.06360752 0.03943753 0.05555254 0.03349368 -0.13672422 -0.13792162

head.bias f4 [10]
00000000: 840c 08bd dca4 4abc 5f2c 85bc 6ec4 ef3c
00000010: 0341 cfbc 759d 843c f254 28bc bdf6 1cbb
00000020: 6d5a d7bc ae00 e6ba
-0.03321506 -0.012368407 -0.01625651 0.02926847 -0.025299555 0.016188363 -0.010274159 -0.0023950778
-0.026288236 -0.001754781

FacTu.weight f4 [32, 768]
00000000: 7158 54bd 0d97 a63c cb41 853c f111 8c3c
00000010: ab0c b0bc 45c6 053d 6531 a63c f325 febc
00000020: 7dd9 a03c cb74 65bc 1062 653d 4bc6 253c
00000030: e4e4 f13c 4e19 fa3c f5cb 893b 0cdd e73c
00000040: 687e f8bc 5068 273d 06bb a2bb 64d3 51bd
00000050: b6b9 093b 249d 1b3c 52eb ee3c 3722 143d
00000060: 9445 783c ab4e 5d3c 4885 17bd 0b85 b2ba
00000070: 2ef3 143d 5e9d 483c 3bea 8ebb 54c7 0cbd
00000080: 576c 023d e1a6 243c e5f0 733b e117 953b
00000090: 074d 343c 0129 763d cedc d33c 9d91 06bd
000000a0: 8d49 043d 4335 6c3c 9f46 443c 8c66 9cbc
000000b0: 758f 22bd 2081 bdbc cc92 39bd 2fad 3d3d
000000c0: de5b 063d aad2 533d 632d 4f3c 9ed5 a7bc
000000d0: c877 85ba 4a26 313c b6e5 d33c e035 2bbd
000000e0: 49f6 a73c c77d 31bd df49 95bc c056 0fbd
000000f0: c107 6cbc 1da4 0f3c c4cf 1b3d 7eec ccbc
00000100: 70d2 aebc b770 24bc ed30 7c3d ec11 d8bc
00000110: 9c26 dd3b e6c6 06bc a723 22bd b288 3abc
00000120: 8669 54bd cadd 76ba aff7 97bc 4412 1d3c
00000130: 88ed d13c b8bd 2b3d 8325 d0bc 39a7 9abc
00000140: ca65 623c f40a 13bd 1917 2a3d 4c37 aa3c
00000150: bc96 57bd 0f79 d3bc 53d1 9f3c e856 33bd
00000160: 0e87 15bd 9f51 85bc f656 ad3c 969a 3f3c
00000170: f966 3abd 44b8 8e3c bbf5 d83c dca2 9abd
00000180: 50d3 943c 5565 a9bc f10c 2d3d cf27 9aba
00000190: 5fbe 3e3d c46c 923c 821f 593b f013 ab3b
000001a0: 60bd c7bb a48d 04bd 5a97 a1bc 08ad 693d
000001b0: 9b12 403d 858f 113c 61b6 0cbd cfa0 28bb
000001c0: dbdd 4d3b 1dcb 863c f6ac 47bd d006 09bc
000001d0: a669 243c ef0a d13c ad41 07bd e0dc 21bd
000001e0: f40e 073c 7e5f 933c bbdd 6dbd c0a0 2fbd
000001f0: 5ea3 183c dd9f e03c 53b5 f73b 1d4b 22bb
00000200: d754 5cbc eaac 22bd 4187 853c 0872 943b
00000210: 8359 453c 3890 e7bc 6124 00bc 4f2b 053d
00000220: a97c 77bd fdfe 6a3c f39b a0bc daf0 a2bc
00000230: 31ba abbc 87cf edba c4f6 44bd a4e0 d83c
00000240: b1f3 9b3c 81fd 4e3d 02cd d7bc 40c4 6cbc
00000250: 1a24 85bc 19dc 2bbd 09d0 ee3b 0139 3c3c
00000260: b022 d73c 885c 95bb 57e2 78bc cf61 2e3a
00000270: ddee 3a3c 8464 0cbb 2432 de3c 3ec9 0fbd
00000280: 4066 b2bb 6a6a 9abc 6aba 133d 0e64 0cbd
00000290: ab5f febc 0322 57bb e11a 0f3a cc4e 883b
000002a0: ff18 733d d028 1f3d e8f4 47bc 0bf9 15bd
000002b0: 9883 babc 1d77 943c 78f2 c4bb ca5e c4bc
000002c0: cfdf cf3c 149e 973c c511 283c 562b 8abc
000002d0: 9070 8d3c e9be 0a3d 27d1 65bc da23 9bbc
000002e0: e6d9 34bd 6d27 f4bc c906 dfbb 4a58 1d3d
000002f0: de11 20bd 419c f93c 29e7 a23c 9953 04bc
00000300: 8261 093d 5abe 0f3c 2ec8 e6bc 93d1 883b
00000310: 29c5 61bc 406e dcbc 2c3b 32bc 8942 943c
00000320: a221 efbc ece9 2dbc ae3f 123c 8b6d 4fbc
00000330: d7db 1fbd a995 d1bc 0fc0 71ba 8df2 c23c
00000340: 7d62 023c 1435 15bc a314 e83b eeab cf3c
00000350: b640 89bc d080 093d 23bf 2fbc eff7 93bd
00000360: 2f71 363b b347 54bb e1d3 da3b c270 debc
00000370: d92b 413b 6521 67ba a9b3 94bc da86 99bb
00000380: 30b8 8abd 6240 183c 1695 c0bc bcfa 87bc
00000390: 48d2 3d3d 1441 e53c 3e0e 083d b767 7fbc
000003a0: 6a54 573b 4806 afbc 3adb 5cbc d4b1 c13c
000003b0: c693 213d 9542 5cbd 3eea e7b8 c4ff 96bc
000003c0: 9be9 343c 46c7 37bd ea6c afbc 9b17 c93b
000003d0: 9488 42bc 60a8 b8b8 9020 1a3c b218 a03c
000003e0: 5a3f e6bc 7bf6 0ebc 438d 07bc 303f d53c
000003f0: 5ef1 9fbb 5935 8bbd cf23 d8bb b7ea 9e3c
-0.051842157 0.020335699 0.016266724 0.017098399 -0.021490416 0.032659788 0.020287225 -0.031023955
0.019634956 -0.014004896 0.056001723 0.0101180775 0.029528089 0.030529644 0.004205222 0.028303646
-0.030333713 0.040870965 -0.0049661426 -0.05122699 0.0021015233 0.009497914 0.029164944 0.036165442
0.0151533075 0.013507525 -0.03699234 -0.0013619972 0.036364727 0.0122445505 -0.0043614185 -0.03436978
0.031841602 0.010049553 0.0037222442 0.0045499657 0.011004693 0.060097698 0.025862124 -0.03285371
0.032296706 0.014416995 0.011979728 -0.019091867 -0.039687593 -0.02313286 -0.045306012 0.04630774
0.032802455 0.051714577 0.012645098 -0.020487603 -0.0010182792 0.0108123515 0.02586637 -0.041799426
0.02050318 -0.04333284 -0.018223701 -0.03499484 -0.014406146 0.008767155 0.038039938 -0.025015112
-0.021340579 -0.010036639 0.061570097 -0.026375733 0.0067489874 -0.008226132 -0.039584782 -0.01138513
-0.051858447 -0.00094172044 -0.018550722 0.009586874 0.025625959 0.041928977 -0.025408512 -0.018878566
0.013818214 -0.035899118 0.041525934 0.02077832 -0.052633986 -0.025814561 0.019508993 -0.043784052
-0.03650575 -0.016274272 0.02115963 0.011694571 -0.04550836 0.01742185 0.02648436 -0.07550594
0.018167168 -0.020678202 0.04224867 -0.0011761131 0.04656827 0.01787413 0.0033130352 0.0052208826
-0.0060955733 -0.03236164 -0.01972549 0.05704978 0.046892744 0.008884315 -0.034353618 -0.0025730615
0.0031412754 0.016454274 -0.048748933 -0.008363441 0.010034954 0.025517909 -0.033021618 -0.039517283
0.008243311 0.01798987 -0.058072787 -0.042877913 0.0093162935 0.027419979 0.0075594573 -0.002476401
-0.013447962 -0.039715685 0.016299846 0.004530195 0.012045267 -0.028267011 -0.007821173 0.032512005
-0.06042162 0.0143430205 -0.019605612 -0.019890238 -0.020962806 -0.0018143513 -0.048086897 0.026474304
0.0190371 0.05053473 -0.026342873 -0.0144510865 -0.016252566 -0.04195795 0.0072879833 0.0114882
0.026261657 -0.0045581497 -0.015190682 0.0006652148 0.0114094885 -0.0021422217 0.027123518 -0.03510403
-0.005444318 -0.01884957 0.03606645 -0.034275107 -0.031051477 -0.003282667 0.00054590224 0.004159784
0.05935001 0.03885728 -0.012204386 -0.03661446 -0.022767827 0.018123204 -0.00601035 -0.02397098
0.025375275 0.018507995 0.010258143 -0.016866367 0.017265588 0.033873472 -0.014026917 -0.018937994
-0.044153117 -0.029803956 -0.006806229 0.038414277 -0.03907954 0.030470015 0.019885616 -0.008076572
0.033540256 0.008773411 -0.028171625 0.004175374 -0.013779917 -0.02690804 -0.0108783655 0.018098133
-0.029190842 -0.010614853 0.008926315 -0.012660394 -0.039028015 -0.025584059 -0.00092220394 0.023797298
0.007958052 -0.009106893 0.007082538 0.025350537 -0.01675449 0.03357011 -0.010726723 -0.07225024
0.0027838459 -0.003239137 0.00667809 -0.027153376 0.0029475598 -0.0008816927 -0.018152075 -0.004685265
-0.06773412 0.009292694 -0.02350859 -0.016599052 0.046343118 0.027985133 0.033216707 -0.015588692
0.0032856711 -0.0213653 -0.013480002 0.023644365 0.03944757 -0.053774435 -0.00011058569 -0.018432505
0.011042024 -0.044867776 -0.021414239 0.006136847 -0.011873383 -8.805166e-05 0.009407178 0.019543026
-0.02810638 -0.008725758 -0.0082734255 0.026031107 -0.004881068 -0.06797285 -0.0065960656 0.01939903

FacTv.weight f4 [768, 32]
00000000: 7f56 443c a2d1 0ebd afae 453c 97c3 5639
00000010: 45ec 50bb 1fb6 19bb 2f3b 34bc df35 2fbc
00000020: 9783 0c3c 4cef 6c3c c3bd 8f3c 11bd ba38
00000030: e5a1 153c 76eb ecbb 508e 633c 7c9f 2fbc
00000040: d93e 563c fb6c d8bb 6c84 bbbc f399 f93c
00000050: 329c a2bb 9fc2 223c 36e2 9c3c f0ef 883c
00000060: 2e24 893c 526c af3c 4fa4 2abb 4557 59bc
00000070: c90f ae3b 02a3 8bbc bc71 013b c444 84bc
00000080: 27d7 643d 09c2 2e3c 62d5 413c 7034 57bc
00000090: f63c 82bc 0ec0 93ba d6b6 d63c cc50 0a3c
000000a0: 5ccc 0f3d 22a3 11bc d2fc 4dbc 708d 95ba
000000b0: 33be bf3c 70ab a63c 8dcb ab3c 800f 66bb
000000c0: 17ab 01bc 3a68 f53c 85fc aabc d733 223c
000000d0: 6528 113b 9a8c 9cb9 95ca 2c3c 1b2c b03b
000000e0: cc6a 1bbc 6c38 6c3c 3999 d339 e45b 003d
000000f0: c67c dd3b d4f9 863c 226f df3c b4b5 2ebd
00000100: bf46 66bb 8afa 163c bf8c 01bc 579d e73b
00000110: 68de c03c ded0 833c 9852 1abc 2cca b4ba
00000120: bc9a 013d bc6a f0bc e9c5 2abb 57a4 4d3a
00000130: 2be9 5bbc 6c54 163d 8b2d 83bc 3fd2 00bc
00000140: 0122 76bc f387 3abc 4f11 b13c 261d fbbb
00000150: 5213 e9bb 4b3b 9b3c eb87 4abc 9fd9 9cba
00000160: f8c1 8a3c 6153 533b e741 1cbc 8c42 49bc
00000170: 38b7 9bbc 0a5c 99bc 64ec 2dbb a721 71bb
00000180: b9fa 20bc b1cd 6fbd 9ca3 cebc bf59 13bc
00000190: c3f3 653c 04cf eabc dd4a cebc c5fb 41bc
000001a0: 99be cebc ff63 01bc 722a a0bb d70e 16bb
000001b0: 1c51 4a3c c2c1 7ebc 4a54 a8bc cee4 2c3c
000001c0: 4f0b 49bc 0c5b b43c 3fb2 d43b 86a2 3d3c
000001d0: 6edd b23c 1474 74bc 5f29 20bb 3903 8ebc
000001e0: 63f6 ccbb f82c 05bd afda b33c 725f b63b
000001f0: 0223 dc3a 0dad af3b 9236 a7bc 9d66 02bd
00000200: f86f 5938 20a4 e03c 9ce4 e9bc ab48 3e3b
00000210: 4d6c a3b9 5531 6b3c c7f7 c83b 5d75 853c
00000220: da6b 2a3d 7454 553c 6a28 0cbc cc0e 573c
00000230: 63e5 9b3b 9dd6 993c 96c1 4ebc 1e1e 9b3b
00000240: 4680 a03c 1c31 3bbc f166 7a3c aa03 c5bb
00000250: b8fb b2bc 0e30 973c 7019 8cbc d109 8abc
00000260: 427d af3b d2bb a9bc 65fc 01bc d661 e63b
00000270: 723c 013d e42e 96bc 8677 8ebb f500 7fbc
00000280: 0408 1a3b 4e6c 07bc 2573 3bbd 3fba 1ebc
00000290: 6f9a 173c cc5e 023c 2b73 5cbc f987 553b
000002a0: c167 3b3d be1a bd3c 83aa e1bc 37d7 12bd
000002b0: a838 26ba f829 abbc 9961 4b3c 8b81 a6bc
000002c0: ff19 033c fc15 a53c ed09 2e3c 01ed ab3c
000002d0: b8f6 203b 1fc0 96bc f388 ce3b 08a3 83bb
000002e0: 6481 04ba 3384 debc c163 153c deb9 a03b
000002f0: 1afc 37bc 2c0e 51bb 730a 153c bbde c83c
00000300: 3ad2 0a3c 8bd6 45bb 2952 8abc a9cd 1f3b
00000310: 514a 7ebc 8a4c b1bc b1b0 933a 3db2 813c
00000320: ae64 7f3b 313f 203c b526 aebc ebbb 9cbc
00000330: 9b45 11bc d1c9 38bc ddd2 8b3a 5897 56ba
00000340: 3126 bfbb 293a ebbc 1c11 743b 624f 7dbc
00000350: 2064 50bb 22f5 9e3b 19d8 3f3c bf38 e539
00000360: 37c7 9cbc b2f2 4d3c 5fff 7f3a 9fed 33b9
00000370: 05df a8bb 85eb 073c da53 ec3c 994b 0b3c
00000380: 31da 133c 90cc 3f3a d2f9 dfbc 4cda cd3b
00000390: 5dce 523c b9c7 69ba ced1 c3bc b924 e73c
000003a0: 86cf 5dbc 39b7 8fbc 2935 a33c 074a adbb
000003b0: 166f 6fbc 8b4c acbb 68b9 1cbb ae75 b5bc
000003c0: 78e6 2d3c d329 50bb 77b0 943a cca9 55bc
000003d0: 9fd3 99bc 28b1 653b 4214 3c3c 204c cdbb
000003e0: e40f d5bc 05a7 cebb 8a37 03bc 2ff8 393b
000003f0: c5d9 e13a b908 813c ef39 463c 6c3b ca3c
0.011983513 -0.03486789 0.012065574 0.00020481493 -0.003187911 -0.00234545 -0.011000439 -0.010693996
0.008576295 0.01446135 0.01754654 8.9043875e-05 0.009132837 -0.0072302176 0.01388891 -0.010719176
0.0130765075 -0.0066047884 -0.022890292 0.030468917 -0.0049624676 0.009934097 0.019150835 0.016715974
0.016740885 0.021413956 -0.0026037877 -0.013265436 0.0053119403 -0.017045502 0.001975163 -0.016146071
0.055869248 0.010666379 0.01183066 -0.013135061 -0.015898209 -0.0011272447 0.02621023 0.008442115
0.035107 -0.008888992 -0.012572484 -0.001140995 0.023406124 0.02034542 0.020971084 -0.0035104454
-0.007914326 0.029956926 -0.020872364 0.009900055 0.002214932 -0.00029859395 0.010546346 0.0053763515
-0.009485912 0.014417749 0.00040359216 0.031337634 0.006759259 0.01647655 0.027274672 -0.042653754
-0.0035137383 0.009215007 -0.007907092 0.007068317 0.023543552 0.016090807 -0.009419106 -0.0013793162
0.031641707 -0.02934777 -0.0026057905 0.0007844618 -0.013422291 0.036701605 -0.016012928 -0.007862627
-0.015022756 -0.011384952 0.021614699 -0.007663387 -0.007112899 0.018949172 -0.012361507 -0.0011966712
0.016938195 0.0032245743 -0.009537197 -0.012283932 -0.019008264 -0.018720645 -0.0026538605 -0.003679374
-0.009825402 -0.058545772 -0.0252245 -0.008993565 0.014035168 -0.028663166 -0.025182182 -0.011839812
-0.025237368 -0.007897376 -0.0048878724 -0.0022897029 0.01234844 -0.015549125 -0.020548005 0.010552598
-0.012270763 0.02201607 0.006490975 0.011574393 0.021834102 -0.014920253 -0.0024438722 -0.017335521
-0.0062549575 -0.03251359 0.021954862 0.005565577 0.0016795101 0.0053612054 -0.020411763 -0.03183614
5.184111e-05 0.02742201 -0.028551392 0.0029035013 -0.00031170473 0.014355023 0.006133053 0.016291315
0.04160676 0.0130206235 -0.008554557 0.013126086 0.0047575696 0.018779093 -0.012619397 0.004733815
0.019592416 -0.011425283 0.015283332 -0.0060123997 -0.021848544 0.018455531 -0.017101973 -0.016850384
0.005355508 -0.020719443 -0.007933711 0.007030706 0.031551786 -0.018332906 -0.0043477444 -0.015564193
0.0023503313 -0.008265568 -0.045764107 -0.009687959 0.009253128 0.007957172 -0.013455193 0.0032582267
0.045753244 0.02308404 -0.027547127 -0.035849776 -0.000634084 -0.020894036 0.012413406 -0.020325443
0.008001803 0.020152085 0.010622484 0.020987036 0.0024561118 -0.018402157 0.0063029467 -0.0040172376
-0.0005054681 -0.027162647 0.0091180215 0.0049049696 -0.011229539 -0.0031899316 0.00909673 0.024520269
0.0084729735 -0.0030187692 -0.01688488 0.0024384058 -0.015520648 -0.021642942 0.0011267868 0.015832061
0.0038969922 0.009780691 -0.021258691 -0.019132575 -0.008866693 -0.0112785855 0.00106677 -0.0008186004
-0.00583341 -0.028714256 0.0037241643 -0.015460821 -0.003179796 0.0048509995 0.011709237 0.00043720563
-0.019137962 0.01257007 0.0009765531 -0.00017159291 -0.005153539 0.008295898 0.028848577 0.008501911
0.009024189 0.0007316554 -0.027340803 0.0062821265 0.012866584 -0.00089180056 -0.023903754 0.028215753
-0.013538247 -0.017543422 0.01992281 -0.0052883658 -0.014613887 -0.005258148 -0.0023914222 -0.02215084
0.01061403 -0.003176321 0.0011344095 -0.013040971 -0.018777667 0.003504822 0.011479439 -0.0062651783
-0.026008554 -0.0063065314 -0.008008847 0.0028376689 0.0017231038 0.01575123 0.012098773 0.024686538
